Riproduzione/models/FD002/CNNAlternativeQUAD/CNN_alternative_QUAD_batch_1.tflite (tflite, 972876 bytes, 11 tensors)

sequential_8/conv1d_14/BiasAdd/ReadVariableOp f4 [256]
0	0xbd80705e	-0.06271432
1	0xbcf4836c	-0.029847823
2	0xbda02e27	-0.07821303
3	0xbd573cee	-0.05254834
4	0xbd80ae2b	-0.0628322
5	0xbd3c032e	-0.04590147
6	0xbdd1b69e	-0.102399096
7	0xbc300d09	-0.010745295
8	0xbd98b8f6	-0.074571535
9	0xbd6bec81	-0.057598595
10	0xbe04f830	-0.12985301
11	0xbdaec57d	-0.08533762
12	0xbdc23ff2	-0.09484853
13	0xbde62414	-0.1123735
14	0xbc7080d3	-0.014679152
15	0xbddc7c85	-0.10765938
16	0xbd890f0e	-0.066923246
17	0xbd2853c4	-0.04109551
18	0xbddfbc0b	-0.10924538
19	0xbd3ec43e	-0.04657387
20	0xbd45a8bd	-0.048256624
21	0xbd650416	-0.0559121
22	0xbcfa961e	-0.03058916
23	0xbd436473	-0.047703218
24	0xbd563783	-0.052299034
25	0xbd84494c	-0.06459293
26	0xbd9df3cc	-0.07712516
27	0xbd84a11a	-0.0647604
28	0xbd4c92a7	-0.049944546
29	0xbdbddfe9	-0.09271223
30	0xbda6ba88	-0.08141047
31	0xbda43ec8	-0.08019787
32	0xbd5d4cb8	-0.054028243
33	0xbc4c5e6f	-0.012473687
34	0xbd9081e2	-0.07056023
35	0xbdb62d45	-0.08895353
36	0xbd79522f	-0.060869392
37	0xbd8b30d9	-0.06796426
38	0xbd82ebda	-0.06392641
39	0xbda7af23	-0.081877016
40	0xbd04f3c6	-0.032459043
41	0xbd9f1b73	-0.077689074
42	0xbcd388c6	-0.025822055
43	0xbd037a31	-0.032098953
44	0xbc95c205	-0.018280992
45	0xbd35d2a9	-0.044390354
46	0xbd636c77	-0.055523362
47	0xbcccb608	-0.024989143
48	0xbd88bc6d	-0.06676564
49	0xbd2eadb0	-0.04264611
50	0xbd846300	-0.06464195
51	0xbd9c436b	-0.076300465
52	0xbd8ffdac	-0.07030806
53	0xbd95dfa5	-0.073180474
54	0xbd19e0d8	-0.037567943
55	0xbd11e94f	-0.03562289
56	0xbd31dabf	-0.043421503
57	0xbdd26350	-0.102728486
58	0xbd71b448	-0.05900982
59	0xbd5ae570	-0.053441465
60	0xbd8771bb	-0.06613489
61	0xbd99a11f	-0.075014345
62	0xbdd1c4a6	-0.10242586
63	0xbdb76777	-0.08955281
64	0xbd1f12b5	-0.0388362
65	0xbdab22ec	-0.0835627
66	0xbd066b88	-0.032817394
67	0xbd6d37d7	-0.05791458
68	0xbd3e76d6	-0.04650005
69	0xbdcdd5d4	-0.1005055
70	0xbd1807a6	-0.03711667
71	0xbd8190e7	-0.06326466
72	0xbd9a28f8	-0.075273454
73	0xbd3bd024	-0.045852795
74	0xbd048499	-0.032353017
75	0xbdb2cf85	-0.087309875
76	0xbdb4c3fe	-0.08826445
77	0xbd903ccf	-0.07042848
78	0xbdd4dedc	-0.103940696
79	0xbd878efb	-0.06619068
80	0xbd9e25ca	-0.077220514
81	0x3b170a23	0.0023046813
82	0xbdaa6a5f	-0.0832107
83	0xbc00036b	-0.007813315
84	0xbd60d802	-0.0548935
85	0xbd603c81	-0.0547452
86	0xbd69e24a	-0.05710057
87	0xbd4264bb	-0.047459345
88	0xbdbaebc6	-0.091270015
89	0xbd490ea6	-0.049086235
90	0xba155dfe	-0.0005697905
91	0xbdb8a74e	-0.09016286
92	0xbda1a50f	-0.078928106
93	0xbd5f31ce	-0.054490857
94	0xbdbea3d5	-0.09308592
95	0xbda80f07	-0.08205991
96	0xbdbb844a	-0.091560915
97	0xbdc31faa	-0.09527524
98	0xbd5cffb6	-0.053954802
99	0xbdaccf30	-0.084379554
100	0xbd7a3663	-0.061087023
101	0xbc5ceeee	-0.0134847
102	0xbd804c5c	-0.062645644
103	0xbd8c2cb0	-0.06844461
104	0xbd984e27	-0.074367814
105	0x3cce5333	0.025186157
106	0xbd366139	-0.044526313
107	0xbd34ef06	-0.044173263
108	0xbd94ab97	-0.07259291
109	0xbdea3880	-0.11436558
110	0xbd6f14ed	-0.058369566
111	0xbd2483ce	-0.04016476
112	0xbd46b5f6	-0.048513375
113	0xbd78a4a5	-0.060703892
114	0xbd0ef764	-0.0349039
115	0xbd808795	-0.0627586
116	0xbd806770	-0.06269729
117	0xbd76b2f2	-0.06022925
118	0xbd572321	-0.052523736
119	0xbd813f9c	-0.06310961
120	0xbd9644c8	-0.07337338
121	0xbd86ff9a	-0.06591721
122	0xbd2e7dff	-0.042600628
123	0xbd4e1922	-0.050316937
124	0xbda88dca	-0.08230169
125	0xbd12d193	-0.035844397
126	0xbcfe750a	-0.031061668
127	0xbda20460	-0.07910991
128	0xbdb19bea	-0.08672316
129	0xbd7e5f11	-0.06210238
130	0xbdb163d9	-0.086616226
131	0xbd626918	-0.055276006
132	0xbd857462	-0.06516339
133	0xbd90ed4d	-0.070765115
134	0xbe0d9c7b	-0.13829224
135	0xbdd52ca9	-0.10408909
136	0xbd85d98c	-0.065356344
137	0xbd86431d	-0.065557696
138	0xbdc0284f	-0.09382688
139	0xbd9fd5b8	-0.078044355
140	0xbdcbfddc	-0.09960529
141	0x3cc66520	0.024218142
142	0xbcc9c8a1	-0.0246318
143	0xbda86aac	-0.08223471
144	0xbd751d97	-0.059842672
145	0xbd05f0ab	-0.032700222
146	0xbde9fab5	-0.11424772
147	0xbda6e092	-0.08148302
148	0xbd9a9e04	-0.0754967
149	0xbd6771c8	-0.056504995
150	0xbdfb1c27	-0.12261229
151	0xbd8dcd24	-0.06923893
152	0xbde5944a	-0.112099245
153	0x3cd8f1a2	0.026482407
154	0xbd1da0d5	-0.03848346
155	0xbd4ba647	-0.04971912
156	0xbcecf037	-0.028923137
157	0xbda00393	-0.07813182
158	0xbd8c671c	-0.06855604
159	0xbd8dbf78	-0.069212854
160	0xbd864187	-0.06555467
161	0xbd1e052d	-0.038579155
162	0xbd816b2d	-0.0631927
163	0xbd64e03e	-0.055877917
164	0xbd253f55	-0.0403436
165	0xbd4ccd47	-0.050000455
166	0xbd60be8b	-0.054869216
167	0xbce07143	-0.027397757
168	0xbdb5c7e6	-0.08876018
169	0xbd967b6d	-0.0734776
170	0xbd56f53c	-0.052479967
171	0xbd4d76f0	-0.050162256
172	0xba87ae0b	-0.0010351551
173	0xbcb85055	-0.022499243
174	0xbdd83c2b	-0.10558351
175	0xbd9a8e60	-0.07546687
176	0xbd437c74	-0.04772611
177	0xbd51ebe2	-0.051250346
178	0xbe02c6d3	-0.12771158
179	0xbd7ce5d9	-0.061742637
180	0xbd5898c8	-0.05288008
181	0xbd6b1d5c	-0.057401046
182	0xbd4ad319	-0.049517725
183	0xbd3a0294	-0.045412615
184	0x3bb1f696	0.0054310067
185	0xbd1b2835	-0.03788014
186	0xbd8b2b2f	-0.06795346
187	0xbdeb1995	-0.11479489
188	0xbda1f4f6	-0.07908051
189	0xbdc3d2b0	-0.0956167
190	0xbd7261e5	-0.05917539
191	0xbd63fb24	-0.05565943
192	0xbd3b56bc	-0.045737013
193	0xbd5a80c1	-0.053345446
194	0xbd9376ca	-0.072003916
195	0xbdaecfef	-0.08535754
196	0xbdb90a31	-0.09035147
197	0xbdb7e6ad	-0.08979545
198	0xbd9fe4ac	-0.078072876
199	0xbd8ac433	-0.06775703
200	0xbd8ece1e	-0.069729075
201	0xbd91052f	-0.07081067
202	0xbe157cef	-0.1459844
203	0xbd397e49	-0.04528645
204	0xbdbc0498	-0.09180564
205	0xbcfe3dde	-0.03103536
206	0xbd855f77	-0.06512349
207	0xbd1a902d	-0.037735153
208	0xbd12fcde	-0.035885684
209	0xbd915103	-0.0709553
210	0xbd3fbe7e	-0.046812527
211	0xbd57a109	-0.05264381
212	0xbd529a89	-0.051416907
213	0xbd233d4b	-0.039853375
214	0xbd585ecd	-0.052824784
215	0xbdbc8e1a	-0.09206791
216	0xbd2b73a0	-0.041858315
217	0xbd4e6a89	-0.05039457
218	0xbd27aecf	-0.040938195
219	0xbd349482	-0.04408694
220	0xbde1f0ae	-0.11032234
221	0xbddd756d	-0.10813413
222	0xbd37047d	-0.044682015
223	0xbddf3c11	-0.10900129
224	0xbda00c6f	-0.078148715
225	0xbdc52a27	-0.096271805
226	0xbd9d7207	-0.076877646
227	0xbd8b759c	-0.068095416
228	0xbdb1a172	-0.086733714
229	0xbd4648e2	-0.04840935
230	0x3d42cf04	0.047560707
231	0xbe124460	-0.14283895
232	0xbd853077	-0.065033846
233	0xbdde1d44	-0.10845426
234	0xbdcd33d9	-0.10019655
235	0xbdfb0c53	-0.1225821
236	0xbdc1276c	-0.09431347
237	0xbd070cba	-0.03297112
238	0xbc4d81db	-0.012543167
239	0xbd40ee36	-0.047102176
240	0xbd27b856	-0.04094728
241	0xbd564b5f	-0.052317973
242	0xbd31a754	-0.043372467
243	0xbd2ae540	-0.041722536
244	0xbddb1c23	-0.10698726
245	0xbdbded39	-0.09273762
246	0xbd278277	-0.040895905
247	0xbd2c5c73	-0.042080354
248	0xbd8ef2ad	-0.069798805
249	0xbdc6318e	-0.096774206
250	0xbd123dd4	-0.035703495
251	0xbd53f4df	-0.0517472
252	0xbd329b1f	-0.043604966
253	0xbd7a29a8	-0.061074883
254	0xbd7186df	-0.058966514
255	0xbd8aadb2	-0.06771411

sequential_8/conv1d_15/BiasAdd/ReadVariableOp f4 [96]
0	0xbcc4db3c	-0.02403032
1	0xbd458f66	-0.04823246
2	0x3d5e60d4	0.05429156
3	0xbcbfd7fe	-0.023418423
4	0xbc8e2f26	-0.017356467
5	0xbce7bb93	-0.028287685
6	0x3a395d40	0.0007071085
7	0xbd0612ae	-0.032732658
8	0x3e08e66e	0.13369152
9	0xbd6e4a3f	-0.058176275
10	0xbd229bfb	-0.039699536
11	0xbd31f3e7	-0.043445494
12	0x3e217733	0.15768127
13	0x3c5b3794	0.01337995
14	0xbcbe184d	-0.023204947
15	0x3d737477	0.05943724
16	0x3e7f5861	0.24936058
17	0xbcf68782	-0.030093912
18	0xbbc11910	-0.0058928803
19	0xbbb00520	-0.0053717047
20	0xbcd3880b	-0.025821706
21	0xbd18bd69	-0.03729001
22	0x3c0a72be	0.008450208
23	0x3ca3e761	0.020007791
24	0xbc55f209	-0.013058194
25	0xbd073044	-0.033005014
26	0xbcfed03c	-0.031105153
27	0xbd12e063	-0.035858523
28	0xbcc9cd21	-0.024633946
29	0x3db7c5d9	0.08973283
30	0x3d8145b4	0.06312123
31	0xbd030eaa	-0.031996407
32	0xbcdcb7e3	-0.026943153
33	0xbc454d46	-0.012042349
34	0x3d94c29a	0.0726368
35	0xbbd7b6f3	-0.0065830885
36	0x3d84d937	0.06486743
37	0xbcb8fd37	-0.02258168
38	0xbc8dab1a	-0.017293502
39	0xbbfb1cbb	-0.007663337
40	0xbd05b276	-0.032640897
41	0xbcc2b00e	-0.02376559
42	0xbcc8afbe	-0.024497863
43	0x3de72daf	0.1128801
44	0xb92569b3	-0.00015775002
45	0xbb0c9bb3	-0.0021455109
46	0xbcc77fe3	-0.024352973
47	0x3a936116	0.0011244144
48	0x3e3aea22	0.18253377
49	0xbcc96d87	-0.02458836
50	0xbcba0fdb	-0.022712639
51	0xbbb4da21	-0.005519167
52	0xbd19fda1	-0.037595395
53	0xbd1481eb	-0.036256712
54	0xbc6fe1d6	-0.014641246
55	0xbcaf65e2	-0.021410886
56	0x3c59d191	0.013294593
57	0xbc093a10	-0.00837566
58	0x3aa63bf0	0.0012682658
59	0x3cd96e54	0.026541866
60	0xbcbc80ee	-0.023010697
61	0xbc9b0d10	-0.018927127
62	0xbd38c6c5	-0.045111436
63	0xbced14e3	-0.028940624
64	0xbbe4d10c	-0.006982928
65	0xbc8d1b07	-0.017224802
66	0xbca364c5	-0.019945512
67	0xbc20f9f8	-0.009825222
68	0xbc387406	-0.011258131
69	0x3d816185	0.063174285
70	0x3b875404	0.0041298885
71	0xbd467003	-0.048446666
72	0xbceedace	-0.029157069
73	0xbbfdbc1a	-0.0077433707
74	0x3dc1a9e4	0.09456232
75	0xbd060513	-0.032719683
76	0xbb70eeab	-0.003676335
77	0xbc5b59fa	-0.013388151
78	0x3dfb79e7	0.122791104
79	0xbcde00d5	-0.027100006
80	0xbc9e3125	-0.019310543
81	0xbcf1eafd	-0.029530996
82	0xbc8855cd	-0.016642476
83	0xbd83c6e7	-0.06434422
84	0x3d66ae0d	0.05631833
85	0xbcb4e6ae	-0.022082653
86	0x3bbc21cc	0.0057413336
87	0x3c0b9a1c	0.008520629
88	0xbc9f5626	-0.019450258
89	0x3db702dd	0.08936093
90	0xbc031a59	-0.008001887
91	0xbb9cde1d	-0.00478722
92	0xbd4ee11e	-0.050507657
93	0x3cb521e5	0.022110889
94	0x3d0183b6	0.03161975
95	0xbd1cc0a3	-0.03826965

sequential_8/conv1d_16/BiasAdd/ReadVariableOp f4 [32]
0	0x3d11220b	0.035432857
1	0x3d6fcd5d	0.05854546
2	0x3ba02bcf	0.004888035
3	0xbc14416f	-0.009048804
4	0x3df5260f	0.1197015
5	0xbc7a5cf8	-0.015280955
6	0x3d4565c6	0.04819276
7	0xbd964407	-0.07337194
8	0x3c8c9f19	0.017165707
9	0xbba890f0	-0.005144231
10	0x3d34ecb3	0.044171046
11	0xbc19dfb2	-0.009391712
12	0x3d8d48d5	0.06898657
13	0x3af5c800	0.0018751621
14	0x3d27fdf6	0.04101368
15	0x3ca8d0c6	0.020607363
16	0x3ca68601	0.02032757
17	0xbd1fd050	-0.03901702
18	0x3c4ca52b	0.012490551
19	0x3da7cccc	0.08193359
20	0x3c70d03c	0.014698084
21	0x3d2d1dcc	0.042264745
22	0x3cb6081b	0.022220662
23	0x3ccbbff7	0.02487181
24	0x3c91cf21	0.017798962
25	0xbb3fde9e	-0.0029276977
26	0x3d95b97a	0.073107675
27	0x3ceb822c	0.028748594
28	0xbca8b913	-0.020596063
29	0x3d33cc42	0.043895967
30	0x3cfa3864	0.030544467
31	0x3e31caf9	0.17362584

sequential_8/conv1d_14/Conv1D f4 [256, 1, 7, 21]
0	0x3d179959	0.037011478
1	0x3dae8fbc	0.08523509
2	0xbc9c60f7	-0.019089205
3	0xbd0e3b6a	-0.03472463
4	0xbc8ef219	-0.017449426
5	0xbc45aa25	-0.012064491
6	0xbd1c79b5	-0.038202006
7	0x3c9dca31	0.019261451
8	0xbb97bf34	-0.0046309475
9	0x3d432108	0.047638923
10	0xbd340b9d	-0.043956388
11	0xbc3a189d	-0.011358407
12	0x3c1ae60a	0.00945426
13	0xbdc9bbe0	-0.098502874
14	0xbdad2250	-0.0845381
15	0xbbda40d1	-0.0066605587
16	0xbbf4b2be	-0.007467597
17	0x3d615424	0.055011883
18	0x3d24f662	0.04027403
19	0x3ca54413	0.020174062
20	0x3c90a5bd	0.017657155
21	0x3d725612	0.059164114
22	0x3d8aca76	0.067768976
23	0xbd1e6374	-0.038669065
24	0xbe0b3c21	-0.13597156
25	0xbdf0c6ac	-0.11756644
26	0xbcf3e3cd	-0.02977171
27	0x3cb6c881	0.022312405
28	0x3d8a111e	0.06741546
29	0xbba97612	-0.005171546
30	0x3d17924f	0.037004765
31	0xbe1cf9ba	-0.15329638
32	0x3ccb625f	0.02482718
33	0x3ccb1805	0.024791727
34	0xbd099a8d	-0.033594657
35	0xbda9454b	-0.0826517
36	0xbd97f56a	-0.07419856
37	0xbc53dcd4	-0.0129310675
38	0xbb876c7f	-0.004132807
39	0xbcee874a	-0.029117245
40	0x3bf155b2	0.007364952
41	0xbd5f3687	-0.05449536
42	0x3d964fe4	0.07339457
43	0x3c4525ba	0.0120329205
44	0xbe0c24b4	-0.13685876
45	0xbd8073af	-0.06272065
46	0x3c435b4b	0.011923621
47	0x3c177c80	0.009245992
48	0x3b7fda59	0.0039040057
49	0x3d20de37	0.03927442
50	0x3d1f9f5d	0.03897034
51	0x3dac48a5	0.08412293
52	0xbe0d63a7	-0.13807546
53	0xbbbd26b0	-0.005772434
54	0xbd2bf23c	-0.04197906
55	0xbd099e67	-0.03359833
56	0xbdfe4d05	-0.12417034
57	0xbadaeea7	-0.0016703204
58	0xbdbc5a23	-0.0919688
59	0xbd304838	-0.043037623
60	0xbd80f556	-0.06296794
61	0x3c738f2c	0.014865678
62	0xbd17d6f8	-0.037070245
63	0xbc912c02	-0.01772118
64	0x3b2c025d	0.0026246526
65	0xbd488225	-0.04895224
66	0xbdeb65ca	-0.11494024
67	0xbd6503dd	-0.055911887
68	0xbc4def51	-0.0125692645
69	0x3d5d17d8	0.053977817
70	0x3d2051d1	0.039140526
71	0x3cf2789c	0.029598527
72	0x3dd295da	0.10282488
73	0xbdfb623b	-0.12274595
74	0x3d297e99	0.0413805
75	0x3cd10970	0.025517195
76	0xbc20e848	-0.009821005
77	0xbddd6303	-0.108099006
78	0xbd82a27b	-0.06378647
79	0xbd933352	-0.07187523
80	0xbb9db1c9	-0.0048124534
81	0xbd995299	-0.074864574
82	0x3d08db0a	0.033412017
83	0x3d3b2866	0.045692824
84	0x3cf28774	0.029605605
85	0x3cd19ba4	0.02558691
86	0xbbcc3525	-0.0062319213
87	0xbda057e9	-0.078292675
88	0xbd7b9a80	-0.06142664
89	0x3b8b42a4	0.0042498875
90	0xbb858d94	-0.0040757153
91	0x3d785e97	0.060637083
92	0x3de7fed0	0.113278985
93	0x3d9728ec	0.07380852
94	0xbe2aded6	-0.16686568
95	0xbc716e14	-0.014735717
96	0xbc8e2907	-0.017353548
97	0x3cdf7f26	0.027282309
98	0xbda06f68	-0.07833749
99	0x3aa6f2f2	0.0012737198
100	0xbd86d85f	-0.06584238
101	0xbc4c2b73	-0.012461531
102	0x3d2eaa42	0.04264284
103	0xbc4a20b2	-0.012336897
104	0xbd885225	-0.06656293
105	0x3dfdb03f	0.12387132
106	0x3e018d0d	0.12651463
107	0xbcc4454d	-0.023958826
108	0xbe0312fe	-0.12800214
109	0xbd00d304	-0.03145124
110	0xbd3feccc	-0.046856686
111	0x3d9c906a	0.07644732
112	0x3d0e3818	0.034721464
113	0x3d44f581	0.048085693
114	0x3d810cdd	0.063012816
115	0xbe681943	-0.22665887
116	0x3d57c319	0.052676294
117	0x3bcafde5	0.0061948174
118	0xbdab3064	-0.08358839
119	0xbd6cda18	-0.057825178
120	0xbda70b47	-0.08156448
121	0xbd5eb280	-0.05436945
122	0xbce1f683	-0.027583366
123	0xbd4af575	-0.049550492
124	0x3da331e2	0.07968499
125	0x3d3da64c	0.04630117
126	0x3d991d5e	0.074763045
127	0x3c72c015	0.014816304
128	0xbdb16ca2	-0.08663298
129	0xbdd20789	-0.102553435
130	0xbcf11fe5	-0.029434154
131	0x3c9e8860	0.019352138
132	0x3c966bbd	0.01836192
133	0xbce6249d	-0.02809363
134	0xbba53919	-0.005042207
135	0x3d96f402	0.073707595
136	0xbe2d7ad7	-0.16941391
137	0xbbb90722	-0.0056466023
138	0xbc58c2ef	-0.01323007
139	0x3d9473fd	0.072486855
140	0xbdf74fea	-0.12075789
141	0x3be31678	0.0069301687
142	0xbe1c597e	-0.15268514
143	0x3b5c34f4	0.0033600898
144	0xbbf64810	-0.0075159147
145	0x3d497c22	0.049190648
146	0xbd2ef0fd	-0.042710293
147	0x3d38bc3a	0.04510138
148	0x3c5616b7	0.013066939
149	0xbd2058da	-0.039147235
150	0xbce54c33	-0.027990436
151	0xbd44c014	-0.048034742
152	0xbd3f791f	-0.04674637
153	0x3d311f26	0.043242596
154	0xbbb8540b	-0.005625253
155	0xbbd18949	-0.0063945395
156	0x3d88ce9f	0.06680035
157	0xbdfb3230	-0.12265432
158	0x3d02d2c9	0.0319393
159	0x3cdf25e5	0.02723975
160	0xbe39114d	-0.18073006
161	0xbd37eb79	-0.0449023
162	0xbc8080c8	-0.015686408
163	0xbcdae65a	-0.026721168
164	0x3d609fbc	0.054839835
165	0x3c93b18d	0.018028999
166	0x3c5d48ff	0.013506173
167	0x3d2a54d1	0.041584793
168	0x3d817afd	0.06322286
169	0x3d329f74	0.043609098
170	0xbd1d5dfb	-0.038419705
171	0xbde37c8f	-0.11107742
172	0xbd8a0cb9	-0.06740708
173	0xbd0e569a	-0.03475056
174	0x3cf0107c	0.029304735
175	0x3da3b713	0.07993903
176	0x3d867a20	0.06566262
177	0x3e066044	0.1312266
178	0xbe1c6cfa	-0.15275946
179	0xbc6eb247	-0.014568872
180	0x3d587fd6	0.05285629
181	0xbd016774	-0.0315928
182	0xbd39c2fe	-0.045351975
183	0x3b463bd8	0.0030248072
184	0xbc88483f	-0.016636012
185	0xbcd4e006	-0.025985729
186	0xbd1ff3d3	-0.03905089
187	0xbb8ebd8b	-0.0043560914
188	0xbcb26ea4	-0.021781273
189	0xbb7718d0	-0.0037703998
190	0x3d5c580b	0.0537949
191	0xbcd8c462	-0.02646083
192	0xbdea4822	-0.114395395
193	0x3c28da86	0.010306006
194	0xbcf741f1	-0.03018281
195	0x3d6478f1	0.0557794
196	0x3d9b00fb	0.075685464
197	0xbc415513	-0.011800068
198	0x3dda4610	0.106578946
199	0xbdbb374b	-0.09141406
200	0x3d378e5d	0.044813503
201	0x3cff1981	0.03114009
202	0xbded9488	-0.11600596
203	0xbdb8c044	-0.09021047
204	0xbcbad5c9	-0.022807019
205	0xbde5a39f	-0.11212849
206	0xbc34ec57	-0.011042676
207	0xbc32404f	-0.01087959
208	0x3ccb25ba	0.024798263
209	0x3bd5c119	0.006523263
210	0x3d31eef9	0.043440793
211	0x3c403c10	0.01173307
212	0xbd3301e6	-0.043702982
213	0xbd7afb3a	-0.061274745
214	0xbaf6f4d2	-0.0018841273
215	0x3b2926b8	0.0025810432
216	0xbd28d2cc	-0.041216657
217	0x3b8bfb2f	0.004271887
218	0x3db21a56	0.086964294
219	0x3dde4af6	0.108541414
220	0xbe066e3d	-0.1312799
221	0x3c9d8c0c	0.019231819
222	0xbd23ca9e	-0.039988153
223	0xbda5a2a2	-0.0808766
224	0xbe01b7e4	-0.12667805
225	0xbbd3e85b	-0.006466908
226	0xbd8bc75f	-0.068251364
227	0x3d866762	0.065626875
228	0x391c9e7d	0.00014936361
229	0xbcfe1dfe	-0.03102016
230	0xbcab318e	-0.020897653
231	0x3a956591	0.0011398067
232	0x3da76635	0.08173791
233	0xbdcb495d	-0.09926102
234	0xbdd8a17b	-0.10577675
235	0xbd7d0648	-0.06177357
236	0x3cdf9de3	0.027296966
237	0x3d0694a8	0.032856613
238	0x3d563650	0.05229789
239	0x3cc76bd5	0.02434341
240	0x3d7a6e1d	0.06114017
241	0xbdf91a98	-0.121632755
242	0x3d0f63fd	0.035007466
243	0xbcb4b9b5	-0.022061208
244	0xbd618e50	-0.05506736
245	0xbdbd25fc	-0.092357606
246	0xbc717382	-0.014737012
247	0xbc4988a5	-0.012300645
248	0x3d613163	0.05497874
249	0x3bf43945	0.007453116
250	0x3d0ec741	0.034857992
251	0xbd2d60ba	-0.042328574
252	0x3dbd9a10	0.09257901
253	0x3b44f530	0.003005337
254	0xbd65673c	-0.056006655
255	0xbe1bd179	-0.15216626

sequential_8/conv1d_15/Conv1D f4 [96, 1, 7, 256]
0	0x3e1513c8	0.14558327
1	0xbde943d7	-0.113898925
2	0xbe83763b	-0.2567614
3	0xbe313ff5	-0.17309554
4	0x3e328b5c	0.17435974
5	0x3dca6f77	0.098845415
6	0x3dd6e8ad	0.10493598
7	0x3d455c2f	0.048183616
8	0xbd98d914	-0.07463279
9	0xbda77873	-0.08177271
10	0xbd91b462	-0.071144834
11	0xbaede552	-0.0018150008
12	0x3d03a5db	0.032140594
13	0x3d1b7648	0.0379546
14	0xbd0b9a0a	-0.03408245
15	0xbdb0f0ff	-0.08639716
16	0xbdc8a7d6	-0.09797637
17	0xbdb3e4f7	-0.08783906
18	0x3e3dd073	0.18536548
19	0xbe0d74a3	-0.13814025
20	0xbe5d0b3c	-0.21586317
21	0xbe6b3a78	-0.22971523
22	0xbd6181cb	-0.05505542
23	0xbe1e3fad	-0.15453978
24	0xbe416a70	-0.18888259
25	0x3c339ede	0.01096317
26	0xbd3d2532	-0.04617805
27	0xbd7f567e	-0.062338345
28	0x3a78a1b9	0.0009484548
29	0xbd5107e9	-0.051032934
30	0xbd4fc267	-0.050722506
31	0xbcdef108	-0.027214542
32	0x3ddd4ce3	0.108056806
33	0x3c885611	0.016642602
34	0x3ce299a4	0.027661152
35	0x3dfcf4bf	0.12351369
36	0x3e15ecb1	0.14641072
37	0x3c65cbe0	0.014025658
38	0x3dedc886	0.116105124
39	0xbe57d4bd	-0.21077247
40	0xbd19eb95	-0.037578184
41	0xbd82befe	-0.06384085
42	0xbe856fa9	-0.26061752
43	0xbd7cf81f	-0.061760064
44	0xbd98bd67	-0.07458001
45	0xbe2e60f5	-0.17029174
46	0x3ca741f7	0.020417197
47	0xbdcce9f7	-0.10005563
48	0x3e0251be	0.12726495
49	0xbdb053eb	-0.08609756
50	0x3c958f99	0.01825695
51	0x3d9bfc86	0.076165244
52	0xbe573709	-0.21017088
53	0x3e25b050	0.16180539
54	0x3da008ce	0.07814179
55	0xbe890f79	-0.26769617
56	0x3b978d47	0.004624996
57	0xbe4669af	-0.19376253
58	0xbb1ed2db	-0.0024234566
59	0xbcf12211	-0.02943519
60	0xbd0fa854	-0.03507264
61	0xbde52e98	-0.11190528
62	0x3c4dee1d	0.012568978
63	0xbd6b3fb0	-0.057433784
64	0x3e262dba	0.16228381
65	0xbedebf23	-0.435052
66	0xbd8f322c	-0.069919914
67	0x3ca897c1	0.020580174
68	0x3e58d53f	0.21175097
69	0x3d517eac	0.051146194
70	0xbdb47922	-0.08812167
71	0xbdccf58a	-0.1000777
72	0xbda561cb	-0.08075293
73	0x3cdf2a4e	0.027241852
74	0xbc07a544	-0.0082791485
75	0xbb9e238e	-0.004826016
76	0x3d972f89	0.073821135
77	0x3d970c55	0.07375399
78	0xbe3a3f89	-0.18188299
79	0xbd2ec1ba	-0.04266522
80	0xbd44b9c3	-0.04802872
81	0xbd5f83bd	-0.054568995
82	0xbeb53882	-0.35394675
83	0xbe38b360	-0.18037176
84	0xbcfb90ec	-0.030708753
85	0x3d6751c0	0.056474447
86	0x3d34d35e	0.044146888
87	0x3d998f6b	0.07498058
88	0x3d46a8f6	0.048500977
89	0xbd59da2a	-0.053186573
90	0xbe0db77a	-0.13839522
91	0xbbd871d3	-0.006605366
92	0x3e44fa73	0.19236164
93	0x3cf54e1e	0.029944476
94	0xbe07a959	-0.13248195
95	0xbd90836e	-0.07056318
96	0x3e6dfd33	0.23241119
97	0x3dcd897d	0.100359894
98	0xbeb4996e	-0.35273308
99	0x3df5a5fa	0.11994548
100	0xbe1ce97e	-0.15323445
101	0x3db5c29f	0.08875012
102	0xbd8cc4bf	-0.06873464
103	0xbe1a02ce	-0.15040132
104	0xbe619b72	-0.22031954
105	0xbe2bf031	-0.16790845
106	0xbcd8a4bb	-0.026445737
107	0x3e206f41	0.1566744
108	0x3d261ff8	0.04055783
109	0xbdf337fc	-0.118759125
110	0x3dd09182	0.101840034
111	0xbe9ac924	-0.30231583
112	0xbe1d3644	-0.15352732
113	0xbc229b1f	-0.009924679
114	0x3e4ec619	0.20192756
115	0x3dbcd0a7	0.09219485
116	0x3d2b9daf	0.041898426
117	0xbd4d8259	-0.050173137
118	0xbdb25959	-0.08708448
119	0xbe3349e7	-0.1750866
120	0x3e0b7067	0.13617097
121	0xbe47eaec	-0.1952321
122	0x3d632d03	0.05546285
123	0xbe898942	-0.26862532
124	0xbb056a7d	-0.0020357661
125	0xbdc096a7	-0.09403735
126	0xbdfbcce3	-0.122949384
127	0x3d73fcc4	0.059567228
128	0x3dc60505	0.09668926
129	0xbcdee3b8	-0.027208194
130	0xbe87a258	-0.26491046
131	0xbe1c4f2a	-0.15264574
132	0xbdcac99c	-0.09901735
133	0xbe88b8d9	-0.26703528
134	0x3bc39156	0.005968253
135	0xbe1eb04c	-0.1549694
136	0xbd91b4fb	-0.071145974
137	0xbddc05f4	-0.10743323
138	0xbd67c975	-0.05658861
139	0x3c1fdad1	0.00975676
140	0xbc439b35	-0.01193886
141	0xbd7bff4e	-0.061522774
142	0xbe4d43ee	-0.20045444
143	0x3d6ea3db	0.058261734
144	0x3c93b458	0.01803033
145	0x3c084b01	0.008318664
146	0x3e52830f	0.20557807
147	0xbd822242	-0.063541904
148	0x3e291cdb	0.16514914
149	0xbd5255d5	-0.051351387
150	0x3dbf881f	0.09352135
151	0xbd32e9c5	-0.04367997
152	0xbdf1c510	-0.11805165
153	0xbc82016c	-0.015869819
154	0x3d9235dc	0.07139179
155	0xbd340a0b	-0.04395489
156	0xbe07fd9c	-0.13280338
157	0xb8f7305c	-0.000117868854
158	0x3d10867b	0.0352845
159	0xbe58edb4	-0.21184427
160	0xbb9d63d0	-0.0048031583
161	0xbd90c838	-0.07069439
162	0xbd9d23d7	-0.076728515
163	0x3c52a9b7	0.012857846
164	0xbe4caf7a	-0.19988814
165	0xbe4e04b1	-0.20118977
166	0xbe18a6f9	-0.14907445
167	0xbc9e9c45	-0.019361624
168	0xbdf09ccd	-0.117486574
169	0xbd4d869c	-0.0501772
170	0x3dba0f81	0.090849884
171	0xbdaae3b0	-0.08344209
172	0x3de4a953	0.111651085
173	0x3e07e948	0.13272583
174	0xbdcd536c	-0.10025677
175	0x3d490070	0.049072683
176	0xbac162bd	-0.0014754158
177	0x3da73180	0.08163738
178	0xbdb4d2e7	-0.08829289
179	0xbe0c5810	-0.13705468
180	0x3c958ed4	0.018256582
181	0x3db2cce8	0.08730489
182	0xbe0dc0b3	-0.1384304
183	0xbdcaa339	-0.098944135
184	0xbe215828	-0.15756285
185	0xbe27e9aa	-0.1639773
186	0x3d914a80	0.07094288
187	0x3b05ea4e	0.0020433846
188	0xbd4b4a04	-0.049631134
189	0xb7958a3d	-1.7826556e-05
190	0xbdae0b05	-0.084981956
191	0xbe1cd9d4	-0.1531747
192	0x3cc6d396	0.024270814
193	0x3d6174ae	0.055042915
194	0xbe34d4ea	-0.17659345
195	0xbe0fa112	-0.14026287
196	0x3e154e73	0.14580707
197	0xbd8fd634	-0.07023278
198	0xbe13b187	-0.1442319
199	0xbdee811a	-0.11645718
200	0xbc8abe8e	-0.016936567
201	0x3d4b9131	0.049699012
202	0x3e5b8acc	0.21439666
203	0xbddd0099	-0.107911296
204	0x3e07c5d1	0.13259055
205	0xbdf6c503	-0.12049296
206	0xbbf715fc	-0.0075404625
207	0x3c00bc83	0.007857445
208	0xbdda0cf4	-0.10647002
209	0xbb723b5b	-0.0036961648
210	0xbd0a9bb1	-0.033839885
211	0xbd26e882	-0.04074908
212	0xbdfdb9d8	-0.123889625
213	0xbd2569ac	-0.04038398
214	0xbd065725	-0.03279795
215	0xbc51f41f	-0.012814551
216	0xbe1aa631	-0.1510246
217	0xbc898eaa	-0.01679166
218	0xbd2a17d5	-0.041526634
219	0xbda367cf	-0.07978784
220	0x3dd85860	0.10563731
221	0xbd2e478d	-0.042548705
222	0xbd699054	-0.057022408
223	0x3cc1da42	0.023663644
224	0xbce34a95	-0.027745524
225	0xbdeff584	-0.1171675
226	0xbe69eed3	-0.2284501
227	0xbda5aa46	-0.08089118
228	0x3cde9c70	0.027174205
229	0xbcfb3634	-0.030665495
230	0x3e515f05	0.20446403
231	0x3e0b77d5	0.13619931
232	0x3ba002e9	0.0048831594
233	0xbd082a21	-0.033243302
234	0xbce8a495	-0.028398791
235	0x3e287d10	0.16453958
236	0xbeaaa96e	-0.3333239
237	0x3e43e909	0.19131865
238	0x3e13824f	0.14405178
239	0xbd4c3725	-0.049857277
240	0x3cfc4050	0.030792385
241	0xbddb1220	-0.106968164
242	0x3e7def78	0.24798381
243	0xbdbbcc5e	-0.09169839
244	0x3e28e8ba	0.16495028
245	0xbd2e5e12	-0.04257018
246	0xbe59b348	-0.21259797
247	0x3cc1b927	0.023647858
248	0xbd81ff9b	-0.06347581
249	0xbeea3e10	-0.45750475
250	0xbe6a5dd1	-0.2288735
251	0xbe49fcc2	-0.19725326
252	0xbdc646b8	-0.09681457
253	0xbe2ae545	-0.16689022
254	0xbdb43a85	-0.08800224
255	0xbda81dae	-0.08208786

sequential_8/conv1d_16/Conv1D f4 [32, 1, 7, 96]
0	0x3edf4dcb	0.4361404
1	0xbde3205f	-0.11090159
2	0xbee64396	-0.4497344
3	0x3d400b16	0.046885572
4	0xbcad36d1	-0.021144303
5	0x3d82cabe	0.06386326
6	0x3efa62b2	0.48903424
7	0xbcca1a92	-0.024670873
8	0xbec5b2e2	-0.3861304
9	0x3e284902	0.164341
10	0x3dbaed5d	0.09127305
11	0xbdb5a4e8	-0.08869344
12	0xbe96f636	-0.2948472
13	0x3e1f4891	0.15555026
14	0x3c1fa88e	0.009744776
15	0xbed26e1f	-0.4109964
16	0xbd19ba81	-0.03753138
17	0x3e07db6c	0.13267297
18	0xbe1c80f7	-0.15283571
19	0x3d8e15d8	0.0693776
20	0xbd6d3ea3	-0.057921063
21	0xbd2ec1f8	-0.04266545
22	0x3e38786d	0.18014689
23	0x3df57867	0.119858555
24	0x3d9c3d2f	0.07628857
25	0x3ca9c724	0.02072484
26	0xbcc0d396	-0.023538392
27	0x3c9b9454	0.018991627
28	0xbda800b4	-0.08203259
29	0xbf36793d	-0.71278745
30	0xbf26fda6	-0.65230787
31	0x3aaf4006	0.0013370521
32	0xbd3b8f14	-0.045790747
33	0x3d863f7f	0.0655508
34	0xbcfb92a5	-0.030709574
35	0x3ddf0421	0.108894594
36	0xbea6f272	-0.32606846
37	0x3cd4bfcf	0.025970368
38	0xbca3cc00	-0.019994736
39	0x3ea49d3e	0.32151216
40	0xbdbf66e1	-0.093457945
41	0xbcc408b4	-0.023929931
42	0x3d85652c	0.06513438
43	0xbe0ede51	-0.13951994
44	0xb929f60e	-0.00016208758
45	0x3d3ca96e	0.04606002
46	0x3d9945bb	0.07484003
47	0x3eb88cfe	0.36045069
48	0xbea8b70a	-0.32952148
49	0xbd6180c2	-0.055054434
50	0x3d15089e	0.03638517
51	0x3dcc64a0	0.0998013
52	0x3d838d9d	0.06423495
53	0x3d90d505	0.0707188
54	0x3cba0d3e	0.022711392
55	0x3bdf1d7e	0.0068089357
56	0x3ee003ba	0.43752843
57	0x3dacdbba	0.08440347
58	0x3eeadb42	0.45870405
59	0x3eaef590	0.34171724
60	0xbda2f986	-0.07957749
61	0xbb464bc5	-0.0030257565
62	0x3e3d9c51	0.18516661
63	0xbd98f8ac	-0.074693054
64	0xbd108960	-0.03528726
65	0xbc6c4280	-0.014420152
66	0xbcdfd3f2	-0.027322743
67	0x3d4a4d4c	0.049390122
68	0x3d0fa875	0.035072763
69	0xbdcbf3c2	-0.099586025
70	0x3dc65429	0.09684021
71	0xbdd75c08	-0.105156004
72	0xbdb95c20	-0.090507746
73	0xbc5cffca	-0.013488719
74	0x3d599335	0.053118903
75	0x3e288675	0.16457541
76	0x3dacb53b	0.084330045
77	0x3daf7635	0.08567468
78	0xbf011f16	-0.5043806
79	0xbd8bfe33	-0.06835594
80	0x3d681cb6	0.056668006
81	0xbe3c9867	-0.18417512
82	0xbd802bd3	-0.06258359
83	0xbe9e5c08	-0.3092959
84	0x3f039641	0.51401144
85	0xbca9c85f	-0.020725427
86	0x3c99db1a	0.018781234
87	0x3cc669fd	0.024220461
88	0x3d1435bf	0.03618407
89	0xbee7467e	-0.4517097
90	0x3d9592c2	0.073033825
91	0xbe864c67	-0.26230165
92	0xbdb2beea	-0.0872782
93	0x3d6a05e2	0.057134517
94	0x3f078e06	0.52951086
95	0xbd84981e	-0.064743266
96	0x3e5665a0	0.20937204
97	0xbb7fab19	-0.0039011894
98	0xbeb9bba2	-0.36275965
99	0xbcba8c1e	-0.022771891
100	0xbd675daf	-0.056485828
101	0x3c446d2d	0.01198892
102	0x3eb9f57e	0.36320108
103	0x3d404127	0.046937134
104	0xbeec8629	-0.46196106
105	0x3d9eb06a	0.07748492
106	0x3c55f5e7	0.013059116
107	0xbd30d63e	-0.043173067
108	0xbe9ab10b	-0.30213198
109	0x3dfba1e3	0.12286737
110	0xbdb75bbf	-0.08953046
111	0xbf039fc6	-0.5141567
112	0xbce937e0	-0.028469026
113	0x3d245147	0.040116575
114	0xbdb6ceff	-0.089262
115	0xbd3354bc	-0.04378198
116	0x3c7f89f2	0.015596854
117	0xbd2cac54	-0.042156532
118	0x3d375a13	0.044763636
119	0x3e2ceb2d	0.16886587
120	0x3c66af2e	0.014079852
121	0x3d0f5067	0.034988787
122	0xbd90b519	-0.07065792
123	0xbd2c74fa	-0.042103745
124	0xbdc59ed7	-0.09649437
125	0xbefe4ed0	-0.49669504
126	0xbf06c66b	-0.5264651
127	0xbd1ad0b4	-0.03779669
128	0x3d85ada4	0.0652726
129	0xbda0cabd	-0.07851169
130	0x3c2832e1	0.010266037
131	0x3d4e0d74	0.0503058
132	0xbecc1ccc	-0.3986572
133	0x3b8eabf5	0.004353995
134	0xbd79cdd9	-0.060987327
135	0x3ec15dc7	0.3776686
136	0xbcc833ca	-0.024438757
137	0x3d1e016a	0.038575567
138	0x3d0584d5	0.03259738
139	0xbe027d75	-0.1274317
140	0x3dd0f265	0.10202483
141	0x3de9024d	0.11377392
142	0x3cf876dc	0.030330114
143	0x3e83a1c9	0.2570937
144	0xbe8de7ca	-0.27715904
145	0x3d91ece5	0.07125262
146	0xbd866af6	-0.0656337
147	0x3d59713a	0.053086497
148	0xbd35b89d	-0.044365514
149	0xbd924e5b	-0.07143851
150	0x3dc86a8c	0.09785947
151	0x3d8ec1dc	0.069705695
152	0x3e961650	0.29313898
153	0xbd88b65e	-0.06675409
154	0x3ecf9f83	0.40551385
155	0x3e91a7ad	0.2844824
156	0x3c898afc	0.016789906
157	0x3d8dab05	0.06917385
158	0x3e9289b0	0.28620672
159	0x3cc5b2ff	0.024133204
160	0x3d5a6b0f	0.053324755
161	0x3d6b7775	0.05748697
162	0xbd2859df	-0.041101333
163	0x3c31f484	0.01086152
164	0x3d18ada8	0.037274987
165	0xbbbd61eb	-0.005779495
166	0xbd78fcc9	-0.06078795
167	0xbdef3bc4	-0.11681321
168	0xbd9e4e49	-0.077297755
169	0xbdceb409	-0.10092933
170	0x3e45649e	0.19276664
171	0x3dce41f0	0.1007117
172	0xbd018ec2	-0.031630285
173	0xbd6fbf39	-0.058531974
174	0xbefd1ab4	-0.49434435
175	0xbdbb75f1	-0.09153355
176	0x3d7dd0d5	0.061966736
177	0xbe94c1a7	-0.29053995
178	0xbd4e2ca2	-0.050335534
179	0xbefb3a1f	-0.4906778
180	0x3eb201ea	0.34767085
181	0x3d33e6c6	0.043921255
182	0xbc31ee5c	-0.010860052
183	0xbd7f608e	-0.06234794
184	0xbc82fc68	-0.015989497
185	0xbeb4cd3c	-0.3531283
186	0xbcbc014d	-0.022949839
187	0xbe833975	-0.25629774
188	0x3d45b59d	0.048268903
189	0x3e132c93	0.14372472
190	0x3ee71cbf	0.4513912
191	0xbcb484f2	-0.02203605
192	0x3e2a0b4e	0.16605875
193	0xbdbbb7a5	-0.09165887
194	0xbef43c9a	-0.47702485
195	0x3ca475e0	0.020075738
196	0xbd4c6575	-0.049901444
197	0x3d2a374c	0.04155664
198	0x3ea86946	0.32892817
199	0x3d0753c4	0.03303887
200	0xbee3a7e6	-0.44464034
201	0x3d85b2c3	0.06528237
202	0xbbb75885	-0.005595269
203	0xbd3fe12f	-0.04684561
204	0xbe34d1a6	-0.176581
205	0x3e2063d9	0.15663089
206	0x3c599770	0.013280734
207	0xbed6ba08	-0.41938806
208	0xbd875db7	-0.066096716
209	0x3e0a04dc	0.13478416
210	0xbe0b1da3	-0.13585524
211	0xbcce2047	-0.025161875
212	0x3d3960cd	0.045258332
213	0x3daa6dbc	0.083217114
214	0x3da8a93f	0.08235406
215	0x3e22896a	0.15872732
216	0x3d18991b	0.037255388
217	0xbd61b438	-0.05510351
218	0xbccbc909	-0.024876134
219	0xbcbaaac3	-0.022786504
220	0xbda05d39	-0.07830281
221	0xbf173a03	-0.59072894
222	0xbef60842	-0.48053175
223	0xbd9391ab	-0.07205518
224	0xbd395918	-0.045250982
225	0x3c0421b4	0.008064676
226	0x3d098cc0	0.033581495
227	0x3d3ee39b	0.04660378
228	0xbea9b17b	-0.3314322
229	0xbda589e0	-0.08082938
230	0x3c5a765e	0.013333885
231	0x3eaa9d6c	0.33323228
232	0xbc0c6b50	-0.008570507
233	0xbd450e12	-0.04810912
234	0x3c4929a8	0.012277998
235	0xbe30a92d	-0.17252035
236	0xbce37b15	-0.027768651
237	0xbc68ef8e	-0.014217271
238	0xbd55ad89	-0.05216745
239	0x3e4b6e79	0.1986636
240	0xbe8d473f	-0.2759342
241	0xbd0d2fe7	-0.03446951
242	0x3bf59f2f	0.007495783
243	0x3ded218a	0.11578663
244	0x3d644da7	0.055738118
245	0xbb1633d0	-0.0022919066
246	0xbc0e422d	-0.00868277
247	0x3c9d6195	0.01921157
248	0x3ea39816	0.3195197
249	0x3c87fc96	0.016599935
250	0x3e928193	0.28614482
251	0x3e30d4cd	0.17268677
252	0x3c36c754	0.011155922
253	0xbda39e2f	-0.079891555
254	0x3e157cba	0.1459836
255	0x3c8fd704	0.017558582

sequential_8/dense_22/BiasAdd/ReadVariableOp f4 [128]
0	0x3eb2c153	0.3491312
1	0x3d3b9188	0.045793086
2	0x3d409245	0.047014493
3	0xbc2e8cd7	-0.010653696
4	0xbc82c79b	-0.01596432
5	0xbc985ec0	-0.018599868
6	0x3cd20050	0.025634915
7	0xbdacb226	-0.084324166
8	0xbc9c904a	-0.019111771
9	0x3d56571a	0.05232916
10	0x3d19c3e4	0.03754033
11	0xbdf380fa	-0.11889835
12	0x3d5343b6	0.051578246
13	0x3d5a0c1f	0.053234216
14	0x3d5015dc	0.050802097
15	0xbd9d45c1	-0.0767932
16	0x3d3d3c60	0.046200156
17	0xbcf16510	-0.029467136
18	0x3d19588d	0.037437964
19	0x3d0411bd	0.03224348
20	0x3d63df16	0.055632673
21	0x3d64c636	0.05585309
22	0xbbfc48e9	-0.0076991213
23	0x3e5750c0	0.21026897
24	0xbcd48828	-0.02594383
25	0xbc341154	-0.0109904595
26	0x3d5d134e	0.05397349
27	0x3d83231f	0.06403183
28	0x3d6d0ce2	0.057873614
29	0xbbe269e9	-0.006909598
30	0xbbcd2634	-0.0062606577
31	0xbcbf1238	-0.023324117
32	0x3e373c67	0.17894135
33	0x3d0d52e7	0.03450289
34	0x3d601bd3	0.054714035
35	0xbc2fbedb	-0.010726656
36	0x3d57316a	0.05253736
37	0xbc9856d9	-0.0185961
38	0x3bbfe3c5	0.0058560097
39	0x3d6bd50d	0.057576228
40	0xbb8d6a71	-0.0043156673
41	0x3d25da8a	0.04049162
42	0x3e9ce7c5	0.30645576
43	0xb9fed9b5	-0.0004860886
44	0xbc979ad6	-0.018506449
45	0x3d02f8ec	0.03197567
46	0xbc76b748	-0.015058346
47	0x3e1f2e76	0.15545067
48	0x3d57c584	0.0526786
49	0xbcd47929	-0.02593668
50	0x3e0dc1f3	0.13843517
51	0x3d51ad6f	0.05119079
52	0x3c7880fd	0.015167472
53	0x3e6317d3	0.22177057
54	0x3d836f38	0.06417698
55	0x3d7843c5	0.060611505
56	0x3d5e7fdc	0.054321155
57	0xbd872e22	-0.06600596
58	0x3dd6994a	0.10478456
59	0xbbd42c24	-0.0064749885
60	0x3d62668a	0.05527357
61	0x3d856bd0	0.06514704
62	0xbccc62a5	-0.024949381
63	0x3d6bd72f	0.057578262
64	0xbcc5a90c	-0.02412846
65	0xbbd3ac21	-0.0064597283
66	0xbcb5e467	-0.022203637
67	0x3e11cdf0	0.14238715
68	0x3d50e71b	0.05100165
69	0x3d536453	0.05160935
70	0x3d613ddf	0.054990645
71	0xbd4c8465	-0.04993095
72	0x3d07435a	0.033023216
73	0x3d5a8ae0	0.053355098
74	0x3dc0b6ab	0.09409841
75	0x3c241943	0.0100157885
76	0xbdbb8dc5	-0.091579
77	0xbb867065	-0.004102754
78	0x3d62cd22	0.05537141
79	0x3d7daf26	0.061934613
80	0xbc338876	-0.010957828
81	0x3d5dbca2	0.054134972
82	0xbd6f4717	-0.058417406
83	0xbc8ebc34	-0.017423727
84	0x3d93f0d9	0.072236724
85	0x3d57b37c	0.052661404
86	0xbce96886	-0.028492223
87	0x3d5e84e4	0.054325953
88	0x3d3f9574	0.04677339
89	0xbc729b60	-0.014807552
90	0x3d63fb41	0.055659536
91	0x3d46ff2d	0.0485832
92	0x3d53aedb	0.051680427
93	0x3d2457be	0.04012274
94	0x3d49b5a8	0.049245507
95	0xbc9698bf	-0.018383382
96	0x00000000	0.0
97	0xbc75666f	-0.014978035
98	0x3e10e6d7	0.14150558
99	0x3d60f16f	0.05491775
100	0xbcc22794	-0.023700513
101	0x3d6286b3	0.05530424
102	0x00000000	0.0
103	0xbc02b63c	-0.007978018
104	0x3d606aaa	0.054789223
105	0x3defe630	0.11713827
106	0x3d531592	0.051534243
107	0x3d407075	0.046982247
108	0x3e54b215	0.20771058
109	0xbc99a19d	-0.018753821
110	0xbbd84e4f	-0.006601132
111	0xbbaa794d	-0.0052024485
112	0x3d4e0b5b	0.0503038
113	0x3d3e7936	0.046502315
114	0x3d5c508f	0.053787764
115	0x3d61782d	0.05504625
116	0xbc65775f	-0.014005511
117	0xbb3fb080	-0.002924949
118	0x3d635789	0.055503402
119	0xbc2c44c6	-0.010514444
120	0xbce532a5	-0.02797825
121	0x3e031a34	0.12802964
122	0x3d63c37e	0.055606358
123	0x3bcc9b3c	0.0062440913
124	0xbd9e61a1	-0.07733465
125	0x3d621eb8	0.055205077
126	0xbcef4af5	-0.029210547
127	0x3d517f51	0.05114681

sequential_8/dense_21/BiasAdd/ReadVariableOp f4 [64]
0	0xbe43572b	-0.1907622
1	0x3d32e644	0.04367663
2	0xbe88d36d	-0.26723805
3	0x3e515e23	0.20446067
4	0x3d9db97b	0.07701393
5	0x3d17f615	0.037099916
6	0x3d4284bc	0.047489867
7	0x3cdddacb	0.027081868
8	0x3de0bd42	0.10973598
9	0x3d16d7f6	0.03682705
10	0x3e3456fc	0.17611307
11	0x3e3c07b2	0.1836231
12	0x3ebead98	0.37241817
13	0x3d236dde	0.0398997
14	0x3ceff1d9	0.029290127
15	0x3e8e8edd	0.2784337
16	0xbe6f4c63	-0.23368983
17	0xbe2b9cbd	-0.1675901
18	0x3dfcf2e4	0.12351015
19	0x3bd9c910	0.006646283
20	0xbce72522	-0.028215948
21	0x3d369017	0.04457101
22	0x00000000	0.0
23	0x3dd1e11a	0.10248013
24	0x3e258cb2	0.16166952
25	0xbc934b9f	-0.017980395
26	0xbe12ad47	-0.14323913
27	0x3deab1db	0.114597045
28	0x3ebbea96	0.36702412
29	0xbc10ec6c	-0.00884543
30	0x3defbe23	0.117061876
31	0x3e2cfb01	0.16892625
32	0x3d312a9c	0.043253526
33	0xbd6816c5	-0.05666234
34	0x3dbf2b3d	0.09334419
35	0x3d489a5a	0.048975326
36	0x3d5739ce	0.05254536
37	0x3caf0b8e	0.021367814
38	0x3d2b2d98	0.04179153
39	0x3d5546e9	0.05206958
40	0x3e1680cd	0.14697571
41	0x3dc9f82c	0.09861788
42	0x3d0dfac1	0.034662966
43	0x3ea39fcf	0.31957862
44	0xbbe2430d	-0.0069049657
45	0xbcf1d10b	-0.029518625
46	0x3ead0ea9	0.33800247
47	0x3e612501	0.21986772
48	0x3c8146e6	0.015780877
49	0xbd99af8d	-0.07504187
50	0x3d3b4309	0.045718227
51	0x3c0d6b29	0.008631506
52	0x3d40be1a	0.047056295
53	0x3e32caa0	0.17460108
54	0x3d51a3fa	0.05118177
55	0x00000000	0.0
56	0x3e152f11	0.14568736
57	0x3d465d49	0.048428807
58	0x3d28cc0b	0.041210216
59	0xbd8fa16c	-0.07013211
60	0x3e55f42b	0.20893924
61	0xbd5d4ed3	-0.05403025
62	0x3d10e24f	0.035372075
63	0x3d5ddfff	0.054168697

sequential_8/dense_21/MatMul f4 [64, 32]
0	0xbe77b794	-0.24191123
1	0x3eec0240	0.46095467
2	0x3e30b27e	0.1725559
3	0xbe31c626	-0.17360744
4	0x3e1afcd5	0.1513551
5	0x3e11e411	0.14247157
6	0xbde31c89	-0.11089427
7	0xbcbfb0e8	-0.023399785
8	0x3d4acc7b	0.049511414
9	0x3c9eaac6	0.01936854
10	0x3e9565a0	0.29179096
11	0x3dac6e9f	0.08419537
12	0x3d2d9719	0.042380426
13	0x3e61f170	0.22064757
14	0xbe8ea607	-0.27861044
15	0x3d199d6f	0.037503656
16	0x3d302e90	0.043013155
17	0x3cb5b8a6	0.022182774
18	0xbe228bde	-0.15873668
19	0xbe931cfe	-0.28733057
20	0xbe893b2a	-0.2680295
21	0x3e4b5319	0.19855918
22	0x3e0b0cf0	0.13579154
23	0xbe4b16b5	-0.19832881
24	0xbd92f9c0	-0.07176542
25	0xbd097d49	-0.033566747
26	0xbf168e81	-0.58811194
27	0x3d58faf3	0.0529737
28	0xbe9c1abc	-0.30489147
29	0xbef6096c	-0.48054063
30	0xbebea428	-0.37234616
31	0x3e1b3acc	0.15159148
32	0x3dba5641	0.09098483
33	0xbe9eb027	-0.3099377
34	0x3e86133e	0.26186556
35	0xbdda4eee	-0.10659586
36	0x3e63a727	0.22231732
37	0xbe5d9ccc	-0.21641845
38	0x3e1521f0	0.14563727
39	0xbe44a484	-0.19203383
40	0x3cc48c10	0.023992568
41	0x3e284357	0.16431938
42	0x3e6a7a38	0.22898185
43	0xbe7492ee	-0.23884174
44	0x3ec7f4c2	0.39053923
45	0xbe369f8f	-0.17834304
46	0x3c49f328	0.012326039
47	0x3e3b73a2	0.18305829
48	0x3d1168ca	0.035500325
49	0xbde08b89	-0.10964114
50	0x3d89d48c	0.06729993
51	0xbda01f70	-0.07818496
52	0x3e5f2a79	0.21793546
53	0x3e45fa9e	0.19333884
54	0x3d9fab43	0.077963375
55	0x3e949336	0.29018563
56	0x3c5787b5	0.013154914
57	0xbe0deb0c	-0.13859195
58	0x3e3df729	0.18551315
59	0x3e021f43	0.12707238
60	0x3eaa4509	0.33255795
61	0x3cf4b572	0.029871676
62	0x3e948bd6	0.29012936
63	0x3e9e7590	0.30949068
64	0xbe089832	-0.13339308
65	0x3ed54015	0.41650453
66	0x3ebc68c3	0.36798677
67	0x3dfb1352	0.122595444
68	0x3db80a04	0.08986285
69	0xbe2e750c	-0.17036837
70	0xbe46c725	-0.19411905
71	0x3d217815	0.03942116
72	0xbc1ccfbe	-0.009571014
73	0x3dda6c38	0.10665172
74	0x3df007f7	0.11720269
75	0x3d89e48e	0.067330465
76	0xbecb9514	-0.39762175
77	0x3efcaf9d	0.49352732
78	0xbe2c4641	-0.16823675
79	0x3eae9b78	0.34102988
80	0xbe80b9de	-0.25141805
81	0xbe992593	-0.2991148
82	0x3e9567d7	0.29180786
83	0xbe2b0feb	-0.16705291
84	0x3cfe3bbb	0.031034341
85	0x3eca73cb	0.39541468
86	0x3e541bdd	0.20713754
87	0x3dbc6ae7	0.092000775
88	0x3ebf1c2d	0.37326184
89	0x3ebea248	0.37233186
90	0xbeb19b25	-0.34688678
91	0xbe1abe0b	-0.15111558
92	0xbf36299d	-0.71157247
93	0x3d7f1cc9	0.06228331
94	0xbe491be4	-0.19639546
95	0x3dd69dee	0.104793414
96	0x3dd3781a	0.10325642
97	0x3e482a6e	0.19547436
98	0xbdc175b9	-0.09446282
99	0xbd7a54cc	-0.061116025
100	0xbdfe6399	-0.124213405
101	0x3d4426c0	0.047888517
102	0xbdc60a95	-0.09669987
103	0xbe3e8e3d	-0.18608947
104	0xbe8166bc	-0.25273693
105	0x3df34881	0.118790634
106	0x3db10c6f	0.0864495
107	0x3d886077	0.06659024
108	0xbeba1a99	-0.36348417
109	0x3e12534c	0.14289588
110	0x3d8b647a	0.06806274
111	0xbe32590c	-0.17416781
112	0x3e039e9f	0.12853478
113	0xbd5f8acb	-0.054575723
114	0xbdc4c8d5	-0.09608618
115	0x3e01670a	0.12636963
116	0xbd1cf743	-0.038321745
117	0xbe1d88b1	-0.15384175
118	0xbe382873	-0.1798418
119	0xbe2a4a03	-0.16629796
120	0xbdbc8de6	-0.092067525
121	0x3dc2fc50	0.09520781
122	0x3e815edd	0.25267687
123	0x3c0ee5e8	0.008721806
124	0xbeb17918	-0.346627
125	0x3e383a95	0.17991097
126	0x3df50a4a	0.11964853
127	0xbe4f06d2	-0.20217445
128	0xbe8dfa1d	-0.27729884
129	0xbe14a964	-0.14517742
130	0xbe8a2e5a	-0.26988488
131	0xbdb09a12	-0.086231366
132	0x3d79962a	0.060934223
133	0xbd4f9862	-0.050682433
134	0xbc694d9f	-0.014239698
135	0xbda0eea1	-0.07858015
136	0x3d6d78fe	0.057976715
137	0x3f1265c2	0.5718652
138	0xbe83f457	-0.25772354
139	0x3e148b44	0.1450625
140	0x3e6280b3	0.22119407
141	0xbf04b0b0	-0.51832104
142	0x3e6a379c	0.22872776
143	0x3e04c08c	0.12964076
144	0x3c60abc0	0.013712823
145	0x3ec13ae1	0.37740234
146	0xbe90c197	-0.28272697
147	0x3de4bdef	0.111690395
148	0x3c6d757e	0.014493344
149	0x3c383d97	0.011245153
150	0x3e6d392a	0.23166338
151	0xbd99856f	-0.074961536
152	0x3e009afd	0.12559123
153	0x3d865efc	0.065610856
154	0xbeb4acc5	-0.35288063
155	0x3d6ea201	0.058259968
156	0x3f187455	0.5955251
157	0x3d9fcece	0.07803117
158	0x3f1b59f5	0.6068414
159	0xbd3f4dab	-0.04670493
160	0x3dc7ee1e	0.09762214
161	0xbeb59578	-0.35465598
162	0xbdf77cf3	-0.12084379
163	0xbd39741a	-0.04527674
164	0x3e705f4c	0.23473853
165	0x3aeb5c04	0.00179565
166	0x3d28662b	0.04111306
167	0xbdf64450	-0.12024748
168	0x3e9119e3	0.28340062
169	0x3e83105b	0.25598416
170	0x3e6e7291	0.23285891
171	0xbe2d06a1	-0.1689706
172	0x3ec36ab3	0.38167343
173	0xbe1d4a61	-0.15360405
174	0x3d28a84b	0.04117612
175	0x3e9234ad	0.28555813
176	0x3e4263c4	0.1898337
177	0x3e31db65	0.17368849
178	0x3e6760b8	0.22595489
179	0xbdc830ae	-0.0977491
180	0xbd422e6c	-0.047407553
181	0x3cbf3038	0.023338422
182	0x3e81fd96	0.25388783
183	0x3c14081d	0.0090351375
184	0x3e1be939	0.15225686
185	0xbda3f000	-0.08004761
186	0xbe2afd1f	-0.1669812
187	0x3e24916f	0.16071104
188	0x3db5ad70	0.08870971
189	0xbe1a416d	-0.1506402
190	0x3f2fbf52	0.68651307
191	0x3e4d9f5e	0.20080325
192	0x3e2b38d9	0.16720904
193	0xbe97a174	-0.29615366
194	0x3ca296be	0.01984727
195	0xbe57101f	-0.21002243
196	0x3ea455b9	0.3209665
197	0xbdea869f	-0.11451458
198	0x3cccd0f1	0.025001975
199	0x3d572146	0.052521966
200	0x3d69e537	0.057103362
201	0x3e410c1a	0.18852273
202	0x3e1ca765	0.15298231
203	0xbdadb3bc	-0.08481547
204	0x3ea3b4f2	0.31973988
205	0xbf0443ba	-0.5166584
206	0x3e952a58	0.29133868
207	0x3e81601c	0.25268638
208	0x3e86d9c8	0.2633803
209	0x3da4d95a	0.08049269
210	0x3e0abf9e	0.13549659
211	0x3e83e7df	0.2576284
212	0x3e652065	0.22375639
213	0x3db67ad8	0.08910149
214	0x3e141af2	0.14463404
215	0xbc3a0935	-0.011354734
216	0x3e5b6d0d	0.21428318
217	0xbefbd4db	-0.49185833
218	0x3e05de3b	0.13073055
219	0x3e0a15a9	0.13484825
220	0x3ea0ae54	0.31383002
221	0x3db9bce9	0.09069235
222	0x3e84a139	0.25904253
223	0x3eadf97d	0.33979407
224	0xbe0d2d0e	-0.13786718
225	0xbea34c96	-0.31894368
226	0x3e26a08c	0.16272181
227	0xbe599c62	-0.21251062
228	0x3dac09a1	0.08400274
229	0x3e0a449e	0.13502738
230	0x3e7396da	0.23788014
231	0x3e77dc2c	0.24205083
232	0x3e28d48e	0.16487333
233	0x3e810e84	0.25206387
234	0x3daba3ea	0.083808735
235	0x3dd09b8b	0.101859175
236	0x3ed9bf06	0.42528552
237	0xbf0f6ca2	-0.56025136
238	0xbd34360b	-0.043996852
239	0xbe0f0dae	-0.13970062
240	0x3cc43907	0.023952974
241	0x3e98ca94	0.29842055
242	0x3e6f1e17	0.23351322
243	0xbe5097fa	-0.20370474
244	0x3e11f19d	0.14252324
245	0x3d97a9b4	0.07405415
246	0x3e73e8c4	0.23819262
247	0x3e219421	0.15779163
248	0x3e8f5b96	0.27999562
249	0xbe71e88c	-0.23623866
250	0x3dddc3d1	0.10828365
251	0xbd67f895	-0.05663355
252	0x3ea411e9	0.32044914
253	0xbdcbd30c	-0.09952363
254	0x3ec4c842	0.38434035
255	0x3e937f39	0.28808

sequential_8/dense_22/MatMul f4 [128, 64]
0	0x3cfb0fb5	0.030647138
1	0xbe20ab3f	-0.15690325
2	0xbe9093b2	-0.28237683
3	0xbe2fd00d	-0.17169209
4	0xbd053c42	-0.03252817
5	0xbe33c344	-0.17554957
6	0xbde6c930	-0.11268842
7	0x3c1ec20d	0.00968982
8	0x3e1f8ebe	0.15581796
9	0xbe4f6630	-0.20253825
10	0x3c886c15	0.0166531
11	0x3edd82c0	0.43263817
12	0x3e8a8c64	0.27060235
13	0xbe31da8f	-0.1736853
14	0xbce19a85	-0.027539501
15	0x3e295cc5	0.16539295
16	0xbdcc698d	-0.0998107
17	0x3d3a30f1	0.04545683
18	0xbe700de6	-0.23442802
19	0xbe19c3fd	-0.1501617
20	0xbe57b74d	-0.21066017
21	0x3db8571d	0.090009905
22	0x3c079340	0.008274853
23	0xbdceb803	-0.10093691
24	0x3e2e1109	0.16998686
25	0xbd99be5a	-0.0750701
26	0x3ea31160	0.31849194
27	0x3e25ae04	0.16179663
28	0x3e2ebb99	0.1706375
29	0x3e588ee9	0.21148266
30	0x3dcd23cd	0.10016594
31	0xbc0d2b8b	-0.0086163385
32	0xbd47b92c	-0.048760578
33	0x3dfb03da	0.12256594
34	0x3e608f7d	0.21929736
35	0xbe4102ef	-0.18848775
36	0x3d3cb302	0.046069153
37	0xbe24f351	-0.16108443
38	0x3dae45bf	0.08509397
39	0xbccdd89e	-0.025127705
40	0xbcc7dfe7	-0.024398757
41	0x3e525a9f	0.20542382
42	0xbe549729	-0.20760788
43	0x3e8c0cae	0.27353424
44	0xbd3ba1b4	-0.04580851
45	0x3e299d31	0.1656387
46	0x3d2a1f8c	0.04153399
47	0xbc18c7c3	-0.009324971
48	0xbdefbe3a	-0.11706205
49	0x3e28a4b1	0.16469075
50	0x3deb75ad	0.11497054
51	0xbe6a4ce5	-0.22880895
52	0x3de30e32	0.11086692
53	0xbde57b75	-0.11205188
54	0x3d17cd7e	0.037061207
55	0xbde93a98	-0.11388129
56	0x3e02e0d4	0.12781078
57	0x3d92a44b	0.07160243
58	0xbd9204f0	-0.07129848
59	0xbe4bb8f1	-0.19894768
60	0x3e7fd6e7	0.24984322
61	0x3e32372a	0.17403856
62	0xbd56c2a6	-0.052431725
63	0x3d75678d	0.059913207
64	0x3ca0fc30	0.019651502
65	0xbdf9c575	-0.12195865
66	0x3ea2d321	0.31801704
67	0x3eb05344	0.34438527
68	0xbe9cf763	-0.3065749
69	0x3dd5da1a	0.1044199
70	0x3dc77c3d	0.097404934
71	0xbd931895	-0.07182423
72	0xbd364836	-0.04450246
73	0xbdb32fcf	-0.08749353
74	0xbe048463	-0.12941127
75	0xbe2c9a2e	-0.1685569
76	0xbdd05729	-0.101728745
77	0x3dd6d6c5	0.10490183
78	0xbd9d0d10	-0.07668507
79	0x3d587920	0.05284989
80	0x3e7099e8	0.2349621
81	0x3e4422ba	0.19153872
82	0xbe2a5ba6	-0.16636524
83	0xbdb4b2c9	-0.08823163
84	0xbe04579d	-0.12924047
85	0x3da7eadf	0.08199095
86	0xbd4f14dc	-0.050557002
87	0xbe0d66ba	-0.13808718
88	0x3d0c8fe4	0.034316912
89	0x3dc089db	0.09401294
90	0x3d4c7c3a	0.04992316
91	0xbdb086be	-0.0861945
92	0xbec5cf68	-0.386348
93	0x3e1a39db	0.15061133
94	0x3bcf0e1d	0.006318821
95	0x3d67a2b5	0.056551654
96	0x3d909e0f	0.07061397
97	0xbdaae415	-0.083442844
98	0xbb28da5a	-0.0025764913
99	0xbdca9e25	-0.09893445
100	0x3e16d9fa	0.14731589
101	0xbe20423d	-0.15650268
102	0x3d0efc8c	0.034908816
103	0xbe52437e	-0.20533559
104	0xbe0d493d	-0.1379747
105	0xbe43ec12	-0.19133022
106	0x3dbc0d6c	0.091822475
107	0x3e17ca5e	0.1482329
108	0x3e39e0eb	0.18152206
109	0xbcd0138b	-0.025399944
110	0xbe70dcd4	-0.23521739
111	0x3dee382f	0.1163181
112	0xbd619393	-0.05507238
113	0xbe4427b5	-0.19155772
114	0x3d2ff1a3	0.042955052
115	0x3dd182e1	0.10230041
116	0x3bdcf853	0.0067434697
117	0xbdbb7e70	-0.091549754
118	0x3d7dc7f7	0.06195828
119	0x3e265a29	0.16245331
120	0x39b4898e	0.00034434762
121	0x3d835ffc	0.06414792
122	0xbe0a4c91	-0.1350577
123	0x3ddea7e5	0.10871867
124	0x3e669a3b	0.22519772
125	0x3d88c9e6	0.06679134
126	0xbddc519a	-0.10757752
127	0x3e12d2fd	0.14338298
128	0x3e420ce2	0.18950227
129	0xbdb3ac0f	-0.08773052
130	0x3e5e7e34	0.2172783
131	0x3e61f0b3	0.22064476
132	0xbd918240	-0.07104921
133	0x3d38aa10	0.04508406
134	0x3e0cfcbe	0.13768288
135	0xbd67d322	-0.056597836
136	0xbe71fdd8	-0.2363199
137	0xbd06870a	-0.032843627
138	0xbe151a93	-0.14560919
139	0xbe28a56e	-0.16469356
140	0xbe4c07b3	-0.19924812
141	0xbcf6a66c	-0.030108653
142	0x3dcb15b7	0.09916251
143	0x3e8d5f1d	0.27611628
144	0x3e267376	0.16254982
145	0x3e048503	0.12941365
146	0x3e40da85	0.18833359
147	0x3df044e3	0.11731889
148	0x3d89e7d6	0.06733672
149	0xbdc8a11e	-0.09796356
150	0xbe2b9250	-0.16755033
151	0xbd3a47eb	-0.045478743
152	0xbe2bf03b	-0.1679086
153	0x3dcb9a85	0.09941582
154	0x3d6ac3a2	0.057315476
155	0x3dffebfe	0.12496184
156	0xbec235d6	-0.379317
157	0x3d0cfed9	0.03442273
158	0xbe0cc05a	-0.13745251
159	0x3c03ecb8	0.008052044
160	0x3d61107a	0.054947354
161	0xbcd22a79	-0.025655018
162	0x3d9743c1	0.0738597
163	0x3d5f43e0	0.05450809
164	0xbc46ce7b	-0.01213419
165	0xbd02b2ce	-0.031908803
166	0x3ba3850d	0.004990226
167	0xbe1f3448	-0.15547287
168	0x3dac134d	0.08402119
169	0x3cacd8b6	0.02109943
170	0xbdb1e37e	-0.08685969
171	0x3e575403	0.21028142
172	0xbd4b5dc3	-0.049649965
173	0xbe21d4cd	-0.15803833
174	0xbd140caa	-0.03614489
175	0x3e9c0e56	0.30479687
176	0xbd10f946	-0.035393976
177	0xbe0ee208	-0.13953412
178	0x3d5a48cc	0.05329208
179	0xbe2544c4	-0.16139513
180	0xbd05d886	-0.032677196
181	0x3db21a7b	0.08696457
182	0x3dd3a032	0.10333289
183	0x3cebbb68	0.028775886
184	0xbbc18d02	-0.005906702
185	0x3e26c4b6	0.16285977
186	0xbe282871	-0.16421677
187	0x3e9d3656	0.30705518
188	0x3ea27b0a	0.31734496
189	0xbd7225f6	-0.059118234
190	0x3d63982b	0.05556504
191	0x3db92223	0.09039714
192	0x3d4e5c70	0.050381124
193	0x3e01ddae	0.1268222
194	0xbe299d53	-0.1656392
195	0xbdc395b0	-0.09550035
196	0x3dc93962	0.09825398
197	0x3d5c1093	0.053726744
198	0xbe2b20ce	-0.16711733
199	0xbdf2b668	-0.118511975
200	0xbbd3dee7	-0.006465781
201	0x3dd3e51c	0.103464335
202	0x3ddbb7eb	0.10728439
203	0xbdfef7da	-0.12449618
204	0xbbc572c4	-0.006025644
205	0xbd0cfad3	-0.034418892
206	0x3e10cc75	0.14140494
207	0xbd9dc41e	-0.07703422
208	0xbba68a9b	-0.005082441
209	0x3dbdea62	0.092732206
210	0xbdaf2a04	-0.08552936
211	0x3d9ca823	0.07649257
212	0x3e0fb8a1	0.14035274
213	0xbdab576d	-0.083662845
214	0x3d6b4984	0.057443157
215	0x3d874ce3	0.06606462
216	0xbe3b0fa9	-0.18267693
217	0x3d559618	0.052145094
218	0x3b66ed36	0.0035236604
219	0xbd2d8cb1	-0.042370502
220	0x3d453d22	0.048154004
221	0xbdc783c8	-0.09741932
222	0xbca742a4	-0.020417519
223	0xbd8cbff0	-0.06872547
224	0x3d81f43d	0.06345413
225	0x3e12aed7	0.14324509
226	0x3caa95d9	0.020823406
227	0xbdebcf5e	-0.115141615
228	0xbd9128aa	-0.07087834
229	0xbce15226	-0.027504992
230	0xbc2e1649	-0.01062543
231	0xbe1eca89	-0.15506949
232	0xbd75800f	-0.05993658
233	0xbc2f4d7f	-0.010699629
234	0xbd1a8314	-0.037722662
235	0xbde8864f	-0.11353742
236	0x3e03ba7d	0.12864108
237	0xbe0a780f	-0.13522361
238	0xbe128077	-0.14306818
239	0xbd280077	-0.04101607
240	0xbe1d1ae2	-0.15342286
241	0x3daf246e	0.0855187
242	0xbe391283	-0.18073468
243	0x3c8e0af9	0.017339217
244	0xbd409e1c	-0.047025785
245	0xbd7a500c	-0.061111495
246	0x3e2a46a0	0.16628504
247	0x3c93bad0	0.018033415
248	0xbd364f4f	-0.04450923
249	0x3d3b1a8d	0.045679618
250	0xbde04b01	-0.10951806
251	0x3da9867a	0.082776025
252	0xbc8ab025	-0.016929695
253	0xbcdc00c1	-0.026855828
254	0x3b169338	0.0022975933
255	0xbe3145e6	-0.1731182
