Riproduzione/lstm_small_batch_1.tflite (tflite, 231356 bytes, 29 tensors)

sequential/dense_1/BiasAdd/ReadVariableOp f4 [15]
000000 3f a5 db bc ac 23 8a bb a1 ab 22 3e a6 64 16 3d
       -0.026812194 -0.004215678 0.15885784 0.03671708
000010 7c ad b6 bd e4 61 a5 3d 7c cc 4a bc 1c 28 c8 bc
       -0.08919808 0.08075312 -0.012377854 -0.024433188
000020 01 bf 15 3d 22 03 02 bd 58 20 13 3d 9a e9 10 3d
       0.03655911 -0.03174127 0.035919517 0.03537903
000030 1d 69 3e bc e4 37 13 3d c0 fb 0e 3d
       -0.011621741 0.035941973 0.034908056

sequential/dense/BiasAdd/ReadVariableOp f4 [30]
000000 fd e0 0f 3d b7 18 8a 3c 92 99 2c 3d 10 fa 4b 3d
       0.035126675 0.016857488 0.042138644 0.049799025
000010 95 f4 10 3d 2b 6b dd bb 8f 12 78 3c 61 ea 18 3d
       0.0353895 -0.00675716 0.015141143 0.037332896
000020 78 14 16 3d fa 09 be bb b8 cb 05 3d e4 82 d1 ba
       0.036640614 -0.005799529 0.032664984 -0.0015984443
000030 10 96 88 3c 37 b4 15 3d 3a 7f 46 3d 0e 23 c4 3c
       0.016673118 0.03654882 0.048461176 0.023942497
000040 d4 ee 54 ba e3 47 19 3d 43 04 31 3e 50 c9 0e 3d
       -0.00081227464 0.037422072 0.17286782 0.034859955
000050 86 1f 9f 3d de 77 63 3d 36 5c 97 bb 2b 68 d4 3d
       0.077696845 0.055534236 -0.0046191467 0.10371431
000060 1d 2c e5 3c 33 3a 36 3d 7d 4b 02 b9 63 ad 3c 3e
       0.027975136 0.044489097 -0.00012425888 0.18425517
000070 55 ef 0d 3c 19 6a c0 3c
       0.008663018 0.023488091

arith.constant f4 [30, 30]
000000 a5 74 10 bd 53 b2 21 3c 1e 7f 43 bc 39 4b 0f be
       -0.03526749 0.009869176 -0.011932163 -0.13993539
000010 aa 7c c6 3c 5d ac 3f 3d 43 5d 32 3e d4 23 ce bc
       0.024229366 0.046795238 0.17418389 -0.025163569
000020 2c 8e b2 3c a3 f6 64 3e b6 9e ae bc 63 6a 19 3c
       0.021796308 0.2235971 -0.021315914 0.0093637435
000030 f3 ae 4f 3b 06 67 19 3d a4 a3 23 bd 8c fe 09 bc
       0.0031689971 0.037451766 -0.03995098 -0.008422505
000040 49 93 a7 3c 10 27 2d bd 39 01 47 3d 84 d8 03 bd
       0.020455973 -0.04227358 0.04858515 -0.032188907
000050 00 31 0d bd 90 8c d8 bc 5d 35 73 3c 05 65 f1 3d
       -0.03447056 -0.026434213 0.014844266 0.11786846
000060 15 a0 39 3e 02 e0 e3 3d cd 5c a7 3c 95 5f a2 bd
       0.18127473 0.111267105 0.020429993 -0.07928387
000070 24 fa 1b 3d 5a c3 d9 3d e8 d5 ec bd ea c1 a9 bc
       0.03808035 0.106329635 -0.11564237 -0.020722348
000080 72 c1 bb bd c8 be 45 3e 3d 7c 45 3e 85 fa 76 3d
       -0.09167756 0.19311059 0.19285674 0.060297508
000090 c9 3b 91 bd 02 80 03 be 2a 46 b8 bc c7 87 a9 3c
       -0.07091481 -0.128418 -0.022494394 0.020694626
0000a0 ae 4b c4 3d a4 7a ae 3e b5 15 5b bd 58 c1 b1 3c
       0.09584747 0.34077942 -0.0534875 0.021698639
0000b0 5c 8d 7e bc 68 b2 0a 3d c0 d3 8c bd 87 3c 39 bc
       -0.015536632 0.033861548 -0.068763256 -0.011305935
0000c0 80 33 55 3e 54 b1 a7 bd 70 55 9d bd 5f b8 0d 3e
       0.20820427 -0.081881195 -0.076823115 0.13839863
0000d0 ae 6b 52 3d f8 ba 0c be af 26 96 bc cb fd 11 3e
       0.051372223 -0.13743198 -0.018328993 0.1425697
0000e0 68 04 7b 3d 49 cd 1d bc 46 e3 c1 3c 79 a4 5f bd
       0.0612835 -0.009631463 0.023667943 -0.054600213
0000f0 8a a8 3d bc a0 7e 4d bd a1 66 d5 3c ce 25 1d 3e
       -0.011575827 -0.050169587 0.026049914 0.15346453
000100 73 d6 97 3c 6a a4 05 be 3d 2b 80 bd 9a 0f 00 be
       0.018534875 -0.13051 -0.06258247 -0.12505952
000110 be 92 ce bd 60 14 7e bd 85 26 eb 3d e5 1b 74 bd
       -0.100865826 -0.06203115 0.114819564 -0.059596915
000120 19 44 14 be a2 75 f7 3b 13 cc 03 be a1 eb de bd
       -0.14479102 0.0075518647 -0.12870817 -0.108847864
000130 f9 28 2a be 56 18 0d be ef 2c bf bd 44 d4 fe bc
       -0.16617192 -0.13778815 -0.09334742 -0.031107076
000140 17 20 80 3d 6d 63 cb bd 2d 54 4a 3e 1f 9e 6f bd
       0.06256121 -0.09931073 0.19758673 -0.058500405
000150 18 8b 15 3e 39 f3 a8 bd 31 60 4a 3d 75 75 9a 3c
       0.14603841 -0.08249516 0.04940814 0.018854836
000160 3b a8 5a 3c 4e 23 52 3d a9 d9 3a 3c 7c 55 0d bd
       0.013345773 0.0513032 0.011404433 -0.034505352
000170 ac 75 f3 3d 1f ba 4b 3d c6 19 35 3d f0 03 23 3e
       0.118876785 0.049738046 0.044214033 0.15919471
000180 94 37 fa bd 85 36 9f 3d 3c 9b ca 3d 7a 42 9e 3c
       -0.12217632 0.07774071 0.0989289 0.019318808
000190 14 7a 32 3c e2 ea 5f 3d 69 9f c9 3d c2 31 4b 3c
       0.0108933635 0.05466736 0.09844858 0.012402
0001a0 3d 44 47 3d c0 b1 ac 3d 40 30 5f bc 74 48 94 3c
       0.04864906 0.084323406 -0.013622344 0.018100955
0001b0 09 fb c0 ba c7 bb f0 bd 72 2a 22 3c 00 b8 ce 3d
       -0.0014723252 -0.11754566 0.009897815 0.10093689
0001c0 e0 df fa 3d c9 ba 96 bd 36 82 0f 3d ec be 0d 3e
       0.12249732 -0.07359845 0.03503629 0.13842362
0001d0 c9 06 f9 bd 64 09 f1 3b 87 40 84 bd 86 4e 07 3e
       -0.12159497 0.007355856 -0.0645762 0.13213548
0001e0 3e d1 09 bd 13 b4 ed bd 69 c8 0b 3e fa 52 6b 3c
       -0.033646815 -0.11606612 0.13650669 0.014363045
0001f0 c0 27 0a bd cd de 7d 3d d2 9f aa bd 3f 55 88 bd
       -0.033729315 0.061980058 -0.083312646 -0.066568844
000200 f0 de 3e be 06 b4 c9 bd 72 f8 83 3d 06 20 03 3e
       -0.18639731 -0.0984879 0.064438716 0.12805185
000210 dd a0 e4 bd 29 c8 8c 3c d9 d3 b7 bd e5 60 e8 bd
       -0.11163495 0.017185288 -0.089759536 -0.11346606
000220 29 82 72 bc 0e 9b 89 3d 05 89 93 bd ef af 7d bd
       -0.01480154 0.067190275 -0.07203869 -0.06193536
000230 6e 6a e3 bc 4d b8 e1 3c 1b ce ba bd 6a 30 d5 bb
       -0.02776071 0.027553702 -0.09121343 -0.0065060155
000240 0c df 60 3a 11 84 7b 3d b9 7b 24 3e 8a 7a 45 3d
       0.00085781584 0.061405245 0.16062821 0.048212565
000250 38 ec 03 3d 17 76 01 be ec d7 67 be 27 f7 f0 3d
       0.032207698 -0.12642704 -0.22640961 0.117658906
000260 50 53 53 be 43 0f e7 bc 3f 07 74 3d 4c de 38 3e
       -0.2063725 -0.02820552 0.059577223 0.1805355
000270 5d b9 18 3e 4d 6f 90 bd c5 b0 ee bd 5f d0 ac 3d
       0.1491446 -0.07052479 -0.1165481 0.08438181
000280 94 b4 2f 3e f0 23 2a 3e 5c 8c 84 3e 29 4c 9e 3e
       0.17158729 0.16615272 0.25888336 0.3091748
000290 16 2c 31 3e 36 32 3f bd f6 40 3e be f7 ce 15 3e
       0.17301974 -0.046678744 -0.18579468 0.14629732
0002a0 bc ed 86 be f2 8a a3 be 2f 9c 94 bd 2f a7 a8 3d
       -0.26353252 -0.31941944 -0.07256352 0.08235013
0002b0 f9 6c 9b 3d f5 c5 6d be d7 2d 42 be e3 a1 aa 3d
       0.07589144 -0.23220046 -0.18962799 0.08331659
0002c0 23 e0 86 3e 11 91 8f 3e bb 5b 4e 3d 64 6b e8 3d
       0.26342878 0.28040364 0.05038045 0.11348608
0002d0 bd bc 0e bd c3 51 cd bc 88 d6 9d bd f4 b5 e2 3d
       -0.034847964 -0.025063401 -0.07706934 0.11069861
0002e0 1d 78 e1 bc e2 1c 2c 3e b0 ff 9a 3c 05 0c cc 3d
       -0.027523095 0.16807893 0.01892075 0.0996323
0002f0 b1 b1 07 bd b5 40 60 bd 32 1d 88 bd a7 28 9f 3a
       -0.033128444 -0.05474921 -0.066461936 0.0012142853
000300 cf 81 72 3d 9e e1 19 3e da 0e 1f be bb 0f 26 3e
       0.059205826 0.15027472 -0.15533009 0.16216938
000310 76 0f c5 bc 18 be 91 3b 82 09 82 bc 3c 40 e1 bd
       -0.024055224 0.00444771 -0.015873674 -0.1099858
000320 98 c4 02 be a7 03 0c be 5e 5b 9d 3c 95 04 90 bc
       -0.12770307 -0.13673268 0.019208606 -0.01758031
000330 4d d5 d8 bd 5e b6 2b 3d a5 c7 0a 3e fd a9 48 be
       -0.10587559 0.041921966 0.13552721 -0.19596095
000340 c0 3c 78 bc 14 ee c8 3d 45 22 85 bd b3 71 4e 3d
       -0.015151203 0.09811035 -0.06500677 0.0504014
000350 c7 b7 90 bd 2e 92 3f 3d eb 1a 33 3e 41 15 4c 3e
       -0.07066303 0.046770267 0.17490737 0.19929983
000360 0d 87 22 3e fe d6 3f bd 73 8a 4d be 8c ed 2a 3e
       0.1587183 -0.046835892 -0.20072345 0.1669218
000370 42 2e 0b 3e 46 16 3c 3d af 62 31 3d 21 4b 81 3c
       0.13591865 0.04591968 0.043307003 0.015782895
000380 9e fd 8e bc 20 03 2a bd f1 d1 b5 bd bc 15 71 bd
       -0.017454918 -0.041506886 -0.08877934 -0.05885862
000390 e8 e7 89 be a3 19 96 bd 4c 32 61 be ad 8c 4c 3e
       -0.26934743 -0.073291086 -0.21991843 0.19975539
0003a0 ff 7b 23 3c a8 67 cb bd 2a 65 81 bd 5c ff 4f 3e
       0.009978293 -0.0993188 -0.06318124 0.20312256
0003b0 54 68 28 3d 78 0b 78 3d 05 85 3d bd 0e 1e 57 3e
       0.04111512 0.060557812 -0.046269435 0.21007559
0003c0 f4 20 84 bc 90 d1 66 3c c9 cf bc 3d 47 6e 49 3e
       -0.016128995 0.0140880495 0.092193194 0.19670974
0003d0 20 28 b0 bc 18 f3 3e 3e 9a a8 d2 3d 50 de 62 bd
       -0.021503508 0.1864742 0.102860644 -0.055387795
0003e0 5e 22 0d 3e ef 44 ff bc 7d 64 f6 3d 9b b9 0f bd
       0.13782641 -0.0311608 0.12030885 -0.035089117
0003f0 bc 79 e3 3d b5 8e 1c 3e 09 fd a5 3d 66 c5 3c bd
       0.11107203 0.15288813 0.08104903 -0.04608669

arith.constant1 f4 [30, 30]
000000 db d4 e6 bc 94 8d ff bd 00 52 f7 3c 42 ef c5 bc
       -0.02817767 -0.12478176 0.030190468 -0.024161939
000010 7e 97 35 ba 68 0e d3 ba a7 4f 0a 3e 15 20 dc bd
       -0.0006927176 -0.0016102316 0.13506947 -0.10748307
000020 12 d3 c1 3d 59 c6 66 bd 80 cc 97 bd 84 5e 80 bd
       0.094640866 -0.056341503 -0.07412052 -0.062680274
000030 bb 2d 23 bd 07 3e 06 be f9 ba 00 be 48 e5 8a bd
       -0.039838534 -0.13109599 -0.12571324 -0.06782013
000040 45 ef 0b 3d 8b 43 89 3d e6 a8 a6 bd 6e c9 04 3e
       0.034163732 0.06702336 -0.081376836 0.12967464
000050 09 de f2 bb 76 f7 70 3d b4 e4 01 bd 79 a9 27 3e
       -0.0074117226 0.058829747 -0.03171225 0.16373242
000060 2b 69 e9 bc 8c 4f e2 bc 4b cd 78 bd e9 e6 6f 3d
       -0.02849253 -0.027625822 -0.060742658 0.058569822
000070 20 8a 48 bd 90 56 6e bd 89 88 16 3c 74 f6 d5 bc
       -0.04895985 -0.05818802 0.009187826 -0.026118495
000080 b4 85 34 3d fa 74 ad bd b3 bc 39 be 9e 8e b5 bd
       0.04407282 -0.08469577 -0.1813839 -0.08865093
000090 3e 78 6e 3d 00 8e dc 3c 4e 79 36 bd f8 fe 39 bd
       0.05822014 0.02692318 -0.04454928 -0.045409173
0000a0 1e 5d 32 3e 67 63 8f 3c 32 79 73 3c 01 09 6c 3e
       0.17418334 0.017503453 0.014860438 0.2305031
0000b0 00 f8 1f 3e e2 ca 07 3e aa d1 d7 bd 44 ca be bd
       0.15621948 0.13260987 -0.10538037 -0.09315923
0000c0 b7 5f 60 3d 8c 27 c2 3d 1f 63 ed 3c 87 03 f9 3d
       0.05477878 0.09480199 0.028977929 0.12158876
0000d0 d3 2e 96 3d c4 ec c8 bd 18 ea f6 3d 4b 3c 8d bb
       0.0733315 -0.098107845 0.120563686 -0.004310166
0000e0 2b 0c 3d bd 22 8f 92 be 6b 2e 07 3d 17 08 ab 3c
       -0.046154182 -0.28624827 0.033003252 0.020877881
0000f0 6c 94 36 3d 5f 00 29 3e 4b 40 15 3d 2d c6 78 bd
       0.04457514 0.16504048 0.036438268 -0.06073587
000100 ae 7e 9e bd 22 79 8c 3d 3a 16 f1 bd c0 96 18 be
       -0.07739006 0.06859042 -0.117718175 -0.14901257
000110 47 08 60 3c 86 77 e7 3d 6a 73 02 bb 73 96 13 3e
       0.0136738485 0.11302094 -0.0019905218 0.1441286
000120 fa 9d a8 3d 48 52 8a bd a5 5b 38 3d a0 21 4c bd
       0.08233257 -0.06753975 0.045009274 -0.049836755
000130 34 23 29 3e 88 c6 ff bd 26 37 bd bd 71 03 ad bd
       0.16517335 -0.12489039 -0.09239034 -0.08447922
000140 1f f7 9e bd 6e eb 82 bd f9 6e 72 3e b2 3a fc bd
       -0.07761978 -0.06392561 0.23675145 -0.12315883
000150 e7 b4 ff bd 5f 19 94 bd 48 0e 22 3b ce 68 10 be
       -0.12485676 -0.07231402 0.002472775 -0.1410248
000160 49 8f 41 3d e5 b6 93 bd 52 4a e5 3a d4 3a ff 3d
       0.047255788 -0.07212619 0.0017493463 0.124623924
000170 14 82 1f 3b 77 18 3f 3d f7 56 96 be ab bc dc bc
       0.0024339007 0.04665419 -0.29363224 -0.026945433
000180 36 93 0b be 73 26 62 3b ac 65 74 bc 67 88 15 be
       -0.13630375 0.003450778 -0.014916819 -0.14602815
000190 f5 33 4e 3e 54 bf d1 bd de ae 2d 3e 04 f9 20 3c
       0.20137008 -0.10241571 0.16961238 0.009824995
0001a0 e7 44 5f bd 21 ab 17 bd 51 82 3d bd 3e 3b 86 bd
       -0.05450907 -0.037028436 -0.046266858 -0.06554268
0001b0 65 3a a7 3d 69 9b 7b bd f1 2b ef 3d f9 f6 40 bd
       0.08165435 -0.061427508 0.11678303 -0.04711053
0001c0 44 1d 5b 3d c5 8f a7 3d 02 ca a5 3d 52 32 2c 3d
       0.053494707 0.08181719 0.080951706 0.042040177
0001d0 87 d8 df bb c1 9a 20 3d 9a c5 12 bd a2 02 7d 3c
       -0.006831232 0.039210085 -0.03583298 0.015442522
0001e0 29 9c c8 3c a6 47 87 3c 0e bb f1 bd 24 db d1 3d
       0.024488525 0.016513657 -0.11803256 0.10246876
0001f0 0e a9 35 be 6f 45 4e 3e 68 59 ad 3d 2d 74 9d 3d
       -0.1774027 0.20143674 0.084643185 0.076881744
000200 e6 cb b3 3d 02 14 57 3d ab b8 35 3d c2 a5 42 3c
       0.08779125 0.052509315 0.044365566 0.01188034
000210 85 75 b5 bd e8 a2 2a 3b 25 a3 86 3d 59 ee a1 bd
       -0.08860306 0.002603704 0.06574086 -0.07906789
000220 02 c5 6a 3d 6f cd 7d bd 6e 5d 82 bd 89 68 8e bd
       0.057316788 -0.061963495 -0.063654765 -0.06953532
000230 a4 9b 18 be e6 95 5f 3d af 5c 0c bd 11 b6 8d bd
       -0.14903122 0.054586314 -0.034268077 -0.06919492
000240 b3 42 42 be 8c a4 cb bd 99 98 6a 3d f3 28 5e 3d
       -0.18970756 -0.09943494 0.057274435 0.05423827
000250 25 48 1b 3e 3c 16 4f bd 79 5f 48 3e e7 f7 14 bd
       0.1516424 -0.050558314 0.1956767 -0.03636923
000260 6e 71 d5 3d c0 04 83 3c 26 a9 bd 3b 92 8b 1f bd
       0.104220256 0.015993476 0.0057879863 -0.038951464
000270 10 92 c9 3d b2 96 0a be a0 c5 19 3d b2 35 9f 3c
       0.09842312 -0.13534048 0.037541986 0.019434784
000280 75 87 2d 3d 70 2a 0f 3e 10 e9 d1 bc b6 d4 d4 3d
       0.04236551 0.13981032 -0.025623828 0.10392134
000290 a6 64 25 3d 32 c9 eb 3d d5 3b fb 3d 39 f6 19 3e
       0.04037919 0.11512984 0.122672714 0.15035333
0002a0 ea fe d5 bd bc 27 24 3e 16 60 c1 3c 70 5d 1d be
       -0.104490116 0.16030782 0.023605388 -0.15367675
0002b0 df 1f 8d 3c 7f b2 36 be a1 12 9a 3d fb 98 8d 3b
       0.017227111 -0.17841528 0.075230844 0.004321215
0002c0 48 ec d6 bc 6d 3c 9d 3c 3f 58 e1 3d 95 34 41 3e
       -0.026235715 0.019193852 0.1100316 0.18867715
0002d0 06 c1 57 3c 8e fb 13 bd 94 69 af bc 78 1f 63 3e
       0.013168579 -0.036128573 -0.021412648 0.22179973
0002e0 2e 82 a5 bd 5a 73 8a 3d 3c d6 c0 bd 17 2e 1f bd
       -0.080814704 0.06760283 -0.09415862 -0.038862314
0002f0 e1 15 07 3d 76 a3 9b bd bc 45 a5 bc 42 a4 97 bc
       0.03297985 -0.07599537 -0.020174854 -0.018510941
000300 52 45 45 be a4 f5 6f bd 66 a4 cf bc 26 6f 74 bd
       -0.19264725 -0.05858387 -0.025346946 -0.059676312
000310 cd 3e 98 3d db 9e 69 3e c6 73 ab 3e c9 a8 2c bd
       0.07433853 0.22814505 0.33486766 -0.042153154
000320 ae 86 ce 3d 24 30 6c bc 30 b0 86 bd d4 10 33 bc
       0.10084282 -0.0144157745 -0.06576574 -0.010929305
000330 68 a3 61 bd de 58 4d be ae 1f 1d 3e 89 29 5f bd
       -0.055087477 -0.20053431 0.15344116 -0.05448297
000340 74 83 3a 3e 6c 36 94 3c 42 0a c4 bd 8f 29 51 3d
       0.18214208 0.018092357 -0.09572269 0.051065024
000350 26 b5 15 be 41 c9 9b 3d 01 35 27 be a3 08 1d be
       -0.14619884 0.076067455 -0.16328813 -0.15335326
000360 1d c3 1b ba 6f 8a e6 bc 6c a5 d7 3d 06 dd 97 bd
       -0.0005941855 -0.028142182 0.105295986 -0.07415204
000370 fb d1 49 bd 18 35 36 3c d0 4d 18 be a1 ca 0f bc
       -0.04927252 0.011121057 -0.14873433 -0.008776338
000380 32 3e c5 3c 4f f5 2a bd d8 3e 93 3c 8a d8 28 3e
       0.024077509 -0.04173785 0.017974302 0.16488853
000390 fc 63 6d be c6 fc 15 3e 5e 15 04 3d 71 b1 f7 bd
       -0.23182672 0.14647207 0.03224694 -0.12094391
0003a0 43 15 c3 39 22 45 89 3d ef 52 ce bc 9d cb dc 3d
       0.0003720914 0.06702639 -0.02518603 0.10781024
0003b0 90 c2 b2 bc 83 3a a4 3b e8 78 cc ba 09 27 59 bd
       -0.02182129 0.005011858 -0.0015599998 -0.053015742
0003c0 13 47 55 bd e5 f5 75 3c ee 94 a4 3d 50 b8 be 3d
       -0.052069735 0.015012239 0.080362186 0.093124986
0003d0 e0 95 12 bd 52 38 a2 3e 50 15 ec 3d ae 51 6c 3d
       -0.035787463 0.31683594 0.115275025 0.057695083
0003e0 09 7b ed 3c 41 93 8c bd 02 be 07 bc 52 59 48 3c
       0.028989332 -0.06864024 -0.0082850475 0.012228327
0003f0 be 44 78 3c f8 8c 2a 3b bb 53 0e bd 62 e9 cc 3b
       0.015153108 0.0026023965 -0.03474782 0.0062534073

arith.constant2 f4 [30, 30]
000000 b1 cb d8 bc a1 a4 8d bc e6 26 92 bc a3 c5 f4 bd
       -0.026464315 -0.017290415 -0.017840814 -0.11951759
000010 67 d1 1d bd 5d 08 04 bd d5 82 52 3d d8 65 ce 3d
       -0.03852978 -0.03223454 0.051394302 0.10078019
000020 89 d1 bf 3d 61 62 b9 bd 08 80 1c 3d 7d 4d 88 3e
       0.093661375 -0.090519674 0.038208038 0.2662162
000030 d6 a3 a5 3c 64 f0 10 be 3f 0f be 3d fe 62 da bc
       0.020219725 -0.14154202 0.09280252 -0.026658531
000040 77 1d a2 bc 0e 6b 91 bd ec ef e8 bd f4 82 d8 bb
       -0.01978944 -0.07100497 -0.113738865 -0.0066074077
000050 8a 7f 4a bd 7c 6c 7d bd a5 cc e4 bd 6a f2 ae bd
       -0.049438037 -0.061871037 -0.11171845 -0.085423306
000060 3f cb 90 bd 1f b0 27 3c fb 6f 20 be 3c 96 81 3c
       -0.07070016 0.010234862 -0.15667717 0.015818708
000070 88 29 40 3b 06 a0 8b 3d 2f bc 49 bd 79 2e 5b 3d
       0.002932163 0.068176314 -0.04925173 0.053511117
000080 85 15 32 3d f4 00 cd bd 1e 40 4a 3c dc 19 50 3e
       0.043477554 -0.100099474 0.012344388 0.20322365
000090 b0 4d d3 bd ac 21 9b bd ab e2 92 bc b1 21 8e 3d
       -0.10317552 -0.07574782 -0.01793035 0.0694002
0000a0 3f ea 9d 3c 85 2a ff bc 75 d3 3b 3d 8e c0 42 3d
       0.019276736 -0.031148205 0.045855958 0.047546916
0000b0 84 89 bd 3d 9d 44 bd bd d4 5f 10 3d dc 7d 15 3d
       0.09254745 -0.092416026 0.03524764 0.036496982
0000c0 62 83 4e 3c 4b 1d b9 3d 10 eb e8 bd 97 ad b6 3b
       0.012604566 0.0903879 -0.113729596 0.0055748927
0000d0 63 7d 55 3d d5 8c 16 bd 92 ec a0 bd 33 77 92 3d
       0.05212153 -0.0367554 -0.07857622 0.07151642
0000e0 09 2f 4c 3e 61 54 1b be e9 41 46 3d ac ab c5 bb
       0.19939817 -0.15168907 0.0484027 -0.006032428
0000f0 ee 21 9d bb e6 16 68 3d c7 1d a1 bd b4 d7 c3 bd
       -0.0047953045 0.056662463 -0.07867008 -0.095626265
000100 39 7b ad bd 27 01 62 3b 69 22 53 bd fe 30 e9 bc
       -0.084707685 0.003448555 -0.051546488 -0.028465744
000110 86 34 21 3e 97 ec f0 bc 8a 85 17 be 28 61 29 bd
       0.15742692 -0.02940969 -0.14797035 -0.04135242
000120 e6 29 8b 3c 47 cd 65 3d e1 a5 3b bc a4 48 51 3e
       0.016987752 0.05610397 -0.011453123 0.20437866
000130 e8 f1 5e 3c fe 59 35 bc e1 43 97 3c 4c f0 29 be
       0.01360748 -0.011068819 0.018464984 -0.16595572
000140 00 d4 b1 3d 13 e3 5c be a0 83 07 bd d5 8f c2 bc
       0.08683014 -0.21570997 -0.03308451 -0.023750225
000150 d0 9a bd 3d 29 a7 92 bd fe f0 ec bd f3 3d dc bc
       0.09258044 -0.071607895 -0.11569403 -0.026885008
000160 3e 90 93 bd ce e5 93 bd fa 99 f7 3d 0e 50 df bd
       -0.072052464 -0.07221566 0.120899156 -0.10903941
000170 9e 69 ae 3b 32 6c a5 3d 76 a9 2c be 11 0a 92 3d
       0.005322649 0.08077277 -0.16861519 0.07130826
000180 5a c0 8a bd a4 d5 4e 3d 8c 58 8a 3d e5 88 1c 3e
       -0.067749694 0.050496712 0.0675517 0.15286596
000190 e9 c6 ce 3d ae 9b ff bc 3b 4b 8e 3c c0 c5 87 3c
       0.10096533 -0.031202164 0.017369857 0.016573787
0001a0 58 94 a5 3c fe bd 86 bd 77 39 0b bd 5d 4f ac bd
       0.020212337 -0.06579207 -0.03399035 -0.08413575
0001b0 e2 ef 19 be a2 6b 32 3e d3 46 5e 3d 5b 8c 64 3c
       -0.15032914 0.17423871 0.054266762 0.013949479
0001c0 c4 36 a6 bd e0 77 f9 bd 2f 19 05 be ea 10 09 3e
       -0.081159145 -0.121810675 -0.12997888 0.13385358
0001d0 51 6a 55 3e af 73 ef 3d d7 4f b0 3d 28 bd 15 be
       0.20841338 0.11691987 0.08608978 -0.14622939
0001e0 db 7c 36 be 93 c8 6e bd 57 9c 19 3e 82 a6 06 3d
       -0.17821066 -0.05829675 0.15001045 0.032873638
0001f0 47 cf 8e 3d f2 2f 44 3e 18 4b 99 bd d0 f2 0c 3d
       0.06973129 0.19158915 -0.07485026 0.03441125
000200 93 12 e6 bd 8a 4b 32 3e 08 05 39 3e 36 09 a7 bd
       -0.112340115 0.17411628 0.18068326 -0.08156054
000210 c4 14 a1 3c 84 e5 76 3d e2 5a 91 bd 87 9a 8e 3d
       0.019663222 0.060277477 -0.07097413 0.069630675
000220 f3 a7 aa bd bf 0f fa bd c2 97 14 bc 01 0a d9 3d
       -0.08332815 -0.122100346 -0.009069385 0.10597611
000230 dd 24 07 bd 6f 5a 00 bc 8f 2a f5 3d 25 53 95 3c
       -0.03299414 -0.007834061 0.11971008 0.018228123
000240 30 e0 3e be a7 a3 20 3d 94 3d a0 3d d1 08 53 bb
       -0.18640208 0.03921857 0.07824245 -0.00322013
000250 d1 b3 29 be 44 af f1 bd 6a f1 41 bd 72 5a 56 be
       -0.16572501 -0.118010074 -0.04734937 -0.2093294
000260 91 ab e7 3d e2 35 96 3d 33 3e cb bd f7 ef f5 3d
       0.113120206 0.07334496 -0.09923973 0.1200866
000270 9b ca 18 be 11 e5 2c 3d ef 2a 8a 3d 8d d4 71 bd
       -0.14921038 0.042210642 0.0674647 -0.059040595
000280 56 28 92 3c 11 bd 22 3d e0 7b 82 3d 13 4c dc bc
       0.0178415 0.03973109 0.063712835 -0.026891744
000290 38 95 a1 bd 5c c3 57 3d c8 f0 b7 3d a4 55 47 bc
       -0.07889789 0.052676544 0.08981472 -0.012166414
0002a0 36 db 1d bd be 69 2d 3d f6 8c c8 3b 3a d7 15 3e
       -0.038539134 0.04233717 0.0061203195 0.14632884
0002b0 45 5f af bc c3 be 4e bd e1 c8 4c 3e ff 1e 92 bd
       -0.021407733 -0.050474893 0.19998504 -0.07134818
0002c0 3e e6 95 3c 5f e0 b5 3d f6 34 1f 3e 7b fe 26 3d
       0.018298265 0.08880686 0.15547547 0.040770035
0002d0 20 99 de 3c af 46 26 3e b1 0c fb 3d 01 0e 30 3e
       0.027172625 0.16237901 0.1225828 0.17192842
0002e0 67 73 11 3e 9b 4d 9f 3c f2 70 c0 bc 40 8f 91 bd
       0.14204179 0.019446185 -0.023491357 -0.07107401
0002f0 a0 9a 06 be 35 38 1a 3c 9b a5 55 3e d5 d4 a5 bd
       -0.13144922 0.009412815 0.20863955 -0.08097235
000300 ec d2 6d 3c 3e 7b 34 3d 84 70 6f 3d 9c df 50 be
       0.01451562 0.044062845 0.058456913 -0.203978
000310 d8 7f d6 bd 52 cd ef 3d 02 b1 89 3d 50 a3 a5 3d
       -0.10473603 0.117090836 0.06723215 0.0808779
000320 66 9e 2b be d3 21 3a bd 9f 84 7b 3e b3 3c 80 bd
       -0.16759643 -0.045442414 0.2456231 -0.062615775
000330 19 4d 2b be 45 45 d6 bd 1c 84 81 3d 12 54 b3 bd
       -0.16728629 -0.10462431 0.06324026 -0.087562695
000340 eb c5 d9 3c 50 8e 49 bd 29 fd 0d 3e 6f f3 1d 3e
       0.026583632 -0.049207985 0.13866104 0.15424894
000350 a2 10 02 3b 5a 8a d3 3d 8e 81 2f 3d e3 2f 67 3d
       0.001984634 0.10329123 0.042848162 0.056442153
000360 5f 1c b9 3d d1 64 98 bd 37 2b 89 3c 3e ba 35 be
       0.090386145 -0.07441104 0.01674424 -0.17746827
000370 1c c6 e1 3d 92 a8 10 bd ea 3a 0c 3d f1 09 c7 bd
       0.110241145 -0.03531701 0.034235872 -0.09718693
000380 d3 c4 ce bd 38 72 c6 3c d6 a0 a6 3d cc ee 87 3d
       -0.10096135 0.024224386 0.08136146 0.06637344
000390 2d 1a 0d bd 51 06 87 3c f9 c1 f5 bd 0c 2a 84 3c
       -0.03444879 0.016482504 -0.11999888 0.01613333
0003a0 59 2c d9 bd 0b 30 bb bd e7 b6 89 3d 28 84 63 3c
       -0.10604162 -0.09140023 0.06724339 0.013886489
0003b0 74 88 3b bd e2 04 9f bd 02 1e 29 3d 13 5f 1b 3d
       -0.04578443 -0.07764603 0.041288383 0.037932467
0003c0 b6 10 00 3e ee 05 57 bd c8 94 1d 3c 50 93 44 be
       0.12506375 -0.05249589 0.009617992 -0.1919682
0003d0 3f 94 53 be c0 ef f6 3d 33 ef 28 be 12 03 aa 3c
       -0.2066202 0.120574474 -0.16497497 0.020753417
0003e0 50 f5 79 bb 98 3d aa bd 24 f8 47 3c 39 db 4d bc
       -0.0038140602 -0.08312529 0.012205157 -0.012564474
0003f0 f0 81 b0 bc 4e f8 f4 3d 96 4e 41 bd 39 24 36 bd
       -0.021546334 0.11961423 -0.047194086 -0.04446814

arith.constant3 f4 [30, 30]
000000 67 3b 52 3c 43 a4 39 3e c0 38 58 3d 8e 71 c2 3b
       0.012831545 0.18129067 0.052788496 0.005933947
000010 cd c2 6f be 52 f4 26 bd 79 db 9b 3d 91 ba 52 3d
       -0.23414154 -0.040760346 0.076102205 0.051447455
000020 2d 6d 1f bc 1d 49 fe bc af 79 8b bd 33 01 7d bd
       -0.009730619 -0.031040723 -0.06810319 -0.06176872
000030 f5 a0 75 3d 13 3a cf 3c d8 96 9f bd 08 19 c5 ba
       0.059967954 0.025296247 -0.07792443 -0.0015037367
000040 4a b4 72 3d 39 93 d6 bc 52 12 b4 3d 63 69 56 bd
       0.05925397 -0.026193248 0.08792557 -0.0523466
000050 d4 0b 8d bd 5b c7 3b 3c 3b cd a3 bd e8 8e 66 bd
       -0.06887022 0.011461104 -0.07998129 -0.05628863
000060 62 e0 fb bd cd 2c a4 3d d2 65 a3 3d 68 59 8e 3d
       -0.12298657 0.080163576 0.07978405 0.06950647
000070 e4 dc 19 3d aa ad fd 3d 14 fb 5e bd d1 61 60 bb
       0.037564173 0.123866394 -0.054438666 -0.003423799
000080 23 13 1e be f6 4f 56 3e 4f a7 55 3d 21 92 95 bd
       -0.15436988 0.2092894 0.05216151 -0.073032625
000090 65 f2 47 3d e3 3e 10 be d8 59 b6 bc f4 14 7f bc
       0.04881515 -0.1408649 -0.022259638 -0.01556896
0000a0 51 22 fb 3d 73 21 8b bd 28 41 72 3c 17 85 7c bb
       0.12262405 -0.06793489 0.014786042 -0.0038531476
0000b0 e6 65 c7 39 c5 8a a3 3c ac c8 b4 bd ac 1c 66 bd
       0.00038032158 0.019963631 -0.088273376 -0.056179687
0000c0 cd 9d d6 bd 9d 5d c0 bc bb f9 0c be d2 ad df 3d
       -0.10479317 -0.023482138 -0.1376714 0.109218255
0000d0 11 61 4a 3e 5a 9f bb bd 3f 5b d8 bd 63 bf de 3d
       0.1976359 -0.09161253 -0.10564279 0.10876348
0000e0 54 11 2a 3e 8d 77 96 3d 20 0b d3 3d 35 d3 1c 3e
       0.16608173 0.07347021 0.10304856 0.15314944
0000f0 2a 8a 48 be b3 27 95 bd 97 9b 2d bd a2 e2 12 3d
       -0.19583955 -0.07282963 -0.04238471 0.035860665
000100 ba 68 27 3e f8 82 32 3d 6c 62 05 3d d4 44 16 3e
       0.16348544 0.043581933 0.032564566 0.14674693
000110 88 d2 b0 bd 77 93 f6 bc fa 58 cb 3b 36 b3 c8 3d
       -0.08633906 -0.030099614 0.006205675 0.09799807
000120 95 81 31 3d 8a 86 15 3e 61 2c 7c bd da a9 10 bd
       0.04333647 0.14602104 -0.06156576 -0.035318233
000130 52 0a ba 3d a6 fe e5 3c df f8 42 be aa 42 d9 bd
       0.09084 0.028075527 -0.1904025 -0.10608418
000140 99 ab c7 3d 02 c1 b3 3c 5e 53 9c 3d 8e 04 d2 3a
       0.097495265 0.02194262 0.076330885 0.0016023086
000150 5f 64 c8 bd 51 0f e6 3d c9 bd 55 bb 10 b8 34 bd
       -0.09784769 0.1123339 -0.0032614341 -0.04412085
000160 77 12 93 3d c4 0c a9 bd a7 08 fb 3d c4 97 1e bd
       0.07181256 -0.08254388 0.1225751 -0.038718954
000170 78 d4 ac bc 23 5a a3 3b 9e 3b 5f 3d 73 ed d6 bd
       -0.021097407 0.0049851104 0.054500215 -0.104945086
000180 16 40 e5 3d d5 fb 47 3e f4 c9 d6 bd 27 8e 82 3d
       0.11193864 0.1952966 -0.10487738 0.0637477
000190 83 75 f6 3d 75 0a 6d 3e 8f f0 56 bd c0 30 45 3d
       0.12034132 0.2314852 -0.05247551 0.048142195
0001a0 48 59 1c be 3a 83 4f 3c 45 f7 a4 bd 01 8b b7 3d
       -0.15268433 0.012665564 -0.080549754 0.0896206
0001b0 83 bc 20 3d c4 b3 21 bd 7b b8 bc bc 32 45 a0 3d
       0.03924228 -0.03947808 -0.023037186 0.07825698
0001c0 d1 b7 2d bd 22 8d a8 bd 2f 2c 18 be ef 2b 3e bd
       -0.04241163 -0.08230044 -0.14860605 -0.046428617
0001d0 b5 79 91 3d 0f 37 72 3c 96 d3 bf 3c 16 e1 98 3d
       0.07103292 0.014783635 0.023416322 0.07464807
0001e0 17 7f 8d 3d 8d 12 80 3d bd 5a 46 3d 73 06 52 bd
       0.06909006 0.06253538 0.04842638 -0.05127568
0001f0 d2 ec 49 bd 47 51 93 3c 5d 81 98 bd c1 b5 60 bb
       -0.049298115 0.017983092 -0.07446549 -0.0034288021
000200 ba 9e f0 bd ba 0d 6d bc a9 6a 82 3c 03 bd 1b bd
       -0.11749025 -0.014468605 0.01592 -0.038022052
000210 76 e4 8e 3c 43 ed a7 3d dc 14 83 bd 03 a1 79 bd
       0.017442923 0.08199551 -0.06400463 -0.06094457
000220 6e 35 53 be 73 a8 44 3e a9 08 90 bd 2c 86 2b bc
       -0.2062585 0.19204883 -0.07032902 -0.010469001
000230 39 58 11 bd 4f 24 fd bd b4 5c 73 3d 9c ba c5 3c
       -0.035484526 -0.12360441 0.05941458 0.024136834
000240 ef 30 fa bd 2b 47 cb 3d 62 a6 03 be fe 76 6d 3e
       -0.122163646 0.099256836 -0.12856439 0.23189923
000250 0b 04 80 3d 3c 8c 19 bd b7 aa cc bd 85 d0 bb 3d
       0.06250771 -0.037487254 -0.09993499 0.09170631
000260 5c 5d d8 3d 84 72 f3 3d 11 c5 83 bc 88 a8 e4 ba
       0.10564682 0.118870765 -0.01608518 -0.0017445246
000270 71 0d a1 bc f1 d4 b1 3b cb 46 2f 3c 00 d6 0a 3e
       -0.01965973 0.005426996 0.010698031 0.13558197
000280 52 ed 2d 3d 68 48 98 3d 80 af 71 bd b0 13 1d 3e
       0.042462654 0.074356854 -0.05900526 0.15339541
000290 e0 5a fd bc 98 b7 a2 3c 1b 8f 66 bd 82 8a 39 3c
       -0.030927122 0.019862935 -0.05628882 0.011324527
0002a0 fd ca d0 bd 1d 05 0c bd 2a d7 c7 bd 6b 0a cf bd
       -0.10194967 -0.034184564 -0.09757836 -0.10109409
0002b0 81 8f 66 bd 38 11 fc bd 2a 4c 28 bd c8 51 8e bc
       -0.0562892 -0.12307972 -0.04108826 -0.01737298
0002c0 3a 76 12 3e be b7 09 bc ef f3 1c 3e ed 1d af 3d
       0.14302912 -0.008405624 0.15327428 0.0855063
0002d0 0b 49 e8 bd ba b2 1e bd 36 09 ed 3d 1d 88 0d 3c
       -0.11342057 -0.038744666 0.115740225 0.008638409
0002e0 0f 55 e6 bc 30 fd ba bd d1 8c 7b bb de 5e f5 3d
       -0.028116731 -0.09130323 -0.0038383494 0.11980985
0002f0 de c5 91 3d 30 c7 18 3e 01 c9 bb 3d ec 0a c8 3c
       0.07117818 0.14919734 0.09169198 0.02441927
000300 5c 6c 47 3e 23 12 f7 3d 3d 8f 3d 3e 49 1f e4 bd
       0.1947493 0.12064006 0.18511672 -0.1113878
000310 85 83 b5 bd 8f d9 e8 3c b5 b7 49 3b 5f 68 5f 3d
       -0.08862976 0.028424053 0.0030779664 0.054542895
000320 2a 04 bb bd 92 c4 0f 3e fb 76 28 bd ed c5 13 be
       -0.091316536 0.1403983 -0.041129094 -0.14430971
000330 ff 35 c2 3d 58 5c 8b 3c a5 cf 36 3e 81 d6 0c 3d
       0.09482955 0.017011806 0.17852648 0.034384254
000340 f2 d9 d3 3d 13 11 38 3c 62 63 d6 bd 63 05 4b bd
       0.10344304 0.01123454 -0.104681745 -0.049565684
000350 08 2d 35 be a6 93 3d 3e 73 17 90 3c 0d 84 cc 3d
       -0.1769296 0.18513355 0.017589306 0.09986124
000360 6b 76 da bd fb 43 66 bd 61 dd 8d 3d 6f d9 4e 3d
       -0.10667118 -0.056217175 0.0692699 0.05050033
000370 0a ac aa 3d 92 14 08 3e 02 4b 87 3d 0b c4 81 3d
       0.08333595 0.13289097 0.066061035 0.0633622
000380 9d 67 da 3c 29 47 23 3c 79 02 3d be 98 1c 0c 3e
       0.026660735 0.009965696 -0.18457974 0.13682783
000390 d7 23 fc bd e1 9a 13 be 35 26 b5 bd ee 6b ba bc
       -0.123115234 -0.1441455 -0.08845178 -0.022756543
0003a0 15 24 13 3c af 5d 93 bd 21 fd 62 bc 60 7a 1c bd
       0.008980771 -0.07195603 -0.013854296 -0.038202643
0003b0 88 a1 4f 3d ad ca ff 3d f9 a5 aa bd f6 82 e4 3d
       0.050691158 0.12489829 -0.08332438 0.11157791
0003c0 d2 d6 af bd f4 ba 9f 3d 96 43 a7 3c bc d5 8b bd
       -0.085858956 0.0779933 0.02041797 -0.06827876
0003d0 1d 74 96 3d 14 31 4d 3d a1 78 0a 3e 90 c9 1b be
       0.073463656 0.050095633 0.13522579 -0.15213609
0003e0 98 45 55 3b 42 97 2b be 2e 3b 09 3e 94 6a 76 bd
       0.0032542702 -0.16756919 0.13401482 -0.060160235
0003f0 05 d2 bb 3d 66 eb 64 bd a8 0a 8e bd 84 de 5b bd
       0.091709174 -0.055888556 -0.06935626 -0.053679004

arith.constant4 f4 [30]
000000 0b b5 23 3d 9b 54 0b 3d d5 43 1a 3d ca e7 84 3d
       0.039967578 0.034016233 0.037662346 0.06489523
000010 9e 5a 7b 3d b3 c0 48 3d ee 43 1f 3d 10 ca 94 3d
       0.061365716 0.049011897 0.038883142 0.07265103
000020 07 4e 7f 3d 3c 86 28 3d 89 92 5a 3d 9e 2b 33 3e
       0.062330272 0.04114364 0.053362403 0.17497107
000030 25 ee 13 3d 05 e5 a5 3d 79 e4 f3 3d 96 68 ac 3d
       0.036115784 0.08100323 0.11908812 0.08418386
000040 66 84 47 3d ad 11 b2 3d 2f 72 d7 3c 09 58 97 3c
       0.04871025 0.08694778 0.026299564 0.018474596
000050 af 59 9d 3d 91 86 f7 3c 06 79 6d 3d 6f 3e 84 3d
       0.076831214 0.030215533 0.057976745 0.06457221
000060 6c 93 16 3d b0 a7 56 3d 5e b0 f2 3d 7b e2 4c 3d
       0.036761686 0.052406013 0.118500456 0.050020676
000070 86 2e 1e 3d 87 d5 09 3d
       0.038618587 0.0336509

arith.constant5 f4 [30]
000000 5f 15 7f 3f 58 6d 7e 3f 26 77 84 3f d7 b4 81 3f
       0.99641985 0.99385595 1.0348861 1.0133313
000010 65 69 81 3f a3 20 81 3f 56 60 80 3f f7 a3 7c 3f
       1.0110289 1.0088085 1.0029399 0.9868769
000020 65 34 84 3f 95 6a 81 3f 1a 1b 81 3f 94 e2 8e 3f
       1.032849 1.0110651 1.0086396 1.1162896
000030 35 1b 84 3f 59 a6 7d 3f 2b eb 82 3f a1 ce 7a 3f
       1.0320803 0.9908195 1.0228018 0.9797154
000040 b5 44 85 3f f2 e3 78 3f 95 9e 82 3f 40 2f 83 3f
       1.0411593 0.97222817 1.0204645 1.0248795
000050 2f f6 7d 3f b6 93 81 3f df af 82 3f 7a b3 81 3f
       0.9920377 1.0123203 1.0209922 1.0132897
000060 3c 00 80 3f 8f 5f 7f 3f d2 5f 7b 3f 7e 57 80 3f
       1.0000072 0.99755186 0.98193085 1.00267
000070 b6 2d 7f 3f 30 07 85 3f
       0.99679124 1.0392818

arith.constant6 f4 [30]
000000 e0 0b 2f bd ce 83 81 3c 02 7c 79 3c 9b 66 1a 3d
       -0.042735934 0.01580992 0.01522732 0.03769551
000010 03 b8 64 3d 86 02 ff 3c d8 95 59 3d bd 51 53 bc
       0.05583955 0.031129133 0.053121418 -0.012897906
000020 36 c8 a8 bd 68 2b 72 3d 5f 4e 38 3d 46 1d aa bc
       -0.08241312 0.059123427 0.044996615 -0.020765912
000030 01 72 81 bb e9 9f a7 3c dd 80 c2 3c 8e 4d 00 bd
       -0.003950358 0.020461993 0.023743087 -0.031323962
000040 ef 03 bc bd 97 22 2c bb 23 24 f2 bc f5 7e 67 3d
       -0.09180438 -0.0026265734 -0.029558247 0.05651756
000050 7f d3 90 bc dd 90 92 3c c9 7d 4f 3d 00 7b d1 bb
       -0.017678974 0.017891342 0.050657067 -0.0063928366
000060 be 12 37 bd 11 f5 75 3c 51 5d b1 3c ec 0e 01 3d
       -0.04469561 0.015012042 0.021650942 0.03150837
000070 12 66 38 3d 9c 58 63 bd
       0.045019217 -0.055504426

arith.constant7 f4 [30]
000000 6e e4 2a 3d 14 8a 0c 3d 65 69 11 3d 48 4b 23 3d
       0.041721754 0.03431137 0.035500903 0.039866716
000010 c6 40 0b 3d b0 04 97 3d f9 71 27 3d 9b 4c 5d 3d
       0.03399732 0.07373941 0.040880177 0.054028135
000020 e0 5a 09 3d 6b eb e7 3c 72 bc 04 3d 5a ce 8e 3d
       0.03353393 0.028310498 0.032406278 0.06972952
000030 72 27 cd 3c d9 e6 61 3d c4 c2 be 3d b9 e2 54 3d
       0.025043223 0.055151794 0.09314492 0.051974032
000040 6b 2d 42 3d 2f 5c 85 3d 57 fb d4 3c 75 75 7c 3c
       0.047406595 0.06511723 0.025998754 0.015408863
000050 5e c2 56 3d 74 ad 23 3d 2c 8d 38 3d dc 4e 73 3d
       0.052431457 0.03996034 0.045056507 0.059401378
000060 09 80 17 3d 48 89 30 3d 11 34 d6 3d 40 46 0a 3d
       0.03698734 0.04309967 0.1045915 0.033758402
000070 f7 4d a7 3c 65 2a 16 3d
       0.020422919 0.036661524

arith.constant8 f4 [30, 60]
000000 37 10 68 bb 79 63 0e 3d ac 20 8c 3d 34 c5 b5 bd
       -0.0035410055 0.034762833 0.06842169 -0.08875504
000010 b0 e7 c7 bd 53 75 c5 bd ac 11 8b 3d 6e 5b 42 bd
       -0.09760988 -0.096415184 0.0679048 -0.047450475
000020 a6 03 a4 3d 47 33 3e be eb bf 57 bd 67 b6 17 bd
       0.080085084 -0.18574248 -0.05267326 -0.037039187
000030 16 39 d0 3d 9c 2d e8 3c 83 f4 de 3d 4b 79 b4 bd
       0.10167138 0.02834206 0.10886481 -0.08812197
000040 49 76 e4 bc e8 34 b0 3d 0e 13 f1 38 03 81 b7 bd
       -0.027888434 0.08603841 0.00011495325 -0.08960154
000050 1b ba 36 3c 9d ac e9 bd d3 8c 42 3e 4d 50 f3 3d
       0.011152769 -0.114098765 0.18999033 0.118805505
000060 6e 04 b9 3d 5e eb 44 bd 60 0f 7b 3d 79 f6 e3 bd
       0.09034048 -0.048076026 0.06129396 -0.11130995
000070 f3 dd b0 bd 57 14 11 3e 4f 85 26 3d 82 6b 3b 3d
       -0.086360835 0.14167915 0.040654477 0.045756824
000080 de 2d 21 3d e5 2e 39 bd e6 79 1f bd cf af f0 3d
       0.039350383 -0.045210738 -0.03893461 0.11752283
000090 e6 43 a1 bd 9d ef 13 3d 34 64 9f 3d a5 c7 ee 3d
       -0.07874279 0.036117185 0.07782784 0.11659173
0000a0 98 5d ed 3d 34 7d b5 3d 6e 50 b7 bd 0e ac 84 3d
       0.11590117 0.08861771 -0.089508876 0.06478129
0000b0 06 ed 5b 3d 29 33 c1 bd f1 9e 5c bd f7 40 bd 3d
       0.05369284 -0.09433586 -0.053862516 0.09240907
0000c0 06 a7 bb bc fe b6 4c bd bf 39 78 3d c8 6f d9 3d
       -0.022906791 -0.049979202 0.060601946 0.10617024
0000d0 cd eb bd bd 77 38 76 bd ab 98 fe 3d 61 7a d9 bc
       -0.09273491 -0.060112443 0.12431463 -0.026547613
0000e0 4a 5f 2e bd b7 f0 09 bb ac 79 19 3e 5f 94 20 bd
       -0.042571343 -0.0021048018 0.1498782 -0.039203998
0000f0 ff d1 fb bc 2e 35 02 3e c9 6c fb bc 1c 7d 06 3d
       -0.030739782 0.12715599 -0.030691521 0.032834157
000100 04 7b 88 bb 08 63 47 3b 6c 80 a5 3d 0e 76 9d bc
       -0.004165055 0.0030424017 0.08081135 -0.019221332
000110 e2 a7 c4 bc c6 bc bd 3c 50 70 c9 bc 56 d3 93 bd
       -0.024005834 0.023161303 -0.024589688 -0.072180435
000120 cc 51 90 bc 99 67 e1 bc 11 9e 12 bd 4a 24 6b 3d
       -0.017617129 -0.02751522 -0.035795275 0.057407655
000130 bf 03 6e bd 56 a1 9e bc 07 f2 a3 bc eb c6 06 3d
       -0.05810904 -0.01936404 -0.020012869 0.032904547
000140 6a 52 85 3d 90 12 d2 3c 8a 0f cc 3c 57 75 a3 3d
       0.0650986 0.025643617 0.024909753 0.07981365
000150 98 71 f6 3a d4 d3 83 3b 89 bc c6 3c 02 b1 16 3d
       0.0018802164 0.0040230546 0.024259822 0.0367899
000160 96 fa 26 3d 0b e3 f2 bb a0 15 a6 3c 9d fc ef 3d
       0.04076632 -0.0074123195 0.020273983 0.11718104
000170 8b 1e f6 3c e1 58 e7 3d 02 8a 00 bd 8e dc 61 3d
       0.03004386 0.11296249 -0.031381615 0.055141978
000180 f4 a1 81 3c a0 85 37 3c 57 a3 ca bd 4c b7 da bc
       0.015824296 0.011201292 -0.09894436 -0.02669873
000190 35 03 e1 3c 5f ef 4e 3c b5 08 14 3c 8d aa 50 3c
       0.02746735 0.012630313 0.009035279 0.012735975
0001a0 03 f2 fa bb b4 3c e3 3d e9 a1 a4 3c 74 52 92 3c
       -0.0076582446 0.110955626 0.020096736 0.017861582
0001b0 85 94 b9 bd 86 b9 ee 3a 9a a2 fb 3d 25 7e 62 bc
       -0.09061531 0.0018213249 0.12286873 -0.0138240205
0001c0 e7 33 7e bb 8b 30 54 ba f2 d4 b8 3b 05 3a 38 bd
       -0.003878826 -0.00080943917 0.0056406194 -0.044977207
0001d0 c4 31 be 3c 67 5d 84 3c a4 2a 3e 3d f9 f5 9d bd
       0.02321709 0.016157819 0.046427384 -0.07712931
0001e0 4a a6 71 bd 06 71 83 bd 93 39 ad bd fb b7 d3 bc
       -0.058996476 -0.06418042 -0.08458247 -0.025844565
0001f0 2c da 5f 3c df 34 ee 3b 6e 49 9a bd c2 0a aa 3d
       0.013662856 0.0072694863 -0.07533537 0.08302833
000200 24 ba 00 bd 29 cd 0c 3b dc 29 df bb e6 d7 c8 bb
       -0.031427518 0.002148459 -0.00681041 -0.0061292527
000210 f9 76 c9 bc 5d 6c 3d bd 2c 90 91 3c de e3 dd 3c
       -0.024592863 -0.04624592 0.017768942 0.027086195
000220 1f 86 2b 3d b9 58 0a be 4d b2 00 bb db 36 c8 3d
       0.041875955 -0.13510408 -0.0019637526 0.09776088
000230 ee a2 12 3e 2b ee 97 3d b6 df 96 3c a3 06 48 bd
       0.14319965 0.07418474 0.01841722 -0.048834454
000240 d1 be a3 bc 50 d9 9b bd 2f 4e d2 3d c3 f4 44 3d
       -0.01998845 -0.076098084 0.102688186 0.048084985
000250 1c f1 69 3d 30 a2 90 bd 93 3b be 3c 5b a1 08 3d
       0.057114705 -0.07062185 0.023221767 0.033357006
000260 eb 9d 8f 3d e6 0a 32 bc cc 68 14 bd c4 5c 2c 3d
       0.07012542 -0.010866856 -0.036232755 0.042080656
000270 00 03 df bc b6 ce 62 3d 84 67 46 3d b9 a5 87 bb
       -0.02722311 0.055372916 0.048438564 -0.0041396287
000280 c9 ed 6f 3d 9a fd 0a be 59 23 19 3d 9e f9 90 3c
       0.05857638 -0.13573304 0.037387226 0.017697152
000290 87 d0 c3 3c 54 46 89 bd 01 00 d4 3b f7 2d 1a 3d
       0.023903145 -0.06702867 0.006469727 0.03764149
0002a0 54 30 64 bd ac bc 86 3c 45 b2 ea 3b 74 45 0a bd
       -0.05571015 0.016447388 0.0071623647 -0.033757642
0002b0 c0 9e 9f bd cf a2 00 3e 68 d2 c6 bd f2 af 41 bd
       -0.07793951 0.12562107 -0.097081006 -0.047286935
0002c0 0b a3 16 be 18 30 a8 bd 84 c6 74 bb a4 42 5e 3d
       -0.14710633 -0.08212298 -0.003734977 0.054262772
0002d0 13 70 d1 bd 08 2e d1 3d 85 9d 32 3d e1 fd 92 3d
       -0.102264546 0.10213858 0.043607254 0.0717733
0002e0 34 45 f4 b9 53 ed e0 3d 14 45 12 3e 76 fc 16 bc
       -0.00046590867 0.10982766 0.14284164 -0.009215465
0002f0 0d 57 c5 3c 66 35 af bd f6 93 a8 3d 32 b6 d2 3c
       0.02408936 -0.08555107 0.08231346 0.025721643
000300 9f b1 18 bc ab c8 1a 3c 2f df d5 bd e8 d9 87 3d
       -0.009319692 0.009447257 -0.104429595 0.06633359
000310 03 89 09 be 06 33 6b bd 89 d2 41 bd 37 72 29 3e
       -0.13431172 -0.057421707 -0.047319923 0.16547476
000320 6b df e3 3c 9c f4 a3 bd 9f 68 f4 3c 34 fb 09 3e
       0.027816495 -0.0800564 0.029835043 0.13474733
000330 f9 03 24 bc 2b 98 d6 bd 85 73 02 3d 97 42 ca 3d
       -0.010010713 -0.104782425 0.03184845 0.09875982
000340 1d e8 73 3b 54 63 64 3d b4 ea 93 3d 8f 2e 3c 3e
       0.0037217208 0.05575879 0.072225004 0.18377136
000350 56 98 65 3d 8b 3b 01 3e 0a e9 83 3d 85 4a 9e 3d
       0.056053482 0.1262037 0.06440933 0.07729057
000360 51 a0 9f bd 44 5f 80 3d 9b 94 20 3c 3d 46 9b 3c
       -0.0779425 0.062681705 0.009801055 0.01895439
000370 52 80 8a 3d e5 de 9e 3d a0 73 a0 bd c7 a5 a2 bc
       0.067627564 0.077573575 -0.07834554 -0.01985444
000380 a0 2d 80 bc b9 44 06 3e 99 ff b1 bd fe fb 82 3d
       -0.015646756 0.13112153 -0.086913295 0.0639572
000390 de 17 6e 3d 96 c5 6a bd 87 75 32 3e 46 b4 15 3e
       0.05812823 -0.05731734 0.17427646 0.1461955
0003a0 2d 97 84 bc bb b4 73 3d 6c c3 93 3d 78 d2 1e bc
       -0.016185367 0.05949853 0.07215008 -0.009693734
0003b0 11 c9 02 bd 15 e3 d7 bd 10 c4 90 3d 8f 38 c6 bd
       -0.031930033 -0.10541359 0.07068646 -0.096787564
0003c0 3d 3c 4b bc 3f 48 1d 3e 85 de 76 bd b3 65 6e bb
       -0.012404499 0.15359591 -0.060270805 -0.0036376535
0003d0 c9 40 0a 3d 17 83 ab 3d 6f fa 7b 3d 41 02 8b 3d
       0.03375319 0.08374613 0.06151813 0.06787539
0003e0 08 2a 42 3d 19 74 18 bc d3 38 3e 3d 23 d6 66 bd
       0.047403365 -0.009305024 0.04644091 -0.05635656
0003f0 ff 6d ab bc fa 98 c4 3b ed 4e 86 bc 03 04 d8 bc
       -0.020926474 0.0059996815 -0.016395057 -0.0263691

arith.constant9 f4 [30, 60]
000000 60 31 f4 bd 87 36 cd 3d c3 06 55 bc 99 35 c2 bd
       -0.1192348 0.10020166 -0.0130021 -0.09482879
000010 5a 0d 99 3d a6 34 30 be 59 e6 ba bb a6 2f f9 3c
       0.0747325 -0.17207584 -0.005703729 0.030418228
000020 fc a1 9c bb 50 ef 7e 3a a0 56 11 3e 1f e6 1d 3e
       -0.004780052 0.00097249914 0.14193201 0.15419815
000030 4b e0 fe 3d 4d 25 02 be db 6b 91 bb 18 2f 0d 3e
       0.12445124 -0.12709542 -0.004437906 0.13787496
000040 90 28 53 bd 1b 37 19 bd 31 17 fe bc 17 d0 62 3d
       -0.051552355 -0.03740607 -0.031016918 0.05537423
000050 f7 20 5f 3d 6d 00 21 be 78 27 04 3d 81 b6 a2 3c
       0.054474797 -0.15722819 0.032264203 0.019862415
000060 55 6a 02 be 95 55 94 bc 32 00 b9 bc 76 af 08 be
       -0.12735875 -0.018107215 -0.022583101 -0.13348183
000070 41 70 a9 3d 4c 72 49 bc d1 fd b5 3d b5 aa 2a 3e
       0.08273364 -0.012295317 0.08886302 0.16666682
000080 98 59 d3 3c ef c8 c7 3c aa af 41 3d 4d ce 6f 3d
       0.025799558 0.024387805 0.047286667 0.058546353
000090 6a 0c fb 3d 01 3c 2c 3e 9a 03 1a 3e a5 e5 07 3e
       0.12258227 0.16819765 0.15040436 0.13271196
0000a0 93 cb 1b 3e 5a 5f 64 bd 37 0a 31 3d ac e4 e2 bc
       0.15214376 -0.055754997 0.043222632 -0.02769693
0000b0 f2 89 90 3b c7 ae 42 bc 4c 5a 3d be 4e bd 92 3d
       0.0044109756 -0.0118824905 -0.18491477 0.07165013
0000c0 9a 77 08 bd ef f3 3e bd a1 1b c8 bc bc 5f 0c be
       -0.033317186 -0.046619352 -0.024427237 -0.13708395
0000d0 23 45 b4 bd d8 17 6b 3d 70 53 d7 3d f8 33 22 3c
       -0.08802249 0.057395786 0.10513961 0.009900086
0000e0 04 10 c8 bc 66 d1 b1 bd 38 27 d0 bd 61 97 95 bd
       -0.0244217 -0.08682518 -0.101637304 -0.07304264
0000f0 e4 b3 c7 3a 93 4c ef 3d d7 cd 43 bd 3c 01 21 3d
       0.0015236107 0.11684527 -0.047803726 0.039307818
000100 69 19 a9 3c ef b7 e0 bd 24 d1 04 3e 43 ff e7 3c
       0.020642 -0.109725825 0.12970406 0.02831996
000110 aa 07 85 3c 2f 90 2a bd 6f 35 80 ba 28 9b dd bc
       0.016239006 -0.04164141 -0.000978155 -0.027051523
000120 73 de 78 bd cf 10 ec bc 27 d2 c5 bd ec 56 5c bd
       -0.06075902 -0.028816609 -0.09659224 -0.053793833
000130 98 5b 53 bd d1 bd 63 bd e2 fe af bc 3a 34 5c 3d
       -0.051601022 -0.055600945 -0.021483842 0.053760745
000140 45 74 02 3e 1e 7a a2 bd 03 2b be 3d 63 98 7d bd
       0.12739666 -0.07933448 0.092855476 -0.061912905
000150 c5 dc 88 3d 46 1b 89 3d 6a 2c 86 3d a7 cb 9a bc
       0.066827334 0.06694655 0.0655144 -0.018895937
000160 d0 60 86 3d 6b 07 d8 bd ca bd 30 3d 01 57 19 3e
       0.06561434 -0.1054829 0.043149747 0.14974596
000170 27 0c 8b bb 54 0a bf 3d bc 5a 2a be 3c ee 2e 3c
       -0.004243392 0.09328142 -0.16636175 0.010676917
000180 fd a3 b3 3d 44 95 d2 bc aa 7b 50 3d 31 05 2f bc
       0.08771513 -0.025705941 0.050899185 -0.01068239
000190 80 6d 05 3d a9 3b 20 3d 67 3b 88 3d 4c 7e 2c 3d
       0.03257513 0.039119396 0.06651955 0.042112634
0001a0 36 55 c8 3b 32 f7 6d 3d 6b 40 fe bd f0 d5 05 bd
       0.0061136736 0.058097072 -0.124146305 -0.03267473
0001b0 76 ca 9d 3d a9 09 59 3d 7a 27 95 3c 9e c7 c0 bd
       0.07704632 0.05298773 0.0182073 -0.09413074
0001c0 85 f5 b5 bd 00 60 dd 3d e0 ba 6a 3c 54 d1 04 3c
       -0.0888472 0.10809326 0.014326781 0.008106548
0001d0 eb 5a ab 3d 23 85 46 bd 98 7e 9f 3d 5f 38 ba bd
       0.083669506 -0.048466813 0.07787818 -0.09092783
0001e0 f4 5b a8 3c a9 0a e1 bc 1c 84 0e bd 00 35 f6 3a
       0.02055166 -0.027470903 -0.034793958 0.0018784106
0001f0 4f af 1f 3e 4a 72 c4 3d 4f 60 c0 3d e2 fc 99 bd
       0.15594219 0.095921114 0.093933694 -0.07518937
000200 49 6f 9a 3d e0 23 0d 3d 6f b5 9b bd 21 99 9e 3b
       0.07540757 0.03445804 -0.07602965 0.0048400317
000210 a7 dd 65 bd 87 07 6a 3d 59 3a 90 3d 72 18 d0 3d
       -0.056119587 0.057136085 0.07042379 0.101609126
000220 b6 ca 40 3d c9 e0 65 3d 00 c1 a4 bd b1 a1 f6 bc
       0.04706832 0.056122575 -0.08044624 -0.030106397
000230 22 f3 d9 3d 93 28 da bc 64 b7 c4 bc be 91 d2 3d
       0.10642077 -0.026630675 -0.024013229 0.10281704
000240 9e 52 62 bc 79 9f 37 3d fb 18 59 3b b9 e1 9c 3d
       -0.013813643 0.04482982 0.0033126462 0.07660241
000250 5a 0a 62 bd d4 2b ed bd 07 ad 51 bc de d6 04 3d
       -0.055185653 -0.11580625 -0.012797601 0.032431476
000260 89 ca bf 3d 1b 44 b8 bd e3 ec 94 bd 28 b1 91 bd
       0.093648024 -0.08997365 -0.07271745 -0.07113868
000270 c8 85 25 bc 38 4f 91 3c 0f 44 26 bc 5b 29 9d bd
       -0.010102697 0.01773797 -0.010148062 -0.076739036
000280 85 5a a0 bc 64 69 0e be cf b9 cf bd 52 b5 ea 3b
       -0.019574413 -0.13907391 -0.10142862 0.0071627283
000290 84 90 a5 bd 62 7f 85 bd 3d a6 88 bc 14 e6 3a bb
       -0.08084205 -0.06518437 -0.016680831 -0.0028518485
0002a0 e2 c8 64 3d ea 74 3e 3d 18 e1 0b 3e bf 5b 97 3c
       0.05585564 0.046498217 0.13660085 0.018476365
0002b0 c4 67 b8 bc 11 81 73 bd 55 3a ea bd 85 86 ec 3c
       -0.022510417 -0.05944926 -0.11436907 0.028872738
0002c0 0a 64 04 bc 81 dc 9b 3d f9 8c 2d 3d a5 df 18 3d
       -0.008080492 0.07610417 0.04237077 0.03732266
0002d0 37 31 d3 3d e0 04 35 3e 41 7d c4 3d b7 42 e9 bd
       0.10312121 0.17677641 0.09594203 -0.11389678
0002e0 64 d3 26 3e e9 48 38 bd 42 35 4a bd 0a 62 90 bc
       0.16291577 -0.044991408 -0.049367197 -0.017624874
0002f0 9d 09 43 bc d5 b4 a9 3d 03 0c a7 3b 64 e5 b6 3d
       -0.011904147 0.08286444 0.0050978675 0.089304715
000300 08 a4 59 3d 1d 06 41 3d be f2 26 3d c4 78 31 3d
       0.053134948 0.04712497 0.04075884 0.04332806
000310 c4 6c 3e be 96 9c e6 bd 16 28 01 be 73 3e a5 3d
       -0.18596178 -0.11260335 -0.12612948 0.08068552
000320 30 01 a1 3d 77 7a 96 3d ca da 8e 3d 91 b9 f8 3c
       0.078615546 0.07347577 0.069753245 0.030361922
000330 2a 7b a2 3c 5e 94 71 bc 56 a4 ec bd eb cb 47 3e
       0.01983412 -0.014744846 -0.11554782 0.19511382
000340 c5 96 4f 3c 45 62 e6 bd 41 8d d5 bd b1 4f f2 bc
       0.012670224 -0.11249212 -0.10427333 -0.029579015
000350 3d ed 40 bd 15 0b 08 3d 24 9e a8 bc 58 ec c1 3d
       -0.047101248 0.033213694 -0.02058322 0.09468907
000360 3a cc 60 3d 29 00 8f 3d 46 1d 88 3d 8a fd 22 be
       0.054882266 0.069824524 0.066462085 -0.1591703
000370 2b 70 13 3e 66 ca 4f bd 50 ce 08 bd f7 3e f2 3d
       0.14398257 -0.05073013 -0.03339988 0.11828416
000380 c2 7e 39 bc 83 95 44 3e 2c 1d 39 be b8 ef d6 bc
       -0.011321725 0.19197659 -0.18077534 -0.026237354
000390 76 17 5b 3d e6 6e 72 bd 2c 36 23 bc da b6 e0 bd
       0.05348917 -0.059187792 -0.009961646 -0.10972376
0003a0 c0 19 37 3d c4 9c 26 3e bd ca 7f 3c ad e8 ae bd
       0.04470229 0.16270739 0.015612301 -0.08540473
0003b0 78 a0 d8 3c 97 c0 33 be 57 67 dd bc 36 9e 27 be
       0.026443705 -0.17553936 -0.027026815 -0.16368946
0003c0 44 36 87 3d bc 2a 39 3d 01 b5 96 bd 10 ab da 3d
       0.06602147 0.04520677 -0.073587425 0.10677159
0003d0 19 fd 91 3d 0a 7d f6 3d 86 a1 19 bd 68 42 e4 bd
       0.07128353 0.12035568 -0.037507556 -0.111454785
0003e0 78 34 9d 3d 42 3f 20 bd be f8 8c 3d b4 14 d7 3a
       0.07676023 -0.039122827 0.06883381 0.0016409368
0003f0 98 29 e6 3d e1 fb b7 bd 9d 6d 97 bd 4e 8e f8 bd
       0.11238402 -0.08983589 -0.07393954 -0.121365175
