Riproduzione/lstm_small_batch_1_MSE.tflite (tflite, 231400 bytes, 29 tensors)

sequential_1/dense_3/BiasAdd/ReadVariableOp f4 [30]
00000000: bfb2 f43d 1dbe 653d f2f0 c13c b1eb 683d
00000010: cda1 9a3d 20b3 6abc 19c4 dd3d 04dd 85bb
00000020: 86fc c9bb 9ed5 ef3d 20dd 693d d956 2ebb
00000030: 8ac6 403d 1e95 69bb 6331 673d 1786 dd3c
00000040: c1ae 203d 9989 7a3d 0586 583d c859 3b3d
00000050: 567c 3f3d 8a80 ac3b f9ce 123c 084d 913d
00000060: 3c76 803c de76 b5bc 3c3c 57bc 27e5 5a3d
00000070: 6272 a23d 5f8f b63d
0.119481556 0.05608951 0.023674462 0.056865398 0.07550392 -0.014324933 0.10828418 -0.004085185
-0.0061641363 0.11710666 0.057095647 -0.0026602058 0.04706434 -0.003564186 0.056443583 0.027041478
0.03922916 0.06116638 0.052862186 0.04573992 0.046749435 0.0052643465 0.008960479 0.07094771
0.015681379 -0.022151407 -0.01313692 0.053441193 0.07931973 0.089140646

sequential_1/dense_4/BiasAdd/ReadVariableOp f4 [15]
00000000: 3aea 58bc 741b 593d 4477 523d 1856 503d
00000010: 9126 ca3d 47e5 11bd 3aec 9cbc 2850 0c3e
00000020: a050 28bd e191 5b3d 493f 4cbc bf10 9a3d
00000030: b63f 4c3d bf95 36bd 1e5c 203c
-0.013239438 0.053004697 0.05138327 0.050863355 0.09870637 -0.035619047 -0.01915561 0.13702452
-0.041092515 0.053605918 -0.01246626 0.07522725 0.049865447 -0.044576403 0.009787587

arith.constant f4 [60, 60]
00000000: 54b5 553d 8714 993d 0692 123c df18 55bd
00000010: f3aa 2dbd ace6 f9bc f52a babd 3170 17bd
00000020: 814e db3c 7e14 50bd c46c aa3c 2cbb 3a3d
00000030: 5316 203d 0251 953c b220 013d 2c1e 823c
00000040: 1cf7 553d 5195 ffbc c22f 553d b4c0 8abc
00000050: 3b08 143e 38d4 66bd 3d76 263c a586 d7bd
00000060: b71a 09bd ba6d 823c d183 e1bc 16ae d3bd
00000070: a163 4d3d dec2 25bc a91d 7b3d 6cb4 34bb
00000080: 28de b5bc af0f cf3c b6f7 d43c 594a 013d
00000090: 575e acbc 911e 843c 9463 fabd 5acd 13bc
000000a0: 4648 8dbd 9da6 95bc 4cb8 46bd d788 a13d
000000b0: 6c99 90bd 0de2 d93c 1a32 a8bc 8f0f 393d
000000c0: e359 fb3c aedb 34bd 971d 2abe 6f81 d7bc
000000d0: 56b8 4ebd c64e ff3d 8c6c c0bb c5d8 0f3d
000000e0: 339c 0dbe 8e8d 133e 893e 4abb 17f4 4abd
000000f0: aa02 763d e65f c13a a9f6 e13c da7c 8e3c
00000100: 32a3 543d d8e9 2f3d 358d 8ebb 25a5 a6bc
00000110: 32c6 cdbc b7a9 a63d 68a9 9c3d 4fa0 c03c
00000120: b7d5 b83d 0912 883c 8439 fcbd 5fd2 8abd
00000130: f738 f53c 265e 773d b267 8fbd b5e4 a53d
00000140: 10a8 643d b924 723c 3951 fdbd e480 06be
00000150: fa26 37bb e20d 8d3d cbca e23c d149 063e
00000160: 7e32 82bc 29a5 7e3d d8c2 533e 67f5 d7bd
00000170: ac10 7cbc ba87 f0bd 5a05 22bd 864b 3b3d
00000180: b3cf c53d 9df7 15be 49d2 d33d f8eb 1e3d
00000190: bc84 933d 112f acbd bcf0 2dbe 6b61 56bd
000001a0: 9b23 3a3c ba09 d73c 1322 37bd 0b0a 913d
000001b0: 8bfd db3d 50bf e93d ebb9 2a3d 12fc 64bd
000001c0: 9537 0ebe 0652 7dbd fdf1 03be f415 dabc
000001d0: 22f0 883d 82f7 bbbd e7ae 853d bbe7 81bc
000001e0: c9c7 983c 8061 53bd 4988 bdbc 269f 133d
000001f0: 166f 123d 468d 133e 30b1 003d 6348 edbd
00000200: 2582 bd3d 6fc6 a63d 8059 be3d d36c e83b
00000210: 6139 b23c 63c1 0bbd 6f03 37bd 71e3 973c
00000220: 1a52 5ebc 31a0 bd3d 7614 163e 2aa9 0c3e
00000230: 8bd4 b83d 6e19 dc3d e0bd 50bd 6fca 95bd
00000240: 5a01 173e 269d 5fbd 4f19 143c f728 e8bd
00000250: 8a71 a33d 539b 74bd e92d 62bc e11b dbbd
00000260: 3aed 3c3e 49c1 45bd 3472 933d abc0 883d
00000270: a981 3cbd e61f 113d 6c13 5e3c a67e 0f3d
00000280: ab70 fd3b 2d57 57bc ef3d b9bc ca14 38bc
00000290: 2e79 a13c 0992 75bd 62b8 153e 71fc 03bc
000002a0: 32d9 9ebc 87c0 88bd fc92 cdbd d175 debc
000002b0: 1048 f8bd bf78 cabb 6d3a af3b c2d5 9f3c
000002c0: 6a82 6a3d 994f 7e3d 85a3 c9bc 39bc 12be
000002d0: 6e49 453c ea43 c8bc 9c7d af3d 4891 a93d
000002e0: 8e06 40bc 8bbb 07be d259 873d f680 99bc
000002f0: 3d38 87bd e3b5 b13d 19dc 1d3d c7ac 9a3b
00000300: c05a 283d 64ed b1bc 0cbb a23d 1f55 31bd
00000310: 3930 a1bd abdd e63d 13f1 963c 05b3 dd3c
00000320: 55b8 7cbc eabd 503e ef1c 7cbe b2b1 54bd
00000330: 242a 11be b8d2 53bd 793d 6fbd 924f 6abc
00000340: 2a30 fabc 9171 8d3d 150b 6fbd a783 943d
00000350: 1a5c e93c 64b5 463d 6bb4 113d eb2a b03b
00000360: 7606 963c 5138 46bd 45da ae3d 794a a13c
00000370: 39f7 c53c 7eab ed3c 7802 083d 7b03 153d
00000380: edb2 15bd c582 103e d657 e1ba c860 c23d
00000390: 4bc3 49bd 0770 5bbc 3f36 0fbc e9d3 613c
000003a0: c381 d73d 14a6 803d f1e9 49bb bb0a 763d
000003b0: 512e 7f3c 5ace 3bbd 2be5 37be 9dd6 41bb
000003c0: 9f2f b3bd cd31 ec3c c4af 1abb fa58 0c3d
000003d0: 7182 b9bd a327 aebb bc7e a8bd 41c6 163d
000003e0: c70b 11bd 0d72 5c3d 2cb4 11be 1201 bdbd
000003f0: 98ae a1bb aab9 b73d c9a0 70bc f4fc ae3d
0.05217488 0.074746184 0.0089459475 -0.052025672 -0.042399358 -0.0305055 -0.09090225 -0.03697223
0.026770832 -0.050800793 0.020803817 0.045588657 0.03908379 0.018227104 0.03152532 0.015883528
0.052237615 -0.03119913 0.0520475 -0.016937591 0.14456265 -0.05635473 0.010160026 -0.10523728
-0.033472743 0.015921462 -0.027528675 -0.10335939 0.05014384 -0.010117261 0.061307583 -0.002757336
-0.022200659 0.025276033 0.025997024 0.031565044 -0.021041078 0.016127856 -0.12226024 -0.009021128
-0.06898551 -0.018267924 -0.048515603 0.07887428 -0.07060513 0.026597047 -0.020531703 0.045180853
0.03068251 -0.044154815 -0.1661285 -0.026306836 -0.050468765 0.12466197 -0.005872315 0.035118837
-0.13829117 0.14409468 -0.0030860028 -0.04954919 0.060061134 0.0014753311 0.027583437 0.017393518
0.051913448 0.04294762 -0.0043503293 -0.020342419 -0.025118921 0.08137839 0.07649499 0.023513941
0.09025138 0.016610162 -0.12315658 -0.06778406 0.02993439 0.06039252 -0.070022 0.08100263
0.05582434 0.014779263 -0.123690076 -0.13135105 -0.0027946816 0.068874136 0.02768459 0.13114096
-0.015893217 0.062169228 0.20679796 -0.10544854 -0.015384834 -0.11744638 -0.039555885 0.04572632
0.09658756 -0.14645238 0.10342843 0.038799256 0.072030514 -0.08407415 -0.16986364 -0.052339
0.011361028 0.026249755 -0.04471023 0.07081994 0.10741719 0.11413443 0.04168121 -0.055904455
-0.1388839 -0.0618458 -0.1288528 -0.026621796 0.06686427 -0.09178068 0.065275006 -0.015857568
0.018649952 -0.051606655 -0.023136275 0.036040448 0.03575047 0.1440936 0.03141898 -0.11586072
0.09253339 0.08143317 0.092944145 0.007093051 0.021755876 -0.034119975 -0.04468101 0.01854107
-0.013569379 0.0925907 0.14656243 0.13736406 0.09024914 0.10747038 -0.05096233 -0.07314002
0.1474661 -0.054593228 0.009039237 -0.113359384 0.0798064 -0.05971844 -0.013804891 -0.10698677
0.1844987 -0.048280034 0.07199517 0.066773735 -0.04602209 0.03543081 0.013554435 0.03503289
0.0077343783 -0.013143343 -0.02261254 -0.011235425 0.019711103 -0.059953723 0.14621118 -0.008055792
-0.019390676 -0.06677347 -0.10037801 -0.027155789 -0.1212312 -0.006178945 0.005347541 0.019511107
0.05725328 0.06208763 -0.024614105 -0.14329614 0.012041433 -0.024446446 0.0856888 0.08279663
-0.011720313 -0.13255136 0.06608929 -0.018738251 -0.066025235 0.0867727 0.03853998 0.0047203037
0.04110217 -0.021719642 0.079458326 -0.04329407 -0.07870526 0.112727486 0.0184255 0.027062902
-0.015424808 0.20384946 -0.24620412 -0.051927276 -0.14176232 -0.05171463 -0.058408234 -0.014301198
-0.030540545 0.06906427 -0.058360178 0.07251673 0.0284863 0.04851283 0.03557245 0.00537621
0.018313628 -0.04839355 0.08537725 0.019688832 0.024165737 0.029012438 0.03320548 0.036380272
-0.03654759 0.14112385 -0.0017192315 0.09491116 -0.04925851 -0.013393409 -0.008740961 0.0137834335
0.10522797 0.06281677 -0.0030809606 0.060068827 0.015575008 -0.04585109 -0.17958514 -0.0029577382
-0.087493174 0.02883234 -0.00236033 0.034264542 -0.09058083 -0.0053147837 -0.08227298 0.036810163
-0.035411622 0.053819705 -0.14228886 -0.0922872 -0.0049341433 0.089709595 -0.014686772 0.08544341

arith.constant1 f4 [60, 60]
00000000: 8b9b 9e3d b05a d73c 406b 53bc 7496 4b3e
00000010: 38a0 29be 44c3 c43c a572 83bc 89eb 91bc
00000020: e977 ce3c d8f9 7cbb 893d 9fbc 8874 ea3c
00000030: 51a0 053e 24f0 d4bc 877e f33d a2b8 cdbd
00000040: 1b59 583d 3edb 993d dc16 0c3e bc76 1b3d
00000050: bdc7 95bd 8417 adbd fa3b b1bd e729 23bd
00000060: 067c 3b3d f594 e93c f7a5 3e3d de8e f83d
00000070: 7050 8b3d 7ed3 463c be27 82bd 3f99 1d3d
00000080: 696e 8d3c d983 22bc 5890 833b c7da b63d
00000090: 0ca5 05be 5b7c ae3d 7102 903c 9ce8 2c3d
000000a0: e1b8 e6bc 5d73 af3d 2b02 8cbd 430a 3bbe
000000b0: e3be 52bd e02a 9dbd e928 bdbc f646 04bd
000000c0: cb1b 213e f9e9 9f3d 76c0 ccbd 57c9 8cbc
000000d0: 30d4 4ebd ca15 96bc 1a87 dbbd fd19 32bd
000000e0: 3063 713d 9f90 0c3e 1ccf d4bd eaa0 efbc
000000f0: 398a 3abd f2c2 0ebc 81eb 903c 4919 bfbd
00000100: 3bdd 943d 1b27 143b f33d a83c b06f d7bd
00000110: bc34 07bb c43a 5b3d 1106 943d 3623 5bbc
00000120: be4b 53bd 4a9c 703d d9d7 133d a676 05be
00000130: 5b93 cf3c 3af1 ad3b 156e bd3d 544c 00bd
00000140: 54fa fc3c 35a3 16be dd5c 10be 89a6 e4bd
00000150: 27d3 f7bc 79d6 ee3b 77c9 d1bd 2e1b d0bd
00000160: ba32 ab3d 887e 40bd c3fe d1bd 24e1 d6bd
00000170: c605 8fbd 3ac2 a03d 248d 0fbc 5481 0bbd
00000180: 29d8 62bd a4f7 c03c be3f 743d 274d a4bc
00000190: 872b 0ebd 703a 533d 67b9 d7bc 1f40 0e3e
000001a0: 12dd cfbc ee3e 793d 1588 3abd bace ab3c
000001b0: 0584 89bd 524a e33d c460 3ebd d308 c83d
000001c0: 84db b4bd 3d1e 4bbd c584 35bd 1d8b 20bd
000001d0: cd84 b8bc 8de0 11bc 92f1 053d 67d8 bdbc
000001e0: 405a 173e 8dcb 08bd 2a27 073e 84d2 eabc
000001f0: 6c8b a83d 7780 11bd 3537 5a3d a4f4 e33b
00000200: 269a ec3c 8e0c c23d a885 cb3d 45ed 7d3d
00000210: e008 ee3d acb4 2cbd 07eb 233c 05b2 38bd
00000220: 0306 83bd eaa5 1c3c c25e f93d 0bf2 c93d
00000230: 2a39 1abd 8c7a edbd 5ee7 e1bd b436 f2ba
00000240: ec0d 043e bb75 853d 6148 283d 767c 6e3d
00000250: f863 7a3a 5cc9 0fbc b7bb 873c bee1 9c3d
00000260: c8bc 363c eaf8 293d 11fb 5e3e f634 61bd
00000270: 30be 8cbd 4c8d 58bd 2ae7 053d 32af 823d
00000280: a20d c53d bef0 883d a94f 903d 202b 1ebe
00000290: 0478 f3bd d61d 8dbc cdfe b73d fc62 ec3d
000002a0: b4ca 083c e9df 8f3d fd3f d0bc 0018 4fbd
000002b0: 3dfc 873c 2c04 78bd 83b3 3cbe c0a6 4cbe
000002c0: 8643 b83d 9bdb a43d 4e9d 09bd 723b 583c
000002d0: 430a 6c3d 2273 18bd a493 0a3e c99d 193e
000002e0: 43d8 75bc 7751 3a3e dd14 debd 3341 77bc
000002f0: cbb7 113d 5521 dd3c 38be e6bb 8f8d 853b
00000300: 5f1a 2a3d d3dd cabb 5d03 e3bc 301e 27bb
00000310: e42e 593b 2c6f 313d 2265 f8bc 1a96 b33d
00000320: 66f0 933c 803c 333d 31cc 98bc 1f0b b0bc
00000330: e778 823d 69f1 acbd 3469 393e 3312 f6bd
00000340: 8507 ab3c 66b8 45be 5464 9ebc 679f a8bd
00000350: 6836 173e ea8b 333d 850b 73bc d17b 3f3d
00000360: d3a1 a7bd cde2 7a3b ad11 3abc 0271 233e
00000370: 1f07 edbc 34cf 073d 4e78 b3bd f909 c13c
00000380: 74e8 233c eb77 00bd 1070 24bd 065b d73d
00000390: 97d4 deba 4827 953d 9941 79bb 7017 2d3d
000003a0: 05a4 833d 564f 06be deb9 a33c 227d b9bd
000003b0: ebf4 ecbd 3979 673b 15ce b53d d012 1bbd
000003c0: 9171 49be 790b df3d aa83 07bd 690f b0bd
000003d0: 089e 5cbc 730d b8bd 6dd0 9fbd fc3d 253d
000003e0: 722b 1fbe 1c7e 87bd 9e31 b33c 52ad 81bc
000003f0: f305 5d3d b120 5cbc bf05 9bbc f4a0 ef3d
0.07744511 0.02628836 -0.012903988 0.19881612 -0.16565025 0.024018891 -0.016045878 -0.017812507
0.025203662 -0.0038601067 -0.019438522 0.02862002 0.13049437 -0.025993414 0.118893676 -0.100449815
0.052819353 0.0751252 0.13680595 0.03795503 -0.07313488 -0.08451751 -0.08654018 -0.039834883
0.045772575 0.028513411 0.046544995 0.12136625 0.068024516 0.012135385 -0.063552365 0.038476225
0.017264562 -0.00991913 0.00401501 0.08928447 -0.13051242 0.08519813 0.01757929 0.04221402
-0.028164329 0.08566926 -0.06836351 -0.18265633 -0.051451575 -0.076741934 -0.023090797 -0.032294236
0.15733258 0.078082986 -0.099976465 -0.01718585 -0.050495327 -0.018320937 -0.10719128 -0.043481816
0.058932483 0.13727044 -0.103910655 -0.029251534 -0.045541976 -0.008713471 0.017690422 -0.09330995
0.07268759 0.0022606316 0.020537352 -0.105193496 -0.0020630797 0.05352284 0.072277196 -0.013375094
-0.051585905 0.0587428 0.03609452 -0.13033542 0.02533882 0.0053082975 0.09249512 -0.031322792
0.030881085 -0.14710696 -0.14097925 -0.111645766 -0.030252052 0.0072887507 -0.102435045 -0.10161434
0.08359285 -0.04699567 -0.1025367 -0.10492161 -0.06983523 0.07849546 -0.008761678 -0.034058884
-0.055381928 0.023555584 0.0596311 -0.02005632 -0.03470948 0.051569402 -0.026333524 0.13891648
-0.02537397 0.06085103 -0.045539934 0.020972598 -0.06714634 0.1109816 -0.046479 0.09767308
-0.08830932 -0.049589384 -0.044316072 -0.03919517 -0.022524262 -0.008903635 0.032701083 -0.023174478
0.14780521 -0.033397246 0.13198534 -0.028664835 0.082297176 -0.035522904 0.053275306 0.0069566537
0.028882097 0.09475051 0.09937602 0.061993856 0.116227865 -0.04216449 0.010004765 -0.045091648
-0.06397631 0.009561041 0.12176277 0.09860619 -0.037652172 -0.115956396 -0.11030458 -0.0018479438
0.12895936 0.06516596 0.04108465 0.058224164 0.00095516397 -0.008776035 0.016569002 0.076602444
0.011153407 0.04149715 0.21775462 -0.054982148 -0.06872213 -0.052869126 0.03269116 0.06381072
0.09621741 0.06686543 0.07046444 -0.15446138 -0.118881255 -0.017226141 0.08984146 0.11542317
0.008349109 0.07025129 -0.025421137 -0.050559998 0.016599769 -0.060550854 -0.18427853 -0.19985485
0.08997254 0.08049699 -0.033597283 0.013197767 0.057626974 -0.037219174 0.13532883 0.15001597
-0.015005174 0.18195139 -0.10843823 -0.015091228 0.03557567 0.026993433 -0.007041719 0.004075713
0.041529056 -0.0061909943 -0.027711565 -0.002550017 0.0033139521 0.043318912 -0.030321661 0.08768864
0.018058967 0.04375887 -0.018652054 -0.021489678 0.063707165 -0.08444483 0.18106538 -0.1201519
0.020877609 -0.19308624 -0.01933495 -0.082335286 0.14766848 0.043834604 -0.014834289 0.04674894
-0.081851624 0.0038282156 -0.011356753 0.15961078 -0.02893406 0.03315659 -0.08763181 0.023564326
0.010004152 -0.031364363 -0.040145934 0.10515408 -0.0017000613 0.07282883 -0.0038033484 0.04225868
0.064277686 -0.13116202 0.01998609 -0.0905707 -0.11570152 0.0035320057 0.08877198 -0.037859738
-0.19672228 0.1089086 -0.03308455 -0.08596689 -0.013465412 -0.0898694 -0.07803426 0.040342316
-0.15543917 -0.0661585 0.021874245 -0.015829716 0.05396075 -0.013435529 -0.018923638 0.11700621

arith.constant2 f4 [60, 60]
00000000: ff1f aa3d 36a1 01bd d50c 6b3d 50af 9dbc
00000010: 1262 0ebd 253f 8ebd 37a4 233e b2e4 bebd
00000020: a752 abbb fd17 be3d 0402 c6bd 7999 b4bd
00000030: b88a ecbc e3ce c83c 6a34 92bd 50db 0cbd
00000040: ac5d f13c 4198 2cbd 8b89 6d3d 9bba bbbc
00000050: d33a 683d 8680 56bd 419e 6f3d 650d 75bd
00000060: 8dcb c23a 408a 3cbd dedf 94bc 53d3 66bd
00000070: 9ee0 8b3d ed9a 7e3d c795 443e 5144 99bd
00000080: 445d 6abd 81eb 753c e859 68bd 11ff 70bc
00000090: 49d2 e83c 173b c93d 8fbb e7bc 0be2 f93d
000000a0: 447c 91bd bc43 75bd 07d7 86bd 8937 98bd
000000b0: ff25 dcbc 3804 1abc 3f9c 1ebc 3bc3 96bc
000000c0: 9067 d73c ff55 a8bd ff38 83bd 8187 063d
000000d0: d329 76bd 0a31 fabd 91b5 053c db03 e73b
000000e0: 28b2 853d d077 9b3d 5a78 e4bd 72c7 e7bb
000000f0: 17f2 25bd d469 80bc 375e db3c fcad 903b
00000100: b2c9 4c3d 5615 803d df75 7ebd 3c85 47bd
00000110: b247 a5bd 0dd2 12be d166 243e 1bf7 27bc
00000120: 63e5 4bbd 5e62 0a3d 1313 92bd 5d43 2d3d
00000130: 13e2 79bd 4313 b8bc b7bb c63c 41fe 3d3d
00000140: 1784 bf3d f9d3 863c fe4e 87bc b95a 1d3d
00000150: c4e9 f7bc 15a5 103c 3376 71bc 646f 0fbc
00000160: 7088 4b3d 4b3f 89bd ed7d d3bc e360 c83d
00000170: 5609 633c a8ad 863c 9657 dcbd 5b1f 093c
00000180: 4c4c 3abd 4199 093b 50b0 f43d 7931 0fbe
00000190: 7b79 243b 12c8 b9bc e676 a7bd 36c9 18bd
000001a0: 3b4a a4bc 8c00 32bd 53bb 80bd 72bc 51bb
000001b0: 27ed 0c3c 728f 46be b6e4 9a3d 0468 d43d
000001c0: f04f bd3a 695f 9bbc 6cc5 5dbd a3c4 1a3d
000001d0: c3d8 163c 47ec d13d 9664 7bbd 3c4a 24bd
000001e0: 8c95 173e 51d0 b33d 41f8 333d 0313 22bd
000001f0: 271a 263c 881f 363d 29c6 173d a2d6 22bd
00000200: cbeb 80bd d374 afbd 1e16 debb aa89 5fbd
00000210: be90 2ebb 128a 193d c608 e9bd 8506 efbb
00000220: ee9a bfbd cc93 023c b7c5 9c3d 16c7 5d3d
00000230: 510f 323d 223f fa3c 4619 e7bc 2ec2 97bd
00000240: c50c bf3d c39b 91bc a321 b73c 8981 0dbe
00000250: 6ce6 b43d 71e6 8f3d eea5 dd3d 03ff abbd
00000260: cf17 e13d 8cce 443d 33eb fc3d 536b 2a3d
00000270: 133b d73c a183 b1bc 88e3 ecbd ee54 873d
00000280: 8c98 b53c 293c 473d 7034 d2bb 20b1 97bd
00000290: a5cd 813c 54d6 d43d b0bb 913c 7ce9 f6bd
000002a0: 9447 f3bd 7752 a9bd 0a6b 9f3d 01c5 3bbd
000002b0: 3fcc a73d d0b3 4dbc 2c24 b83d d96d 263c
000002c0: 3d26 86bd ac4c c93c 457e 4dbd cb5b fe3c
000002d0: efa3 9e3d 2ba6 523d 6bed 82bd 760b 973d
000002e0: 4ec7 c7bd 8bb1 aa3d 64d0 a73d 7874 ddbc
000002f0: 6bb9 c93d ff33 b5bc 26b2 85bc 4e06 23bc
00000300: 782f 4e3d 8dad 6abd 13fb 0e3e 6f38 b83d
00000310: e344 eabd faa4 86bd 68ef 19ba f23c a03d
00000320: c0e8 56bd aed9 39ba d13c febd de80 ad3b
00000330: 8ebe 8bbd 6515 7e3c df6b ab3d 44a9 a4bd
00000340: 8cb0 863d 3c2c 2cbd eb99 a93d 74f8 f2bd
00000350: fb8e 21bc f541 263c e9e8 e5bd f629 febd
00000360: ae76 483c 1d51 c6bd 4e24 f6bc 365f a43d
00000370: 46c6 673d 6ebb 833c ce57 473d 6e79 ddbd
00000380: 0515 b2bd 8bbd dc3d 64e7 4bbd 5547 72bd
00000390: a51c 5b3d ea6b 1a3c 5953 aabd 46fc 2dbe
000003a0: 11ae c53d 3308 5cbd f705 9dbd bb89 92bc
000003b0: 5947 11be 5b35 ba3a 335e 1cbe 4da3 ffbd
000003c0: 03ac 613e 2404 e53c 9534 093e 5d6b 543b
000003d0: d0ba 30bc 65a1 7c3e 8881 073d e51a e6bc
000003e0: 386b 083e 443c 953c 2dc5 da3d b50c a03d
000003f0: 80ce 923d 8695 cc3d 8c53 473d f4f4 dc3b
0.08306884 -0.031647883 0.057385284 -0.019248635 -0.034761496 -0.069456376 0.15980612 -0.09320964
-0.005228359 0.09281919 -0.09668353 -0.08818335 -0.02887474 0.024512714 -0.071389034 -0.03438884
0.029463612 -0.04213739 0.0579925 -0.022916129 0.056696724 -0.052368663 0.058500532 -0.059827227
0.0014861688 -0.046030283 -0.018173154 -0.05635388 0.06829952 0.062159467 0.1919776 -0.074837334
-0.05721785 0.015009762 -0.056726366 -0.01470925 0.028420584 0.098257236 -0.028287677 0.122013174
-0.0710378 -0.05987905 -0.06583982 -0.074324675 -0.026873587 -0.00940042 -0.009680807 -0.01840364
0.0262945 -0.082195275 -0.064073555 0.03284407 -0.06009848 -0.12216385 0.008160965 0.00705002
0.06528121 0.07591212 -0.11155768 -0.0070733363 -0.040514078 -0.015675463 0.026778324 0.004415272
0.04999704 0.062540695 -0.06212413 -0.048711047 -0.080703154 -0.1433794 0.16054846 -0.010251786
-0.049779307 0.033785217 -0.07132544 0.04230057 -0.061006617 -0.022470122 0.024259431 0.046385054
0.09351366 0.016458498 -0.016517159 0.038416598 -0.030262835 0.008828421 -0.014737654 -0.008754585
0.049690664 -0.06701525 -0.025816882 0.09784105 0.013857206 0.016440228 -0.10758893 0.008369292
-0.04548292 0.0020995887 0.119476914 -0.13983716 0.0025096822 -0.022678409 -0.08176975 -0.037301265
-0.020054927 -0.043457553 -0.06285729 -0.0032003191 0.008601463 -0.19390658 0.075631544 0.10371402
0.0014443379 -0.018966394 -0.054143354 0.037785184 0.009206953 0.102501445 -0.061375223 -0.040109858
0.14803141 0.087799676 0.043937925 -0.039568912 0.010138071 0.044463664 0.037054215 -0.03975547
-0.06294974 -0.08567204 -0.006777539 -0.054574646 -0.0026636566 0.03748519 -0.113786265 -0.0072944784
-0.09355722 0.007969808 0.076548986 0.05414494 0.043471638 0.030547682 -0.028210294 -0.07410084
0.093286075 -0.017774468 0.022354906 -0.13818945 0.08833012 0.07026375 0.10822664 -0.08398249
0.10990869 0.04804854 0.12349548 0.04160626 0.026273286 -0.02166921 -0.11566836 0.06607996
0.022167467 0.048641358 -0.0064149424 -0.07406831 0.01584513 0.10392442 0.017789692 -0.12056252
-0.11878887 -0.08267682 0.07784088 -0.045842174 0.08193254 -0.012555078 0.08991274 0.010158026
-0.06550262 0.024572693 -0.050169248 0.03104963 0.077461116 0.051428 -0.0639294 0.07375233
-0.09754811 0.08334645 0.08194044 -0.027033076 0.09849819 -0.02211952 -0.0163203 -0.009950234
0.05033824 -0.057294417 0.13962965 0.08995139 -0.1143892 -0.065744355 -0.0005872161 0.078241244
-0.05246806 -0.0007089627 -0.124139436 0.005294903 -0.06823455 0.015508031 0.08370184 -0.08040097
0.065766424 -0.042034373 0.08281311 -0.11863795 -0.009860749 0.010147561 -0.11226065 -0.12410347
0.012235327 -0.0968344 -0.030046608 0.080259725 0.056585573 0.016080584 0.04866772 -0.108141765
-0.086954154 0.1077834 -0.04978122 -0.05915006 0.053494114 0.009425143 -0.083166786 -0.16990766
0.09652341 -0.053718757 -0.07667153 -0.01788794 -0.14187373 0.0014206575 -0.15270309 -0.12482319
0.22038274 0.027956076 0.13398965 0.0032412626 -0.010786727 0.24670942 0.033082515 -0.028088996
0.1332215 0.018217213 0.106821395 0.07814924 0.07168293 0.09989457 0.04866366 0.006743068

arith.constant3 f4 [60, 60]
00000000: 3a59 ef3d 31c0 103d 74b9 403c 837b aa3d
00000010: a632 11bd ea34 fc3c 68da 893d 994d ecbd
00000020: f09f e33d 75ee a53d 6180 c83c b50b 083d
00000030: be4b fe3c 6c0e 1abe e020 823d f9e6 a9bd
00000040: b607 28bc f595 5b3c b27f 78bc c6c4 55bc
00000050: 7609 73bd d7a3 07be f2da 08be 404a 183d
00000060: 9341 063d 9737 853b 764a 073e 879e 363a
00000070: 7a5f 5c3d aa80 50bd 80fb 0a3d e4e0 acbd
00000080: 53e3 52bd 7e74 dcbd ac74 823d 4e6c 5ebd
00000090: 54f1 12be 68f9 22be 4780 253c 722d 353d
000000a0: e218 71bc b42e f6bc 0fab 3b3d 2b29 b0bd
000000b0: ede2 b9bc 18d5 153a 005a 0ebe a832 2f3d
000000c0: ad6d e0bc f6e1 90bc 95fa 07be 1eb6 91bd
000000d0: 3053 10be deac 0e3c 4640 5abc 87ab 1fbc
000000e0: 2190 84bd a6f7 d03c c7fe b1bd e446 92bd
000000f0: ff9f 9dbc e1bf 5a3d bc97 60bd 56e4 89bd
00000100: 1d97 283d cdf5 e93c 4a33 0f3d 3be1 023d
00000110: e139 143e ad6a 383d 32d0 a63d 0994 bcbd
00000120: ac70 3c3c c486 383d a7b6 413e eb15 a8bd
00000130: b7f6 973d f87c 3a3d d9fb 313d b2d5 c2bb
00000140: b438 ecbc b3b6 fc3c 0e28 f2bd 85c7 7bbd
00000150: 4a3f b7bd f878 073d b794 673c 2e74 6ebd
00000160: f7ff 01bc 477d 03be 79ef 3abd 4267 f4bd
00000170: 8e73 2f3e 6427 e8bd 0ccf d03d aa93 53bc
00000180: ad75 803c f563 ae3c 3db3 fb3d f655 8d3b
00000190: 04a1 dcbd 0118 40bc 79be 03be a28f c8bc
000001a0: e4ec ebbb 7bcf 9cbd 0f19 de3c e965 b93c
000001b0: 194b 82bc 3408 c93d a94f 713d 9b84 e0bd
000001c0: c781 94bd ef9f b7bd b2de b53b d5fc ac3d
000001d0: b80e 3cbb f0bb 873d 6da4 8abd a3f3 08be
000001e0: d0e3 91bc 8cca 293c 1bbb a63d d1c9 95bc
000001f0: da58 bbbc 18e0 053d 0f67 e23d dd71 1c3d
00000200: 6ee7 f83c cde6 0fbd 1bce 023e 8009 823c
00000210: a7f1 08bd 8600 d6bd e8c4 323d cf51 1abc
00000220: 02e6 72bd c796 f93d ba8a 233e 1676 79bd
00000230: 734e 52bc 94b3 92bd 3828 35be adab d3bd
00000240: a056 fa3d d9fa d73c 0d22 9d3d 2bcc 0a3e
00000250: d88d 11bc 8897 3dbe 1d8d f33d 59e5 38bd
00000260: 96fc 183c 2b25 a3bd 267b 8cbd 9428 c8bd
00000270: 15b9 9abc 7c93 ce3c c1cd 113e ae97 a83d
00000280: a020 0fbd c8db 493d 7bda 163e 920c c63c
00000290: a00e 2dbd dda9 163d 3150 efbc 9b00 f43d
000002a0: 01d2 043d 3f63 0abc 3ce4 903d e3cc a5bd
000002b0: f9cb 0fbd 7fd5 bb3c 418c e1bd b98d 793d
000002c0: 7dd0 3abc 0f36 b2bc 419f c83d 64ad 11bd
000002d0: 8360 093d 7f37 c9bc 8ab4 bb3d f590 81bd
000002e0: b91f afbd 4545 063d 984a b2bc edae 163c
000002f0: de42 a7ba 21fc 00be ce32 b0bd e2e9 9ebd
00000300: 4023 ac3c 9e12 913d 8db5 e4bc d251 113b
00000310: cc3b 82bc 49f8 8d3d 9bd1 a13d 39af 863d
00000320: 601c 2c3c 7bd0 3e3e 1c60 e5bd 6a8d 483d
00000330: e499 383d dec4 cf3d 7e32 c03d 3b50 be3b
00000340: c1c8 a13d 0719 b0bd 8ee4 173d ee3e 56be
00000350: b01a e7bd 44e3 88bb 227f 5f3c bc1c 16bd
00000360: 9e7e 8abd 7648 de3d 4fad 6a3d 83a5 fbbc
00000370: 4a15 de3d ad41 23bd 05ad 9bbd cb17 9abd
00000380: 2015 883d 52a3 a93d 1085 52bd 1894 8c3d
00000390: eb11 1ebb f732 0c3e 6104 e9bd e8aa e4bb
000003a0: 4aa8 be3d 17d4 393d 5b54 843c 6dc7 6fbc
000003b0: b332 473d 9a48 9f3d 986a 6ebc c5bf c6bd
000003c0: 3e61 913d d86f 1f3e aece c03d 9c02 c43c
000003d0: 5a1b b3bd cea8 e3bc 87e8 c4bd 0df5 1b3d
000003e0: e31e 9e3d 6deb 57bc 030b 9fbc 2607 c4bd
000003f0: edb9 e73c f4dd 3d3d cc25 9c3d 473c 1e3e
0.116869405 0.035339538 0.0117629655 0.08324339 -0.035448693 0.03078695 0.06731111 -0.11538238
0.1111449 0.08102123 0.024475278 0.03321429 0.031041976 -0.15044564 0.06353927 -0.08296008
-0.010255745 0.013402452 -0.015167164 -0.013047403 -0.059335195 -0.13246094 -0.13364771 0.037180185
0.03277738 0.0040654647 0.13211998 0.00069663714 0.05380199 -0.050903954 0.033931255 -0.08441332
-0.051486325 -0.107644066 0.0636991 -0.054302506 -0.14349872 -0.15915453 0.0101013845 0.044232793
-0.014715405 -0.030051567 0.04581743 -0.08601602 -0.022691214 0.00057156524 -0.1390152 0.04277292
-0.027396047 -0.017685872 -0.13279183 -0.07114814 -0.14094234 0.008708207 -0.013320988 -0.009745485
-0.06472803 0.025508713 -0.08691173 -0.071424276 -0.019241331 0.053405646 -0.054832205 -0.06733005
0.041159738 0.02855959 0.034961022 0.031953078 0.14475204 0.04502361 0.08145179 -0.09207923
0.011501472 0.045050398 0.18917333 -0.082073055 0.07420104 0.045529336 0.04345307 -0.0059458846
-0.028835632 0.030848837 -0.11824046 -0.061469574 -0.08947618 0.03307435 0.0141345775 -0.058216266
-0.007934562 -0.12840758 -0.045638535 -0.11933757 0.17133924 -0.11335638 0.10195741 -0.012913624
0.015681112 0.021287898 0.12290046 0.004313226 -0.10772899 -0.011724473 -0.12865628 -0.024482552
-0.0071998704 -0.07656761 0.027111558 0.022631602 -0.01590495 0.09816018 0.05891386 -0.109627925
-0.072513156 -0.08966052 0.005550229 0.084466614 -0.0028695296 0.06627643 -0.06769643 -0.1337419
-0.017808825 0.010363232 0.08141156 -0.01828471 -0.022869516 0.032684416 0.11054813 0.038194526
0.030383792 -0.03513222 0.12773935 0.01587367 -0.033433583 -0.104493186 0.043644816 -0.009418919
-0.059301384 0.121869616 0.15970889 -0.06090363 -0.012836087 -0.07163158 -0.17691123 -0.10335479
0.12223554 0.02636473 0.0767251 0.13554446 -0.008883916 -0.18514836 0.118921496 -0.045140598
0.009337565 -0.079660736 -0.06859426 -0.09773365 -0.018887082 0.02521681 0.14238645 0.082320556
-0.034943223 0.049281865 0.14731781 0.024175916 -0.042250276 0.036783088 -0.029213043 0.11914178
0.032426838 -0.008446514 0.07074782 -0.0809572 -0.035106633 0.022928951 -0.110130794 0.060926173
-0.011402247 -0.021754293 0.09796 -0.03556575 0.033539306 -0.024562595 0.091652945 -0.063264765
-0.085509725 0.032780904 -0.021764085 0.009196979 -0.0012761017 -0.1259618 -0.0860344 -0.07759453
0.021012902 0.07083629 -0.027918601 0.0022174013 -0.015897654 0.06932122 0.07901307 0.0657639
0.010504812 0.18634216 -0.11199972 0.048962988 0.045068637 0.10144971 0.093846306 0.005807904
0.07899619 -0.085985236 0.0370832 -0.20922443 -0.11284387 -0.004177483 0.013641151 -0.036648497
-0.067624316 0.108536646 0.057294186 -0.03071857 0.10843904 -0.039857555 -0.0760136 -0.075240694
0.06644654 0.08283104 -0.05139643 0.06864184 -0.0024119567 0.13691317 -0.11377788 -0.0069783814
0.09309442 0.04536828 0.016153505 -0.014634949 0.048632335 0.077775195 -0.014551781 -0.09704546
0.070986256 0.15570009 0.09414421 0.023927025 -0.08745451 -0.027790453 -0.096146636 0.038075496
0.07720735 -0.0131786885 -0.01941443 -0.09571676 0.028286899 0.04635425 0.07624397 0.15452681

arith.constant4 f4 [60]
00000000: 5bdf ab3c fa36 0c3d f248 263d cbe9 b23d
00000010: 358b 84bb 739f 9c3d 34c8 843d d89d c43c
00000020: 4eaf 643d 5651 2a3d e449 da3b 8857 1a3d
00000030: 5279 2a3d c190 1a3d aa77 123d 1637 5b3d
00000040: 9c0c 21bd 03c3 b73c 0147 093c b3f2 5d3d
00000050: fa95 873d b2aa d83c 523b dd3b 3399 283d
00000060: e122 de3c 3f04 2a3d 9678 ef3d 5976 c13d
00000070: f861 1d3e a0a1 123d 0a66 dd3c 6469 1f3d
00000080: ae81 c03c bd55 1d3d f89c 063d f07b c03c
00000090: f0b5 823d ecdb 7a3d 0752 853d ec2b dd3d
000000a0: a47b 883d f249 c53d 1376 a23d 5a99 a03c
000000b0: f441 733d 7822 923d 112b fcbb 6513 853d
000000c0: b238 203d e5ec c23c 5d28 f9bb 4ee3 c63c
000000d0: 573f 463d 5c0a 793d 109b 993d dfcc be3d
000000e0: 4712 0d3d 5259 303d 713c ac3d 7084 363d
0.020980528 0.034232117 0.04059691 0.08735999 -0.004044915 0.076476 0.06483498 0.024001047
0.055831246 0.041581474 0.0066616405 0.037681133 0.041619606 0.037735704 0.03575865 0.05351933
-0.039318666 0.022431856 0.008378745 0.054186534 0.06620403 0.026448581 0.0067514563 0.041161727
0.027116241 0.041507956 0.11692922 0.09446401 0.15369403 0.03579867 0.027026195 0.038918868
0.023499336 0.038411845 0.03286454 0.023496598 0.06382358 0.06124489 0.06509786 0.10799393
0.066642076 0.096332446 0.07932677 0.019604374 0.05938907 0.07135481 -0.0076955636 0.0649784
0.03911657 0.0237946 -0.0076036886 0.02427831 0.04840025 0.060800895 0.07500279 0.0931642
0.03444126 0.043053932 0.08409966 0.044559896

arith.constant5 f4 [60]
00000000: 257a 823f ff11 823f 3eb2 823f 9a93 823f
00000010: f9bf 763f 858d 7d3f 8318 823f 801e 7d3f
00000020: b28e 813f 1f4f 863f dc8b 823f 9bd7 7b3f
00000030: e25c 823f e8b3 833f cdc8 883f 547d 833f
00000040: ca11 823f 8f7b 7f3f 0606 833f 6743 7d3f
00000050: 387f 843f d13a 7d3f f694 873f c3e1 823f
00000060: 11e1 823f a75b 833f 0345 7d3f a84f 7f3f
00000070: 1f5e 8a3f 57dd 863f 5833 813f 0ee3 823f
00000080: 9e90 823f 8eb9 813f f7a0 823f be9f 813f
00000090: 721a 843f 2e18 833f 7252 833f c8ce 903f
000000a0: 6be0 803f 95cf 863f 37d9 8e3f 0a8d 813f
000000b0: b8b2 863f 6a4e 863f 2525 823f ff69 813f
000000c0: c88f 7d3f d387 823f d158 813f c218 813f
000000d0: f68b 873f 6b08 833f 0ce9 813f 0092 813f
000000e0: bb8d 863f e0ce 823f 3166 873f decf 843f
1.0193526 1.0161742 1.0210645 1.0201294 0.9638668 0.99044067 1.016373 0.98874664
1.0121672 1.0492896 1.0198932 0.9837586 1.0184596 1.0289278 1.068628 1.0272622
1.0161679 0.9979791 1.0236213 0.9893097 1.0351324 0.9891787 1.0592334 1.0225147
1.0224935 1.0262345 0.9893343 0.9973092 1.0809973 1.0536298 1.0093794 1.0225542
1.0200384 1.0134752 1.0205373 1.0126874 1.032057 1.0241754 1.0259535 1.1313105
1.0068487 1.0532099 1.1160039 1.0121167 1.0523291 1.049268 1.0167586 1.0110472
0.9904752 1.01977 1.010523 1.008568 1.0589588 1.0236944 1.0149245 1.0122681
1.0512003 1.0219383 1.0578061 1.0375936

arith.constant6 f4 [60]
00000000: 4fe4 54bc 5b45 a23c 1530 bbbc 2878 273d
00000010: bd46 143d d821 103c 71a2 813b afdc b3bb
00000020: 8bc6 ab3b 588e 7dbc 945e 97bc 67e0 9c3c
00000030: 4608 e1bb 3cda 933c a868 683c 3ba6 cebb
00000040: 90d6 ee3c b9e0 b23b e4f2 77bc e7d8 493c
00000050: c24e 0cbd 6b96 20bc 8a18 82b8 2393 093b
00000060: 5ac3 b5bc 8b05 6dbc ae53 803c 334c 173d
00000070: a4b4 2c3d f0ab b33a 623c 84bc e162 e1bc
00000080: db8d 56bd 7875 293b ed55 eebc 0f55 23bd
00000090: 8164 84bc f559 38bc 313b 293d b132 cfbd
000000a0: a733 353c 3e36 933c 4255 e63c 1969 873c
000000b0: 4e5a f2bc 9ef3 c13c df9a b63b 3bac 293c
000000c0: 56cc 1d3d 3410 bdba 63a9 8a3c 9e44 933c
000000d0: cbaf 4fbd 2f67 793c b087 dcbc d62d dabc
000000e0: dd25 173c 00b0 90bb 581c 80bd b6bc 853c
-0.012993886 0.019808462 -0.022850076 0.040886074 0.036200274 0.0087971315 0.003956132 -0.005488954
0.005242174 -0.015475832 -0.018477716 0.019149972 -0.0068674413 0.018048398 0.014185108 -0.0063064373
0.029155046 0.005458918 -0.015133593 0.01231978 -0.034254797 -0.009801487 -6.203454e-05 0.0020992241
-0.022187877 -0.014466654 0.015664902 0.036937904 0.04216446 0.0013707858 -0.016142074 -0.02751297
-0.052381378 0.002585737 -0.029093707 -0.03987604 -0.016161205 -0.011251916 0.041316215 -0.101170905
0.011059678 0.0179702 0.028116826 0.016529607 -0.029584076 0.023675736 0.0055726613 0.010356004
0.038524948 -0.0014424385 0.016926473 0.017977055 -0.05070476 0.015222355 -0.02692017 -0.026633184
0.009225336 -0.004415512 -0.06255406 0.016325336

arith.constant7 f4 [60]
00000000: e779 253d 95a7 123d 5d7a 5d3d c1b7 913d
00000010: b9d0 1d3c 592d b43d 7a20 343d 4ed6 ed3c
00000020: 4a99 853d 9645 2f3d df45 1f3d e6d0 f73c
00000030: c3d0 fc3c 21fa 793d 1a93 383d 5021 2a3d
00000040: 00fa 243d 8334 b23c 10a6 443d a30f 443d
00000050: e85d 6a3d 738c 493d 5eb1 2e3d d81a 543d
00000060: ed3c 263d d8bd 413d 0921 073e 22f8 e63d
00000070: c665 063e a8ff 683d 65da be3c d78b 223d
00000080: 6a89 d53c d7fb 1f3d 44b4 623d ac05 4d3d
00000090: c3c4 853d 9099 af3d 4bb6 823d 5aac 9f3d
000000a0: 19a4 8f3d f4f5 983d 616a 4a3d e274 373d
000000b0: eb29 873d c461 8a3d f4dc 753d ef6c 813d
000000c0: a7df 4e3d 6f4a 423d 2ba5 d93c 3858 243d
000000d0: e673 103d 8031 893d 0da5 a33d 018a bf3d
000000e0: 7738 4e3d 26b7 2e3d 966e b53d eb43 453d
0.04039946 0.03580435 0.054071773 0.071151264 0.009632283 0.08797712 0.043976285 0.029032853
0.06523378 0.04279097 0.038884994 0.030250978 0.030861264 0.061029557 0.045062162 0.041535676
0.04027748 0.021753555 0.048009932 0.047866475 0.057218462 0.04920621 0.04264962 0.051783413
0.040585447 0.04730019 0.13196196 0.11277796 0.13124761 0.056884438 0.023297498 0.039684143
0.0260665 0.039058533 0.055347696 0.050054237 0.0653167 0.085742116 0.06382426 0.07796545
0.07013721 0.07468787 0.049417857 0.044789203 0.06599792 0.067569286 0.06002517 0.063196056
0.05050626 0.047434267 0.026568016 0.040123194 0.03526678 0.066988945 0.07990465 0.09352494
0.050346818 0.042655133 0.08858983 0.048160475

arith.constant8 f4 [60, 14]
00000000: baf0 933b 9897 33be 57d5 e0bd a9fb 81bd
00000010: 6fda b93c 5050 37be f5a9 88bd ccba 253e
00000020: 7878 833c 87db 75bd cee2 afbd a7f9 923d
00000030: 4ca1 003d 6fb8 1b3e 9995 83bd 6b4c c3bd
00000040: b11f 5bbd 64ac c83d 8b2e 12be ca58 c0bc
00000050: 73f2 96bc b150 983d 5ac1 8fbd 9448 00be
00000060: c509 0bbe f184 63bc 3fae 893d aef2 7ebd
00000070: f1b2 7f3c 6df0 0bbe cdca 68bd 79fb 8f3d
00000080: da3c 813d ff69 fb3c 2af0 2dbd 86f7 67bc
00000090: f6bc afbd d426 f4bd 3b17 c3bd 5bc6 0ebe
000000a0: 6ed0 053d dbee 3bbd 09af 91bd 56fe 553c
000000b0: b8a7 53be 20e1 413d f1ae f6bc ef93 54be
000000c0: 1ad5 bdbd 1fbe 963d fef3 8abd 693f 37be
000000d0: a82f 27bd 36e0 00be 0b6d 6a3c 7ff2 003e
000000e0: 358f 163d 4bc4 94bd cc6e 9f3d eb49 0a3d
000000f0: a42c eb3c d053 083c c199 04bd 17fc eb3d
00000100: 2292 443c 1995 e7bb 73c9 6abd 1a71 c9bb
00000110: d395 5a3d 2da5 0bbc 284a a3bd 52a6 a1bd
00000120: 6448 f2bd d1c1 be3c 523a 15be 8eab 3dbe
00000130: 984f 72bd fde3 8a3d ebb3 14be 0845 1fbe
00000140: e651 f9bd 587f 8cbc e205 023e d882 b03d
00000150: b974 b0bc 776a ebbd dffb c83c 4684 2cbc
00000160: 7c36 833c 1dac 5abc a085 4bbd bce4 efbb
00000170: 5370 28ba 741d 9cbd 543e 6ebc ad85 06be
00000180: ff8d cb3c 0168 7bbc dcee bebd 72c1 efbd
00000190: 9cdc a1bd b2c1 aa3b 067c acbc 5c44 1ebe
000001a0: 3dc8 74bc 3624 0a3d 1d2b f0bc 832a 9539
000001b0: 3427 debd e88a 04bc 1517 e13d 26b5 923c
000001c0: 8d2f 973d fdd8 643d af7e f53b 61ee 8f3d
000001d0: 9970 e8bd 809e 0d3d cd3f c7bd 2b87 1f3e
000001e0: 6fe7 00bc 4b92 a5bd 4515 97bd ceee c9bd
000001f0: 3dfd af3d ba28 dc3d 57eb e5bd 488e ebbc
00000200: a656 65bd be2d 953c 0633 c0bd 155c b83d
00000210: 6920 91bd 2c1c e43d 31c9 cbbd f666 9d3c
00000220: e5d6 b8bc 2258 ee3c 76f6 aa3d 32b2 1abd
00000230: b355 24bd f5c3 4cbd 36b9 0dbd 7c60 e9ba
00000240: 8a88 01be 5192 353c bccd eebd 21e8 ca3d
00000250: dfc0 cd3d 83d6 9cbd 5ce2 99bd 8bf3 4abd
00000260: d1f9 0c3e 2719 0f3d 771a 0fbe c464 d6bd
00000270: 513a fb3c 8219 a23d 5e5f 5dbc fe0d febd
00000280: 4d3c 1fbe 37f4 663d 506e eebc e7dc 71bc
00000290: 5910 2fbd a221 38be 6385 62bd 3ee4 c5bc
000002a0: 0a31 cdbc 04aa 4ebd 89a8 27bd 2a8f b23d
000002b0: bfa5 89bd 7298 09bd ea8c bfbd eb11 d5bc
000002c0: dacf 96bd 3e36 38be 637a 28be 1979 80bd
000002d0: e32c c13c 1025 e93d 1398 2cbd 481a 5cbe
000002e0: 2a75 70bd 79e9 0e3e 5353 843d 0884 1e3c
000002f0: 7abc a9bd 4f52 c13d 28b2 94bb 6d12 d1bd
00000300: 1b44 5ebd 9a8a 203d b543 393e 2784 25bd
00000310: 68bc 51be b7a9 66be 0373 27bd fd9d 0c3a
00000320: 8dc1 273d 4428 4a3c 3f69 ad3b a128 24bd
00000330: 02d4 a6bc 1cb6 283c a7de e9bd 078d c5bc
00000340: 7392 d83b c370 833d 489f 3cbd f6a4 d0bd
00000350: aba3 99bc c31d 523d c9ea 86bd 557e 41be
00000360: 15c9 cebd a58b 033e 3100 cfbd b38a ed3a
00000370: 1116 10be 984d 32bc 9d4d 7e3d 9e9b 0f3e
00000380: c686 0fbc cc21 e73d 30cb 9a3d dfff c9bd
00000390: 28ac 18bd a563 ab3d 0f1b 8dbd 7a3a 85bd
000003a0: a962 b0bc c31e 50bd ad94 84bd c946 1bbc
000003b0: c274 823d eb52 bfbd b2a9 55bd f9a9 e1bd
000003c0: 0697 2abd 0b38 a03d 7fdb 54bd d0b8 efbd
000003d0: f59a 83bd b6de 003d e908 a33d 7f23 eebd
000003e0: 086f 08bc 1504 17bd e458 9cbc a726 a13d
000003f0: 9c3d 65bd e7c9 9cbd 65d5 43be 518c dc3b
0.004514781 -0.17538297 -0.10978191 -0.063468285 0.022687165 -0.1790173 -0.06673042 0.16184539
0.016048655 -0.06002381 -0.085881814 0.07176524 0.031403825 0.15207075 -0.06425018 -0.0953606
-0.05349702 0.09798506 -0.14275567 -0.023479838 -0.018426156 0.07437266 -0.07019301 -0.12527686
-0.13577946 -0.013886676 0.06722688 -0.062243156 0.015606628 -0.13665934 -0.05683403 0.070303865
0.06310435 0.030690191 -0.042465366 -0.014158135 -0.08580963 -0.119214684 -0.09525915 -0.13942854
0.032669477 -0.045882087 -0.071134634 0.013061127 -0.20669448 0.047333837 -0.030112715 -0.20759557
-0.092691615 0.073604815 -0.06784819 -0.17895283 -0.040816933 -0.1258553 0.014308224 0.12592505
0.036757667 -0.072640024 0.07784805 0.0337619 0.02870781 0.008320764 -0.032373194 0.11522692
0.011997731 -0.0070673344 -0.057321023 -0.006147516 0.05336554 -0.008523268 -0.079731286 -0.07893051
-0.11830214 0.023285778 -0.14573029 -0.18522474 -0.059157938 0.067817666 -0.14521758 -0.15553677
-0.12173824 -0.017150566 0.12697557 0.086187065 -0.021540033 -0.11494916 0.024534164 -0.010529583
0.016017191 -0.013346699 -0.04968798 -0.0073209684 -0.0006425429 -0.07622805 -0.014541227 -0.13136931
0.024847982 -0.015344621 -0.093229026 -0.11706819 -0.07903406 0.0052110786 -0.021055233 -0.15455765
-0.014940319 0.03372594 -0.029317433 0.00028451168 -0.10847321 -0.008089758 0.10990731 0.017908644
0.073821165 0.055871 0.0074919085 0.07027889 -0.11349601 0.034574986 -0.09728966 0.15578906
-0.007867678 -0.08084544 -0.07377104 -0.098600015 0.08593223 0.107499555 -0.11226528 -0.028754368
-0.055990838 0.018210288 -0.09384732 0.09001938 -0.0708626 0.11138186 -0.099504836 0.019214135
-0.022563407 0.02909476 0.0834779 -0.037767597 -0.04012079 -0.049991567 -0.03460046 -0.0017805244
-0.12649742 0.011082248 -0.116603345 0.09907556 0.10046553 -0.07658102 -0.07513878 -0.049548667
0.13767172 0.034936097 -0.1397494 -0.10468438 0.030667456 0.079150215 -0.013511507 -0.124050125
-0.15550347 0.056385245 -0.029105335 -0.01476214 -0.0427402 -0.1798158 -0.05530299 -0.024156686
-0.025047798 -0.05045511 -0.040932212 0.08718713 -0.06721067 -0.03359265 -0.09353049 -0.02600952
-0.07363863 -0.17989442 -0.16452937 -0.062730975 0.023580974 0.11384022 -0.042137217 -0.214944
-0.058705486 0.1395625 0.06461205 0.009675033 -0.08287902 0.09439527 -0.0045378394 -0.102085926
-0.05426417 0.03919468 0.18092234 -0.040409233 -0.20482028 -0.22525679 -0.040881168 0.0005364118
0.04095607 0.012338702 0.0052920873 -0.04007781 -0.020364765 0.0102973245 -0.11419421 -0.024115099
0.006609255 0.06417992 -0.04605034 -0.10187714 -0.0187548 0.051297914 -0.065877505 -0.18895848
-0.10096947 0.12846239 -0.101074584 0.0018123001 -0.14070918 -0.010882758 0.062085737 0.14024207
-0.00876016 0.11285743 0.07558286 -0.09863257 -0.037273556 0.08368615 -0.06889927 -0.06505294
-0.02153142 -0.050810587 -0.0647367 -0.009477326 0.06369926 -0.09341987 -0.052163787 -0.11018748
-0.041647933 0.07823189 -0.05196714 -0.11705172 -0.0642604 0.031462394 0.07960684 -0.11627864
-0.008327253 -0.036869127 -0.019085355 0.078687005 -0.05596696 -0.07655697 -0.19124372 0.006730594

arith.constant9 f4 [60, 14]
00000000: 42a5 03bd 1984 a4bc 342e 003d ef02 4c3d
00000010: 3896 9f3d d88a 43bd 37e8 8f3d 2924 2a3e
00000020: a6aa 18be 8b5d d4bb 05b9 cd3c 3588 933d
00000030: b9fd 8a3d 665a ef3d 96a8 2fbc ab78 183c
00000040: f239 f23c 933b 74bd dcb8 5f3d 4a1c 093b
00000050: 8a37 3fbd 3969 b9bb 26f2 893d c706 41be
00000060: 73c4 7cbd 2d9c 813c c66c cc3c d5d5 d9bd
00000070: 11fc e8bd 5e53 e33c 8a2b fbbc 828a eb3d
00000080: 3156 523d 16f8 8cbd ea38 543d 8952 203e
00000090: 9e83 893d 697d cc3d bb8d f1bb 437f 93bc
000000a0: 01ce bd3d ad2c 48bd 8180 46be 8dc5 303d
000000b0: 0176 d4bd 57bf 763d ea38 00be e054 323d
000000c0: 1eb2 f5bd 9895 163d b27b 8f3d d9d4 0bbe
000000d0: f6a3 1bbe b60a e93c e7bf 713c 291f 3e3e
000000e0: 1f97 5a3c 2b04 1c3d 6faa f33d fd1c bdbb
000000f0: 6fe0 0b3e 6368 d33d e2d0 953d dc9a 9bbd
00000100: 5ce6 1f3e 7a75 9cbd 4eec 0e3d b01d 6bbd
00000110: 6ac1 16bd 2ac9 1c3d 902f c1bd e594 773b
00000120: e306 4ebd de92 e93c ef36 05be 055b 0bbe
00000130: 3baf 1cbc d704 073e fa87 203d 4c65 00be
00000140: 9337 07bd 431b 07be fc54 3a3e 06ef a9ba
00000150: 5adc 09be 14c5 6bbe 3042 4abd 6886 9b3d
00000160: b715 cdbc c07d 17be f574 5bbd 685e 94bb
00000170: f0d7 293d c953 4fbd e994 eabd f5b6 fcbd
00000180: 4f20 7f3e f250 443c 91e5 d93d babc eabd
00000190: 0de3 a53a 60f9 93bc 6c74 bcbd ea8c 29be
000001a0: b8e0 babc 6769 603d c58e ccbb 37f4 4ebe
000001b0: 4c98 c8bd e0e2 abbd c397 993c 920e 07bc
000001c0: 1d97 b43d 6840 52bc 35f0 94bd 5fdc 293e
000001d0: d8ee 973c e91a d1bd ec42 d9bd e8c2 bc3c
000001e0: 2cd0 ac3c 2c1e 83bd c46a 60bd 66a0 07be
000001f0: a29d 773d 9001 9f3d c275 33be decc 02be
00000200: 8b4c 7dbd d96f 6c3c 0e3d e0bd 0e48 00be
00000210: a193 9c3c c403 d33c 0e1e 623d e253 ce3c
00000220: b622 23be 166a 6fbd 5a74 a33d 5c11 5abd
00000230: 5273 1fbe be43 c3bd 3fb5 02be da76 a0bc
00000240: c0d8 36be 21a4 8c3d c836 6b3c 8009 66bd
00000250: b154 29be 66cc 943d 11e2 1bbc 26c2 d2bd
00000260: 4698 013d acce 1d3d dddb cbbd 5464 19be
00000270: f06b 2abe 8c1f 163e 66a5 41bd 6056 39be
00000280: 1a53 2b3d e91a e63a cd4d 5239 5e92 24be
00000290: fd3b b83c baae 20bd f6b5 473c 64b8 2d3e
000002a0: b02d e4bc 81c1 01be a842 63bd cd08 023e
000002b0: d92d 0fbc 22ae febc 08a7 98bd c2fb 18bd
000002c0: 1c29 b23d de54 05be 4e79 48be 6a3c 2bbe
000002d0: 5073 953d cf22 ee3d 220e f4bd 39ec 21be
000002e0: 8217 363d fb81 88bd 022a 56bd 94ea 3c3c
000002f0: 377a c4bd 3367 66bd 5708 acbd a68c 3c3d
00000300: c548 86bc 24c8 893d 51ea 983d 3bde f83d
00000310: d380 2ebd 7dcc 0dbd 1e79 d6bd 97e0 033e
00000320: 4cd0 8c3d 57a4 f63c 1304 36bd 75c1 bf3d
00000330: 12ba 23be 0dd6 c2bd 66e4 babd f76c 443d
00000340: 598e 0fbe fb49 c8bd 0167 7abe 0038 333d
00000350: 458d 37be fb69 a8bd 2c14 e13d 9f55 7fbd
00000360: 3438 dcbd 4451 173e 7d2a b7bc 8b2f ecbd
00000370: 2798 ddbd 8d9b efbd 0a39 8c3d 7bd2 513e
00000380: edb6 dfbc 8c3a 323c 18eb 0fbe 0a9c 293d
00000390: 5bd5 5f3d 5448 8e3d 95cb bfbd 6e73 b13b
000003a0: 1664 dcbb 735e dd3d d5a9 31be c7bf 993d
000003b0: 0790 be3d 8191 753d 9a87 b73d 90ac 03be
000003c0: 9f8c ab3d d5d8 eb3d 6dbf 8e3d 4a4f 623c
000003d0: cf8c fdbd 7b2c 213e fab3 903d c22d 0fbe
000003e0: 674c ebbc 0d87 fabd 6852 123c 2ad2 a1bc
000003f0: d654 03be 1365 18be cfbe 20be 8334 f73d
-0.032140024 -0.02008252 0.031294063 0.049807485 0.07792324 -0.047739834 0.07026713 0.16615357
-0.14908847 -0.0064808778 0.025112638 0.07203714 0.06786675 0.11687164 -0.010721346 0.009306113
0.029568646 -0.059627127 0.054619655 0.0020921403 -0.046683826 -0.0056582955 0.06735639 -0.18850242
-0.061710786 0.01582154 0.024954211 -0.10636488 -0.11376203 0.027749714 -0.03066041 0.11501028
0.05135173 -0.06883256 0.05181209 0.15656485 0.06714557 0.099848576 -0.007371632 -0.018005019
0.09267808 -0.04887073 -0.19384958 0.04315715 -0.1037407 0.06024107 -0.12521711 0.043537974
-0.11996864 0.036763757 0.07006015 -0.13655414 -0.15199265 0.02844749 0.014755226 0.18566574
0.013341694 0.038089912 0.11897742 -0.005771278 0.13659833 0.103226446 0.07315232 -0.075978965
0.15615219 -0.076395944 0.034893326 -0.05740136 -0.036805548 0.038277782 -0.094329 0.0037777957
-0.050299536 0.028512415 -0.13009237 -0.1360894 -0.009563263 0.1318544 0.039192177 -0.12538642
-0.033011984 -0.13193993 0.18196481 -0.0012964911 -0.13462964 -0.23024398 -0.049379528 0.07593995
-0.025034769 -0.14794064 -0.053578336 -0.0045278557 0.0414657 -0.050617013 -0.114541836 -0.12339584
0.24914669 0.0119821895 0.106394894 -0.11461778 0.0012656167 -0.018063247 -0.09201893 -0.1655766
-0.022812232 0.05478802 -0.0062426054 -0.20210348 -0.09794673 -0.08392882 0.018749123 -0.00824322
0.08817885 -0.012832738 -0.07272378 0.16587971 0.018546507 -0.10210211 -0.106084675 0.023042157
0.021095358 -0.06402239 -0.05478932 -0.13244781 0.060453065 0.0776397 -0.1752539 -0.12773463
-0.061840575 0.014430963 -0.10949145 -0.12527487 0.019113364 0.025758632 0.055204444 0.025186483
-0.1593121 -0.05845078 0.07981177 -0.05323921 -0.15571335 -0.09534405 -0.12764452 -0.019587923
-0.17856121 0.068672426 0.014356323 -0.056161404 -0.16536213 0.072655484 -0.009514348 -0.10290937
0.03163936 0.038527176 -0.09954045 -0.14979678 -0.16642737 0.14660472 -0.047276877 -0.18099356
0.0418273 0.0017555627 0.00020056144 -0.1607146 0.022489542 -0.039229132 0.012189379 0.1696487
-0.027853817 -0.12671472 -0.05548349 0.1269867 -0.008738958 -0.031088892 -0.07453734 -0.03734947
0.08699247 -0.13020656 -0.19577524 -0.16722265 0.07297385 0.11627733 -0.11916758 -0.15812768
0.044456013 -0.06665417 -0.052286156 0.011530537 -0.09593623 -0.056250762 -0.08400028 0.04603257
-0.016392121 0.06727627 0.07466567 0.12151762 -0.042603325 -0.034618843 -0.1047232 0.12878643
0.06875667 0.03010766 -0.04443748 0.09363071 -0.15988949 -0.09513483 -0.09125595 0.04795548
-0.14019145 -0.09779736 -0.24453355 0.043754578 -0.17924984 -0.08223339 0.109901756 -0.062337514
-0.107529074 0.14777094 -0.022359127 -0.115325056 -0.108200364 -0.11699591 0.06846817 0.20490448
-0.027308905 0.0108782165 -0.14054525 0.041408576 0.05464683 0.06947389 -0.09365002 0.0054153716
-0.0067257984 0.108090304 -0.17349942 0.07507282 0.09304815 0.059953216 0.08961411 -0.12858796
0.08376431 0.11515967 0.06970105 0.013812849 -0.12380373 0.15739624 0.07065578 -0.13982299
-0.028722955 -0.1223279 0.00893078 -0.019753534 -0.12825331 -0.14882307 -0.15697788 0.12070563
