Riproduzione/lstm_small_batch_1.tflite (tflite, 231356 bytes, 29 tensors)

sequential/dense_1/BiasAdd/ReadVariableOp f4 [15]
0.08683113 -0.030748706 -0.022077022 0.081039 0.09729184 0.0041859974 0.009207868 -0.024365006
-0.023215815 0.122237965 -0.02262315 0.17195438 -0.013586661 -0.032835674 -0.017217597
00000000: 85d4 b13d b6e4 fbbc dfda b4bc c6f7 a53d
00000010: f240 c73d b12a 893b 99dc 163c 1f99 c7bc
00000020: 182f bebc e657 fa3d 2f54 b9bc cf14 303e
00000030: 969a 5ebc b37e 06bd eb0b 8dbc

sequential/dense/BiasAdd/ReadVariableOp f4 [30]
0.16290626 -0.014240433 0.06295851 -0.0068995855 -0.031767648 -0.00922987 0.0822777 0.2516649
0.09186447 0.014579352 0.09619706 0.17831805 0.34564295 -0.03150819 -0.013299779 0.08842712
0.061193638 -0.013157675 0.08543716 -0.051540397 -0.036983363 0.022827093 0.019125823 0.030976413
0.020134684 0.13087982 0.091767386 0.09306713 0.08915909 0.04910241
00000000: e6d0 263e b550 69bc 64f0 803d eb15 e2bb
00000010: cb1e 02bd e138 17bc 3681 a83d 39da 803e
00000020: 7023 bc3d 3cde 6e3c f702 c53d 0299 363e
00000030: 1df8 b03e bb0e 01bd 51e7 59bc 4719 b53d
00000040: 2ea6 7a3d 4a93 57bc aef9 ae3d 061c 53bd
00000050: de7b 17bd e2ff ba3c c2ad 9c3c 3fc2 fd3c
00000060: 7ef1 a43c 5c05 063e 8af0 bb3d fb99 be3d
00000070: 0a99 b63d 9c1f 493d

arith.constant f4 [30, 30]
-0.075183325 0.14047873 -0.12363853 0.050704364 -0.073659375 -0.054874577 0.066533655 -0.030289758
-0.002240039 -0.08745514 0.10744498 0.03244622 -0.07528942 -0.03766452 0.040874965 0.010282427
0.20476153 0.087951094 0.034303896 0.16334027 -0.012517221 0.17947556 0.06948331 -0.08048077
0.13717034 0.079089835 -0.13392003 0.18402162 -0.114964046 0.027573353 0.32705018 0.14135575
-0.08094312 0.2817579 0.34423876 0.015977828 -0.31673825 -0.34813678 0.022117069 -0.08124555
0.3473202 0.09526061 0.06570143 0.056945965 -0.20386404 -0.27279267 -0.007108435 0.23325661
0.06486282 0.2483851 -0.44052035 0.2653854 -0.050431326 0.00037649446 -0.14136274 0.16631801
0.37861124 0.16485167 -0.20638135 -0.24379139 0.1443597 0.04104087 -0.1725178 0.24331875
0.10299766 -0.16687481 -0.24092816 -0.017150473 0.23171797 -0.10118664 -0.074295856 0.19381018
-0.107883126 0.1413102 -0.11456793 -0.15292606 -0.14676936 0.09764297 -0.07169776 -0.085752
-0.17854507 0.2000939 0.007382883 0.058885377 -0.0058062654 0.27932748 0.19223131 0.30785102
-0.20117772 -0.21546525 0.17916451 -0.0084346 -0.22743712 0.25041106 0.10475522 0.0361595
0.14522979 -0.055969242 0.04166973 0.13554284 0.20496094 -0.14196147 0.109571874 0.027423719
0.013446608 -0.28499925 0.08198253 0.1718729 -0.09729879 0.12998594 -0.091272846 0.06100532
-0.018754449 0.09539907 -0.056884035 -0.15599671 0.0022987423 0.2682134 0.037884012 0.15693413
0.10484987 -0.013738018 -0.017249262 0.23778579 0.19798905 -0.07769773 0.058385625 0.01932344
-0.013488164 -0.10875645 0.06493857 0.1441601 -0.098625 0.023209337 -0.16961153 -0.054741822
-0.2411333 0.018390894 0.09206276 -0.005028802 0.0065315454 0.12843391 -0.06789506 0.122156784
-0.12489146 0.06425626 0.018312346 -0.053587608 -0.24908063 -0.055243235 -0.029837668 0.0355365
-0.043488886 0.31419176 0.23716025 -0.23954801 -0.22089356 -0.19341606 -0.023342373 0.02219697
0.19496259 0.099171385 0.07109065 -0.010996059 0.00360975 -0.08815574 0.01596018 0.013534591
-0.16958046 0.03256763 -0.084348045 0.1422164 -0.112650365 -0.05072137 -0.03324589 -0.1351679
0.12199791 0.23235163 0.010416472 -0.28027233 -0.04499586 0.037717175 -0.023901647 0.12370175
0.13956696 -0.08942555 -0.06961967 -0.14581561 -0.0031596085 -0.049141202 -0.05540702 0.26453435
-0.11396779 -0.13208081 -0.08570351 -0.12873891 0.029265134 0.011379978 -0.03543257 0.05690208
-0.27064124 0.15488431 -0.00069938967 0.0017749539 -0.052076828 0.0015921461 -0.01806007 -0.050127964
-0.009600832 0.14257243 0.096960865 -0.021636866 0.013072135 0.053509235 0.16308281 0.11658353
0.02081788 0.080649115 -0.003156324 -0.070628725 0.0737307 0.045361944 0.08251112 -0.06532843
-0.16345508 -0.19088787 -0.09070777 0.13456868 -0.062251065 -0.062462986 -0.023890728 0.20307773
0.005456374 0.1294331 0.04498253 -0.041471567 0.12766197 -0.012692518 0.045416735 0.01929991
0.1623947 -0.035470147 0.00966986 0.14474595 0.06459937 -0.14877893 0.057590086 0.037124142
0.049241554 -0.023252454 -0.035125986 -0.0090472195 0.13913003 0.1304018 -0.14971365 -0.012453392
00000000: b7f9 99bd a8d9 0f3e 3336 fdbd 61af 4f3d
00000010: bada 96bd 2ac4 60bd cc42 883d 3a22 f8bc
00000020: 9ecd 12bb ae1b b3bd 1d0c dc3d 54e6 043d
00000030: 5731 9abd 1d46 1abd 826c 273d a077 283c
00000040: 02ad 513e b41f b43d 3e82 0c3d ac42 273e
00000050: 0815 4dbc 71c8 373e 444d 8e3d 1ad3 a4bd
00000060: 6276 0c3e daf9 a13d 5522 09be 2a70 3c3e
00000070: 4572 ebbd 83e1 e13c 1f73 a73e 90bf 103e
00000080: 82c5 a5bd 9242 903e 1040 b03e efe3 823c
00000090: 842b a2be fc3e b2be db2e b53c 1164 a6bd
000000a0: f4d3 b13e ff17 c33d 798e 863d 2c40 693d
000000b0: bcc1 50be 7bab 8bbe e0ed e8bb d2da 6e3e
000000c0: ccd6 843d aa58 7e3e e28b e1be 98e0 873e
000000d0: 1491 4ebd 3b64 c539 65c1 10be 454f 2a3e
000000e0: 55d9 c13e e0ce 283e a255 53be 73a4 79be
000000f0: 07d3 133e 791a 283d 82a8 30be 8d28 793e
00000100: 70f0 d23d 3be1 2abe dfb5 76be 267f 8cbc
00000110: 7a47 6d3e f13a cfbd 6d28 98bd 2d76 463e
00000120: d4f1 dcbd 9fb3 103e 97a2 eabd a698 1cbe
00000130: b54a 16be 0af9 c73d 46d6 92bd bf9e afbd
00000140: 85d4 36be 6ae5 4c3e 1dec f13b cb31 713d
00000150: 7c42 bebb 0304 8f3e 49d8 443e a69e 9d3e
00000160: 8801 4ebe eca2 5cbe e776 373e 4731 0abc
00000170: 47e5 68be e135 803e e889 d63d fc1b 143d
00000180: 1eb7 143e 0140 65bd e1ad 2a3d becb 0a3e
00000190: 48e1 513e 595e 11be 3867 e03d b5a7 e03c
000001a0: 294f 5c3c 6ceb 91be 75e6 a73d 73ff 2f3e
000001b0: 9744 c7bd 091b 053e 42ed babd b7e0 793d
000001c0: eea2 99bc 9660 c33d 3cff 68bd 9abd 1fbe
000001d0: 7fa6 163b 4453 893e 442c 1b3d 57b3 203e
000001e0: 87bb d63d 6d15 61bc 534e 8dbc 1e7e 733e
000001f0: a4bd 4a3e fd1f 9fbd c425 6f3d 314c 9e3c
00000200: 76fd 5cbc b4bb debd 83fe 843d b59e 133e
00000210: e7fb c9bd 8221 be3c a5ae 2dbe f638 60bd
00000220: a6eb 76be 80a8 963c 668b bc3d a6c8 a4bb
00000230: 9306 d63b 2e84 033e 910c 8bbd 562d fa3d
00000240: 18c7 ffbd c998 833d c603 963c ae7e 5bbd
00000250: fe0e 7fbe bb46 62bd 206e f4bc b98e 113d
00000260: 6721 32bd bedd a03e 23da 723e 134c 75be
00000270: ec31 62be dc0e 46be 8138 bfbc 6cd6 b53c
00000280: 46a4 473e 5e1a cb3d fa97 913d d028 34bc
00000290: 8e91 6c3b ff8a b4bd ecbe 823c 30c0 5d3c
000002a0: 80a6 2dbe a365 053d abbe acbd 2da1 113e
000002b0: 3cb5 e6bd 36c1 4fbd d82c 08bd 7469 0abe
000002c0: 0ada f93d 96ed 6d3e daa9 2a3c db7f 8fbe
000002d0: 944d 38bd 537d 1a3d 63cd c3bc 5857 fd3d
000002e0: a4ea 0e3e be24 b7bd c294 8ebd b050 15be
000002f0: 6f11 4fbb 4948 49bd 79f2 62bd 0c71 873e
00000300: f267 e9bd 3140 07be 5285 afbd 22d4 03be
00000310: 6fbd ef3c 1673 3a3c be21 11bd 2812 693d
00000320: 7d91 8abe fe99 1e3e 3f57 37ba 92a5 e83a
00000330: 834e 55bd 8faf d03a b6f2 93bc fb52 4dbd
00000340: cf4c 1dbc 82fe 113e 6b93 c63d cc3f b1bc
00000350: 822c 563c 802c 5b3d 2eff 263e 59c3 ee3d
00000360: 428a aa3c 5d2b a53d 54da 4ebb cba5 90bd
00000370: 1f00 973d 72cd 393d 97fb a83d e9ca 85bd
00000380: c560 27be 1c78 43be ffc4 b9bd 5fcc 093e
00000390: f9fa 7ebd 30d9 7fbd 7db6 c3bc 9cf3 4f3e
000003a0: 62cb b23b 1c8a 043e 9a3f 383d 17de 29bd
000003b0: d2b9 023e 47f4 4fbc e606 3a3d d81a 9e3c
000003c0: cc4a 263e 2549 11bd 556e 1e3c 4838 143e
000003d0: ad4c 843d 8159 18be 95e3 6b3d 7c0f 183d
000003e0: 83b1 493d ee7b bebc 44e0 0fbd ca3a 14bc
000003f0: 1a78 0e3e 0d88 053e 894e 19be 5009 4cbc

arith.constant1 f4 [30, 30]
-0.057532407 -0.15298583 0.058741216 0.066915095 0.09150876 0.10207788 0.011278518 0.13567318
0.009258297 -0.024971211 0.029100653 0.06476445 0.09424024 -0.005113788 0.008817039 0.11157132
0.07639459 -0.011158426 0.0010115321 -0.3094632 0.07849931 0.1858792 0.19932279 0.042103782
0.08086138 -0.124489754 -0.10355183 0.09133986 0.04623057 0.031557538 -0.07156427 -0.099052854
0.13330045 0.09193553 0.007668535 0.09098233 0.18783644 0.20142734 -0.014630888 -0.029434862
0.04439964 -0.066714555 -0.19388686 -0.19936095 -0.06423779 -0.033578858 0.13420925 0.118620515
-0.13147192 -0.05054473 -0.012814354 0.032559697 -0.122399665 -0.28034976 0.0656754 0.06040216
-0.015597347 -0.0069683227 0.10746334 -0.04924323 -0.016238503 -0.23000476 0.09857106 -0.12981427
0.055030964 -0.14764853 0.0988078 -0.0013352312 0.011317166 -0.07220443 -0.12978771 -0.12292358
-0.10606747 -0.008285316 0.028519098 -0.022146383 -0.05922215 0.08551443 0.0319062 0.012181899
0.06302647 -0.1307068 0.0598617 -0.02719678 -0.027980018 0.055024676 -0.21306878 -0.04452192
0.093738735 -0.17267479 -0.034658358 0.09660471 0.089776896 0.06833004 -0.14715965 0.05681798
-0.006317923 -0.15433727 -0.11731399 0.02639913 -0.013060981 0.022927841 0.013396048 -0.17919433
0.08537523 -0.20440458 0.10693294 -0.110398956 0.09874213 -0.04842267 0.07021298 -0.13996649
-0.107935555 0.1773313 -0.1349746 -0.13021803 0.05933759 -0.023170657 -0.020365804 0.09001058
0.068483725 -0.09181068 -0.090931214 0.018016778 -0.005506174 -0.2498841 -0.07775022 0.12280334
-0.059980616 -0.020580614 0.058974124 -0.08551695 -0.0006070132 -0.029089622 0.041015126 -0.016080253
0.0067744367 -0.03569131 -0.13924551 0.00586539 0.13716626 0.12428533 0.096044034 0.0056369333
0.083146945 -0.07607853 0.07995256 0.02603081 0.007207487 -0.074275054 -0.12291083 -0.01658751
0.09540594 0.036443185 0.004310059 -0.15219912 0.08686108 0.11614736 0.094492234 0.059452344
-0.0004387526 0.054940812 -0.2848011 -0.25269037 0.058180347 -0.07074299 -0.003912867 -0.11638242
0.0068654576 -0.10319095 0.013367359 -0.086381264 0.091947556 0.2191424 -0.12460375 -0.13941051
0.124311596 0.029313032 -0.066477425 -0.056935646 -0.03393656 0.00025280102 0.112575226 -0.015795888
-0.10764086 0.11739217 0.19974923 -0.03206598 -0.010348593 0.06232812 -0.0688333 -0.14514033
-0.044311382 -0.15610409 0.118041284 0.045568496 -0.096709214 0.03831613 -0.08959623 -0.081175305
0.007987854 0.1151641 -0.07195389 -0.022991814 -0.0508705 0.06623884 -0.018357506 -0.02460981
0.016040383 -0.06925951 -0.033291776 0.08534314 -0.09404881 0.0015721914 -0.025848746 0.022982769
0.05166699 0.074490204 0.06602505 0.044049915 0.014361441 0.061275735 0.09023511 0.14519058
0.05546868 0.051024057 0.0659407 0.000119017444 0.0384112 -0.04904156 -0.0010909875 0.042186014
-0.12986378 0.017227855 -0.13448617 0.06953136 0.06590123 -0.056837335 0.13597678 -0.076965585
-0.12220022 0.13514346 0.13033023 -0.019393355 -0.01425621 0.02515944 0.119035356 -0.16254939
-0.025503417 0.06707703 0.07632635 0.1077062 -0.046983533 -0.08939379 0.15279928 0.055411387
00000000: 1aa7 6bbd 51a8 1cbe a19a 703d c80a 893d
00000010: f268 bb3d 350e d13d 88c9 383c e9ed 0a3e
00000020: 1db0 173c 6d90 ccbc 7e64 ee3c 39a3 843d
00000030: 0701 c13d 9091 a7bb 5875 103c 817f e43d
00000040: c474 9c3d d5d1 36bc 6395 843a f671 9ebe
00000050: 3fc4 a03d 1e57 3e3e 461b 4c3e 0475 2c3d
00000060: a79a a53d 7cf4 febd fb12 d4bd 6410 bb3d
00000070: 445c 3d3d 7a42 013d 4a90 92bd 39dc cabd
00000080: ea7f 083e b248 bc3d 5648 fb3b f254 ba3d
00000090: 3258 403e f842 4e3e 64b6 6fbc 6121 f1bc
000000a0: 66dc 353d a4a1 88bd 478a 46be 4725 4cbe
000000b0: 1a8f 83bd fc89 09bd 266e 093e 50ef f23d
000000c0: 93a0 06be fe07 4fbd 4cf3 51bc 515d 053d
000000d0: adac fabd 018a 8fbe d380 863d 4168 773d
000000e0: 048c 7fbc 8756 e4bb bd15 dc3d 45b3 49bd
000000f0: 9c06 85bc 5e86 6bbe a0df c93d 08ee 04be
00000100: 2668 613d 2d31 17be be5b ca3d ed02 afba
00000110: a26b 393c ebdf 93bd 12e7 04be 5cbf fbbd
00000120: e739 d9bd 22bf 07bc e2a0 e93c 556c b5bc
00000130: ed92 72bd 3122 af3d 13b0 023d 9696 473c
00000140: 0614 813d 01d8 05be 8b31 753d c8cb debc
00000150: 5a36 e5bc 8e61 613d b42e 5abe 9e5c 36bd
00000160: 18fa bf3d a9d1 30be ecf5 0dbd b1d8 c53d
00000170: f3dc b73d 9ff0 8b3d 05b1 16be f8b9 683d
00000180: 9406 cfbb 970a 1ebe 5142 f0bd fd42 d83c
00000190: bafd 55bc 2bd3 bb3c 197b 5b3c b87e 37be
000001a0: 35d9 ae3d 6f4f 51be a8ff da3d d918 e2bd
000001b0: 5039 ca3d da56 46bd d3cb 8f3d 6053 0fbe
000001c0: 510d ddbd 5696 353e c836 0abe e057 05be
000001d0: f90b 733d 64d0 bdbc 30d6 a6bc 7857 b83d
000001e0: 3241 8c3d 3d07 bcbd 253a babd ec97 933c
000001f0: 236d b4bb 9ee1 7fbe 823b 9fbd 5180 fb3d
00000200: 3cae 75bd ad98 a8bc da8e 713d 8323 afbd
00000210: f71f 1fba 5c4d eebc 7aff 273d bcba 83bc
00000220: 18fc dd3b 0d31 12bd 6096 0ebe 7532 c03b
00000230: 5075 0c3e 4f89 fe3d bcb2 c43d 06b6 b83b
00000240: f248 aa3d 0fcf 9bbd 2bbe a33d 913e d53c
00000250: c82c ec3b 851d 98bd acb8 fbbd 88e2 87bc
00000260: 3164 c33d 7345 153d 653b 8d3b 16da 1bbe
00000270: 39e4 b13d abde ed3d 2585 c13d 4d84 733d
00000280: 6108 e6b9 9e09 613d 73d1 91be a260 81be
00000290: 844e 6e3d b3e1 90bd 8237 80bb e859 eebd
000002a0: a2f7 e03b c755 d3bd c402 5b3c a9e8 b0bd
000002b0: 004f bc3d de66 603e 4030 ffbd a1c1 0ebe
000002c0: 1497 fe3d e221 f03c 5125 88bd 5a35 69bd
000002d0: 1001 0bbd 618a 8439 d78d e63d 6166 81bc
000002e0: d072 dcbd 4e6b f03d 108b 4c3e 9e57 03bd
000002f0: 258d 29bc c54b 7f3d 79f8 8cbd ab9f 14be
00000300: da7f 35bd c0d9 1fbe a1bf f13d 08a6 3a3d
00000310: 7b0f c6bd 60f1 1c3d 3a7e b7bd 3d3f a6bd
00000320: 7ddf 023c 28db eb3d 905c 93bd 5459 bcbc
00000330: 965d 50bd 3ba8 873d 7b62 96bc 839a c9bc
00000340: 1f67 833c eed7 8dbd f55c 08bd 62c8 ae3d
00000350: aa9c c0bd fd11 ce3a c0c0 d3bc 5c46 bc3c
00000360: c4a0 533d 528e 983d 2438 873d af6d 343d
00000370: 404c 6b3c 44fc 7a3d 2fcd b83d d7ac 143e
00000380: 2033 633d 9afe 503d eb0b 873d 0199 f938
00000390: 1055 1d3d cedf 48bd 77ff 8eba 3ecb 2c3d
000003a0: 03fb 04be 6e21 8d3c beb6 09be 7566 8e3d
000003b0: 39f7 863d 44ce 68bd 7f3d 0b3e 22a0 9dbd
000003c0: 1c44 fabd 0c63 0a3e 4a75 053e d0de 9ebc
000003d0: e192 69bc 2b1b ce3c cfc8 f33d 5973 26be
000003e0: 8bec d0bc af5f 893d fd50 9c3d 1195 dc3d
000003f0: ce71 40bd 1714 b7bd 6a77 1c3e 0df7 623d

arith.constant2 f4 [30, 30]
0.095339365 0.2260656 0.05728042 0.12222542 0.10929444 -0.08128111 -0.16526027 0.04048634
0.21704018 0.09083432 -0.031649426 0.15974708 0.22250706 -0.24027327 0.023220837 -0.04688726
0.16254954 0.018293422 0.1206 0.005465066 -0.025306063 -0.068455115 0.18931995 -0.04829207
-0.13826118 -0.21740054 -0.07699259 -0.041757964 -0.05646486 -0.23957756 0.01789901 -0.11201984
0.076412834 0.16575702 -0.14934725 0.04820057 -0.0059968843 0.059749678 -0.13666439 0.038136758
-0.008727595 0.021689765 -0.1728796 -0.299538 0.017920109 0.11708097 0.17512856 0.06487142
0.0051753274 -0.003050428 0.079806805 0.15221938 -0.00073786225 0.038545612 -0.10850171 0.082160495
-0.12601028 -0.06282095 0.012139966 -0.027382968 0.12588009 0.20328845 -0.1792288 0.037884656
-0.06972085 0.087503806 -0.116066426 0.041267283 0.050723918 -0.032328542 -0.060739666 -0.1030611
0.16078448 0.27705464 0.09143374 -0.03852175 -0.09145757 -0.115753666 0.19667085 -0.22030322
-0.06794546 0.042485997 -0.073455796 -0.1725355 0.09520717 0.12565024 0.0982548 0.0039069783
0.08654327 0.0070869173 0.04882928 0.09336867 0.019756299 0.18269126 0.12056311 0.11411124
0.034981687 0.13377565 0.10722865 0.040987354 -0.033355806 0.025524432 0.12742849 -0.076901026
-0.15945052 -0.15085357 0.065087385 0.17301705 -0.17115179 -0.08763898 -0.030779775 0.06613703
-0.0945106 0.029747775 -0.4073686 -0.11933081 -0.026712839 0.25201964 -0.1587093 -0.0559416
0.07762207 -0.06919981 0.06476229 0.25147757 0.12493943 0.0891963 -0.05700917 0.10068819
-0.007199689 0.059886284 0.05002552 0.0568667 -0.03407525 0.047646947 -0.008653688 -0.16736786
0.22366768 -0.12078002 0.15029483 0.061552178 -0.06453097 0.19796823 0.12611553 0.08331499
-0.06811226 -0.035543654 0.13801834 0.21805845 -0.0611572 0.034621634 -0.10450972 -0.06873291
-0.11578771 0.109863624 -0.06829684 -0.008156256 0.0009470624 -0.1217142 0.15365915 -0.14193155
0.034957714 -0.020664325 0.039041393 0.33106658 0.10898176 -0.026026577 -0.12221466 -0.10432692
0.08319864 0.043484014 -0.1439577 0.018308118 -0.080455 -0.17505668 -0.00063671655 0.03125781
0.06482706 0.030591901 0.0075386013 -0.0026744108 -0.1592154 -0.06913718 0.16198145 -0.005500082
0.1451658 0.034815826 0.13379973 -0.026979616 -0.13548146 -0.0037286896 0.09321668 -0.026716145
-0.14890078 -0.034480605 0.00087564747 0.23469666 -0.12124965 0.027769493 0.09000538 0.10565788
-0.012072477 -0.02789633 -0.07377411 -0.17793848 0.21270688 0.15539376 0.19921635 0.09022
0.21023703 -0.06579368 -0.009357116 -0.1475641 0.041985366 -0.13569997 -0.10354826 0.090617724
0.029506763 0.015676795 -0.0074118134 0.10750608 0.01201677 0.0515096 -4.278617e-06 0.13689902
0.045461737 -0.04494892 -0.19498627 -0.04592683 0.2167816 -0.138082 0.04808402 -0.059355345
0.27879336 -0.26589474 0.1030524 0.09824912 -0.067387566 -0.0778586 0.05957188 0.20536348
0.02771511 0.11501328 0.011583192 0.009735389 0.10253338 -0.017986765 0.103007324 -0.018859461
-0.11768242 -0.19055754 0.02594105 0.1847151 0.18937731 -0.14147162 -0.04184215 0.09175193
00000000: 4941 c33d be7d 673e e09e 6a3d 5251 fa3d
00000010: c3d5 df3d b676 a6bd fd39 29be 01d5 253d
00000020: c83f 5e3e 5807 ba3d d4a2 01bd bd94 233e
00000030: e4d8 633e 320a 76be a039 be3c db0c 40bd
00000040: 6373 263e 16dc 953c 22fd f63d 4c14 b33b
00000050: a94e cfbc 3232 8cbd 17dd 413e e8cd 45bd
00000060: 5794 0dbe 3f9e 5ebe 4bae 9dbd 660a 2bbd
00000070: b247 67bd d253 75be f2a0 923c a86a e5bd
00000080: 557e 9c3d 35bc 293e 7cee 18be f66d 453d
00000090: 8381 c4bb 14bc 743d c0f1 0bbe 4a35 1c3d
000000a0: 30fe 0ebc bcae b13c 5a07 31be 0b5d 99be
000000b0: 31cd 923c 26c8 ef3d e754 333e 4fdb 843d
000000c0: cb95 a93b b0e9 47bb c071 a33d 66df 1b3e
000000d0: 196d 41ba 01e2 1d3d 2536 debd c343 a83d
000000e0: d708 01be 45a8 80bd b5e6 463c 3f52 e0bc
000000f0: b6e6 003e d92a 503e c187 37be f12c 1b3d
00000100: cec9 8ebd 3235 b33d 3cb4 edbd e207 293d
00000110: e2c3 4f3d ef6a 04bd 28ca 78bd b311 d3bd
00000120: b0a4 243e 1bda 8d3e 9d41 bb3d fcc8 1dbd
00000130: 1b4e bbbd 4210 edbd 1564 493e 2b97 61be
00000140: fd26 8bbd cc05 2e3d fe6f 96bd 25ad 30be
00000150: fafb c23d 75aa 003e d039 c93d 1c06 803b
00000160: 993d b13d 5f39 e83b 3601 483d 1338 bf3d
00000170: f6d7 a13c 6b13 3b3e cbe9 f63d 27b3 e93d
00000180: f548 0f3d 7cfc 083e b29a db3d 5be2 273d
00000190: 19a0 08bd 9d18 d13c 9d7c 023e 497e 9dbd
000001a0: ff46 23be 5c79 1abe 894c 853d 622b 313e
000001b0: 6a42 2fbe 117c b3bd de25 fcbc da72 873d
000001c0: c68e c1bd 9bb1 f33c 9e92 d0be b663 f4bd
000001d0: e2d4 dabc b808 813e b184 22be 0523 65bd
000001e0: 52f8 9e3d a1b8 8dbd 17a2 843d abc1 803e
000001f0: 3ee0 ff3d 8dac b63d 7382 69bd 9c35 ce3d
00000200: 5eeb ebbb 524b 753d 8fe7 4c3d 0fed 683d
00000210: 7d92 0bbd 7229 433d 33c8 0dbc 7b62 2bbe
00000220: 2409 653e 845b f7bd e3e6 193e 231e 7c3d
00000230: d028 84bd 2fb8 4a3e 6e24 013e 0da1 aa3d
00000240: 717e 8bbd 3996 11bd ae54 0d3e b74a 5f3e
00000250: f97f 7abd 6acf 0d3d 3109 d6bd d7c3 8cbd
00000260: 1b22 edbd 2e00 e13d 37df 8bbd d1a1 05bc
00000270: 4844 783a 4b45 f9bd d358 1d3e 8156 11be
00000280: d22f 0f3d 3b48 a9bc dee9 1f3d 8f81 a93e
00000290: d431 df3d b035 d5bc ae4b fabd 5aa9 d5bd
000002a0: 0c64 aa3d 4b1c 323d a669 13be e8fa 953c
000002b0: 97c5 a4bd 0f42 33be 53e9 26ba 3008 003d
000002c0: 0dc4 843d de9b fa3c 5f06 f73b 2b45 2fbb
000002d0: 5d09 23be cb97 8dbd 77de 253e 083a b4bb
000002e0: 58a6 143e 0a9b 0e3d cc02 093e 5b04 ddbc
000002f0: a7bb 0abe 085d 74bb 63e8 be3d d1db dabc
00000300: 7279 18be 893b 0dbd b58b 653a 5254 703e
00000310: bd51 f8bd d97c e33c be54 b83d 2963 d83d
00000320: a3cb 45bc d886 e4bc e116 97bd 8135 36be
00000330: d5cf 593e 8b1f 1f3e 5fff 4b3e 43c5 b83d
00000340: 6048 573e d6be 86bd 974e 19bc 0b1b 17be
00000350: d9f8 2b3d eff4 0abe 1c11 d4bd c995 b93d
00000360: 2bb8 f13c 9f6c 803c ccde f2bb 262c dc3d
00000370: fde1 443c bbfb 523d 0a91 8fb6 422f 0c3e
00000380: 1636 3a3d 5c1c 38bd 7baa 47be c61d 3cbd
00000390: fffb 5d3e 5e65 0dbe c0f3 443d 971e 73bd
000003a0: 01be 8e3e 5b23 88be 230d d33d d636 c93d
000003b0: 7e02 8abd 5474 9fbd a501 743d ce4a 523e
000003c0: cc0a e33c 158c eb3d 6ec7 3d3c 2e81 1f3c
000003d0: 05fd d13d fb58 93bc 81f5 d23d 287f 9abc
000003e0: 7b03 f1bd 8421 43be 5382 d43c f525 3d3e
000003f0: 20ec 413e f0dd 10be ad62 2bbd 70e8 bb3d

arith.constant3 f4 [30, 30]
0.10134792 0.11404912 -0.11816681 -0.030626208 0.12000708 -0.012140528 -0.110216156 -0.10842948
0.0019372802 -0.20885564 0.10376365 0.10999951 0.059699744 -0.04469887 -0.08995864 0.008082333
-0.082486875 0.1419417 -0.2327902 -0.023422178 0.004552774 -0.06252183 0.043572623 0.17649673
-0.13796921 -0.15639244 0.010082488 0.19336215 -0.16099554 -0.25257546 0.13101041 0.089475416
-0.056809906 0.036069274 0.24686036 -0.0782145 0.062038537 -0.21583346 0.14834724 -0.0333337
0.103577055 0.080271855 0.11268684 -0.14149222 -0.07500159 -0.1940061 -0.049868282 0.10037616
-0.0737053 0.25707355 -0.19976874 0.26036546 -0.058153816 0.20486927 -0.020058896 -0.04902973
-0.05022728 0.04693332 -0.13724105 -0.16426042 0.008440447 0.16792953 -0.2553803 0.14947586
0.054165434 -0.0757182 0.06431306 0.0043331445 0.10457634 -0.07636176 0.06782744 0.17581695
0.009528352 -0.044668585 -0.12757 -0.22597016 -0.070814654 0.04326466 -0.12006471 0.21418317
-0.22648686 0.076707505 -0.022278879 0.13534091 0.001339004 -0.185276 0.1279534 0.18243182
-0.34208882 -0.15561782 0.04796032 0.10522859 -0.07204674 0.19674216 0.15662073 0.047982767
-0.07280246 -0.074180424 0.1790268 0.03355846 0.046347246 0.070895225 0.19005798 -0.29579863
-0.13628532 0.07268287 0.054354936 0.1810258 0.0200753 -0.031865247 -0.04646349 -0.13718253
-0.13404566 0.06107862 0.16197869 -0.14619772 0.071722075 0.085355215 -0.15347137 0.10665757
0.15320127 0.15887097 0.05187766 -0.04357653 0.042987607 -0.12874974 -0.0915057 0.14286502
0.0034223667 -0.054065175 0.16035132 0.1651593 0.17508753 -0.11284388 -0.015412742 -0.057152733
0.05951699 -0.05582496 -0.18562162 0.08352037 -0.10363291 0.152154 -0.0642755 0.18733324
-0.031723265 0.08233735 0.091792345 0.23370568 -0.15397607 0.11761452 0.061532117 0.11759291
0.067208685 0.04201816 -0.062350906 -0.14116004 -0.22770008 -0.12463847 0.06698977 -0.17137988
0.22799703 0.05287352 -0.08542444 -0.061934907 -0.21394457 -0.3251498 0.005754749 0.09292619
-0.27661517 -0.03907681 -0.15779477 0.030157937 -0.21529728 0.15588379 -0.1454106 -0.041095495
0.1991027 0.18577668 -0.034227964 -0.12771645 0.11818814 0.15281798 -0.08079339 0.1252243
0.11771775 -0.114959925 -0.01608417 -0.09031187 -0.041052822 -0.022617664 0.01254511 0.067796126
0.01916439 -0.24200359 -0.016538603 -0.061883282 0.04608331 0.0022423132 -0.23585315 0.09087018
0.14069983 0.12818088 0.17915218 -0.014207054 -0.034712575 0.026140684 0.027563427 0.07095102
-0.07625605 0.0020558801 0.0545741 0.09441911 -0.14816824 0.26942372 0.07595495 -0.16754067
-0.062186696 -0.11563077 0.19820814 -0.08721928 0.254886 0.07488542 0.03306553 0.029140567
-0.17687246 0.06648161 0.13431907 0.06021188 -0.046367362 -0.027339777 -0.14803575 0.13411143
-0.029359205 0.07616004 -0.15350202 0.019621164 0.24620491 0.081649 -0.02203334 -0.09072761
0.14210853 -0.06386818 -0.089186266 0.076611735 0.30020297 -0.14313374 -0.041249134 -0.02961386
0.04145981 0.08563855 0.13509089 0.10451265 0.009064387 0.024212953 -0.10192038 -0.16633135
00000000: 808f cf3d 9692 e93d 7101 f2bd d0e3 fabc
00000010: 46c6 f53d 11e9 46bc 02b9 e1bd 4610 debd
00000020: 56ec fd3a 41de 55be 0982 d43d 6c47 e13d
00000030: b887 743d 2a16 37bd 3c3c b8bd c36b 043c
00000040: e1ee a8bd 2a59 113e 8e60 6ebe dedf bfbc
00000050: 702f 953b 720b 80bd 3579 323d 8fbb 343e
00000060: cd47 0dbe 5725 20be 0531 253c ba00 463e
00000070: 04dc 24be 9251 81be 9827 063e e33e b73d
00000080: 81b1 68bd 60bd 133d f6c8 7c3e ec2e a0bd
00000090: 1f1c 7e3d 7203 5dbe 57e8 173e eb88 08bd
000000a0: 3520 d43d 9265 a43d 5cc8 e63d 56e3 10be
000000b0: 6f9a 99bd 89a9 46be af42 4cbd 0492 cd3d
000000c0: cef2 96bd 259f 833e 2d90 4cbe 9f4e 853e
000000d0: b232 6ebd 40c9 513e 8e52 a4bc 66d3 48bd
000000e0: 1fbb 4dbd 273d 403d eb88 0cbe e233 28be
000000f0: cd49 0a3c b8f5 2b3e 35c1 82be 3310 193e
00000100: 93dc 5d3d 2512 9bbd 91b6 833d 0dfd 8d3b
00000110: 1f2c d63d 8e63 9cbd 1de9 8a3d 5c09 343e
00000120: ce1c 1c3c 68f6 36bd b6a1 02be b964 67be
00000130: 4607 91bd 4936 313d 7de4 f5bd d552 5b3e
00000140: 2cec 67be d318 9d3d 3282 b6bc cf96 0a3e
00000150: 8581 af3a feb8 3dbe 3706 033e 68cf 3a3e
00000160: 4426 afbe 475a 1fbe 0a72 443d 1682 d73d
00000170: 3e8d 93bd c776 493e 2f61 203e 9489 443d
00000180: 7519 95bd e8eb 97bd cd52 373e 9974 093d
00000190: 9cd6 3d3d 8431 913d 8f9e 423e eb72 97be
000001a0: 618e 0bbe c2da 943d 48a3 5e3d d45e 393e
000001b0: f574 a43c 2285 02bd 8050 3ebd 9479 0cbe
000001c0: 4443 09be 932d 7a3d bedd 253e dbb4 15be
000001d0: 06e3 923d b7ce ae3d 9927 1dbe 496f da3d
000001e0: cbe0 1c3e 12af 223e ab7d 543d 4e7d 32bd
000001f0: c613 303d f9d6 03be 5767 bbbd 354b 123e
00000200: c949 603b 7273 5dbd 2333 243e 851f 293e
00000210: 254a 333e b11a e7bd ba85 7cbc fc18 6abd
00000220: 16c8 733d b7a8 64bd 9813 3ebe ba0c ab3d
00000230: 7e3d d4bd 42ce 1b3e e0a2 83bd 49d4 3f3e
00000240: 41f0 01bd 7ca0 a83d a0fd bb3d 8b50 6f3e
00000250: e7ab 1dbe e2df f03d 1a09 7c3d 8dd4 f03d
00000260: b5a4 893d 3c1b 2c3d aa63 7fbd 428c 10be
00000270: 362a 69be 7442 ffbd ef31 893d 357e 2fbe
00000280: 0e78 693e e791 583d 02f3 aebd 75af 7dbd
00000290: 4914 5bbe 097a a6be 5592 bc3b 1650 be3d
000002a0: 81a0 8dbe 010f 20bd f494 21be c70d f73c
000002b0: e476 5cbe 00a0 1f3e 84e6 14be c053 28bd
000002c0: 94e1 4b3e 3e3c 3e3e 9f32 0cbd 1ac8 02be
000002d0: a00c f23d 517c 1c3e 0177 a5bd cd3a 003e
000002e0: 0116 f13d 1c70 ebbd f3c2 83bc 6ef5 b8bd
000002f0: 0127 28bd ae48 b9bc 018a 4d3c b2d8 8a3d
00000300: a4fe 9c3c cacf 77be f77b 87bc 5379 7dbd
00000310: dac1 3c3d c6f3 123b 7d83 71be 251a ba3d
00000320: 9e13 103e d941 033e ab73 373e b4c4 68bc
00000330: c62e 0ebd fd24 d63c b2cc e13c c54e 913d
00000340: 222c 9cbd f2bb 063b 1789 5f3d ce5e c13d
00000350: 6ab9 17be e8f1 893e 458e 9b3d c88f 2bbe
00000360: 7ab7 7ebd d3cf ecbd 13f7 4a3e 06a0 b2bd
00000370: 6b80 823e 875d 993d b96f 073d 33b8 ee3c
00000380: 0e1e 35be 8327 883d f08a 093e bba0 763d
00000390: b4eb 3dbd abf7 dfbc af96 17be 8254 093e
000003a0: b782 f0bc ccf9 9b3d a22f 1dbe 90bc a03c
000003b0: 241d 7c3e 9737 a73d 437f b4bc 66cf b9bd
000003c0: e684 113e 52cd 82bd 4aa7 b6bd 9de6 9c3d
000003d0: 34b4 993e a791 12be daf4 28bd c498 f2bc
000003e0: c3d1 293d 4463 af3d 4455 0a3e ba0a d63d
000003f0: cb82 143c 3e5a c63c a2bb d0bd c452 2abe

arith.constant4 f4 [30]
0.098594435 0.26638898 0.26613835 0.12592934 0.16246568 0.18470478 0.110196665 0.17452319
0.19946371 0.116493545 0.097992554 0.08753777 0.3242226 0.20480067 0.1941435 0.14900409
0.18307547 0.10947699 0.3091349 0.20764543 0.24608989 0.20043586 0.24307981 0.15999877
0.36077094 0.18647827 0.17567283 0.10818249 0.18892418 0.21944806
00000000: e1eb c93d 2364 883e 4943 883e 9ff3 003e
00000010: 675d 263e 4023 3d3e caae e13d 35b6 323e
00000020: 3740 4c3e 2b94 ee3d 52b0 c83d 0147 b33d
00000030: 8100 a63e 44b7 513e 8ecd 463e 8794 183e
00000040: 2378 3b3e 7935 e03d ee46 9e3e 01a1 543e
00000050: fdfe 7b3e 0f3f 4d3e eae9 783e b8d6 233e
00000060: f8b6 b83e 29f4 3e3e 94e3 333e c88e dd3d
00000070: 5775 413e feb6 603e

arith.constant5 f4 [30]
1.0059247 0.9837259 0.9672895 1.024944 1.0603784 1.0245091 1.0135884 1.0193192
1.0270079 1.0072689 1.0159454 1.0099437 1.0185506 1.0636876 1.027022 1.0331722
0.96304256 1.0031784 1.0146672 0.99555844 1.1886702 1.072011 0.9649443 0.9996279
1.0270764 0.99844366 1.0607922 1.0089066 1.0888395 0.98703736
00000000: 24c2 803f 76d5 7b3f 49a0 773f 5d31 833f
00000010: 7bba 873f 1d23 833f 44bd 813f 0d79 823f
00000020: ff74 833f 30ee 803f 800a 823f d645 813f
00000030: de5f 823f ea26 883f 7575 833f fd3e 843f
00000040: f589 763f 2668 803f 9de0 813f ebdc 7e3f
00000050: 5826 983f a837 893f 9706 773f 9de7 7f3f
00000060: 3d77 833f 019a 7f3f 0ac8 873f da23 813f
00000070: 185f 8b3f 7bae 7c3f

arith.constant6 f4 [30]
0.10519175 0.058475796 -0.071527764 0.15166599 0.14849973 -0.034531225 -0.07396193 0.062302757
0.041695613 0.04591632 0.052445196 0.048941147 0.07321439 -0.043876924 -0.122155875 -0.15552089
0.0806334 0.031806905 0.030852761 0.03048182 0.040555086 0.17803471 -0.027139924 0.03244576
-0.09616349 -0.06351659 0.13301587 0.08420522 -0.16854733 -0.04403884
00000000: c66e d73d 5184 6f3d 267d 92bd 544e 1b3e
00000010: 5010 183e 9d70 0dbd 5a79 97bd 2d31 7f3d
00000020: 05c9 2a3d c012 3c3d c6d0 563d 8376 483d
00000030: 6df1 953d 4ab8 33bd dc2c fabd de40 1fbe
00000040: 2023 a53d f547 023d eebe fc3c 03b5 f93c
00000050: 171d 263d bb4e 363e 8c54 debc d8e5 043d
00000060: 5df1 c4bd fc14 82bd 5035 083e c973 ac3d
00000070: ac97 2cbe 1262 34bd

arith.constant7 f4 [30]
0.07609393 0.19347505 0.1517474 0.07208649 0.08070101 0.1511778 0.08278786 0.16983634
0.16302456 0.123930946 0.08618387 0.095214866 0.28911346 0.15327674 0.13621017 0.0765923
0.16577357 0.101375625 0.17595251 0.14457358 0.12785475 0.11075269 0.16418828 0.14252083
0.27171153 0.15456837 0.115649045 0.0849391 0.07099819 0.16580917
00000000: 22d7 9b3d 531e 463e ac63 1b3e 15a2 933d
00000010: 9246 a53d 5ace 1a3e ae8c a93d 94e9 2d3e
00000020: e9ef 263e 82cf fd3d 2b81 b03d 0300 c33d
00000030: ae06 943e 94f4 1c3e ae7a 0b3e 6cdc 9c3d
00000040: 8cc0 293e 069e cf3d e52c 343e 190b 143e
00000050: 5bec 023e 4ed2 e23d f920 283e fbf0 113e
00000060: c61d 8b3e 2c47 1e3e 68d9 ec3d 8df4 ad3d
00000070: 8067 913d e1c9 293e

arith.constant8 f4 [30, 60]
0.02795463 -0.02855844 -0.04601267 0.0077857506 0.0010856085 0.02276135 0.06579709 0.047235295
0.02646989 -0.032246344 0.0429204 -0.0561067 0.006213511 0.02581443 -0.013617731 -0.054226384
0.082374156 0.0727491 -0.0774661 -0.043925937 0.06300186 0.07669801 -0.039715745 -0.027433159
-0.06767765 0.083769776 0.030766122 0.053093743 0.002816621 -0.030220488 -0.057568315 -0.025859075
-0.10059935 0.027835103 -0.009136499 -0.048548114 0.024886351 -0.05373787 -0.05333349 -0.046220314
-0.063888475 -0.017742466 -0.05803383 -0.06286496 -0.018470405 0.014073974 -0.0043784217 -0.052191652
-6.6722896e-06 -0.03466744 0.05794404 0.03568788 -0.01309005 -0.014644454 -0.026431462 -0.00771477
-0.014757983 0.08796706 -0.049716596 -0.04617897 0.0018826715 0.0006218426 0.003764835 0.0037702068
0.010017468 -0.004430168 0.035909306 0.008506063 0.006446333 -0.0006335691 -0.031593442 -0.019561496
-0.0082196705 0.015725395 -0.005984768 -0.015820738 0.010873079 0.016670499 -0.03767134 -0.0124173965
0.024040936 0.02648304 -0.0042513916 -0.0032311769 -0.011522817 0.009047615 0.02812276 0.008262695
-0.007147167 -0.00883107 -0.008323265 -0.0012635122 -0.016412752 0.0075000366 0.022183234 0.049633246
-0.0028770713 -0.02633013 -0.012700373 -0.0070810537 -0.003430626 0.003909314 -0.031006962 -0.004838841
-0.0039371382 0.008043614 -0.0017171653 -0.011426187 0.00022166334 0.019872446 0.013160555 0.017201882
-0.011706541 -0.0048988387 -0.009177747 0.0022356093 -0.0051204655 0.02491862 -0.011778249 -0.0050390335
-0.0016256323 0.012226806 -0.025306847 -0.009745621 0.0071285265 -0.0088208215 0.048637252 0.009039263
0.0053748456 0.0027358143 -0.034176074 -0.03801873 -0.011159032 0.033524074 -0.007712509 -0.026923038
0.016991938 0.02494282 -0.07374337 -0.030343248 0.04160058 0.041491102 -0.00017869804 -0.008061503
-0.014506194 0.045597166 0.048890665 0.01107178 -0.0067725237 -0.028444108 -0.017023847 0.0026210283
-0.02458422 0.010733852 0.034712587 0.07233753 -0.00043528713 -0.054578025 -0.01670638 -0.0193678
0.0027136574 0.013217416 -0.060609303 -0.003442471 -0.0026585965 0.012490388 -0.0024162023 -0.01879817
0.004776996 0.026976617 0.029937698 0.030848086 -0.03895903 0.00031643 -0.014337322 -0.015388191
-0.0265045 0.042567298 -0.018257165 -0.0009865751 -0.047698352 -0.020005478 -0.06523242 -0.028752645
-0.01839959 -0.01558923 0.063372955 0.042610303 -0.043957066 0.012314592 -0.019659545 -0.064113386
-0.017558997 0.020131402 -0.006629246 -0.0027535853 0.030378917 0.019685557 0.074249275 -0.0501908
0.031241545 0.015584989 0.0053132433 0.006051476 -0.05413652 0.014175963 0.04435857 -0.0040364848
0.012587731 0.0062606544 -0.009939073 0.026838794 -0.01938354 0.009585094 0.035326496 -0.03975414
-0.007167557 0.0054887836 -0.00095480983 -0.032104984 -0.01947155 0.012220006 -0.03499528 0.028246854
0.015044738 -0.003985131 -0.0048199324 -0.022533111 0.000759457 0.018029291 0.010319262 0.10640288
-0.009298777 0.02570867 -0.004832942 -0.019783236 -0.022159407 0.04976533 -0.008360573 0.022304107
-0.00439765 -0.004740165 0.00039004537 0.00025157884 -0.0027169855 -0.0048651737 0.026383968 0.005183908
-0.008570869 0.0043390435 0.0039684707 0.00640905 -0.011487079 0.0014551448 -0.0035073184 -0.010606989
00000000: 1c01 e53c 64f3 e9bc c877 3cbd 9c1f ff3b
00000010: fa4a 8e3a 0376 ba3c a0c0 863d cc79 413d
00000020: 62d7 d83c be14 04bd 4dcd 2f3d 24d0 65bd
00000030: b59a cb3b c978 d33c e71c 5fbc 7c1c 5ebd
00000040: c8b3 a83d 7bfd 943d 8ca6 9ebd afeb 33bd
00000050: 1f07 813d d913 9d3d faac 22bd 81bb e0bc
00000060: 949a 8abd 7d8f ab3d 3c09 fc3c d378 593d
00000070: 0f97 383b f590 f7bc c1cc 6bbd 69d6 d3bc
00000080: 0807 cebd 7106 e43c 41b1 15bc 63da 46bd
00000090: 76de cb3c 3e1c 5cbd 3874 5abd 8351 3dbd
000000a0: f6d7 82bd a658 91bc e2b4 6dbd 58bf 80bd
000000b0: 3f4f 97bc 8796 663c dd78 8fbb eac6 55bd
000000c0: 88e2 dfb6 72ff 0dbd bb56 6d3d 742d 123d
000000d0: a677 56bc 4bef 6fbc cb86 d8bc 2ecc fcbb
000000e0: 78cb 71bc 1328 b43d a1a3 4bbd 2926 3dbd
000000f0: f9c3 f63a 2703 233a 73bb 763b 9315 773b
00000100: 4e20 243c f12a 91bb a315 133d 045d 0b3c
00000110: c33b d33b 1a16 26ba 2068 01bd 6e3f a0bc
00000120: ccab 06bc 8bd2 803c df1b c4bb 7e9a 81bc
00000130: 0025 323c 9290 883c 434d 1abd 5672 4bbc
00000140: 7ff1 c43c f6f2 d83c 424f 8bbb 27c2 53bb
00000150: 33ca 3cbc 733c 143c b461 e63c 4160 073c
00000160: c832 eabb 31b0 10bc 4e5e 08bc 6f9c a5ba
00000170: 0974 86bc dec2 f53b 9db9 b53c 3b4c 4b3d
00000180: 3f8d 3cbb 49b2 d7bc 3a15 50bc 2f08 e8bb
00000190: 5ad4 60bb b419 803b 5002 febc 248f 9ebb
000001a0: 1c03 81bb 5dc9 033c 8212 e1ba e734 3bbc
000001b0: 4d6e 6839 8acb a23c 5e9f 573c f6ea 8c3c
000001c0: cbcc 3fbc 7086 a0bb 435e 16bc 4d83 123b
000001d0: 94c9 a7bb 2222 cc3c 8ff9 40bc 7a1e a5bb
000001e0: 2b13 d5ba f152 483c 4e50 cfbc 19ac 1fbc
000001f0: 6a96 e93b 3585 10bc db37 473d 6b19 143c
00000200: 791f b03b 594b 333b 36fc 0bbd 87b9 1bbd
00000210: 5fd4 36bc 8a50 093d 37b9 fcbb b48d dcbc
00000220: ad32 8b3c e354 cc3c c406 97bd 6792 f8bc
00000230: 5f65 2a3d 93f2 293d e460 3bb9 6514 04bc
00000240: 63ab 6dbc 18c4 3a3d 9441 483d 6966 353c
00000250: 0cec ddbb 9e03 e9bc 9875 8bbc 8fc5 2b3b
00000260: d964 c9bc 0add 2f3c c92e 0e3d b325 943d
00000270: 4037 e4b9 358d 5fbd d1db 88bc 38a9 9ebc
00000280: 9ed7 313b dc8d 583c 7641 78bd 149b 61bb
00000290: d93b 2ebb 7ca4 4c3c 2659 1ebb 9ffe 99bc
000002a0: 5988 9c3b 11fe dc3c e73f f53c 20b5 fc3c
000002b0: 8193 1fbd 84e6 a539 16e7 6abc c01e 7cbc
000002c0: f71f d9bc 0c5b 2e3d 0d90 95bc f84f 81ba
000002d0: 595f 43bd 87e2 a3bc 9398 85bd ab8a ebbc
000002e0: bdba 96bc f869 7fbc aec9 813d 2488 2e3d
000002f0: 530c 34bd 24c3 493c 0e0d a1bc e14d 83bd
00000300: e3d7 8fbc 9cea a43c 253a d9bb 7f75 34bb
00000310: 35dd f83c 9b43 a13c 0110 983d de94 4dbd
00000320: 45ee ff3c 2f58 7f3c b71a ae3b 764b c63b
00000330: 41be 5dbd 4c42 683c 55b1 353d 7d44 84bb
00000340: c53c 4e3c 2d26 cd3b 7ed7 22bc 08dd db3c
00000350: 3bca 9ebc cc0a 1d3c 84b2 103d 3dd5 22bd
00000360: d3dd eabb 41db b33b 344c 7aba 8480 03bd
00000370: cd82 9fbc 6c36 483c 3657 0fbd f265 e73c
00000380: 347e 763c b495 82bb 86f0 9dbb 5c97 b8bc
00000390: 4c16 473a 2ab2 933c 1f12 293c c1e9 d93d
000003a0: e659 18bc fd9a d23c a85d 9ebb 7410 a2bc
000003b0: a587 b5bc bbd6 4b3d c9fa 08bc 1ab7 b63c
000003c0: 291a 90bb 6353 9bbb 017f cc39 57e6 8339
000003d0: 740f 32bb 096c 9fbb 3123 d83c c6dd a93b
000003e0: d56c 0cbc 892e 8e3b f209 823b 0203 d23b
000003f0: 4d34 3cbc 8fba be3a 0adb 65bb f0c8 2dbc

arith.constant9 f4 [30, 60]
-0.06593549 0.06782476 -0.09548017 -0.09105438 0.022678705 0.07216046 -0.05262205 0.02128256
-0.025614077 -0.01102049 0.06903565 -0.008109111 -0.012518537 0.12945145 0.04807455 -0.0100835785
0.06534559 0.070918314 0.019483961 0.04860067 0.058581468 0.023721365 -0.07102704 -0.032438207
-0.11178377 0.06544071 0.06264851 0.09730727 0.024556939 -0.06704077 0.0044018608 0.075388536
-0.032211255 0.07472493 -0.036602024 -0.0038927386 0.08124099 -0.022339392 -0.06757486 -0.045805715
-0.09755844 -0.03594713 -0.0075515364 0.0030824104 -0.03528248 0.039581977 0.021261571 -0.041502032
-0.004962042 -0.023682151 0.00988163 0.03370997 -0.07441261 0.029173533 0.053290896 -0.05490866
-0.075130835 0.092926785 -0.02602194 -0.0019617588 -0.04005377 0.04891027 -0.10026177 -0.06940499
-0.042246293 0.0014574614 -0.0021761158 0.006899511 -0.05049667 0.017055012 0.030580355 -0.017116275
0.006740603 0.06228746 0.025377793 0.017513543 -0.017406775 0.042669095 0.02060142 -0.034246348
0.0057566464 0.0067299497 -0.002557884 0.010798422 0.01854478 0.013249749 0.042980246 0.055214208
0.074682996 -0.04786556 -0.03257961 -0.0024592308 -0.007681914 0.0116086975 -0.07816306 -0.030959044
0.034481026 8.344179e-05 -0.0610963 -0.00425147 0.04286338 0.007279507 0.018598987 0.025641581
0.0029986957 0.031897306 0.00084897655 -0.023226602 0.04529273 -0.06960782 0.028439824 -0.029587865
-0.03785093 0.061996225 0.06503176 -0.046212472 -0.011461255 0.0375767 -0.011130849 -0.068938
-0.022217618 0.058161885 -0.093003795 0.0014059381 -0.031092964 0.03928995 0.009080941 -0.00656362
-0.023238761 0.022961214 0.097281896 0.015761431 -0.012200773 0.055179656 0.009978206 0.024212359
0.014286034 0.042347807 0.0127912415 0.039983045 0.0046555144 -0.0068006706 0.020597253 -0.007521849
0.006558284 0.04585534 -0.0062116836 0.034590404 0.03254664 -0.059229124 -0.0123789925 -0.03801065
0.0004671234 0.010610387 -0.029747678 -0.064734355 -0.014307194 -0.0004639599 -0.081248365 -0.0077507626
0.024458624 0.026227396 0.035138257 0.02140746 -0.019435 0.003145544 0.02097132 0.0050770617
0.005063942 -0.087695435 0.07840222 0.002711734 -0.09504408 0.018642772 -0.01850573 -0.052079763
-0.056748725 0.05279806 -0.021801358 0.0005266564 -0.003027612 0.04416973 -0.16449241 0.011794853
-0.034583025 0.040708423 0.019310212 0.04115341 -0.035243146 -0.015180832 0.0667802 -0.035340935
-0.03665176 0.00497803 0.025692312 -0.09773063 0.07038895 -0.008808733 0.02939823 0.06306008
0.02566587 0.038691316 -0.048295993 0.08863742 -0.0058759805 0.021293946 0.023075864 0.044722203
0.061656255 -0.05973502 -0.064987 0.024646502 -0.069277875 0.0035729299 -0.09025235 -0.075014986
0.10558481 -0.00088270387 0.015266299 -0.047076028 -0.017945446 -0.09389859 0.026145974 0.034238067
-0.0007446303 -0.01507313 -0.0045716185 -0.036904 0.03970455 -0.05102253 0.00948916 0.09724473
0.0041456292 0.025186608 0.02949563 -0.07631948 -0.031948805 0.017389126 -0.027460305 0.0212813
0.019362185 0.025496649 -0.069859415 0.011084612 0.0345242 0.0067294007 -0.023269061 0.028781468
0.0018857488 -0.0015040267 0.030524869 -0.017430406 -0.007208563 0.004669102 -0.0034586978 -0.018037789
00000000: 3009 87bd b5e7 8a3d 1b8b c3bd b87a babd
00000010: b1c8 b93c ddc8 933d 388a 57bd c358 ae3c
00000020: 9dd4 d1bc 498f 34bc 9062 8d3d 14dc 04bc
00000030: 8d1a 4dbc ec8e 043e d2e9 443d 9835 25bc
00000040: e9d3 853d 9f3d 913d d49c 9f3c 7f11 473d
00000050: 1ff3 6f3d 4f53 c23c a076 91bd eddd 04bd
00000060: e4ee e4bd c705 863d dd4d 803d 0949 c73d
00000070: a22b c93c ac4c 89bd 7c3d 903b 4e65 9a3d
00000080: f3ef 03bd 6209 993d 01ec 15bd 511d 7fbb
00000090: ad61 a63d 1a01 b7bc b064 8abd c69e 3bbd
000000a0: b8cc c7bd 4c3d 13bd e172 f7bb 4402 4a3b
000000b0: 5d84 10bd b620 223d bf2c ae3c 09fe 29bd
000000c0: a098 a2bb 1201 c2bc 8fe6 213c 7713 0a3d
000000d0: a365 98bd 55fd ee3c 8e47 5a3d e7e7 60bd
000000e0: 32de 99bd 6650 be3d f72b d5bc da90 00bb
000000f0: 6c0f 24bd 2356 483d 0b56 cdbd 3424 8ebd
00000100: 730a 2dbd 4a08 bf3a 2a9d 0ebb 4b15 e23b
00000110: 99d5 4ebd f4b6 8b3c a783 fa3c 6e37 8cbc
00000120: 47e0 dc3b 2321 7f3d 17e5 cf3c 9078 8f3c
00000130: a798 8ebc cac5 2e3d 4fc4 a83c e645 0cbd
00000140: 40a2 bc3b e986 dc3b 2ca2 27bb ddeb 303c
00000150: 39eb 973c 7a15 593c 0e0c 303d 4b28 623d
00000160: 66f3 983d ad0e 44bd 3272 05bd 0c2b 21bb
00000170: 91b8 fbbb 6832 3e3c f413 a0bd d29d fdbc
00000180: fa3b 0d3d 78fd ae38 1d40 7abd ea4f 8bbb
00000190: 8391 2f3d ee88 ee3b e75c 983c 4b0e d23c
000001a0: c485 443b c0a6 023d da8d 5e3a b745 bebc
000001b0: df84 393d 8b8e 8ebd a2fa e83c 4062 f2bc
000001c0: 9409 1bbd c1ef 7d3d 5f2f 853d 4a49 3dbd
000001d0: fdc7 3bbc 07ea 193d 2a5e 36bc 5e2f 8dbd
000001e0: b901 b6bc 283b 6e3d c678 bebd 7447 b83a
000001f0: acb6 febc 80ee 203d 3ac8 143c a313 d7bb
00000200: 375f bebc 2819 bc3c bb3b c73d 1e1e 813c
00000210: c0e5 47bc 1004 623d a17b 233c ff58 c63c
00000220: f80f 6a3c e574 2d3d 5b92 513c 43c5 233d
00000230: 498d 983b 29d8 debb 92bb a83c d879 f6bb
00000240: e0e6 d63b cfd2 3b3d 618b cbbb abae 0d3d
00000250: a04f 053d 3d9a 72bd 42d1 4abc 0eb1 1bbd
00000260: 3ee8 f439 30d7 2d3c 67b1 f3bc 7293 84bd
00000270: b968 6abc a53f f3b9 8b65 a6bd 1cfa fdbb
00000280: 745d c83c d6da d63c 22ed 0f3d b35e af3c
00000290: 2636 9fbc 7925 4e3b 0ccc ab3c 7b5d a63b
000002a0: 6def a53b aa99 b3bd 5891 a03d 59b7 313b
000002b0: 78a6 c2bd bab8 983c 5499 97bc 9751 55bd
000002c0: 5a71 68bd c742 583d c398 b2bc 500f 0a3a
000002d0: e76a 46bb 52eb 343d b370 28be 333f 413c
000002e0: eea6 0dbd e0bd 263d 7330 9e3c 7a90 283d
000002f0: 1e5b 10bd 06b9 78bc 0fc4 883d a8c1 10bd
00000300: 2820 16bd be1e a33b af78 d23c ff26 c8bd
00000310: 1528 903d 8152 10bc 8fd4 f03c a525 813d
00000320: 3b41 d23c c97a 1e3d 05d2 45bd 8987 b53d
00000330: 4c8b c0bb a470 ae3c 9809 bd3c a12e 373d
00000340: 458b 7c3d b5ac 74bd e717 85bd 76e7 c93c
00000350: 8fe1 8dbd d127 6a3b 39d6 b8bd 75a1 99bd
00000360: d93c d83d 4165 67ba 801f 7a3c cbd2 40bd
00000370: 5402 93bc e74d c0bd 1530 d63c 373d 0c3d
00000380: 4b33 43ba 4af5 76bc 84cd 95bb a628 17bd
00000390: 3da1 223d 00fd 50bd 6c78 1b3c 3f28 c73d
000003a0: 0fd8 873b 2554 ce3c d2a0 f13c 634d 9cbd
000003b0: c0dc 02bd a473 8e3c 6ff4 e0bc 1f56 ae3c
000003c0: 729d 9e3c 59de d03c 7412 8fbd 3c9c 353c
000003d0: 3f69 0d3d 4e82 dc3b c29e bebc 1dc7 eb3c
000003e0: 3b2b f73a c322 c5ba 4a0f fa3c 36ca 8ebc
000003f0: cf35 ecbb 44ff 983b 52ab 62bb fcc3 93bc

arith.constant10 f4 [30, 60]
0.069889046 0.0006782372 0.059456985 0.023786115 -0.046125654 0.037877053 0.030395877 0.073195666
0.032003038 -0.042236418 0.012317913 -0.08420447 -0.07258604 0.059048727 0.013504978 -0.07436718
0.055509973 0.02519531 -0.044570867 -0.060941853 0.038832232 0.070515715 -0.10288508 0.046069454
-0.08457885 0.12107926 0.10610821 -0.07597108 0.06986171 0.04444485 -0.1399114 0.10697924
-0.020466253 0.06437017 -0.021975385 -0.051665153 0.07408366 -0.047785904 -0.1390001 -0.123126075
-0.059657022 -0.04021813 -0.020584978 -0.057465248 0.0474861 -0.00875046 0.07552643 -0.0038398223
0.061750732 0.012725431 -0.012597768 0.2295532 -0.07849237 -0.015844272 0.006838059 -0.071824685
-0.12461192 0.10086189 -0.03669412 0.057688806 -0.035869062 0.0031686844 -0.097073525 -0.042251647
-0.0031789623 0.1466173 0.06361983 0.19892038 0.09501534 -0.10872608 0.07236953 -0.19135833
-0.1490753 0.05271001 0.10261912 -0.019879889 0.19747336 0.16415866 -0.04540617 -0.09176145
0.11979527 0.15960084 -0.06825757 -0.11146838 -0.20267674 0.13239035 0.012728203 0.18265684
0.19107549 -0.113417536 -0.2670698 0.0914691 -0.13243419 0.23806351 -0.06789597 -0.04598384
0.19330394 -0.052352715 -0.10889407 -0.084021546 -0.11878542 -0.015906 -0.028779317 -0.10294366
-0.0710309 0.05163294 0.13776046 -0.121077135 0.24916498 -0.10376636 0.050339647 0.09588021
-0.19641055 -0.09785375 0.14193697 -0.14217362 -0.30053705 0.17627472 -0.14234576 -0.07921733
-0.0071340417 0.013702208 0.1329051 0.14757267 -0.0054533132 -0.14153875 -0.1276621 -0.06476385
-0.09600624 0.13264382 -0.070945986 0.026419254 0.14681073 8.3634804e-05 -0.116865255 0.15126364
-0.05954955 -0.05747165 -0.06774617 0.09096034 -0.049783513 -0.15165652 0.21498483 0.108367585
0.19302137 -0.11608429 -0.027565194 -0.12515628 0.005382211 0.121052116 0.21676165 -0.0692472
0.11847469 -0.15872814 0.1600719 -0.011467002 -0.062377416 0.010090148 0.08691568 0.18815967
0.05337502 0.09485915 0.13071899 0.11692963 0.06741854 -0.002203593 -0.11921862 0.045122553
-0.2416417 0.057240117 -0.010878311 -0.17346473 0.15347585 0.052688126 -0.094064824 0.107599914
0.20285991 -0.029432992 0.105152644 0.054950956 -0.048774768 -0.0095461 -0.10119772 -0.13489535
0.10747722 -0.019415028 0.121048875 -0.034136124 0.06711527 -0.042925913 0.0677313 -0.0733703
-0.052127905 0.10412326 0.047704227 -0.11646697 0.047132365 0.039916098 -0.040654767 -0.08075111
0.09982935 0.07674505 -0.034200512 -0.06868349 -0.17497648 -0.016059937 0.0105529465 -0.06074645
0.051263046 0.01430714 -0.09230113 0.039055955 -0.061171886 0.031054424 -0.026939267 -0.08741581
-0.0051321303 0.10089159 0.015726155 -0.10148116 -0.008866789 0.04470249 -0.0064287605 0.068738826
0.033920966 -0.078096636 0.020910516 0.0019075634 0.0607835 0.15247019 -0.0716975 0.24691147
-0.042254765 0.07593306 0.025831828 -0.060965136 -0.11425426 0.0054600597 -0.07140698 0.02268311
0.0004599544 -0.036643095 -0.0047412612 -0.084272206 0.010151407 -0.0019483513 0.05035763 0.00981162
0.018270116 0.017506335 -0.056208495 -0.11957197 -0.06887975 0.0011312615 0.0692816 0.025165422
00000000: fd21 8f3d bacb 313a 2b89 733d 19db c23c
00000010: 41ee 3cbd f824 1b3d c600 f93c 9ce7 953d
00000020: 9e15 033d 1800 2dbd 12d1 493c 6573 acbd
00000030: fda7 94bd 14dd 713d fc43 5d3c d24d 98bd
00000040: 6d5e 633d 6566 ce3c f18f 36bd 2a9e 79bd
00000050: 8c0e 1f3d 8b6a 903d 6ab5 d2bd 53b3 3c3d
00000060: ad37 adbd 67f8 f73d 434f d93d ba96 9bbd
00000070: a813 8f3d ce0b 363d ef44 0fbe ef17 db3d
00000080: d8a8 a7bc 82d4 833d b905 b4bc d79e 53bd
00000090: 2db9 973d 27bb 43bd 0b56 0ebe 8629 fcbd
000000a0: ec5a 74bd c4bb 24bd d4a1 a8bc ae60 6bbd
000000b0: c980 423d 175e 0fbc 9aad 9a3d 87a5 7bbb
000000c0: 56ee 7c3d 537e 503c de66 4ebc fe0f 6b3e
000000d0: 9cc0 a0bd d9cb 81bc cc11 e03b d218 93bd
000000e0: 8934 ffbd ae90 ce3d 934c 16bd 194b 6c3d
000000f0: 70eb 12bd b4a9 4f3b 7cce c6bd 1010 2dbd
00000100: 2356 50bb d822 163e 1d4b 823d c9b1 4b3e
00000110: 6797 c23d c7ab debd 7a36 943d 70f3 43be
00000120: 32a7 18be 74e6 573d f929 d23d 26db a2bc
00000130: 7536 4a3e 3519 283e d2fb 39bd 6ded bbbd
00000140: 3957 f53d 676e 233e a0ca 8bbd 8949 e4bd
00000150: 7e8a 4fbe 5691 073e f489 503c 650a 3b3e
00000160: 4ba9 433e 7447 e8bd 5fbd 88be 2754 bb3d
00000170: d49c 07be ecc6 733e 0b0d 8bbd 8d59 3cbd
00000180: 78f1 453e cd6f 56bd db03 dfbd 7d13 acbd
00000190: c545 f3bd 4d4d 82bc 9ac2 ebbc 20d4 d2bd
000001a0: a678 91bd 107d 533d 1411 0d3e 4af7 f7bd
000001b0: 1b25 7f3e 7583 d4bd f230 4e3d d85c c43d
000001c0: d91f 49be 8c67 c8bd ed57 113e f695 11be
000001d0: fedf 99be 5c81 343e 16c3 11be b23c a2bd
000001e0: aec4 e9bb 3a7f 603c 4618 083e 4a1d 173e
000001f0: b5b1 b2bb 89ef 10be dbb9 02be e9a2 84bd
00000200: eb9e c4bd c8d3 073e 214c 91bd 316d d83c
00000210: 8d55 163e 1865 af38 0d57 efbd dbe4 1a3e
00000220: 3bea 73bd 6567 6bbd 81be 8abd 6a49 ba3d
00000230: cce9 4bbd d94b 1bbe fc24 5c3e d3ef dd3d
00000240: 65a7 453e 9abd edbd 67d0 e1bc f828 00be
00000250: 425d b03b 2cea f73d c4f6 5d3e 7ad1 8dbd
00000260: dca2 f23d a189 22be e3e9 233e 18e0 3bbc
00000270: 767f 7fbd 2651 253c d900 b23d eeac 403e
00000280: c49f 5a3d 8445 c23d 33db 053e cd78 ef3d
00000290: bb12 8a3d 286a 10bb e428 f4bd 6dd2 383d
000002a0: ec70 77be 9d74 6a3d f13a 32bc bda0 31be
000002b0: c628 1d3e 81cf 573d 0fa5 c0bd 585d dc3d
000002c0: 82ba 4f3e 751d f1bc 455a d73d 4114 613d
000002d0: 0dc8 47bd 3f67 1cbc c040 cfbd 0222 0abe
000002e0: 041d dc3d 440c 9fbc 79e8 f73d 52d2 0bbd
000002f0: bb73 893d 15d3 2fbd b5b6 8a3d 2b43 96bd
00000300: 1284 55bd 933e d53d 8265 433d 3c86 eebd
00000310: de0d 413d 107f 233d 9d85 26bd d760 a5bd
00000320: 5573 cc3d 822c 9d3d d615 0cbd eea9 8cbd
00000330: 092d 33be 2190 83bc 44e6 2c3c 45d1 78bd
00000340: 33f9 513d 7f68 6a3c 6008 bdbd 23f9 1f3d
00000350: 5f8f 7abd d965 fe3c bdaf dcbc 0f07 b3bd
00000360: 6e2b a8bb 40a0 ce3d 23d4 803c 5bd5 cfbd
00000370: 0246 11bc f519 373d 5aa8 d2bb f1c6 8c3d
00000380: b6f0 0a3d 21f1 9fbd 884c ab3c 3507 fa3a
00000390: 1ff8 783d 2521 1c3e 24d6 92bd 5cd6 7c3e
000003a0: 5513 2dbd cb82 9b3d 459d d33c 94b6 79bd
000003b0: 23fe e9bd 4dea b23b d33d 92bd eed1 b93c
000003c0: 0926 f139 1217 16bd 955c 9bbb e896 acbd
000003d0: 1652 263c d25f ffba cd43 4e3d ebc0 203c
000003e0: 36ab 953c 7269 8f3c e13a 66bd 26e2 f4bd
000003f0: d410 8dbd d646 943a 83e3 8d3d b727 ce3c
