Riproduzione/lstm_large_batch_1_QUAD.tflite (tflite, 694000 bytes, 53 tensors)

sequential_2/dense_6/BiasAdd/ReadVariableOp f4 [64]
00000000: 55cd 9c3d 2336 45be 88ff d03d feb3 e73d
00000010: eb7c dc3d 1d58 923e 3e40 293e 415f 813e
00000020: db45 a83d 6ca6 8b3c 88b3 593e 2db1 d23d
00000030: 625d 833e 6bae ee3d 5c8d d23d a574 d43d
00000040: 2c83 d63d a013 803e fa3d 263e 257f 97bd
00000050: 8972 f73d a0b5 ce3d 5858 983e e8eb bcbd
00000060: ed52 1dbc 52f2 523e 79db 283d 6673 b23c
00000070: a892 1e3e 0b9c c33d cad5 183e 7e0b eb3d
00000080: f68e ca3d d746 f33d f6d3 d63d 39ab 64bd
00000090: 414c 523e a123 b43d 4a88 26be 5776 97bd
000000a0: 77ba c23d 1363 d13d bb03 1c3e e9d2 bd3d
000000b0: 24f7 503c 633f a33d 1267 ca3d 5088 373e
000000c0: 1285 bd3d bc81 ab3d c59a 373e 2237 c43d
000000d0: 58a7 843e 65ef 803e 6b65 be3d 43b2 e53d
000000e0: 330e 693e ba21 90bd 9bc7 d43d d968 403e
000000f0: 2c38 f63d 140c 183e 8fae dc3d 4ced b03d
0.076563515 -0.19258933 0.10204989 0.11313628 0.10766014 0.2858285 0.16528413 0.25267985
0.08216449 0.01704713 0.21259892 0.102877 0.25657183 0.11654361 0.102808684 0.10373811
0.10474238 0.25014973 0.1623458 -0.07397298 0.12082393 0.10093236 0.297549 -0.09224683
-0.009602291 0.2060025 0.04122493 0.021783542 0.15485632 0.09551247 0.14925304 0.11476801
0.09890549 0.11878746 0.10489647 -0.055827353 0.20536901 0.08795858 -0.16262928 -0.073956184
0.095082216 0.10223975 0.15235798 0.092687435 0.012754235 0.079710744 0.0988294 0.17923093
0.09253897 0.08374354 0.17930134 0.09580828 0.25908923 0.25182644 0.09296688 0.11215641
0.22759323 -0.07037683 0.10389634 0.18789996 0.12022433 0.14848357 0.10775482 0.08639011

sequential_2/dense_7/BiasAdd/ReadVariableOp f4 [32]
00000000: d96b bebd e340 843e 5924 853e c090 c93d
00000010: 371c 833e 9dd4 843e 9d74 bb3e 18d9 693e
00000020: 798b 933c 7cd7 cd3d 32dd 93bd 633f f13d
00000030: 8511 8abd 5717 78bd e1d6 803d 91e5 7abd
00000040: 7fc0 82bd 5533 9fbd 37bc 78bd 542a d6bd
00000050: cc44 9dbd 63fb 3f3e 9039 823e c7a1 fb3d
00000060: 1be6 823e 5332 503e e536 6c3e b114 3a3e
00000070: 60de ef3d edf2 7dbd 82ba a4bd 7916 f1bd
-0.09297914 0.25830755 0.26004294 0.09842062 0.25607464 0.2594346 0.36612406 0.22836721
0.018010842 0.10050866 -0.07219924 0.11779668 -0.06741623 -0.060569134 0.06290985 -0.061254088
-0.06384372 -0.07773463 -0.06072637 -0.10457292 -0.076791376 0.1874824 0.25434542 0.12286716
0.25566182 0.20331697 0.23067816 0.18171956 0.117123365 -0.06199925 -0.08043386 -0.117718644

arith.constant f4 [128, 128]
00000000: f5e2 fcbd 4479 a0bd 182d 90be be11 c0bd
00000010: 7947 e3bd 5c42 ac3d 5039 133e df85 e93c
00000020: 206e 24be 8034 e03c ba52 753c 3ec2 18be
00000030: 99b7 c4bd 184c 063e 2209 63be 8275 bbbd
00000040: 8419 423e 9a39 4fbe cd7c eabd 852b 3e3e
00000050: ba8e e6bd 93fb 493d a079 d2bd fe6f dfbd
00000060: d6e6 20bb 0273 cf3d 0116 373d 3d17 0abe
00000070: 54a6 85bd 5138 41bd e6a4 313e 30bd 103a
00000080: 61e0 463e 3df7 2abe 9d08 74bd 0d07 0b3e
00000090: a403 a2bd b40e 5dbd e789 363e 844d 363d
000000a0: 6162 a1bd aea5 233d 54c9 53be fc1f 0d3d
000000b0: ef5b 9c3d 3fbe 28bd 5bd0 bcbd 9e80 43bd
000000c0: e686 9ebd 95e9 b83d 10d0 b5bd b2b5 8fbd
000000d0: 06d4 183d 6498 ecbd f696 ae3d 6733 25be
000000e0: 441c 0fbe c8d7 9bbd c49b a4bd 3b19 fd3d
000000f0: e098 8dbe 0f50 883e e089 69be d2d8 5a3e
00000100: ad9d d1bd ca1e 163e 8129 82be 4e1d fbbd
00000110: 1c32 ebbd 29a0 8ebc 45d2 18be f7ee 573e
00000120: 96bf 14be 9356 1fbd 9e8e 123e 1a28 25be
00000130: cfcd 9c3e 72e5 06be a09b dc3d a99c 553e
00000140: 3d01 57be c682 f23d 2f2f 04bd 3728 6b3c
00000150: 8b04 52be 4329 b1bd 76fa 483d b897 73be
00000160: 8ff1 24be afad bc3d b861 ae3d ee23 3ebe
00000170: 84cb e3bd 0b83 9dbd fb87 eb3d 8c24 a3bd
00000180: 62f9 4a3e 02cb 8bbd 4bac 94bd 0c0e a5bd
00000190: 663a 2b3e f1dd 313e 5346 b83d 76ca 81be
000001a0: 24a0 3dbe bf79 f73d 691a e53d 09f4 eebd
000001b0: 705f 173e 927a f43c 4f91 ecbd 24c5 96bd
000001c0: c7c7 183e c900 773e 3e68 203e 4f90 f33d
000001d0: f7ec 02be 92d3 6ebd ded7 ddbd 4ae6 fa3d
000001e0: f2f2 a9bb b3ec 11be dc8e 80be dc48 febd
000001f0: 6841 a03d 6cb5 37be a3fe 17be 349f 2fbd
00000200: 0af3 4fbc 7836 253d c582 8ebe 6625 b83d
00000210: f32f cebc 1c31 ed3d 06f8 f1bb 8ff4 d2bd
00000220: 94be c8bb 3df9 853e 8ad5 753d 74e9 80bc
00000230: ada9 b6be c886 8f3d a356 e3bd eff3 fdbd
00000240: f224 533d fad0 fa3d 663f 133d d139 153d
00000250: 0f6e fbbd 78c4 803d e43d 6dbd 967f 28be
00000260: 15e5 673c bf0d 243d a32c 48bd 72db 59bc
00000270: 69bf 113c 0401 92bd 71dd 0ebd 9b0c a13d
00000280: bf68 133d 6350 b7bd f35a 023c a98e e93d
00000290: 7eb2 55bd 6de5 a4bd a076 073e 94c1 1d3c
000002a0: 3dd1 55be 95ed a33d bc7e 96be b649 833d
000002b0: d15f e33d a285 d9bd e680 f2bd 44ca bebc
000002c0: e983 1cbd 09e5 d83d 1cc4 07bd 15ea 2dba
000002d0: 2f08 cb3d 0f59 6bbd 7c5d 2e3d c449 8abd
000002e0: 09a9 31be 3d48 083c 5132 4f3e 7c83 26bc
000002f0: 58ed 67be 1c98 8b3e 2b73 acbd 1c1d 463e
00000300: 30f6 a43d 76db 073e 685b 86be 8adf 1abd
00000310: d61e 33be 99a1 cd3d 78d5 06be 6eb8 153d
00000320: f7a6 edbd 4a3b 45be 3082 853c eb97 55be
00000330: 8367 5f3e 64b3 00be f68e 193d 6e9b 233c
00000340: cd01 57be af0c 4e3d 3155 0cbd 71bd 2bbe
00000350: 7c9b 81bd 055f 57be 3522 d5bd 8fac 3dbc
00000360: a368 00bd 44d5 46bd e10b 323e 9982 973b
00000370: 8439 9ebc b51e 3abd fac4 283d 2cd3 7dbd
00000380: 03ee d33d 1869 e7bc d88e bebb dd8a 65be
00000390: 4964 0abd e02c ad3d 800a 8fbc dc19 2c3c
000003a0: c404 81be 7ca5 abbb e33f 79bd b459 87be
000003b0: db28 ef3c b938 85bc 693d c9bd 00fb 693d
000003c0: a876 01bc 234b 403e 3646 1d3e 8910 3bbc
000003d0: f0fd 11be ad83 8d3d db58 53bd 6b92 a93d
000003e0: c7cc 8a3c af94 cbbc ae0a 89be c12f 37be
000003f0: 816c 853d cd4f e1bd 039e 23be 80eb 27bd
-0.12347976 -0.078356296 -0.28159404 -0.09378384 -0.11097617 0.084110945 0.14377332 0.028506218
-0.16057634 0.027368784 0.014973337 -0.14917848 -0.09605331 0.13114965 -0.22171453 -0.09153272
0.18955046 -0.20236817 -0.11449585 0.18571289 -0.11257692 0.049312185 -0.102771044 -0.10910033
-0.0024551651 0.10129358 0.04469872 -0.13485427 -0.06525865 -0.047172848 0.1734806 0.0005521355
0.19421531 -0.16695876 -0.059578527 0.13576908 -0.07910851 -0.0539691 0.17826043 0.04450752
-0.078800924 0.039952926 -0.2068227 0.03445433 0.076347224 -0.041197058 -0.09219428 -0.04773008
-0.077405736 0.09028927 -0.088775754 -0.070170775 0.037311576 -0.11552504 0.08524887 -0.1613289
-0.13975626 -0.076095164 -0.080375224 0.12358328 -0.27655697 0.2662358 -0.22806501 0.21371773
-0.102351524 0.14660183 -0.2542229 -0.12261449 -0.11484167 -0.017410355 -0.14923961 0.21087252
-0.14526209 -0.038900923 0.14312217 -0.16128579 0.3062577 -0.13173464 0.107718706 0.20860542
-0.20996566 0.11841349 -0.03227156 0.01435285 -0.20509546 -0.08650448 0.049066983 -0.23788345
-0.16107772 0.09212815 0.08514732 -0.18568394 -0.11122802 -0.0769101 0.115005456 -0.07965955
0.19821694 -0.0682583 -0.07259425 -0.0805932 0.16721496 0.1736982 0.08997788 -0.25349778
-0.1851812 0.12083768 0.11186678 -0.1166764 0.147825 0.029843602 -0.11551153 -0.0736182
0.14919959 0.24121393 0.15664765 0.11892759 -0.12785707 -0.058307238 -0.10832189 0.122509554
-0.005186432 -0.1425045 -0.25108993 -0.124162406 0.07824975 -0.179403 -0.1484323 -0.042876437
-0.012692222 0.04033515 -0.27834144 0.08991508 -0.025169348 0.115816325 -0.007384303 -0.10300552
-0.0061262343 0.26166716 0.0600181 -0.01573632 -0.35676327 0.07008129 -0.11100509 -0.12400042
0.051548906 0.1224689 0.035949133 0.03643209 -0.122768514 0.062874734 -0.05792035 -0.1645492
0.0141537385 0.04005217 -0.048870694 -0.013296949 0.008895733 -0.071291 -0.03487915 0.078637324
0.035988566 -0.089508794 0.007956254 0.114041634 -0.052172177 -0.08051572 0.13228846 0.009628672
-0.208806 0.080042996 -0.29393566 0.064105436 0.1110226 -0.106211916 -0.11840992 -0.023289807
-0.038211737 0.1059056 -0.03314601 -0.0006634307 0.0991367 -0.05745798 0.042569622 -0.06752351
-0.17349638 0.008318004 0.20234038 -0.010163184 -0.22649133 0.27264488 -0.08420404 0.19347042
0.08054769 0.13267311 -0.26241612 -0.03781084 -0.17492232 0.10040588 -0.1316737 0.03655284
-0.11604112 -0.19260898 0.01629743 -0.20858733 0.2181683 -0.12568432 0.037489854 0.009985788
-0.2099678 0.050305065 -0.034260932 -0.16771485 -0.063284844 -0.21032341 -0.10406915 -0.011576786
-0.03134979 -0.04854323 0.17387344 0.0046237228 -0.019314535 -0.04543944 0.041203476 -0.061968967
0.103481315 -0.028248355 -0.005815368 -0.22416253 -0.033787046 0.08455825 -0.017461061 0.010504212
-0.25198948 -0.005238233 -0.060851943 -0.26435626 0.029194286 -0.016262399 -0.09826166 0.057124138
-0.007901825 0.18778662 0.15358815 -0.0114175165 -0.14257026 0.06909881 -0.05159841 0.0827988
0.016943349 -0.024851171 -0.2676596 -0.1788931 0.06514836 -0.11001549 -0.15978245 -0.040996075

arith.constant1 f4 [128, 128]
00000000: 347f 1cbe 122d a6bc fc2f 67be b73c 943b
00000010: 0fe2 9cbd 0c0e 493e d1e2 cf3c 11ca dbbc
00000020: 034a 81be 8af2 053e 1b3e 27bc 9656 13be
00000030: 12c7 e73b 26ea 323e 45bf 17be 39d0 e2bd
00000040: 2610 1e3e 3966 34be 9166 28be 0c2f 0d3e
00000050: 7c94 edba fd14 463e d11c 07be 5278 8a3b
00000060: 3ffa 063e 4c36 9f3c 246b cc3d 7dc1 1cbe
00000070: 2fe8 9fbd 4851 e0bd 6525 c6bb 81b2 8cbd
00000080: 6496 1f3e 601b 18bd ea40 9bbd 4805 ee3d
00000090: 602b 78ba 1e3b 063c e3c5 a43d 9cdd 443c
000000a0: ac6a ddbd 0849 473e b9a9 2fbe 00bb a23d
000000b0: 4c51 c83d 1f54 50bd 8833 13be 273c 9cbc
000000c0: b471 b4bd 6127 a63d c316 fdbd 67d7 353d
000000d0: fe0f 86bc c969 33be 7960 203e fd6c 70be
000000e0: aa9c 4ebe 9002 bbbd 5497 2fbc 0b53 8d3d
000000f0: 3c18 9dbd bb97 3d3e b6ce c0bd d261 113e
00000100: 2653 cebd 9f9e e53b 581f 80bd 73e9 c7bd
00000110: f028 aebd f48a 843a 3304 2cbe 9a1e 543e
00000120: 9463 ccbd eb68 dcbc c279 3b3d d550 4fbe
00000130: 33c2 173e ffe3 14be 3b4f 433e 12c9 333e
00000140: 3263 a7bd ff91 e73d 3ade b9bd e36d 6abd
00000150: 7937 f0bd bc7a 4cbe 59ec e3bc 4e5c febd
00000160: a278 bcbd 30ab 433c f1af 203e dcf6 2abe
00000170: 913d 85bd 451e 21be b2a4 083e 59ed e7bd
00000180: 2149 b43d eff5 56bd 0964 17bd 0651 d1bc
00000190: 2304 f13d 82fd 363e 5894 323e 78eb 72bd
000001a0: 50ca 5bbe aa62 573e aa51 3a3e 2fb8 06be
000001b0: c27e 9e3b d234 e53b f98b 4abe d5b5 56bd
000001c0: 706f d43d 101d 003e 95f0 123e 9320 863d
000001d0: c55a 0dbd 1ad2 35bd be61 c5bd 4e62 323e
000001e0: 618b 9d3d 3f59 21be 79a0 43bd aa24 bebd
000001f0: 071c 103e 168a 1bbe c3a4 08be be10 80bd
00000200: 7136 be3c 1b42 863d cac5 d2bd 3772 c6bc
00000210: 6d46 ca3c ff14 003e 78fe 27bd 15fa 013b
00000220: 3db9 0cbd 801a 8ebb 194d 503d df84 a5bc
00000230: fc49 87be 14cf 4a3d 2eb2 cbbd df3b 3fbd
00000240: 41b7 043e c692 4a3c 6df0 8c3d c547 df3a
00000250: 7f41 c5bd 10b7 5f3c d27e 58ba c716 51be
00000260: 98a7 2f3d 08cc 9b3d 1f3d 563d a929 f0bd
00000270: 2b84 1bbd 7443 e1bc 4523 933b d580 003d
00000280: 54a4 e73c 8229 89bd a038 04be 6ffd 9c3d
00000290: 26b9 f1bd d5ad 3cbe b48f b43d 8d23 8abd
000002a0: 7920 9cbc 8b2b f53c 903f 18be e68f 173e
000002b0: 532d 563e 57a9 c7bc 230f 90bd 57cd d0bd
000002c0: 00f0 72bd f3c5 093d 3452 c9bd 4cd3 bc3d
000002d0: 5e36 d53d 9c27 1dbd 7212 c5ba 898c aabd
000002e0: 0f65 b9bd ae15 bfbc 08fa c73d bb18 523c
000002f0: 2340 e6bd 16a0 c53d 8a1b 31bb 296f fd3d
00000300: 28b6 8d3d 2103 613d 5d98 12be 19e8 66bd
00000310: 8534 8dbd 0b46 ee3d 8398 953c f9c7 3f3d
00000320: 38c0 04be 5408 43be fafe 973d d8b4 fbbd
00000330: 365d 2d3e eb35 1dbc 2187 a63c 2b2b 833d
00000340: de90 cebd 2f74 ffbc d5b3 62bd a29b ffbd
00000350: b891 8c3d c4e9 63bd 4439 01bd 6c45 b8bb
00000360: 495d fa3b ea96 d73b 98cc d43d a008 c7bd
00000370: b062 89bd c43d a9bb 9a58 113e 97d7 943d
00000380: faae 68bc 2ea3 7bbd 17ae 6fbd e1e4 6ebd
00000390: b13a 0cbd 94fd d73d 92e0 633d 6748 d9bd
000003a0: 9e5a abbd 9f6a 38bd 0203 02bc 7ca3 5dbe
000003b0: eae0 ba3b c500 d83d 9ba7 f8bd d7e5 db3d
000003c0: c53c bcbd 0f2b 433d 126a 883d 7a1a fdbb
000003d0: c7a9 2abd 44e0 353c 88ae 8bbd 6efc 893c
000003e0: 0194 033e ac58 4abd 5ac1 18be 9710 e2bd
000003f0: 7e95 d23d 57c4 05bc efe3 c6bd d72f f83d
-0.15282899 -0.020285163 -0.22576898 0.0045238393 -0.07660305 0.19634265 0.02537671 -0.026829751
-0.2525178 0.13080803 -0.010207678 -0.14388499 0.0070732916 0.17472133 -0.14819057 -0.110748716
0.15435848 -0.1761712 -0.16445376 0.13787478 -0.0018125917 0.19343944 -0.13194586 0.004225769
0.13181399 0.01943507 0.09981373 -0.15308185 -0.078079574 -0.10953003 -0.0060469382 -0.068699844
0.15584713 -0.03713548 -0.07580741 0.11622101 -0.00094669126 0.008192806 0.080455564 0.012015726
-0.10811362 0.19461453 -0.17154588 0.07945824 0.09781131 -0.050861474 -0.14375126 -0.019071652
-0.0881075 0.0811298 -0.12357857 0.044394877 -0.016365048 -0.17520823 0.15661801 -0.23479076
-0.2017695 -0.09131348 -0.010717232 0.06900605 -0.07670638 0.18514912 -0.09414427 0.14197472
-0.10074453 0.0070074345 -0.06255978 -0.09761324 -0.08503902 0.0010112212 -0.16798477 0.20714799
-0.099799305 -0.026905498 0.045770414 -0.20245679 0.14820175 -0.14540099 0.19073193 0.17557171
-0.08173217 0.113071434 -0.090755895 -0.057233702 -0.117293306 -0.19968694 -0.02782266 -0.124199495
-0.092026964 0.01194267 0.15692116 -0.16695732 -0.065058835 -0.15734203 0.13344076 -0.11324567
0.08803011 -0.052480634 -0.036960635 -0.02555133 0.11768367 0.17870143 0.17439401 -0.05930659
-0.21463895 0.21033731 0.18195215 -0.13156198 0.004836888 0.006994822 -0.19779958 -0.052419502
0.103728175 0.12511086 0.14349587 0.06549182 -0.034510393 -0.04438982 -0.096377835 0.17420313
0.076926 -0.15756701 -0.04776046 -0.09284337 0.14073192 -0.15189394 -0.13344102 -0.06253193
0.023219319 0.06555577 -0.102916315 -0.024224384 0.024691785 0.1250801 -0.041014165 0.0019832898
-0.034356344 -0.004336655 0.050854776 -0.02020496 -0.26423633 0.04951389 -0.099460945 -0.046687957
0.12960531 0.012364095 0.06881795 0.0017034939 -0.09631633 0.013654485 -0.0008258644 -0.20418845
0.04288444 0.07607275 0.052304383 -0.11726696 -0.037967842 -0.027497984 0.0044902884 0.031372864
0.0282766 -0.0669737 -0.12912226 0.07665526 -0.118028924 -0.18425687 0.08816472 -0.06745062
-0.019058453 0.02992799 -0.14867997 0.14800987 0.20915727 -0.02437274 -0.07034137 -0.101954155
-0.059310913 0.033636045 -0.09830132 0.09219989 0.1041076 -0.038367853 -0.0015035404 -0.08327586
-0.090524785 -0.023325767 0.097644866 0.012823279 -0.11242702 0.096496746 -0.0027024471 0.12374718
0.06919509 0.054934625 -0.14315934 -0.05637369 -0.06894783 0.116344534 0.0182612 0.04682157
-0.1296395 -0.19046146 0.0742168 -0.122903526 0.16930088 -0.009595375 0.020328106 0.06404718
-0.10086225 -0.03118333 -0.055347282 -0.124808565 0.06863731 -0.05564286 -0.031548753 -0.00562351
0.007640515 0.0065792697 0.10390586 -0.09718442 -0.06708276 -0.0051648337 0.14193955 0.07267683
-0.014201874 -0.061434917 -0.058515634 -0.058323745 -0.03423566 0.10546413 0.05563409 -0.10609513
-0.08366893 -0.045023557 -0.007935287 -0.21644396 0.0057030814 0.10547022 -0.12141343 0.10737198
-0.09191278 0.047648486 0.06660856 -0.0077241035 -0.04166582 0.011100832 -0.068203986 0.016844
0.12849428 -0.04940097 -0.14917508 -0.110383205 0.102824196 -0.008164487 -0.09711444 0.121185

arith.constant2 f4 [128, 128]
00000000: c957 3a3d b873 c7bd 6339 6e3e 47a8 803d
00000010: 1fb0 b13d 1ea4 32bd 743a 803c 9c48 233d
00000020: 6961 103e ea96 eabd 7722 6f3d 09d4 10bd
00000030: 6451 81bc f991 59bd eb2f 163c 28a3 f33d
00000040: 1d38 9abd 66e0 cc3c 550d 5bbc d822 0c3b
00000050: ce1b c6bd d383 cfbb 2954 ec3d 1ab5 023e
00000060: fa03 cd3d d36f 403d 6031 febc e684 12bc
00000070: 1d54 0abe e5d0 1e3e fdc0 933e 085b 9e3e
00000080: 75bd 09be 7223 63bd 05ae 4dbe 7b5a e3bd
00000090: 9190 eabd eb20 9abe 1576 d13c 35f1 07be
000000a0: 5be1 373d ed01 cdbb 7e6e 2e3e b284 e83d
000000b0: 2f04 06be 0a80 ab3c 5bda e43d f3a7 813c
000000c0: 7d63 de3b fee3 25bd 3403 bcbc 8aab 1f3e
000000d0: ee1f 993d 15ae a03d 5734 19bd 7787 323d
000000e0: c382 193e ee95 9b3c 6d42 0cbe a9fd 5a3d
000000f0: 4219 783d 6d22 8f3d 82b8 603d 9f24 57bd
00000100: 2682 a93d d61b 3dbe e8c0 153d 6057 ee3a
00000110: 17c6 b43c e8f6 703d a9b1 963d 2796 07be
00000120: 74fb 833c f307 3fbd 6dd4 283d 0c3e 283e
00000130: 7e67 27be 1ba8 3a3e 5812 c1bd f579 0bbe
00000140: 17cc afbd 2396 d8bd 94e7 ef3d 1ab3 cdbc
00000150: 4efe 9138 ad33 153e a05d a3bc b908 363d
00000160: 5bdf 043e e0c8 c8bd ed4a 87be 1314 8c3d
00000170: c5a6 913c 4451 e3bd 8071 e33a d1eb 903d
00000180: 2f60 f5bd c64e e83d ed73 17be 6c5b b83d
00000190: 18f4 ac3a c833 d3bd 2164 4e3d 30f7 f6bc
000001a0: d7c9 aa3d b7f8 24bd 42d3 74bd ddd4 bb3c
000001b0: c00b ec3d 7252 f13d 3615 b93d 85f6 0a3e
000001c0: a2ba df3d c13f 253c 7c6c dcbc e6a7 a5bd
000001d0: 5b1e ba3d b42c de3d 5d46 9fbd 0baa 76bd
000001e0: 06e1 9f3d f6db 7abc 3368 413e b5cf 05be
000001f0: 761c ddbd 6118 d53d b05c 253e ca40 4cbe
00000200: 33b7 23be d684 b0bd 2ff4 0c3e e7d9 27bd
00000210: 7b1a 0fbe e1ec f1bc 190f 453e 2415 5b3d
00000220: 64c4 5d3d 1549 69be 61c5 ef3d 7a0e 21be
00000230: e642 1b3e 45cf ad3d 5399 5cbd b11a b8bd
00000240: d395 e0bb 6c69 bbbd ea24 fdbd 7f3c d43d
00000250: 1959 8abd b255 fd3c 64e9 82bb 42ff 853d
00000260: bee4 223e c7e6 84bd b1f9 933d 9043 a3bc
00000270: b4bd 2bbe c8e7 04bd ced5 ff3d e71e ac3d
00000280: 9afd d93d 59ae aa3d b613 543c 90fc c4bd
00000290: 73e1 5abd 47fc c1bd d77e a93d a955 b7bd
000002a0: dd67 f7bc 141b 3c3d a7af dd3d 3426 243d
000002b0: 96d8 453d 11e8 6cbd b918 983d 6e12 52bd
000002c0: 2447 daba 419f 603d 511f 1ebe 6023 103e
000002d0: 9e20 633d 3297 223d 9fe7 d53c f6cd ebbc
000002e0: f362 2ebc 2087 d43d 5445 70be 0ccc 3f3e
000002f0: 2749 8c3c a0ac b2bb f6ce 9ebd 1fc6 24bd
00000300: d352 8e3c 99b6 f63a bd49 f33c b956 e1bc
00000310: 6a82 d1bb 0da7 473c 4cbe 25bd 7cd6 abbd
00000320: 3522 90bd a182 bfbc c7d5 2f3e 8dc5 99bc
00000330: 52a4 e03c 9e35 4d3d 36e6 323e 0481 b4bc
00000340: 933a 303c 9c43 a3ba 65b1 253d 339a c53d
00000350: bf51 cfbd 22a1 c13d da82 583d 72a4 3e3d
00000360: 60d8 593b 854d febd 8e53 18be 9d77 91bd
00000370: 22ee 29bd 11c1 7ebe 61ea 903d 3540 8d3c
00000380: 8e9a f1bd 53c2 46bd 9816 96bd 0b00 c13c
00000390: cd14 2c3d f992 f03d 54b8 e63c dc6b 59be
000003a0: a78e 86bc adf2 6cbb 5ab4 143d 3116 743d
000003b0: 7981 813e a2c3 f13d 9f26 c3bd f979 ae3d
000003c0: da73 1b3e 618d eabd b946 1abd 6200 453d
000003d0: 15a4 2abd 910d 2dbd fc60 34be e8a1 ce3b
000003e0: 0c4b c43d 9b57 19be 1409 993d aa98 773c
000003f0: 1e0e 623c 61fd 13bd 5856 413d 1d22 c8bd
0.045493875 -0.097388685 0.23264079 0.06282096 0.086761706 -0.043613546 0.015652873 0.039864168
0.14099659 -0.11454566 0.058382478 -0.035358462 -0.01578588 -0.053117726 0.009166698 0.11896354
-0.07530234 0.025009345 -0.013369878 0.0021383073 -0.09673272 -0.0063328533 0.1153949 0.12764397
0.10010524 0.046981644 -0.031029403 -0.008942818 -0.13508649 0.15509374 0.28858176 0.30928826
-0.13451178 -0.055453725 -0.20085914 -0.11101242 -0.11453355 -0.3010324 0.025569001 -0.13275607
0.04489265 -0.006256333 0.17034337 0.113534346 -0.13087533 0.020935077 0.111744605 0.015827155
0.0067867623 -0.040500633 -0.022950746 0.1559278 0.07476793 0.078457035 -0.03740343 0.04358622
0.14991288 0.01899239 -0.13697214 0.053464565 0.060570963 0.06988988 0.05486346 -0.05252516
0.08276777 -0.1846765 0.036560923 0.0018183999 0.022067113 0.05882922 0.07358105 -0.13240872
0.016111113 -0.04663844 0.04121821 0.16429919 -0.16348073 0.1822819 -0.09427327 -0.13620742
-0.08583849 -0.10575511 0.11714092 -0.025109816 6.961507e-05 0.14570494 -0.019942105 0.044441912
0.12975828 -0.09803939 -0.2642435 0.06839766 0.017779717 -0.110994846 0.0017352551 0.070762284
-0.11981236 0.1134315 -0.14790316 0.09001812 0.0013195304 -0.10312611 0.05038846 -0.030147165
0.08339279 -0.040276255 -0.059771784 0.02292865 0.11525679 0.11783303 0.09037249 0.13570602
0.10924269 0.010086001 -0.026907198 -0.08088665 0.09087821 0.1084837 -0.077770926 -0.06022076
0.07806592 -0.015311232 0.18887405 -0.13067515 -0.10796444 0.104050405 0.16148639 -0.1994659
-0.15987854 -0.086190864 0.13765024 -0.040979292 -0.13974945 -0.029531898 0.1924404 0.05348696
0.05414237 -0.22781785 0.11707569 -0.15728179 0.15162238 0.08486799 -0.05385716 -0.08989466
-0.006853798 -0.09150967 -0.123605564 0.10363101 -0.06755275 0.030924652 -0.0039951075 0.06542827
0.1590757 -0.0648933 0.07225359 -0.019929677 -0.16771585 -0.032447606 0.12491952 0.08404332
0.10644074 0.083340354 0.012944153 -0.09618485 -0.05343766 -0.09471946 0.08276146 -0.08951885
-0.030200893 0.04592426 0.10824519 0.040075496 0.048302256 -0.057838503 0.074265905 -0.051287107
-0.0016653282 0.054839376 -0.15441634 0.14075994 0.055451028 0.039694972 0.026111422 -0.028784733
-0.0106437085 0.103773355 -0.23463947 0.18730181 0.017124726 -0.0054527074 -0.077543184 -0.040228005
0.017373478 0.0018822729 0.029698247 -0.027507173 -0.0063937204 0.012185824 -0.040464684 -0.08390519
-0.070377745 -0.023377718 0.17171393 -0.018770957 0.027422104 0.05009996 0.17470631 -0.022034176
0.010756153 -0.0012456062 0.04045238 0.09648552 -0.10123014 0.09454562 0.052859165 0.046543546
0.0033240542 -0.124171294 -0.14875624 -0.071028925 -0.041486867 -0.24878336 0.07075954 0.01724253
-0.11797057 -0.048525166 -0.07328528 0.02355959 0.042012025 0.11746783 0.028164066 -0.21232551
-0.016425444 -0.0036155388 0.03630481 0.059591476 0.25294092 0.11804892 -0.09528851 0.08519358
0.15180913 -0.11452747 -0.037665103 0.04809607 -0.041660387 -0.042249266 -0.17615122 0.006305922
0.095846266 -0.14974825 0.07472435 0.015112082 0.013797311 -0.036130313 0.047201484 -0.097721316

arith.constant3 f4 [128, 128]
00000000: 1aec f9bd ad8c 08be 3605 3abe 1028 c2bd
00000010: c857 c3bd 6016 343e d1c7 9e3d 9f14 e9bd
00000020: 2061 56be fadd 4dbb e461 84bc 18d5 86bd
00000030: 140b 9fbc c19c b33d ff93 0fbe e341 44be
00000040: c212 533b 48df 29be b6a0 b1bd d57f c43d
00000050: 9709 86bd 450b fa3d 23ff d1bd 318c 8dbd
00000060: 14af ef3d a4be 2c3b b1be d83d 15ab 6abe
00000070: b8d1 85bd f77f 02be 0bcf 233e af8b f1bd
00000080: d3f4 583d 5e34 a23d a6df 31bd 9581 a93d
00000090: 30cc 38bd a8da 82bd b24b 7bbc 8ca3 0e3d
000000a0: 0ee3 04be 7f51 563e d2e1 25be 7f4c be3c
000000b0: 00e8 b53d 4d42 de3c 8c14 01be 7544 bcbc
000000c0: 5e4d 753c 7ef6 253e fb99 d3bd 86f4 1abd
000000d0: 5964 823d 977f 07be 55d4 333e 520e 66be
000000e0: 62ef a6bd 0f1e 61bc 2146 f03c 4891 383d
000000f0: a0fe 99bd 5890 883d 8462 d43d ccfc 203e
00000100: 5632 1ebe fab8 4d3e f362 85bd 8595 d7bd
00000110: dd42 03be f824 77bd cc32 1fbe ecb8 443e
00000120: a367 07be fa3f 13be d472 a43d fe0f 0abe
00000130: 41e2 fb3d 2686 37bd 6309 c13d 82f5 6f3e
00000140: cc6c cebd ea8c d33d 2df4 e4bc f6d4 c7bc
00000150: 77d6 35be 818d 7abd 42b2 333b 270d 15bd
00000160: 8403 27be 4297 e6bc ce16 8b3d a155 32be
00000170: e46d 07be 17a1 32be 5244 0c3e 9e2a e7bd
00000180: 3161 ad3d a899 b9bd f6b1 73bd 9a69 27be
00000190: 3ca0 fe3c c95f 553e 8d63 533d f2b0 d5bd
000001a0: 1056 a4be 4d47 ab3c 557e fcbb 4fd0 f9bd
000001b0: 16ee 043e 7ddf 233d 9fb5 58be 47dc 6abd
000001c0: b1ba a43d fb3c 6c3e ba41 f13c fab0 0f3e
000001d0: 7a75 73bd 5d0f 6fbb ac7c b1bd d9dd 4b3e
000001e0: 53bf 7cbc db95 4dbd 4f8c 8abd 92d3 b0bd
000001f0: f71b 2e3e ca5a 02be ddd5 f6bd 61ec 993d
00000200: e2be cf3a f4a0 da3c ff81 683d f30d ad3d
00000210: 40a8 c33d 3616 063e 3212 893d 9f0e a5bd
00000220: dc5c 7ebd 6c44 ba3d 924f 66bb 191e b8bc
00000230: a77a 7fbc 1f56 983d 85c5 0cbe 3ec0 453c
00000240: e8cc 7c3d c311 a0bc e294 1d3b 7809 b7bd
00000250: 58ad 0dbd 2b0a 6c3d b026 c43c 8bed 0abe
00000260: c25c 1f3d d4ba b03d c7ed 94bd fe6c 143d
00000270: 75cd 7d3c 0fb5 c33d f07f 9a3c 308f 77bc
00000280: ee34 36bd aa5b 0dbb 6449 acbd 8195 193d
00000290: 47f6 1dbe dac5 f0bd 7250 1d3d 6517 51bd
000002a0: 6362 8cbc 5584 5b3a 221e eabd 5ab4 073e
000002b0: 32c5 c6bd 2ffd b1bd 932c 99bc de56 653d
000002c0: a0b6 c63c fad1 b03d dda8 9abc a4ee 133d
000002d0: 6f9e e03d 511b 163e ecb4 733d 59a9 0cbe
000002e0: 5500 f9bd 9338 cbbd 8301 7f3c be8b c63d
000002f0: afee 5abd 7ba1 073e aad6 413d 89fa bcbd
00000300: b3fa d2bc 03f1 513d 1662 e2bd b9e9 02bd
00000310: c44e 563c eeec b13d 7ecd 813d edd9 033d
00000320: 634f 03be b05f 7dbe e5fc d23d 53c5 073d
00000330: 3573 283d d6d4 bebb 3346 003d 8db0 113d
00000340: 847e 53be a851 ff3a 54b9 cbbc 8c54 16be
00000350: df03 1a3d 6bcd a8bc a300 a4bd 6a70 d93d
00000360: 2b40 03be c75b edbb 0b59 3a3e 0537 e2bd
00000370: d1ff 40bd 69c5 473d 34f0 69bd 41f4 31bd
00000380: 5cb2 7e3d 2358 9f3d fca5 cdbb 4845 56bd
00000390: f508 25be 78b3 c83d 9f71 ebbd 6832 73bd
000003a0: a845 84bd 3f5b 83bd b099 93bd d1bb 21be
000003b0: de03 103d caaa f13d 6ef6 5fbd 17dc 2d3c
000003c0: 5b32 72bd b1ac 713e cc12 b6bb ce7d 36bc
000003d0: 92b9 4f3c cd0c e83c f8e5 243d 317a 013e
000003e0: cc1f 523d eef4 ffbc c17b 58bd b519 99be
000003f0: f6aa 633d ddcd dfbd 0806 14be db84 b9bd
-0.12203236 -0.13334914 -0.1816605 -0.094802976 -0.09538227 0.1758666 0.07752956 -0.11380886
-0.20935488 -0.0031412826 -0.01615996 -0.06583613 -0.019414462 0.08770133 -0.140213 -0.19165759
0.0032207225 -0.16589081 -0.08673231 0.095946945 -0.06544798 0.12209181 -0.102537416 -0.06911505
0.117033154 0.0026358748 0.105832465 -0.22916825 -0.06534141 -0.12744127 0.1599695 -0.11794221
0.052967858 0.079201445 -0.04342618 0.08276669 -0.045116603 -0.063893616 -0.015337871 0.03482394
-0.1297724 0.20929526 -0.16199425 0.023229836 0.08882141 0.027131224 -0.12605494 -0.022981862
0.014972059 0.1620731 -0.10332104 -0.037830852 0.06366796 -0.13232265 0.17561467 -0.224664
-0.081511274 -0.013740077 0.029330315 0.045060426 -0.07519269 0.066681564 0.10370353 0.15721434
-0.15448889 0.20090094 -0.06513014 -0.105265655 -0.12818475 -0.06033799 -0.15546721 0.19211167
-0.13223128 -0.14379874 0.08029714 -0.13482663 0.12299014 -0.04480567 0.094256185 0.23433498
-0.10079345 0.103296116 -0.027948463 -0.02439354 -0.17757593 -0.061170105 0.0027419482 -0.036389496
-0.16309935 -0.028148297 0.06791459 -0.17415477 -0.13225514 -0.17444263 0.13697937 -0.112874255
0.084658034 -0.09062511 -0.05949589 -0.16348878 0.031082265 0.2083732 0.05160861 -0.1043414
-0.3209691 0.020908022 -0.0077054896 -0.12197935 0.12981448 0.040008057 -0.21163033 -0.05733898
0.08043421 0.23070137 0.029450286 0.14032355 -0.059438206 -0.0036477663 -0.086663574 0.19908847
-0.015426475 -0.05019174 -0.06765043 -0.08634104 0.17002855 -0.12729946 -0.1205251 0.07515789
0.0015849734 0.026688077 0.0567646 0.08449926 0.095535755 0.1309441 0.066929236 -0.080594294
-0.062100276 0.09095082 -0.0035142642 -0.02247529 -0.015593207 0.07438301 -0.13747223 0.01206976
0.06171885 -0.01953972 0.002404504 -0.08937353 -0.03458914 0.057626884 0.023944229 -0.13567178
0.03890682 0.08629385 -0.07271915 0.036236756 0.015490879 0.095560186 0.018859833 -0.015109822
-0.04448407 -0.0021569529 -0.08412436 0.037496094 -0.15425979 -0.11756487 0.038406797 -0.0510477
-0.017136758 0.0008373906 -0.11431529 0.13252392 -0.09705581 -0.08690869 -0.018698012 0.055991046
0.024257004 0.086338 -0.018879348 0.036116257 0.10967719 0.14658858 0.059498712 -0.13736476
-0.121582665 -0.099229 0.015564325 0.096946225 -0.053450283 0.13245194 0.04732386 -0.09227473
-0.025754308 0.051255237 -0.11053865 -0.031961177 0.013080303 0.08687769 0.06338023 0.032190252
-0.12823252 -0.24743533 0.10302142 0.033147167 0.041125495 -0.005823712 0.031316947 0.035568763
-0.2065373 0.0019479292 -0.024868645 -0.1468069 0.037601348 -0.020605763 -0.08007934 0.106171444
-0.12817447 -0.0072436067 0.1819803 -0.110456504 -0.047118966 0.04877225 -0.05711384 -0.04344583
0.062181816 0.077804826 -0.0062758904 -0.052312165 -0.16116698 0.09799856 -0.11496281 -0.059374243
-0.064585984 -0.06413888 -0.07207048 -0.15794303 0.035159938 0.118001536 -0.054678373 0.010611556
-0.059130054 0.23601033 -0.00555644 -0.011138393 0.012678521 0.028326416 0.040258378 0.12644269
0.051299855 -0.031244721 -0.052852396 -0.29902425 0.055582963 -0.10927937 -0.14455426 -0.09058543

arith.constant4 f4 [128]
00000000: fd2d 37be 5b0e f3bd 1d3d 82bc 85cb e7bc
00000010: e566 44be f29d 653a 7c39 1dbe 084a 053d
00000020: 7ae5 12be 34a9 0cbd 9abe febd fc65 cdbd
00000030: b564 9cbd 9a95 8cbd 655f 8dbe 5df3 f2bc
00000040: 73ab 9ebd 7528 82be 50b5 d0bd c3fa 61be
00000050: 8e1d 90bd 0620 a6bb 40df 6cbd 4e52 15bd
00000060: 53ee 27be 3e4d 843d 9d21 e9bd 75ed 0ebe
00000070: 83c2 6fbd 31db 0dbe 61c4 18be d726 863a
00000080: e04c 40be 6439 68bd cd22 afbd 9dc0 31bc
00000090: 5b94 c1bd be37 07bd 5697 82bd a1d3 9fbe
000000a0: 5fce ec3c 82fb c9bd 2d7d 5a3e 46fe 24be
000000b0: 2dca e2bd ce42 a4bc e2b1 2ebd dd6c 0dbc
000000c0: ccae 2ebe f5cd 1f3e d685 d83b a8d0 73be
000000d0: 1221 fa3b fde6 41be 9ff4 3a3c efe4 943d
000000e0: 1922 e4bd 23db 92bd 0fcb c1bd ae33 64be
000000f0: 47fb b3bc e83c afbd 9217 d8bd ed68 31bd
00000100: feb5 823d 555c 06be 93a0 4f3c 8a35 88be
00000110: 918c 9a3c c406 09be 5553 2abe 37a0 3ebc
00000120: 0920 4d3d 2203 dfbd cf93 4ebe 3536 e7bc
00000130: 79ed 1dbd 1fe2 69bd 3ee7 28be 6d2e e9bd
00000140: ad43 53be 8f9c 303d c309 ce3b e1db 54be
00000150: 1e04 36be 6f0d 71bd bffd 4c3d 8010 43be
00000160: 3118 d43d 3314 67be feb2 1a3e c100 a93c
00000170: 6829 1dbe 5402 61be 9f55 1fbd 2837 9e3d
00000180: 45a4 d4bc 981b f3bd 0fc1 c4bd 89ff e7bd
00000190: e489 a8bd 14d7 1dbe eef1 07be a70e 0bbe
000001a0: 29ff 95ba 2078 86be a864 24be 1ea5 893b
000001b0: 6dcc 24be 9057 eebd d1cf c0bd 803e 61be
000001c0: 35ac 41bd 452b db3d 7535 2ebd fe0f 00be
000001d0: 89be 46bd b44c 90be abbc 2abc 22e6 c4bd
000001e0: a52e e23b a534 79bd eac1 09bd bbba 11be
000001f0: 1471 62bd bfe0 e7bd f9fb 433b 6672 72bd
-0.17888637 -0.118679725 -0.015898282 -0.028295288 -0.19179876 0.00087591924 -0.1535396 0.032541305
-0.14345351 -0.034341052 -0.12438698 -0.100292176 -0.07636396 -0.06864472 -0.27611843 -0.02965706
-0.07747545 -0.2542149 -0.101908326 -0.22068314 -0.07036887 -0.0050697355 -0.057830095 -0.036455445
-0.16399507 0.06460045 -0.11383364 -0.1395777 -0.05853511 -0.13853146 -0.14918663 0.0010234964
-0.18779325 -0.056695357 -0.085515596 -0.010849145 -0.09452125 -0.033012144 -0.06376521 -0.31216148
0.028907 -0.098624244 0.21336813 -0.16112623 -0.11073718 -0.020051386 -0.04265011 -0.008631912
-0.17058867 0.1560591 0.0066077514 -0.23810065 0.007633337 -0.18935771 0.011410861 0.07270228
-0.11139316 -0.07170703 -0.094625585 -0.22285339 -0.021970404 -0.08556539 -0.10551371 -0.043312956
0.063823685 -0.1312116 0.012672561 -0.26603347 0.018865855 -0.13381487 -0.16633351 -0.011634878
0.05007938 -0.108892694 -0.20173572 -0.02822409 -0.03855655 -0.05710041 -0.16494462 -0.11385808
-0.20631285 0.043118056 0.006287785 -0.20787002 -0.17775008 -0.058850702 0.05004668 -0.19049263
0.10356177 -0.22566299 0.15107343 0.020630242 -0.15347826 -0.21973544 -0.038900014 0.07725364
-0.025957236 -0.118704975 -0.096071355 -0.11328036 -0.082294255 -0.15414077 -0.13275883 -0.13579808
-0.0011443842 -0.26263523 -0.16054022 0.0042005917 -0.16093607 -0.11637795 -0.09414638 -0.21996498
-0.04728337 0.107016124 -0.04253145 -0.125061 -0.048521552 -0.2818352 -0.0104209585 -0.09614207
0.006902533 -0.06084122 -0.033632196 -0.14231388 -0.05528362 -0.11322164 0.0029904826 -0.05919113

arith.constant5 f4 [128]
00000000: dbb8 623f 72ae 5c3f 3c74 6f3f dbd6 643f
00000010: 9626 5c3f d908 8c3f c37e 5f3f afc8 673f
00000020: 09d0 843f 9eda 663f 934b 683f 9a6e 653f
00000030: c4a9 6d3f e5be 6a3f b478 823f 7703 723f
00000040: 78af 6d3f c483 4f3f e260 633f 0969 7c3f
00000050: 261f 4c3f cc57 783f 08e0 7a3f b1e9 823f
00000060: 0b7a 7f3f e951 553f 664f 363f 580a 4c3f
00000070: 2e3d 5f3f 8692 763f 6a58 663f fb93 583f
00000080: 9170 6d3f 4b5b 753f ffe5 653f 398b 813f
00000090: a38e 5a3f 53f9 263f fee9 863f 1383 603f
000000a0: 6eae 8d3f 26a5 7e3f dd63 923f 55fe 693f
000000b0: 77a1 743f 0f7f 7f3f 572e 8f3f 4d4b 7b3f
000000c0: e3c1 643f 8c01 8b3f 5603 5d3f 5a59 513f
000000d0: e1f6 763f 63e0 453f cf53 893f 6b9c 873f
000000e0: f496 603f 200e 6f3f 90c3 613f d212 6a3f
000000f0: 5301 713f 2043 973f c590 773f d7e6 8d3f
00000100: 1d3d 6c3f 0950 663f c818 7d3f 52a7 873f
00000110: 193d 753f c39b 633f 6f21 8c3f 963c 843f
00000120: 2b49 563f e2f5 853f 7886 643f ef46 903f
00000130: 1557 743f 321c 8c3f e12c 733f f63d 8a3f
00000140: 3800 983f a20e 883f 080f 883f 9617 683f
00000150: efd4 633f 65a9 823f 9161 683f b7eb 8a3f
00000160: fa1c 923f 7133 583f 3dc2 933f 0a57 603f
00000170: dd46 673f 063d 6a3f 6edc 8d3f a774 8d3f
00000180: c099 8d3f 003a 893f bca0 6c3f 0f2f 553f
00000190: 1b8f 713f eb76 873f 7fa5 363f 4696 763f
000001a0: 316c 803f b197 473f 13b9 643f 39f0 883f
000001b0: ce18 6a3f 2cb8 553f f3b6 8d3f d322 593f
000001c0: d7da 623f 3f46 913f 99d9 763f 272e 663f
000001d0: f66a 8c3f fe3d 893f 6cec 5e3f 2505 853f
000001e0: 4aea 853f ef63 613f af58 6e3f dac7 8b3f
000001f0: 0b2d 8e3f e230 863f 9623 8a3f 6648 603f
0.8856332 0.8620368 0.93536735 0.89390343 0.8599638 1.09402 0.873028 0.90540594
1.0375987 0.90177333 0.9074032 0.8962189 0.92837167 0.9169753 1.0193086 0.94536537
0.9284587 0.81060433 0.88819706 0.9859777 0.7973503 0.9700897 0.97998095 1.0227567
0.997956 0.8332811 0.712149 0.79703283 0.8720273 0.9631733 0.8997866 0.846008
0.9274989 0.95842427 0.8980407 1.0120612 0.85373896 0.6522419 1.0540159 0.87700003
1.1068857 0.99470747 1.1436726 0.91403705 0.95558876 0.9980325 1.1186017 0.98161775
0.8935835 1.0859847 0.86333215 0.81776965 0.9647046 0.7729551 1.0728701 1.059461
0.87730336 0.9338093 0.8818903 0.9143497 0.94142646 1.181736 0.96705276 1.1086072
0.9228075 0.89965874 0.9886594 1.0597937 0.9579635 0.8890955 1.0947703 1.0330989
0.83705395 1.0465662 0.89267683 1.1271647 0.95445377 1.0946105 0.94990355 1.0800159
1.1875067 1.0629466 1.0629587 0.9066099 0.88996786 1.0207945 0.90773875 1.0853184
1.1415093 0.84453493 1.1543652 0.8763281 0.90342504 0.91499364 1.1082895 1.1051224
1.1062546 1.0720825 0.9243276 0.8327493 0.94358987 1.0583166 0.71346277 0.9632305
1.0033017 0.7796584 0.893449 1.069831 0.914441 0.8348415 1.1071457 0.8481876
0.88615173 1.1349562 0.9642578 0.8991417 1.0970142 1.0722044 0.870795 1.0392195
1.0462124 0.8804311 0.9310407 1.0920365 1.1107496 1.0483668 1.079211 0.8761047

arith.constant6 f4 [128]
00000000: be69 443e 9725 4a3e 2a2b 733e f661 09bd
00000010: 29de 653e 0831 7fbe 61c4 e5bd 77cd 203e
00000020: 0061 433e 701f 85be aea4 4f3d c702 573e
00000030: ed9f 253e 3962 3abe 1c31 1a3e e4c7 693e
00000040: 7f59 913c 274d 0a3c 9c0e c93d a8f4 36be
00000050: 6043 503e 4a0f 66be 26b0 6c3e 4b6f 723e
00000060: 9666 56be 08d3 99bc 7ccc 1d3d c328 b23d
00000070: 8c9a c7bd 5538 5c3e de62 bdbd b40a 123e
00000080: a7b3 4dbe 9743 fc3d c19c 24be dbb7 66be
00000090: 05b1 103e 8aa7 f63d 9ee5 f6bd 5b4d 223d
000000a0: 7cc6 6e3e 0d6a 32be ced2 783e 18b5 debd
000000b0: 653d 41be ee76 533e 7c57 813e 5e6a 43bd
000000c0: 8dbd 003d 7237 49be 16c1 6fbd 4985 36bd
000000d0: 2fa4 c1bd 542b 033e 9f2d 75be 7af8 4d3e
000000e0: 7155 5a3e 15e2 b23d 00ce 2ebe 25d9 2abe
000000f0: 6fc3 643e c447 1ebe fbd8 2f3e 0c67 3abe
00000100: d054 813e 8942 47be 8f72 5d3e 45a5 3a3d
00000110: bab9 543e fcd0 363d 81cc 343e 8784 62be
00000120: fe8b 633e 7885 223e d6c9 16be ab4f 473e
00000130: b999 30be e741 4d3e d421 45be 9fed 49be
00000140: 87be e53d 02f6 6bbe fd9d 803e 0b46 2a3e
00000150: 0d1e 0d3e 2b1d 423e 36bd 8a3d ae5d 22bd
00000160: 7bc2 6d3e b20d 483b b866 70be d20c 393e
00000170: ea21 473e bb80 043e 6eb8 3dbe 298b 833e
00000180: 0732 66be ea69 593e 0653 cbba 2f8c 293e
00000190: ab9b 263d 0ca7 3cbe bb52 95bc 5dd1 d43d
000001a0: 1c39 553e c107 21be 9bc4 8d3d 4a00 5c3e
000001b0: 8c09 12be c998 10bd 087a 373e 094b e43d
000001c0: c96f 4f3b 2b86 4fbe c861 45be 13e8 33be
000001d0: 83c1 603e fbfb 30bc ec3c 19bd 23f2 58be
000001e0: 7af2 18be 3bd0 273e 6bd9 7b3e f800 1a3e
000001f0: e2f0 47be e002 4e3e 0754 6d3e 1236 41bd
0.19180962 0.19740902 0.23746935 -0.03354069 0.22448029 -0.24921048 -0.11219097 0.15703379
0.19079971 -0.26000547 0.05069416 0.20997153 0.16174288 -0.18201531 0.15057796 0.22830158
0.01774287 0.008441246 0.0981724 -0.17866766 0.20338202 -0.2246677 0.2311407 0.23675267
-0.20937571 -0.018777385 0.03852509 0.08699181 -0.09746274 0.21505864 -0.09247373 0.14261895
-0.20088063 0.12317579 -0.16075422 -0.22531073 0.14130028 0.12043674 -0.12055515 0.039624553
0.23317903 -0.17423268 0.24299166 -0.10874385 -0.18871076 0.20650837 0.25262058 -0.04770886
0.03143077 -0.19650057 -0.05853375 -0.044560704 -0.09455144 0.12809497 -0.23943184 0.20114318
0.21321656 0.08734528 -0.1707077 -0.16684397 0.22340177 -0.15457064 0.17172615 -0.18203372
0.2526002 -0.19458975 0.21625732 0.04556777 0.20773974 0.044632897 0.17656137 -0.22120868
0.22221372 0.15871227 -0.14725432 0.19463985 -0.1724614 0.20044671 -0.19251186 -0.19719552
0.11217981 -0.23043063 0.25120535 0.16628282 0.13780995 0.18956439 0.0677437 -0.03964012
0.2321872 0.0030525741 -0.23476684 0.18071297 0.19446531 0.12939732 -0.18527386 0.25692108
-0.22480021 0.2123181 -0.0015512414 0.16557382 0.0406758 -0.18423098 -0.018227926 0.103914954
0.20822567 -0.15725614 0.06922265 0.21484485 -0.14261454 -0.035301957 0.17917645 0.11147124
0.0031652323 -0.20266025 -0.19275582 -0.17568998 0.21948819 -0.010802264 -0.037411615 -0.21186118
-0.14936247 0.16388027 0.24594657 0.15039432 -0.19525483 0.20118284 0.23176585 -0.047170706

arith.constant7 f4 [128]
00000000: bfd6 24be b9d6 32be 4d15 89bc 4897 a8bd
00000010: f300 39be 31e4 27bd 4701 18be b13b a13a
00000020: 958f 06be 240d 81bd 686b e2bd edbf c2bd
00000030: 5a79 ccbd 3184 2ebd 1c0b 18bd 4183 74bc
00000040: 7738 d0bd 4744 63be b0ee 9bbd 3c19 55be
00000050: 7e6d 86be 4ffd 0ebc c6ea 4ebd 51a6 9fbd
00000060: 1b3a c7bd edad 253d 01b3 bbbd 4aeb 15be
00000070: c0db 10bc f244 1ebe 5dbf 5abe fdf8 55bc
00000080: 63c5 2ebe 4b9e 9fbd c684 a9bd a07c b8bb
00000090: cba6 f5bd f64d 7dbb 9b85 c7bd 12ad 39be
000000a0: 7b5d 16bd d356 f6bd 7d45 943c 6b32 12bd
000000b0: e08f c0bd 4084 84bd 4bf0 28bd 664e aabc
000000c0: a600 41be db2f f03d 306e 97bb 75cb b5be
000000d0: 2944 a6bd cab4 37be 8a7e 09bd 0e87 143d
000000e0: 5d0c ecbd 61db aebd f28f d1bd 420e 6fbe
000000f0: 0b8f 62bd 0b91 acbc 4bfc f1bd f8aa a7bd
00000100: 249e 94bd 3b3f f5bd 43c9 5ebd 7149 2bbc
00000110: 1c8a 283c 4b97 08be a9af 0bbe 6d17 3ebd
00000120: ab12 343d e8d8 59bd 3b36 5cbe f8e3 6bbd
00000130: 0204 58bd d5f0 4ebd 2181 35be 892e 4abe
00000140: 4543 e83c 9392 af3c 81e3 fa3b 49a4 efbd
00000150: 7ade 30be f5db 33bd 0651 193d 6552 c7bb
00000160: 9c0d 7b3d fbea 48be 0240 af3d 7945 51bc
00000170: 9387 15be 77df 64be cde4 ddbd 42db 743d
00000180: 7e82 06bd 236b 1dbe db70 5b3d ed6c 02be
00000190: 72b1 a0bd c41b fdbd f295 f6bd 1234 2dbe
000001a0: 5c84 9a3b b1e0 81be 0510 39be 207a 8fbd
000001b0: e0f3 29be 0cb5 4dbe dbf0 4bbd ffb0 80be
000001c0: 5dc4 20be c864 f13c e8ca 20bd 8404 dabd
000001d0: ba3a c8bd 4bbd 0cbe 932f bcbb 99a3 efbd
000001e0: 38f4 8fbd 4bfb 9cbc 2b6b 60bd 2a48 99bd
000001f0: e21a 02be 8dbb dcbd a066 55bc c7cf 2abd
-0.16097544 -0.17464723 -0.01673379 -0.082319796 -0.18066768 -0.040989105 -0.14844237 0.0012301115
-0.1314071 -0.063013345 -0.11055642 -0.09509263 -0.099840835 -0.042606536 -0.03711997 -0.0149238715
-0.1016702 -0.22194014 -0.076138854 -0.20810407 -0.2625541 -0.008727386 -0.050516866 -0.07795394
-0.097278796 0.04044907 -0.09165002 -0.14640537 -0.008841455 -0.15455988 -0.21362062 -0.013059852
-0.17067485 -0.07793864 -0.08277278 -0.005630091 -0.11994704 -0.0038651205 -0.0974228 -0.18132427
-0.036710244 -0.12028279 0.01809954 -0.035692614 -0.09402442 -0.06470537 -0.041244786 -0.020789336
-0.18847904 0.11727878 -0.0046212897 -0.35506788 -0.08118469 -0.1794006 -0.033567943 0.03626161
-0.115257956 -0.08537937 -0.102325335 -0.23345283 -0.055312198 -0.021065256 -0.11815699 -0.081869066
-0.072567254 -0.11974951 -0.054391157 -0.0104545215 0.010286834 -0.13338964 -0.13641228 -0.04640906
0.043963116 -0.053185374 -0.21505062 -0.057590455 -0.052738197 -0.050522644 -0.1772504 -0.19744314
0.02835239 0.021432197 0.007656515 -0.11701257 -0.17272368 -0.04391094 0.037430786 -0.0060828202
0.061292276 -0.19620888 0.085571304 -0.012772911 -0.14602499 -0.2235087 -0.10834656 0.059779413
-0.03283929 -0.153729 0.053574424 -0.12736864 -0.07846345 -0.123588115 -0.120403185 -0.16914394
0.0047154855 -0.25366738 -0.18072517 -0.07005715 -0.16596937 -0.20088595 -0.049790245 -0.25135037
-0.15699907 0.029467002 -0.039256006 -0.106453925 -0.09776826 -0.13744085 -0.005742976 -0.11701126
-0.07029003 -0.019162795 -0.054789703 -0.07484467 -0.12705567 -0.1077796 -0.013024956 -0.04170206

arith.constant8 f4 [128, 14]
00000000: f9fd ecbb 369b 7cbd 4537 dbbd 417e 353d
00000010: c512 633c e0ba 083e 6370 a0bd 3a58 d43d
00000020: 009e 7f3b e019 da3d d438 e3bc 8907 92bc
00000030: fb53 c6ba ee6a 0d3d 6600 b83a 36e1 5cbc
00000040: 2676 6abc 559d ab3c bb6b e5bc 1ef5 053d
00000050: 89db 96bc 301e 323d 5336 44bd 04b3 e03c
00000060: e4eb a8bb 2e57 013b 3ebf 52ba 1ca2 ad3c
00000070: b95a d93b e6fc a23c ce64 853c 219c 12bd
00000080: f56d 0e3e 64f8 a73d 3c81 b53d e416 bfbd
00000090: f3e3 db3d 7c50 fb3c 8ad2 113d 1ef1 403d
000000a0: 7b96 ebbc 35d2 9cbd a90f c4bb ec3a 31bd
000000b0: c176 d9bc f054 243d c119 aebc a04e c43d
000000c0: 5470 cb3b 2782 8c3d 3710 dcbd 553b 903d
000000d0: 14b9 99bc a949 68bd e5cc 7a3d 8e58 9d3b
000000e0: fbd5 63bd 2e48 16be d444 4cbe 728a e13d
000000f0: f629 2fbc 25fc 8d3d 1d74 1dbe b779 543e
00000100: 68d9 12bc 11e6 253d 6fb8 c8bd 481f 91bd
00000110: 850d 693d a2ac a03d 52e2 6f3d 7f0f 7b3d
00000120: 1b76 bd3d 397e d7bd fd45 d23d c607 a53d
00000130: 4a47 0d3e 956e ecbd b245 c33d 7aec 103c
00000140: ab74 603d a0ae cc3c c245 c13c 09ce 9ebc
00000150: f7d6 11bd 5c5b 99bd daa3 9abd 3eee 173d
00000160: 8b0c 05bd 4539 913d 4cec a9bd 14fd bf3d
00000170: 4fba afbd 8af3 d83d 53ab 98bd d564 1e3c
00000180: da25 a33c e228 2f3d ab21 ddbc 46fb 28be
00000190: b220 84bd 5dda ca3c 392f 273d ebe4 23bc
000001a0: 67da 513b e8c5 1d3d 12b8 8ebc fb72 ebbc
000001b0: b89c 59bd 3e5d 18bd 0f89 943c 4f8a 28bd
000001c0: 5343 c23b d8e7 323d e3f0 183d d897 48bd
000001d0: 478b 613e 918c aa3c 8308 0a3d 0b9c c8bd
000001e0: 54de 583e 36e8 99bd 667a 5bbc 1a1a 54bd
000001f0: 73dc 15bb 9eb5 153a 44dc 313d 714a a53c
00000200: 7a50 9b3d 87f3 8ebd 5d6c 013e 514f 743e
00000210: b711 053e 9662 cebd f129 df3d 28bb 603e
00000220: 6420 5b3d b344 223d e7e3 7cbd 1294 76bd
00000230: fae7 37bb fded 2ebd 47f3 71bd 59e0 f23c
00000240: 020d 82bd e925 303d edbd 80bd 7d89 af3d
00000250: ffe6 adbd 53e3 6c3d 1264 13bd 41be c139
00000260: d233 0c3d fafc 073c 11c2 5a38 de0d b7bb
00000270: 3db5 87bd 707a c13c cb24 a0bc 17f5 1c3d
00000280: 4113 20bd 521f 4f3d e051 b3bc 1fde 073c
00000290: 2fe8 9cbc ba83 153c c8ff ac3c 0831 8bbb
000002a0: 5855 eb3d 8aaa 8b3d 5c1d 263d 9e38 9ebd
000002b0: 7eb4 333e 3e2b 3d3e 669e 963d ac08 afbd
000002c0: 8022 0d3e c0b8 783e 3311 2f3d a229 8c3d
000002d0: 088e 44bd 32cd 94bd 1c11 8cbc 2b13 84bb
000002e0: 6852 233c a938 c5bb 40dd 55ba 02e3 5bbb
000002f0: 7965 06bd d82a 6a3c ad4f 80bc 2c1b 033b
00000300: 078a 093d b8a3 493d 8aae ebbc 048b 9bbc
00000310: bca1 8ebc 1861 a13d 3604 dcbd 73f8 93bc
00000320: b45e 863d 49d8 dd3e c663 ea3c 90c1 a2bd
00000330: ef6b eb3d 04bf fc3e 19b6 05be 1e9b 353d
00000340: b7c1 ab3d 310d 7bbd 59db 3abd 6138 01bc
00000350: c486 47bd 249a 0c3d 2683 fcbd 9c32 b7bd
00000360: b992 40bd 2317 6e3d 6377 ebbd a059 87bd
00000370: b8c7 febc bf0f e23a 9719 5d3c 68ec 033d
00000380: e78f 50bd 313c 01be e984 b4bd 9c3a 323d
00000390: daf7 9fbc 08d8 0b3d 39e3 9dbd f132 d53d
000003a0: a00d 14be 73a7 d93c fff2 85bd caf0 a23c
000003b0: f524 0c3d 489a 403d 36c5 f03a 6eff 1d3c
000003c0: 4fdb fe3b 06f3 48ba b4a0 aa3d 6bf1 2b3e
000003d0: 8b61 5e39 865d bd3b 5c5f 233d 1e25 0e3e
000003e0: da18 9e3b 130b c13c bb67 10bc 0893 afbc
000003f0: 3bba fc3b 7a5d b23c 7e6a e83b 393c 01bc
-0.0072324243 -0.06167146 -0.10703901 0.04430986 0.0138594555 0.13352537 -0.07833936 0.103683904
0.0039004087 0.106494665 -0.027737059 -0.017825859 -0.0015131229 0.034525804 0.0014038205 -0.013481429
-0.014310395 0.020949045 -0.028005471 0.032704465 -0.01841523 0.04348582 -0.04790337 0.027429111
-0.0051550735 0.00197358 -0.00080393616 0.021195464 0.0066331294 0.019895982 0.016283419 -0.035793427
0.13909133 0.082016736 0.0886254 -0.09330538 0.10736837 0.030678026 0.035601176 0.047104947
-0.028758278 -0.07657281 -0.005983312 -0.043269083 -0.026545884 0.040120065 -0.021252515 0.09585309
0.006208459 0.06860762 -0.1074528 0.07042567 -0.01876501 -0.056710873 0.06123056 0.0048018163
-0.05562399 -0.14675972 -0.19948131 0.110127345 -0.010691157 0.069328584 -0.15376325 0.20749556
-0.0089629665 0.04050261 -0.09800803 -0.070860445 0.05689766 0.07845427 0.058565445 0.061294075
0.092510425 -0.10522122 0.102672555 0.08058123 0.13796726 -0.11544529 0.09534778 0.008845443
0.054798763 0.024985611 0.023592833 -0.019385355 -0.035605397 -0.074881285 -0.075507835 0.03709244
-0.032482665 0.070910014 -0.08297023 0.09374443 -0.085804574 0.105933264 -0.074545525 0.009667595
0.01991551 0.0427636 -0.026993593 -0.16502103 -0.06451549 0.024762327 0.04081652 -0.010003309
0.0032021047 0.038518816 -0.017421756 -0.02874135 -0.053127974 -0.037198298 0.01813176 -0.041147526
0.005928436 0.043678135 0.037339102 -0.048972934 0.22025786 0.02081898 0.033699524 -0.09795388
0.21178561 -0.07514994 -0.013395881 -0.051782705 -0.0022866994 0.0005710962 0.043422952 0.020177098
0.07583709 -0.06980043 0.12638994 0.23858382 0.12995039 -0.100773975 0.108966716 0.21946394
0.053497687 0.039616298 -0.061740782 -0.060199805 -0.0028061853 -0.042707432 -0.059069898 0.029647993
-0.06350137 0.043004904 -0.062862255 0.08571146 -0.08491325 0.05783398 -0.035984106 0.0003695358
0.034229107 0.00830006 5.215599e-05 -0.00558637 -0.06626365 0.023617953 -0.019548794 0.038319673
-0.039080862 0.05056698 -0.021889627 0.008292704 -0.019153683 0.009125644 0.02111806 -0.0042477883
0.114908874 0.06819637 0.040555343 -0.077256426 0.17549321 0.18473527 0.07354431 -0.08546576
0.13782692 0.24289227 0.04274101 0.06843878 -0.047987014 -0.072657004 -0.017098002 -0.0040306053
0.009968378 -0.0060187173 -0.0008158274 -0.0033552055 -0.032811616 0.014292441 -0.015662992 0.002000521
0.0335789 0.0492284 -0.02876975 -0.018987186 -0.017411105 0.07879847 -0.10742991 -0.018062806
0.06561032 0.43329075 0.028612029 -0.07947075 0.11495196 0.49364483 -0.13057746 0.044337384
0.083865575 -0.061291877 -0.045619342 -0.007886977 -0.048712507 0.034326687 -0.12329702 -0.089452
-0.047014926 0.058127534 -0.114973806 -0.066088915 -0.031101093 0.0017247124 0.013494871 0.032207876
-0.050918486 -0.12620617 -0.08814413 0.043512926 -0.019527365 0.03414157 -0.07709355 0.10410107
-0.14458323 0.026569104 -0.065404885 0.019890208 0.034214932 0.047022134 0.001836932 0.009643419
0.0077776085 -0.0007665608 0.08331433 0.16791312 0.00021207907 0.005778971 0.039885864 0.13881347
0.00482474 0.02356485 -0.008813794 -0.021432415 0.00771263 0.021773089 0.007092773 -0.007887893
