Riproduzione/lstm_large_batch_1_MSE.tflite (tflite, 694020 bytes, 53 tensors)

sequential_3/dense_10/BiasAdd/ReadVariableOp f4 [32]
000000 15 ef 00 be 66 ae ef bd 5f 31 9b bd 16 b9 18 be
       -0.12591203 -0.11703186 -0.07577776 -0.14914355
000010 0d 72 ab 3e 7a 1e ae 3e e7 63 89 bd 4a 7e 9f 3e
       0.3348545 0.34007627 -0.06708508 0.31151038
000020 9f 30 b1 bd f6 a9 a6 3e fd 58 fa 3d 97 4b aa 3e
       -0.08651852 0.32551545 0.122240044 0.33260795
000030 18 bb 66 3e a8 5f 9d bd 88 0a d7 bd cf d8 90 bd
       0.22532308 -0.076842606 -0.105000556 -0.07072603
000040 b9 69 b1 bd b4 eb 8a 3e 78 05 f5 bd 19 36 df bc
       -0.08662743 0.27132952 -0.11963934 -0.027247475
000050 57 a9 0f be 58 22 96 bd 6a c1 96 bd ef 84 96 3e
       -0.14029442 -0.07330769 -0.073611096 0.29398295
000060 ce a5 9c bd b2 a2 a5 3d 2a 80 ad 3e 44 b8 3f 3e
       -0.07648812 0.08087672 0.33886844 0.18722636
000070 d5 8b 86 3e 95 52 ac 3e 3c 13 c5 bd 71 8d b3 bd
       0.26278558 0.33656755 -0.09622809 -0.08767212

sequential_3/dense_9/BiasAdd/ReadVariableOp f4 [64]
000000 7d a5 75 3e c2 69 9c 3d 67 cd 78 3e 42 1b a6 3e
       0.2398891 0.07637359 0.24297105 0.3244267
000010 10 64 94 3e 5f 6e 41 3e d2 9b 62 3e d7 27 45 3e
       0.28982592 0.1888976 0.22129753 0.19253479
000020 68 7f 58 bd ee b1 59 3e c1 2d 39 3e 85 bd 9b 3e
       -0.05285588 0.21259281 0.1808386 0.3041803
000030 64 d2 92 3e 95 46 98 3e a1 e9 a1 3e a9 59 a1 bd
       0.2867614 0.2974135 0.31623557 -0.078784294
000040 cf 01 96 3e d6 3a ae bd 44 ab 29 bd e1 02 7b 3e
       0.29298255 -0.08507316 -0.041423097 0.24512817
000050 6d 95 ec 3d fe d7 c2 3e 63 51 4d 3e 30 f4 8b 3e
       0.11551938 0.38055414 0.20050578 0.27334738
000060 0f 22 75 be e9 8e 74 be fa e8 45 3e 53 6f 3d 3e
       -0.23938774 -0.23882641 0.19327155 0.18499498
000070 44 b4 74 3e fc 46 2d 3e 3e ee 96 3e 3f b1 93 bc
       0.23896891 0.1692161 0.2947864 -0.018028853
000080 69 df 8b 3e 8a a8 8e 3e 34 2d 82 3e c7 bd 20 3e
       0.27318886 0.2786296 0.25425112 0.15697394
000090 27 8b 8c 3e 0b b1 6a 3e 03 22 8e 3e 85 9f 95 3e
       0.27449915 0.22919099 0.27760324 0.29223266
0000a0 fb 5e 79 bc f1 e7 27 3e fd b9 94 3e fd 64 51 b9
       -0.015220399 0.16397072 0.29048148 -0.00019969414
0000b0 6e 8f 0e 3e e5 22 bf bb c0 20 a2 3d 26 bd 94 be
       0.13921902 -0.005833017 0.07916403 -0.2905056
0000c0 06 0d 76 3e fc d9 fd 3d 7d b1 28 3e 0d 77 86 3e
       0.24028406 0.12395093 0.16473956 0.26262704
0000d0 7b 6f 53 3e ed 4d 41 bd 0b bb 93 3e 7c a0 16 be
       0.20647995 -0.047193456 0.2885364 -0.14709657
0000e0 bf fc 12 3d 08 6b 1e bc 45 58 55 3e 78 a5 93 3e
       0.03588557 -0.009669073 0.20834453 0.2883718
0000f0 00 be 67 3d 34 e5 8a 3e ab 2c 8f 3e 15 9d 7e 3e
       0.056577682 0.27127993 0.27963766 0.2486461

arith.constant f4 [32, 32]
000000 a7 7b a6 3d 3f 5e 5b 3e 56 f4 d0 bb b0 c9 83 3d
       0.081290536 0.21422671 -0.0063767834 0.06434953
000010 ae 00 ad 3d 77 6f be be 4d a3 95 3e 0a 92 72 bc
       0.08447395 -0.37194416 0.2922615 -0.014805326
000020 aa 21 ac bd 94 40 44 3e f1 6b 89 bd 0a a4 6b 3e
       -0.084048584 0.1916526 -0.06710041 0.23011795
000030 d1 d7 77 3e 1e 8b ef bd 34 75 e9 3e 22 fd b0 3e
       0.24203421 -0.116964564 0.4559723 0.34568125
000040 57 a6 4f 3e ed e8 cf be ac 10 28 be fb 7b 4f 3e
       0.20278297 -0.40607396 -0.1641261 0.20262139
000050 98 96 bd 3d 04 d0 7a bd 03 59 7b be 8b e9 ce be
       0.09257239 -0.061233535 -0.24545674 -0.40412554
000060 b7 a2 2d be 5f 3e 56 3e ac 5a ef 3d ee 83 8a 3e
       -0.16956602 0.2092223 0.11687216 0.2705378
000070 d8 94 64 be 4c 56 bd 3d f4 da 34 3e 6f 32 c7 3d
       -0.22322404 0.092449754 0.17661649 0.09726416
000080 df 5a 50 3e 43 56 d1 3d 87 9e 3b 3e 93 98 1e be
       0.20347165 0.10221531 0.18322192 -0.1548789
000090 b9 af 73 be c3 f7 ba 3e c7 d7 9d 3d 92 7c c5 3e
       -0.23797502 0.36517152 0.07707172 0.38571602
0000a0 0c a0 57 3e a0 7d 52 bc 88 b4 9c 3d 4f fb be be
       0.21057147 -0.012847334 0.07651621 -0.37301108
0000b0 58 f9 78 be ab 09 1f 3e c3 6a 64 bd d4 a8 86 be
       -0.24313867 0.15531032 -0.05576588 -0.2630068
0000c0 be 88 47 be 1b 2f 54 3e 53 5b 01 3e ae 7c 90 be
       -0.19485757 0.20721094 0.12632494 -0.28220123
0000d0 63 90 84 be 90 5f 34 3e 36 ac 63 3d 16 98 03 be
       -0.25891408 0.17614579 0.055584155 -0.12850985
0000e0 0d 90 5b 3e d1 67 5e 3e cf cf 95 bd 7c e8 94 bd
       0.2144167 0.2171929 -0.07315027 -0.072709054
0000f0 77 a6 88 3e 47 b1 85 3d f8 49 48 be f5 1a f5 3c
       0.26689503 0.065279536 -0.19559467 0.02992008
000100 95 3d 40 3e a5 42 a6 bd 45 3d 91 3d f0 13 4d 3e
       0.18773492 -0.0811818 0.07091764 0.20027137
000110 fb 8a fe bd 3a 0d 39 be 6d ff 3a bc 31 c5 84 be
       -0.12428852 -0.18071452 -0.011413437 -0.25931695
000120 c1 f0 a6 39 41 4b 62 3e 76 73 f6 bd e3 55 f1 3d
       0.00031841363 0.2209902 -0.12033741 0.1178396
000130 2d 8c 27 3e c0 5b 29 be 6e 3f 57 3e be 85 47 3e
       0.16362067 -0.16538906 0.2102029 0.19484612
000140 52 70 ee 3d 38 25 7e be 5e 64 1b 3e ae a4 20 3e
       0.11642517 -0.24818885 0.15175006 0.1568782
000150 14 1f 5d bd b8 da aa 3d 06 51 0d be 4f e8 b4 be
       -0.053984717 0.083424985 -0.13800439 -0.35333487
000160 01 34 e8 bd fe 82 b5 bc 42 b7 00 3d ae a0 e6 3d
       -0.11338044 -0.022157189 0.03142477 0.11261116
000170 76 1c 17 be 3f 81 31 3e 34 57 c9 3d 98 23 2a 3d
       -0.1475695 0.1733446 0.09831086 0.04153785
000180 0a c9 5f be 5f 6d 2b 3d e4 ae 79 bd 7f f7 7d bd
       -0.21854034 0.04185235 -0.060957804 -0.06200361
000190 8c f2 d7 3d e2 04 dc bd cc c2 c3 be 75 8b 9e 3d
       0.10544309 -0.10743119 -0.38234556 0.07741443
0001a0 5f 37 85 be 75 cc ed 3c 87 e8 f8 bd 7f bf 87 3d
       -0.26018807 0.029028157 -0.12153726 0.06628322
0001b0 a1 d8 6b 3e bd c0 56 bc 1a da b1 bb e2 b1 17 3e
       0.23031856 -0.013107476 -0.005427611 0.1481395
0001c0 cb 20 21 3d 83 ce f1 bc 4b 4b 52 be 59 ca e7 3d
       0.039337914 -0.029517418 -0.20536534 0.11317892
0001d0 bb 22 57 3e 40 84 8f bb 42 5e 33 be e0 92 9e 3c
       0.21009342 -0.004379779 -0.17516425 0.019357145
0001e0 3b 0a fd bc 88 5c 60 be fe f2 42 bc c6 6b 36 3e
       -0.030888667 -0.21910298 -0.011898754 0.1781455
0001f0 56 99 bd 3d e2 1a 7b 3d 2c 5c 4f 3e d0 d4 c3 be
       0.09257762 0.061304934 0.20250005 -0.382483
000200 8c c4 bb 3e fd a6 b1 bc a0 08 98 3d cb 93 9b bd
       0.3667339 -0.021686072 0.0742352 -0.07596549
000210 35 92 45 be 0f 79 0f 3e d8 00 07 3e 32 07 91 3e
       -0.19294055 0.14011024 0.13183916 0.28325802
000220 af 03 de 3d 8c 25 52 3d 1f 50 3c 3e 7c 68 b5 3d
       0.10840546 0.05130534 0.18389939 0.088578194
000230 15 2a 4b be 63 4a dd 3d 5a 52 d3 3d bc 37 84 bd
       -0.19840272 0.10805204 0.10318442 -0.06455943
000240 a8 69 c5 bc 2d ff b7 bb 59 ca 08 3e 3e 13 ca 3b
       -0.024098232 -0.005615136 0.1335844 0.0061668446
000250 48 eb 2d be ac 33 52 3d ec c9 2c 3e 94 e4 c4 be
       -0.16984284 0.05131881 0.16873902 -0.3845564
000260 01 5c d1 bc 9d e8 42 3e b5 ce e7 3d 0a 73 9f 3c
       -0.025556566 0.19034047 0.11318723 0.019464035
000270 d4 8f bd 3c 6c 9e 1a 3e 6f 84 bd bc ef 37 3f 3e
       0.023139872 0.15099496 -0.023134438 0.1867368
000280 ca 1a 99 bd ea 4f 83 bd 07 7e aa bc 5a 59 d3 bb
       -0.07475813 -0.06411727 -0.020812048 -0.0064498605
000290 60 ca 43 be 6c 4b 08 3e 9f 8f cb 3d c6 86 50 3e
       -0.19120169 0.13310021 0.09939503 0.20363912
0002a0 0c 9d 23 3c 69 d2 6d ba 3a 35 3f 3e 06 95 21 be
       0.009986173 -0.0009072186 0.18672648 -0.15779504
0002b0 0c cb 2a 3e 87 fa 2c 3d b8 08 93 3e 7e b4 57 3e
       0.16679019 0.04223111 0.2871759 0.21064946
0002c0 de 62 a1 bd 0d 55 16 bd 5e 70 2d be 47 01 fe 3c
       -0.078801855 -0.036702204 -0.16937396 0.031006468
0002d0 9d 77 94 be 25 84 f3 3c 17 5f 49 bd 7a b5 c5 3c
       -0.28997508 0.029726097 -0.04916295 0.024134386
0002e0 aa b6 86 3d a8 c4 95 3d 98 84 3b be fd e5 ba 3e
       0.06577809 0.073129 -0.18312299 0.36503592
0002f0 f3 83 0a be f0 ad aa 3d 8a 07 4b be 9f df b9 bd
       -0.13526897 0.08333957 -0.19827095 -0.090758555
000300 8e f3 95 bd 5e 55 1a be f7 66 68 be 3f 64 3c 3e
       -0.07321845 -0.15071627 -0.22695528 0.18397616
000310 cd c0 44 bd 77 00 80 be ea bc 37 bd 92 48 87 bd
       -0.04803543 -0.25000355 -0.044857897 -0.066056386
000320 e6 fb 7c bd fc 49 97 3d 7d da c1 bd e0 5d 76 3d
       -0.061763667 0.07387158 -0.094655015 0.06014812
000330 e4 6a 68 3d 4a a7 80 be 44 59 2b 3e cd 9d 3a 3e
       0.056742564 -0.2512763 0.16733271 0.18224259
000340 76 be 2f 3e 02 35 b4 bd 66 61 84 3c e0 18 04 3e
       0.17162499 -0.08799173 0.016159724 0.12900114
000350 22 85 d9 3d f1 aa 18 be cb af 0b be f7 4b 33 3c
       0.10621096 -0.14908959 -0.13641278 0.010943404
000360 71 fc 17 be b5 8d f9 3d f5 37 27 3d 8c ab 13 3e
       -0.14842393 0.121852316 0.04082485 0.14420909
000370 2d 4d 66 be 43 ce 77 3d f6 5c 82 3d 74 a0 b9 be
       -0.22490378 0.06049944 0.06365387 -0.3625523
000380 d8 20 27 3e ea b6 27 bc b1 09 c4 3e 8a 98 63 be
       0.16321123 -0.010236481 0.38288644 -0.22226158
000390 3f 67 5a bd a1 64 71 bd eb 07 8b be ad ad dc 3d
       -0.05332112 -0.058933858 -0.27154478 0.107753135
0003a0 41 5c 98 3c d2 dc 57 3d b6 c4 0d 3e 01 f3 49 3d
       0.018598678 0.052700825 0.1384457 0.049304012
0003b0 c9 6b 4e bd ad d7 4f bc 5d b5 48 3c 6b ec 47 3d
       -0.05039576 -0.012685698 0.012250272 0.04880945
0003c0 b4 bc 8e be aa 41 3a bd 5c 80 50 bd 80 0d 8b be
       -0.27878344 -0.04547278 -0.050903663 -0.27158737
0003d0 c0 c7 92 be 1b 21 18 3e 17 de 24 3e 7f 91 05 3e
       -0.28668022 0.14856379 0.16100346 0.13043784
0003e0 82 03 10 3e 5f 95 a5 be 07 b6 a1 be 4a a3 56 bd
       0.14063838 -0.32340524 -0.31584188 -0.05240182
0003f0 94 f6 ad 3d 79 1e 23 3d d4 c8 20 be c9 b3 7b be
       0.08494297 0.039823983 -0.1570161 -0.24580301

arith.constant1 f4 [32, 32]
000000 02 02 20 3e c8 ea b0 3e 3e 8f 02 3f ff db 35 be
       0.15625766 0.34554124 0.5099982 -0.17759703
000010 33 8a 80 be 1d ad 81 3d e6 8e 5a be 8c 98 3a bd
       -0.25105438 0.06331847 -0.21343574 -0.045555636
000020 12 c6 04 3e a6 5f d2 bc 06 77 08 3e 5c 18 e1 bd
       0.12966183 -0.025680374 0.13326654 -0.10990974
000030 42 66 c2 38 ea 01 0e 3d dd 6e 52 be c9 1d c4 3d
       9.269688e-05 0.034669794 -0.20550103 0.095759936
000040 fb 98 8a bd 3c f8 d3 bd 27 d2 0d 3e cc a2 0c 3d
       -0.0676746 -0.10350081 0.13849698 0.034334943
000050 e8 12 ad be 40 f0 56 3e 55 cf 4b be a5 91 20 3e
       -0.33803487 0.20990086 -0.1990331 0.15680559
000060 06 4b 0d 3e 2c 80 43 3c c2 06 a0 be 0e 47 65 be
       0.1379815 0.011932414 -0.31255156 -0.22390386
000070 1c 65 06 bc 4b 48 28 bb 72 03 89 be 1a 5b 9f be
       -0.008202817 -0.0025677856 -0.2676044 -0.31124192
000080 fa 20 22 3e a3 92 43 3e 02 17 c9 3e ae 4f 6e be
       0.15832892 0.19098906 0.39275366 -0.23272583
000090 5f 3a 39 3d 88 5e 41 3e eb f2 ac be 94 5a 65 3e
       0.045221683 0.18883717 -0.33779082 0.22397834
0000a0 20 7c c4 3e 7d 72 19 3e e7 ff 4c 3e 41 9c b2 bb
       0.3837595 0.1498508 0.20019494 -0.005450756
0000b0 e7 56 2b be 38 f0 1c 3e 9e 38 3c be 4c 60 05 3d
       -0.1673237 0.15326011 -0.18380973 0.03256254
0000c0 2b 50 0b be 20 97 15 3e d6 f2 ca 3d c4 4f 93 be
       -0.136048 0.14608431 0.099095985 -0.28771794
0000d0 86 ac 05 bf fd 51 c9 3d 08 97 6d 3d c1 45 ac 3c
       -0.52216375 0.09830091 0.058005363 0.021029355
0000e0 42 c8 8f 3d 83 f8 7b be c5 c6 4b be 3c 8a 7c be
       0.07020618 -0.24606518 -0.19900043 -0.24662107
0000f0 fc 00 2c 3e 2f 2e ed bc 0a b7 df bd ac 1e ae be
       0.1679725 -0.028952686 -0.10923584 -0.34007776
000100 e6 9f 25 3e 34 75 6e be a7 8e 6e 3e ce 0c 12 be
       0.16174278 -0.23286897 0.23296605 -0.14262697
000110 33 50 1b 3e d3 07 6f bd 7d 74 22 be 5b 2a d8 bd
       0.15167312 -0.05835707 -0.15864749 -0.10554954
000120 21 34 09 3e 93 93 87 3e 87 c6 37 3e ce 59 03 3e
       0.13398792 0.26479778 0.17946826 0.12827227
000130 ea 30 ed 3b 63 e4 43 bd 9d 1d 59 3d d5 5c 85 3e
       0.007238497 -0.04782523 0.053006757 0.26047388
000140 dd 48 a1 3e 65 ae 9a be 66 62 3e 3e 49 2e c9 bc
       0.31500903 -0.30211177 0.18592224 -0.024558203
000150 0e a2 22 be 83 5c 81 bd cb 68 1b be 36 c4 34 3d
       -0.15882131 -0.06316473 -0.15176694 0.044132434
000160 f3 f9 b2 3e 7e 68 74 be 9a 65 89 be 12 c0 44 3e
       0.3495632 -0.23867986 -0.26835328 0.19213894
000170 1b af e4 bd 33 00 71 3d 0a d8 c0 bd c9 2d a1 be
       -0.11166211 0.05883808 -0.09416206 -0.31480244
000180 81 53 71 be 91 91 69 bd 83 52 91 3c 02 97 b1 bd
       -0.2356701 -0.05702359 0.01773954 -0.086713806
000190 6f b8 c5 3d 29 d2 e1 bd 15 c0 81 be 34 35 eb 3c
       0.096543185 -0.11026413 -0.2534186 0.028711893
0001a0 2d 5c 36 be e3 8b e8 bc 61 81 db bd 0d 58 3b 3e
       -0.178086 -0.028387016 -0.107180364 0.18295307
0001b0 0c 14 95 3d 30 b9 65 bd df 79 3c bc b7 fa 66 3e
       0.07279214 -0.05608481 -0.011503666 0.22556578
0001c0 61 42 d2 3d 56 0e 22 be 4d 41 83 bd e7 17 e2 bb
       0.10266567 -0.15825781 -0.064089395 -0.006899822
0001d0 9f 66 6f 3d 49 5c 3d 3d f2 e2 15 be 7f 81 de bc
       0.058447476 0.046230588 -0.14637354 -0.027161358
0001e0 98 3e 05 be 67 ab be bd d9 fb 08 be 61 bb 98 3d
       -0.13012159 -0.09310036 -0.13377322 0.07457615
0001f0 9e dc 0e 3d 79 43 35 3e 9c 4c 2c 3d b5 8b be be
       0.034878366 0.1770152 0.042065248 -0.37215963
000200 36 0f 2a bd 2b 43 65 3e 52 4e 2a 3e 3e 73 21 bd
       -0.041518413 0.22388904 0.1663144 -0.039416544
000210 64 82 9d be e4 c4 00 3e 0a 5c 78 be 46 2f 06 3e
       -0.30763543 0.12575108 -0.2425386 0.13103971
000220 19 f5 1b 3e 0b 89 9a 3e 15 d2 8c 3e 28 e0 25 3d
       0.15230216 0.3018268 0.2750403 0.040496975
000230 5c e2 f3 bd 0a 20 a3 3b 12 1f 02 bd fa fd b6 3d
       -0.11908409 0.0049781846 -0.031767912 0.08935161
000240 48 28 7d be 15 d8 54 be 83 ff bc bd 7d 9d 27 be
       -0.24722397 -0.20785554 -0.092284225 -0.16368671
000250 85 22 2e be c2 c4 3e 3e 66 05 06 be f3 48 94 3e
       -0.17005356 0.18629745 -0.13087997 0.28961906
000260 81 bf 75 3d 23 9c 36 be 0f 55 2e be d6 e5 41 be
       0.059997085 -0.17832999 -0.17024635 -0.18935332
000270 e3 87 2f bd d0 53 68 3e 5f cb 53 3d cb fd 63 be
       -0.0428542 0.22688222 0.05170762 -0.22264783
000280 97 dc fc bc 9a 26 ff 3d 33 de e0 3e 62 f4 11 be
       -0.030866904 0.124585345 0.43919525 -0.14253381
000290 82 e4 57 3d 21 e0 3d 3e f4 04 60 be e8 30 84 3e
       0.052708156 0.1854253 -0.2187689 0.25818563
0002a0 bf 60 9c 3e 36 c4 ed bd be 6f d2 3d fe ca 82 be
       0.3054256 -0.1160969 0.102752194 -0.25545496
0002b0 c9 0b 88 be 5e 9e a0 3e 94 0d 8b bd 83 8e 8f bc
       -0.2657149 0.31370825 -0.06789699 -0.01752401
0002c0 82 a2 92 be f5 a5 49 3e 56 64 47 3c 49 f8 c2 be
       -0.2863961 0.19692214 0.012169918 -0.38080052
0002d0 7f 41 9e be 52 ce e4 3d ac 8f ae 3d 5d 53 a0 3e
       -0.30909345 0.11172165 0.08523497 0.313136
0002e0 85 db 2a 3e 60 29 ae be 1a 49 82 be a3 22 38 be
       0.16685303 -0.34015942 -0.25446397 -0.17981963
0002f0 b9 3c 98 3e da 67 51 3d 15 04 64 be b1 ee 84 be
       0.29733828 0.05112443 -0.22267182 -0.25963357
000300 09 c7 06 3e bf aa ca bd fc bd 69 be 8e 4c 44 3e
       0.13161863 -0.098958485 -0.2282638 0.19169828
000310 2e 52 3d 3d b3 64 38 be ab f9 eb 3d 37 73 ae be
       0.04622095 -0.18007164 0.1152223 -0.34072277
000320 91 c7 85 be 08 54 dd 3d de af 96 be 78 07 e2 3b
       -0.2612882 0.10807043 -0.2943105 0.006897863
000330 80 c1 32 3e 22 f6 67 be d8 8b c1 3e eb b7 4c 3e
       0.17456627 -0.22652486 0.37802005 0.19992034
000340 d0 fc 0f 3e 95 87 19 be 34 cc cf bd 06 bc 45 3e
       0.14061284 -0.14993127 -0.101463705 0.19310006
000350 7e 6d db 3d 69 7f a1 be 21 ee 70 3c 08 83 3e be
       0.10714243 -0.3154252 0.014705212 -0.18604672
000360 b2 2b c5 bd 03 af 09 3d da bf 1d 3b 17 f2 56 3e
       -0.09627475 0.03361417 0.0024070651 0.20990787
000370 e9 a0 25 be f4 07 ca bc fc 7c 8a 3e aa 5c 13 3d
       -0.16174664 -0.024661995 0.2704848 0.035977043
000380 c8 5b 41 be 7c 32 47 3e 29 92 a0 3e 3f ef 92 be
       -0.18882668 0.19452852 0.3136151 -0.28698155
000390 72 2e 13 be 76 01 43 3e aa d2 46 be 8a 50 48 3e
       -0.14373186 0.19043526 -0.194163 0.19561973
0003a0 47 62 8f 3e f7 b5 33 be 5c 42 9f 3d b9 62 c2 3c
       0.28004667 -0.17549883 0.07776329 0.023728715
0003b0 67 82 76 be e9 bc 60 bd d8 0c f8 bd 2f 31 b8 bc
       -0.24073182 -0.05486766 -0.12111825 -0.02248439
0003c0 01 74 70 be 0b 20 1f 3e 6b c5 ce bd 00 b3 8f be
       -0.23481752 0.15539567 -0.10096248 -0.28066254
0003d0 42 d6 6f be 75 7f 1e 3e 36 cc 80 3d 55 cc 27 3e
       -0.23421577 0.15478308 0.0628895 0.1638654
0003e0 f5 18 e9 3d 5c b9 12 be fd 6e 62 be f3 87 23 bc
       0.11381713 -0.14328521 -0.22112651 -0.009981143
0003f0 01 99 99 3d 34 8e 51 bd 83 3f 3c be 1d a9 86 be
       0.07499886 -0.051161006 -0.18383603 -0.26300898

arith.constant2 f4 [32, 32]
000000 73 90 3b 3e 8f 34 2a be 8b 5b 17 bd 8a f2 4b 3d
       0.18316822 -0.16621612 -0.036952537 0.04979185
000010 23 b7 17 bd 2f cd 26 3d ab 09 a7 3e bb 43 36 be
       -0.037039887 0.040723022 0.32624564 -0.17799275
000020 35 75 6a 3d b4 2c 64 3e 58 c7 81 be a6 84 f4 3c
       0.057240684 0.22282678 -0.253474 0.029848408
000030 68 1f 80 3b 30 ae 4d 3c 0d 00 a3 3e ff 12 79 3e
       0.003909994 0.012553737 0.31835976 0.24323653
000040 3a cd 39 bd ca e7 1e be 86 c9 ed 3d 3f 67 09 3e
       -0.045361735 -0.15518108 0.11610703 0.13418292
000050 2b d5 e3 3d 57 fc 09 3d 46 3e 67 be 51 55 97 be
       0.11124643 0.033687916 -0.22582349 -0.2955728
000060 1a 06 86 3d 49 1b 7b 3e 97 65 38 3d 63 2b b6 3d
       0.065441325 0.24522127 0.04501876 0.08894994
000070 38 0e 72 bd ab 29 72 3b 6f e4 b0 bd fe 5e 3c 3e
       -0.05909559 0.0036951106 -0.0863732 0.18395612
000080 e1 f2 16 bd b6 4a e4 bd 08 4e 60 be 85 20 21 3e
       -0.03685272 -0.111470625 -0.21904767 0.15735061
000090 ff e6 1e 3e 6d 34 52 be f7 d7 10 3e c2 94 bb bc
       0.15517806 -0.20527811 0.14144884 -0.022898082
0000a0 5d 03 88 be 6b de f9 3d 2c b7 b9 3c e0 95 94 3d
       -0.26565066 0.12200626 0.022670351 0.07255149
0000b0 38 96 21 bc 35 31 2d be 34 29 93 3e 15 b9 e6 3d
       -0.009862475 -0.16913302 0.28742373 0.1126577
0000c0 49 27 10 3d ed 52 30 be c0 03 6b be c6 b0 5b bd
       0.035193715 -0.17219134 -0.2295065 -0.05363538
0000d0 0e 5f 3e 3e 95 66 a6 3d 3d c4 30 bc 40 bb aa be
       0.18590948 0.08125035 -0.010788974 -0.33345985
0000e0 36 db 80 be f1 4f 71 bc 89 02 08 3e 0a ec 73 3e
       -0.25167245 -0.014728532 0.13282217 0.2382051
0000f0 1c 6e 1e be 03 25 05 bc 7a 5e 90 3e 8e f3 58 3d
       -0.15471691 -0.0081265 0.2819708 0.052966647
000100 d6 58 19 bd 25 4f 85 3e c3 01 7c 3c d1 ed 6f be
       -0.037438236 0.26036945 0.015381279 -0.23430564
000110 95 1a d4 bd 3c eb f3 3d 76 48 65 3e 60 cf ff bd
       -0.103566326 0.11910102 0.22390923 -0.124907255
000120 c5 46 54 3e f0 73 71 3e b7 d7 56 3e 6b 88 61 be
       0.20730121 0.23579383 0.20980726 -0.22024696
000130 27 1b 9a be a7 73 81 3e b9 19 a3 bd 21 8a 7e bd
       -0.3009884 0.25283548 -0.079638906 -0.06214345
000140 10 73 2f be b8 3e 7a 3d 78 8c 4a bc 94 0a 86 bc
       -0.17133737 0.06109497 -0.012362592 -0.016362466
000150 49 74 f7 bd aa 11 35 3e 1c 25 ab bd a0 78 96 bd
       -0.120827265 0.1768252 -0.083566874 -0.07347226
000160 20 2f cc bd ca 0d 12 3e d9 76 50 bd 53 e5 dc bc
       -0.09969926 0.14263073 -0.050894592 -0.026964819
000170 c4 79 bc 3d 3c d5 4d 3d 19 27 df bc 25 5c 8c 3d
       0.092029124 0.050252184 -0.027240323 0.06853513
000180 eb 33 99 bd f4 83 86 bd e9 d1 ed bd 68 6f 4d bd
       -0.07480606 -0.06568137 -0.11612303 -0.050155073
000190 95 47 4c 3e b7 71 b4 bd 6d ff 73 bd 9a a6 68 bd
       0.19949181 -0.08810752 -0.059569765 -0.05679951
0001a0 b6 da 33 be 17 b9 7e bc e2 f0 2d be c7 93 78 3d
       -0.175639 -0.015547059 -0.16986421 0.060687806
0001b0 29 ab b5 3c 38 9f ff bb e0 84 ea 3d 8a ed 01 3e
       0.022176342 -0.007800963 0.11451125 0.1268827
0001c0 02 b7 4d 3e d3 7c 0d be c4 a7 fa bd 4d 25 17 3e
       0.20089343 -0.13817148 -0.1223903 0.14760323
0001d0 02 0c 57 3e 36 45 81 be 92 2d a8 bd ab c0 de bd
       0.21000674 -0.25248116 -0.08211817 -0.10876592
0001e0 cf ab e8 bd fd fc 55 3d bb 48 43 3e 88 90 1d 3e
       -0.11360895 0.05224322 0.19070713 0.15387166
0001f0 69 49 12 be 6f 96 20 3e 04 5b 56 3e 7d 70 9b be
       -0.14285816 0.15682386 0.20933157 -0.3035926
000200 b0 ed 56 3e 9d 2b 4d be 17 55 bb 3c 7d a3 9d be
       0.20989108 -0.20036168 0.022867722 -0.30788794
000210 c8 d0 65 bd e9 61 d5 bd d5 4f 74 be 67 59 fd 3d
       -0.056107312 -0.104190655 -0.23858579 0.12370568
000220 17 cb b5 3d 55 34 d3 bc 5a 64 fa 3d b8 fc 8a 3d
       0.08876627 -0.02578179 0.12226172 0.067864835
000230 75 5f 6b 3d d6 55 69 bc 04 74 82 bd 79 8e 2f 3d
       0.05746408 -0.014241656 -0.063697845 0.042860482
000240 86 70 3a be c1 36 d9 bc 56 7f d2 3d 9f 35 c7 bd
       -0.18206987 -0.026515367 0.10278194 -0.09727024
000250 f8 ae 48 be fe fc 81 bd 2c 9d 80 3d 1c 43 76 3e
       -0.19597995 -0.063470826 0.06279978 0.24049038
000260 bc 59 1a 3d de a4 d6 bd 1a f1 4f be f4 bb 8b 3c
       0.037683234 -0.10480665 -0.20306817 0.017057396
000270 eb fc 66 3e 8a e2 7d bd c7 90 45 be 4c d4 a6 bc
       0.22557418 -0.061983623 -0.1929351 -0.020364903
000280 92 81 74 be 8a fa f2 3d 82 f0 3b be a9 7f c7 3d
       -0.23877552 0.11864193 -0.18353465 0.09741146
000290 ae 50 77 3e 36 6e 0b be b7 e9 54 3e b2 71 dd bd
       0.2415187 -0.13616261 0.2079228 -0.10812701
0002a0 01 e6 b1 3d 2b 56 cf bc 38 cd 73 bd b0 6e 46 bd
       0.08686448 -0.025309643 -0.059521884 -0.048445404
0002b0 92 f5 0f bd 7f f6 8f 3d e8 83 8b 3d 85 19 0d be
       -0.035146303 0.07029437 0.068122685 -0.13779266
0002c0 ab a4 24 be 91 22 97 bc 54 8a d2 bd ce 74 14 be
       -0.16078441 -0.0184491 -0.1028029 -0.14497682
0002d0 d8 2d 69 3d 9c c7 8c 3d af 6e c5 bd b6 80 0c be
       0.056928486 0.0687401 -0.09640252 -0.13720974
0002e0 12 f8 d6 bd 6d af 83 3e c0 f1 0a 3e c7 fd b9 3c
       -0.104965344 0.25719777 0.13568783 0.022704018
0002f0 5d c4 af 3c 19 6b 31 be 19 36 3a 3e f9 80 44 3c
       0.021455938 -0.17326011 0.18184699 0.01199364
000300 af 03 52 bc 66 5c 20 3e 6a 6b 29 be 85 53 44 3e
       -0.012818261 0.15660247 -0.16544881 0.19172485
000310 53 31 23 3d 14 5d 55 3e dd 4b 6a 3d 93 51 40 be
       0.03984196 0.20836288 0.057201255 -0.18781118
000320 11 b0 09 be 1d a4 ec bc 90 75 12 be 88 3c 47 3e
       -0.1344607 -0.028886849 -0.14302659 0.19456685
000330 1d 3c 42 be 4e ee 96 bd 76 07 9a bc 1d 23 8a bd
       -0.18968244 -0.07369672 -0.018802386 -0.067449786
000340 9b 8b 9a 3d 9d 4e 1e 3e 3a 1b fb bd 08 c0 45 3d
       0.07546159 0.15459676 -0.122610524 0.04827884
000350 46 7c 00 3d 1a c1 88 bd f1 d3 56 bd d1 55 0e be
       0.031368516 -0.06677456 -0.052448217 -0.13899924
000360 c0 7d cf bd 90 e8 9a 3d 77 30 9e 3e 3f 82 84 bd
       -0.10131407 0.07563889 0.3089635 -0.06470155
000370 96 08 d3 3d 1c e2 d6 3c 33 e3 91 3d 95 dd de 3d
       0.10304372 0.026230864 0.07123413 0.10882107
000380 73 19 d5 bd d9 7f 54 3e 1d ca d2 bd 61 ad 9b 3c
       -0.10405245 0.20751895 -0.10292456 0.019003572
000390 db b4 4e 3c a2 e1 f1 3d 45 9f ff 3d 23 cb 77 3d
       0.0126163615 0.11810614 0.1248155 0.06049646
0003a0 33 9c 97 3d 06 67 ee bd 1a 4c 1e be 68 ef ce 3d
       0.074028395 -0.11640744 -0.15458718 0.10104257
0003b0 02 8e ec bd 78 b7 2d 3e 7f fb e3 bd b2 9d e8 bd
       -0.11550523 0.16964519 -0.111319534 -0.11358203
0003c0 39 69 4b be cb 39 14 3e 1b ab 29 3c f4 3d 67 be
       -0.19864358 0.14475171 0.010355736 -0.22582227
0003d0 f3 c5 1b be 47 7c 5b 3e d2 02 62 bd 2a 6b 93 3d
       -0.1521223 0.21434127 -0.05517847 0.07198174
0003e0 fb d1 27 3e b2 0f b4 3c d0 1c 44 3e fd 6f e8 bb
       0.16388695 0.02198014 0.19151616 -0.007093428
0003f0 9d 2e 21 3e 4c 2c 48 be fa 01 87 bc 56 b6 32 be
       0.15740438 -0.19548148 -0.016480435 -0.17452368

arith.constant3 f4 [32, 32]
000000 2a 12 a5 3d 38 06 45 bb 83 03 45 3e 5f f7 72 be
       0.08060105 -0.003006352 0.19239621 -0.23727177
000010 bc 0c 65 be b5 13 a0 3c 8c 5f 7a 3e 7e a4 64 3e
       -0.22368139 0.019540647 0.2445051 0.22328374
000020 30 d6 e3 3d c7 00 24 3e ee 4f 6e 3b a1 55 eb bc
       0.111248374 0.16015922 0.003636356 -0.028727354
000030 0e 20 1e be c2 ea ca 3c 74 de 16 3e 3d 6c 21 3c
       -0.15441915 0.024770144 0.14733297 0.009852466
000040 b6 af 9e 3c 37 56 cf bd 64 79 ca 3d e9 2b 14 3e
       0.019370895 -0.10123866 0.09886435 0.14469875
000050 72 bb 99 3b 1e c2 fb 3c fb b2 22 be 72 70 91 be
       0.0046915347 0.03073221 -0.15888588 -0.284061
000060 fa 76 df 3d 03 84 99 3e ed 27 e6 bd 3e 2d 90 bb
       0.10911365 0.2998353 -0.11238084 -0.0043999245
000070 84 df 77 be 88 61 1a 3c ce 25 f2 3d f9 ef ee 3d
       -0.24206358 0.009422667 0.11823617 0.11666865
000080 8a 13 7c 3c 2f 0c 1f 3e 85 d5 a1 3e 13 2b d9 bd
       0.015385518 0.15531991 0.31608215 -0.10603919
000090 0c f6 4c 3c bf 8d 7f 3e 25 f0 b3 3c 68 ff 94 bb
       0.012509834 0.24956416 0.021965096 -0.0045470484
0000a0 8c 52 2b 3e 40 e5 d8 3d 9d 37 0c 3e 64 cd a1 bd
       0.16730708 0.10590601 0.1369309 -0.07900503
0000b0 4d 1d 1a be 57 3f 28 3e 11 86 e3 bd 6c 58 53 be
       -0.1505024 0.16430412 -0.111095555 -0.20639199
0000c0 0a 98 43 be 12 0b f4 3c fd 20 5e 3d c3 50 b1 be
       -0.19100967 0.029790435 0.05423068 -0.3463193
0000d0 3c e3 8e bc ea e9 5f 3c 00 13 1e 3d 1d ed 09 bd
       -0.017442338 0.013666609 0.03859234 -0.033673394
0000e0 ea 04 4e 3e 34 61 07 3e fc 66 dc bc b8 32 06 be
       0.20119062 0.13220674 -0.026904576 -0.13105285
0000f0 f3 b2 49 3e 07 c3 3b be f2 69 5f bd 50 55 79 3e
       0.1969717 -0.18336116 -0.054544397 0.2434895
000100 b2 de 09 bd 51 c5 e2 bd 11 95 8a bc 6b 71 28 be
       -0.033659644 -0.11072791 -0.016916784 -0.16449516
000110 3e c1 26 bd 86 73 92 be 08 b8 e6 bc 74 3e 40 bd
       -0.040711634 -0.28603762 -0.028163925 -0.04693456
000120 49 c5 e1 bc 56 3d 6c 3e bd 6f c1 bd cd 7f d9 3d
       -0.027559893 0.23070273 -0.094451405 0.10620079
000130 6d 30 9d 3d 47 12 01 be 21 3e 31 3e 4a 50 9d 3e
       0.07675252 -0.12604629 0.17308857 0.30725318
000140 1b 07 57 3e 3e fc 93 be bb 87 2a be 39 16 e4 3d
       0.20998804 -0.28903383 -0.1665334 0.11137051
000150 24 10 5c be fe f0 0f be 40 5f 36 3d e9 8b c1 bd
       -0.21490532 -0.14056775 0.04452443 -0.09450514
000160 27 12 e0 3b 56 8d 03 be 02 00 99 be 4a 69 69 3e
       0.0068381014 -0.12846884 -0.29882818 0.22794071
000170 84 ce 51 be 4e ae d4 3e a2 d1 15 3e 35 be 62 3e
       -0.20488936 0.41539234 0.1463075 0.2214287
000180 da 09 01 be e7 54 b1 3c 10 60 f0 3d fc 4a fa bd
       -0.12601414 0.02164693 0.117370725 -0.122213334
000190 b0 93 73 bb e4 da fa bd 4d 0b f5 be 9b 8f 36 3d
       -0.0037166886 -0.12248781 -0.47860184 0.044570547
0001a0 65 7b 47 be 07 c9 fa bc 42 eb 60 3d 17 e8 f4 3d
       -0.19480665 -0.030613435 0.05491186 0.1195833
0001b0 f2 8f ef 3d 3d 43 9b bd 45 c2 0a 3e 10 71 e9 bc
       0.11697377 -0.07581184 0.1355067 -0.028496295
0001c0 04 62 27 3d 9a c1 4f 3b 68 f0 79 3d aa 71 bf 3d
       0.04086496 0.003170109 0.061020285 0.093478516
0001d0 f7 0d 17 3e fa 1b 0a 3e 6f e4 1c 3d 44 35 f3 3c
       0.14751421 0.13487235 0.03830379 0.029688485
0001e0 f7 0b 8e 3d a9 60 ca be 05 2d a6 bd c7 40 93 3d
       0.06935876 -0.3952687 -0.081140555 0.0719009
0001f0 1e cc ea bd 61 a8 94 3e 91 7e c2 bb 56 59 8a be
       -0.114647135 0.29034713 -0.005935498 -0.27021283
000200 5f 14 52 3e 7a f1 15 bd 59 6a 14 3e 4f 38 b4 bd
       0.20515583 -0.036607243 0.14493693 -0.087998025
000210 a4 be 84 3d bd 45 b8 3d d1 dc b3 3e a0 48 60 3e
       0.06481674 0.089976765 0.35129407 0.21902704
000220 52 79 08 3e c5 36 41 3e 81 34 c4 3d e8 cf 01 bd
       0.1332753 0.18868549 0.09580327 -0.031692415
000230 26 ad c5 3d 09 2f 7b bd 89 8a 12 3d e2 b2 11 bc
       0.09652166 -0.061324153 0.03577665 -0.008892747
000240 79 00 f8 bd 50 0c a5 bc 11 19 cd 3d 2b 3f 0a 3d
       -0.12109465 -0.020147473 0.10014547 0.033751648
000250 14 0c 3f be 5d 8b 3b be 87 dd 74 3d 31 6b 0b be
       -0.18656951 -0.18314882 0.059781577 -0.13615109
000260 34 44 c5 bd db 68 a7 3e 7a a8 df 3c a6 af d0 3c
       -0.09632149 0.32697186 0.027302016 0.02547438
000270 f1 34 5e bd 8a e6 44 3e cd 5b 50 3d e8 b8 90 3e
       -0.054249708 0.19228569 0.050868798 0.28266072
000280 0d ce 64 be 97 59 78 bb df dc c5 3d ab 66 b5 bd
       -0.22344227 -0.0037895197 0.096612684 -0.08857473
000290 f4 dc 81 bd 91 20 24 bd 51 ac f5 bd 3b 7c a4 be
       -0.063409716 -0.04007012 -0.11995757 -0.3212603
0002a0 1a 62 c6 3d e0 a1 41 be 18 88 16 3d ff 0a a6 bd
       0.0968668 -0.18909407 0.036750883 -0.08107566
0002b0 90 b4 bc bc 07 07 53 3b c2 6e 2e be a3 f4 73 3c
       -0.023035318 0.0032200234 -0.17034438 0.014889869
0002c0 a2 49 df 3c 3c c3 19 be ab 1b 11 be b1 9b 0a be
       0.02725679 -0.15015882 -0.1417071 -0.13535954
0002d0 23 c7 4b bd 39 43 18 3e 9d 06 ca 3d 95 df d8 3d
       -0.04975046 0.14869393 0.09864543 0.1058952
0002e0 45 3a da bd 3c 97 8b 3d 12 f0 02 be f0 e1 21 bd
       -0.10655645 0.06815955 -0.12786892 -0.03952211
0002f0 cd 46 5f 3c 6c a9 8b 3e 7b d6 d7 bd 0b d8 da bc
       0.01362772 0.27277696 -0.10538956 -0.026714345
000300 92 d5 d9 bd 61 e3 63 be 1f 10 7e bc 9f 08 0e be
       -0.106364384 -0.22254707 -0.015506773 -0.13870476
000310 66 1e 13 3e 4e d2 1f be 28 d1 69 bd 2c d6 87 bd
       0.14367065 -0.15607569 -0.057084233 -0.06632647
000320 cf 4f 47 be 4b 1d 94 3c bc 15 90 be 39 9c 2b 3e
       -0.19464038 0.018080374 -0.28141582 0.16758813
000330 36 e4 ad 3d 94 2f 86 be f1 7b da 3d c2 ce 73 3e
       0.084907934 -0.26208174 0.10668171 0.2380934
000340 da 57 5a 3d 9e 1a 80 be 27 c9 2e bc 39 e9 20 3e
       0.053306438 -0.25020307 -0.010668076 0.15713967
000350 7a b6 d2 3d 35 8c 58 be d8 15 5b be cd ad 04 bd
       0.10288711 -0.21147235 -0.21395051 -0.03239231
000360 4d a9 b9 bd bf 81 aa be db d2 24 be 77 48 42 3e
       -0.09065495 -0.33302113 -0.1609606 0.18972956
000370 89 5c 81 be 9a b3 84 3e 67 dc dd 3d 44 58 99 3c
       -0.2526591 0.25918275 0.10833054 0.018718846
000380 03 80 9d 3b 24 cb bc 3c 94 74 2a bd 7d 31 05 3c
       0.00480652 0.023046084 -0.041615084 0.008129475
000390 38 0e 0b 3e c0 25 f0 bd e1 d5 48 3b 25 d3 4b 3c
       0.13579643 -0.1172595 0.003064506 0.0124404775
0003a0 fe 88 a1 3a da 69 5c be 2d 43 03 3c b4 c1 83 3d
       0.0012324152 -0.21524754 0.008011621 0.0643343
0003b0 0b 44 92 3d d9 22 8d 3d d9 49 5b bc ae 27 81 3c
       0.071418844 0.06891412 -0.013384306 0.015765991
0003c0 ee e9 a9 3d 7e 7b 52 bd b6 46 73 bc b6 c7 8a 3d
       0.08296572 -0.051387303 -0.014848402 0.06776373
0003d0 7e 2e 37 3b 12 c7 f9 bd 74 c5 6a 3d 44 e0 ad bd
       0.0027951295 -0.12196173 0.057317212 -0.08490041
0003e0 67 0b da bd de cd 83 be ac 27 9e be a9 18 2e 3b
       -0.10646706 -0.25743002 -0.30889642 0.0026564992
0003f0 4d c1 2e bd 0f c5 84 3d e5 2e 4c bd 09 ce 99 be
       -0.042664815 0.064828984 -0.04984941 -0.30040005

arith.constant4 f4 [32]
000000 83 f0 3e 3e bb c8 00 3e 0a fc 0e 3e 8f 6e d4 bd
       0.18646435 0.12576573 0.13963333 -0.1037265
000010 3d ad fb 3c 81 c4 66 be d4 fd 0a be 76 59 2e be
       0.030722255 -0.22535898 -0.1357339 -0.17026314
000020 51 02 26 be 77 34 4c bd c8 cb 9d 3c 73 47 9e be
       -0.16211821 -0.049854722 0.01926221 -0.30913886
000030 c8 8b fa bd 5a ed 47 be 07 5d 1f bd 95 61 51 be
       -0.122336924 -0.19524136 -0.038907077 -0.20447381
000040 22 ec 78 be e7 2e 9f be 87 6a 47 3e 78 3a 26 be
       -0.24308828 -0.3109047 0.1947423 -0.16233242
000050 d1 aa 75 bd 50 6c 2f be 21 57 69 be 1f eb 87 3e
       -0.059977356 -0.17131162 -0.22787143 0.2654657
000060 f9 65 3c 3d ec 8b d3 bd b3 ef 18 be 8d 7f 07 bd
       0.045995686 -0.10329422 -0.14935188 -0.033080626
000070 a4 9f e5 bd 66 53 43 be f0 1a 4b 3e 3e 28 5a be
       -0.1121209 -0.19074783 0.19834495 -0.21304414

arith.constant5 f4 [32]
000000 d7 96 57 3f a5 c0 6f 3f a4 5a 43 3f fe 4e 61 3f
       0.8421454 0.9365333 0.7631018 0.8801116
000010 36 cf 30 3f 3b 80 74 3f e2 15 78 3f f1 68 73 3f
       0.6906618 0.95508164 0.9690839 0.95082
000020 e7 eb 70 3f 78 b6 78 3f 63 d3 1b 3f 53 55 7f 3f
       0.9410996 0.97153425 0.60869426 0.9973957
000030 e7 6b 63 3f 06 58 81 3f b9 e3 7f 3f fd 0b 7b 3f
       0.8883652 1.0104988 0.9995685 0.9806517
000040 d9 7d 76 3f f7 a7 74 3f 79 91 46 3f af fd 66 3f
       0.9628578 0.95568794 0.77565724 0.9023084
000050 92 1e 48 3f 22 24 63 3f 0c 92 0c 3f cf fa 58 3f
       0.78171647 0.8872701 0.5491035 0.84757704
000060 7d 4b 69 3f 97 33 7f 3f a5 2f 2d 3f 56 05 75 3f
       0.9113081 0.99688095 0.67650825 0.95711267
000070 9a e6 74 3f 54 9c 3e 3f 9a b4 72 3f aa 0b 71 3f
       0.9566437 0.7445729 0.94806826 0.9415842

arith.constant6 f4 [32]
000000 43 6a eb bd 52 1a 69 be 0e 4c 9f be 05 8a 5e 3e
       -0.11494877 -0.22763947 -0.31112713 0.21732338
000010 6f a4 ea 3d de 63 1d be f1 ce 83 bc 0e b6 6e bd
       0.114571445 -0.15370128 -0.016089888 -0.05827909
000020 ca 81 18 be e8 61 f9 bd 8a dd 1c be 32 df ed 3d
       -0.1489326 -0.12176877 -0.15318885 0.11614837
000030 37 9b 24 3e 28 c9 5d be 6c 47 84 3d ab 60 f8 3d
       0.16074835 -0.21658766 0.06458935 0.12127813
000040 62 50 22 3e c5 b1 82 bd ee ca 07 be 66 bb 0b 3e
       0.15850976 -0.06381563 -0.13261005 0.13645706
000050 cc 97 21 3e de bb 11 be ca 47 36 38 d4 f4 07 be
       0.15780562 -0.14231822 4.345904e-05 -0.13276988
000060 58 73 2b be 0d e6 53 bd 05 d2 8d 3e 73 fb 16 3e
       -0.16743219 -0.051733065 0.27699295 0.14744358
000070 a6 bc bb bd 25 8f de 3d ac 3f 48 3e 98 43 3c 3e
       -0.09166841 0.108671464 0.19555539 0.1838516

arith.constant7 f4 [32]
000000 5b ee ee 3d bb 7d 61 3e d1 c8 6c bd 40 7f 8b be
       0.116665564 0.22020619 -0.0578087 -0.27245522
000010 6b cb 43 3d 6d ad 5a 3c eb 16 28 be 04 57 a4 bd
       0.047801416 0.013347012 -0.16414993 -0.080244094
000020 62 57 06 bd bb 30 00 be 21 87 d6 3b 22 67 9a be
       -0.03279818 -0.12518589 0.0065468703 -0.3015681
000030 ef f2 a4 3d 4e f3 6e bd 51 f3 5e 3d 29 28 92 3b
       0.080541484 -0.058337502 0.054431263 0.004460354
000040 80 c1 85 bd e9 f8 cc bd 2d 6c 13 3e 62 46 de bb
       -0.06531048 -0.10008413 0.14396735 -0.0067832926
000050 38 b2 f4 bd 40 f1 bf 3d b1 2c 85 be 12 87 7b 3e
       -0.11948055 0.09372187 -0.2601066 0.24563244
000060 64 1b c7 3d bf 1b 08 be 58 1c 75 be b8 b2 e0 3d
       0.09722021 -0.13291834 -0.23936594 0.10971588
000070 84 c1 8d 3d c2 6b 56 be c0 cb 4d 3e fe 80 aa be
       0.06921676 -0.20939544 0.20097256 -0.33301538

arith.constant8 f4 [32, 64]
000000 2d c0 82 3c de 80 84 bb 33 fb 99 3c 2f 16 00 bb
       0.015960777 -0.0040436825 0.018796539 -0.0019544472
000010 da f7 fa bc 66 bb 92 bc c8 68 19 bc 77 26 d4 bc
       -0.030635763 -0.017911624 -0.009363361 -0.025897248
000020 5b 02 47 bc cc a6 c9 bb a6 b6 b9 3b b2 75 ac bc
       -0.012146558 -0.006153917 0.0056675253 -0.021052215
000030 27 51 b6 3a 5f a6 1f 3c 43 a4 b0 3b 6d 98 84 3c
       0.0013909683 0.009744256 0.0053906753 0.016185964
000040 da 9b 02 3c eb 05 cc 3b 25 64 45 bc 61 db 27 bc
       0.007971728 0.0062262914 -0.012047802 -0.010245175
000050 cd 0c a7 bc cd a6 46 3a fb 2b 34 bc ff f1 42 bd
       -0.020391846 0.0007577956 -0.010996814 -0.047594067
000060 30 a0 1d 3d 20 1a 24 bc f8 7e 59 bb f4 de 46 bc
       0.038482845 -0.010015994 -0.0033187252 -0.012138117
000070 ea 72 09 bc 03 d0 cc 3b 87 83 0f bd f9 c2 dc bb
       -0.008389214 0.006250383 -0.035037544 -0.0067371097
000080 6a 02 5a 3b e6 85 4d 3c 4f ed 8f 3d af b5 ec 3b
       0.00332656 0.012544131 0.07027685 0.007223807
000090 28 14 7d bc 30 c6 3d 3d 6f c4 68 3c 21 a7 31 bb
       -0.0154467 0.046331584 0.01420699 -0.0027107673
0000a0 6f 99 8d bc 6d 20 2f bc 7a 55 20 bb 2b b2 06 3a
       -0.017285077 -0.010688883 -0.002446501 0.00051382434
0000b0 1a f0 ef 3b 89 45 7c bb 42 2d 99 bc 8a f1 e1 3c
       0.0073223235 -0.0038493595 -0.018698338 0.027580995
0000c0 93 f3 0f 3d e3 b5 3f 3d d2 52 4e 3d 5e 0d 26 bd
       0.0351444 0.04680432 0.050371952 -0.04054009
0000d0 e0 de 7f 3b b5 84 ee 3c d3 01 a7 3c 51 65 a4 bc
       0.0039042756 0.029116014 0.020386612 -0.020067843
0000e0 24 61 dc 3c da ae 8b 3b 0c 65 1d bd 4b 24 76 bd
       0.026901789 0.0042627873 -0.038426444 -0.060093205
0000f0 f3 d8 49 3b 05 4b 96 3a a8 4a 07 bc e3 0d 5d bc
       0.0030799478 0.0011466449 -0.0082575455 -0.01349208
000100 a9 c4 da 3c 9b 4c 1a 3c 55 59 49 3d 90 16 ec bc
       0.026705103 0.009417678 0.04915746 -0.028819352
000110 6d 87 f8 bd 8c 42 c1 bd b2 cb ca bc d7 b5 9c bd
       -0.121352054 -0.09436521 -0.024755333 -0.07651871
000120 0a 35 45 bd 34 4e 62 bb a2 bc 1a 3d f4 db b7 bd
       -0.048146285 -0.0034531476 0.03777755 -0.089774996
000130 e0 c7 2f ba 1a 7b 3f 3d a9 a3 61 3c f8 69 35 3d
       -0.0006705504 0.04674826 0.01377193 0.044290513
000140 93 ea 04 bc 82 78 73 3c 43 00 ae bd b9 f0 a7 bd
       -0.0081125675 0.014860274 -0.08496144 -0.08200211
000150 98 d0 1c bd af a3 82 3c d2 0d 52 3d 31 1d 0f be
       -0.038284868 0.015947191 0.05128271 -0.1397598
000160 67 bb 0b 3d 1b af 12 3d ca b0 69 3b 67 1b 32 bd
       0.034114268 0.035811525 0.0035658353 -0.043483164
000170 9d 26 92 bc 0f 4d 8c 3d fd a1 a7 bc 38 65 ea bc
       -0.017840678 0.06850635 -0.020462984 -0.028612718
000180 bb 6f 47 3d 3b 93 34 3d 98 4a b1 3d 62 1a f5 ba
       0.04869054 0.044085722 0.08656806 -0.0018699879
000190 1c e1 c6 bd bb 14 e3 3d 2a d7 8d 3d ee 68 5b 3d
       -0.09710905 0.110879384 0.06925805 0.053566866
0001a0 f6 3e 27 bc 01 99 3a bc 3d b5 bf 3c 56 8f 06 3d
       -0.010207882 -0.011389018 0.02340185 0.03285154
0001b0 4b e2 84 3c dc a5 fa bb e3 72 b0 bb 6f 72 44 3c
       0.016221186 -0.0076491665 -0.0053847893 0.011990174
0001c0 93 b2 93 3d 47 f3 c9 3d 44 7f 07 3d 16 aa cd bd
       0.07211795 0.098608546 0.033080354 -0.10042207
0001d0 b7 b5 e9 3d e2 10 00 3d 61 75 f4 3d 3e e0 e5 bc
       0.114116125 0.0312661 0.11936451 -0.028061029
0001e0 18 d2 33 3d a8 07 39 bd b9 b0 31 bd a1 d5 42 bd
       0.043901533 -0.045173317 -0.043381426 -0.047567014
0001f0 1e 9a b1 3c 8c 3f 14 be c7 26 01 bd 6e bd ba 3c
       0.021679934 -0.14477366 -0.03153112 0.022795405
000200 3a 29 c0 3c f3 32 c1 3b 3d 8f 2d 3c ff 4f 39 3c
       0.023457158 0.005895966 0.010593233 0.011310576
000210 a9 a9 ea ba e7 06 56 bc 43 9d 9e ba fa 4f 9c bc
       -0.0017903346 -0.013063169 -0.0012101311 -0.019081105
000220 b4 46 96 bb e1 3b 78 bc cd ed 77 bc 2d 92 a0 bc
       -0.004586065 -0.015150995 -0.01513238 -0.019600952
000230 61 55 2b bc e5 00 38 3c 5f 73 f5 bb 28 5d 02 bb
       -0.010457368 0.011230682 -0.00749056 -0.0019891951
000240 ea f0 6a 39 01 42 3b bb 89 ee cd bb 3e 9a d7 bb
       0.00022405726 -0.0028573277 -0.006284539 -0.0065796664
000250 3e 9e 2f bc 60 8b 19 bc 97 f9 89 bb b6 91 c7 bc
       -0.01071888 -0.0093716085 -0.0042106616 -0.024361473
000260 e6 d1 09 3b fd 3e 05 ba 28 69 39 3a 7a a2 cf bb
       0.002102965 -0.00050829333 0.00070728594 -0.0063365074
000270 29 8a e7 bb 1b 75 43 3c f2 6f 70 bc 57 f9 37 3b
       -0.0070660305 0.011929776 -0.014675127 0.0028072202
000280 35 df cf b9 66 fd 3d 3b 5c 71 65 3c ad 60 bb 3c
       -0.0003964842 0.0028990149 0.014004078 0.022873247
000290 73 68 31 bc 2b f6 9b 3c 7e 43 d4 3a 06 97 4d b9
       -0.010828125 0.01903828 0.0016194431 -0.00019606584
0002a0 40 11 70 bb 4f db bd ba 22 a9 03 bc 8a 62 6d b9
       -0.0036631376 -0.0014484915 -0.00803593 -0.0002263879
0002b0 98 a0 75 ba 0a 8a 96 ba 33 96 6a bc 4b ec e2 ba
       -0.00093699386 -0.0011485231 -0.014318037 -0.0017312852
0002c0 41 24 b8 3b e8 c1 da 3b d3 ef 74 3c 21 50 4c bc
       0.005619556 0.0066759475 0.014949757 -0.012470276
0002d0 dc fb e0 bb 04 20 41 3c fc 46 48 3c d6 d6 c3 bc
       -0.0068659615 0.011787418 0.012223955 -0.023906153
0002e0 2e 6d 54 3c aa d5 35 b9 b7 a3 8c bb e8 7c 85 3b
       0.012965484 -0.00017341101 -0.0042919773 0.004073728
0002f0 fe a8 25 3a 59 7f bc 3b 8f 7e 84 bc b3 86 80 bb
       0.0006319432 0.0057524857 -0.01617363 -0.0039223074
000300 fd 51 11 3c ee df 22 b9 86 44 b1 ba ec d1 29 bb
       0.008869645 -0.00015532944 -0.001352445 -0.0025912477
000310 56 79 5e 3b 83 cd 14 3c 77 c1 80 bb 39 fd 9c 3a
       0.0033946834 0.009082201 -0.003929313 0.0011977322
000320 3c 5a 95 3a 05 7c ec 3b f0 c3 84 ba bb 86 da b9
       0.001139469 0.0072169327 -0.0010129195 -0.00041680582
000330 5a 8c c7 3b 4b 8b 95 3b 4e 6e 2e bc 45 02 1e bb
       0.0060897293 0.004563724 -0.010646416 -0.002411024
000340 db 8b 4a ba 53 d7 0a 3c 89 62 14 3c 36 1b b8 3c
       -0.00077265286 0.008474189 0.009056696 0.022473913
000350 65 b5 7b 3a ab 0e 8d bb ee 1d ba bc cc e9 9c 3a
       0.000960192 -0.004304727 -0.02271935 0.0011971532
000360 7d c7 0c 3b ca 90 8f bc bf 0d 99 bb 09 7e 50 3c
       0.002148121 -0.017525095 -0.004670828 0.012725362
000370 00 04 77 ba 59 21 8d bb 72 2b cc bb f3 1e 74 3a
       -0.00094228983 -0.004306954 -0.006230765 0.0009312473
000380 e7 79 4e bc 1b 44 a9 ba 07 21 ea 3b 1c d7 54 bb
       -0.012602306 -0.0012913974 0.0071450504 -0.0032476848
000390 59 00 78 3c dd ee 24 3a 51 5a a2 bc bb 6f 4d bc
       0.015136802 0.0006291697 -0.019818457 -0.012538846
0003a0 ce 9e 0a bb 70 27 1c 3c 96 af 3f ba ed b8 93 bc
       -0.0021151784 0.009530887 -0.0007312236 -0.018032515
0003b0 97 7a ef bb fa df e4 3a fa cd 65 ba f8 d5 4c 3c
       -0.007308315 0.001746177 -0.00087663496 0.012502186
0003c0 61 c8 85 bc 70 d1 8c bb 83 fb 83 bb c2 f3 02 3c
       -0.0163309 -0.004297428 -0.0040277853 0.007992687
0003d0 5a 68 ed 39 f9 cb 31 bc 0f ac a1 bb fa 3c 43 bc
       0.0004528191 -0.0108518535 -0.004933841 -0.011916393
0003e0 70 49 a4 39 63 35 66 3b f1 32 91 bb 4c 47 93 3b
       0.00031335233 0.0035127036 -0.0044311215 0.0044945832
0003f0 37 f2 3e bc 68 74 81 3b 93 53 56 3c cb d5 5a bc
       -0.011654428 0.0039506443 0.013081449 -0.013356636

arith.constant9 f4 [32, 64]
000000 c9 e5 93 bc 84 7d 46 bd b2 17 87 3c ff ad 01 3d
       -0.018053906 -0.048459545 0.016490791 0.031660076
000010 e3 34 7e bb e1 94 60 3b a2 2d 90 3a f5 1d 6d 3b
       -0.0038788847 0.0034268426 0.0010999928 0.0036181186
000020 05 52 99 bb e2 47 2c bb 87 52 38 3d f0 81 67 bc
       -0.004678967 -0.0026287963 0.04500058 -0.014130101
000030 12 9b 8a bc 05 65 1f 3c 87 3f 31 3d 5f b2 05 3d
       -0.016919646 0.009728675 0.043273475 0.03264081
000040 7a d4 13 3c b6 66 a5 3a bc 64 56 3b 46 63 8c bc
       0.009022826 0.0012619111 0.003271385 -0.017137181
000050 74 78 6d bc f5 6a b2 3d c1 5e 83 bc 52 14 eb bc
       -0.01449405 0.08711807 -0.016036393 -0.028696213
000060 bf 96 04 3d 0e dd 01 bd b0 93 07 bc 7e d9 8d bc
       0.032370325 -0.031704955 -0.008274958 -0.017315622
000070 c1 7e 0e bc fe a4 b7 bb a0 6f c6 3b d6 2d 0f bc
       -0.008697213 -0.0056043854 0.006055787 -0.0087389555
000080 8c 23 b7 bc bd 5f e1 3b 1b f2 58 3d 67 57 52 bd
       -0.022355817 0.006877868 0.052965265 -0.051352885
000090 4f 4a 51 bb 5e eb d3 ba 75 71 04 3d 8d 0d 45 bd
       -0.003193516 -0.0016168167 0.032334764 -0.048108626
0000a0 37 fb 9e bb d8 51 b2 bc 00 a0 31 3c 74 2d df b8
       -0.0048517245 -0.021767542 0.01084137 -0.00010641935
0000b0 67 8a 9f 3c 08 8e 87 bc 3e b8 81 3d c0 94 3b 3b
       0.019475175 -0.016547218 0.063339695 0.0028622597
0000c0 90 49 45 3c 11 1b b5 3c 9e 78 13 3d c6 4a e9 3b
       0.012041464 0.022107633 0.0360037 0.0071195094
0000d0 c0 9a 14 bd 6a 58 12 3d e8 9e 7c 3b 90 95 f7 3c
       -0.036280394 0.03572885 0.0038546864 0.030222684
0000e0 ca 17 27 3c 96 29 fb 3c 34 0d 58 bd 5a fc 9c bd
       0.010198543 0.030659478 -0.052746966 -0.0766532
0000f0 95 31 18 3c b2 e3 01 3e 78 04 2e bc 98 0b a1 bc
       0.009289165 0.12684515 -0.010621183 -0.019658849
000100 74 26 6e bd 12 7e 88 bc a4 d4 20 bd b3 61 84 3c
       -0.05814214 -0.016661678 -0.03926529 0.016159868
000110 db 32 2e bd 7a ff 46 3d a6 02 3c 3c 4a 56 3b 3d
       -0.04252897 0.048583485 0.011475241 0.04573659
000120 a7 a4 ef bc 0a 8b 5f 3c 57 a4 b6 3c a7 6c a5 3c
       -0.029253317 0.013643989 0.02229516 0.020193411
000130 47 32 a0 bc 23 ad 10 bd c4 c0 26 3b 97 11 58 3d
       -0.019555224 -0.035321366 0.0025444487 0.05275115
000140 4d c9 c9 bb a7 1f 01 3c 05 ce 76 3c c2 2b cc 3c
       -0.00615803 0.007881082 0.015063767 0.02492321
000150 aa 9c b7 3c b2 73 5d 3d d7 a1 01 3c c6 f5 7c 3d
       0.02241357 0.054065414 0.007912121 0.061757825
000160 4d 57 6a 3d 58 9a 46 bc f3 22 d9 bc 68 f7 aa bc
       0.057212163 -0.012121759 -0.026505923 -0.020869926
000170 8b c1 cc 3b 94 5f 40 bd 02 d3 9e 3d a6 6c 80 3c
       0.006248658 -0.04696615 0.0775509 0.015676808
000180 3e 62 c6 bc 4a 75 0e bd 55 e3 84 3c 6d 0f 50 bd
       -0.024216767 -0.034779824 0.016221682 -0.05079596
000190 91 60 4f 3d ec f2 8e bd 39 30 25 3d ad 30 c6 bc
       0.050629202 -0.069799274 0.04032919 -0.024193132
0001a0 88 64 2f 3d 32 27 03 3b 0b 19 a0 bc 26 b7 06 3d
       0.042820483 0.0020012376 -0.019543191 0.032889508
0001b0 f5 b1 e1 3a d7 e8 5e bb da ef 6c 3c f4 e8 86 bd
       0.0017219173 -0.0034013295 0.014461482 -0.06587401
0001c0 d6 39 76 bc 76 23 17 bd 0b 11 f8 3c be 74 95 3d
       -0.015028438 -0.036899053 0.030281564 0.072976574
0001d0 8c 72 35 3d e6 b6 28 bd d0 cf 82 bd 97 93 19 3d
       0.044298694 -0.04119005 -0.06387293 0.03749427
0001e0 07 27 ab 3b 0f c4 e0 3c 47 2e bf bd 86 f7 d8 bd
       0.0052231583 0.027437238 -0.093349986 -0.10594086
0001f0 57 b5 ec 3c 0a 37 bb 3d 2e b2 6c 3c b4 05 1e 3c
       0.028895063 0.09141357 0.014446778 0.009644914
000200 83 95 aa bb 2d 79 03 bc 2e 99 81 bc 2a 67 d8 3c
       -0.0052058115 -0.008024496 -0.015820112 0.02641638
000210 8a d6 6e 3d 60 21 c0 3c 02 fb 35 3c aa fe 9f 3c
       0.05831007 0.023453414 0.011107208 0.019530613
000220 65 90 4a 3c e1 b5 c4 bb b4 00 b6 3b 11 38 07 3c
       0.012363528 -0.006003127 0.005554283 0.008253113
000230 06 34 83 bc 52 6d 6f bc 4e 7a 50 3c 92 7d 13 bc
       -0.016016018 -0.014613466 0.012724472 -0.009002106
000240 06 3c fc ba be 9d 12 bb bd a3 a1 3c c1 1b a2 3c
       -0.0019243963 -0.0022371854 0.019731397 0.019788625
000250 2c c4 65 3c 17 cc cb 3c 87 96 fd bb 4e c4 1e 3d
       0.014023822 0.024877591 -0.0077388915 0.03876143
000260 0f d4 28 bc 77 a3 fd bb 66 93 66 bb 2f 0d 1f 3c
       -0.010304465 -0.007740434 -0.003518307 0.009707733
000270 17 f1 97 3b 1b 46 b9 bc 2a 0f 27 3d 8c c3 d7 3b
       0.0046368944 -0.022616437 0.040785946 0.0065845903
000280 75 48 07 bd 65 92 a6 bc c9 e3 04 bd 28 63 91 bc
       -0.033028085 -0.020333478 -0.032443795 -0.017747477
000290 24 9d f8 3c 55 68 2c bd e2 f0 4b bc 84 4a c4 bc
       0.030348368 -0.042091686 -0.012447568 -0.023961313
0002a0 3e 35 2a 3c 17 cb a4 b9 77 84 8f 3b 5e d4 f9 bb
       0.0103886705 -0.0003143183 0.0043798047 -0.007624193
0002b0 64 85 a5 bb 37 0b 22 bb b7 0a 18 3d e0 13 02 bd
       -0.005051302 -0.0024725923 0.037119593 -0.031757236
0002c0 33 a2 b5 bc 43 9b 37 bd 78 81 91 bc f0 fc 43 3d
       -0.02217207 -0.044825803 -0.01776193 0.047848642
0002d0 0d dc 11 bd 95 01 58 bb de 61 e9 bc 2b 90 89 3c
       -0.035610247 -0.0032959927 -0.02848905 0.016792377
0002e0 46 7e b5 bb 7c b1 81 3c 4e fb 90 3b ad 02 bb 3c
       -0.0055387346 0.015831701 0.004424489 0.022828424
0002f0 b3 ea cc bb 8c d9 d1 3d bd 07 eb 3b 65 81 18 bc
       -0.0062535643 0.10246572 0.0071725533 -0.009308194
000300 c9 3c 44 3c 23 ab 7a ba a4 27 b7 bb 18 c7 85 bb
       0.011977383 -0.00095622445 -0.0055894423 -0.0040825717
000310 5c d1 03 3c fd f4 a8 3b 1c 67 08 bb 69 ba fe 3b
       0.008045521 0.005156158 -0.002081341 0.0077736867
000320 a0 fa c8 3b fa 3f 09 3c 80 40 92 bb 77 75 41 39
       0.0061333925 0.00837707 -0.0044632554 0.00018449673
000330 b4 39 09 3c 9a 6f 53 3b f2 15 ff bb eb 9c 5b 39
       0.008375574 0.0032262565 -0.0077845985 0.00020943924
000340 76 ac ab 3a d5 cc a9 3b f0 27 38 3c c6 33 21 3c
       0.0013097662 0.0051818886 0.011239991 0.009839004
000350 96 2f 99 3a 59 79 c5 39 4e db 35 bc 5d 14 9b 3c
       0.0011687155 0.0003766518 -0.01109965 0.018930608
000360 25 eb 09 bc 55 a4 9d bc 05 24 e1 ba c5 65 49 3c
       -0.008417879 -0.019243399 -0.0017176872 0.01229233
000370 0a 8f 31 bc b7 24 f0 bb 3d 30 53 bc 56 5e c9 3a
       -0.010837326 -0.0073285955 -0.012889919 0.0015363197
000380 d8 b2 2c bc 43 91 44 bc 37 8c 12 bc 5e 92 89 39
       -0.010540687 -0.011997524 -0.008944563 0.00026239728
000390 69 e4 9d 3c ab 87 47 bb e0 89 2f bb 10 77 29 bc
       0.019273954 -0.0030445855 -0.002678506 -0.010343328
0003a0 01 9c fe bb 36 23 84 3b 4e e5 71 bb ac a2 30 bc
       -0.007770062 0.004032518 -0.0036910358 -0.0107809715
0003b0 29 cd b9 bb ce d0 a6 3a 24 d6 0d b9 ce 97 84 3c
       -0.005670209 0.0012727024 -0.00013526581 0.016185667
0003c0 82 8f 65 bc a4 ee 44 bc 6a a3 9b bb 52 c0 3c 3c
       -0.014011266 -0.012019787 -0.004749705 0.011520462
0003d0 17 04 37 3b 7f f6 8a bc 1d ea df bb eb e6 0a bc
       0.0027926022 -0.016963242 -0.0068333284 -0.008477907
0003e0 fa de 98 bb 25 e2 8f 3a eb 9a 84 3b 43 11 0e 3c
       -0.0046652528 0.001097743 0.004046788 0.008671108
0003f0 95 4a 34 bc 73 05 5d 3c c0 bd b4 3b 39 93 d8 bb
       -0.01100411 0.013490069 0.005515784 -0.006609347
