Riproduzione/models/FD002/LSTMlarge/QUAD-QUAD/lstm_large_batch_1_QUAD.tflite (tflite, 708336 bytes, 53 tensors)

sequential_2/dense_6/BiasAdd/ReadVariableOp f4 [64]
000000 91 2c da 3f 49 9a 89 bd 3f e9 86 bd 42 b5 61 bd
       1.704485 -0.06718881 -0.06587457 -0.0551045
000010 3f d1 0a be c7 1d e8 3f 1f 83 a9 3f a1 5d c9 3f
       -0.13556384 1.8134087 1.324314 1.5731698
000020 c3 29 b6 3f de 23 92 bd 99 c3 dc 3f 7a 02 b7 3e
       1.4231495 -0.071357474 1.7247192 0.35744077
000030 45 9c c6 bd c5 36 91 3f 56 4e 3c be 5c d7 df 3f
       -0.09697775 1.1344839 -0.18389258 1.7487597
000040 bc a7 5c bd 40 a7 c7 bd 05 b1 60 bd 4a f0 6b 3f
       -0.0538709 -0.09748697 -0.05485632 0.92163527
000050 3a 88 e4 3f 4c 9a 10 be 03 25 57 bd 66 1c d5 3f
       1.7854073 -0.1412136 -0.05252553 1.6649292
000060 b1 62 ce bd f1 63 87 bd 07 04 87 be c4 04 cf 3f
       -0.10077418 -0.06610859 -0.2637026 1.6173329
000070 95 ca 70 3f b6 63 e9 3f 5a 8a 2d bd 2e 22 e3 3f
       0.94059116 1.8233554 -0.04236827 1.7744806
000080 49 5d e9 3e 4f 2e b9 3e b4 72 e0 bd e3 ed 67 bd
       0.45578983 0.36168143 -0.10959378 -0.05662335
000090 c4 78 fa 3e e3 42 37 bd 3d d9 5a bd 03 75 44 bd
       0.48920262 -0.044741523 -0.05342983 -0.047963154
0000a0 6f 2b f6 bd 82 1a 72 3f b5 63 af 3f b6 e2 9f bd
       -0.12020003 0.945717 1.3702303 -0.078069136
0000b0 15 13 58 bd 89 78 8a 3f 48 05 e3 bd 57 69 e6 3e
       -0.052752573 1.0818034 -0.11084992 0.45002243
0000c0 83 4b 61 bd 90 9f 7c 3f b5 be 20 bd da 39 8b bd
       -0.055003654 0.98680973 -0.039244372 -0.06798144
0000d0 63 a1 8c 3f b3 b2 89 bd 17 27 38 3f 4d 78 e6 ba
       1.0986751 -0.06723537 0.71934646 -0.001758346
0000e0 ae 25 93 ba 5c ae 62 bd a0 5b 1d be 64 53 94 be
       -0.0011226439 -0.055342063 -0.15366983 -0.28969872
0000f0 8e 8b e3 bd e8 a4 13 be 37 fe ee bd ed 15 e3 3f
       -0.11110602 -0.14418375 -0.116695814 1.7741066

sequential_2/dense_7/BiasAdd/ReadVariableOp f4 [32]
000000 84 15 c7 3f fb c1 41 3e fc d3 ad bd c5 86 47 bd
       1.5553441 0.18921654 -0.084876984 -0.04871251
000010 c2 60 a8 bd 3a 0a 8a bd ad e1 36 3f 5c c0 c2 3e
       -0.0822158 -0.06740232 0.71438104 0.38037384
000020 9e cc ac bd 2a ff c7 3f 32 c8 b3 bd 02 47 04 be
       -0.08437465 1.5624745 -0.087784186 -0.12917712
000030 12 1c 93 3e c0 b0 63 bd 68 f9 ed bb 2c f7 89 bd
       0.28732353 -0.055588484 -0.0072623976 -0.067365974
000040 4c 6c b6 3f 90 8d b9 bd ea 5e 23 bc a8 6f 79 bd
       1.42518 -0.09060204 -0.00997136 -0.0608975
000050 90 74 c4 bd 7c 5f 9b bd c4 b0 63 bd a3 04 64 bd
       -0.09592545 -0.075865716 -0.0555885 -0.055668484
000060 bc 2a 0c be 09 b0 c6 3f a4 56 b5 3f e8 4b c8 bd
       -0.13688177 1.5522472 1.4167066 -0.09780103
000070 36 a0 c2 3f 59 11 89 bd fa bb 5c 3e 74 aa ab 3f
       1.5205142 -0.06692762 0.21556082 1.3411393

arith.constant f4 [128, 128]
000000 eb 88 ee be 9f 96 6f 3f 26 83 5f 3f 10 e0 5b bf
       -0.46588835 0.93589205 0.8730949 -0.8588877
000010 da c8 b3 3e e1 78 1e 40 41 93 e6 bc 34 97 f3 3f
       0.35114175 2.4761279 -0.028146388 1.9030519
000020 a7 9b ff 3e ed c6 98 be e1 6d 67 3f 48 30 0d 3f
       0.4992344 -0.29839268 0.90402037 0.55151796
000030 27 f4 a9 3f fd a6 4d 3f 08 0a 95 3f f9 4a 46 3f
       1.3277634 0.8033293 1.1643686 0.7745815
000040 0a b6 c8 be 44 b9 8a bd 0a 71 18 bb 8f f4 8e 3e
       -0.39201385 -0.06773618 -0.0023260736 0.27920958
000050 dd 11 05 3e 39 52 20 bf 70 4b ff bc 1c 28 f6 bd
       0.12995096 -0.6262546 -0.031163901 -0.12019369
000060 dc 7a 2d 3f fa 1e 2d bf ae 41 2f bf 52 5f 72 3d
       0.67765594 -0.6762539 -0.68459594 0.059172936
000070 a0 a5 56 be 76 a7 39 be 2b a1 35 3f 28 0d 5a 3f
       -0.20961618 -0.18130288 0.7094905 0.85176325
000080 18 1d 71 3d ab 74 55 be 69 a2 bd 3e df 15 b9 3e
       0.058865637 -0.20845287 0.37037972 0.361495
000090 1c c1 f8 be 83 39 81 bf a5 4e e0 bd dc e8 57 3d
       -0.4858483 -1.0095676 -0.109525 0.052712306
0000a0 20 68 cd 3e f4 f0 9d 3f da 84 a8 3e b6 a9 69 bf
       0.40118504 1.2339158 0.32913858 -0.91274583
0000b0 77 1c 35 3f 7b ed 0b 3e 0d c7 81 3f d2 5c 01 3f
       0.7074656 0.1366481 1.013887 0.5053226
0000c0 a9 e5 d5 bf e9 be e6 3f d9 58 93 3f 61 97 16 bf
       -1.6710712 1.8027011 1.1511489 -0.58824736
0000d0 6f e4 f9 3e 1c 02 0f 3f 3b 29 71 bf 3d 50 19 bf
       0.48807094 0.55862594 -0.9420354 -0.5988806
0000e0 83 1d ab be f8 5d 2b 3f b2 90 48 3f e1 06 5f 3f
       -0.33420953 0.6694026 0.7834579 0.8711987
0000f0 34 5b ca be 1f 54 3e 3f 8e 94 8b 3e ec f8 94 be
       -0.39522707 0.7434711 0.27261776 -0.29096162
000100 be 8a ca be b0 23 96 3f d8 f1 66 3e 2b da 7d bd
       -0.39558977 1.1729641 0.22553194 -0.06197564
000110 b8 b6 46 be 90 e0 01 bf f1 bc 1b bf c6 13 f7 3d
       -0.19405639 -0.5073328 -0.60835177 0.12064318
000120 ad 80 d7 3e af 22 bc 3f 07 9c 7a bf 5e f1 dd 3e
       0.4209036 1.4698085 -0.9789433 0.4334821
000130 25 0d 3e be 81 38 93 3e 58 1d 45 3f 73 80 c9 3f
       -0.18559702 0.28754047 0.769979 1.5742325
000140 d8 68 83 3f 08 ad fe 3e 68 be 14 3f 3f 12 19 3f
       1.0266371 0.49741387 0.58103037 0.59793466
000150 92 26 af 3e 00 7b 7b bd 73 91 2c be 7e a3 ee be
       0.34209114 -0.0613966 -0.1685236 -0.4660911
000160 2f 10 3d bf 2e ee 3f 3f 7e 5b 68 bf 16 a3 12 bf
       -0.7385282 0.7497281 -0.90764606 -0.572801
000170 ff 3a 6d 3d e9 e5 1a bf 81 b9 d9 3e 28 94 00 be
       0.05791759 -0.60507065 0.4252434 -0.12556517
000180 85 23 0b 3f 47 03 4f 3f 1b 3e 16 3d 25 67 66 be
       0.54351074 0.80864376 0.036680322 -0.22500284
000190 fc 3f 14 bf b6 30 a1 be 6b 06 67 3f 6f e5 7e 3f
       -0.5791013 -0.31482476 0.9024417 0.9956884
0001a0 59 57 1a bf c4 cd 34 3f d6 b4 94 3e 28 cf 52 3f
       -0.6028953 0.70626473 0.29044217 0.82347345
0001b0 d8 eb 61 be 2b d0 60 be 25 8f 2b 3d 96 3d 7e bf
       -0.22062624 -0.2195441 0.04188456 -0.9931272
0001c0 5e 21 55 bf 17 3e 07 bf cd f9 07 bf 53 be 27 3e
       -0.8325404 -0.52829117 -0.5311554 0.16381197
0001d0 ca d0 85 bf a0 33 63 3d 25 d6 af be 05 8f 18 3e
       -1.0454342 0.055469155 -0.34343067 0.14898308
0001e0 47 b9 47 be 4e 1e 0c bf 74 6e 77 bf 8d 1d ae 3f
       -0.19504271 -0.5473374 -0.96652913 1.3602768
0001f0 ae b2 89 3e 0c 80 44 3d 39 63 af bb a0 34 f7 3f
       0.26894134 0.047973678 -0.0053524044 1.9312935
000200 3b 9f 4d be d2 4a 45 3f 80 c6 8d 3e a0 9c 98 bd
       -0.20080273 0.7706729 0.27690506 -0.07451749
000210 57 5f 59 3f ca ef a6 3e a5 5b f7 3d b6 76 8e 3e
       0.849111 0.3260482 0.12078027 0.27824944
000220 ea 94 09 be 1a 00 49 3f 0b bb 6b bf 54 28 1d 3f
       -0.13435712 0.7851578 -0.9208228 0.6138966
000230 a9 b4 ab 3e 5a 74 8d 3f 3e 64 ad 3f 1b 87 e6 3e
       0.3353627 1.1051133 1.3546216 0.45024952
000240 f5 0d 93 3e 63 bf 1f bf ea 2f 2f 3f 5a 05 b3 be
       0.28721586 -0.6240141 0.68432486 -0.3496502
000250 e0 f0 de 3e de 68 1a bf 5c 7d 55 3e 09 fa 9d be
       0.43543148 -0.60316265 0.20848602 -0.30854824
000260 43 13 05 40 b8 f0 15 bd 46 c0 1c 3e 75 96 1a bf
       2.0793006 -0.03660652 0.15307721 -0.6038583
000270 a5 ff 2b bf fb 6c ad be eb 43 e6 3e 6c 98 b5 3d
       -0.6718696 -0.33872208 0.44973692 0.08866963
000280 3b b3 80 3d 33 68 b7 bf 47 74 86 3f 1a 2d 8f 3f
       0.062841855 -1.4328674 1.0504235 1.1185639
000290 e0 95 d8 3d ad e9 d8 3e ff 35 c8 bb ad 5e c7 be
       0.105754614 0.4236578 -0.0061099525 -0.3893942
0002a0 fd 6d 50 bf 81 b8 c1 3f e4 65 65 3f 79 74 58 3f
       -0.8141783 1.5134431 0.896086 0.84552723
0002b0 e2 a5 5a 3f bb 31 9d 3f fc 8d dc 3e 11 c0 f2 bd
       0.8540937 1.2280802 0.43077075 -0.1185304
0002c0 f1 27 9b 3f c6 65 3d be 97 d4 ac 3f 91 65 c4 bf
       1.2121564 -0.18495855 1.3502377 -1.5343496
0002d0 aa 3c 2b bf 8a 97 8c 3f ac cf 29 bf cb a2 8b bf
       -0.6688944 1.0983746 -0.6633251 -1.0909055
0002e0 b7 30 1a 3f 6f 25 af bf f7 6f 1b 3f de 19 a3 bf
       0.6023058 -1.3683299 0.6071772 -1.2742269
0002f0 09 a9 74 bb 0f 03 42 3d 11 0d a7 bf 90 ed b2 be
       -0.0037332198 0.0473662 -1.3050863 -0.3494687
000300 c6 9f ba bf dc 6e 64 3f 53 84 23 bf 69 17 04 c0
       -1.4580009 0.8923166 -0.63873786 -2.0639288
000310 3c 0a 5c bf 72 7e 27 3f 07 94 9d bf 6e fc df 3e
       -0.85953116 0.65427315 -1.2310799 0.43747276
000320 f9 02 ae bf 69 78 8b 3e 61 68 e6 3e ae 11 eb 3d
       -1.3594657 0.27240303 0.4500151 0.114779815
000330 a5 7b 0d be a3 2c 61 bf 9b 02 6a bf 6d 91 8f bf
       -0.13816698 -0.87958735 -0.91410226 -1.1216255
000340 84 21 23 bf 16 8f 7d 3f ea 5d 15 bf b4 62 17 bf
       -0.63723016 0.99046457 -0.58346426 -0.59134984
000350 47 20 a3 bf 00 3f 2d 3f 3a 41 b9 3f 18 dc 95 bf
       -1.2744225 0.67674255 1.447303 -1.1707792
000360 d0 90 a0 be be 38 d9 bd 9b 67 9a bf a0 66 85 3f
       -0.31360483 -0.10606526 -1.2062868 1.0421944
000370 fb d9 d4 be a4 85 bd bf e4 06 f0 3d e1 f5 be 3d
       -0.41572556 -1.4806409 0.11720064 0.093242414
000380 0f 0c be 3d 34 72 01 3f 79 f2 0d bf 5d d4 25 3e
       0.09279644 0.50564885 -0.5544811 0.16194291
000390 3a c3 31 bf ba 23 1c be 1d 6a db 3e e2 15 1b 3f
       -0.6943852 -0.15248004 0.42854396 0.60580266
0003a0 08 db 74 3f 73 29 04 3e 82 97 45 bf 53 49 80 be
       0.95646715 0.12906437 -0.7718431 -0.25055942
0003b0 ec 21 6f bf d8 43 27 3f b7 f4 9b bf 08 b0 10 c0
       -0.93411136 0.65337896 -1.2184056 -2.260744
0003c0 a1 9c 5e 3f 20 cf 99 3f ad b1 04 bf c4 9c dd be
       0.86957747 1.2016335 -0.5183361 -0.43283665
0003d0 a3 df 47 3e b0 a3 12 c0 84 bd d8 3f bf 32 8f 3f
       0.19518904 -2.2912407 1.6932836 1.1187361
0003e0 ef 1f 47 bf cd 3d 2e 3c 10 cb ad 3e 33 c8 27 bf
       -0.777831 0.010634852 0.33943987 -0.65539855
0003f0 b5 f0 05 3f 58 6f b2 be ed cc 7d bf 31 e5 21 3f
       0.52320415 -0.34850574 -0.99140817 0.63240343

arith.constant1 f4 [128, 128]
000000 85 04 3d 3d 28 32 68 3f 1e be 2b bf 04 0f 1c bf
       0.04614689 0.9070153 -0.6708697 -0.6096041
000010 04 63 35 3e 84 92 c5 be c3 cc 94 be 45 b4 2c 3f
       0.17713553 -0.38588345 -0.2906247 0.6746257
000020 fe d8 e0 3e 3a b4 45 be 12 40 31 bf d9 0f 4b 3f
       0.43915552 -0.19307032 -0.6923839 0.79321057
000030 8e 4c 26 bf 84 6e c8 be 19 10 cd 3b 38 2b a3 be
       -0.64960563 -0.39146817 0.0062580225 -0.3186891
000040 52 56 bc be 03 91 52 3f a8 e8 e1 bd 93 12 2f 3f
       -0.36784607 0.8225252 -0.11030704 0.68387717
000050 5c 76 ac bd c0 f0 5e bf 64 b0 26 3f 0e 3f 11 bf
       -0.08421013 -0.87086105 0.651129 -0.5673684
000060 c1 eb a7 3f 52 36 d2 be 42 8f 27 bd 5a b1 60 be
       1.3118821 -0.41057068 -0.040908106 -0.21942654
000070 e1 5d df 3e dd 75 89 bf 33 8a ab 3f 2c 6f f1 bd
       0.4362631 -1.0739094 1.340155 -0.117887825
000080 8f 76 f0 be 33 71 c4 bf 1c ce 3f 3e 22 9e a5 be
       -0.46965453 -1.5347046 0.18730968 -0.32347208
000090 8d e1 d4 3e c4 f4 17 3f 97 b0 d3 3e 02 b2 99 3f
       0.41578332 0.5935786 0.41345665 1.2007449
0000a0 11 cc cc be 9a 43 cd bc 31 b7 3b be 5a 7b 97 3e
       -0.3999944 -0.025056649 -0.183316 0.29586297
0000b0 cb 99 88 3e 9d be 98 3f 22 ea 6c 3e 32 68 15 3f
       0.26679835 1.193317 0.2313619 0.58362114
0000c0 8f 80 70 bf a2 34 59 bf 7e 6d 95 3f 57 2f 40 bf
       -0.93946165 -0.84845936 1.1674039 -0.75072235
0000d0 20 a5 75 3f d6 f6 32 3e 09 87 8a bf b0 15 1c 3f
       0.95955086 0.17476973 -1.082246 0.6097059
0000e0 2e 86 81 3e d3 9b 36 bd 22 93 9d 3e e9 3f 97 be
       0.25297683 -0.0445822 0.30776316 -0.29540947
0000f0 f4 6a 8e bd c2 06 4f 3e 8b c0 15 be 3a 1b 56 bf
       -0.069539934 0.20217422 -0.1462423 -0.83635294
000100 b1 c1 96 3f 19 bf 86 3e ad 45 71 bf 04 d1 50 be
       1.177786 0.2631767 -0.9424694 -0.20392233
000110 5e ee 9d bf 50 6c f1 be a7 80 3b bf c3 cc c0 3e
       -1.2338369 -0.47152948 -0.7324318 0.3765622
000120 3a a8 13 3f a4 66 e5 3e 73 a6 4a bf bb 19 79 3e
       0.5767857 0.4480487 -0.7916023 0.24326222
000130 5c 91 2e 3f 58 70 54 3f 5a 3b b8 be 79 fe 1e c0
       0.6819055 0.8298392 -0.35982782 -2.4842818
000140 e0 0b 2c bf c3 ac a6 3e 55 6a 83 bd 9c 35 e2 3e
       -0.6720562 0.32553682 -0.064167656 0.44181526
000150 7c a1 1b 3f 77 be 18 bf 83 d9 a7 3f 26 cd 05 bf
       0.6079328 -0.59665626 1.3113254 -0.52266157
000160 9e 89 d4 be e5 b1 d6 3e 23 fb 16 3e e4 3c b5 3d
       -0.41511244 0.41932598 0.14744239 0.088495046
000170 5b f8 22 3f 15 b7 00 3e 27 b6 f2 3e aa 87 b2 be
       0.6366021 0.1256984 0.47404596 -0.34869128
000180 84 8a 7b 3e 1a 63 82 3e f6 0f 41 bc 5b 5a b4 3f
       0.24564558 0.25466233 -0.011783591 1.4090074
000190 5a b6 68 3f 09 24 41 bf e7 db e5 3e 01 29 85 3f
       0.90903246 -0.7544561 0.44894335 1.0403138
0001a0 47 fe 97 3e b1 2c 9c 3e d0 6c ee be eb 37 f3 3e
       0.29686186 0.30502847 -0.46567392 0.475036
0001b0 b9 4a 41 3f 19 c5 8b 3e d9 77 38 3e 15 8b 6d bf
       0.7550464 0.2729881 0.18014468 -0.9279035
0001c0 b7 f3 f2 be 11 ae 16 3f e7 63 18 3f 93 93 86 be
       -0.47451565 0.58859354 0.5952744 -0.26284465
0001d0 95 11 03 3e 65 06 f9 be f0 3d dd be 52 8d 8f bf
       0.12799676 -0.4863769 -0.43211317 -1.1215003
0001e0 09 d9 f8 be 3f db 68 bf 6f e3 09 3f 4b d5 ce be
       -0.48603085 -0.90959543 0.5386266 -0.40397105
0001f0 25 db e1 bf a7 3a 31 bc ee 55 87 3f 7c 07 a5 3f
       -1.7645003 -0.010817206 1.0573099 1.2892909
000200 d3 c8 3f 3f 7d f1 5a 3e 11 01 30 3f 18 a2 8d bf
       0.7491581 0.21381183 0.6875163 -1.1065092
000210 1a 5a fa be 00 56 2a bf bc d1 b3 3f 37 ab 29 3f
       -0.48896867 -0.66537476 1.4048381 0.6627688
000220 7d 47 d3 3e 96 47 82 bf 31 2e dc 3f a5 14 13 be
       0.4126548 -1.0178096 1.7201596 -0.14363344
000230 2b 8d d1 ba 2a 43 01 bf 04 8f 6e 3d 9c 0f 4b be
       -0.0015987506 -0.5049311 0.05824186 -0.19830173
000240 18 e1 b5 3f fc c5 aa bf c1 a4 85 3f d1 48 a8 3f
       1.4209318 -1.334167 1.0440904 1.3147222
000250 98 b3 27 3f d0 c4 b6 bf 88 00 a9 3f ad 59 18 bf
       0.65508413 -1.4278812 1.3203287 -0.59511834
000260 db 08 d1 3f f8 9f 77 be 23 1b 0a 40 fc 7b c4 3e
       1.6330827 -0.24182117 2.1579063 0.38375843
000270 8b 6e 88 bd 88 64 b4 be fc b3 44 3f be 01 3c bf
       -0.066617094 -0.3523295 0.76837134 -0.7344016
000280 11 74 ba bf 54 b2 d6 be 0f c7 d4 3f d6 3b a0 be
       -1.4566671 -0.4193293 1.6623248 -0.3129565
000290 6d 02 a9 3f bc ad 0f 3f 58 7f 86 bf bd d3 42 be
       1.3203865 0.5612447 -1.0507612 -0.19026084
0002a0 6a cb a0 be bf f5 73 bf 8b ed e3 3f f7 94 b5 be
       -0.31405193 -0.95296854 1.7806867 -0.35465214
0002b0 80 26 ea 3e 2e d6 6f be 59 7b a0 bf 9c 51 86 3f
       0.45732498 -0.23421547 -1.2537643 1.0493655
0002c0 0d f3 0c 40 ca 9f 05 3d 84 a7 81 bf e3 9e 8c be
       2.2023346 0.03262309 -1.0129247 -0.2746497
0002d0 e1 d6 95 3f 1b 59 a1 3e f1 b9 84 3f ca e4 1d bf
       1.1706201 0.31513295 1.0369245 -0.6167723
0002e0 d3 b9 bc 3e 1e 9c 7c 3e 8b ad 19 3e 82 55 99 bf
       0.36860523 0.24668929 0.15007608 -1.197922
0002f0 a9 dd b0 3e 1a ab 30 3d 57 99 13 40 ea 12 81 bf
       0.34544113 0.043131925 2.3062341 -1.0083897
000300 21 49 bd bf cb 05 8b 3f bb 7b 86 3f f5 11 3f 3e
       -1.4787942 1.0861143 1.050651 0.18659194
000310 8a 40 a6 bf ea 89 14 3f e2 ae 80 be e4 0e c3 3c
       -1.2988446 0.5802294 -0.25133425 0.023810811
000320 d7 5d 3e bf 69 fc 58 bf fb 7b 6d 3f 86 e6 7f bf
       -0.7436194 -0.8476015 0.92767304 -0.99961126
000330 66 8b 64 3e 78 f4 8b be 07 2a f8 be bb 26 72 bf
       0.22318801 -0.27334952 -0.48469564 -0.9459035
000340 78 4d e8 3e 7d 75 4f 3f 55 54 10 3f 9c c7 a0 3f
       0.45371604 0.8103865 0.5637868 1.2560916
000350 b0 0e cb 3c cb ae 91 be fc 18 b0 3e d6 32 b3 be
       0.024787277 -0.2845367 0.34394062 -0.34999722
000360 1b 1b 88 bf 65 02 57 3f 51 c0 c8 be 75 11 64 3e
       -1.0633272 0.8398803 -0.39209226 0.22272284
000370 de 7b 72 bf 0c 7d 32 3f 18 36 c1 bc 59 cd 28 3e
       -0.94720256 0.69722056 -0.023585364 0.16484584
000380 e9 65 90 3e e0 44 18 bf b3 e5 3f 3d 81 95 9e bd
       0.2820275 -0.59480095 0.046849918 -0.07743359
000390 52 36 61 bf c6 92 71 bf 77 80 41 be 6e 6d 58 be
       -0.8797351 -0.94364583 -0.18896662 -0.21135494
0003a0 fe 57 9c be d3 59 00 bf 01 a5 08 40 34 dc 12 3f
       -0.30535883 -0.5013706 2.135071 0.57367253
0003b0 03 26 03 c0 fc 6d f8 3f 12 36 2d bd 7d 3b 11 bf
       -2.049195 1.9408565 -0.042287894 -0.56731397
0003c0 6b 3f 3a 3f 61 48 25 bf fa 63 e9 be e5 19 c5 bd
       0.7275302 -0.64563566 -0.4558409 -0.096240796
0003d0 61 1d 20 be ea 99 d0 3e 86 3c fa 3f a0 ea 43 40
       -0.15636207 0.40742427 1.954972 3.0611954
0003e0 da 0a 04 bf 0b 5e 5e be b3 4d ce be 58 45 37 3e
       -0.5157906 -0.21715562 -0.40293655 0.17897546
0003f0 3b 74 54 bf a8 7e 08 bf 8b 8f f4 bf 50 d5 47 3f
       -0.82989854 -0.5331826 -1.9106306 0.78059864

arith.constant2 f4 [128, 128]
000000 78 ee ff be ee c4 84 be 80 a0 13 3f 26 19 a0 3f
       -0.49986625 -0.25931495 0.5766678 1.2507675
000010 7d 4f d8 3e a4 17 86 be 92 20 a3 3e 6b 9c 9d 3e
       0.42248145 -0.2618991 0.31860787 0.307834
000020 b2 04 84 3e 78 24 01 3e 5e 32 14 be af 84 74 be
       0.25784832 0.12611568 -0.14472339 -0.2387874
000030 c4 7d 9a bf 43 34 78 3f fe f4 df bc 6d d0 01 3f
       -1.2069631 0.96954745 -0.027338501 0.5070866
000040 29 bd a5 3e 59 06 06 bf 74 c1 ba 3e 59 69 d0 3e
       0.3237088 -0.52353436 0.36475718 0.40705374
000050 b2 cd cf be 97 67 f5 be 6e df be 3f 56 ee a2 3d
       -0.4058662 -0.47930595 1.4911935 0.07955615
000060 ad 52 65 3f d5 0f 08 bf 32 6e d3 3d 00 4c a8 be
       0.8957928 -0.5314916 0.103237525 -0.32870483
000070 c3 f2 b7 bd 55 c8 38 bd ed 21 c2 3e 0c ed 5f 3f
       -0.0898185 -0.045112927 0.37916508 0.8747108
000080 46 0d 4d 3d 56 88 f5 be 1e cb 8b be 7a cd d4 bd
       0.050061487 -0.4795558 -0.27303404 -0.10390754
000090 ff f0 bd bd 1b 76 4d 3e 8b 95 4c 3f e7 d5 a8 3d
       -0.09274482 0.20064585 0.79915684 0.08243924
0000a0 54 45 80 3e ad e1 0d bf 44 2f f9 3e 0f fe f3 be
       0.25052893 -0.5542248 0.48668873 -0.4765477
0000b0 a6 d4 42 be ce 2b e4 3d 9d b6 5a be 58 4b ed 3e
       -0.19026431 0.111411676 -0.21358724 0.46346545
0000c0 16 50 98 3f d7 07 17 3f 3e e2 cf be c2 74 84 3e
       1.189944 0.5899634 -0.40602297 0.2587033
0000d0 e0 b0 16 bf b3 29 01 3e dc 0c cb be 29 f5 1c bf
       -0.5886364 0.12613563 -0.39658248 -0.61311585
0000e0 9a b9 40 3d b7 ca 66 be 5c 65 87 3f d9 0e 90 bc
       0.047052003 -0.22538267 1.0577807 -0.017585205
0000f0 a2 10 51 be 6b 73 58 bf dc 71 8e be ea 85 93 be
       -0.20416501 -0.84551114 -0.27821243 -0.28813106
000100 2b 28 71 3e 9e 91 4f 3e 33 68 15 be 22 5e 92 3f
       0.23550479 0.20270392 -0.1459053 1.1434977
000110 c9 79 9e 3d 1d 04 b4 3c 14 5f 56 3f 55 06 0d bf
       0.077380724 0.021974618 0.8373883 -0.55087787
000120 1e c2 04 bf 2e 4a 48 bf b2 06 d2 3d 86 d9 09 3f
       -0.518587 -0.7823819 0.10255183 0.5384754
000130 2b 81 40 bf cb 13 74 3e 2d bc 00 bd 58 30 49 bf
       -0.75197095 0.23835675 -0.03142946 -0.7858939
000140 22 1f fd bd b7 2f a3 be 5b 39 49 3c 92 87 8d 3e
       -0.12359454 -0.3187234 0.012281741 0.27642494
000150 2a 68 8d 3e 15 b4 dd 3d 31 a6 90 3f 9d e5 91 bd
       0.27618533 0.108253635 1.1300718 -0.071238734
000160 3c 05 9d 3e c9 51 af 3e 38 dd a9 be 77 9c 09 be
       0.30668056 0.34242085 -0.3317659 -0.13438593
000170 81 46 f7 3e cc c6 c1 3e 8b a0 52 3f 39 4c aa be
       0.48295978 0.37846982 0.8227622 -0.33261278
000180 c6 29 c5 be 36 80 90 3e e0 09 69 3f 72 23 d7 3e
       -0.38508433 0.28222817 0.91030693 0.4201923
000190 c8 6c f8 3e 1f e3 d4 3e 3e 14 2c bf f4 61 8a 3f
       0.48520494 0.4157953 -0.6721839 1.0811143
0001a0 96 cc 36 3e de 5b 37 3e 06 42 2d 3e 5e 32 2c 3e
       0.17851481 0.17906138 0.16919717 0.16816089
0001b0 d4 08 28 3f 11 24 a7 3d 55 66 b0 3d 70 6a e5 3d
       0.6563847 0.08161176 0.08613268 0.11201942
0001c0 ee 11 62 bf 53 3b c0 3d 0d 60 95 3f 25 e8 78 3f
       -0.8830861 0.09386315 1.1669937 0.97229224
0001d0 df 2d ed be 0b b8 78 3e 5f bf 30 bf b0 ef a4 bd
       -0.4632406 0.24288957 -0.6904201 -0.08053529
0001e0 3d 7e 87 be 37 72 4e 3e 44 39 29 3f d3 8e 16 bf
       -0.264635 0.20160757 0.66103005 -0.5881168
0001f0 6a a8 37 3e 6d 58 88 be ba 93 b8 bf 0f db 09 3f
       0.17935339 -0.26629964 -1.4420083 0.5384988
000200 ca 91 59 3e ea aa 03 bf ed b1 92 3c 80 88 a1 3d
       0.2124702 -0.5143267 0.017907107 0.078873634
000210 50 b6 1f bf e8 d9 29 be 61 1d ee be 92 2e 1f 3f
       -0.6238756 -0.16587031 -0.4650679 0.62180436
000220 2b 56 e6 be 20 f6 11 bf cd d9 96 be 46 84 24 3c
       -0.44987616 -0.5701618 -0.29463044 0.010041302
000230 b9 7f f8 3f ce fd 50 3f c5 b7 5e be c2 dd 0c 3e
       1.9413978 0.81637275 -0.2174979 0.13756469
000240 a5 9f 27 bf 76 fe 55 3f ad d3 70 bf 62 a7 c0 3e
       -0.65477973 0.835914 -0.9407299 0.37627703
000250 a5 5c a0 3e 39 01 8a be 4e 12 02 3f 18 1e 69 3f
       0.31320682 -0.26954058 0.5080918 0.91061544
000260 2b 84 e3 be 63 a5 2a be df e1 0b bf a3 dc 75 be
       -0.44436774 -0.16664653 -0.54641527 -0.24009947
000270 bf 11 01 3e 48 8a ef 3e 3d cc e3 be 41 94 78 bf
       0.12604426 0.46785188 -0.4449176 -0.9710122
000280 09 36 4a 3d ad e6 16 3d 57 e5 31 bf a9 61 74 be
       0.04936794 0.036841083 -0.6949057 -0.2386538
000290 7e 2d e5 be 0a 1f 12 bf c9 8d 6f bf 00 cb 3e 3e
       -0.4476127 -0.5707861 -0.9357572 0.18632126
0002a0 e4 cd 7b 3f 62 86 02 bf 9d 18 c3 bd d8 bc fb be
       0.9836104 -0.509863 -0.09526179 -0.49167514
0002b0 fc 59 57 be 1d 03 47 bd 6e 16 60 bd 1d dc b9 be
       -0.2103042 -0.048586953 -0.05470889 -0.36300746
0002c0 ab 82 5c bf ff 23 54 bf 77 5e 81 3f 96 15 93 3e
       -0.86136883 -0.82867426 1.0106953 0.28727406
0002d0 9b 93 3f bf 87 9f 8f bc c1 9b 14 bc 3f 2b 0d bf
       -0.74834603 -0.017532123 -0.009070338 -0.55144113
0002e0 1d 0c 73 bb cb ba 64 3e 57 46 ba bf 2b a9 19 3f
       -0.0037086078 0.22336881 -1.4552716 0.60023755
0002f0 ef ee fe be 18 59 14 bf a5 81 29 bd 32 b7 9f 3e
       -0.49791667 -0.57948446 -0.041383404 0.31194454
000300 df 63 c2 3f 4f b8 9c bf e2 8b 5d bf 39 75 4c bf
       1.5186728 -1.2243747 -0.8654157 -0.7986637
000310 f8 5a df 3d 46 cd 7d be 01 3e 5f 3e 8b be 61 bf
       0.10906023 -0.24785337 0.21800996 -0.8818137
000320 0f fd 28 3e ca c5 a3 3e 04 82 81 bf 8f ec 4b 3e
       0.16502784 0.3198684 -1.0117803 0.19914459
000330 f7 5b 57 be bf d2 fd 3e 49 98 1a 3f 44 59 b5 3e
       -0.21031176 0.4957485 0.6038862 0.35419667
000340 02 0e ad bd b6 b5 c0 be 36 30 02 3f b9 6a d4 be
       -0.084499374 -0.37638634 0.50854814 -0.41487673
000350 48 2c 74 3e e3 b6 bc bf cd 42 3f 3f e2 c5 85 bf
       0.23845017 -1.4743313 0.74711305 -1.0451014
000360 b4 eb a1 bf 82 8f c9 3e 75 60 be 3e 19 1b 4c 3e
       -1.2650056 0.393673 0.37182966 0.19932212
000370 cd 4d f4 3e 29 f0 8f 3e 08 72 e5 3e 96 e3 2d bf
       0.47715607 0.28112915 0.4481356 -0.67925394
000380 5a f5 d9 3e 38 b5 93 3e 6d 0d 89 bd c0 9f 90 3e
       0.4257 0.28849196 -0.06692014 0.2824688
000390 f9 30 40 be 5a 4a 9b 3e b3 4e 81 be 38 70 5a 3f
       -0.18768682 0.30330163 -0.25255355 0.8532748
0003a0 a9 2f 2c 3f c2 bb 2f bf 00 2d a2 be b2 cd 0d be
       0.67260224 -0.6864587 -0.31674957 -0.13847998
0003b0 3b 8f a8 3f 7e cc 1a 3e d2 1f aa 3e da 28 8d 3e
       1.316871 0.1511707 0.33227402 0.2757023
0003c0 de 88 2c 3f 6e f5 0b 3e 51 88 77 3f b4 8d 4b bf
       0.6739634 0.13667843 0.9669238 -0.79513097
0003d0 f4 f9 ae 3e 2d 4f a7 3f 0c a5 a7 be 22 56 a8 3d
       0.34175074 1.3071038 -0.32743108 0.082195535
0003e0 a9 37 99 bd f7 b9 12 be 0c bf 19 3f c4 de 55 bf
       -0.074813195 -0.14328752 0.6005714 -0.8354304
0003f0 7d 04 2b bf 30 66 00 3f 0e 99 71 bf ba aa 51 3f
       -0.66803724 0.50155926 -0.9437417 0.81901133

arith.constant3 f4 [128, 128]
000000 8a 48 3f bf db 30 d0 3f 3f 02 93 3f 22 32 25 bf
       -0.7472006 1.626491 1.148506 -0.6452962
000010 77 7f 43 be 32 83 9d 3f 9f 7f 3b be 4e 15 95 3f
       -0.19091593 1.2305663 -0.18310402 1.1647127
000020 73 6a d1 3e dd 39 e3 bd 25 8a 16 3d 68 f3 58 3f
       0.40901527 -0.11095021 0.03675284 0.8474641
000030 c8 d2 de 3b 05 77 0d 3f b9 48 69 3f 60 ec b8 be
       0.0068000294 0.55259734 0.9112659 -0.3611784
000040 0d 4d 12 3f bf 1b ab be c5 3e 8a 3e 5c ab 10 3e
       0.5714882 -0.33419606 0.27001014 0.14127868
000050 73 c3 0a be cf 48 52 bf ec 89 22 3f 38 e4 38 3f
       -0.1355112 -0.8214235 0.634917 0.72223234
000060 c0 70 dc 3e 67 d6 25 3e 79 c3 e7 3d 70 9b 0e bf
       0.4305477 0.16195069 0.1131658 -0.5570593
000070 b6 a3 a3 be 07 07 77 bf b3 e8 ff 3e 46 ed 11 3f
       -0.3196084 -0.964951 0.49982223 0.57002676
000080 0e 65 29 bf 95 40 fe bf 15 23 17 3f 24 59 f1 bd
       -0.6616982 -1.9863459 0.59037906 -0.1178458
000090 61 1a b6 be 43 cf dc bd 92 5d df bd d3 f6 e9 3e
       -0.35567 -0.107817195 -0.10906519 0.45696124
0000a0 08 71 14 bf f1 9e 0a bf 8e 96 03 bd 60 53 e5 be
       -0.5798497 -0.54148775 -0.032126002 -0.44790173
0000b0 71 d4 fa 3e 42 b0 df 3e 82 11 58 3f 53 09 6d 3f
       0.48990205 0.43689162 0.84401715 0.9259235
0000c0 69 ac 2e bf 71 01 2f 3f 85 3c 89 3f ae b3 64 be
       -0.6823183 0.68361574 1.0721594 -0.22334167
0000d0 bb fb 30 3f 0a 0f d7 3e ad db 2d bf 53 bb 53 bf
       0.6913411 0.4200366 -0.67913324 -0.8270771
0000e0 4a 93 81 be 54 d1 89 3f ed 8f 8e 3e af 90 8d 3f
       -0.25307685 1.0767007 0.27844182 1.1059779
0000f0 a3 96 d3 be 64 89 f6 3e 7a 7c eb bd d1 fb ef 3d
       -0.41325864 0.48151696 -0.114983514 0.11717952
000100 e7 52 8f 3f ee bc c8 3f a9 d0 31 3f 2e 01 d5 bd
       1.1197175 1.5682657 0.69459015 -0.10400616
000110 91 bb 40 bf 0c 89 82 be ea d5 77 bf 23 3e 9e be
       -0.75286204 -0.25495183 -0.9681078 -0.30906782
000120 4f 8a 8a 3f d6 87 22 3f 86 5d 47 be 96 f1 15 be
       1.0823458 0.6348852 -0.1946927 -0.14642939
000130 32 fb 56 3f a5 b7 a4 be ee 07 2d 3f e8 a9 1d 3e
       0.83977044 -0.3217136 0.67590225 0.15396845
000140 0e 51 94 3f d8 6b 46 3f ed 7f 56 3f 96 60 be 3d
       1.1587236 0.77508307 0.8378895 0.09295766
000150 ad 00 7d be e2 97 d6 be 46 aa 14 3f 3a 3e c9 bf
       -0.24707289 -0.41912752 0.58072317 -1.5722115
000160 c8 bc 9b 3f 8f 70 49 3f 24 8d 49 3f fc de 64 bf
       1.2166986 0.78687376 0.7873099 -0.8940275
000170 61 a8 50 3f 5d 94 07 bd 00 e1 29 3e 17 d7 1e bd
       0.81506926 -0.033100475 0.16589737 -0.038779344
000180 6d 6e 45 3e 30 ab 76 3f 70 dd 87 bc 33 4d 9b be
       0.19280405 0.9635496 -0.016585082 -0.30332336
000190 e1 e9 a3 3e 46 d2 7a be a1 7a b9 3e 87 3a 06 3e
       0.32014373 -0.24494275 0.3622637 0.13108264
0001a0 57 fe 1b 3a ad e5 f5 3e 12 56 82 be aa 50 78 3f
       0.00059506804 0.4802679 -0.2545629 0.96998084
0001b0 a9 95 64 be ff 02 fb 3d 58 c7 67 be f3 5e 5e bf
       -0.22322716 0.12256431 -0.22634637 -0.8686363
0001c0 60 0e 57 bf 9a 36 0c bf 52 53 98 3d 12 49 df be
       -0.8400631 -0.54770815 0.07437767 -0.43610436
0001d0 3b 6d 88 bf 06 26 11 3f 7f fb 3d 3d f8 55 d8 bd
       -1.0658334 0.56698644 0.046382423 -0.10563272
0001e0 f5 43 af bf d6 23 22 be 43 03 46 bf ae 7f db 3e
       -1.3692614 -0.15833983 -0.77348727 0.4287085
0001f0 10 72 88 bf ba 80 bd 3d 27 a9 8f be 7a 67 a2 3f
       -1.0659809 0.09253068 -0.2805874 1.2687829
000200 8c e4 d2 be 69 60 2b 3f fd f6 3c 3e 74 67 01 bf
       -0.41189992 0.66943985 0.18453594 -0.5054848
000210 3e da 5c 3d 4b b4 01 3f 16 40 23 3f 9b 84 0e 3e
       0.05391907 0.5066573 0.6376966 0.13917772
000220 33 78 4b 3f bc 55 86 be 64 e1 74 3f a7 91 ab 3f
       0.79480284 -0.26237285 0.9565642 1.3403825
000230 97 8e b9 3f 33 11 1d 3f 7e fe 94 3f 95 7f 45 3e
       1.449664 0.6135437 1.1640165 0.1928695
000240 9b ef a4 be 2a 14 28 bf b7 e9 19 3f f0 c4 17 be
       -0.32214054 -0.6565577 0.60122246 -0.1482122
000250 73 d5 4c bf 41 07 a9 be f8 60 37 3d d0 ff e1 bf
       -0.800132 -0.33013347 0.04477021 -1.7656193
000260 97 fb 10 be c0 19 cf 3f 99 64 a7 3f 2f 8a 8b be
       -0.14158474 1.6179733 1.3077575 -0.27253863
000270 ec 8a 9e be e4 e0 88 bf 7c 2e cb 3f 0e 13 d0 3e
       -0.30965364 -1.0693631 1.5873561 0.40639538
000280 1b 7b 67 be 04 20 5d bf d1 dd fc 3e ab d2 a1 3e
       -0.22605555 -0.86376977 0.49387982 0.3160604
000290 e3 61 d3 bc 58 26 da 3f 9b 5f de be d9 84 22 bf
       -0.025803512 1.7042952 -0.43432316 -0.6348396
0002a0 fa bc 02 bf 7a 9e 29 3f eb e9 6c 3f 63 0b cb 3f
       -0.51069605 0.6625744 0.9254443 1.586285
0002b0 2f 4d 3e 3f 0a 5f 4a 3f cf c9 69 3f 0d 9d 19 3f
       0.7433652 0.7905127 0.9132356 0.60005265
0002c0 e1 84 9f 3f aa 2c ab 3e 78 7d 02 40 5d 99 74 3e
       1.2462426 0.33432513 2.038908 0.23886628
0002d0 1a 2e 6b bd 73 c4 9f 3f a9 bd 0a 3c 17 f2 c2 bf
       -0.057417013 1.2481827 0.00846807 -1.523013
0002e0 74 54 73 3e 96 a9 62 3d 5a 2d a1 be b1 6c d6 be
       0.23762685 0.05533751 -0.31479913 -0.418798
0002f0 b0 ac d7 b8 34 2a 72 3e 05 ee 8d bf f3 a8 b8 bd
       -0.000102841645 0.23648912 -1.1088263 -0.090165995
000300 20 90 8d bf 56 33 59 3f 5c d2 5b 3f 32 ee 14 bf
       -1.1059608 0.8484396 0.8586786 -0.5817596
000310 a5 07 35 bf c9 24 4b be 12 61 43 bf 20 fe d9 3e
       -0.7071479 -0.19838251 -0.7631999 0.42576694
000320 92 4d 32 3e 00 55 f6 3e 3d f6 cb be ce 65 2a bf
       0.17412403 0.48111725 -0.39836302 -0.6656159
000330 1d 30 f0 3c e7 1e a4 3e 08 c5 7e be 62 df 11 bf
       0.029319817 0.32054827 -0.24879849 -0.5698148
000340 d4 8f 84 bf d8 0b 42 3f ed 19 61 3f 27 7a b1 be
       -1.0356393 0.7579932 0.87930185 -0.34663507
000350 54 75 4d bf e0 9e 42 be de 46 c2 be 99 22 01 bf
       -0.80257154 -0.19005919 -0.37944692 -0.50443417
000360 28 6c 4b 3f 6b 3c 50 bc c5 f9 a8 be e2 da 83 3e
       0.7946191 -0.012709717 -0.3300306 0.25752932
000370 0f 79 6d 3e 14 d9 a6 bf 96 36 a2 3c b7 56 52 3f
       0.23190711 -1.3034997 0.01980142 0.82163566
000380 da 5e e4 3d 3a 58 b0 3e 58 a8 cb bd 0c 94 85 be
       0.11150904 0.34442312 -0.099442184 -0.26089513
000390 af 65 99 bf 12 33 b6 bf 16 44 5a 3e bd e2 d2 3f
       -1.1984156 -1.4234335 0.21315035 1.6475445
0003a0 fc 5a ce 3e a7 5e 07 40 9d 45 5d 3e 66 42 8d 3f
       0.4030379 2.1151521 0.21608587 1.1035888
0003b0 3f be 2a c0 4f 29 4c 3f 19 3b 30 bf 2e 9b 1b 3f
       -2.6678617 0.7975053 -0.68840176 0.6078366
0003c0 13 e7 08 3f 88 ab c2 3f 28 85 04 3f 8e 61 d4 be
       0.5347759 1.5208597 0.5176568 -0.41480678
0003d0 8e 02 9c 3e 23 95 cc 3d 41 4b 34 3f 56 01 37 40
       0.304707 0.09989383 0.7042733 2.8594565
0003e0 b6 a3 78 bf 26 2b 31 be d8 49 13 40 ee ae 90 3e
       -0.97124803 -0.17301616 2.301382 0.2825846
0003f0 d5 c5 9f bd c1 d9 b6 be de 01 1f bf fe fc 40 3e
       -0.07801405 -0.35713008 -0.62112224 0.18846509

arith.constant4 f4 [128]
000000 61 54 89 bf ea e7 b2 bf 0e ef 9d bf 5a 41 ae be
       -1.0728875 -1.3977025 -1.2338579 -0.34034234
000010 0b ec 17 be 66 60 b4 bf 0d 19 7f bf 27 08 53 3f
       -0.14836137 -1.4091918 -0.996476 0.82434314
000020 5f 8d 31 bf 84 82 67 bf 49 76 76 bf 4d c0 db be
       -0.6935634 -0.90433526 -0.9627424 -0.4292015
000030 03 1b e9 bf e8 d8 13 bf 61 7f 9d bf 3c 33 8b bf
       -1.8211368 -0.5775285 -1.2304498 -1.087501
000040 4a 05 30 bf dd a2 f5 3b fd ea 3e be ed b2 d8 be
       -0.6875807 0.0074962215 -0.18644328 -0.4232401
000050 1a a4 7b bf 99 92 9f bf ab 55 9c 3e 5b 60 86 bf
       -0.98297274 -1.2466613 0.3053411 -1.0498155
000060 10 d4 6e bf 27 d5 81 bf 62 5e 62 bf da 65 c2 be
       -0.9329233 -1.0143174 -0.88425267 -0.37968332
000070 b2 f3 74 bf 4d be c4 be 93 51 25 bf d7 10 c1 bf
       -0.9568435 -0.38426438 -0.645776 -1.5083264
000080 26 b4 52 bf 19 c2 cd be aa 34 e4 be 44 e4 c2 be
       -0.82306135 -0.40187147 -0.4457143 -0.38064778
000090 45 9e 54 bf 96 8a 81 bf 40 57 d1 bf 14 ce 26 bf
       -0.83054 -1.0120418 -1.6354752 -0.651582
0000a0 55 e9 bf be 4b 2d ff bf 00 e7 6d bf 71 f4 49 3f
       -0.37482706 -1.9935697 -0.92930603 0.78888613
0000b0 48 b9 01 bf 06 1e 24 bf a8 f5 84 bf 92 e9 6a bd
       -0.5067334 -0.6410831 -1.0387468 -0.057351656
0000c0 02 66 c2 bf 00 9b 36 be 55 09 a1 bf 89 eb 85 bf
       -1.518738 -0.17832565 -1.2580973 -1.0462505
0000d0 44 89 33 3e d2 2e a2 be 27 f6 21 3f b0 a0 36 bf
       0.17532831 -0.31676346 0.63266224 -0.7133894
0000e0 fa 76 53 bf ae ff 80 bf 88 4f b0 bf fa 0e b8 bf
       -0.8260342 -1.0078027 -1.3774271 -1.437957
0000f0 79 0c 68 bf 68 f2 35 bf b9 87 37 bf 2f 6b 11 bf
       -0.9064403 -0.7107301 -0.7169147 -0.56804174
000100 ef 79 a0 bf 97 1e f5 3e 66 c9 68 bf 2b f6 5d bf
       -1.2537211 0.478749 -0.9093231 -0.8670375
000110 0d 36 b7 be 21 30 91 bf 89 4b 62 bf bb 39 b1 bf
       -0.35783425 -1.1342813 -0.8839651 -1.3845743
000120 53 b5 3b bd 29 d5 65 bf 53 89 0b 3d f5 d1 7b bf
       -0.04582722 -0.8977838 0.03406651 -0.98367244
000130 3f 65 08 be 29 a1 7e bf e5 31 9f be 2d ca af bf
       -0.13319872 -0.9946466 -0.31092754 -1.3733574
000140 09 e9 81 bf ca 74 1d bf e8 3c f7 be 6b b2 f5 be
       -1.0149242 -0.6150633 -0.48288655 -0.47987685
000150 df 49 9b bf 1a 26 e5 3e b4 42 96 bf fe 03 ef 3d
       -1.2131919 0.44755632 -1.1739106 0.11670683
000160 de b7 92 bf 34 33 bc 3e 15 a4 1c be c4 71 7b be
       -1.1462362 0.36757815 -0.15296967 -0.24555117
000170 0f fc 50 bf 7e 96 3a bf 3e 81 bd bf 07 84 d1 be
       -0.8163461 -0.7288588 -1.4805067 -0.4092104
000180 10 14 8c bf 0e 5e 27 bf bc 5d 46 be 3c 32 d4 be
       -1.0943623 -0.6537789 -0.19371694 -0.41444576
000190 dc 68 be 3d 38 95 10 bf c3 39 c1 bf 07 7b a8 bf
       0.09297344 -0.5647769 -1.5095752 -1.3162545
0001a0 30 99 8f bf 3c 9f 84 bf da ec e9 bf ce f8 9c 3e
       -1.1218624 -1.0361094 -1.8275406 0.30658573
0001b0 4d 35 e9 be d3 1e 61 bf a4 48 53 bf 1c b4 fb be
       -0.45548478 -0.8793766 -0.82532716 -0.4916085
0001c0 bc 0b 84 bf a9 ae 51 bf 43 f3 6c bf 94 54 13 bf
       -1.0316081 -0.81907135 -0.9255869 -0.5755093
0001d0 a5 f0 4b bf 02 14 73 bf fd 0b ae 3e c2 b7 e8 be
       -0.7966407 -0.94952404 0.3399352 -0.45452696
0001e0 14 2c 46 bf bc 17 1e bf 3f e9 12 bf 37 7c 98 bf
       -0.7741101 -0.61754966 -0.57387155 -1.1912907
0001f0 86 ab 9b bf 87 2a 67 bf 0c 31 97 bf ff 93 e7 3e
       -1.216172 -0.90299267 -1.1811843 0.452301

arith.constant5 f4 [128]
000000 ad f6 5c 3f eb 16 7a 3e 41 fd 10 be d3 91 19 3f
       0.863139 0.24422805 -0.14159109 0.59988135
000010 e5 64 0e 3f 14 3d 31 be 72 dc de 3d e2 7d 4b 3f
       0.556227 -0.17308456 0.1088189 0.79488957
000020 b7 6f 03 3f c6 42 5e 3f d0 70 79 3e 2f 40 43 3f
       0.5134234 0.8682064 0.24359441 0.7626981
000030 0b 38 d9 be e7 ba 31 3f e1 fd cd 3e e9 07 c8 3e
       -0.4242557 0.69425815 0.40232757 0.39068535
000040 bf 4b 92 3e 12 07 3d 3f bd d3 c2 3e 76 20 16 3f
       0.28573415 0.73838913 0.38052168 0.5864328
000050 a2 88 68 3f 04 d9 fd 3e 67 b0 34 3f 2c fd 19 3d
       0.90833485 0.49579632 0.7058167 0.03759496
000060 1f ab 8b 3f d2 42 46 3f 53 2d 4d be 7f 6f e1 3e
       1.0911597 0.7744571 -0.20036821 0.44030377
000070 d6 9d c8 3b a3 e8 14 3f 8e ba a0 be 04 f9 41 bd
       0.006122331 0.58167475 -0.3139233 -0.04735662
000080 fb c5 35 3d 14 75 55 3f 55 84 88 3f 52 40 2b 3e
       0.044378262 0.8338177 1.0665385 0.16723755
000090 e1 5f 7f 3f 3d 41 9b 3e 22 03 89 3f 1d 0d 8c 3f
       0.99755675 0.3032321 1.0704081 1.0941502
0000a0 9a f0 95 3e d3 3f 07 bf 29 6a c1 bd 47 77 a8 be
       0.29285127 -0.52831763 -0.094440766 -0.329035
0000b0 23 e9 02 40 37 d3 db 3f c0 2b 93 3f 18 e0 7f 3f
       2.0454795 1.7173833 1.1497726 0.99951315
0000c0 4b 7a bc be fd 91 ab 3e 2e f0 ba 3e c6 e2 99 3f
       -0.36812052 0.33509818 0.36511368 1.2022331
0000d0 57 c0 7a 3f b8 4a b0 3f c0 09 a9 3f 6a 5b 60 3e
       0.9794974 1.3772802 1.32061 0.21909872
0000e0 81 22 40 3e 9b 93 36 3f 5b 1d 72 3e fc 8a 4a bd
       0.18763162 0.7131898 0.2364401 -0.049448952
0000f0 dd 9b a6 3f bb 90 3a bd f0 f1 16 3f 15 82 31 3f
       1.3016316 -0.045548182 0.5896292 0.69339114
000100 71 dc 1d 3e 7c c1 d2 3e 53 63 f3 3e 03 82 26 3f
       0.15416123 0.41163242 0.47536716 0.6504213
000110 e8 19 00 3f df f2 f4 3d 31 22 98 3f 7e be 17 3f
       0.5003953 0.119603865 1.1885434 0.59275043
000120 ce d2 ce 3e 5c 8a f4 3e d7 c3 86 3e f6 62 15 3f
       0.40395206 0.4776181 0.2632129 0.5835413
000130 60 d5 c9 3f d7 e2 82 3f dd 87 07 3f 60 e0 8d bf
       1.5768242 1.0225476 0.52941686 -1.1084099
000140 2c 13 da be be 24 2f 3f 3a 25 4c 3f f8 71 65 3f
       -0.42592752 0.6841544 0.79744303 0.8962703
000150 43 c2 20 3f 01 37 cb 3d fb da 9b be de bf 85 3f
       0.6279642 0.099226005 -0.30440506 1.0449178
000160 6b 0e cf 3d 6e a7 5a 3f 06 1f 43 3e 47 1b 45 3f
       0.10110172 0.8541173 0.19054803 0.76994747
000170 c1 e1 f3 3e 73 d2 8c 3e ce 27 8c 3e d9 b1 88 3f
       0.47633174 0.2750431 0.2737412 1.0679275
000180 f2 83 a3 3e f3 99 54 3f 70 3f 9c 3f 97 24 13 3f
       0.31936604 0.8304741 1.220686 0.57477707
000190 8f 71 44 3f 22 74 93 3f a2 b5 1a 3f 9e c9 76 3f
       0.76735777 1.1519816 0.604334 0.96401393
0001a0 63 74 b0 3e d7 a2 33 3e eb db 2c bd eb 97 e6 3e
       0.34463796 0.17542587 -0.042201918 0.4503778
0001b0 44 28 90 3e 3f f7 4b 3e 4e 28 a4 3f e6 f8 28 3e
       0.2815572 0.19918536 1.28248 0.16501197
0001c0 71 b6 80 3f e5 75 0c 3f df 1c c2 3d 53 f9 9c 3f
       1.0055677 0.5486739 0.09478163 1.2263588
0001d0 0d b7 58 3d c9 bf 2f 3f 46 27 00 3f ec 8d 1f 3f
       0.052908946 0.68652016 0.50059927 0.6232593
0001e0 8a 16 00 3f 1c 1f b5 be 4e 75 70 3c 08 ec bf 3e
       0.5003439 -0.35375297 0.014676405 0.37484765
0001f0 ca af e6 3e 5c 8f e7 3e 00 a4 e4 3e aa 10 8f 3f
       0.4505599 0.45226562 0.44656372 1.117696

arith.constant6 f4 [128]
000000 0e 0a 1b be 75 83 cb 3d e5 f2 f1 be 5c d4 8c 3e
       -0.15140554 0.09937183 -0.47255626 0.27505767
000010 79 00 54 be 9a 64 17 be 45 97 10 bf 2a 01 34 3e
       -0.20703305 -0.1478447 -0.5648082 0.17578569
000020 e1 43 0b 3e d7 09 27 be 6c 78 6d 3d 59 b8 a0 3c
       0.13600112 -0.16312347 0.05797617 0.019619154
000030 b6 0b 86 be 33 80 14 bf ea f0 ba be f6 82 9c be
       -0.2618081 -0.58008116 -0.36511928 -0.30568665
000040 49 a6 4f bf b5 d5 86 bc 64 2f 34 bd a9 5f 65 be
       -0.81113106 -0.016459325 -0.043990508 -0.22399773
000050 2d 66 8f 3e 97 c8 ba 3c e1 0b 72 bd 79 ed 60 3e
       0.2800764 0.022800727 -0.05909336 0.21965589
000060 59 e6 a3 bc 19 0a c7 3c d0 a6 7f be 6f d0 99 bd
       -0.0200073 0.024296807 -0.24965978 -0.07510459
000070 39 ed 08 3f af dc 19 3f 99 d1 d5 be 7f 49 b4 3e
       0.53486973 0.6010236 -0.41761473 0.35212323
000080 d3 48 d3 3e 5a c5 fc 3e 30 8b 89 be fc 1c 2f 3d
       0.41266498 0.49369317 -0.26864004 0.04275225
000090 7c 1f 7c be 8b a5 e3 be 21 7a 83 3e 24 fe 13 3e
       -0.24621385 -0.44462237 0.25679114 0.14452416
0000a0 59 c2 98 bd a2 a9 00 be 59 a0 3b bf 13 89 97 bd
       -0.07458944 -0.1256471 -0.73291546 -0.07399192
0000b0 f4 be b7 be ff d3 c2 bd 2f 26 41 be 33 de 01 3e
       -0.35887873 -0.09513091 -0.18862222 0.12682419
0000c0 02 61 b4 bd 3a ef cc bd 4a 95 cf be 37 81 09 3d
       -0.08807565 -0.10006566 -0.40543586 0.033570495
0000d0 c4 72 af 3d 6d cb 34 3e 05 76 e7 3d 5e 47 78 3e
       0.08566812 0.17655726 0.11301807 0.24245974
0000e0 70 11 e5 be d8 75 b8 3d b6 16 17 bd a5 6d 1e be
       -0.44739866 0.09006852 -0.036886893 -0.15471514
0000f0 b5 47 53 be 3a a5 c8 bd 0d a9 28 3e fb d9 65 bd
       -0.20632823 -0.097971395 0.16470738 -0.056116085
000100 f6 1a 30 be 0f 4e 39 3e 8a 38 3a bd da dc 02 be
       -0.17197785 0.18096183 -0.045464076 -0.1277956
000110 8d 17 42 3f ec 60 5a be 22 62 06 3e 9f a9 0a bd
       0.75817186 -0.21326035 0.13123372 -0.03385317
000120 f0 4b 77 3e 03 96 ef 3d 84 23 93 3c 6b 67 d2 bd
       0.24150062 0.11698534 0.017961271 -0.10273632
000130 92 9e 3a bf 56 d4 bf bd 14 f5 b0 3d 07 ff 02 3d
       -0.7289821 -0.09366672 0.08640495 0.031981494
000140 98 41 9f 3d ad ce 00 bf 6b b9 40 3e e0 3c 4b 3e
       0.07776183 -0.5031536 0.18820731 0.1984744
000150 3f 85 fd bd f9 b6 26 be 69 3e 12 bd 67 b4 80 bd
       -0.1237893 -0.16280736 -0.03570405 -0.06284409
000160 de a5 96 be a7 f1 e8 3d cb 91 2a 3e 95 ac b9 be
       -0.29423422 0.113742165 0.16657178 -0.36264482
000170 f6 2c 3e 3e 45 3d 78 3c 46 27 91 3e 88 89 98 bd
       0.18571839 0.015151327 0.28350276 -0.07448107
000180 41 ca 14 be 6b b1 c5 3d 18 d6 e3 3e 05 90 47 3e
       -0.14530279 0.096529804 0.44499278 0.19488533
000190 f2 38 65 3e 06 b0 7c 3e 50 31 1f 3e 27 aa 1e 3e
       0.22385004 0.24676523 0.15546155 0.15494595
0001a0 0e 39 28 3d a4 71 b0 3e 2d d7 80 3e fe 39 05 3e
       0.041070037 0.344617 0.25164166 0.13010404
0001b0 e0 a9 50 3e 7e 32 16 bf d6 71 d8 bc 58 71 0b 3f
       0.20377302 -0.58670795 -0.026421469 0.54469824
0001c0 1d 3b 02 bf 29 49 a3 3e 37 6d 6a be c0 ce 9e 3e
       -0.5087145 0.31891754 -0.22893225 0.31017113
0001d0 06 ad 33 be 83 76 3d 3e e5 86 0a bd f4 c3 3f be
       -0.17546472 0.1850224 -0.03382005 -0.18727094
0001e0 69 e6 2b 3f 2f bf af be 5c b2 21 3e 1b 61 94 bd
       0.67148453 -0.3432555 0.15790695 -0.07245084
0001f0 86 9e 3b be 64 b5 57 3e 09 ba 02 be 65 83 8e 3d
       -0.1832219 0.21065289 -0.1276628 0.06958655

arith.constant7 f4 [128]
000000 f8 e8 65 bf 52 a1 97 bf 31 f4 9d bf 8e 05 16 bf
       -0.8980861 -1.1846106 -1.2340146 -0.58602226
000010 07 f4 6b bd 52 95 d2 bf 75 f0 39 bf 18 cb ca 3e
       -0.05760577 -1.6451819 -0.72632533 0.39608073
000020 76 3d 21 bf 88 d6 61 bf a2 53 94 bf f2 d0 b2 be
       -0.62984407 -0.88217974 -1.1588023 -0.34925038
000030 04 60 f2 bf e3 85 ea be ff 26 a3 bf 87 03 9b bf
       -1.8935552 -0.45805272 -1.2746276 -1.2110451
000040 cb 9e 35 bf 47 dd 0d 3e f2 52 2a be 51 42 15 bf
       -0.70945424 0.13853942 -0.16633204 -0.58304316
000050 df 0f 6a bf da 2f a1 bf 9f a2 25 3f a9 67 73 bf
       -0.9143047 -1.2592728 0.64701265 -0.9508005
000060 7d c5 2c bf c0 46 83 bf 65 3f 58 bf 4c a8 e0 be
       -0.67488843 -1.0255966 -0.8447173 -0.438784
000070 fe 77 90 bf 9a a4 a1 be 95 f6 28 bf 03 f8 ae bf
       -1.1286619 -0.31570894 -0.66001254 -1.3669437
000080 c2 79 61 bf 01 54 1e bf 2e 34 25 bf b2 d4 c8 be
       -0.8807641 -0.6184693 -0.64532745 -0.39224774
000090 90 02 cb be 76 08 7e bf 0a 90 c4 bf c8 ce 01 bf
       -0.39650393 -0.9923166 -1.5356457 -0.5070615
0000a0 f5 67 3d be 10 3e 08 c0 0a 9c 83 bf 5a 11 6b 3f
       -0.18496688 -2.128788 -1.0281994 0.9182335
0000b0 0e ec 41 3d 3c 1c f8 be 23 c9 25 bf 6b 08 da bd
       0.04734426 -0.4845904 -0.64760035 -0.10646137
0000c0 21 aa 95 bf 55 76 c0 be 68 b2 7a bf ef 98 60 bf
       -1.1692544 -0.3759028 -0.97928476 -0.8773336
0000d0 e2 82 68 be 90 87 3b 3d 7a 0d 78 3e 8a 9c 3e bf
       -0.22706178 0.04578358 0.24223891 -0.7445761
0000e0 c8 df 50 bf c1 c8 96 bf 9b cc b3 bf 2f d4 a3 bf
       -0.81591463 -1.1780015 -1.4046816 -1.2799128
0000f0 0d ff 2e bf c3 2a 22 bf a1 78 29 bf 86 0a e4 be
       -0.68357927 -0.633465 -0.6619969 -0.4453928
000100 02 ca da bf 18 80 03 3f cb a5 6a bf 26 cd 5c bf
       -1.7092898 0.5136733 -0.9165923 -0.8625053
000110 fc 75 06 bf d0 27 8c bf dc 2e dd be bc e8 84 bf
       -0.5252378 -1.094965 -0.43199813 -1.0383525
000120 a3 af f5 3d 2f cb 39 bf 5a a8 a9 be c4 73 3a bf
       0.11996391 -0.7257566 -0.33136255 -0.72832894
000130 f1 0f 09 bf e5 7c 15 bf ea f5 4a bf 3b 7e af bf
       -0.5353995 -0.583937 -0.79281485 -1.3710397
000140 cf 23 68 bf 30 4f 21 bf 7c 00 a4 be 90 34 ec be
       -0.9067964 -0.63011456 -0.3203162 -0.46133852
000150 9c 4e a7 bf c1 38 e4 3e 00 0d 94 bf 61 b9 bb 3e
       -1.3070865 0.4457455 -1.1566467 0.3666487
000160 06 1c 4f bf 16 45 2c 3f 34 5c 91 be 38 84 ee be
       -0.80902135 0.67292917 -0.28390658 -0.4658525
000170 1d 54 54 bf 61 96 18 bf 7a dd a7 bf 0a d9 a9 be
       -0.82940847 -0.5960446 -1.3114464 -0.331734
000180 c3 a3 6a bf c1 76 f0 be f7 49 bc be 41 d3 de be
       -0.9165613 -0.46965602 -0.3677518 -0.4352055
000190 bf 66 92 3e 33 8b 17 bf 16 d2 a3 bf fa 8e 74 bf
       0.28594014 -0.59196776 -1.2798488 -0.95530665
0001a0 be 89 86 bf 80 5b 5a bf 23 35 b6 bf 40 de c6 3e
       -1.0510786 -0.8529587 -1.4234966 0.38841438
0001b0 cf dd 0a bf fd 46 1d bf 15 91 12 be 3a 58 5a be
       -0.54244703 -0.61436445 -0.14313157 -0.21322718
0001c0 a1 20 31 bf 43 cc 1c bf 5f 33 3d bf a2 49 b7 be
       -0.6919041 -0.6124918 -0.7390651 -0.35798365
0001d0 df 65 81 bf e2 89 a0 bf a2 14 0b 3f 33 e3 50 bf
       -1.0109214 -1.2542078 0.5432836 -0.8159668
0001e0 79 48 1d bf 6d 0f 06 bf fd 2e 51 bf d5 54 97 bf
       -0.6143871 -0.5236729 -0.81712323 -1.1822764
0001f0 64 e0 97 bf 9b 45 71 bf 0e 48 3b bf 47 30 61 3f
       -1.1865354 -0.94246835 -0.7315682 0.8796429
