Riproduzione/models/FD003/CNNAlternativeQUAD/CNNAlternativeQUADCNN_alternative_QUAD_batch_1.tflite (tflite, 922668 bytes, 11 tensors)

sequential_3/conv1d_10/BiasAdd/ReadVariableOp f4 [256]
000000 48 24 15 3d c0 ce 40 bc 9d f1 09 3d ab 0e 0d 3b
       0.036411554 -0.011768043 0.033677686 0.0021523635
000010 ea 95 88 3c 56 34 38 bc af 9a 61 bd 07 f9 0c bc
       0.016673047 -0.011242947 -0.05507916 -0.008604295
000020 0f 4c 2f 3d 87 8f 40 bc 58 11 82 3d 4d 48 46 3d
       0.042797145 -0.01175297 0.06350964 0.048408795
000030 a6 4f 14 3d de b8 2e 3d 4c cc b2 3b 0b 0a 9a 3b
       0.03620877 0.04265677 0.005456483 0.0047009042
000040 62 c7 a6 3c ad 7b 79 bb 4f 9c eb 3c 68 49 33 3b
       0.020358745 -0.0038068101 0.028761057 0.0027356986
000050 7e dd a3 3c a4 a5 00 bc 23 42 d1 3c 15 a0 0a 3d
       0.020003077 -0.007851992 0.025544232 0.033844072
000060 a7 b4 ec bb 88 10 28 bb 2d d9 5e 3d 77 60 5e 3c
       -0.007223684 -0.002564462 0.054406334 0.013572804
000070 1a c5 dc 3c bb ce 3d bc be 62 d2 3b a1 1c 19 3c
       0.026949454 -0.011584933 0.0064204624 0.009345205
000080 e4 5c f7 3c 32 78 07 3d 1d 10 ff 3c a5 66 f5 bb
       0.03019566 0.03307361 0.031135613 -0.007489043
000090 40 2e ee 3c 04 be dc 3c 27 42 20 3d 40 da 4c 3d
       0.029074788 0.026946075 0.039125588 0.050012827
0000a0 55 33 75 3c 62 c1 8b 3d 89 49 9d 3c e7 ca bc bc
       0.014965852 0.06823994 0.019200103 -0.02304597
0000b0 6a fc 84 3d e1 31 2e 3e d8 7a bb 3c 41 4e 0e 3c
       0.06493457 0.17011215 0.022885725 0.008685649
0000c0 02 d2 17 3d 7a 08 8f bc e0 95 e1 3c 23 4f bb bb
       0.037065513 -0.017460097 0.027537286 -0.005716221
0000d0 f0 ca 06 bd 99 5f 22 3d 9c 63 0f 3d 4b a1 f1 3c
       -0.03290838 0.03964195 0.035007104 0.029495856
0000e0 92 f2 22 bd cc c3 26 3d 41 e0 34 bc 76 a1 a0 3c
       -0.039782114 0.04071407 -0.011039794 0.01960824
0000f0 3a f2 13 3d bc 45 bc 3c 2a c9 90 3c 9b 9a ce bc
       0.036119677 0.02298247 0.017674047 -0.025220206
000100 37 5b d3 3c 1c a5 d2 bc 98 58 88 bc 63 23 2d 3c
       0.02580033 -0.025713496 -0.016643807 0.010567519
000110 af f6 01 3d 77 e8 8e 3c 58 43 a6 3d ed 4d 9a 3c
       0.031729396 0.017444832 0.081183136 0.018835986
000120 39 ca 1d 3d c5 ce db bc 74 d4 b1 3c 35 6b b4 bc
       0.038522933 -0.026831994 0.02170775 -0.022023777
000130 8f 9b 3a 3d 5c de 86 3c ff e9 89 3c 9f 08 d6 3b
       0.04555851 0.016463451 0.01683521 0.0065317894
000140 36 64 11 3c 12 84 88 3b 43 44 f0 3c 02 4d 56 3c
       0.00887399 0.0041661346 0.029329425 0.0130798835
000150 28 df d6 3c 9e 10 d8 3c e7 5d dc 3c eb 1a 3f 3c
       0.026229456 0.026375111 0.026900245 0.011664133
000160 70 0f 8f bd bf 51 73 bd 3c d6 45 3c 5a 25 c4 3b
       -0.06985366 -0.05940413 0.012075003 0.005985898
000170 6c 20 c6 bc ea ae 03 3d 6d b9 22 3c 50 e7 d7 bb
       -0.024185382 0.032149233 0.009931904 -0.006588854
000180 3f 14 23 3d f4 8f 80 bd 9a 70 82 3c 42 e1 bb bb
       0.03981423 -0.06277457 0.015922833 -0.00573364
000190 c0 c6 83 3d 99 00 9d bc f0 89 91 bc 1b 57 a4 bc
       0.06434393 -0.019165324 -0.017765969 -0.020061066
0001a0 20 f5 35 3d 64 c4 26 bd 5e bb d2 bd a3 aa 14 bb
       0.044423223 -0.040714636 -0.10289644 -0.0022684715
0001b0 84 8e cc 3c ac 07 d8 3d 21 47 5c bd 9c 4b bb 3c
       0.0249703 0.10548338 -0.05377877 0.022863202
0001c0 53 3b 1b 3d 6f b0 98 ba 94 71 62 bc 4a 26 b1 3c
       0.037898373 -0.0011649261 -0.013821024 0.021624703
0001d0 f9 a8 28 3d b4 c6 57 3c b2 cc 2f 3e 45 18 e7 3b
       0.04117677 0.013169933 0.17167929 0.0070524537
0001e0 b9 ce 01 3d 4c b7 00 3c 41 43 10 3d f7 a7 79 bc
       0.031691287 0.007856201 0.03522039 -0.0152378
0001f0 72 4b d0 bb bc f1 b5 3c 3f 0e d5 3c 01 05 27 3d
       -0.00635665 0.022209994 0.02600777 0.040776256
000200 6b c3 0a bd e8 2d 58 ba 9c 14 1a bc 68 f3 47 3c
       -0.03387777 -0.00082465867 -0.009404328 0.012204029
000210 1c 4e 38 3c dc a9 b3 3c 34 8a 34 bc 95 56 bb 3c
       0.0112490915 0.021931581 -0.011019278 0.022868434
000220 e4 7c 55 3c b0 3c 0a 3d b1 3c 1e bc 5f ae e6 38
       0.0130302645 0.033749282 -0.009658025 0.00010999734
000230 92 7d 4a ba 94 77 28 3d df 6d 13 3d 02 2e e9 3c
       -0.00077244 0.041129664 0.035993453 0.028464321
000240 d2 47 06 3d 81 d4 17 3d f2 d3 0e 3d 3d cd d9 3c
       0.032783337 0.037067894 0.034870096 0.026587123
000250 19 a0 c4 3c 93 be cf 3c aa 19 04 bd b5 52 19 3d
       0.024002122 0.025359428 -0.032251038 0.03743239
000260 ac 7e d4 bc c2 2e 8a 3c a7 5a 1c 3d 72 4e fe 3c
       -0.025939308 0.016867999 0.03817239 0.031043265
000270 0f 4a 11 3d f4 1b 04 3d cd 0a 05 3d 04 98 95 3c
       0.03547102 0.03225322 0.032481004 0.018260963
000280 68 e0 98 3b 55 e5 dc bb d2 8e 2f 3d a0 47 e8 3c
       0.004665423 -0.0067412057 0.042860813 0.028354466
000290 73 01 3e 3c 5a bb 5e 3c 7c 86 30 3d 82 e3 c3 3c
       0.011597025 0.013594473 0.043097004 0.023912195
0002a0 67 d7 a5 bb 39 2c b6 3c 82 97 6d 3c 91 12 08 3c
       -0.0050610784 0.022237884 0.014501454 0.008305208
0002b0 1d 13 d0 3c 7f e3 09 3c ed 3c 77 3c 41 ce 99 3c
       0.025399739 0.008416056 0.015090209 0.018775107
0002c0 45 70 1f 3d 08 5d 03 3d 98 78 e3 3c da 56 26 3c
       0.038925428 0.032071143 0.027767465 0.010152543
0002d0 01 b7 54 3d c3 87 ea 3c cf be b2 3b a2 bd 2c bc
       0.05193234 0.02862919 0.005454875 -0.010543259
0002e0 2f bb d3 bb 49 f5 6e 3d 69 9f ca 3c 9a e5 28 bd
       -0.006461523 0.05833939 0.024734216 -0.04123459
0002f0 3b 84 e6 3c 39 30 0d bc 6f 20 00 3e e7 a6 09 bc
       0.028139224 -0.008617454 0.12512372 -0.008401609
000300 2e 06 08 3d 75 86 dc 3c b9 49 02 3d 72 d8 67 bd
       0.03320902 0.026919583 0.03180859 -0.056602903
000310 55 83 7d 3d 66 37 0e 3d 6a 5c dc 3c da 11 05 3d
       0.061892826 0.0347208 0.026899535 0.032487728
000320 ce 5e eb 3c ca d3 33 3c a0 bd 2e 3c 09 d8 83 3b
       0.02873173 0.010975787 0.010665327 0.004023556
000330 c2 66 23 3d 23 68 cc 3c ad 9a c7 3c 82 66 bd 3b
       0.03989292 0.024952 0.024365747 0.005780042
000340 a4 93 42 3d be 6b c9 bb 71 e2 3e bd b3 16 12 3d
       0.047504082 -0.006146877 -0.04660267 0.03566618
000350 c9 01 a4 3c 80 86 bd 3c 18 b5 36 bd 53 3b 04 3d
       0.020020382 0.023135424 -0.0446063 0.03228314
000360 29 7f c9 3c 6f 03 b3 3c cc 0f 50 bd 92 b2 de 3c
       0.024596768 0.021852223 -0.050796315 0.027184758
000370 d6 e4 ff 3c 64 8c 13 3d c7 ec 01 3d 5e c1 09 3d
       0.031237047 0.03602256 0.03171995 0.033631675
000380 ba 86 b4 3c e4 74 9d 3c d1 2f 22 3d 0e 40 b5 3d
       0.022036899 0.019220777 0.039596383 0.08850108
000390 fc 0c 07 3d 15 99 b7 3d 49 64 f3 3b 01 11 9c 3c
       0.032971367 0.08964745 0.0074277264 0.019051077
0003a0 81 86 df 3c dd d6 d9 3c ac d9 91 3b ef 9e 0c 3d
       0.027285816 0.026591713 0.0044509973 0.03433126
0003b0 cf 22 0a 3b 2b 70 e0 3c bd eb 10 3c 7b b3 ee bc
       0.0021077876 0.027397236 0.008845267 -0.029138317
0003c0 20 76 c8 bb b5 3d e9 bb 53 38 18 3c 1a ba 02 3d
       -0.006117597 -0.0071179518 0.0092907725 0.03191576
0003d0 4b a9 93 bb 18 ba 24 3c 79 68 b7 3c 21 04 4d 3d
       -0.0045062653 0.010054134 0.022388684 0.050052766
0003e0 17 0e e8 3c fc df f2 3c 08 40 04 3d 5c 41 59 3d
       0.028327031 0.02964782 0.032287627 0.053040847
0003f0 db 7a b1 3c fd fe 18 bc 22 46 56 bd 5e c0 1c 3d
       0.021665027 -0.009338138 -0.052312978 0.038269393

sequential_3/conv1d_11/BiasAdd/ReadVariableOp f4 [96]
000000 f9 b0 c7 bb 78 20 41 bc 86 d7 24 3d 33 22 81 3d
       -0.006094095 -0.011787526 0.0402446 0.06305351
000010 ae bb d1 bb 3c af c4 bb c6 c9 ca bc ff 42 d3 bb
       -0.006400547 -0.006002335 -0.024754416 -0.0064471955
000020 e7 9c f0 bb c3 18 e4 bb f3 c7 53 3d ca da 69 bb
       -0.007342923 -0.0069609596 0.05170436 -0.0035683387
000030 6e 4e a4 3d 43 26 50 3d bc 37 c0 bb 51 a3 84 3d
       0.08022772 0.05081774 -0.005866019 0.06476463
000040 9e 88 4a 3d 57 f9 c4 bb 34 4f 06 bc 0b ab 8b 3d
       0.049446695 -0.006011169 -0.008197594 0.06819733
000050 fc 48 2e bc 6b d5 4a 3d db 2a a8 3d ab f7 21 3d
       -0.010637518 0.049519937 0.08211299 0.039542835
000060 36 6e 52 3d 21 93 d3 bb 95 21 0a bc fb 08 89 bb
       0.051374637 -0.006456748 -0.008430858 -0.0041819788
000070 69 20 03 3e f5 f1 4f bc 88 cf c5 bb 82 4d 6e 3d
       0.12805332 -0.012691964 -0.0060367025 0.058179386
000080 db 42 c2 bb cd 20 5b 3d 73 79 8a 3d 3f 41 74 bb
       -0.00592838 0.05349808 0.06761446 -0.0037270335
000090 23 eb f4 3c 87 b9 d4 bb 36 72 ac bb 98 f7 c9 bb
       0.029897278 -0.006491843 -0.0052626384 -0.0061635487
0000a0 ea 73 f1 3c 52 99 21 3d 85 c8 c4 bb 9b 35 94 bc
       0.029474217 0.03945286 -0.006005349 -0.018091967
0000b0 c0 82 b6 bb 01 c9 c4 bb 22 f7 ca bb e6 2c 66 3d
       -0.005569786 -0.006005407 -0.0061940113 0.056195162
0000c0 b7 e9 0c bc 4f 89 56 3d ec be 5a 3d 29 7c 9a 3d
       -0.008600644 0.05237704 0.053404734 0.07543213
0000d0 e3 0b c5 bb 37 98 c6 bb 09 9b 07 bc 5d 78 c4 bb
       -0.00601338 -0.006060626 -0.008276709 -0.0059957937
0000e0 a7 37 c0 bd 9a 35 73 3d 98 7d 65 3d a2 67 be bd
       -0.09385615 0.05937729 0.05602798 -0.0929711
0000f0 2b 1a 41 bc 1c 59 f3 3c f6 d1 c9 bb d3 ab 9c bb
       -0.011786024 0.029705577 -0.0061590625 -0.004781225
000100 15 46 38 bc 86 6d 71 3d 99 91 84 3d e5 29 03 bc
       -0.011247178 0.05894234 0.06473083 -0.008005594
000110 67 99 82 3d fe 9c 6e 3d 7d bf 93 3d 64 55 6c 3d
       0.063769154 0.05825519 0.07214258 0.057698622
000120 90 bf c7 3b bb b7 c4 bb d5 14 04 bc 06 93 a0 bb
       0.006095834 -0.0060033477 -0.008061607 -0.004900339
000130 93 ab 79 3d 66 bf 0a bc a7 ed 1f 3d 1b a7 c4 bb
       0.06095464 -0.0084684845 0.039045002 -0.006001366
000140 c8 d2 c4 bb 10 80 90 bc 11 da ae bb 5b 51 a9 3d
       -0.0060065724 -0.01763919 -0.005336054 0.082674704
000150 37 66 bb bb 0b 58 c3 bb c8 39 ee bb 29 a7 8c bb
       -0.005718972 -0.0059614233 -0.0072700717 -0.004292388
000160 23 60 0a bc 06 c4 9e 3d 38 36 e9 bb 2e 44 87 3c
       -0.008445772 0.07752232 -0.007117059 0.016512003
000170 49 43 9a bb 34 d0 c4 bb 72 9f c4 bb 6d 9f 08 3d
       -0.004707728 -0.006006265 -0.0060004527 0.033355165

sequential_3/conv1d_12/BiasAdd/ReadVariableOp f4 [32]
000000 1e de 8a bd b6 38 84 3d 60 77 85 3d dc 0e 50 bc
       -0.06780647 0.06456129 0.065169096 -0.012698855
000010 ab fc a7 3d 35 da 73 3d 85 8e c4 3d 0a e7 27 bb
       0.082024895 0.05953427 0.09597496 -0.0025619888
000020 56 db c4 bb 43 65 4b 3a 57 12 ab bc f6 9a c6 bb
       -0.006007592 0.00077589246 -0.020882769 -0.0060609533
000030 c8 f9 fd bc 07 fc 8d 3d 80 e6 66 3d 45 6e be 3d
       -0.031002894 0.06932836 0.056372166 0.09298376
000040 65 66 33 bc 4c a6 b3 bb ce 18 24 3d ce 17 9e 3d
       -0.010949706 -0.0054824706 0.040062718 0.07719384
000050 ee eb 8f bd 53 27 10 be b1 23 c4 bb 05 29 ee bc
       -0.07027422 -0.14077501 -0.0059857 -0.029072294
000060 76 c9 c4 bb 67 a3 5b bc 8c e2 00 3e f5 a4 81 bd
       -0.0060054613 -0.013405657 0.12586421 -0.06330291
000070 79 69 2a 3d ba 1d a4 3d 8a c3 25 3b f8 76 3b 3e
       0.041604493 0.080134824 0.0025293552 0.18307102

sequential_3/conv1d_10/Conv1D f4 [256, 1, 7, 14]
000000 83 fd 1b bd 54 6f 7e bd 8b 6f 7c 3b 8e b7 23 3c
       -0.038083564 -0.06211789 0.0038518633 0.009992493
000010 62 20 77 3d c4 3b 9d 3b 5a 15 27 3d 5d f9 2f bd
       0.060333617 0.0047983844 0.040791847 -0.04296242
000020 07 47 a2 3d 24 61 2c 3d 43 de d2 bc 1a b0 a3 3c
       0.07923704 0.042084828 -0.025740748 0.019981433
000030 8a c6 a2 39 52 d5 3a bd 39 35 9f bc 2c ae 4a bd
       0.0003104697 -0.045613594 -0.019434558 -0.04948251
000040 12 3e ef 3b ff 98 08 3c c6 c2 6d bc fc 12 0c 3d
       0.0073011005 0.008337258 -0.01451177 0.034197792
000050 86 51 bf 3c fb c3 4d bb a3 a2 89 3d b7 ff a3 bc
       0.023354303 -0.003139733 0.067204736 -0.020019395
000060 f1 5f 50 bd 33 fc 24 3c d8 c8 8f 3d c3 bd e8 bc
       -0.050872747 0.010069895 0.0702073 -0.028410798
000070 87 91 7d bb 7f fb 77 bd b8 48 db bb a7 e7 66 bd
       -0.0038691477 -0.06054258 -0.0066920184 -0.056373265
000080 25 2e 95 3d 45 97 71 bd e4 90 51 3d 8d dc 1b bd
       0.07284192 -0.058982152 0.05116357 -0.03805213
000090 8b 43 ef 3b dc 48 5f bc 6c 1f e0 bc af 0c 3f bd
       0.007301753 -0.013628211 -0.027358733 -0.046642955
0000a0 28 20 f8 ba 17 53 2c bd 2a 18 12 3d 7c 11 74 bd
       -0.0018930482 -0.04207143 0.035667576 -0.059586987
0000b0 38 79 a0 bc bd a8 30 3d 62 f3 a5 bc 5c 8d 58 bd
       -0.019589052 0.04312967 -0.020257656 -0.052869186
0000c0 16 8a 12 bd 93 7e f6 3b 8e d3 6d 3d 9e ef 0c bc
       -0.03577622 0.007522413 0.058063082 -0.008602051
0000d0 3a b7 d2 bc 5d a7 30 bd a9 53 b0 3c 63 19 94 bc
       -0.025722135 -0.04312836 0.021524267 -0.018078512
0000e0 ce 40 a9 bd 3a e8 fb bc 6c 08 f5 bc a3 40 00 3d
       -0.08264314 -0.030750383 -0.029911242 0.031311642
0000f0 d1 7e ee bc 84 c1 af bb 6a 3b 24 bd 22 02 9b bd
       -0.029113205 -0.005363645 -0.040095724 -0.07568766
000100 ba de 35 3d 1a 7d 7b 3c 86 22 de ba 58 c2 2a bc
       0.04440186 0.015349651 -0.0016947545 -0.010422312
000110 88 0f d0 3c 0a 25 cb 3b 0c 91 83 bd e7 f4 8d bd
       0.02539803 0.0061994838 -0.0642415 -0.06931477
000120 cf d0 95 bb d0 c6 75 bd ef dc 86 3c db f7 50 bd
       -0.004572011 -0.060004056 0.016462771 -0.051017623
000130 ce 7d 19 bd 2d 93 2b bd 59 ca 05 bd 5d 72 98 bd
       -0.037473492 -0.041888405 -0.032663677 -0.07443688
000140 c5 41 2b bd a3 c6 98 3c 7b eb bb 3b 87 92 f0 ba
       -0.04181077 0.018649405 0.0057348586 -0.0018354215
000150 15 10 01 be d7 aa 02 be aa e6 c6 bd 03 b3 f0 bc
       -0.12603791 -0.12760483 -0.097119644 -0.029382234
000160 a4 69 87 bd aa b7 69 3c 02 44 ba bd 38 7a fe ba
       -0.06611946 0.01426498 -0.09095003 -0.0019415086
000170 19 4b 7d bd f4 d6 9a bc fa 89 9d bd 62 84 31 bd
       -0.061839197 -0.018901326 -0.076923326 -0.04333914
000180 73 ee d0 3d 11 7d 8c 3a 0c d7 c7 3c 93 82 95 3c
       0.102017306 0.0010718425 0.024394535 0.01825074
000190 4f 92 16 3d 2e 30 14 3d ac bc a9 bd e1 4f ac 3c
       0.036760624 0.03617876 -0.082879394 0.021034183
0001a0 3b 89 fe 3b 41 82 2d 3d 62 5d 0a bd a4 ce 56 3d
       0.007767824 0.042360548 -0.033780463 0.05244316
0001b0 f3 ce f8 3c bd 36 b9 bc 0a e9 5c bc fa 8d 3a bd
       0.030372119 -0.022609109 -0.013483295 -0.045545556
0001c0 6c ca 44 3d 9f 7d 8b bc 1b 70 fa bc 90 d4 ef bb
       0.048044607 -0.017027674 -0.030571034 -0.0073190406
0001d0 29 47 6c bd b5 39 c5 3c e4 43 61 3d 73 bb a4 3c
       -0.05768505 0.024075368 0.054996386 0.020108914
0001e0 50 01 4e bd 8c 0f 1c 3d 6e 29 93 bc c9 35 b4 3c
       -0.05029422 0.038100764 -0.017964091 0.021998303
0001f0 5b 0f b4 bd 32 51 1a bd 52 3d a4 3c 02 f5 f0 3c
       -0.08791991 -0.03767509 0.020048771 0.029413704
000200 56 b2 14 3c e2 f3 36 bd 2e 54 b6 bd c1 3c c3 3b
       0.009075722 -0.04466618 -0.08902775 0.00595817
000210 50 8d 09 bd 3c 5b 49 3d 36 dc 60 bd fc 4c 39 bc
       -0.03358203 0.049159274 -0.05489751 -0.011309858
000220 2a 33 dc bc c5 6e 3d 3d df 34 8e bc 10 01 91 3c
       -0.026879866 0.046248216 -0.017359195 0.017700702
000230 74 1c 5a 3d df 05 7d 3d a0 32 0d bd c3 6f 2b bc
       0.05324979 0.061773177 -0.034472108 -0.010463658
000240 6f bb 9d bd 3e cc 29 bd 9c 02 1e bd 69 be a9 bc
       -0.07701766 -0.041454546 -0.038576707 -0.020720677
000250 f2 bd 04 bd 55 c9 10 bd 47 76 a8 3c 0e 62 5c 3d
       -0.03240771 -0.035348255 0.020564212 0.05380445
000260 ab 44 8a bd 7c ee a9 bc 9f b0 29 bd 5f 57 1c bd
       -0.067513786 -0.020743601 -0.041428205 -0.03816926
000270 6d 2b 4b 3d 3e 5b 27 3d c6 45 4c bd 25 e3 d8 bc
       0.04960196 0.0408585 -0.04987123 -0.026475498
000280 ad 6c 8c 3c cf 85 7c 3c f2 22 8a bd b5 d9 1c bd
       0.017141664 0.015412762 -0.067449465 -0.03829356
000290 ce 7c 99 3c 40 39 69 3c 42 ac a1 bd f7 ad 65 bd
       0.01873627 0.014234841 -0.07894184 -0.05607411
0002a0 ab 19 6b 3d 6c 37 5b ba 48 8f c2 bc 8e ac ec 3b
       0.057397526 -0.00083624455 -0.023749962 0.0072227186
0002b0 73 df 03 3c ff f6 3c bd 48 a6 10 3d 4d dc 27 3d
       0.00804888 -0.04613399 0.03531483 0.04098158
0002c0 6d af ab bd 7a a0 08 3d 28 52 b1 bc 93 86 39 3d
       -0.08383069 0.033356167 -0.02164562 0.045294356
0002d0 8e 9a a8 bd 9e e5 12 3d ef 88 3f bd 2a ed 10 3d
       -0.08232604 0.03586351 -0.04676145 0.035382427
0002e0 6f 62 6f 3a 67 f7 11 3d 06 7e cd bb c8 bd 9b bc
       0.0009131794 0.035636332 -0.0062711267 -0.019011393
0002f0 24 52 49 bd 24 b9 02 bb 2d cd 9c bd e4 3b de 3c
       -0.0491506 -0.0019946778 -0.07656322 0.027128167
000300 3f 68 3b bd 31 bf 2b bd d5 65 c7 bd cd e2 b4 3c
       -0.045753714 -0.04193038 -0.0973622 0.022080803
000310 9b c9 00 3d eb 50 a7 3c 79 38 5e 3d f9 a9 06 bd
       0.031442266 0.020424327 0.054253075 -0.032876942
000320 f2 55 54 3d f1 19 08 3c 53 e9 ba bc 8d df 32 bd
       0.051839776 0.008306966 -0.022816336 -0.043670226
000330 ff ee 9d 3d f8 b8 3d bd c6 cd 1e bc d1 e4 8a 39
       0.077116005 -0.046318978 -0.009692615 0.00026491893
000340 44 ba 1d 3d 6d 37 e3 3c 82 19 79 bc 2e c7 11 3d
       0.038507715 0.02773639 -0.015203835 0.035590343
000350 e9 c9 37 3d ad d2 13 3b 87 fa 91 3d 21 7b 37 bd
       0.04487029 0.0022555992 0.071278624 -0.04479516
000360 f7 c2 22 bc 49 c6 ae 3b 12 bc 90 b9 a5 9e 52 bd
       -0.009934179 0.005333696 -0.00027605944 -0.051420826
000370 67 8c 05 bd 0d 73 b0 bc c5 e1 10 bd c8 77 89 3c
       -0.0326046 -0.021539235 -0.03537156 0.016780749
000380 92 f7 85 bd ea ae a0 bc 0f 4c 20 3c ca 1b 74 bd
       -0.06541361 -0.019614656 0.009783759 -0.059596814
000390 90 41 14 bd e2 42 45 3c 08 77 a4 3c 6e 7d 74 bd
       -0.036195338 0.012039872 0.02007629 -0.05968993
0003a0 11 51 fd bc 61 d8 8d 3c 0c 3f 3a bd b5 1d 0a bd
       -0.030922445 0.017315092 -0.045470282 -0.033719737
0003b0 c4 84 85 bc 15 90 12 bc 90 d7 b6 3c 09 e8 42 bd
       -0.01629866 -0.008945485 0.022319585 -0.047584567
0003c0 dc 27 38 3d 0c e0 91 bc dc ee ae bc bf 4d 27 3d
       0.044959888 -0.01780703 -0.021354131 0.04084563
0003d0 7e b4 62 bd cd 51 e3 bc a5 35 e8 3b b7 2b c4 3c
       -0.055347912 -0.027748967 0.007086473 0.023946626
0003e0 20 ad ff 3a 82 f6 10 3c 31 e3 30 3d 74 ee 49 bd
       0.0019506551 0.008847835 0.043185417 -0.049299672
0003f0 94 3f 84 bd b4 90 f7 3c 44 b1 c4 3b 6f 41 5e 3c
       -0.06457439 0.030220367 0.006002577 0.013565405

sequential_3/conv1d_11/Conv1D f4 [96, 1, 7, 256]
000000 c1 98 32 bb 70 8b 7b bc e8 36 57 ba 0a f3 12 3b
       -0.0027251693 -0.015353069 -0.0008209781 0.0022422695
000010 61 28 e6 bc b5 d8 38 bd 9f f3 3d bc fc 60 70 3c
       -0.028095426 -0.045128543 -0.011593728 0.01467156
000020 f6 78 d2 3c 5a a2 57 bd a9 49 fd bb fe cb a9 3c
       0.025692444 -0.052645065 -0.0077297282 0.020727154
000030 6e 0c 5e 3c 85 ef 56 bd d3 fa af 3c 42 7c d4 3c
       0.013552768 -0.052474517 0.021481907 0.025938157
000040 85 3a 6f 3b 6d 89 9b bc 2b 11 ad bc 8c f0 e3 bc
       0.0036503386 -0.018986428 -0.02112635 -0.027824663
000050 db b5 89 3c 5f 8e e0 bb 79 26 a4 bc c0 5b 25 3d
       0.016810348 -0.0068529095 -0.020037876 0.040370703
000060 85 dc 31 3d 38 48 5f bd 3c 41 4b bc 52 c5 42 bd
       0.043423194 -0.054512233 -0.01240569 -0.04755146
000070 a9 84 47 bc 7b bf cd 3c 7a ec 08 bd e4 bb a8 bc
       -0.012177625 0.025115719 -0.033428647 -0.020597406
000080 ef 73 2b 3d 9e 10 00 3d a4 72 9d 3c f5 e0 53 3c
       0.04185861 0.031265847 0.019219704 0.012932052
000090 2a 57 20 3d e4 f8 43 bd 8b 8b 43 3b 06 ba 49 bd
       0.039145626 -0.047844782 0.0029837813 -0.04924967
0000a0 89 06 31 bd 43 59 1d bd 16 b5 2d 3c cf 30 55 bd
       -0.043219123 -0.038415205 0.010602256 -0.0520485
0000b0 8a ff 02 bd fc 3e 2b bc ba e5 39 bd 58 60 17 bc
       -0.031981982 -0.010452028 -0.0453851 -0.009239279
0000c0 6a d6 56 bc 87 01 0c bd e9 9f 6a bc fc 64 f5 bc
       -0.013112644 -0.034181144 -0.014320352 -0.02995538
0000d0 c1 39 6d 3c 32 84 ab bc 50 50 e9 bc 20 78 12 3b
       0.014479102 -0.02093706 -0.028480679 0.0022349432
0000e0 f5 7e d1 3c ae 30 c0 3c 27 1f 92 bc d4 9b aa 3b
       0.025573233 0.023460712 -0.01783712 0.0052065644
0000f0 0b 11 b7 b9 9f 97 0c bd c8 37 c6 bc 6d 3e e8 3c
       -0.00034917178 -0.034324285 -0.02419652 0.02835008
000100 ed f7 94 3c af 75 a4 39 4f 2a 43 3d c1 68 9b 3c
       0.018184626 0.000313682 0.04764777 0.018970849
000110 b9 57 04 3d 60 90 5b bb 16 80 f2 3c 0c 94 9f 39
       0.03231022 -0.0033502802 0.029602092 0.00030437147
000120 42 56 18 bb b4 c2 49 bd 3a f9 3f bd 4b a8 19 bc
       -0.0023244773 -0.04925795 -0.04686854 -0.009378503
000130 7d 51 39 bd cd 85 13 bc 91 b2 94 bc 10 2e 0f 3d
       -0.04524373 -0.009004069 -0.018151553 0.034956038
000140 f6 40 52 bc 9b d4 08 3d 35 42 88 bc af 93 3f bd
       -0.012832871 0.03340588 -0.016633132 -0.0467717
000150 40 48 0a 3d a5 e0 e5 3a 5b 9d 56 ba 34 a7 27 bd
       0.03376031 0.0017538263 -0.00081869 -0.04093094
000160 7e 7e 72 bc 83 12 e1 bc 7a d0 73 3c 45 25 d9 bc
       -0.014800666 -0.027474647 0.014881248 -0.02650703
000170 73 a3 cd 3c 54 5d 82 3a c0 0d cc 3c 07 09 57 bd
       0.025102353 0.0009946027 0.0249089 -0.052498844
000180 cb 95 2f 3d cd 6b 30 3d d8 f8 d4 3c c2 75 ed bc
       0.042867463 0.043071557 0.025997564 -0.028986815
000190 8c fd c4 ba dc 63 81 3b 62 4e a5 3c 3e 67 bd 3c
       -0.0015029176 0.0039486717 0.020178977 0.023120519
0001a0 97 94 6a bc 56 ed 4d 3c 1f 2a 53 3d 15 48 41 bd
       -0.014317653 0.012568792 0.05155384 -0.047187883
0001b0 a8 8e a4 3c 24 25 1b bd 9d c5 18 bd 7c 51 e9 3c
       0.020087555 -0.037877217 -0.037297834 0.028481238
0001c0 49 60 bc 39 6b 33 04 bd e8 f7 2d bd 16 5c 09 3d
       0.00035929892 -0.0322756 -0.04247275 0.033535086
0001d0 c5 22 8d bc b8 cf 2b 3b e7 46 fb 3c e6 ae 87 bc
       -0.017228493 0.002621634 0.030673457 -0.01656289
0001e0 41 90 81 bc 76 b5 0a bc 25 80 1a 3d 56 54 4e bc
       -0.015815856 -0.008466115 0.037719864 -0.012593349
0001f0 9d 82 03 bd 72 55 f9 3c 46 65 ca 3c 6b a8 7b 3b
       -0.032106984 0.030436251 0.024706494 0.0038399945
000200 d9 da e4 3c 2a 53 5a bc 8f 29 8d 3b 1d 57 87 3c
       0.027936386 -0.013325492 0.0043079327 0.016521031
000210 7c e9 9f 3b 4c 0b 55 bd ee ef 64 3a ea a8 38 bd
       0.0048801284 -0.052012727 0.0008733262 -0.045082964
000220 5d 95 fc bc 2d a8 03 3d 14 ca ee 3b 4f e6 0f bd
       -0.03083294 0.032142807 0.007287273 -0.03513175
000230 97 1e 93 3c 77 2c a3 3c 87 32 ca bc b0 f4 08 bd
       0.017958922 0.019918663 -0.024682296 -0.033436477
000240 a7 a6 2b 3d a0 5e 57 bd 37 0b 05 bd 0a 6b f3 3c
       0.04190698 -0.052580476 -0.0324814 0.029714126
000250 67 22 14 3d 5f 52 f1 bc 84 49 2f 3d 92 06 6d bc
       0.03616562 -0.029458223 0.04279472 -0.0144668985
000260 17 52 72 3b 6a f5 09 bc 1f 1e 56 bd b5 41 e2 bb
       0.00369752 -0.008420328 -0.05227482 -0.0069048055
000270 48 0a eb bc 05 a6 05 bd a2 93 f4 3c 86 9e 42 bd
       -0.028691426 -0.03262903 0.029855553 -0.04751446
000280 83 01 0b 3d b8 5b e9 bc 97 60 6a bc bd c1 9b 3c
       0.03393699 -0.028486118 -0.014305255 0.01901328
000290 60 77 2c bd 41 ab b2 bc 24 b3 b5 bc c7 4e 2e bd
       -0.042106032 -0.021810176 -0.022180147 -0.042555597
0002a0 af 30 0c 3c 0c 52 10 bd 94 c7 c1 3c 5c 6e 15 bd
       0.008556529 -0.035234496 0.023654737 -0.0364822
0002b0 32 b3 9e bc 60 9a 48 3c cb 6f 2c bc 4a e9 7c 3b
       -0.019372556 0.012243837 -0.0105247 0.00385912
0002c0 c1 4c 3f bd 9e 90 f2 3c af 13 76 bc 67 75 45 ba
       -0.046704058 0.029609974 -0.015019341 -0.0007532448
0002d0 9a 13 93 bc ae 6a d3 3b 24 ef 25 bd e3 a8 9b 3b
       -0.017953683 0.006451926 -0.040511265 0.0047503575
0002e0 8b 0f 48 bd 0f 07 18 3d 5f 9a c9 bb 82 f4 b4 3c
       -0.048842948 0.037116107 -0.0061524357 0.022089247
0002f0 1d 15 64 bd f6 45 62 bc ec 5c c2 3c 68 ac 36 bd
       -0.055684198 -0.013810625 0.02372595 -0.044598013
000300 06 fa fe bc 96 6f 16 bd f9 bf 3f 3c 7b f5 e6 3c
       -0.03112508 -0.03672751 0.011703485 0.028193226
000310 3c d8 25 3c 08 8f 99 3b b6 d8 01 bd c5 9c e1 bc
       0.010122355 0.00468624 -0.031700812 -0.027540574
000320 89 b5 09 3d 58 08 c5 3c e2 f0 f6 bc d3 cf a8 3c
       0.03362039 0.02405183 -0.030144159 0.02060691
000330 ba 45 f4 3c e0 4f 98 3c d1 23 94 bc f7 43 f5 3b
       0.029818404 0.018592775 -0.018083485 0.0074849087
000340 52 32 14 3d b8 16 f5 bb 4d 79 60 bd 24 ba 12 3c
       0.0361808 -0.007479515 -0.05480318 0.008955512
000350 f3 87 ae 3c 27 9e 08 3d da ce f8 3a 32 2c bd 3c
       0.02130506 0.03335395 0.0018982545 0.023092363
000360 40 19 ff bc 28 61 83 bb 9d da 24 3d 11 20 4c bd
       -0.03113997 -0.0040093847 0.04024755 -0.04983527
000370 67 a5 22 ba 6a 9c 18 3d 79 f1 6e 3c 41 d7 1a 3d
       -0.00062044564 0.037258543 0.014583939 0.03780294
000380 88 12 a9 3c ce 34 21 3d 25 40 e6 bc 32 04 eb bc
       0.02063872 0.039357 -0.028106758 -0.028688524
000390 2a e5 2d bd 83 fb 43 bd cd ad e9 bc 13 26 8c bb
       -0.042454876 -0.047847282 -0.028525257 -0.0042769997
0003a0 9e 7d d0 bc df 24 9f bc 26 45 40 bc 75 61 3a bd
       -0.025450524 -0.019426761 -0.011735236 -0.0455031
0003b0 d7 96 03 3d 16 86 9d 3c 83 f8 5a bd f0 a1 18 bc
       0.032126274 0.019228976 -0.053459655 -0.009315953
0003c0 d9 d0 a7 bc f5 24 2e 3d 3e bc 1e bd 57 f5 f7 bc
       -0.020485329 0.042515714 -0.03875374 -0.030268354
0003d0 7b 9f 2c 3d 7e a4 c3 bb 4d 5d a6 bc 26 da 24 bd
       0.04214428 -0.0059705367 -0.020308161 -0.040247105
0003e0 e9 b7 24 3d 0b 42 91 3c 84 41 e0 bc b8 03 96 bb
       0.040214453 0.017731687 -0.02737499 -0.00457808
0003f0 82 9d 14 bc c8 73 80 3c c1 e0 06 3c c6 f0 5c bc
       -0.009070756 0.015680209 0.008232296 -0.013485139

sequential_3/conv1d_12/Conv1D f4 [32, 1, 7, 96]
000000 47 8d 58 bd 80 fa 5a bc c3 e7 e9 bc d2 b8 3f 3d
       -0.052869108 -0.013365388 -0.028552895 0.046807118
000010 45 23 42 3d 8e ee 95 3d 24 55 ae 3c 59 1b 91 3d
       0.047396917 0.07320891 0.021280833 0.07085294
000020 1d 23 f1 bc 0e de c7 bc 64 e2 f5 3c d6 14 86 3d
       -0.029435689 -0.024397876 0.030015178 0.06546943
000030 b1 4f 81 ba f9 2e 91 bc 7f 54 9e 3d e4 99 3d bd
       -0.0009865669 -0.017722594 0.0773096 -0.04628934
000040 0c ae 03 3c e8 f9 49 3d 43 29 aa 3d 87 1c bd bd
       0.0080371015 0.049310595 0.08308651 -0.09233957
000050 c8 aa 9d bd 33 60 a0 bd ab ba aa bd 0e 75 84 bd
       -0.076985896 -0.078308485 -0.08336385 -0.06467639
000060 f1 15 1e bd 22 ee 4d bc 4d 9c 6f 3d c5 4e 43 3d
       -0.038595144 -0.012568982 0.05849867 0.047682542
000070 11 9e b5 bd d2 76 94 3d 1e c7 4b 3d 60 7d ed 3c
       -0.088680394 0.07249226 0.04975044 0.028990448
000080 c0 4d aa bd 2a c9 16 3d 50 83 21 bd 9f a3 e9 bb
       -0.08315611 0.03681294 -0.03943187 -0.007130101
000090 8f 38 a0 bc 81 eb 18 bd 26 40 eb bc 9f 3e 5e bd
       -0.01955822 -0.03733397 -0.028717112 -0.05425894
0000a0 ea 27 92 bd ac 8e 5e b9 cf 36 4d bd 00 38 80 39
       -0.07136519 -0.00021224719 -0.050101098 0.00024455786
0000b0 0e 27 91 bd da 8a b2 3b 4b 9e 1e 3d 0f 03 5d bd
       -0.07087527 0.0054486813 0.03872518 -0.053957995
0000c0 94 b8 41 bd 46 a1 15 bd 30 da e2 bd 0e 1e dc bd
       -0.047295168 -0.036530755 -0.11076772 -0.1074792
0000d0 6b 07 4e 3d 50 8b d7 3a bb 34 46 3d d9 8d d2 3c
       0.050300043 0.0016444717 0.04839013 0.025702404
0000e0 55 4a 85 bd ba 64 ba 3c 51 20 3e bd 8e 6c 72 3c
       -0.06508318 0.022753108 -0.046417538 0.014796389
0000f0 03 91 4f bd 97 3f 92 3d 03 67 42 3c 85 ab 78 3d
       -0.050675403 0.07141035 0.01186538 0.06071045
000100 f4 7d fc 3c d3 f1 6c bc 8f 1c 44 bd c9 aa 4d 3d
       0.030821778 -0.014461952 -0.047878798 0.0502117
000110 96 1e d0 3c 20 c4 f5 bd 90 ab 01 be 54 25 9d bc
       0.02540521 -0.120002985 -0.12663102 -0.019182838
000120 a5 6f 3f 3d 57 22 d2 3c 74 6a 9f 3d d8 7d ba 3c
       0.046737332 0.02565114 0.07783976 0.022765085
000130 04 5c 7b bb ac 79 b3 bc 45 44 fa 3a 88 a2 14 3c
       -0.0038354406 -0.021908604 0.0019093832 0.009071954
000140 cc 87 25 3d 5a f3 6d bd ff 34 80 3d d7 73 eb bd
       0.04041271 -0.058093406 0.06260108 -0.11496704
000150 ec 44 60 3d db 30 0f 3d 73 9f 08 bc 04 9c a3 3c
       0.05475323 0.0349587 -0.008338797 0.019971855
000160 8b 8d c4 3c 48 e7 d4 3b 32 9d b1 bc 1d 2e 77 3d
       0.023993274 0.0064972974 -0.021681402 0.06034671
000170 8f c8 b1 bd 0c 46 47 bd c6 41 11 bb fc a7 81 3d
       -0.08680832 -0.048650786 -0.0022164448 0.063308686
000180 27 c8 6e bd 48 30 80 bc f3 31 20 3d 45 9b 59 bc
       -0.05829635 -0.015648022 0.039110135 -0.013281648
000190 7c 22 a2 bd e8 32 43 bd 96 db 3a bd f6 9f 4c bd
       -0.079167336 -0.04765597 -0.04561957 -0.04995724
0001a0 12 28 99 3d dc 9f 1a 3d dd 48 9c 3d e1 e2 2b 3d
       0.07478346 0.03775011 0.07631085 0.041964415
0001b0 ae 37 1d 3d ba 3d 78 bd d8 18 85 bd 38 38 7f 3d
       0.03838318 -0.060605742 -0.06498879 0.062309474
0001c0 13 e8 3a 3d 72 4d 04 3c 6d e7 9f bc 54 c7 41 3d
       0.04563148 0.008075105 -0.019519532 0.047309235
0001d0 91 e5 b8 3c 9d ec 19 3d 34 19 81 bd 19 e0 14 3c
       0.022570403 0.037579168 -0.06303635 0.009086632
0001e0 83 03 de bc 20 55 88 3d 79 83 6b bc 63 53 93 3d
       -0.027101284 0.06656861 -0.014374607 0.07193639
0001f0 fb 8a c1 3c 86 84 02 3d 51 62 7d bd 5f 2e a8 bd
       0.023625841 0.031864665 -0.06186134 -0.082119696
000200 49 ba 83 bd d8 79 a0 bd 76 24 e6 bc 36 bf 88 3d
       -0.064320154 -0.0783574 -0.028093558 0.066770956
000210 ae 69 5b 3d 37 90 c3 bb 34 81 f6 bc 39 5d 9a 3d
       0.05356758 -0.0059681195 -0.030090906 0.07537312
000220 9a 52 45 bd 9e 05 bf 3c 36 a4 8d bc e0 c5 b1 bb
       -0.048174478 0.023318108 -0.017290216 -0.0054252
000230 06 ac a2 3d 46 55 0e bd 27 c8 57 3d 4e 8e b8 ba
       0.07942967 -0.03474929 0.052681115 -0.0014080496
000240 d3 0e be 3b 16 e9 2e 3d c2 f3 99 3c 90 93 d7 bb
       0.005800107 0.042702757 0.01879299 -0.00657887
000250 50 0e 96 bd d3 f5 3b 3d 6b f2 85 bb 45 09 90 3d
       -0.07326949 0.045888733 -0.0040877364 0.07033018
000260 5e 9f 96 bd 20 07 80 3d 9f 6c a5 bd 8d bd 93 bc
       -0.07354616 0.06251359 -0.080773585 -0.01803472
000270 c0 d1 91 ba 3c ff 10 bd 7f 06 ba 3b 3b 5e 72 bc
       -0.0011125132 -0.03539966 0.005677044 -0.014792974
000280 bc ac eb 3b fc d9 b8 bd ce 05 f9 bb 7f 87 68 3d
       0.0071922224 -0.09025952 -0.007599569 0.056769844
000290 58 d9 3f 3d 92 7e a5 bc e6 21 90 bd 5a cf c8 3b
       0.046838135 -0.020201955 -0.070377156 0.006128234
0002a0 9e 10 2c 3c 4a 80 04 bb a5 77 15 ba ab be 0d bd
       0.010502009 -0.0020218068 -0.00057017274 -0.034605663
0002b0 d2 54 5b bd de 2f b8 bc 2e 31 dd 3b 6a b9 93 bc
       -0.053547688 -0.022483762 0.0067502474 -0.018032748
0002c0 e6 49 51 bd d3 80 8d 3c bb c7 b0 bd da f6 01 3d
       -0.051095866 0.017273342 -0.086318456 0.031729557
0002d0 16 27 f8 3c b8 93 d1 3c cb 8a 03 bd a7 d8 36 bc
       0.030292075 0.025583133 -0.032114785 -0.011160052
0002e0 77 82 6d bd 34 a3 74 bc 25 dd 9d 3c b6 1c 85 3d
       -0.05798575 -0.014931489 0.019270489 0.06499617
0002f0 45 19 a8 bb 12 1e ce 3c 78 a4 43 bd 8e 30 7a bd
       -0.0051299655 0.025160823 -0.04776427 -0.06108146
000300 6e f8 91 3d 7c 4b 88 bd a1 d5 9a bd 66 5a 30 3d
       0.07127462 -0.066550225 -0.07560278 0.04305496
000310 5e 00 2b bd b3 99 81 3c da ab 8b bd 7d 51 9f bd
       -0.041748397 0.01582036 -0.068198875 -0.077792145
000320 34 a4 7d bd 1c 62 2d 3d 22 91 7d bd 8d 08 47 3d
       -0.061924174 0.042329893 -0.061905988 0.04859214
000330 92 a4 5c bb 4f b9 8c bd 46 4f 86 3d d2 3b 08 3d
       -0.0033667427 -0.06871282 0.06558089 0.033260174
000340 7d 6a 93 bd 8b 50 0f 3d f3 c1 4c bd 2a 49 3e 3d
       -0.071980454 0.03498892 -0.049989652 0.046456493
000350 93 bf 0b 3d 21 6c 8b 3c 21 b3 24 be 44 10 84 bd
       0.034118246 0.017019333 -0.16083957 -0.06448415
000360 85 5c e8 3c d4 ef 5d bd 5a 0a 7e 3d 7a 96 19 bd
       0.02836443 -0.054183796 0.06202159 -0.03749702
000370 11 27 a9 3c ba a8 88 3d 73 6a b8 3c 45 03 31 bd
       0.020648511 0.06672807 0.022511696 -0.04321601
000380 db c1 8f 3b b3 74 10 bd a0 e8 ca 3c ff 90 82 3d
       0.004387123 -0.035267543 0.024769127 0.06375312
000390 7b cd 7d 3d 54 60 9f 3c 3d 8c 46 bd 9f b6 18 3d
       0.06196354 0.019455113 -0.048473585 0.037283536
0003a0 c6 24 79 3c ae 6a 02 bb 04 35 02 bd a0 8f a4 3c
       0.015206521 -0.0019900012 -0.03178884 0.020088017
0003b0 ed 36 d6 bc 26 4c 5c bd bd 55 85 3d 0f 9a 02 3d
       -0.026149238 -0.05378356 0.06510494 0.031885203
0003c0 13 03 83 ba 11 30 86 bd 58 d7 d8 bd 9a a6 4c bd
       -0.0009995423 -0.06552137 -0.105879486 -0.04996357
0003d0 d7 ce 87 b9 ac 99 af bd a9 f7 7e bd a7 a9 71 bc
       -0.00025903314 -0.085742325 -0.062247906 -0.014749921
0003e0 e5 2d 45 bd ce bf 6d bc d1 c4 51 bd d1 53 b3 bc
       -0.04813947 -0.014511062 -0.05121309 -0.021890553
0003f0 64 78 9a 3c 05 74 b6 bc 8f 38 8a bc 1f 35 89 3d
       0.018856235 -0.02227212 -0.016872672 0.06699585

sequential_3/dense_8/BiasAdd/ReadVariableOp f4 [128]
000000 1b d1 d7 3a e9 ac 54 3c 7b 54 99 3a 9e 1e 0b bc
       0.0016465517 0.012980678 0.0011698151 -0.008491186
000010 d4 2b bd bc 86 63 16 bc 23 32 b4 3d 1b 80 94 3d
       -0.023092188 -0.009179002 0.08798625 0.07250997
000020 2e 4d b1 3d 79 36 1a be 2e d4 af 3d 8b 67 bd 3d
       0.08657299 -0.15059842 0.08585392 0.09248265
000030 aa 38 82 bc ae e4 da bb ec 6b 84 bc 68 9a cc 3b
       -0.01589616 -0.006680093 -0.016164742 0.0062439926
000040 63 21 ad 3d 51 5f 60 bd 75 ad bc 3d be f3 80 bc
       0.08453634 -0.0547784 0.09212772 -0.015741225
000050 cc ca cd 3c 68 0b 30 3e 02 4f 89 bd 91 3b 0f bc
       0.025121115 0.17191851 -0.06704523 -0.008742229
000060 30 46 b4 3d a1 48 d3 bc c2 f6 d6 3d 61 d1 ae 3d
       0.0880245 -0.025791468 0.10496284 0.085360296
000070 de eb ef bc 19 6a 25 bd a6 f5 b8 3d 22 74 fd bc
       -0.029287275 -0.040384386 0.09031229 -0.030939166
000080 9a 8e c9 3d cf 9f 52 bc 60 51 8e bc 08 78 b1 3d
       0.09841652 -0.012855484 -0.017372787 0.08665472
000090 17 1b 30 bc d3 f8 d0 bb ca d9 2a 3c 5b 2a b2 3d
       -0.010748646 -0.0063773184 0.0104279015 0.08699485
0000a0 92 96 ab 3d ac c0 da bb 9d 7e aa bc 0c ee 9c bc
       0.083783284 -0.0066758003 -0.020812327 -0.019156478
0000b0 03 e5 76 bd 46 0c b8 3d 0b d1 0f bc dc 87 d0 bc
       -0.060276996 0.08986716 -0.008777867 -0.025455408
0000c0 fd 4d ac 3d 20 aa ea bc 0d 7d b2 3d 4c 35 af 3d
       0.084133126 -0.028645575 0.08715258 0.085550874
0000d0 37 c5 bb 3d 3e 2c b3 3d b4 1f 82 bb 48 42 0e bd
       0.09168475 0.08748673 -0.0039710645 -0.03473118
0000e0 94 6c b2 3d d2 ae aa 3d b9 d2 11 bd 3a 24 b5 bb
       0.08712116 0.083341256 -0.03560135 -0.005528
0000f0 bc d3 86 bd 2e 87 f7 bc 74 58 a6 3d bc 3c de bb
       -0.06583354 -0.030215826 0.0812234 -0.0067821424
000100 2c e1 05 3d a3 02 1b bd c1 30 ce bc 2e fe 96 3d
       0.032685444 -0.03784431 -0.025169732 0.073727
000110 e6 81 af 3d 5c da 77 bd 38 44 bc 3d 1b d4 a1 bc
       0.08569698 -0.060510978 0.09192699 -0.01975446
000120 f5 fd b1 3d bf 89 ac 3d 3e a4 e6 bb 54 63 ab 3d
       0.086910166 0.084247105 -0.007038622 0.08368555
000130 21 b3 16 bc e5 15 b1 3d fe 08 e0 bc ec a5 80 bc
       -0.009197981 0.08646754 -0.027348038 -0.015704118
000140 2c b0 19 3d 02 df 3b bc 5e b4 2f bd c4 af b1 3d
       0.037521526 -0.011466743 -0.04289662 0.08676103
000150 2e ac ac bc 69 d6 cb bc 90 ca 15 3d 78 b3 ce bc
       -0.021078195 -0.024882512 0.03657013 -0.025232062
000160 b4 e4 c5 bc bc 26 b6 bb 54 e9 98 bc 5c e3 a9 3d
       -0.024156906 -0.0055588167 -0.018665947 0.082953185
000170 06 30 24 3e 39 f3 ae 3d 7c 60 1c bc 5a 4b 49 bd
       0.16033944 0.08542485 -0.009544488 -0.049144126
000180 43 c9 b8 3d 61 16 23 bb c4 8f b0 3d 5c 53 bf bc
       0.090227626 -0.0024885165 0.08621171 -0.023355179
000190 8f 5b 5b bc 00 00 00 00 cc d8 b1 3d 24 81 b2 3d
       -0.0133885285 0.0 0.08683929 0.08716038
0001a0 c7 9c f5 bc d6 c7 a9 bb 90 41 c9 3d 46 d0 bf 3d
       -0.029981984 -0.005181293 0.09826958 0.09365897
0001b0 90 cb b4 bb bf 1e 9d 3d ec 7f c3 3d e7 c3 86 bc
       -0.0055174306 0.0767188 0.095458835 -0.016450835
0001c0 69 79 1f bd 52 4a b0 3d a8 60 3e bd f1 e4 be bc
       -0.038934145 0.086079255 -0.046478897 -0.023302527
0001d0 dd ce 9c bb db d2 d7 bc 76 2a 48 3c a7 68 ce bc
       -0.004785402 -0.02634566 0.012217155 -0.025196387
0001e0 e5 0f b3 3d cc 8a ae 3d 8e ec a2 3d ce 0f 4c 3b
       0.08743266 0.08522567 0.079552755 0.003113735
0001f0 33 70 ab 3d 8d 3c 47 bb 13 a3 c4 bc 54 5b 20 bc
       0.0837101 -0.0030401081 -0.024003541 -0.009787399

sequential_3/dense_7/BiasAdd/ReadVariableOp f4 [64]
000000 88 c4 e9 bc c1 28 74 bc 45 66 56 3c 63 0f c6 bb
       -0.028536096 -0.014902295 0.013085906 -0.0060443147
000010 fd 6f 90 3d fb 8e d4 bc 29 6e 3d 3d 38 a3 a3 bb
       0.0705261 -0.025947085 0.046247635 -0.0049938224
000020 34 14 ad 3d 40 58 eb 3b 9e c6 ff 3c a1 17 ae 3c
       0.08451119 0.007182151 0.031222638 0.021251502
000030 33 be 22 bd f2 de 0b be ca 3a 8f 3d a5 7b 01 3d
       -0.03973217 -0.13659266 0.06993635 0.031612057
000040 a4 ea 56 bc 69 1f 0c be ab ba 8a bd bc bb 0c 3d
       -0.013117466 -0.13683857 -0.06773885 0.034358725
000050 07 d6 c1 3d 97 b9 b2 3d 56 a9 ab 3d 60 c1 70 3d
       0.094646506 0.08726805 0.08381908 0.058778167
000060 5c 68 11 3e a0 be 03 3b 48 80 33 bd 52 80 a9 3d
       0.14199966 0.0020102635 -0.04382351 0.08276428
000070 03 8d 24 3d 72 46 e1 3d bd b4 74 bd da 6f ae 3d
       0.04017354 0.109997645 -0.059742678 0.08517428
000080 5a b2 83 bb 3e 65 a8 3d 45 9f cc 3d 69 d9 d6 bc
       -0.004019064 0.082224354 0.09991316 -0.026226716
000090 5d 2a ec bb 9f e6 4c 3d c6 20 bf 3d c3 78 ee 3d
       -0.0072071985 0.050024625 0.09332423 0.11644127
0000a0 d2 fb df bc 2e 19 a8 3d 5d cd 66 bd d5 d1 0d bd
       -0.027341757 0.08207928 -0.056348193 -0.03462394
0000b0 32 5d 3d 3e 5d 4f 75 bd 63 83 8f 3d 30 94 b2 bc
       0.18492582 -0.05989014 0.07007482 -0.021799177
0000c0 46 11 20 3e a7 00 19 bc 41 71 9a 3d 04 5e 2f bd
       0.1563159 -0.009338534 0.07541133 -0.04281427
0000d0 5d b4 8d 3d 61 cd 0a 3e a5 69 b7 3d 54 c5 96 3d
       0.06919167 0.13554908 0.08955697 0.07361856
0000e0 c2 ec 29 3d 3c cf 67 3e a9 2b 57 bd 27 e5 9d bb
       0.041485555 0.22637647 -0.052531872 -0.004818577
0000f0 09 2c 28 3d 05 2b 30 3d 59 0d 72 3c cf 5f 30 3d
       0.04105762 0.043009777 0.01477369 0.04306012

sequential_3/dense_7/MatMul f4 [64, 32]
000000 f4 8d 0c be 33 21 d1 bc 84 7f 86 be d2 8c 1e 3d
       -0.13726026 -0.025528526 -0.26269162 0.038708515
000010 c7 3c f1 bc 98 9e 0a be 7f e8 0b 3e 59 23 6c be
       -0.029447926 -0.13537061 0.13662909 -0.23060359
000020 49 79 24 bd 92 ca ac bd b1 d7 44 be a7 2a 16 bb
       -0.04015473 -0.08437075 -0.19222905 -0.0022913606
000030 4b da 90 be b7 aa 9c bc d2 b9 4b 3d 54 26 26 3d
       -0.28291544 -0.019124372 0.04973776 0.040563896
000040 c3 b1 4d be f8 c2 69 be cd 61 10 be b2 2c 11 3d
       -0.20087342 -0.22828281 -0.14099808 0.035443015
000050 74 2d 06 3e 59 02 24 bd 0a fb 3b 3e 50 a7 82 3e
       0.13103276 -0.0400413 0.18357483 0.25518274
000060 6d 95 07 3e ce 27 44 3e 4d b8 fd bd 34 ce 81 3d
       0.13240595 0.1915581 -0.12388668 0.06338158
000070 52 46 30 be 90 a0 55 3e af 6b 48 3a ba 7f 5f 3d
       -0.17214325 0.20862031 0.00076454406 0.05456517
000080 71 9a 23 3e 18 85 23 3e 43 71 66 3d 2e d8 13 bc
       0.15976883 0.1596874 0.05626036 -0.009023709
000090 70 4a a3 bd 4e 94 0a be 04 92 04 3b c8 0c 52 3e
       -0.07973182 -0.13533136 0.0020228634 0.20512688
0000a0 fa 07 8a 3d 7b 67 aa bd fb f6 48 bd 06 9f 95 bd
       0.06739803 -0.083205186 -0.049063664 -0.07305722
0000b0 26 d0 96 3d 14 50 2f be 9c 07 52 bd 00 22 31 bd
       0.0736392 -0.17120391 -0.051276788 -0.043245316
0000c0 87 5d 27 3e a3 03 6b 3d 23 e7 68 be a5 59 43 be
       0.16344272 0.057376515 -0.22744422 -0.19077165
0000d0 39 89 08 3e 45 41 66 be de f5 ed bd 2b bb f1 bd
       0.13333596 -0.22485836 -0.11619161 -0.118032776
0000e0 c3 2a 1a 3e ce d4 8e bd 8a ca 3f 3e 35 ba d7 3d
       0.15055375 -0.06974183 0.18729606 0.10533563
0000f0 3a fa 6b be f7 ef 53 be e7 67 02 be 1f b9 3b be
       -0.23044673 -0.20697008 -0.12734948 -0.18332337
000100 95 d4 66 be d2 04 de bd 90 f5 bf bd 09 f3 eb bb
       -0.22542031 -0.10840763 -0.09373009 -0.007200603
000110 f2 51 db be 2f 99 19 be 11 29 27 3e 81 4e 65 be
       -0.42835957 -0.14999841 0.1632426 -0.22393228
000120 e2 d8 54 bd 0b f4 8c 3d 10 94 6e 3d 7f 2d c7 3d
       -0.051964648 0.06882485 0.058246672 0.097254746
000130 72 8b 92 3e 5e 26 fd bd c5 b6 7d be 16 07 49 3d
       0.28622013 -0.123608336 -0.24776752 0.049079023
000140 20 17 82 be 30 1f 46 bc 76 02 c5 3d 47 86 c5 3d
       -0.25408268 -0.012092397 0.0961961 0.09644752
000150 8c 2f 35 bc 7a 4a c0 be 98 e1 5d 3e 5f 50 07 3f
       -0.011058699 -0.3755682 0.21668088 0.5285701
000160 30 e5 d7 bd 3d 8b 32 3e fd 7c c4 bd df 1e 39 be
       -0.10541761 0.17435928 -0.09594152 -0.18078183
000170 8d 91 b7 bd 24 7a 78 be ca 97 09 3e 0d d5 54 3d
       -0.089633085 -0.24265343 0.13436809 0.051960994
000180 cf 0e 63 bc 78 03 39 3e 17 93 82 be 9e cd 82 3d
       -0.013858511 0.1806773 -0.25502846 0.063868746
000190 de fd 61 be ad a9 59 3d 6d ac 37 3d ab f4 e3 bd
       -0.22069499 0.05314033 0.044842172 -0.11130651
0001a0 54 ee 06 3e 2c dd 3c 3d 17 72 0e 3e 0b 6d f9 3d
       0.13176852 0.046109363 0.1391071 0.121790014
0001b0 a6 39 5d be 27 8e e2 bd 03 8f 16 bc e3 e2 a3 3d
       -0.21604022 -0.1106227 -0.00918937 0.080022596
0001c0 b7 09 49 be e8 1c 83 bd a7 6f e1 bb ec 28 8e bd
       -0.19632612 -0.06401998 -0.006879765 -0.06941399
0001d0 b8 05 0f 3e a1 42 e5 ba ec c2 72 be a6 64 db 3d
       0.13967025 -0.001749117 -0.2370717 0.107125565
0001e0 31 b3 d9 3d 81 59 a6 3d 1b 14 47 be 19 05 18 bd
       0.10629881 0.0812254 -0.19441263 -0.037114237
0001f0 82 e3 ac bb ac 1a 32 bc 52 33 47 3d 88 54 54 be
       -0.0052761445 -0.010870617 0.048632927 -0.20735371
000200 8e ab a7 bd 1c 8b 7e 3e 83 44 29 3e 6a 5e 57 be
       -0.08187018 0.24857754 0.16530041 -0.2103211
000210 7a e1 92 3e 2b e8 cf 3b e2 44 9e 3d 7a 56 f8 bd
       0.2868765 0.0063448153 0.07727982 -0.12125869
000220 4c c5 db 3d 05 91 21 be 42 30 59 3e 5b bb 81 bd
       0.10730991 -0.15777977 0.21209815 -0.06334563
000230 64 96 5d bd 2a 00 86 3e 41 6f db bd 18 48 32 3e
       -0.0540985 0.26172 -0.107145794 0.17410314
000240 f1 65 61 be 79 13 51 3d b6 99 31 3e 9a cc 42 be
       -0.22011544 0.05104396 0.17343792 -0.19023362
000250 9e 10 14 3e fe c8 77 be 40 5a 65 3e 06 52 c3 be
       0.14459464 -0.24197766 0.22397709 -0.38148516
000260 53 4c c9 3d 3f e4 2d bb 3e 31 0c 3e 07 ec ae be
       0.09829011 -0.002653375 0.1369066 -0.3416445
000270 f4 83 f5 3c f6 7d 11 3c c2 c5 0c 3d 9d 3a 19 be
       0.029970147 0.008880129 0.034368284 -0.14963765
000280 bf e6 bd 3b 50 ab 13 be 58 34 4a 3d 9e 0a 2f bd
       0.0057953293 -0.1442082 0.049366325 -0.042734735
000290 d2 71 8a be 1c f4 76 be 57 b1 84 3c b5 b0 23 be
       -0.27039963 -0.24116558 0.016197843 -0.15985377
0002a0 39 4c 81 3e dc 97 59 be d3 d2 2b 3e 32 0b bc bd
       0.25253466 -0.21249336 0.16779642 -0.09181823
0002b0 57 1d 45 3e f9 a4 e5 bc 9f 5c 6e be 8c 6f 04 3e
       0.19249474 -0.028032767 -0.2327752 0.12933177
0002c0 eb f5 1b 3e 26 d7 4b 3c 12 9b 36 3d fa 30 80 3d
       0.15230529 0.012441432 0.04458148 0.062593415
0002d0 06 28 82 be d1 72 76 be 10 b3 c5 3d 06 70 97 3e
       -0.2542116 -0.24067236 0.09653294 0.29577655
0002e0 45 fa 28 3e 70 f0 2c 3e 65 a9 02 3d bd 67 02 be
       0.1650172 0.16888595 0.03189983 -0.12734886
0002f0 c8 cc 18 3e 3b d8 58 be 28 b6 6a be 7f 3c 33 3d
       0.14921868 -0.21176235 -0.2292105 0.043758865
000300 4d 09 7d bd 0a e4 d0 bd 9d d0 6e 3e 29 46 a8 3d
       -0.061776448 -0.10199745 0.23321767 0.08216507
000310 10 67 3e be 68 1f 84 3e e3 03 16 be 44 02 31 3e
       -0.18594003 0.2580521 -0.1464992 0.1728602
000320 67 63 5b be 22 99 31 be 7e 1f 86 bd 0c 46 48 3e
       -0.21424638 -0.17343572 -0.065489754 0.19557971
000330 67 bd 4f 3e 5c 88 4f 3e af 3c 7a 3e ee c6 2a bd
       0.20287095 0.2026686 0.24437211 -0.04169362
000340 d5 5f 70 3e 21 73 94 3d e5 5f 26 be a3 39 ec bc
       0.23474057 0.072485216 -0.16247518 -0.028836077
000350 1a 64 0d 3d 8b 01 af be 3b b4 48 be 65 4c 86 be
       0.034519292 -0.34180865 -0.19600002 -0.2623016
000360 e9 94 1e 3e 7a ed 35 3e 2d cd 13 be d4 52 25 be
       0.15486492 0.17766371 -0.14433737 -0.16144878
000370 f7 21 23 be e6 9c 21 3d 3e 12 e7 3d 19 6b f5 3d
       -0.15930925 0.03945627 0.11282776 0.11983318
000380 d2 15 3a 3d ec e1 50 be ea 74 f2 3c 80 c4 49 3e
       0.045430966 -0.20398682 0.029596765 0.19703865
000390 d3 ee 01 be 41 05 02 3e b6 b9 80 3d 13 f0 37 be
       -0.1268876 0.12697317 0.062854216 -0.17962675
0003a0 69 12 15 be 53 9d b2 bd 80 df 69 bc 3c 94 e3 bd
       -0.14557804 -0.087214135 -0.014274478 -0.11112258
0003b0 46 74 44 be aa 3b 6a be 2f 35 08 3e ff 02 10 be
       -0.1918498 -0.22874323 0.13301538 -0.14063643
0003c0 45 60 31 be 00 ce a8 3c 04 02 00 3e 81 6a 2c be
       -0.1732188 0.020606041 0.12500769 -0.16837503
0003d0 17 61 48 3d d4 6f 88 be 00 73 28 3c 7b 0c 91 bd
       0.048920717 -0.26647818 0.010281324 -0.070824586
0003e0 b0 ad 57 bd 00 89 0d be 4c 3e 64 bd c4 69 36 3e
       -0.052655876 -0.13821793 -0.055723473 0.17813784
0003f0 70 b7 1f 3e 50 41 a8 3d 70 10 13 be 09 74 83 be
       0.1559732 0.08215582 -0.14361739 -0.25674465
