Riproduzione/models/FD001/LSTMlarge/MSE/lstm_large_batch_1_MSE.tflite (tflite, 694020 bytes, 53 tensors)

sequential_3/dense_10/BiasAdd/ReadVariableOp f4 [32]
-0.15537807 0.097335525 -0.07456963 -0.058103636 -0.06323962 0.0858399 -0.061999224 0.21436207
-0.09718556 0.047449395 -0.09109486 0.21754558 0.2166495 0.21767128 -0.0684498 -0.06884009
-0.1513473 -0.1163252 0.21742515 0.21695903 0.21693546 0.21792157 0.7847187 -0.06706095
0.26826182 0.19271502 -0.09835073 0.20601653 0.035698816 -0.2209573 -0.12836106 -0.06747678
00000000: 6e1b 1fbe d957 c73d f6b7 98bd 14fe 6dbd
00000010: c683 81bd d4cc af3d e6f2 7dbd bb81 5b3e
00000020: 3909 c7bd 4c5a 423d f18f babd 45c4 5e3e
00000030: 5ed9 5d3e 38e5 5e3e 692f 8cbd 08fc 8cbd
00000040: c9fa 1abe e83b eebd b3a4 5e3e 822a 5e3e
00000050: 5424 5e3e d526 5f3e 53e3 483f 4057 89bd
00000060: 9d59 893e 1657 453e 1c6c c9bd fff5 523e
00000070: ec38 123d a142 62be 1571 03be 4431 8abd

sequential_3/dense_9/BiasAdd/ReadVariableOp f4 [64]
0.2080359 -0.0028672994 0.20468847 0.08714359 0.19260237 0.16698796 0.2088891 0.16148864
0.21396486 0.15497787 -0.07324264 -0.077057056 -0.06399471 0.18108125 0.038973402 0.06077367
0.19923341 -0.0034760297 -0.04951449 -0.11402695 0.20547849 0.1838672 0.20555614 -0.049703673
-0.082411125 0.07648505 -0.09634762 0.18107748 -0.066744596 0.171078 -0.04564997 0.20477402
0.09416199 0.05126019 -0.06750627 -0.06153499 0.1780794 0.2156005 0.18755098 -0.1427101
0.19068299 -0.069755465 0.12719804 -0.048341617 0.20111799 0.17386843 -0.108748354 0.17402478
-0.07103114 0.017067965 -0.05097143 -0.07792176 0.1947902 0.053729143 0.21326302 0.18987088
0.061467804 0.16042483 0.1967938 -0.028732236 0.05884 0.07016011 -0.06841719 0.1782991
00000000: 5d07 553e 4de9 3bbb db99 513e 5778 b23d
00000010: 8e39 453e e4fe 2a3e 06e7 553e 475d 253e
00000020: 9b19 5b3e 85b2 1e3e 3d00 96bd 17d0 9dbd
00000030: a90f 83bd 5d6d 393e 93a2 1f3d d0ed 783d
00000040: d803 4c3e 1ace 63bb b5cf 4abd f686 e9bd
00000050: f468 523e af47 3c3e 4f7d 523e 1496 4bbd
00000060: 2ac7 a8bd 32a4 9c3d e751 c5bd 606c 393e
00000070: 64b1 88bd 122f 2f3e 77fb 3abd 48b0 513e
00000080: 00d8 c03d 34f6 513d ba40 8abd 1d0c 7cbd
00000090: 725a 363e 61c6 5c3e 5d0d 403e 9922 12be
000000a0: 6742 433e f4db 8ebd 3440 023e dc01 46bd
000000b0: e0f1 4d3e 910a 323e 75b7 debd 8d33 323e
000000c0: c678 91bd 1ed2 8b3c 6bc7 50bd 7295 9fbd
000000d0: 1577 473e 1713 5c3d 9f61 5a3e 836d 423e
000000e0: aac5 7b3d 6846 243e 5084 493e de5f ebbc
000000f0: 3602 713d 1bb0 8f3d 501e 8cbd 0a94 363e

arith.constant f4 [32, 32]
0.13550022 0.021400636 -0.06383016 -0.031254232 -0.08098751 0.13440438 -0.10141948 0.15117428
-0.08933639 0.053574163 0.05425013 0.06231238 0.11442076 -0.45847845 -0.11066629 0.26546502
-0.10294954 0.025448298 0.10599885 0.061108857 -0.1563471 0.16466734 0.039406274 0.1339282
-0.19587205 0.12116882 0.07691232 -0.1992747 -0.026970968 -0.009104866 0.3204496 -0.11534824
-0.008945011 -0.13623673 -0.14260904 -0.050557207 0.064058796 0.30527702 0.29174635 -0.086619325
-0.04218916 0.10183541 0.005960198 0.0007122297 0.1618324 -0.06881838 -0.08955547 -0.061754324
-0.09476658 0.2521671 -0.12493647 0.09404888 -0.015824562 0.37237784 -0.13142902 -0.04924531
0.07129849 -0.14169107 0.16208577 0.18614878 0.07912071 -0.18984784 0.07312949 -0.09981042
-0.1386108 -0.045628738 0.2626382 -0.25218672 0.07386422 0.05940074 -0.18036114 0.1994612
-0.1372818 -0.17667338 0.16468915 0.2091057 0.13039924 -0.109899506 0.19474666 0.21117784
-0.16684839 -0.050718732 0.16859362 0.23445001 0.27918684 -0.08411035 0.094478175 -0.31234577
0.05567338 -0.039558776 0.01660848 -0.3578816 -0.2202122 0.15910968 0.28227577 0.025313342
-0.2660498 0.08210662 0.16481493 -0.34702203 -0.017177053 -0.0490417 -0.22207046 0.5618152
0.03547707 0.11632502 0.03726919 0.28035504 0.28239718 -0.041677296 0.11499915 -0.09413807
-0.020386422 -0.23975846 -0.0039434507 0.32691735 0.09730059 -0.07579522 0.1755165 -0.28804836
0.19853036 -0.045700736 0.09285585 -0.27911636 -0.18752661 0.4642521 0.13537474 -0.103975505
-0.34423935 0.24606846 0.369452 -0.41048715 0.18810922 -0.1404385 -0.23306325 0.5416495
-0.13778451 0.08771709 0.21017279 0.3464846 0.022138136 -0.17952594 0.47310218 -0.046910975
-0.152887 -0.19156463 0.13973978 0.33443916 0.36887223 -0.06930719 0.30501112 -0.21698944
0.18750548 -0.09548726 0.024319803 -0.54234266 -0.563255 0.35948655 0.08815066 0.14800563
0.012025071 -0.29527438 0.10061455 -0.29165736 0.095808245 0.069611296 0.06572871 0.5612622
-0.07209182 0.10589483 -0.13273981 0.1970386 0.082424544 -0.12492281 0.22939748 0.037344243
0.06063564 -0.07697882 0.15460399 0.34820935 0.0004065379 0.10625804 0.11352691 -0.089627445
0.11446229 -0.10601962 0.15504915 -0.36268497 -0.22739354 0.16111134 0.2242634 0.03645165
-0.14004579 0.01429913 -0.052214824 -0.07177972 -0.112748355 0.11572785 0.13597935 0.16795434
-0.069888175 0.18044944 -0.054996006 0.22843969 0.12449618 -0.18500954 0.2594539 0.26041025
-0.017593674 -0.009735105 -0.06952528 -0.025304131 0.033928767 0.08506673 0.040928822 0.0075225304
0.37969303 0.0016288869 0.20980024 -0.1513732 -0.14873187 0.1284584 0.1885218 -0.40724438
-0.1482376 -0.07747249 0.08169885 -0.10918949 -0.013969637 0.121629484 -0.007196392 0.19363636
-0.23091874 -0.25969133 -0.021001779 -0.0562036 0.11914879 -0.056675076 0.028874269 -0.26633492
-0.32893372 0.20651531 0.20888042 -0.035747107 0.2310868 -0.05147421 0.073553406 0.0069285203
-0.26138514 -0.101586744 0.06606116 0.066215694 -0.04587449 -0.09926953 0.09886268 0.0722224
00000000: 92c0 0a3e 6350 af3c 63b9 82bd 7004 00bd
00000010: c8dc a5bd 4da1 093e 04b5 cfbd 6ecd 1a3e
00000020: fff5 b6bd 9570 5b3d 6235 5e3d 443b 7f3d
00000030: 6e55 ea3d b0bd eabe 02a5 e2bd 08eb 873e
00000040: 35d7 d2bd f378 d03c ed15 d93d 484d 7a3d
00000050: 7419 20be 8e9e 283e 7968 213d 7924 093e
00000060: af92 48be 5c27 f83d 3584 9d3d ab0e 4cbe
00000070: 38f2 dcbc 932c 15bc f811 a43e b33b ecbd
00000080: 188e 12bc a481 0bbe 1b08 12be 1315 4fbd
00000090: 4231 833d 454d 9c3e c75f 953e 7965 b1bd
000000a0: 8ace 2cbd 158f d03d c44d c33b edb4 3a3a
000000b0: 65b7 253e a7f0 8cbd dc68 b7bd 1af2 7cbd
000000c0: fb14 c2bd 0c1c 813e b1de ffbd b39c c03d
000000d0: 83a2 81bc 4fa8 be3e 5495 06be 73b5 49bd
000000e0: f104 923d 7717 11be d0f9 253e c99d 3e3e
000000f0: 0a0a a23d 7967 42be eac4 953d 6869 ccbd
00000100: fdef 0dbe 33e5 3abd 8478 863e 9e1e 81be
00000110: 2046 973d 314e 733d 97b0 38be 8f3f 4c3e
00000120: 9a93 0cbe dee9 34be 46a4 283e ce1f 563e
00000130: 6187 053e fe12 e1bd ab6b 473e 013f 583e
00000140: 4eda 2abe 72be 4fbd cea3 2c3e aa13 703e
00000150: 94f1 8e3e 0c42 acbd c67d c13d c9eb 9fbe
00000160: c509 643d 6208 22bd 820e 883c 423c b7be
00000170: 4f7f 61be a6ed 223e 7386 903e ed5d cf3c
00000180: ae37 88be 8427 a83d 3fc5 283e dfac b1be
00000190: e4b6 8cbc f3df 48bd 7066 63be 1fd3 0f3f
000001a0: 6750 113d d03b ee3d 94a7 183d b28a 8f3e
000001b0: 5d96 903e d0b5 2abd ad84 eb3d 76cb c0bd
000001c0: 6d01 a7bc 3e83 75be 1038 81bb b661 a73e
000001d0: 8845 c73d 863a 9bbd 99ba 333e 137b 93be
000001e0: 8b4b 4b3e b230 3bbd 352b be3d 57e8 8ebe
000001f0: fa06 40be 74b2 ed3e ad9f 0a3e 1cf1 d4bd
00000200: 2440 b0be 5ff9 7b3e d028 bd3e 5f2b d2be
00000210: b49f 403e 1ccf 0fbe 22a8 6ebe 8ba9 0a3f
00000220: 6217 0dbe 05a5 b33d 8937 573e 6e66 b13e
00000230: 095b b53c a6d5 37be 733a f23e b925 40bd
00000240: 698e 1cbe 8529 44be f217 0f3e 9c3b ab3e
00000250: d2dc bc3e eef0 8dbd 6b2a 9c3e 7b32 5ebe
00000260: 7001 403e d38e c3bd 533a c73c f8d6 0abf
00000270: 7b31 10bf 9f0e b83e 5588 b43d ca8e 173e
00000280: ce04 453c 342e 97be 000f ce3d 1d54 95be
00000290: 1d37 c43d 5e90 8e3d c69c 863d e1ae 0f3f
000002a0: e0a4 93bd 63df d83d f2ec 07be 7dc4 493e
000002b0: 33ce a83d 88d7 ffbd 2ce7 6a3e 47f6 183d
000002c0: 145d 783d 12a7 9dbd 8250 1e3e 7f48 b23e
000002d0: 9824 d539 d19d d93d cc80 e83d 988e b7bd
000002e0: 356b ea3d d120 d9bd 34c5 1e3e d8b1 b9be
000002f0: dad9 68be 5ffa 243e 4ea5 653e 534e 153d
00000300: 2a68 0fbe e646 6a3c 36df 55bd 3f01 93bd
00000310: 9ce8 e6bd b902 ed3d 2c3e 0b3e 39fc 2b3e
00000320: 8821 8fbd bdc7 383e 7e43 61bd 18ec 693e
00000330: daf7 fe3d 2473 3dbe 24d7 843e 7e54 853e
00000340: 9c20 90bc fd7f 1fbc 4563 8ebd 9c4a cfbc
00000350: e4f8 0a3d 7737 ae3d fba4 273d 8f7f f63b
00000360: 2067 c23e 6080 d53a e0d5 563e 9301 1bbe
00000370: 2b4d 18be 998a 033e dc0b 413e 5682 d0be
00000380: 99cb 17be e6a9 9ebd ba51 a73d bd9e dfbd
00000390: e8e0 64bc e118 f93d b6cf ebbb 9c48 463e
000003a0: f675 6cbe 43f6 84be ec0b acbc bf35 66bd
000003b0: 4804 f43d 2024 68bd bb89 ec3c 0d5d 88be
000003c0: 006a a8be c078 533e c0e4 553e 8f6b 12bd
000003d0: 05a2 6c3e 9fd6 52bd 2ba3 963d a408 e33b
000003e0: 46d4 85be b60c d0bd 134b 873d 189c 873d
000003f0: e4e6 3bbd d34d cbbd 8478 ca3d 56e9 933d

arith.constant1 f4 [32, 32]
-0.12848459 -0.06304212 -0.07230272 -0.13798925 -0.017974071 0.04225797 0.050317116 -0.0898339
-0.123814434 -0.09143277 0.13096288 -0.08294012 -0.0036808643 0.15494323 0.05513829 -0.11385604
-0.011009352 0.01614366 0.055747855 -0.051399693 0.041118957 0.118361995 -0.13195734 0.10172099
-0.22754714 -0.008627512 -0.15845199 0.11561351 0.07693582 -0.03141137 -0.15254295 0.20273012
-0.003650791 -0.066601865 0.010087665 0.2216012 0.010705246 0.050087176 0.20981461 -0.02293573
0.02467366 -0.06570002 -0.010725734 -0.05416209 0.22672613 3.4944147e-05 -0.08622961 -0.07481319
-0.08671019 0.035009008 -0.2981917 -0.05503661 -0.1878524 0.07865395 0.07383577 0.36546472
-0.24081713 0.10531308 0.06705343 0.099229544 0.15665597 -0.059457637 0.057258267 -0.08192083
-0.18821086 -0.15537238 0.040288374 -0.010687929 -0.13685916 0.039154373 -0.020495728 0.13359801
-0.2916073 -0.070159234 0.12419355 -0.0037241112 0.096726395 0.25223276 0.00040293348 0.049155444
-0.19153555 0.08105062 0.09749363 0.15336786 0.05655037 -0.06008305 0.03898107 0.01008216
-0.1628957 -0.16636322 0.03416331 0.059369598 0.02159417 0.024976294 -0.1644539 0.29152593
-0.01817554 -0.16876437 -0.008479679 -0.007323561 -0.07157905 0.026647633 -0.013286513 -0.09546604
-0.2712511 -0.33307746 0.05906872 0.043320484 0.07266931 0.20333025 -0.04054509 -0.11071294
-0.19437063 -0.07434178 -0.014170944 -0.16032776 -0.07261784 -0.0623584 -0.044558614 0.007099497
-0.32075232 0.12692918 -0.069498375 0.16912377 0.057371054 -0.24036793 -0.026199399 0.3653921
0.03558973 -0.0731418 0.08942438 0.09879787 -0.105466545 0.10328396 0.025715992 -0.06779831
-0.089634135 -0.11561403 -0.0124715 -0.20104629 0.048345238 0.08835756 -0.098256975 -0.10497873
-0.21018432 0.038144786 0.10819688 -0.1283054 -0.0051147034 -0.10782193 -0.09733742 0.0846964
-0.37461337 0.28313032 0.016715666 0.36254305 0.011073612 -0.19071773 -0.002012716 0.12138798
-0.13295995 -0.037271477 0.10520488 -0.008309213 -0.11251601 0.014106303 -0.15113507 0.06467349
0.06878629 -0.21108483 0.25404906 -0.016686479 -0.06189368 0.4589216 0.12172085 -0.1996348
-0.08753938 -0.16687974 0.27227864 -0.0047006765 -0.038809903 0.087629974 0.04821915 0.0094240215
-0.2354321 0.071027465 0.04436521 -0.058936793 -0.082972586 0.045990683 -0.16587369 0.25813416
0.08982129 -0.090928726 0.028424049 0.092855774 -0.031201094 -0.0897555 0.0794233 -0.12806539
0.1050409 -0.0762469 -0.1828424 -0.11065782 -0.13947904 0.41105855 -0.07960629 -0.029154774
-0.10479337 0.13618939 0.03546645 -0.028080314 -0.018188363 0.011162398 -0.052131567 0.20314379
-0.30292025 -0.009299373 0.048460446 0.15740049 0.1258811 -0.024923248 -0.06428817 0.10845297
-0.04270787 0.13966344 -0.028004052 0.06058837 -0.10839197 -0.12280432 -0.11214699 -0.02308709
-0.07483002 -0.00040575917 0.09898878 -0.13586123 -0.024000939 -0.013755036 -0.08113749 -0.113636106
-0.43831125 0.05569296 0.09407026 0.018038945 0.030103585 0.10590243 0.1353709 -0.21228991
-0.21969086 -0.114306204 -0.04514845 -0.060642824 0.074312806 0.010767536 -0.124771446 -0.07396192
00000000: 7791 03be 3a1c 81bd 7313 94bd 0e4d 0dbe
00000010: 5c3e 93bc b116 2d3d 5219 4e3d d6fa b7bd
00000020: 6c92 fdbd 1b41 bbbd 221b 063e 82dc a9bd
00000030: a83a 71bb 70a9 1e3e b0d8 613d 5b2d e9bd
00000040: 9260 34bc b53f 843c dd57 643d 7c88 52bd
00000050: 5a6c 283d c667 f23d d31f 07be 1853 d03d
00000060: 1e02 69be 685a 0dbc 3d41 22be c7c6 ec3d
00000070: 8790 9d3d 35a9 00bd 3834 1cbe 7c98 4f3e
00000080: 1c42 6fbb 8f66 88bd bc46 253c 6deb 623e
00000090: 0e65 2f3c 3628 4d3d a4d9 563e b6e3 bbbc
000000a0: 6a20 ca3c bb8d 86bd fdba 2fbc 11d9 5dbd
000000b0: e52a 683e fe90 1238 2699 b0bd a837 99bd
000000c0: 1d95 b1bd 9b65 0f3d 95ac 98be 126e 61bd
000000d0: 615c 40be 5215 a13d 3537 973d 311e bb3e
000000e0: c498 76be 62ae d73d 4f53 893d dc38 cb3d
000000f0: 6c6a 203e da89 73bd a587 6a3d 1cc6 a7bd
00000100: 59ba 40be f019 1fbe 6c05 253d 6c1c 2fbc
00000110: cf24 0cbe 5660 203d a8e6 a7bc ebcd 083e
00000120: 8d4d 95be a5af 8fbd 3059 fe3d 3810 74bb
00000130: 7d18 c63d a724 813e d140 d339 3857 493d
00000140: e521 44be defd a53d beaa c73d 770c 1d3e
00000150: 5ca1 673d a519 76bd 9daa 1f3d a52f 253c
00000160: 21ce 26be 1f5b 2abe d4ee 0b3d 892d 733d
00000170: 42e6 b03c 169b cc3c 9a66 28be e342 953e
00000180: dfe4 94bc 91d0 2cbe 5aee 0abc 7bfa efbb
00000190: 0998 92bd 234c da3c adaf 59bc b383 c3bd
000001a0: 6de1 8abe 2189 aabe 0bf2 713d d270 313d
000001b0: a6d3 943d ce35 503e 9c12 26bd 77bd e2bd
000001c0: 1809 47be 8140 98bd 3f2d 68bc f62c 24be
000001d0: a9b8 94bd 866b 7fbd 1883 36bd e6a2 e83b
000001e0: a639 a4be b9f9 013e 2a55 8ebd c82e 2d3e
000001f0: e9fd 6a3d 0323 76be 1fa0 d6bc ac14 bb3e
00000200: 89c6 113d 5ecb 95bd 2124 b73d 8a56 ca3d
00000210: d8fe d7bd 8a86 d33d 58aa d23c d7d9 8abd
00000220: 1a92 b7bd 0cc7 ecbd 4355 4cbc 14df 4dbe
00000230: a805 463d cff4 b43d f43a c9bd 17ff d6bd
00000240: 8f3a 57be b53d 1c3d 5396 dd3d 7e62 03be
00000250: 3e99 a7bb bed1 dcbd d758 c7bd 4e75 ad3d
00000260: 53cd bfbe 75f6 903e 4bef 883c 3e9f b93e
00000270: 186e 353c 824b 43be c5e7 03bb 439a f83d
00000280: a726 08be faa9 18bd a875 d73d 5e23 08bc
00000290: cb6e e6bd 201e 673c 27c3 1abe 8973 843d
000002a0: d4df 8c3d 9f26 58be b812 823e 15b2 88bc
000002b0: 3a84 7dbd c6f7 ea3e c848 f93d 116d 4cbe
000002c0: d947 b3bd 86e2 2abe 1b68 8b3e 2208 9abb
000002d0: 22f7 1ebd 5877 b33d 7281 453d 3667 1a3c
000002e0: 1d15 71be d976 913d 4bb8 353d b567 71bd
000002f0: 88ed a9bd ba60 3c3d cbda 29be 292a 843e
00000300: 39f4 b73d d738 babd 8dd9 e83c 2b2b be3d
00000310: 7099 ffbc bbd1 b7bd afa8 a23d 9323 03be
00000320: af1f d73d 5627 9cbd 0a3b 3bbe 91a0 e2bd
00000330: 98d3 0ebe 4476 d23e 9f08 a3bd fed5 eebc
00000340: e89d d6bd 3b75 0b3e 4545 113d b008 e6bc
00000350: c3ff 94bc 7ee2 363c e987 55bd ed04 503e
00000360: 5d18 9bbe 665c 18bc 767e 463d 982d 213e
00000370: fae6 003e d72b ccbc 84a9 83bd 971c de3d
00000380: 73ee 2ebd ef03 0f3e c168 e5bc 832b 783d
00000390: 9cfc ddbd d580 fbbd 52ad e5bd 2321 bdbc
000003a0: 7b40 99bd 13bc d4b9 a1ba ca3d 351f 0bbe
000003b0: 9e9d c4bc cd5c 61bc 6a2b a6bd 0cba e8bd
000003c0: 556a e0be 4d1e 643d e9a7 c03d 69c6 933c
000003d0: cb9b f63c 60e3 d83d ab9e 0a3e 8762 59be
000003e0: a4f6 60be 5f19 eabd 95ed 38bd 9c64 78bd
000003f0: 5031 983d 526a 303c 2c88 ffbd 5979 97bd

arith.constant2 f4 [32, 32]
-0.10626431 0.31116486 -0.01743818 -0.045354176 0.04823303 -0.010053136 -0.16308345 0.15275444
-0.0656983 -0.14211476 0.20483853 0.060750213 -0.14205413 0.013309132 0.027049901 -0.0020993636
0.10715145 -0.19152291 0.12320951 -0.000528987 0.2821037 -0.19478792 0.027845528 -0.20796664
0.16338167 -0.038372472 -0.17105433 -0.100836635 -0.018633138 0.08601045 0.042573232 0.06898131
-0.28054276 -0.15035756 0.13670734 -0.052736413 -0.25771087 -0.04141783 0.090703666 -0.041263755
-0.22048324 0.2071084 -0.1045108 0.07812935 0.28607652 -0.12095374 -0.035152733 -0.13395108
-0.32550815 0.023512932 0.19663191 -0.06449746 0.04222906 0.1992113 0.12181588 -0.171178
-0.12147123 0.18574259 0.052165233 -0.1038869 -0.1221668 0.097501926 0.14640622 0.01056369
-0.020743335 -0.28288272 -0.113822676 0.07422645 0.04584544 0.061907377 0.2871076 0.10224448
0.0019232575 0.114534274 -0.13958262 -0.05981901 -0.017809872 -0.070074394 -0.23414086 -0.050797872
-0.031628348 0.22037257 -0.16108492 -0.066805065 -0.16882212 0.08041558 -0.08757822 0.14343807
-0.22829404 0.09711179 0.058005076 0.016362092 -0.06873119 0.08978293 0.15477592 -0.07098877
-0.009759672 0.31256217 -0.037490662 -0.19627132 0.00075287337 -0.12383459 -0.06737468 0.037347715
-0.14522125 -0.09380938 -0.07034818 -0.124114975 0.046538066 0.23226488 0.020232214 -0.15114634
-0.080975994 -0.17462167 0.122382425 -0.09477166 0.012291492 -0.051434886 0.12304071 -0.02839732
-0.016650524 -0.07670137 -0.13032526 -0.065314144 -0.063410155 0.023347525 -0.11802169 0.09873928
0.05363353 0.1646622 -0.050922465 0.1476715 -0.3252826 0.045664687 0.14116257 -0.057322696
0.16826802 0.04227067 -0.31724393 -0.03882131 0.05735615 -0.062421035 -0.005058884 0.1792537
0.22655272 0.077718824 -0.010526665 -0.006814537 -0.060302015 -0.05695249 -0.1303389 0.0007398668
-0.020728474 0.089424774 -0.00482437 0.09082953 -0.07385553 -0.10696608 -0.106103234 0.013926931
-0.09657533 0.00917572 0.12016779 -0.14512685 0.1233016 -0.09033159 -0.20793124 -0.13739307
-0.16378967 -0.084015176 0.1400762 -0.020724433 -0.34759063 0.11259146 0.15129234 -0.0140409665
0.0031841374 -0.018170986 0.03877741 -0.08385411 0.29037443 -0.21211581 0.026255852 -0.050991196
0.17912069 0.10522808 0.026579337 -0.21203543 -0.20354101 -0.031234227 0.058917847 -0.038576793
-0.004063346 -0.27590537 -0.01897144 -0.14307639 0.07044292 -0.11952861 -0.20330662 0.21497156
-0.3077565 -0.064958185 0.19680654 -0.119331464 -0.11142977 -0.043751065 -0.018681912 -0.059198156
-0.034173053 -0.12180692 0.22231759 -0.118749194 0.014604536 -0.34906784 -0.19527268 -0.015659224
0.09142433 -0.028402995 0.046975974 0.0009340909 0.093455836 0.0012851653 -0.2540928 0.18195763
0.013097057 -0.20357013 0.1678386 -0.112743765 -0.091876455 0.06263909 0.10633968 -0.011588981
-0.15226567 0.18187226 -0.050472893 0.14112338 0.09718038 -0.18308748 -0.122979015 -0.011078834
-0.03692449 0.10155293 0.20879817 0.054259412 -0.018591914 0.054613512 0.12844086 -0.029627124
-0.04351613 -0.14549056 0.25709194 -0.014784173 -0.17376508 0.10968032 0.16407706 -0.079148635
00000000: 1aa1 d9bd 0051 9f3e 84da 8ebc 4dc5 39bd
00000010: ff8f 453d e9b5 24bc 59ff 26be a96b 1c3e
00000020: d58c 86bd 8886 11be 31c1 513e 37d5 783d
00000030: a376 11be 8c0e 5a3c c197 dd3c 7a95 09bb
00000040: 3872 db3d 951e 44be 4555 fc3d b7ab 0aba
00000050: e56f 903e 7c76 47be 4e1c e43c 35f5 54be
00000060: 864d 273e 742c 1dbd de28 2fbe 7083 cebd
00000070: 86a4 98bc 3f26 b03d 4561 2e3d 1346 8d3d
00000080: 4da3 8fbe 55f7 19be 02fd 0b3e 2302 58bd
00000090: aef2 83be bea5 29bd d8c2 b93d 2f04 29bd
000000a0: 5cc6 61be 3914 543e c209 d6bd 4802 a03d
000000b0: 9f78 923e 98b6 f7bd 50fc 0fbd 792a 09be
000000c0: 01a9 a6be 319e c03c e059 493e 3f17 84bd
000000d0: 61f8 2c3d 0cfe 4b3e 9b7a f93d 4949 2fbe
000000e0: e9c5 f8bd 4e33 3e3e 36ab 553d a8c2 d4bd
000000f0: 9632 fabd 17af c73d 83eb 153e 5413 2d3c
00000100: eded a9bc 01d6 90be dd1b e9bd 0904 983d
00000110: 6ec8 3b3d 9792 7d3d c4ff 923e 8e65 d13d
00000120: d015 fc3a f290 ea3d bfee 0ebe c704 75bd
00000130: 02e6 91bc 2a83 8fbd 9fc2 6fbe 6e11 50bd
00000140: ba8c 01bd 59a9 613e 72f3 24be 18d1 88bd
00000150: b5df 2cbe ecb0 a43d 365c b3bd 6ee1 123e
00000160: eac5 69be 8ce2 c63d bb96 6d3d cb09 863c
00000170: f0c2 8cbd 1de0 b73d 947d 1e3e 8f62 91bd
00000180: 08e7 1fbc 2608 a03e cf8f 19bd 59fb 48be
00000190: 7a5c 453a fd9c fdbd bcfb 89bd ebf9 183d
000001a0: e1b4 14be 221f c0bd b512 90bd fe2f febd
000001b0: b39e 3e3d d8d6 6d3e 07be a53c 1bc6 1abe
000001c0: bed6 a5bd 06d0 32be a3a3 fa3d a517 c2bd
000001d0: 4162 493c 63ad 52bd c5fc fb3d 7fa1 e8bc
000001e0: ae66 88bc 9c15 9dbd fc73 05be 6cc3 85bd
000001f0: 2fdd 81bd 4f43 bf3c 5bb5 f1bd d237 ca3d
00000200: d5ae 5b3d 359d 283e 1394 50bd 3337 173e
00000210: 718b a6be e50a 3b3d ec8c 103e 34cb 6abd
00000220: 744e 2c3e 0324 2d3d cc6d a2be 1803 1fbd
00000230: 48ee 6a3d 33ad 7fbd ffc4 a5bb 488e 373e
00000240: 70fd 673e 0c2b 9f3d 0878 2cbc 7b4c dfbb
00000250: 3fff 76bd 0447 69bd 9077 05be 9ff3 413a
00000260: c3ce a9bc 5624 b73d c015 9ebb d504 ba3d
00000270: 9141 97bd 0811 dbbd a74c d9bd c82d 643c
00000280: 49c9 c5bd c255 163c 881a f63d 229c 14be
00000290: 8d85 fc3d c5ff b8bd edeb 54be c5b0 0cbe
000002a0: 7bb8 27be 2610 acbd 2370 0f3e 49c6 a9bc
000002b0: 66f7 b1be 5a96 e63d 61ec 1a3e 150c 66bc
000002c0: f6ac 503b 52db 94bc 10d5 1e3d b4bb abbd
000002d0: f5ab 943e e334 59be 8316 d73c 25dc 50bd
000002e0: 6a6b 373e d281 d73d e9bc d93c d11f 59be
000002f0: 0e6d 50be ecde ffbc d753 713d b302 1ebd
00000300: d125 85bb 7843 8dbe fe69 9bbc 9e82 12be
00000310: 6144 903d 6acb f4bd 9c2f 50be 8121 5c3e
00000320: 4392 9dbe cc08 85bd a787 493e 0e64 f4bd
00000330: 4b35 e4bd 5134 33bd cf0a 99bc c479 72bd
00000340: 0bf9 0bbd e875 f9bd 39a7 633e c732 f3bd
00000350: dd47 6f3c 05b9 b2be 90f5 47be c647 80bc
00000360: ae3c bb3d 66ad e8bc e169 403d c7dd 743a
00000370: c665 bf3d fe72 a83a 7418 82be 1a53 3a3e
00000380: 0a95 563c b074 50be e2dd 2b3e 34e6 e6bd
00000390: b929 bcbd ec48 803d 9ec8 d93d b6df 3dbc
000003a0: 88eb 1bbe b93c 3a3e aabc 4ebd a682 103e
000003b0: 8206 c73d 497b 3bbe 6cdc fbbd ff83 35bc
000003c0: 223e 17bd fcfa cf3d 30cf 553e 1e3f 5e3d
000003d0: 124e 98bc 6bb2 5f3d 0086 033e 95b4 f2bc
000003e0: f83d 32bd 7afb 14be 8ea1 833e 5139 72bc
000003f0: 79ef 31be 13a0 e03d d103 283e ae18 a2bd

arith.constant3 f4 [32, 32]
-0.0022227352 0.044921514 0.08165521 -0.005870301 0.026908861 -0.015575001 0.07505873 0.079233944
-0.101922326 0.2839988 0.12163169 0.023877064 0.1256995 -0.3797845 0.05486754 -0.068960026
-0.07912224 0.13776563 0.097034395 -0.01552824 -0.057070717 0.11975994 0.0021332104 -0.085790575
-0.00024869113 0.06477734 0.21507171 -0.21163234 -0.1543318 0.11478127 0.36124614 0.042698227
0.06925851 -0.30415174 -0.057890806 0.1461253 -0.14794555 0.1405777 0.17158857 -0.21227834
0.1406092 0.1674538 -0.25645316 -0.1361356 0.31201383 -0.18736258 -0.10930687 0.18384899
0.13995667 0.39272612 -0.13809429 -0.27314228 -0.43371692 0.283286 -0.22134648 0.14255367
0.008783394 0.1917497 0.17306618 0.25198725 0.22278202 -0.15214135 0.10619137 -0.23811552
-0.04899119 0.12906754 0.11798482 -0.029037194 -0.26580137 -0.017453678 0.14651385 0.10015712
0.027461244 0.090980574 -0.15588236 -0.07016121 0.19686808 -0.39575228 0.0037215431 0.110789955
-0.08580446 -0.052981947 0.07496407 0.04936134 0.1327572 0.038336948 -0.005236497 -0.18533719
0.048335318 0.07834607 0.15549795 -0.104438 0.0106604835 0.13092965 0.090348974 0.12170355
-0.17843875 0.10007593 0.04984999 0.10583689 -0.02097248 -0.0837994 -0.08164372 -0.042409748
0.0437345 0.054394335 -0.01864647 0.13779972 0.18648683 -0.29309934 -0.100325756 0.015765576
-0.13612996 0.039446115 0.10694444 -0.0910288 -0.00830542 -0.0038002492 -0.21226262 -0.10936694
0.034778714 0.14634149 0.22630545 -0.09620502 0.016828818 -0.02425503 0.12019709 -0.0039379895
-0.11641547 0.014013268 0.25869688 -0.16204858 0.01238775 -0.07654993 -0.13983572 0.14618994
-0.16274638 0.13880277 0.08934606 0.15302384 0.27657512 -0.11542128 0.07564466 -0.15784113
0.050225537 -0.012104836 0.18718365 0.09840229 0.052402936 0.051747393 0.12606081 -0.048422
0.28439063 -0.11336093 0.1553798 -0.20119296 -0.22278543 0.15476982 -0.12285411 -0.07421208
0.034394015 0.005023689 -0.15013435 -0.036939293 -0.1886738 -0.039905705 0.09586201 -0.07014785
0.15300867 0.2081451 0.108252525 0.023336528 0.30151618 -0.29013735 0.09899902 0.09425157
-0.18202549 0.061306506 0.099122144 0.14396122 -0.080421686 0.31418523 0.13734916 -0.0059132595
0.18085147 -0.016885774 0.12868579 -0.10677355 -0.10815175 -0.04456464 0.1775296 -0.06978653
0.010180118 0.2057722 0.10530057 0.1186272 -0.2757467 0.022670664 0.24779476 -0.03164235
0.0065432657 0.19530848 -0.26613933 0.14269225 0.2051893 -0.31300026 0.06434086 0.011841568
-0.05404462 0.087357186 -0.05374092 0.06272041 -0.113855116 0.063658364 0.0583517 0.1230084
0.3795313 0.114202596 0.40844262 -0.15510856 -0.04156907 0.172326 0.2468059 -0.12887515
-0.038705382 -0.095308706 -0.019742932 0.028747339 -0.0062299715 0.022358792 -0.043358233 0.13789146
0.28540146 0.07141592 -0.14128749 0.023736013 0.070551574 -0.1677185 0.019181924 0.0512346
-0.07046277 0.1437034 0.0036626547 -0.1487755 -0.1344497 -0.11090329 -0.081261955 0.14462818
-0.19792792 0.06896559 0.022476494 0.021448828 0.033077333 -0.07361428 0.10079123 0.16718644
00000000: 4fab 11bb 9fff 373d d93a a73d a75b c0bb
00000010: f96f dc3c 4a2e 7fbc 64b8 993d 6845 a23d
00000020: a7bc d0bd 4a68 913e 091a f93d d599 c33c
00000030: 5fb7 003e 1d73 c2be c9bc 603d ea3a 8dbd
00000040: d70a a2bd 6f12 0d3e f8b9 c63d 296a 7ebc
00000050: fcc2 69bd b344 f53d 55cd 0b3b f8b2 afbd
00000060: c262 82b9 fba9 843d c23b 5c3e 26b6 58be
00000070: 2809 1ebe 7112 eb3d 41f5 b83e 56e4 2e3d
00000080: 68d7 8d3d c7b9 9bbe e91e 6dbd dfa1 153e
00000090: 0a7f 17be 9af3 0f3e eab4 2f3e 7e5f 59be
000000a0: dcfb 0f3e 0279 2b3e d44d 83be 2167 0bbe
000000b0: 47c0 9f3e fadb 3fbe 48dc dfbd e942 3c3e
000000c0: cd50 0f3e 6613 c93e 9768 0dbe 4ed9 8bbe
000000d0: 2510 debe dd0a 913e a7a8 62be 97f9 113e
000000e0: 39e8 0f3c 095a 443e 4338 313e 7904 813e
000000f0: f820 643e f1ca 1bbe dc7a d93d 8ed4 73be
00000100: fcaa 48bd 482a 043e 06a2 f13d 69df edbc
00000110: 1e17 88be 04fb 8ebc ba07 163e 2d1f cd3d
00000120: 67f6 e03c 0654 ba3d a09f 1fbe aeb0 8fbd
00000130: c997 493e 0ba0 cabe 22e5 733b d8e5 e23d
00000140: 40ba afbd 9903 59bd c386 993d 1e2f 4a3d
00000150: 81f1 073e 3407 1d3d ec96 abbb 08c9 3dbe
00000160: 41fb 453d e873 a03d db3a 1f3e 97e3 d5bd
00000170: 4fa9 2e3c 6c12 063e e208 b93d b63f f93d
00000180: a6b8 36be 9cf4 cc3d 812f 4c3d 03c1 d83d
00000190: 7ace abbc 059f abbd d334 a7bd d8b5 2dbd
000001a0: f222 333d 98cc 5e3d 7bc0 98bc 5f1b 0d3e
000001b0: 67f6 3e3e 1e11 96be 9777 cdbd cf26 813c
000001c0: a765 0bbe 4092 213d b005 db3d 4f6d babd
000001d0: 7513 08bc 9a0d 79bb 5f5b 59be c6fb dfbd
000001e0: 2074 0e3d 8bda 153e 9ebc 673e 2307 c5bd
000001f0: 97dc 893c 7cb2 c6bc e429 f63d 400a 81bb
00000200: 3c6b eebd e897 653c eb73 843e 10f0 25be
00000210: fdf5 4a3c 36c6 9cbd 1831 0fbe d1b2 153e
00000220: fda6 26be 5022 0e3e 11fb b63d 48b2 1c3e
00000230: 419b 8d3e fe61 ecbd 96eb 9a3d 1ba1 21be
00000240: 4bb9 4d3d 5d53 46bc 12ad 3f3e 2487 c93d
00000250: 76a4 563d 13f5 533d 1616 013e 2656 46bd
00000260: a69b 913e c629 e8bd e21b 1f3e 8705 4ebe
00000270: dd21 64be fb7b 1e3e f09a fbbd 81fc 97bd
00000280: bde0 0c3d c29d a43b d2bc 19be a84d 17bd
00000290: b433 41be 2a74 23bd 4d53 c43d ada9 8fbd
000002a0: 4eae 1c3e fd23 553e 80b3 dd3d 3f2c bf3c
000002b0: 5460 9a3e e28c 94be 00c0 ca3d f806 c13d
000002c0: e464 3abe 881c 7b3d 8d00 cb3d 926a 133e
000002d0: 20b4 a4bd e3dc a03e 42a5 0c3e 04c4 c1bb
000002e0: 2131 393e 0954 8abc 35c6 033e 17ac dabd
000002f0: aa7e ddbd 6989 36bd 52ca 353e 3eec 8ebd
00000300: 82ca 263c f3b5 523e d3a7 d73d d1f2 f23d
00000310: ac2e 8dbe d4b7 b93c e9bd 7d3e 699b 01bd
00000320: e468 d63b f2fe 473e 6a43 88be eb1d 123e
00000330: 251d 523e 9241 a0be 24c5 833d 2303 423c
00000340: e45d 5dbd 53e8 b23d 701f 5cbd 8f73 803d
00000350: df2c e9bd 515f 823d 3102 6f3d d4eb fb3d
00000360: ed51 c23e 0de3 e93d 641f d13e c7d4 1ebe
00000370: 5444 2abd 3a76 303e b0ba 7c3e d9f7 03be
00000380: 8989 1ebd 3631 c3bd eebb a1bc 8a7f eb3c
00000390: ca24 ccbb c929 b73c 6798 31bd 6b33 0d3e
000003a0: 2420 923e 8342 923d abad 10be 0772 c23c
000003b0: 587d 903d 66be 2bbe 6923 9d3c 5fdb 513d
000003c0: c94e 90bd fc26 133e 2609 703b 9b58 18be
000003d0: 2fad 09be 4421 e3bd ab6c a6bd 6919 143e
000003e0: 9ead 4abe d53d 8d3d a020 b83c 74b5 af3c
000003f0: 197c 073d 15c3 96bd a26b ce3d ec32 2b3e

arith.constant4 f4 [32]
0.22438987 0.028085213 0.16873118 0.2984716 0.34510764 0.312559 0.42975906 0.05051375
0.30764347 0.06649986 0.3131101 0.089342766 0.22415802 -0.004258748 0.1948667 0.16598175
0.114695035 0.31771013 0.18063089 0.051594622 0.40370032 0.266628 0.13256261 0.20461948
-0.17629957 0.08628569 0.20661391 0.09598665 0.09031818 0.054934233 0.021781027 0.014088677
00000000: 75c6 653e f612 e63c dec7 2c3e 45d1 983e
00000010: f3b1 b03e bc07 a03e 6109 dc3e 82e7 4e3d
00000020: 7283 9d3e 1431 883d f84f a03e 57f9 b63d
00000030: ae89 653e f88c 8bbb 238b 473e 1ff7 293e
00000040: 3be5 ea3d e7aa a23e 4ef7 383e e254 533d
00000050: cfb1 ce3e 7783 883e 7ebe 073e c587 513e
00000060: e087 34be 8db6 b03d 9992 533e a694 c43d
00000070: bdf8 b83d b802 613d 206e b23c 32d4 663c

arith.constant5 f4 [32]
0.93042827 0.8461789 0.90101105 0.85340524 0.7886027 0.95502377 0.83575225 0.9941144
0.7727114 0.85255504 0.8870637 0.9440199 0.76844823 1.1175697 1.0163513 0.87894267
0.928146 0.93898773 0.7626356 0.9552976 0.70501155 0.8661368 0.9747941 0.93753976
1.2805063 0.9392035 0.9192756 0.9810367 0.97282106 0.9887825 0.9521173 0.8446234
00000000: 8c30 6e3f 2e9f 583f a9a8 663f c478 5a3f
00000010: dee1 493f 707c 743f dcf3 553f 487e 7e3f
00000020: 6ad0 453f 0c41 5a3f 9b16 633f 4aab 713f
00000030: 06b9 443f 860c 8f3f cd17 823f 6302 613f
00000040: fa9a 6d3f 8061 703f 163c 433f 628e 743f
00000050: a37b 343f 24bb 5d3f 1b8c 793f 9b02 703f
00000060: a1e7 a33f a46f 703f a555 6b3f 3925 7b3f
00000070: cd0a 793f da20 7d3f f6bd 733f 3d39 583f

arith.constant6 f4 [32]
-0.10826198 0.034282476 0.11511623 -0.05095171 -0.02527843 -0.12436583 -0.057518367 0.16349468
-0.058724288 0.004337566 0.08111714 0.12831335 0.08704618 -0.2637377 0.09519013 -0.104763314
-0.09889568 -0.11043861 0.08610578 0.1428536 0.036286093 -0.019163355 0.1024365 -0.092947155
-0.049569722 -0.080413215 0.07193631 -0.15106091 -0.13229743 0.13151918 0.060342632 0.038359493
00000000: 75b8 ddbd c86b 0c3d 0fc2 eb3d beb2 50bd
00000010: b614 cfbc 83b3 febd 6198 6bbd 266b 273e
00000020: e188 70bd 2422 8e3b be20 a63d 9364 033e
00000030: 4545 b23d a108 87be 0bf3 c23d 268e d6bd
00000040: d189 cabd a32d e2bd 3a58 b03d 3748 123e
00000050: baa0 143d 78fc 9cbc 3aca d13d 145b bebd
00000060: 9f09 4bbd afaf a4bd 5853 933d b6af 1abe
00000070: fa78 07be f7ac 063e d629 773d d81e 1d3d

arith.constant7 f4 [32]
0.17513633 -0.1295922 0.05109771 0.09103487 0.20513068 0.18453985 0.36486292 -0.018801592
0.30274734 0.02864617 0.25680602 -0.038165703 0.18902971 -0.08497147 0.09112808 0.10153586
0.076813914 0.22947764 0.18006398 -0.01785052 0.27827695 0.40623984 0.024560388 0.023008011
-0.02125345 0.03841715 0.13501938 0.009409879 -0.0036815216 -0.036778655 -0.018517837 -0.06633576
00000000: f056 333e d1b3 04be d54b 513d 7d70 ba3d
00000010: c70d 523e 04f8 3c3e 50cf ba3e cc05 9abc
00000020: b301 9b3e 5fab ea3c 147c 833e a453 1cbd
00000030: 0191 413e 8605 aebd 5ca1 ba3d 08f2 cf3d
00000040: 9d50 9d3d 30fc 6a3e b162 383e 413b 92bc
00000050: 517a 8e3e abfe cf3e de32 c93c 4c7b bc3c
00000060: b71b aebc 4d5b 1d3d 8542 0a3e e52b 1a3c
00000070: af45 71bb 37a5 16bd b8b2 97bc 0bdb 87bd

arith.constant8 f4 [32, 64]
0.038755912 -0.0137326885 0.07435032 0.0030212014 0.0024078945 0.039025653 0.013399383 0.018423075
-0.011260798 -0.035824556 -0.021492083 0.0057604206 -0.0075808163 0.025471376 0.020909324 0.0009086465
0.010251333 0.09728291 -0.034284074 0.019568095 -0.019932205 0.026199667 0.029515872 -0.061210822
0.0054524383 -0.05162298 0.014965751 0.05125829 0.048129942 -0.008846375 0.00025340315 0.0015763692
-0.001536524 -0.02903837 0.003867649 0.058425922 0.031328477 0.019838346 -0.004293275 0.028017124
-0.0016450731 -0.012183946 -0.018069306 0.054395776 -0.15388297 -0.0044181147 0.0016872492 -0.0033402129
-0.0012083114 0.03366301 0.060285266 0.0099192895 -0.0052529303 -0.07881047 0.014140649 0.025990251
0.015765157 -0.0016824304 0.039837793 -0.024192208 0.0050033415 -0.031076541 -0.010294106 -0.012693633
0.0017872136 -0.014561348 0.005056673 -0.0021019215 -0.002639691 0.017091313 0.0017248224 0.005106943
0.0054573137 -0.008723493 0.0021566155 0.010503375 0.0064662728 -0.0077762357 -0.0044804625 -0.0010189239
0.012567755 -0.0017685549 0.012928722 -0.0037871974 0.010938587 -0.007777884 -0.0046564178 0.00014606334
0.00092160376 0.00078018557 0.0036930912 -0.005134056 -0.0031171732 -0.0019118394 -0.0045207753 0.001264876
-0.0016630095 0.0059402473 -0.0037074985 0.006841746 0.005136819 0.0027031365 0.0004236587 -0.00432086
-0.00279064 -0.011253183 -0.009176652 0.0003180741 0.017594544 0.007177305 3.4748227e-05 0.003098861
0.0019826032 -0.0037176933 -0.00015504312 2.224701e-06 0.0041976245 0.00039494995 -0.008439902 0.0011578345
-0.00553605 -0.013196042 0.0035306 -0.0018689885 -0.0021032118 -0.002815394 -0.00038989465 -0.005784146
0.051815532 -0.011334005 0.011728425 0.013990494 0.03484317 -0.036786705 0.011073817 -0.0024459427
-0.011433513 0.020243905 -0.015524996 -0.010659777 0.0042668553 0.034856968 0.012771866 -5.047974e-05
0.010644113 0.027963357 0.016830217 0.049004264 -0.0029767225 0.0311279 0.011648652 -0.05460738
-0.006682736 -0.010920123 -0.028427774 0.01907834 0.002078485 0.046516676 -0.0048264274 0.02884363
0.0018235771 -0.0058940533 0.009565633 0.018133365 -0.020760253 0.022598961 -0.011093811 -0.0029610633
0.01021863 0.01202894 0.008582979 0.013072324 -0.055542942 0.019303886 -0.015463367 0.0034633204
-0.021324905 0.048288602 0.030708129 0.003660493 0.011130596 -0.017135585 0.055817198 0.022725465
-0.0065686596 0.049318347 -0.02154496 -0.004124671 -0.032046095 -0.0043410803 -0.0013337487 -0.005033274
0.013354649 0.0008923402 0.0022810807 0.006864598 0.0054467954 -0.01544967 -0.0007351978 -0.0025565124
-0.0043534585 0.0012663807 -0.0025896241 -0.009772785 0.0039341548 0.012338014 0.009021262 -0.0015649113
0.0043831444 0.0037409936 0.008146611 0.017182339 -0.0017673888 0.015920369 0.009282034 -0.014737875
-0.007184767 -0.0034590876 -0.0050459784 0.0048675193 0.00622213 0.011577715 -0.0056388625 0.0088842455
0.0036692533 0.0014900881 0.005838188 0.005592898 -0.013685798 0.0072296704 0.00062563416 -0.009424918
0.0016992888 0.011218336 0.009915611 0.002362575 -0.027134024 0.004360598 -0.0034396641 -0.0005168412
-0.004402945 0.014380716 0.00782331 -0.00023316397 0.0017970758 -0.0031905847 0.018860022 0.00865831
0.00023146537 0.015585774 -0.010828753 0.0007392833 -0.005573109 -0.0051730853 0.00038853477 -0.0013384864
00000000: 85be 1e3d 12ff 60bc fb44 983d 59ff 453b
00000010: c4cd 1d3b 5dd9 1f3d 1689 5b3c fdeb 963c
00000020: 367f 38bc c5bc 12bd 2a10 b0bc e9c1 bc3b
00000030: 7f68 f8bb 59a9 d03c 084a ab3c 3c32 6e3a
00000040: 35f5 273c 433c c73d 756d 0cbd 454d a03c
00000050: dd48 a3bc afa0 d63c 45cb f13c 33b8 7abd
00000060: 5eaa b23b 9e72 53bd e932 753c 36f4 513d
00000070: e723 453d 63f0 10bc 32db 8439 2c9e ce3a
00000080: 3165 c9ba e0e1 edbc 6278 7d3b 0550 6f3d
00000090: 4a52 003d 0784 a23c 9aae 8cbb 2b84 e53c
000000a0: 7e9f d7ba 2c9f 47bc 1506 94bc 1bce 5e3d
000000b0: 7f93 1dbe d5c5 90bb b026 dd3a 79e7 5abb
000000c0: 3460 9eba 39e2 093d afed 763d 8484 223c
000000d0: c620 acbb 6267 a1bd 2eae 673c 82e9 d43c
000000e0: ee25 813c ff84 dcba f42c 233d bd2e c6bc
000000f0: 12f3 a33b 3b94 febc 9ca8 28bc f5f8 4fbc
00000100: f040 ea3a b892 6ebc 73b2 a53b 64c0 09bb
00000110: abfe 2cbb 1503 8c3c 7013 e23a 2558 a73b
00000120: 44d3 b23b fbec 0ebc 0156 0d3b 5916 2c3c
00000130: 07e3 d33b cbcf febb d8d0 92bb 6a8d 85ba
00000140: fce8 4d3c dbce e7ba fed2 533c a132 78bb
00000150: c237 333c 9fdd febb dd94 98bb 9428 1939
00000160: c897 713a 5e85 4c3a ca07 723b 953b a8bb
00000170: 7d49 4cbb af96 faba 0323 94bb 32ca a53a
00000180: 57f9 d9ba 68a6 c23b 81f9 72bb ba30 e03b
00000190: c352 a83b 1b27 313b 821e de39 0096 8dbb
000001a0: 2ce3 36bb 455f 38bc ab59 16bc 2fc3 a639
000001b0: 6f22 903c 992f eb3b a0be 1138 4316 4b3b
000001c0: 90ee 013b 8ba4 73bb 1293 22b9 124c 1536
000001d0: 3a8c 893b 4911 cf39 8447 0abc 7bc2 973a
000001e0: c167 b5bb 3634 58bc a461 673b d9f8 f4ba
000001f0: 0ad6 09bb 7982 38bb c66a ccb9 ef88 bdbb
00000200: 863c 543d 43b2 39bc 9428 403c 6338 653c
00000210: b6b7 0e3d a8ad 16bd f46e 353c 1c4c 20bb
00000220: a153 3bbc 8cd6 a53c 8e5c 7ebc 58a6 2ebc
00000230: fad0 8b3b 2ec6 0e3d 1741 513c 35ba 53b8
00000240: a564 2e3c 6913 e53c 86df 893c b2b8 483d
00000250: 1e15 43bb f0ff fe3c fdd9 3e3c fdab 5fbd
00000260: dafa dabb 51ea 32bc 5de1 e8bc 2e4a 9c3c
00000270: 3137 083b 4588 3e3d 0227 9ebb 7a49 ec3c
00000280: 1805 ef3a e722 c1bb 2cb9 1c3c 6c8c 943c
00000290: 6811 aabc 7521 b93c d1c2 35bc 660e 42bb
000002a0: 0a6c 273c 0815 453c a09f 0c3c 4d2d 563c
000002b0: ff80 63bd 2f23 9e3c 105a 7dbc e0f8 623b
000002c0: 91b1 aebc 45ca 453d 9d8f fb3c e2e4 6f3b
000002d0: 1a5d 363c ed5f 8cbc 93a0 643d c12a ba3c
000002e0: e93d d7bb 0902 4a3d 0e7f b0bc 4028 87bb
000002f0: c442 03bd 9f3f 8ebb 2ed1 aeba 2aee a4bb
00000300: 75cd 5a3c f0eb 693a 2f7e 153b 6cf0 e03b
00000310: 087b b23b 9d20 7dbc 4aba 40ba 298b 27bb
00000320: 75a7 8ebb affc a53a afb6 29bb 081e 20bc
00000330: 15ea 803b 6225 4a3c eacd 133c b61d cdba
00000340: 7ba0 8f3b 752b 753b 5d79 053c fac1 8c3c
00000350: baa7 e7ba 6f6b 823c ac13 183c 2177 71bc
00000360: 326e ebbb dcb1 62bb bc58 a5bb b67f 9f3b
00000370: 02e3 cb3b 75b0 3d3c 35c6 b8bb 3a8f 113c
00000380: db77 703b 0f4f c33a 454e bf3b a144 b73b
00000390: 663a 60bc dfe6 ec3b 9901 243a f96a 1abc
000003a0: acba de3a 1dcd 373c 1675 223c 6ed5 1a3b
000003b0: 2c48 debc 59e3 8e3b fd6b 61bb a07c 07ba
000003c0: 9446 90bb 189d 6b3c 572d 003c 7a7d 74b9
000003d0: dc8b eb3a 2119 51bb 5580 9a3c 96db 0d3c
000003e0: 83b5 7239 795b 7f3c 156b 31bc 76cc 413a
000003f0: a09e b6bb fc82 a9bb 41b4 cb39 2770 afba

arith.constant9 f4 [32, 64]
-0.010273553 -0.0031166037 0.111299865 -0.006328418 0.021487942 -0.04082177 0.057887886 0.008007508
0.006487581 -0.024857646 0.0067265914 0.019487062 -0.027042236 -0.0074176285 -0.00310293 -0.00090304355
-0.003549905 0.07641055 -0.027172502 -0.0202461 0.0076501532 -0.026508136 -0.019665105 -0.005168766
0.02171306 -0.04668251 0.005294203 0.013110766 0.049178883 -0.05605089 -0.0170584 -0.012505702
-0.011049188 -0.041500412 -0.006249545 0.0447405 0.01734791 0.022657145 -0.008360227 0.02220856
0.010312225 -0.004747909 -0.022247678 0.019512838 -0.11665521 -0.05879046 0.005070706 -0.008548592
0.008783501 -0.023799876 0.022195823 0.00966688 -0.012004329 -0.047356464 -0.037563384 -0.010634524
0.011240843 -0.024518192 0.028028317 -0.010077626 -0.0011041374 0.0029578418 -0.030853221 0.00092650973
-0.0030742725 -0.00045440736 0.006814741 -0.0034279614 -0.012842409 0.01684267 0.002174096 0.006227739
0.012017352 -0.005327958 -0.002008687 -0.0069721662 0.0034348413 -0.03161331 -0.0058780676 -0.007988204
0.000709404 -0.016490256 0.007412881 -0.013946738 -0.000621219 -0.024890888 0.005269593 0.016613262
0.020399315 0.004755426 0.0049760262 -0.008450841 -0.0023221748 0.0031056271 -0.00040120666 -0.0007220836
0.005202464 0.00943034 0.0024428621 -0.015706768 0.00038530055 -0.010715731 0.0016424414 0.0056924787
0.0016240828 -0.005033676 -0.010706161 -0.0040229717 0.0421017 -0.02808307 0.007821549 -0.005432572
0.0054180976 -0.017423043 -0.01076607 -0.004605698 0.0017433551 0.0144145675 -0.0015823613 -0.0040182495
0.0036045455 0.00013219596 0.0016559601 0.0048805964 0.012740691 0.002356712 -0.0034772956 -0.007351433
0.007940374 -0.011365411 0.058511537 0.027468342 0.038441442 -0.057286598 0.062188797 -0.012489161
-0.039339337 0.02111782 -0.008539021 -0.017024271 -0.012355684 0.016825892 0.04606505 0.0007470503
-0.0010391541 0.06438821 -0.031339973 0.020288572 0.005340726 0.01714193 -0.008133231 -0.04689835
0.0016720709 -0.018389218 -0.023251206 -0.017524825 0.007829453 -0.0048041027 0.024778813 0.03551862
0.0064250724 -0.030078111 -0.016997267 0.05170584 -0.02407138 0.039567694 0.001518862 0.023481768
0.043547876 0.0375423 0.017151441 0.0016064743 -0.08834987 -0.06458005 0.0026395833 -0.00032961622
-0.04027622 0.074789524 0.0059251864 -0.0037310345 -0.0009895293 -0.04007165 0.038364954 0.020363072
-0.004496597 0.040847544 -0.023382274 -0.03639636 -0.03417779 0.010552527 -0.033229735 0.01005248
0.018673895 -0.0030541879 0.00568947 -0.0012348742 0.011347325 -0.008629345 0.01393903 -0.0072912145
0.0031920094 -0.01690694 -0.0037638454 -0.011509051 -0.005841911 0.006427142 0.001435132 -0.0027793455
0.0016556619 0.0066341422 -0.009877232 0.01997396 -0.0030864663 0.007880611 -1.2438583e-05 -0.0057999576
-0.006194276 -0.013722796 -0.0097535495 0.01339421 0.00692456 0.0027958893 0.007922945 0.0041622273
0.004218997 0.0010247407 -0.008397308 -0.006483284 -0.018543897 0.007240498 -0.017454414 0.011367741
-0.0042227656 0.011154625 0.0088600265 0.003225703 8.0540405e-05 -0.028870443 0.0032497977 0.0010815001
0.0010308943 -0.0008293994 0.008064845 -0.00023788029 -0.0012585744 0.0012501408 0.023490772 0.012653132
-0.00011967898 0.017364386 -0.02419387 -0.006213417 -0.0077283573 -0.0057237674 -0.010107789 0.0030398513
00000000: 6852 28bc ef3f 4cbb 2ff1 e33d 9e5e cfbb
00000010: 7b07 b03c ba34 27bd d91b 6d3d ec31 033c
00000020: c695 d43b 43a2 cbbc bd6a dc3b 55a3 9f3c
00000030: ae87 ddbc 940f f3bb 875a 4bbb 3aba 6cba
00000040: 86a5 68bb 227d 9c3d de98 debc 26db a5bc
00000050: 23ae fa3b 9727 d9bc b718 a1bc c05e a9bb
00000060: 96df b13c 2936 3fbd fe7a ad3b 8ace 563c
00000070: cc6f 493d 9e95 65bd 0fbe 8bbc b7e4 4cbc
00000080: a707 35bc 56fc 29bd fcc8 ccbb d141 373d
00000090: 341d 8e3c 7a9b b93c 55f9 08bc baee b53c
000000a0: 9bf4 283c 5994 9bbb c340 b6bc 63d9 9f3c
000000b0: ede8 eebd 44ce 70bd 2a28 a63b 650f 0cbc
000000c0: ace8 0f3c f5f7 c2bc 04d4 b53c d561 1e3c
000000d0: cead 44bc daf8 41bd 10dc 19bd 6d3c 2ebc
000000e0: 832b 383c 60da c8bc a49b e53c a11c 25bc
000000f0: b4b8 90ba 5ad8 413b e5bf fcbc 04e1 723a
00000100: bc79 49bb 863d eeb9 314e df3b a6a7 60bb
00000110: f868 52bc a4f9 893c 477b 0e3b 1012 cc3b
00000120: 6de4 443c 2796 aebb 2da4 03bb c576 e4bb
00000130: 131b 613b f57c 01bd ce9c c0bb f5e0 02bc
00000140: 4cf7 393a 9316 87bc c1e7 f23b dc80 64bc
00000150: 4dd9 22ba fae7 cbbc 8dac ac3b 8918 883c
00000160: 771c a73c 68d3 9b3b ef0d a33b 6575 0abc
00000170: a12f 18bb c787 4b3b 0c59 d2b9 364a 3dba
00000180: 6e79 aa3b b681 1a3c 6d18 203b 7bab 80bc
00000190: 2a02 ca39 0991 2fbc 3047 d73a f987 ba3b
000001a0: 2ddf d43a 89f1 a4bb e568 2fbc 22d3 83bb
000001b0: d572 2c3d 770e e6bc f425 003c b803 b2bb
000001c0: 4c8a b13b c5ba 8ebc 2c64 30bc 65eb 96bb
000001d0: 4a81 e43a 142b 6c3c 3c67 cfba 85ab 83bb
000001e0: 3d3a 6c3b 159e 0a39 cd0c d93a 69ed 9f3b
000001f0: 55be 503c 1173 1a3b 57e3 63bb 4ae4 f0bb
00000200: 5818 023c fd35 3abc cba9 6f3d 4a05 e13c
00000210: c674 1d3d 5aa5 6abd aeb9 7e3d 579f 4cbc
00000220: 4922 21bd 47ff ac3c 40e7 0bbc 7c76 8bbc
00000230: 7f6f 4abc 74d6 893c b5ae 3c3d b2d5 433a
00000240: 3a34 88ba f7dd 833d 585e 00bd 3834 a63c
00000250: 4201 af3b 3c6d 8c3c 3e41 05bc 7c18 40bd
00000260: 6429 db3a fca4 96bc 5079 bebc 3990 8fbc
00000270: 1b47 003c bc6b 9dbb f0fc ca3c f97b 113d
00000280: 6a89 d23b 5f66 f6bc da3d 8bbc 81c9 533d
00000290: 5831 c5bc bc11 223d 8d14 c73a d65c c03c
000002a0: 425f 323d f4c5 193d 2e81 8c3c 5590 d23a
000002b0: c7f0 b4bd 8c42 84bd dcfc 2c3b 57d0 acb9
000002c0: adf8 24bd 402b 993d 1128 c23b 5f84 74bb
000002d0: 18b3 81ba 2c22 24bd 9224 1d3d 75d0 a63c
000002e0: 3158 93bb c14f 273d 2f8c bfbc 5914 15bd
000002f0: 03fe 0bbd 82e4 2c3c e71b 08bd 28b3 243c
00000300: fff9 983c c528 48bb bc6e ba3b 81db a1ba
00000310: 21ea 393c 1962 0dbc 8760 643c 24eb eebb
00000320: 0831 513b 6c80 8abc d9aa 76bb 7590 3cbc
00000330: 806d bfbb c69a d23b 0a1b bc3a ae25 36bb
00000340: cb02 d93a 3863 d93b 1dd4 21bc 6ea0 a33c
00000350: 5046 4abb ae1d 013c 4faf 50b7 920d bebb
00000360: 5af9 cabb 94d5 60bc 5acd 1fbc 6373 5b3c
00000370: 6be7 e23b 3d3b 373b 3dcf 013c 4b63 883b
00000380: 833f 8a3b 9850 863a dd94 09bc ba71 d4bb
00000390: 5fe9 97bc b341 ed3b 8ffc 8ebc c33f 3a3c
000003a0: 205f 8abb e3c1 363c a529 113c 5166 533b
000003b0: cde7 a838 b581 ecbc 8ffa 543b 1fc1 8d3a
000003c0: 131f 873a 0d6c 59ba 6922 043c 816f 79b9
000003d0: c0f6 a4ba c4db a33a b86f c03c 154f 4f3c
000003e0: 2afc fab8 c23f 8e3c 3932 c6bc eb99 cbbb
000003f0: 293e fdbb 718e bbbb 249b 25bc 3e38 473b

arith.constant10 f4 [32, 64]
-0.17368488 0.03637591 -0.047191676 -0.14134957 -0.109129034 0.18842828 0.0076804743 0.17805114
0.03320017 -0.1583372 0.12999333 0.20738496 -0.115720235 0.02186353 -0.14990541 0.02340998
-0.06775809 0.006301495 0.08457203 -0.18086639 -0.030517178 0.010937989 0.04886807 0.14331019
0.13090214 0.053161606 0.10269436 -0.029300302 0.070983075 -0.22624353 -0.09275203 -0.11334381
-0.0520484 -0.0036798366 0.10247957 -0.080016464 0.2161637 -0.11048481 0.04823751 -0.07951795
-0.085571945 -0.2240096 -0.112770185 -0.058196425 0.103234574 -0.040840656 0.12163832 -0.017527068
0.107655786 -0.16139029 -0.11938112 0.110119164 0.0056771943 0.0685761 -0.18199942 -0.12715483
0.02025224 -0.24858715 0.18892457 0.08129681 0.10481662 0.07418623 0.06947625 -0.03289667
0.03856959 -0.042239003 -0.06900637 0.076237 -0.02821194 -0.0964974 0.026217153 -0.07541848
-0.011531624 0.04481993 -0.09528276 -0.1662503 0.057329956 -0.09812976 0.042587075 -0.020183235
-0.0072622583 -0.08378151 -0.029395498 -0.03546893 0.06884185 0.055931024 0.011101609 0.0663617
-0.037115272 -0.0040921867 -0.036836285 0.0127435485 -0.0073435083 0.11499211 0.12391929 0.03151647
0.03444405 0.07590733 -0.100343175 -0.04476605 -0.11765008 -0.03089337 -0.03423642 0.0027816885
0.025476944 0.15340795 0.10939312 0.014853674 0.039393578 0.028516265 -0.010843079 0.02549308
-0.019030776 -0.020659877 -0.05089345 -0.06488699 -0.00085431925 0.06272419 0.12342959 0.039794736
-0.029244818 0.14302717 -0.13043681 -0.04311776 0.05224878 -0.0452417 -0.014599445 0.05890733
0.236422 0.02534614 0.060334068 0.100192875 0.17660905 -0.24659918 -0.0839694 -0.0847062
-0.10590161 0.21613228 -0.09732729 -0.121560626 0.16820188 -0.08214913 0.18631682 0.024635775
-0.034935467 0.07064667 -0.101199694 0.23951802 0.038681805 -0.09077376 0.020498637 -0.05672729
-0.12869713 0.006304711 -0.091838 0.0012650213 -0.14169565 0.24927759 -0.031323705 0.22946037
-0.01014341 -0.018435061 -0.077620395 0.09541891 -0.19229276 0.18944043 -0.06490292 -0.056426246
0.19476096 0.21304658 0.057708465 0.0041778735 -0.015086466 -0.0072956784 -0.123507656 0.04054813
-0.20032984 0.1473614 0.06278576 -0.074939184 0.016813515 -0.0142163355 0.24059115 0.14681883
-0.10328194 0.27720153 -0.24557604 -0.09836184 -0.12048158 -0.057047196 -0.039192203 -0.028658146
-0.15569732 -0.0050998786 -0.0170322 -0.104523234 -0.12679972 0.16735107 0.026863504 0.09460877
0.038765643 -0.067649834 0.066624776 0.1190558 -0.066112734 -0.010106896 -0.10135159 -0.006029838
0.0015652501 -0.032096103 0.0028537905 -0.20370756 -0.027180994 0.0051133013 0.05285112 0.12428854
0.11959951 0.050315052 0.095744774 -0.0708815 0.023252254 -0.15221803 -0.032998573 -0.12990919
-0.01013184 -0.023194302 0.028872821 0.011209688 0.17502792 -0.09182579 0.060192596 0.029262694
-0.08599648 -0.12839215 -0.0938183 -0.026224835 0.021452744 -0.024696235 0.05772795 -0.029762626
0.08057279 -0.15449186 -0.09099446 0.024910605 -0.026981106 0.023365324 -0.22495678 -0.14075418
0.029981485 -0.21046044 0.19751193 0.049428765 0.121015616 0.04427209 0.031785097 -0.0055080145
00000000: 73da 31be e8fe 143d 0f4c 41bd f1bd 10be
00000010: 0b7f dfbd 58f3 403e 7dac fb3b 0a53 363e
00000020: e7fc 073d 2623 22be f91c 053e b95c 543e
00000030: bbfe ecbd 251b b33c ce80 19be 49c6 bf3c
00000040: c1c4 8abd c57c ce3b 1a34 ad3d 0a35 39be
00000050: 29ff f9bc 4035 333c e329 483d e8bf 123e
00000060: 360b 063e fcbf 593d 6c51 d23d 3007 f0bc
00000070: 935f 913d 62ac 67be c7f4 bdbd cd20 e8bd
00000080: b430 55bd 6a29 71bb cfe0 d13d acdf a3bd
00000090: 045a 5d3e dc45 e2bd b294 453d 4fda a2bd
000000a0: 5840 afbd c662 65be 0ef4 e6bd 605f 6ebd
000000b0: a66c d33d 8848 27bd 831d f93d ed94 8fbc
000000c0: a37a dc3d 7f43 25be 177e f4bd 2886 e13d
000000d0: c207 ba3b a071 8c3d 0e5e 3abe e034 02be
000000e0: 07e8 a53c a18d 7ebe 7175 413e f17e a63d
000000f0: 19aa d63d f3ee 973d 9049 8e3d a9be 06bd
00000100: 25fb 1d3d ce02 2dbd 3653 8dbd 2522 9c3d
00000110: ba1c e7bc 6ea0 c5bd 5bc5 d63c 0175 9abd
00000120: 23ef 3cbc 1a95 373d 9c23 c3bd 853d 2abe
00000130: d1d2 6a3d 41f8 c8bd c96f 2e3d 5057 a5bc
00000140: 3df8 edbb a495 abbd d4ce f0bc de47 11bd
00000150: f5fc 8c3d ee17 653d 86e3 353c a5e8 873d
00000160: 2f06 18bd c017 86bb a5e1 16bd 51ca 503c
00000170: d0a1 f0bb fc80 eb3d 66c9 fd3d 6a17 013d
00000180: 3415 0d3d 4d75 9b3d b980 cdbd 9b5c 37bd
00000190: 86f2 f0bd 1814 fdbc 7d3b 0cbd fd4c 363b
000001a0: 06b5 d03c f916 1d3e 8009 e03d d35c 733c
000001b0: 295b 213d f19a e93c 2ba7 31bc ddd6 d03c
000001c0: 6ee6 9bbc e73e a9bc a675 50bd 78e3 84bd
000001d0: 65f4 5fba 8a75 803d a7c8 fc3d ceff 223d
000001e0: d492 efbc b775 123e 3a91 05be 409c 30bd
000001f0: d102 563d 5c4f 39bd 8332 6fbc d048 713d
00000200: 9c18 723e b5a2 cf3c db20 773d ec31 cd3d
00000210: 01d9 343e 7f84 7cbe 26f8 abbd 727a adbd
00000220: f1e2 d8bd c851 5d3e 8853 c7bd c7f4 f8bd
00000230: 1d3d 2c3e ce3d a8bd d6c9 3e3e f7d0 c93c
00000240: 7e18 0fbd 34af 903d c941 cfbd 3644 753e
00000250: d070 1e3d 98e7 b9bd c2ec a73c e05a 68bd
00000260: 2ec9 03be c097 ce3b 9015 bcbd 12cf a53a
00000270: aa18 11be a042 7f3e 494d 00bd a9f7 6a3e
00000280: 8c30 26bc 2005 97bc 71f7 9ebd fd6a c33d
00000290: 65e8 44be acfc 413e d2eb 84bd 351f 67bd
000002a0: 6b6f 473e e228 5a3e b65f 6c3d 8be6 883b
000002b0: 3a2d 77bc 9610 efbb 95f1 fcbd cc15 263d
000002c0: 4423 4dbe e8e5 163e d295 803d b779 99bd
000002d0: 7fbc 893c a2eb 68bc 875d 763e ad57 163e
000002e0: 7b85 d3bd 5ced 8d3e 4978 7bbe ef71 c9bd
000002f0: 0cbf f6bd 52aa 69bd 0188 20bd 7dc4 eabc
00000300: 1e6f 1fbe e21c a7bb 1d87 8bbc 4710 d6bd
00000310: c9d7 01be 145e 2b3e da10 dc3c 3ec2 c13d
00000320: b9c8 1e3d ff8b 8abd 9272 883d 87d3 f33d
00000330: 1d66 87bd 6597 25bc 6c91 cfbd f395 c5bb
00000340: 1429 cd3a 3477 03bd a906 3b3b b798 50be
00000350: adaa debc 7b8d a73b 6a7a 583d fd8a fe3d
00000360: 97f0 f43d 2817 4e3d d615 c43d 522a 91bd
00000370: 837b be3c 0bdf 1bbe 8329 07bd ea06 05be
00000380: 0400 26bc fa01 bebc b286 ec3c d7a8 373c
00000390: 853a 333e 290f bcbd 838c 763d 51b8 ef3c
000003a0: ec1e b0bd 3b79 03be cf23 c0bd 77d5 d6bc
000003b0: aabd af3c c24f cabc 2574 6c3d c0d0 f3bc
000003c0: 5903 a53d 1d33 1ebe 4e5b babd 5311 cc3c
000003d0: 7b07 ddbc a368 bf3c 125b 66be dd21 10be
000003e0: bb9b f53c f182 57be 9140 4a3e d175 4a3d
000003f0: 09d7 f73d a756 353d 1731 023d 937c b4bb
