Riproduzione/Riproduzione_PW/small_lstm_fixed.tflite (tflite, 414956 bytes, 29 tensors)

sequential/dense_1/BiasAdd/ReadVariableOp f4 [15]
000000 b2 60 ae bc de 16 89 bd 16 69 f0 3d b0 11 f2 3d
       -0.021286342 -0.06693815 0.117387936 0.1181978
000010 8a f7 f3 3d bf 41 f1 3d 4f 0c af 3d 53 4d 7f bd
       0.11912449 0.11780118 0.085472696 -0.0623296
000020 2a ae f3 3d 27 f2 61 bd 0c 33 b6 3d 18 0d d0 3d
       0.118984535 -0.055162575 0.08896455 0.101587474
000030 1b 64 ac bd 71 03 cc bd c7 b5 a0 bd
       -0.08417531 -0.09961594 -0.07847171

sequential/dense/BiasAdd/ReadVariableOp f4 [30]
000000 eb b4 70 bd 61 08 13 bd 84 36 21 be 2d fd 86 3d
       -0.058766287 -0.035896663 -0.15743452 0.06591258
000010 bc fc 75 bd bc fc 75 bd b6 85 e6 3d ba 49 d6 3d
       -0.06005548 -0.06005548 0.11255972 0.10463281
000020 bc fc 75 bd 33 81 96 3d 6b 20 4c 3d 80 9b 7c 3d
       -0.06005548 0.073488615 0.049835604 0.061671734
000030 c8 3f f1 bd b6 fc 75 bd 25 82 1c be 64 7c bc bd
       -0.117797434 -0.060055457 -0.15284021 -0.09203413
000040 fa 43 8f 3d db 54 c5 3d dd 1c c5 bd b9 fc 75 bd
       0.069953874 0.096353255 -0.09624646 -0.06005547
000050 01 f9 51 bd 28 f5 e6 3d d1 93 4b 3d d8 7e 69 3d
       -0.05126286 0.112772286 0.049701516 0.057005733
000060 ae 47 b9 3d c9 e8 80 bd ef f8 51 bd c5 fd 27 bd
       0.09046875 -0.062944 -0.051262792 -0.041013498
000070 d7 b9 a2 3d c5 a2 d7 3d
       0.079456024 0.10529093

arith.constant f4 [30, 30]
000000 aa 74 8f bd 0a fa 69 3e a5 12 3e 3d 40 36 2e 3d
       -0.07004674 0.22849289 0.0464045 0.042532206
000010 56 7a 00 be 36 5c 21 be e9 60 0d 3e ab 02 87 3c
       -0.12546667 -0.15757832 0.138065 0.016480764
000020 e5 79 b6 be e3 2c 09 bb 5c 73 ce bc 89 20 0b be
       -0.35639873 -0.0020931296 -0.025201492 -0.1358663
000030 76 4f eb bc 2e 65 1e 3e 73 fc 05 be e3 db 2f 3d
       -0.028724413 0.15468284 -0.13084583 0.04293431
000040 a0 0c 25 3d 54 7c 3d be bf d5 33 bc 15 ca cb bc
       0.040295243 -0.18504459 -0.010976254 -0.024876634
000050 1b 09 df bd 8a d6 d3 3c d9 27 ac bd 1b 12 c8 3d
       -0.108904086 0.025859136 -0.08406038 0.09769078
000060 de c3 ab bd e2 8f 03 3a da d7 32 be 74 ad 23 3b
       -0.08386968 0.00050186936 -0.17465153 0.0024975212
000070 ff 38 4e 3d 3a eb 1d bd a0 2e b3 bd d3 21 09 bd
       0.050347324 -0.038554408 -0.087491274 -0.033479523
000080 90 0e d3 3d 15 1d ec 3d 6f b1 07 bd 9c a5 df 3c
       0.10305512 0.115289845 -0.0331282 0.027300648
000090 95 fb 1c 3e 1f 58 2b 3e 15 79 4a be c1 9f 23 be
       0.15330346 0.16732834 -0.19772752 -0.1597891
0000a0 ca 1f 60 3d 68 e9 12 be 13 e5 20 3e 93 ee 1b bd
       0.054717816 -0.1434685 0.15712385 -0.03806932
0000b0 0f 86 ca 3d c9 86 80 bc 7a 6d 0f be d1 65 a3 be
       0.09888851 -0.01568927 -0.14006606 -0.31913617
0000c0 43 48 10 bd 05 1f f0 3c 72 d2 31 3d a4 c3 22 3e
       -0.035225164 0.029311666 0.043413587 0.15894943
0000d0 53 80 df bc 6b f3 cd 3d 5e 7f e8 bc 6e f1 67 bd
       -0.02728287 0.10056194 -0.028381046 -0.05662673
0000e0 20 2f 32 be c6 21 e2 3d 40 24 25 bd 92 52 71 3d
       -0.1740079 0.11041598 -0.040317774 0.058916636
0000f0 da 1b fa 3d 4d 68 39 3c ce 59 f0 3b 2c 34 01 3d
       0.122123435 0.011316371 0.0073349243 0.031543896
000100 41 21 f1 bc 56 b9 a0 bd ba 48 8d 3e 10 be 72 3d
       -0.029434802 -0.0784785 0.27594548 0.05926329
000110 32 a9 3a bd a9 ce 2f 3e ff 68 d3 bb 4f 34 6e 3d
       -0.045571513 0.17168678 -0.0064517255 0.058155354
000120 17 6f 99 bd 5f 12 14 bd 05 49 73 bd 81 06 16 be
       -0.07491892 -0.036150333 -0.05939581 -0.14650919
000130 af bf 00 bd a8 47 c8 3c 30 80 2c 3e fd 2f 2c bd
       -0.031432804 0.02444823 0.16845775 -0.042037953
000140 b5 03 05 3e 92 c5 41 3e 52 a9 90 3d 04 c1 29 3e
       0.12989695 0.18923023 0.07063545 0.16577536
000150 97 0c ac 3d f4 88 7f be 83 53 b9 be b5 fb cd 3d
       0.08400839 -0.24954587 -0.36196527 0.10057775
000160 f7 09 e6 bd 32 05 1b 3e 03 10 2a 3e 61 12 eb bc
       -0.112323694 0.151387 0.1660767 -0.028695287
000170 4a a3 9d bd 1c 4c d0 bc 2f 4a b4 bc de cc 62 3e
       -0.076971605 -0.025426917 -0.02200803 0.22148463
000180 ea 6c 52 3e 4b e3 e6 3d 8b 42 49 3e 6d 59 42 bd
       0.2054936 0.112738214 0.1965429 -0.047448564
000190 59 28 27 be 47 e0 e9 bd db 6b 89 bd ca 9a 25 3e
       -0.16323985 -0.11419731 -0.06710025 0.16172329
0001a0 d1 11 e4 bd 46 85 84 3b 7d 68 d0 3d 6d 23 8c 3e
       -0.11136211 0.0040442077 0.101761796 0.27370778
0001b0 fe 87 82 be fc 17 69 3e 2b 3b 7e bd 76 6b db bd
       -0.2549438 0.22763056 -0.062068146 -0.10713856
0001c0 94 71 47 3e ca 65 67 be e0 8b 27 be 93 1c cc bd
       0.1947692 -0.22597423 -0.16361952 -0.099663876
0001d0 f0 29 e7 bd 7d 52 2b be 52 00 57 3e 34 e7 34 3e
       -0.11287296 -0.16730686 0.20996216 0.17666322
0001e0 29 e0 d4 3d 83 a7 57 3c b8 49 9a bd 33 11 bf 3d
       0.10394318 0.0131624965 -0.07533592 0.09329452
0001f0 08 f3 ea 3d 61 e5 b0 bc 6a 36 e0 3d 94 89 29 3d
       0.11472136 -0.021593751 0.10947879 0.04139097
000200 89 1e 7a bd 83 22 8d bc 3f e7 24 bd 06 4f 51 3d
       -0.061064277 -0.01722837 -0.040259596 0.051100753
000210 dd 8e 12 be b4 79 73 3d a0 80 0b 3e 67 ca 04 be
       -0.1431231 0.059442237 0.13623285 -0.12967835
000220 52 eb 07 be df 5d ad bb d3 ec 6f bd d9 7b 1a be
       -0.13273361 -0.0052907313 -0.058575463 -0.15086307
000230 2d 41 93 3c a8 8a 2f bc e6 04 d5 3d 97 34 08 3e
       0.017975414 -0.010714211 0.10401325 0.13301311
000240 2e c4 60 3d 69 d0 07 bd 67 c9 4c be 6e 01 5a 3d
       0.05487459 -0.03315774 -0.19998704 0.05322402
000250 be 1e 66 bd 01 b1 2f 3e 41 48 81 3b db a6 d2 3c
       -0.05618166 0.17157365 0.003945381 0.025714329
000260 98 3a 22 be 50 22 cb bc 56 45 4c bd f0 f2 d9 3a
       -0.15842664 -0.024796635 -0.04987081 0.0016628187
000270 6e 45 1b 3e 2c 87 00 3e 28 d8 56 3c d2 47 95 3d
       0.15163204 0.12551564 0.013113059 0.07289089
000280 9f 41 84 3c 7a 7e b2 bd 02 5d 91 3d 57 8c b4 bd
       0.016144572 -0.0871553 0.07097818 -0.0881583
000290 bd f4 0e 3e f3 8a 91 bd 83 73 89 3d fe e9 46 bc
       0.13960548 -0.071065806 0.06711485 -0.012140749
0002a0 a5 15 6f bd db 6b 2d be 72 a3 9f bd c1 e3 47 3e
       -0.05837025 -0.16935675 -0.077948466 0.19520475
0002b0 50 d2 1b 3e c7 aa bd bc 70 79 74 3c da 0e 4f be
       0.15216947 -0.023152722 0.014921531 -0.20220509
0002c0 7d 4d 01 be c4 e1 9b bc 14 ea 99 3d 5d 96 59 3d
       -0.12627216 -0.019028552 0.0751535 0.053121913
0002d0 61 b6 09 3d 9c 1e 15 be df 0c 18 be b6 f5 5e 3c
       0.033621196 -0.14562458 -0.1484866 0.013608387
0002e0 d0 0c 3d 3e c1 98 0e 3d 21 2c b2 bd 60 86 84 be
       0.18461919 0.034813646 -0.08699823 -0.2588377
0002f0 45 3b 09 bf b4 eb 87 be c3 d9 84 3d c3 ae 8c bb
       -0.53606063 -0.26547015 0.06486847 -0.004293294
000300 80 b6 c1 bc b4 ac cb bd 24 4c 26 3e 43 54 cf 3d
       -0.023646593 -0.0994505 0.16239983 0.101234935
000310 df 9a d3 3d 46 34 66 bc 54 8b ba bd 83 24 7f 3e
       0.10332274 -0.014050549 -0.09108606 0.24916272
000320 55 b5 84 3d a9 a3 79 bd 0f 1c a2 bc e8 f9 8f be
       0.06479899 -0.060947094 -0.01978877 -0.2812035
000330 d7 1d 87 be 22 2f e3 3d 04 62 62 3e 6e 8f 27 be
       -0.26389953 0.11092974 0.22107702 -0.16363308
000340 08 3d 86 3d c9 1b 87 be ad 07 01 3d b8 d6 e8 3d
       0.065546095 -0.26388386 0.03150146 0.11369079
000350 dc 9f 66 bd 85 90 95 bd 73 18 4d 3d e7 54 57 bd
       -0.056304798 -0.073029555 0.050072145 -0.052571204
000360 d3 20 97 3e 9a 2c 6f 3d ee a6 33 bd d3 17 44 3e
       0.2951723 0.058392145 -0.04386037 0.19149713
000370 e6 1c 4b bd 7e 67 0c bd 14 bc 24 ba fd 2d 94 3c
       -0.049588107 -0.034278385 -0.00062841293 0.018088335
000380 74 fb a5 bd 90 b5 24 3d bf 72 e0 3c 67 07 29 be
       -0.081046015 0.040212214 0.027398465 -0.1650673
000390 3a 15 a3 3d f7 82 09 be 29 87 16 bd f9 c0 2d 3e
       0.07963033 -0.13428865 -0.036749993 0.16968144
0003a0 9e b7 a1 bd 91 43 af bd be b5 71 bd d3 e8 38 be
       -0.0789635 -0.08557809 -0.059011213 -0.18057565
0003b0 b8 5d 17 be 44 3d 29 3b 5b 31 14 3c 65 6f f9 3d
       -0.14781845 0.002582387 0.00904497 0.1217945
0003c0 0c 7c de 3d 6e 3e 18 be 25 1b 11 be bb c4 07 3e
       0.10863504 -0.14867565 -0.14170511 0.1325864
0003d0 c5 76 8d 3e 9a ce f2 3d c1 b5 24 bf 4a 3b 96 be
       0.27629676 0.11855812 -0.64339834 -0.2934211
0003e0 f7 7f 9b be dc 34 e1 be cc 9b b2 be 7f 0d 34 be
       -0.30371067 -0.4398564 -0.3488449 -0.17583273
0003f0 b4 04 46 be bf d5 a0 be 4d de 93 3d 10 dd a6 3d
       -0.19337732 -0.31413075 0.07220135 0.08147633

arith.constant1 f4 [30, 30]
000000 1c 51 19 3e db 41 66 be 37 6f d5 be bc a5 89 bc
       0.14972347 -0.2248606 -0.41686413 -0.016802661
000010 ab 89 94 3e 23 3a f6 3d c9 9c 2e 3a fa 5b 0b bf
       0.29011282 0.120228074 0.0006660936 -0.5443722
000020 ad 42 9f bd 5f 51 49 bd 4c ad 82 be 6c d9 90 be
       -0.07776389 -0.049149867 -0.2552284 -0.2829088
000030 68 84 7b be c1 f9 fa 3d 98 25 9b bc 2f 87 eb 3e
       -0.24562228 0.12254668 -0.018938825 0.46001574
000040 c4 e5 a7 3e 83 25 9f bc 7f b4 8c be c2 c4 c8 3d
       0.32792485 -0.019427067 -0.27481458 0.098031536
000050 51 d3 ac 3e d3 b1 e3 be dc 21 0b 3e d7 86 f7 bd
       0.33754972 -0.44471607 0.13587135 -0.120862655
000060 69 98 03 bf e4 ea 0d be 19 25 de bd d3 66 83 be
       -0.51404434 -0.13859135 -0.108469196 -0.25664386
000070 34 52 ac 3e 09 68 e0 bd f6 30 fc bd df 77 3b 3e
       0.33656466 -0.10957343 -0.12314026 0.18307446
000080 cf b5 ba 3e 6b 6a b8 bd 70 1a 37 be 42 e5 a5 be
       0.36466834 -0.090046726 -0.17881179 -0.32401472
000090 4e de 80 ba c3 f2 9d 3e 14 56 00 3e aa f1 9b 3c
       -0.0009831877 0.30849275 0.12532836 0.019036133
0000a0 7f 30 71 3d 0b 91 90 3d 2a 55 86 3e 1e e9 55 be
       0.05888414 0.07058915 0.2623685 -0.20889708
0000b0 87 d5 dc 3d 66 d2 1a be c1 d3 80 be c3 d6 1c be
       0.107829146 -0.15119323 -0.25161555 -0.153163
0000c0 f4 65 e3 3d 90 b1 5f be 67 2b 3a be 6a 65 0a 3e
       0.111034304 -0.21845078 -0.18180619 0.13515249
0000d0 50 96 80 be e3 27 8b 3d 95 81 ae 3e 71 f1 c7 bd
       -0.2511468 0.06794717 0.34083238 -0.09762848
0000e0 36 fe 63 bd 31 d2 93 3e 9c 74 05 be 59 d1 81 bd
       -0.055662356 0.288713 -0.13032764 -0.06338758
0000f0 90 c3 65 be 9a 8c f5 3d a5 13 87 3d 3c aa 10 3d
       -0.22437882 0.11989708 0.06595544 0.0353186
000100 8d 9a cd bd 23 72 69 be 03 13 10 be 48 cb 75 3e
       -0.10039244 -0.22797446 -0.14069752 0.24003327
000110 e4 f0 8a 3e 23 f7 be 3d 25 0b 5e 3e 80 c2 fd 3d
       0.2713691 0.09324481 0.21683939 0.123906136
000120 32 0b 3a 3e 6e 38 ef bd 9a 13 a7 3d 27 c1 b3 3d
       0.18168333 -0.11680685 0.081580356 0.08777075
000130 f5 27 e5 bd 2e 48 82 3d 7d ad a5 3d 0b c3 00 be
       -0.11189262 0.063614234 0.08089731 -0.12574403
000140 bc e9 f4 bd 2e 9e 9c 3d e4 da a3 3d 91 3e 54 3e
       -0.11958644 0.07647358 0.080007344 0.20726992
000150 a4 15 36 3d 0d 1f 9e 3d 1e c1 d7 bc 6b 44 9d 3d
       0.04445423 0.07720766 -0.026337203 0.07679065
000160 a5 10 2d be 0b 16 01 bd 9c 21 a1 3c b9 20 70 3b
       -0.1690088 -0.031515162 0.019669347 0.0036640598
000170 e9 9a 1b 3d 5f 7d 72 be 43 39 0c 3e 12 95 08 3b
       0.03798953 -0.23680638 0.13693719 0.0020840806
000180 c1 f2 43 be e8 7f 0c be a6 0f 25 be 75 22 4a be
       -0.19135572 -0.13720667 -0.1611925 -0.19739707
000190 b1 14 a8 bd d5 f0 48 be 09 f2 0c be 93 8f c2 3d
       -0.082070716 -0.1962312 -0.13764204 0.09500041
0001a0 6d 4f 31 3d dd de e8 bd 8c 35 0c 3d 1e 95 3d 3c
       0.043288637 -0.11370633 0.034230754 0.011571197
0001b0 67 6f f4 3d 87 8f 45 bd 79 4c 7a bd 21 05 40 3b
       0.11935311 -0.04823258 -0.061108086 0.0029299932
0001c0 c6 f3 c9 3d 27 eb 16 3c f8 ba 10 3d 17 70 39 3d
       0.09860949 0.009211338 0.035334557 0.045272913
0001d0 ea 25 1e 3e 73 14 d6 3c 69 48 8a 3d d9 0a 7c be
       0.1544415 0.026132798 0.067520924 -0.24613513
0001e0 f0 a4 38 3e d3 08 6e be 8b 32 49 be aa 66 9b bd
       0.18031669 -0.23245554 -0.19648187 -0.07587941
0001f0 49 b2 46 3e c4 e6 5d bc be e0 10 be 50 3b 36 be
       0.19403948 -0.013543788 -0.14148232 -0.17796063
000200 30 d3 8c 3a d9 a4 e5 bd f6 7b 98 be d5 75 81 be
       0.0010744091 -0.11213083 -0.29782075 -0.2528521
000210 88 28 05 be 31 fd db 3d 9d fd fc 3c a7 d1 80 3e
       -0.13003743 0.10741652 0.030882651 0.25159952
000220 ea f6 64 3e 9e f0 06 3e 88 ce 06 be 95 95 3b 3d
       0.22359815 0.13177726 -0.13164723 0.04579695
000230 db c5 bc 3d 19 d2 a9 be 5e 62 85 3d e3 d1 e8 bd
       0.092174254 -0.33168104 0.06512903 -0.11368158
000240 42 66 6a be d9 3c be bc 21 d4 02 bc 81 ea 0f be
       -0.22890571 -0.023222374 -0.007985146 -0.140543
000250 43 52 45 3e 7d 98 a6 bc 2a f7 b5 3d 93 d4 53 be
       0.19269662 -0.020336384 0.088850334 -0.2068656
000260 1f ec b6 bd d0 b8 4b 3d a7 2a 4a 3e ed 86 db 3d
       -0.08931755 0.049736798 0.19742833 0.107190944
000270 05 49 0c bd 7c af 1d be 88 f0 9a bd 2b 6c 9b 3c
       -0.034249324 -0.15398973 -0.07565409 0.018972477
000280 59 3b 66 3b ca 7e 39 be 41 a2 1a be c2 55 dd 3c
       0.0035130589 -0.18114772 -0.15100957 0.027018432
000290 a1 d0 99 be 2d 56 f1 3d f0 1b c8 3d f9 c2 80 bd
       -0.30041984 0.11784015 0.09770954 -0.06287188
0002a0 f8 2b a4 be bc ec 88 bd b8 aa 85 3c de 92 6e be
       -0.32064795 -0.066857785 0.016316757 -0.23298213
0002b0 47 6f 9e 3d a2 7f af be 74 af c3 bd 01 39 53 3d
       0.07736068 -0.34277064 -0.095549494 0.051568035
0002c0 db 38 15 3e 69 e2 86 be 27 ca 4a 3e 74 86 fb 3c
       0.1457247 -0.26344612 0.19803677 0.03070376
0002d0 7a d3 ad 3c 70 cc 12 bd 3b 08 b7 bc d7 0d 87 bd
       0.021219004 -0.035839498 -0.022342792 -0.065944366
0002e0 50 22 c0 3d e7 15 96 3d 42 f0 43 3e 69 35 7f 3d
       0.093815446 0.07328396 0.1913462 0.062306795
0002f0 5c 5b 40 3d d2 f1 73 3e d4 33 4d be 19 ac 88 bd
       0.046962127 0.23822716 -0.20039302 -0.0667345
000300 be 03 7f 3e 21 0f 15 3e db 4e 42 3c 27 b6 83 3d
       0.24903771 0.14556552 0.011859621 0.06431227
000310 c4 be 71 bd 63 20 93 3e 85 88 36 be 2b 09 44 3d
       -0.05901982 0.28735647 -0.17825516 0.047860306
000320 86 91 18 be 83 72 f4 bc 9d 90 94 bd 32 02 fe 3d
       -0.14899263 -0.02983976 -0.07254145 0.124027625
000330 ab 92 e5 bd 45 a6 ec bd a6 e0 a9 bd a1 6f eb 3a
       -0.11209615 -0.11555151 -0.082948014 0.0017962345
000340 55 6e c7 3d cd 46 4f 3e ad 56 16 3d 24 29 df 3d
       0.09737841 0.20241852 0.036703754 0.10896519
000350 c5 8b 13 3e 5f 87 0f be 09 67 37 3c de d4 cd bd
       0.14408787 -0.14016484 0.011193999 -0.10050367
000360 00 61 ca be ea df c2 3d 84 59 db 3c 77 9e 44 be
       -0.3952713 0.095153645 0.026776083 -0.19201075
000370 23 31 c4 3d 5b ea de 3d f7 72 b9 3e ee df b8 bd
       0.095796846 0.108845435 0.36220524 -0.09027086
000380 fd 5c 90 3b 8d 02 cd bd 16 10 3a be c5 2f 84 bd
       0.0044056163 -0.10010252 -0.18170199 -0.06454424
000390 c7 13 44 3e f6 92 37 bd a8 ee 7a bd 92 63 46 3d
       0.1914817 -0.044817887 -0.061262757 0.0484348
0003a0 a1 3b 06 be 38 40 91 3d e4 27 cc 3d 69 c4 2b 3e
       -0.13108684 0.07092327 0.09968546 0.16774143
0003b0 b2 42 b4 3d 15 3a 7f 3d 8e 46 58 be d8 d5 9b be
       0.088017836 0.06231125 -0.21120664 -0.30436587
0003c0 cd af 8d 3d b5 cb ec 3d df 77 8f bd 68 23 9f 3d
       0.06918297 0.115622915 -0.070052855 0.07770425
0003d0 ba d3 4f 3d d4 70 03 3d 97 7e b1 3d 89 d1 c3 3e
       0.050739028 0.032090023 0.08666723 0.382458
0003e0 47 47 ca be 78 0e 5a 3c 22 a4 af bd fb 12 f0 3d
       -0.39507505 0.013309114 -0.08576228 0.1172237
0003f0 21 b8 37 3b 60 89 69 be 0e 13 da 3d 98 ad 59 bc
       0.0028033333 -0.2280631 0.10648166 -0.013286017

arith.constant2 f4 [30, 30]
000000 d8 cf 9e 3d 5e f4 32 3e ce 13 15 3e d0 5d 1c 3e
       0.07754487 0.17476031 0.14558336 0.15270162
000010 58 1a 10 be 9f 2f 8b bd 8c cc f8 3d fd 96 b9 3d
       -0.1407255 -0.067961924 0.12148389 0.09062002
000020 aa 4d 3c 3e 61 49 42 3e 00 25 29 3e 0d a2 a5 3d
       0.18389001 0.18973304 0.1651802 0.08087549
000030 ca 08 2c 3e 88 8b 08 3d 45 da a0 bd f9 7e 49 bc
       0.16800228 0.033336192 -0.078541316 -0.012298339
000040 60 0b 95 bd 67 e9 24 bc cd 3e ad 3d 08 ac 29 3a
       -0.0727756 -0.010065413 0.08459244 0.0006472473
000050 0c ca 41 be c6 6f 96 3d c1 b2 24 3c 68 b9 8a 3d
       -0.18924731 0.07345538 0.010052384 0.06773645
000060 f6 80 6c 3e 7b 57 c6 bd 50 09 a8 3b 5b 9e 41 3d
       0.2309607 -0.09684654 0.0051280633 0.04727016
000070 79 05 b5 be 9a d8 ee 3d ac 19 b6 bd 3f 1b 57 3e
       -0.35355738 0.11662407 -0.08891615 0.21006487
000080 33 14 87 bb a8 5c 69 bd 45 f8 31 3d 28 e9 b8 bd
       -0.004122281 -0.05697313 0.04344966 -0.09028846
000090 52 3a 03 be 5f 63 49 3e 0c 68 e0 3d d3 05 8b 3d
       -0.12815216 0.19666813 0.10957345 0.0678822
0000a0 3b 0d 68 3e 7c 65 3d 3d 2d d4 5a 3e 5b 73 d6 bd
       0.22661297 0.04623936 0.21370001 -0.10471221
0000b0 94 97 07 be 4a 3b 90 be e3 64 04 be 55 56 42 3d
       -0.13241416 -0.28170234 -0.1292911 0.047445614
0000c0 65 56 21 3e 37 9d ca bd 7c 8f 87 bd f5 39 41 3e
       0.15755613 -0.098932676 -0.06619164 0.18869765
0000d0 1f 20 7a bd 38 1c 71 3e fc 16 98 3e ae 91 ab bc
       -0.06106579 0.23545921 0.29705036 -0.020943489
0000e0 b9 08 9e bc 3e 6f 68 3d f5 b3 32 be 04 72 2a ba
       -0.019291269 0.056746714 -0.1745146 -0.0006501975
0000f0 fb 30 5e be d8 e5 6e ba ac 22 f9 3d 96 c5 11 be
       -0.21698372 -0.0009113229 0.12164816 -0.1423553
000100 0f 34 e3 bd b5 1f 87 be 7f 46 83 3d ff 27 f2 3d
       -0.11093914 -0.26391378 0.064099304 0.11824035
000110 5f 9b 94 3d 00 6b 91 3d 2d fb 86 3e fb ac 15 3e
       0.07256197 0.07100487 0.26363507 0.14616768
000120 be 4c 17 3e 4d 64 1b bc 44 19 02 be f5 b0 08 be
       0.14775369 -0.009484363 -0.1270495 -0.13348754
000130 41 65 c2 be d3 6a f8 bc 9b 17 ac 3d bd 58 9a bc
       -0.37967876 -0.030324375 0.0840294 -0.018841142
000140 ed ab 66 be eb 5d 29 3e c1 78 68 bd 48 cd 57 3d
       -0.22526522 0.16539733 -0.056755785 0.052686006
000150 01 1a 1a 3e d3 91 86 be a8 32 05 be 54 af a8 3d
       0.15048982 -0.2628313 -0.13007605 0.08236566
000160 7c 71 97 bd f3 59 34 3e d4 22 3e 3e c3 17 52 3e
       -0.07394692 0.17612438 0.18567973 0.20516877
000170 6d 06 da bd 5f 15 23 3e 37 77 c5 3d ba db a0 3d
       -0.10645757 0.15926121 0.09641879 0.078544095
000180 cf 1c 6e 3d 93 fd 6a bd ae 63 76 3d fa 2b e6 3b
       0.058132943 -0.057370733 0.060153656 0.0070242854
000190 2c fb 7f bd e4 82 37 be e0 8b 86 bd 3e f0 ec 3d
       -0.062495396 -0.17921025 -0.06569648 0.1156926
0001a0 fd 50 01 3b 3c fb 60 3e 56 47 80 bd 1c a7 93 bc
       0.001973211 0.21970838 -0.06263606 -0.01802402
0001b0 f3 c9 af bd dc a4 d0 3c 97 98 52 3e 07 eb 25 be
       -0.08583441 0.025469236 0.20566021 -0.16202937
0001c0 ab ed 0e 3e 22 c7 56 be c2 21 f9 bd 13 0c cb bc
       0.1395785 -0.209744 -0.12164642 -0.02478603
0001d0 82 31 e2 3c 91 80 1a 3d ea d5 3c 3e d6 d6 88 3d
       0.027611498 0.037720267 0.18440977 0.06681602
0001e0 dc 40 17 bc be a5 59 3e 9a e5 76 3d 35 29 67 3d
       -0.009231772 0.21254632 0.06027756 0.056435782
0001f0 e4 ec 7d bd 24 7f 96 bd 8a c8 bb 3d b0 f5 26 3e
       -0.061993495 -0.07348469 0.09169109 0.1630466
000200 6a de c0 3b b7 f0 10 3e 24 31 32 3e ad 6d 1d 3e
       0.005885889 0.14154325 0.17401558 0.15373869
000210 1b b9 f9 3d ed ac 43 be f6 9f 09 be 10 e4 a0 be
       0.12193509 -0.19108935 -0.13439927 -0.31423998
000220 6f 44 d1 bd 53 36 49 3d 44 de bb 3c fb 06 10 3c
       -0.10218131 0.049124073 0.022933133 0.008790727
000230 33 68 21 3d 84 3f 35 3e b2 d6 29 be 7b 57 52 3d
       0.039406013 0.1770001 -0.16585806 0.05135296
000240 48 72 4d 3e ee 8d 61 be 96 5f 66 bd a7 c0 53 3e
       0.20063126 -0.22026798 -0.0562435 0.2067896
000250 af 42 ad 3d 26 70 48 3e cc bb 1b be d2 90 6e 3d
       0.084599845 0.19574031 -0.15208358 0.05824358
000260 0a 77 90 3c 99 d5 c0 bc 02 47 c4 bd 87 65 2b bd
       0.017634887 -0.023539351 -0.09583856 -0.04184487
000270 9b 53 62 3e 87 35 23 bd 70 24 89 3d 2d 31 45 3e
       0.22102205 -0.03984597 0.06696403 0.1925704
000280 3a f9 33 3e a5 f8 43 3e bb 17 70 bd 16 bc 80 3c
       0.17575541 0.19137819 -0.05861638 0.015714686
000290 74 e2 09 3c 1b ad 4b be 73 ff a6 bd 74 37 96 3d
       0.008415807 -0.19890253 -0.08154192 0.073347956
0002a0 24 f7 2c 3c 8e 33 85 be 03 85 1b be b4 cf 34 3e
       0.01055697 -0.26015896 -0.15187459 0.17657357
0002b0 2d c9 d6 3d 1b 93 9e bd 7b e4 fa 39 a0 61 89 be
       0.1048759 -0.07742902 0.00047853947 -0.26832294
0002c0 a7 24 d0 bd 3a 07 27 3c 78 18 22 be 65 86 f9 3d
       -0.10163241 0.010194594 -0.15829647 0.12183837
0002d0 18 71 f0 3d a8 a4 38 be 78 c2 56 be 94 5c b6 bc
       0.11740321 -0.18031561 -0.20972621 -0.022260942
0002e0 4e 87 0e 3e 4f 94 c5 3d b1 33 54 bd d9 11 f6 bd
       0.13918802 0.09647428 -0.05180711 -0.12015123
0002f0 a1 31 00 be bf 9e 07 3e 6c 6f 9e 3d 2e 73 41 be
       -0.12518932 0.1324415 0.07736096 -0.18891594
000300 1c 24 f1 bb 4e 51 f5 3c c6 0a b1 3d 58 a0 6b 3d
       -0.007359041 0.029945996 0.08644633 0.057525963
000310 ac 59 8c 3c 6f 2f 8d bd 59 3a 21 be d6 2c c5 3b
       0.017132603 -0.06893813 -0.15744914 0.0060173078
000320 21 8e 4a 3e fb 28 9f bc ac 72 4e 3d 44 dd a7 bd
       0.1978078 -0.01942872 0.05040233 -0.081965
000330 74 28 4f be 25 87 cb bd ec 36 5b be e5 4a 96 be
       -0.20230275 -0.09937886 -0.2140767 -0.29354015
000340 2b c8 4a 3e 2e ef 7a 3d 0c 95 dd bd 9a ee 9c 3d
       0.1980292 0.061263256 -0.10819444 0.07662697
000350 11 b3 29 3e 85 f4 82 bb 8d aa b0 bc 68 03 35 bd
       0.16572215 -0.003996434 -0.0215657 -0.0441927
000360 06 20 c1 bc df 17 60 3d 5e 17 54 3e 53 4b 82 bc
       -0.02357484 0.054710265 0.20712039 -0.015905058
000370 16 ce 17 bc 2d 66 92 3e 23 de 95 3d 9b 25 1d bd
       -0.009265443 0.2859358 0.0731776 -0.03836594
000380 d9 6c a2 bd b8 ed e8 bd 4a a1 5b be 63 a0 1c be
       -0.07930917 -0.11373466 -0.21448246 -0.15295558
000390 aa a0 05 3e 9b ea f9 bd b9 6f 78 be e3 fc a5 3d
       0.1304957 -0.122029506 -0.24261369 0.08104875
0003a0 07 6a 5e bd 01 30 a9 3d b7 88 44 3d e2 1a 98 3d
       -0.054300334 0.08261109 0.047981944 0.074270025
0003b0 c2 07 64 3d 90 a9 d2 3d 13 2d d3 3d aa b2 2c be
       0.05567146 0.10286248 0.103113316 -0.1686503
0003c0 1a 85 ba 3e f6 07 c9 be 81 d5 17 bf 2a 87 03 be
       0.36429673 -0.39263886 -0.59310156 -0.1284453
0003d0 77 79 f3 3e 42 05 d7 3e 10 f6 1c bb 14 97 28 bf
       0.47553608 0.419962 -0.0023950376 -0.65855527
0003e0 e9 7e 13 3e da ba 55 be a3 e0 e4 be 7a 1f df be
       0.14403881 -0.2087206 -0.44702634 -0.43578702
0003f0 dd 7e 9a be 61 89 2d 3e 26 fd 42 be ee 81 00 3f
       -0.30174914 0.16946937 -0.19041881 0.50198257

arith.constant3 f4 [30, 30]
000000 75 b7 e9 bd 8a a0 b6 3e 6d 8b c7 3e ef d1 25 3e
       -0.11411945 0.35669357 0.3897356 0.16193365
000010 1f c7 22 be 19 62 a1 bd 94 21 bf be 36 0c 89 3e
       -0.15896271 -0.07880039 -0.37330306 0.2676713
000020 b8 9a b8 be b3 e7 95 be 3a cf 82 3d 4c 37 37 3d
       -0.3605554 -0.29278335 0.063871816 0.04473047
000030 20 1b 81 3e 82 22 0b bf 15 c6 0c 3e d9 6e ed be
       0.25216007 -0.5434953 0.13747437 -0.46373633
000040 62 82 1c be 22 8c c4 be 0c 5c 59 3e 28 5b 00 be
       -0.15284112 -0.38388163 0.2122652 -0.12534773
000050 d8 63 b4 be 8f cd 88 3e 77 c1 4a bd ae c8 86 3e
       -0.35232425 0.2671933 -0.04950091 0.2632498
000060 c6 48 6b 3e 9a 5a 80 3e e1 f4 83 3e 1e 75 8d 3e
       0.2297698 0.25069124 0.25772765 0.27628416
000070 5b 20 8b be ab 50 2b be 1f c6 57 bd 30 01 64 3e
       -0.27173123 -0.16729991 -0.052679177 0.22266078
000080 87 15 97 3e e7 f4 39 3c b4 8b 89 be c4 60 1b be
       0.29508612 0.011349893 -0.26864398 -0.15173632
000090 85 a4 4f be ed 46 81 3e b1 d5 f1 bd 2b bc 4f bd
       -0.20277603 0.25249425 -0.118083365 -0.05071656
0000a0 7a e9 25 3e 40 fa ff bc 34 78 57 3e 8b e3 4c be
       0.16202345 -0.031247258 0.21041948 -0.20008676
0000b0 44 09 1f 3d cc 52 60 be a7 04 2d be d8 21 7a be
       0.038827196 -0.21906585 -0.16896306 -0.24426973
0000c0 79 2a 6c bd bd 75 64 3b 94 06 88 be 74 f8 ab 3d
       -0.057657693 0.0034860217 -0.2656752 0.08396998
0000d0 52 0a 37 bd 29 b5 d3 3d 72 60 30 3e 4a 40 32 3e
       -0.044687577 0.10337288 0.17224291 0.17407337
0000e0 61 79 84 3e 6a 5e b8 3e 09 1e 99 be 91 89 6d 3c
       0.25873855 0.36009532 -0.29905728 0.01449813
0000f0 70 32 17 be fe 0c 9c 3e ff 9c 08 3e bc c2 1a 3e
       -0.14765334 0.30478662 0.1334114 0.15113348
000100 6b 34 06 bd d3 4a bc bd bd 52 c9 3d 2e 8f d8 3d
       -0.032764833 -0.09193959 0.09830234 0.10574184
000110 ee e7 c2 3d c7 9d d2 bc 19 fd 00 3d f5 63 13 3e
       0.09516893 -0.02571 0.031491373 0.143936
000120 85 c8 76 3e 53 a9 6e be 0c 2e 24 3e 40 cf 5c be
       0.2409993 -0.2330678 0.1603319 -0.21563435
000130 06 1d 5b be a0 40 ca bd b6 83 f8 3d e4 87 f8 bd
       -0.2139779 -0.098756075 0.12134497 -0.12135294
000140 87 6d 9d be 45 79 ce 3d f5 50 35 bd c7 80 bc 3e
       -0.30747625 0.10081724 -0.04426666 0.36817
000150 a7 1e 0b 3e b3 bd 28 3d 90 80 51 3d cb da cf 3c
       0.13585912 0.041196536 0.051147997 0.025372883
000160 8d 82 b9 bd 6e 15 32 bd 91 70 8f 3e 59 f0 f2 bd
       -0.09058104 -0.04347747 0.2801557 -0.11862249
000170 e8 4c aa be 66 ea ff 3d 03 1d 3d 3e 02 7a 87 bd
       -0.332618 0.1249588 0.18468098 -0.06615068
000180 f8 e9 c6 3d e1 c2 53 3d a0 f8 df 3d b1 f9 79 3d
       0.09712595 0.051699523 0.10936093 0.06102914
000190 45 51 e1 bd 2f 28 f2 bd 93 93 81 be 40 e5 a2 3e
       -0.11001829 -0.11824071 -0.25307903 0.3181553
0001a0 e2 ff 9b bd 6a b3 49 3d 67 ff 87 3d c4 5b 41 3e
       -0.07617165 0.04924337 0.06640511 0.18882662
0001b0 67 bf bf bd c1 56 35 3e 31 3b 52 3e 2c 7e 09 bd
       -0.09362679 0.17708875 0.20530392 -0.033567593
0001c0 39 48 1e 3e 81 7d 0a be 12 70 4b be bc 71 26 3d
       0.15457238 -0.13524438 -0.1986697 0.04063581
0001d0 2f 79 79 bd 35 43 17 be 34 63 ff 3d 5b 1f 99 bd
       -0.060906585 -0.14771731 0.12470093 -0.07476684
0001e0 5c 29 85 be 9e 6d 30 3e 44 ee 8f 3e 3a 27 9d 3d
       -0.26008117 0.17229316 0.2811147 0.076734975
0001f0 c9 02 2a be 84 11 7a be 4c 53 9b bd b7 db cf 3d
       -0.16602625 -0.24420744 -0.07584247 0.10149329
000200 f7 f3 a5 3d 18 51 3b 3e a0 ed 19 3e 95 7f 82 3e
       0.08103173 0.18292654 0.15032053 0.25487962
000210 9f 3b d1 3d 58 45 25 be 9f 41 15 3d 6d 91 e1 bd
       0.1021645 -0.16139734 0.036439534 -0.11014066
000220 6c 17 b1 bd d5 cc 12 bd 44 4d 27 3e cf c1 1b bd
       -0.086470455 -0.035839874 0.16338068 -0.038026627
000230 46 aa 40 be 87 3e 91 3d 06 51 87 be dd 75 dc 3a
       -0.18814954 0.07092004 -0.26429003 0.0016819794
000240 e3 d7 35 3e 27 45 7e bd 55 52 cf bc 4b 43 8f 3e
       0.17758135 -0.062077668 -0.025307814 0.27981028
000250 e7 4e 4f be f1 b6 29 3d 3a cd 3b be 97 6b 85 3e
       -0.20244943 0.041434232 -0.18340006 0.26058647
000260 61 17 64 3e 68 0e 37 3e 2b fa d9 bd 7c 42 10 be
       0.22274543 0.1787659 -0.10643419 -0.14087862
000270 64 8f 94 3c 82 4a e2 3e 05 2f dd 3d 48 49 64 bc
       0.01813478 0.4419747 0.10799984 -0.013933487
000280 f8 38 af 3d 84 92 50 3e 80 58 6d 3e a5 fa 6d be
       0.08555788 0.20368391 0.23178291 -0.23240145
000290 17 41 1f 3e 19 e3 a8 bd e4 10 2b be 06 c5 fd bd
       0.15552174 -0.082464404 -0.16705662 -0.12391095
0002a0 c9 db 25 3e b1 71 37 be 59 1e d0 be 5d 0d 85 3e
       0.16197123 -0.17914464 -0.40648153 0.25986758
0002b0 90 2c ca bd d9 7f 55 3e e6 43 95 3e 48 a1 ab 3c
       -0.09871781 0.20849551 0.29153365 0.020950928
0002c0 c1 6f b0 3c 54 dd cf 3d cd b8 0a be 48 dc fd bd
       0.021537663 0.10149637 -0.13547058 -0.12395531
0002d0 bb 7d 65 bd cf 39 8a 3c b0 14 75 3d 52 e7 bc 3d
       -0.05602811 0.016873268 0.059834182 0.09223808
0002e0 dd 20 bd bd 56 9e 66 3d f3 9a 30 be e6 10 c5 bc
       -0.09234784 0.056303345 -0.17246608 -0.02405591
0002f0 8c 89 7c bd 58 20 1b be 02 db 66 bd b4 2e 09 3e
       -0.061654612 -0.15149057 -0.056361206 0.13396722
000300 34 52 40 3e 21 33 7b 3d cc 52 a7 bd 19 02 e0 3c
       0.18781358 0.061328057 -0.08170089 0.02734475
000310 a9 20 a6 bc c4 4c fb bc 0d a3 cb 3d dd 2e 34 bd
       -0.020279245 -0.030676253 0.09943209 -0.043990005
000320 c5 28 cb 3d b2 11 25 bd e4 61 47 bd 29 a7 75 bd
       0.099198855 -0.04030008 -0.04867734 -0.05997387
000330 d2 36 97 bd 19 39 ab bb 5e b6 e4 3d ac 00 71 be
       -0.07383503 -0.0052253124 0.11167596 -0.23535413
000340 db 5a 07 bd 57 d7 3d be bd d2 30 be 3a b9 da 3d
       -0.03304563 -0.18539177 -0.1726789 0.106798604
000350 82 22 73 3e b5 96 9d 3d 0c b2 2f be e4 8f 2c be
       0.23743632 0.07694761 -0.17157763 -0.16851765
000360 dc 32 94 bd 04 f8 8c bc ad 57 25 3e 4e 16 2b be
       -0.07236263 -0.017208107 0.16146727 -0.16707727
000370 ef d7 9c bd b8 b5 f5 3d 30 67 8c 3e 6c 84 e1 bd
       -0.076583736 0.11997551 0.27422476 -0.110115856
000380 61 67 d6 3d b7 31 67 be 68 f7 c1 3c 51 47 b4 bd
       0.10468937 -0.22577558 0.023677543 -0.08802665
000390 dd 56 e8 3d 94 0f 32 be 53 9e 96 3c 5d 19 48 3e
       0.11344693 -0.17388755 0.018386042 0.19540925
0003a0 c7 c2 8c bd 70 f2 01 3e 52 bd 37 3e d8 bf a1 3d
       -0.06873088 0.12690139 0.17943314 0.078979194
0003b0 94 ee 4a 3e 2a d6 31 3e 67 91 16 be b8 93 08 be
       0.19817573 0.17366853 -0.14703904 -0.133376
0003c0 cb 52 c4 3d df 4e 98 bd 91 ed 32 be 9c d6 19 3e
       0.09586104 -0.074369185 -0.17473437 0.15023273
0003d0 43 43 81 3d 7c 8b 8d 3c 03 1c a7 be 86 44 09 be
       0.06311657 0.017278425 -0.3263856 -0.13405046
0003e0 e7 da 1f be 5c ea a0 be 06 80 fc bd 11 fb 20 be
       -0.15610848 -0.31428802 -0.12329106 -0.15720774
0003f0 25 54 35 3d cb 00 f3 bc 61 23 03 be 95 2a 0f 3d
       0.0442697 -0.029663464 -0.12806465 0.03495272

arith.constant4 f4 [30]
000000 be df 25 bc 52 f1 4a 3c a0 32 55 bc f5 14 27 be
       -0.010124145 0.012386637 -0.013012558 -0.16316588
000010 ab bb 5a bc 0a 4d 4d 3b 02 92 87 3c 75 8a 2c 3c
       -0.013350408 0.0031326436 0.016549114 0.010531058
000020 98 dc 48 3d b0 50 0b bb d6 d8 4c bd 33 b8 08 bd
       0.0490385 -0.002125781 -0.05001148 -0.03337879
000030 99 b5 b5 bd 3c 29 b5 bd 47 af 08 be c0 d2 dc bb
       -0.08872528 -0.088457555 -0.13348113 -0.0067389905
000040 30 4a 67 bc 41 fa 33 3e f5 d9 06 ba fe 89 bc bb
       -0.014116809 0.17575933 -0.00051441725 -0.0057537546
000050 a6 2e 31 bc 84 18 09 bd 8f ab 61 bd c4 d2 93 bd
       -0.0108143445 -0.033470646 -0.05509525 -0.07217935
000060 86 e0 23 bd b9 20 70 3d ab 09 b6 3e de d8 38 3a
       -0.040009044 0.058624957 0.3555425 0.00070513587
000070 2d cb ca bc bc 80 d0 bb
       -0.024755085 -0.0063630026

arith.constant5 f4 [30]
000000 0f b3 3f be 50 45 36 3e 96 ba 1e 3e f4 38 85 bb
       -0.18720649 0.17799878 0.15500864 -0.004065627
000010 c0 d4 17 be 51 ab 41 be 96 6d be bd 1c fd 47 3e
       -0.14827251 -0.18913008 -0.092982456 0.19530147
000020 58 c8 5d 3d e1 e4 24 bd 08 cf 13 3e 7e 91 31 3e
       0.05414614 -0.04025734 0.14434445 0.17340657
000030 c4 8a cc 3d 00 06 b1 bd 01 43 99 3d 83 ed 05 be
       0.09987405 -0.086437225 0.07483483 -0.13078885
000040 b2 08 29 be 56 15 78 3d 25 34 f7 3d 4a dd 0d be
       -0.16507223 0.060567223 0.12070493 -0.13853946
000050 b8 f3 47 be 8c 7e 33 3e 5d d8 45 be b2 5e 0f 3e
       -0.19526565 0.17528743 -0.19320817 0.14000967
000060 1c c3 37 3e 8b a0 e3 3d f1 22 48 3c 89 4c 20 3e
       0.17945522 0.111146055 0.012215362 0.15654196
000070 4f 64 37 be d0 5d cf bd
       -0.17909358 -0.10125315

arith.constant6 f4 [30]
000000 1f 6a 88 3f 99 77 90 3f 4e 67 8c 3f 6e e3 62 3f
       1.0657386 1.1286498 1.0969026 0.8862828
000010 62 28 8a 3f 5b ad 7e 3f 4a 3c 74 3f d3 35 90 3f
       1.0793574 0.9948327 0.95404494 1.1266426
000020 53 d9 41 3f ea 20 5e 3f 04 19 88 3f 1e 20 8d 3f
       0.75722235 0.8676897 1.0632634 1.1025426
000030 de 5a 81 3f 33 fc 86 3f 63 c8 5f 3f 07 6c 88 3f
       1.0105855 1.0545715 0.8741514 1.0657967
000040 72 8e 89 3f 6a 71 69 3f 10 30 88 3f f9 c5 85 3f
       1.0746596 0.9118868 1.0639668 1.0451041
000050 e0 e8 8c 3f 74 50 8f 3f 19 46 86 3f f5 9a 7d 3f
       1.1008568 1.1196427 1.0490142 0.9906457
000060 51 de 8c 3f 0e 61 7c 3f c3 d5 70 3f 3c 2d 8a 3f
       1.1005346 0.98585594 0.94076174 1.0795054
000070 0a 6c 8d 3f 47 92 6c 3f
       1.1048596 0.924107

arith.constant7 f4 [30]
000000 c2 15 59 3e 1d 7b 4a 3e 8c 3d 21 3e b6 59 3a be
       0.21199706 0.19773526 0.15746135 -0.18198285
000010 f3 8a 00 3e 3b 49 1b 3e 21 d1 bb 3d db 38 1e 3e
       0.12553005 0.15164654 0.091707475 0.15451376
000020 1c 4f 5b 3d 52 08 8c 3d f2 63 1c 3e 43 38 1b 3e
       0.05354224 0.068375245 0.15272501 0.15158181
000030 36 0b a6 3d 92 7d 50 3d 6a 1d 09 be cf d9 2a 3e
       0.08107607 0.050901003 -0.13390127 0.1668465
000040 1f 91 33 3e 69 e5 0d 3e 22 e3 2f 3e df 2a 1b 3e
       0.17535828 0.13857044 0.17176488 0.15153073
000050 bf 79 4a 3e 00 89 27 3e ce d5 1c 3e 9d 7f 37 3d
       0.19773005 0.16360855 0.15315935 0.044799436
000060 e9 1d 15 3e ea 52 93 3d 1e 5f 8d 3e ea 9d 1b 3e
       0.14562191 0.07193549 0.2761163 0.15196958
000070 8f f8 22 3e e2 86 2d 3c
       0.1591513 0.010591241

arith.constant8 f4 [30, 60]
000000 fb cc 40 bd c5 64 89 3a f4 07 87 bd fc c5 e5 bc
       -0.047070485 0.0010482302 -0.06593314 -0.028048508
000010 92 8c 39 be ca 59 76 bc 50 ff f1 bb 71 be ee 3c
       -0.1812003 -0.015036056 -0.007385172 0.029143544
000020 01 00 10 bc d0 ab 5b be 38 69 84 3e 1f 95 8b 3d
       -0.008789063 -0.2145226 0.25861526 0.06815552
000030 61 8a 4a be 63 69 97 bc 1e 34 30 bc ce 4a 59 3e
       -0.1977935 -0.01848287 -0.010754613 0.21219942
000040 2f d0 09 3d a2 cc 72 3d b9 1f d0 bd 58 d6 21 ba
       0.033645805 0.059277184 -0.101623006 -0.00061736023
000050 50 52 e8 b9 97 16 15 bc 89 34 52 3d 5f 0d 94 3c
       -0.00044311816 -0.009099624 0.051319633 0.018072782
000060 04 d3 13 bf 4a b0 32 3d a0 2b 99 bd 8f 38 88 3d
       -0.5774386 0.043625154 -0.07479024 0.06651413
000070 0f fa 96 3c 35 f8 02 bd 5d fa 1b bd f3 ac 6f be
       0.018429784 -0.03197499 -0.038080562 -0.23405819
000080 c2 2a ab bc 53 20 c3 3d 45 a9 b5 3e 00 ee 6a bc
       -0.020894412 0.0952765 0.35480705 -0.01433897
000090 07 75 6f 3e fc e2 71 3a 00 40 fd be 5d 1c 80 3d
       0.23384486 0.0009227244 -0.4946289 0.0625541
0000a0 9a 18 66 ba 96 ac 13 be be e2 56 bd 8a 47 05 be
       -0.00087774696 -0.14421305 -0.052462332 -0.13015571
0000b0 87 28 b9 be 9e c2 31 3d 54 3f 14 be a4 eb 66 3d
       -0.36163732 0.043398492 -0.14477283 0.05637707
0000c0 b0 df dc bb 1b 9f c1 bd 4c 7b b6 bc fb 51 df 3b
       -0.006740533 -0.09454175 -0.02227559 0.0068151928
0000d0 0c bf b0 3d d2 97 1b 3e 29 8c fb bc a4 55 f5 3b
       0.08630189 0.15194634 -0.030706482 0.007487016
0000e0 71 ce 5b bd 00 34 1a bd 6f d6 f1 3c d5 3e 56 be
       -0.053663675 -0.037647247 0.029521195 -0.20922406
0000f0 3a 07 1b be 76 4f 59 ba 82 4a 44 3d 0d 8e a7 bc
       -0.15139475 -0.00082897337 0.04792262 -0.020453477
000100 43 7a c5 bd c8 a3 95 bd b3 a0 05 3d 65 fe e7 bd
       -0.0964246 -0.073066294 0.032623958 -0.11327819
000110 0b c6 8f 3d 29 81 42 be 92 93 78 3e a0 00 09 3e
       0.070201956 -0.18994583 0.24275044 0.13379145
000120 7f bf 83 be 11 49 67 bd be fc f1 3b 69 40 33 3e
       -0.25732037 -0.056466166 0.0073848655 0.1750504
000130 c0 f6 10 be 61 8f 85 3d 21 9c 8c bd 30 b1 83 3d
       -0.14156628 0.06521488 -0.06865717 0.0643028
000140 d0 13 84 ba 30 20 10 bc 90 75 bf bd b4 a4 1a be
       -0.0010076705 -0.008796737 -0.09348595 -0.15101892
000150 57 f3 13 bf eb f9 b4 bd fb 9a 9e bd 9b 53 35 3e
       -0.5779318 -0.088367306 -0.07744404 0.17707674
000160 54 62 ab 3c 2b 76 2e be 0e d2 1c bd b1 d1 84 be
       0.02092091 -0.17037265 -0.03828626 -0.25941232
000170 7e b6 7e bc a3 93 2f bd e8 65 07 3f 6f db 08 3d
       -0.015546439 -0.042865407 0.5288987 0.033412393
000180 53 84 66 3e e0 28 70 bc bd 0b 32 bf 50 af 33 3e
       0.22511415 -0.014658183 -0.6954916 0.17547345
000190 ff 4a c1 3c 0d c0 05 be 73 ad 69 3b da bd 1f 3d
       0.023595331 -0.13061543 0.0035656362 0.038999416
0001a0 fc ef b7 be ca 26 b6 bd 97 d4 3c 3c b5 6d 86 3a
       -0.3592528 -0.08894117 0.011525295 0.0010256084
0001b0 d1 60 04 3d 92 3b 21 be 20 e3 8c 3d f6 62 a0 3b
       0.032318894 -0.1574538 0.06879258 0.0048946096
0001c0 73 73 38 3e 8c ec 52 3e f7 2a 86 bd 23 2e e1 3b
       0.1801279 0.20598048 -0.06551164 0.006871955
0001d0 32 ef b8 3d 3d 96 29 3e 22 a8 d3 3d 4d 56 91 be
       0.09029998 0.16561218 0.10334803 -0.28386155
0001e0 54 55 61 bd da 03 19 ba 04 fd bd 3d fa 4d 20 3d
       -0.055013016 -0.0005837061 0.092767745 0.039136864
0001f0 8e c4 d9 bd 96 5d ec 3c 0a c9 9a 3d a1 bd b3 bd
       -0.10633193 0.028853219 0.075578764 -0.08776403
000200 4f 56 e7 bc de b1 43 be f7 5d 6e 3e 18 7a 52 3e
       -0.028239397 -0.1911082 0.23278032 0.20554388
000210 b9 72 7d bd 0c 0d 01 3d 53 2a 32 3a fe 65 7c 3e
       -0.061876986 0.031506583 0.0006796468 0.24648282
000220 40 16 51 3d c1 b9 f6 3d 7b e0 00 3e 13 b8 a4 bd
       0.05104661 0.120471485 0.12585633 -0.08042922
000230 e1 d4 a4 ba a0 c8 a5 bb 29 11 25 3d b4 49 aa bc
       -0.001257565 -0.0050593168 0.04029957 -0.020787098
000240 3c fa ec be 55 40 c8 bd 06 15 06 3d fb 8a c9 3d
       -0.46284664 -0.09777895 0.032734893 0.098409615
000250 00 ba ee bb f5 08 3d bd f8 ce c6 3b 64 5d 82 be
       -0.0072853565 -0.04615112 0.006067153 -0.25461876
000260 77 f3 b6 bc 4e 7d 9a bd e8 b8 de 3e b9 0b 99 3c
       -0.02233289 -0.07543431 0.43500447 0.018682348
000270 2a 29 b8 3d e1 c6 8e b8 dc 63 03 bf 97 17 3e 3d
       0.089922264 -6.808132e-05 -0.5132425 0.046409216
000280 a9 bc 03 3d 14 e8 f4 bd 45 3f d7 bd c3 d0 f9 bd
       0.032162342 -0.11958328 -0.105101146 -0.12198021
000290 17 6c d9 be 23 56 55 bd d1 ac 9b 3d 51 28 96 bd
       -0.42465279 -0.0520841 0.076013215 -0.073319085
0002a0 6f 19 d0 3d ec 49 34 be b9 b7 0b 3e 0e 9f be 3b
       0.10161101 -0.17606324 0.13644303 0.0058173006
0002b0 da 73 04 3e 53 bd e9 3d 63 20 e5 bd 38 50 ee 3b
       0.12934819 0.11413064 -0.11187818 0.0072727464
0002c0 44 c6 ec 3d 9a c9 87 3d d5 3d d2 3c f6 c0 86 be
       0.11561254 0.06630249 0.02566425 -0.26319093
0002d0 25 c8 46 3c 55 09 09 3a 4b c9 9e b9 30 e5 d6 ba
       0.012132679 0.0005227526 -0.00030286083 -0.0016395207
0002e0 ed 4e 10 bb 57 c3 80 bb 78 75 fd ba cd 5a fa 3a
       -0.00220197 -0.0039295363 -0.0019337377 0.0019100547
0002f0 fa 5f 04 3a 32 40 87 bb 6f 22 5e bb c9 db c9 3a
       0.0005049702 -0.0041275257 -0.0033895036 0.0015400584
000300 fc ab 00 bc f2 c5 59 39 a3 7a 07 bb 68 0b 4f bb
       -0.007853504 0.00020768473 -0.0020672462 -0.0031592492
000310 5b 70 36 ba b5 62 f0 3a 02 18 ce ba 85 98 6e 3a
       -0.00069594913 0.0018339964 -0.0015723708 0.00091017067
000320 13 e7 46 3a 02 e8 4a bb 16 c2 9b 3a 77 dd f0 ba
       0.00075875333 -0.0030961041 0.0011883404 -0.0018376549
000330 f8 d3 65 3c b4 1b 34 bb 40 cb db bb f0 c8 8c 3b
       0.014027588 -0.0027482333 -0.006707579 0.0042964146
000340 0c cf 05 3b f1 9c 1c bb 96 29 03 3b 29 79 9f 3b
       0.00204176 -0.0023897255 0.00200138 0.0048667383
000350 56 2e e8 bb 6c 75 90 3b cf 42 a4 bc 30 23 92 bb
       -0.007085602 0.004408529 -0.020051388 -0.004459761
000360 49 44 ca bb b3 9a bf 3b f8 83 df 3b 4a 52 6d 3b
       -0.006172691 0.005847299 0.006821152 0.0036212378
000370 28 a0 49 3b f2 b5 17 bb 87 c5 43 bb f7 c3 a7 ba
       0.0030765627 -0.002314922 -0.0029872374 -0.0012799491
000380 3f f2 e2 3b cb e9 d7 bb e2 be 39 39 40 f4 82 bb
       0.0069258506 -0.0065891496 0.00017714084 -0.003996402
000390 68 f6 0e 3b 18 9f d1 3b 6b f3 a8 b9 41 cf 5d 3b
       0.002181435 0.0063971393 -0.00032224818 0.0033845457
0003a0 b3 e8 70 bb 16 5b 9c 3b 81 4f d6 ba c5 c2 bc 3a
       -0.0036759793 0.0047716005 -0.0016350598 0.0014401308
0003b0 54 d7 39 bb b8 b1 81 3a db 85 56 bc a1 81 ae 3a
       -0.0028357105 0.0009894883 -0.013093437 0.0013313779
0003c0 e5 f7 e6 bd 07 13 a2 ba 35 0a b0 3d f9 aa 8c 3d
       -0.11277751 -0.001236529 0.08595697 0.06868548
0003d0 d2 30 0f 3c 91 81 e8 bd 2d 28 82 bd 86 b0 fe bc
       0.008739667 -0.11352838 -0.06355319 -0.031090032
0003e0 0d 33 01 be 83 94 21 bd 48 74 88 3e 09 69 ed 3d
       -0.1261713 -0.039448272 0.26651216 0.115922995
0003f0 5c 9b 2e be 0b d6 65 bd 29 d6 26 3c 82 d1 38 3c
       -0.17051452 -0.05611233 0.010182896 0.011280419

arith.constant9 f4 [30, 60]
000000 b9 c2 f4 3d 7c e7 00 3b 0e e8 7e 3d 48 4c 47 bd
       0.11951203 0.0019669225 0.062233023 -0.04865673
000010 d7 b5 5a 3d f6 41 ee 3c 83 0d a6 3d 67 09 0f 3d
       0.053396072 0.029084187 0.08108046 0.034921076
000020 e0 e4 06 3d 76 63 a1 3d 11 b6 a9 3c c3 7b a2 bd
       0.032933116 0.07880299 0.020716699 -0.07933762
000030 5a 97 c3 3d b6 05 89 ba f6 f1 44 bb c5 75 dd bc
       0.095503524 -0.0010453972 -0.0030051447 -0.027033696
000040 5c d1 97 3c 94 29 85 bc 04 e5 3d 3d be e1 25 bc
       0.018532448 -0.016255178 0.046360984 -0.010124622
000050 ea d0 f6 b9 ff 78 49 bc 18 47 55 bb 75 0a 76 3d
       -0.0004707643 -0.012296914 -0.0032543596 0.060068566
000060 7a a3 8b 3e c9 b6 48 3d 85 3d 75 3d 25 ee c1 bd
       0.2727316 0.049002443 0.059873123 -0.094692506
000070 78 02 9e bb 62 4a b1 3d e9 20 f2 bb 69 0e 7f 3d
       -0.0048220716 0.086567655 -0.007389177 0.062269602
000080 2c af 2d bc ca 7f 81 bd f6 51 06 be d4 11 92 bd
       -0.010600846 -0.06323202 -0.13117203 -0.07132307
000090 65 cd 1d bd 82 f5 83 3c 97 8f 4f 3e ce 33 b8 bb
       -0.038525958 0.016108278 0.20269619 -0.00562141
0000a0 e4 5b 14 bc 6d 60 5a 3d a0 7a 31 3d 9f 84 1c 3d
       -0.009055112 0.053314615 0.043329835 0.038212415
0000b0 e6 96 63 3d 43 9d 38 3d 8f d2 92 3d 5b a9 47 3d
       0.05556383 0.04507185 0.07169067 0.048745494
0000c0 91 66 d1 bc 52 a3 4a bd 7d b3 3b bd 48 63 38 bb
       -0.025561603 -0.04947216 -0.04582547 -0.0028135348
0000d0 98 bf ce bb 0b a0 94 bd 67 f3 5c 3b 0b a8 2c 3b
       -0.006309461 -0.07257088 0.0033714415 0.0026345279
0000e0 47 de e2 bb 83 9d 9e bd 40 27 0f be eb 97 94 3d
       -0.00692347 -0.07744887 -0.13979816 0.072555386
0000f0 a2 cc e8 bd 14 91 9f bb 14 78 cd bd 6a 61 b9 3d
       -0.113671556 -0.0048695896 -0.10032669 0.090517834
000100 9e 30 88 bd c2 7f 0b bd 28 0b ac bd 96 d4 a0 bc
       -0.06649898 -0.034057386 -0.084005654 -0.019632619
000110 66 6f 61 bd a0 3e 98 bd a9 ce c1 bc c5 a8 a2 3d
       -0.05503788 -0.0743382 -0.023658114 0.079423465
000120 0e 68 dc bd bb 65 f6 ba 20 0c 70 3c 50 1d 53 3c
       -0.10762034 -0.0018798629 0.014651328 0.012885407
000130 9d ab 09 bd 0e dd f6 3c 45 73 ce bd 40 ed df 3c
       -0.03361093 0.030134704 -0.1008058 0.02733481
000140 3c 20 26 3b 62 62 b8 3b 73 7a 4a 3c 5c 42 e6 bd
       0.0025348803 0.0056269625 0.012358296 -0.11243126
000150 a3 0f 41 be 09 a9 ae bd 41 1d ac bd 89 6d 01 3e
       -0.18853621 -0.08528335 -0.08404017 0.1263944
000160 37 9e 6c 3c 06 c4 ae bd fe 96 82 3c 12 d4 24 bd
       0.014442018 -0.08533482 0.01594114 -0.04024131
000170 1c a9 9f 3a 82 1a ce 3d b6 11 00 3e dd 4f 85 3d
       0.0012181136 0.1006365 0.12506756 0.06509373
000180 90 8e c9 bc 28 4d 8f bb 41 3a 13 be 1d 3b 32 3c
       -0.024604112 -0.0043732114 -0.14377691 0.0108783515
000190 9c bb 9e 3c 9e 6d 89 bd 5a 0e 9e bd 86 a5 c9 bd
       0.019376568 -0.06710361 -0.07717581 -0.09846024
0001a0 85 f1 49 bd 6d a3 18 bd 0c 48 d2 bd 76 7e 9b bd
       -0.049302597 -0.03726523 -0.10267648 -0.0759248
0001b0 30 aa 83 3d 3b 65 96 3d 99 7e d1 3c 2b 06 f9 3b
       0.06428945 0.07343527 0.025573062 0.007599612
0001c0 9a 36 15 bd 51 a8 9d 3d 1f ec 69 bc 14 b8 23 3b
       -0.036429025 0.076981194 -0.014277487 0.0024981545
0001d0 67 fa 0d bd 0e 2b b9 3d be 94 da 3d 01 dd 0e be
       -0.03466263 0.09041415 0.106729016 -0.13951494
0001e0 60 91 a5 bc 53 3e cd bb 1b 41 7a bc 48 71 39 3d
       -0.020210922 -0.006263533 -0.015274311 0.04527405
0001f0 97 8a 2f bc aa cb 0a bd 6a 21 97 bc b5 0a 41 3b
       -0.010714195 -0.033885635 -0.01844855 0.0029455845
000200 47 87 9f bd 43 a6 99 bd e6 70 c2 bb e2 22 ba 3c
       -0.07789474 -0.07502415 -0.0059338687 0.022721712
000210 0d 9a 5d bd 6c bb df 3a 36 93 10 3c 4f 3a cb bc
       -0.054101992 0.0017069406 0.00882416 -0.024808077
000220 13 82 fd bc c0 e3 a0 3c 0f ec 7a bd 13 1b 35 3c
       -0.030945813 0.01963985 -0.06126028 0.011053818
000230 34 6c 0f 39 aa b6 2b 3b f0 24 09 3d 33 8d 25 bd
       0.00013677852 0.0026201406 0.033482492 -0.04041786
000240 b0 41 45 bd 04 48 a4 bd 00 91 d4 bd 62 c4 11 3d
       -0.048158348 -0.080215484 -0.10379219 0.035587676
000250 36 08 10 3c 61 3c 66 bd 84 28 0d 3c 1a e7 47 3d
       0.00879102 -0.056209926 0.008615617 0.04880438
000260 33 77 ae bb 5d 90 9a 3d c0 d3 25 3d 9e 12 8d 3c
       -0.0053242682 0.07547066 0.040485144 0.017220791
000270 34 aa d1 3a 87 99 30 3b b0 c5 b5 bd cd 2d fb 3b
       0.0015996159 0.0026946978 -0.088755965 0.007665372
000280 34 70 31 3c 46 da d7 bc cf b1 bc bc 32 e8 86 bd
       0.010829974 -0.026349198 -0.023034004 -0.065872565
000290 78 6c 21 bd fb 05 d5 bd 5d f4 51 bd 02 de 64 bd
       -0.039410084 -0.10401531 -0.051258434 -0.055875786
0002a0 08 93 84 3d a0 20 10 3d 9f 78 87 3b 32 29 c5 3b
       0.064733565 0.035187364 0.004134252 0.0060168738
0002b0 f1 7e 3f bd a5 88 f0 3c 0a 76 2f bc 5f ed 93 3b
       -0.04675192 0.029362032 -0.010709295 0.004514381
0002c0 21 cc c2 bc 19 f3 8d 3d dc 74 85 3d 9b 44 02 bd
       -0.023778977 0.06931133 0.0651643 -0.03180371
0002d0 9f 34 01 3d 25 ee 5d 3a 3e dd 58 bc b0 0e e8 3a
       0.031544324 0.0008465967 -0.013236342 0.0017704573
0002e0 09 17 d4 bb c6 e2 09 bc c9 b6 49 bc 54 8d b8 3b
       -0.0064724726 -0.008415883 -0.012311646 0.005632082
0002f0 a0 e6 30 bc 9a 02 5c bc 2e 9d 28 bc b3 92 57 3c
       -0.010797173 -0.013428355 -0.010291381 0.013157534
000300 85 55 73 bc fb 57 1b bb 7f f9 43 bb cf 03 d9 bb
       -0.014851932 -0.0023703563 -0.002990335 -0.0066227685
000310 32 ad ae bb 0f 24 bc 3b 89 a7 df bb ff 89 ba 3b
       -0.005330705 0.005741603 -0.0068253917 0.00569272
000320 c4 24 a3 3a a7 83 1c bc b6 0b c0 3a 49 35 55 bc
       0.001244687 -0.009552873 0.0014651928 -0.013013192
000330 3d 29 a8 3c 9b ec 65 bb cf 7a 39 bc 7a e2 62 3c
       0.020527476 -0.0035083655 -0.011320784 0.0138479415
000340 4d 1b cc 3b 48 e3 4f bc 05 e8 c5 3b 98 69 f0 3b
       0.0062288404 -0.012688465 0.006039622 0.0073368065
000350 bb 0d ab bb 5a 5b 23 3c c9 c4 9a bc 5b 19 12 bc
       -0.0052201427 0.00997051 -0.018892663 -0.008917178
000360 4b d3 16 bc 0e ba 47 3c 1a 0f 75 3c 4c 84 84 3b
       -0.00920565 0.012190355 0.014957214 0.0040440913
000370 81 f8 e6 3b b4 d3 4a bc 77 0e 0f bc c2 46 6b 3a
       0.007048667 -0.0123795755 -0.008731476 0.00089750823
000380 0c 10 b1 3c 55 09 f9 bc a8 60 06 bc 43 43 55 bc
       0.021614097 -0.030399958 -0.008201756 -0.013016525
000390 70 38 0b 3c 89 53 be bb c9 d8 f2 ba 5f 27 84 3b
       0.0084973425 -0.005808298 -0.0018527742 0.0040330137
0003a0 ef a6 8f bc e7 07 39 3c 5e 26 95 bb 25 aa a7 3b
       -0.017535655 0.011293388 -0.004551693 0.0051167184
0003b0 b4 ca 05 bc eb c5 8b 3c 1d 9f f9 bc b1 0a 1e 3d
       -0.008166004 0.017062148 -0.030471379 0.038584415
0003c0 88 87 5b 3d 30 eb 99 3c f9 60 39 3d 40 2c 3a bd
       0.05359605 0.018788904 0.045258496 -0.045452356
0003d0 d6 47 f1 3c 5b f5 f6 3c 83 8d 77 3d e9 1b 25 3c
       0.0294532 0.030146291 0.06043769 0.010077455
0003e0 88 12 d8 3c 05 be 24 3d 00 d3 03 3c f0 ed 40 bd
       0.026376024 0.04022028 0.008045912 -0.047101915
0003f0 26 b0 41 3d bd b0 88 ba 55 57 fa 3a db 83 95 bc
       0.04728713 -0.0010428649 0.0019099513 -0.01825135
