Riproduzione/Riproduzione_PW/small_lstm_fixed.tflite (tflite, 414956 bytes, 29 tensors)

sequential/dense_1/BiasAdd/ReadVariableOp f4 [15]
00000000: 5f88 01be 6f95 cf3d 355a f33d d61e 8fbd
00000010: ca5e f23d bffc 75bd dce0 4bbb d9b7 393c
00000020: 333e e23d 9229 76bd 3e13 d3bd 14ce 8ebd
00000030: 8967 f13d 2add f839 1b01 8cbb
-0.12649678 0.10135924 0.1188244 -0.06988303 0.11834486 -0.06005549 -0.0031109368 0.011335337
0.1104702 -0.06009824 -0.103064045 -0.069729 0.11787326 0.00047467026 -0.0042725927

sequential/dense/BiasAdd/ReadVariableOp f4 [30]
00000000: 051e 0cbe bee7 c13b b6fc 75bd c6e4 d63d
00000010: 0440 373d 042c 52bd 9a6f 51bd 4c28 53bd
00000020: 10fb 8f3d 9049 813d 2a3f 37bd bcfc 75bd
00000030: 50c8 c53d 1b46 65bd 057b 5cbb a4fc 75bd
00000040: 9ffc 75bd c369 53bd 07d1 80bd bcfc 75bd
00000050: bd68 06be a4fc 75bd 5db1 63bd 518e 51bd
00000060: 0cef 303d c93f 723d 182c ad3d 683b 50bd
00000070: 7b04 db3d c04a 93bd
-0.13683327 0.0059175184 -0.060055457 0.10492854 0.044738784 -0.051311508 -0.051131822 -0.051552102
0.07030308 0.06312859 -0.044737972 -0.06005548 0.09657347 -0.05597506 -0.0033642661 -0.06005539
-0.06005537 -0.051614534 -0.06289869 -0.06005548 -0.13125892 -0.06005539 -0.05558907 -0.051161114
0.043196723 0.05914286 0.08455676 -0.050837904 0.10694214 -0.07191992

arith.constant f4 [30, 30]
00000000: a1ab 0e3d da24 6e3d 45ac b8bd d2ea 9cbd
00000010: bd06 4d3d 8cdd 493c 81d9 073c b013 95bc
00000020: 9ded e3bd 2b23 203e 4b90 013e e444 4f3d
00000030: f6a4 243e 2e8f 83bd 0b66 da3d f893 10bd
00000040: c969 63bd e0e0 24bd 09d1 e53d 1443 07be
00000050: 3132 f73d c10c 843b d244 c53d 05da b13c
00000060: 63fb 8f3d 9084 653d 5ebf 2dbe 78b8 3cbd
00000070: c0b8 9fbd 9a26 af3d fd4d abbc 3d8c 03bd
00000080: f36f 6abd 64b1 90bd 7923 e83b 3637 173e
00000090: 6082 0f3d 7ad7 bf3c 50e7 54bd db33 223d
000000a0: 9ab2 323d d873 1c3b 2e38 333e f3df 61bd
000000b0: b7c0 fd3d 3103 f6bb 0d07 46bd e483 8d3e
000000c0: a1ff b6bd db99 5ebe b345 1bbe 3de3 8cbd
000000d0: 77ee 103e cd1c 1a3e 0763 f4bd e8e9 01be
000000e0: efd7 d6bd a014 083d c80b dbbd 1878 21bd
000000f0: ea58 863d e55b dcbd eb72 193e fd8c ed3d
00000100: 6ad2 46be 6824 72be 6378 183d 6e31 f13d
00000110: 8c5a f7bd 9331 1d3e dac3 ffbc 5a8e 263d
00000120: 3aeb 14be 652c 0cbe ad68 d9be 5597 08be
00000130: 8549 4b3d 6cd4 02be 2e25 063e 0b4c 37bd
00000140: c35a 87be 3756 1e3d a768 72bd f2a8 29bd
00000150: 4be5 09be 6269 9abc 5278 99bd 423a d03b
00000160: 59ed 88be 5395 833b 6b71 37be ad35 9f3d
00000170: e513 97bc 6b03 923d ad78 7cbd 24d3 c73d
00000180: c219 ce3c 67c9 4dbe 8ac1 3abe b1e2 e3bd
00000190: 122f 6b3d 34a9 98bc fa7e 93bd 74aa ff3c
000001a0: f90a a53c 7e29 db3d 49af 3fbc b0fe 2f3e
000001b0: 7acf febd 6bb2 b2be d75b 70bd 96fb 62bc
000001c0: 634e e1bd 14c1 323d 4828 603e a71c 57be
000001d0: a242 b1bd 9f7b 3c3e b604 ca3c fc6c 07be
000001e0: 2de6 273e 80e7 023c 3104 943e 0547 ae3b
000001f0: d4f9 a43d f2f8 bfbd 4b1f ca3d eae7 8f3c
00000200: e10a 52bd 5856 18bb 9887 40be 9af8 053e
00000210: 89bd 41be 5399 a5be 7456 803d 15c8 71be
00000220: ee98 3cbe 5538 aa3d 078b 8b3e 11cc aabf
00000230: a833 56be d150 57bd 741b aa3d df83 353e
00000240: a7aa 3abe e496 373e ec55 6a3e 74e3 91bc
00000250: a60c e7bd d2f1 3a3e f764 153c 1908 0a3e
00000260: a0b3 59be 04ed dd3d 2878 f0bc f585 f8bd
00000270: 48fd b4bc 074f 12be b409 043d 7049 4f3d
00000280: fdb4 0b3e d1b2 15be 6910 0abe c286 213c
00000290: b33a 84be 79a7 373e 7132 beba 4394 9e3d
000002a0: 9f8e 973c 5a2b 33be 26f7 8bbc 2061 213e
000002b0: a794 ab3d 5889 3c3d c88e 273e 41cc 30bd
000002c0: d08b 14be 40d5 533e d1a0 22bd 0304 55be
000002d0: 1e89 2f3d fa86 5ebe 75d2 8bbd a3f0 753d
000002e0: 51ed 3c3d 7e61 1f3d 47fc ecbc 599d b8bd
000002f0: ace5 b83d 887a 3e3d 6d8e aabd 25d6 3bb9
00000300: 3b51 933d 5c85 a33d dd8b 613e 9ae1 cd3c
00000310: 05da cebd de7c d2bc 48f0 eabd 8e91 87bd
00000320: c52e 893d d8f0 b4bc c7c2 133e 77c2 30bd
00000330: e955 793d 2db9 a8bd d796 6bbd f99b c93b
00000340: 6bc4 12bd 906f a1bb 08fb dfbd cafe 88be
00000350: 6a65 103d 327c 58be 4424 f43d a172 1b3e
00000360: d422 54bc ae1c a53b d63a 9bbc 10db a9bd
00000370: c9ca b63d f07d 8e3c 1996 11bd 288d 3f3e
00000380: f556 8f3e 430c 143d 9c2d 67bc bfb5 5fbd
00000390: a39f 1a3e 1c23 6dbe 0790 053e 4927 c83d
000003a0: 3cc9 8abd 0b35 803d d9d7 16bd 81aa c83d
000003b0: 4a76 85bc f5f7 d33d 73ca de3c 5cf5 0f3d
000003c0: 4e6f 11be 58a8 2bbe df9a 4bbe e4b3 babc
000003d0: 2c03 aebd 1943 71bd ab19 adbc 9e72 0abe
000003e0: b05d f43d 79ae 16be ff3b 5cbd 9c12 45ba
000003f0: 1dd8 833c 0d5f bb3d 021a 023e 7767 8e3c
0.034831647 0.058140613 -0.09017233 -0.07661976 0.050055254 0.012320887 0.008291603 -0.018197864
-0.111293055 0.15638416 0.126527 0.05060281 0.16078553 -0.06423794 0.106639944 -0.035297364
-0.055520806 -0.04025352 0.11221511 -0.13209182 0.1207012 0.0040298407 0.09632267 0.021710405
0.0703037 0.056034625 -0.16967532 -0.04607436 -0.0779891 0.085522845 -0.020911211 -0.032116164
-0.05723567 -0.070650846 0.007084307 0.14767155 0.035036445 0.023418177 -0.05197841 0.039600234
0.04362736 0.002387276 0.175019 -0.055145215 0.12390273 -0.0075077047 -0.048346568 0.27639687
-0.08935476 -0.21738379 -0.15163307 -0.0687928 0.14153467 0.15050049 -0.119329505 -0.12686884
-0.10490405 0.033222795 -0.106956065 -0.03942117 0.06559928 -0.10759715 0.14985244 0.11599157
-0.19416204 -0.236467 0.037224185 0.11777006 -0.12077817 0.15350942 -0.031221319 0.0406631
-0.14542857 -0.1368881 -0.42462674 -0.13338979 0.04963066 -0.12776345 0.1310012 -0.044750255
-0.26436433 0.03865644 -0.059181836 -0.041420884 -0.13466375 -0.018849079 -0.074936524 0.006354601
-0.26743582 0.0040156036 -0.1791436 0.0777391 -0.018442104 0.07129558 -0.061638523 0.09757069
0.025158767 -0.2009636 -0.18237892 -0.11127222 0.057417937 -0.01863537 -0.07201953 0.031209208
0.020146834 0.107012734 -0.011699506 0.17187 -0.12441917 -0.34901747 -0.058681335 -0.013853928
-0.11001279 0.043641165 0.21890366 -0.21007024 -0.08655287 0.18406533 0.02466045 -0.13225168
0.16396399 0.007989764 0.28909448 0.005318525 0.080554634 -0.093736544 0.0986925 0.01756664
-0.051279906 -0.0023244824 -0.18801725 0.13083115 -0.18919958 -0.3234354 0.062664896 -0.23611481
-0.18417713 0.08311526 0.27254507 -1.3343526 -0.20918143 -0.052567307 0.083060175 0.17726086
-0.18229161 0.17928654 0.22884339 -0.017808653 -0.112817094 0.1825631 0.00911831 0.13479652
-0.21259928 0.10836223 -0.02935417 -0.12134925 -0.02209343 -0.14287959 0.032235816 0.050607145
0.1364326 -0.14618994 -0.13482822 0.009858789 -0.25826034 0.1793498 -0.0014510882 0.077431224
0.018500624 -0.17497006 -0.017085623 0.15759706 0.083779626 0.04602942 0.1636306 -0.04316354
-0.14506459 0.20686817 -0.039704148 -0.20802312 0.042855375 -0.21731177 -0.06827251 0.060043942
0.04612476 0.038911335 -0.028928889 -0.09014387 0.090281814 0.046503574 -0.08327947 -0.00017913485
0.07193228 0.07984421 0.2202601 0.02513199 -0.10100178 -0.025694307 -0.11471611 -0.06619559
0.06698374 -0.0220875 0.1442977 -0.043154206 0.060872946 -0.082384445 -0.0575169 0.0061526266
-0.03583185 -0.0049266294 -0.10936552 -0.2675689 0.035252966 -0.21141127 0.119209796 0.15180446
-0.012947757 0.0050388193 -0.018948954 -0.08293736 0.08925397 0.017394036 -0.035543535 0.1870619
0.2799603 0.036144506 -0.014109995 -0.054616686 0.15099959 -0.23157924 0.13043223 0.09773118
-0.06776664 0.06260117 -0.036826942 0.09798146 -0.016291756 0.103500284 0.027196145 0.035146102
-0.14202616 -0.16763437 -0.19883297 -0.022790857 -0.08496699 -0.05890188 -0.021130404 -0.13520285
0.11931932 -0.14714994 -0.053768154 -0.00075177266 0.016094262 0.09148989 0.12705234 0.01738332

arith.constant1 f4 [30, 30]
00000000: ee62 ae3e 5bd8 4ebe e4a8 0ebe dbfd fa3d
00000010: 70bf adbe 9a0b 7ebe bc0c 163e 96c9 f93d
00000020: 1d52 8b3e 92e5 743e 7b48 09be f0ee 373e
00000030: b9e3 44bb 2f27 61be a390 9cbd 326f 623e
00000040: 4b18 1a3e 1d5a a9be 1958 4f3e ab74 b5bb
00000050: 8288 18be c8f2 39be 49b0 7cbe 50f5 a23d
00000060: 499a c4bc ab78 833d b186 2e3d 3629 39be
00000070: c725 28be cb67 c33d b32c 7abe 3b29 9b3c
00000080: a39a 7d3d 3168 8cbe ad25 ae3c e44e 11bd
00000090: 63f4 e0bd f7ac c9bd d3a5 0cbe 3714 78bd
000000a0: 76fe dd3d 2674 6fbd 03a7 35bd 5199 103e
000000b0: c18a 623e a828 fe3a af34 09be bc4d 193e
000000c0: 66f0 60be b77b 4f3d bb64 213e 2e76 313e
000000d0: 37cf f93c d50f ce3d e9a0 8dbc 9da6 54be
000000e0: 30ec 28be f923 14bd c46d 113e 06ac 04be
000000f0: 4fbb 2dbc 4030 623c 77d5 4a3d 65c3 6e3e
00000100: 7455 00bd af89 c7bd a9a2 683d 3fd2 51bc
00000110: 00e0 bdbc 9bda 73bd 044b 0e3e c1e0 4cbd
00000120: 3f29 2a3d 6100 3bbe c3aa 7ebe 1373 d9bd
00000130: aedb db3c e839 0ebd d22e 303e e05d fcbd
00000140: 244b 30be 100b 023d 4487 103d c1d1 d0bd
00000150: c75c 0c3e b71a 9f3d aa33 24bc f4ea 9d3a
00000160: 4d0f 94bd 0886 973d 20e7 a03d e793 9dbd
00000170: bd91 fe3c 0eb8 e53d 8eaf d5bd 1b68 6dbe
00000180: 8b86 183e 9e6d b13d f488 9e3d acec 6d3d
00000190: 3524 0abd 9526 bd3c 6b1b 3abe e427 a9be
000001a0: 317a 72be df13 b33c 8fe9 743e 26f9 22bc
000001b0: 0c39 bfbc 2b4c 78bc 035d 9d3c 7ac5 07be
000001c0: 08fd 45bd 5da7 56bc 7b2b e4bd 5515 a93e
000001d0: 36c3 b9bb 1103 463d 25ed 833d 80dc 443e
000001e0: 5b2f a1bd 2dab 113d e5b9 91be 0822 0c3e
000001f0: 68f6 79be bad1 8939 d296 69bd 8bc8 43bb
00000200: a88c 413d 6b66 323c bf6c f93a 8a5a 7cbd
00000210: 1c62 adbd cf10 4ebd 1608 9cbe 935a b83c
00000220: 1938 583d bd15 f7bd 7fd7 413d 487b ea3d
00000230: 7e67 ecbd fd95 5d3d 215f 283e eac4 42be
00000240: 7668 be3d 0dbc bfbd 0dc7 2a3e cde5 92bc
00000250: 22ef 6abe 2388 cbbc 7e2f ecbd 3175 c23e
00000260: 4919 fdbd 7a24 55bd 2967 e03d e706 993e
00000270: e4bb aabd a06a 423d 7ad5 ab3c 73f7 87be
00000280: 5e5e 523e e446 afbd 8d05 883d 8644 e53e
00000290: 6891 403e 7c00 b73d a6e0 5dbe a2ca a83d
000002a0: 0609 ecbc 14ae 263d 1933 fa3d 3e8d e43c
000002b0: c6b1 ad3d 1dcc eb3d eda8 95bc 25d4 28be
000002c0: 1408 4dbe 7187 3c3e 6245 853e be3a 1bbe
000002d0: 4025 0a3e 2b88 1fbe 4e26 a13c 3d4e 183e
000002e0: e094 3cbe 9da9 0dbe 39c9 e1bc bb0f 633e
000002f0: 09dd 9f3e acc5 583e d504 80bd ccbd 893e
00000300: 893f 3ebe edcb b1be ada6 07be e800 fcbd
00000310: 1ae6 ab3e 1ed5 81be 67ca 453e f562 03be
00000320: 1ea1 69be 53f8 c8be 1640 bebe 86ec f8bd
00000330: 4e28 763c e9e6 8c3e bf68 9b3d 476b 8bbe
00000340: 6f86 9ebd ee1e 2c3e 4714 a43e 959e 80be
00000350: 399c 9d3d 5007 533e fb43 873d 39c0 4dbe
00000360: da33 b83e 327f 673e 269f bd3e 9a5d 7f3d
00000370: c4df 94be 1f9d df3e ff4e 833d 8cfe c7bd
00000380: 853e a1bd ee18 19bd 9b5d c03e f4f9 c6be
00000390: 2404 a73e 6acb 0ebc fed6 003d 7d49 b0be
000003a0: 0a3d 9cbe 7e96 21bd 6dfe 90bd b04a 903e
000003b0: 219c cf3c 0ef3 b2be 7f0d 6dbe 5779 9d3e
000003c0: eb19 753e b5de 32be 83d9 94bd 230b 623e
000003d0: a313 bebd ae74 a8bd e806 973e 5aa8 113e
000003e0: 8e37 163e 9b1a 573e 4c2a 96be 0533 1a3e
000003f0: fc41 57be cb58 f7bd 5266 05be ba99 9d3d
0.34059852 -0.2019972 -0.13931614 0.1225545 -0.33935118 -0.24809113 0.14653295 0.121966526
0.27211085 0.23915699 -0.13406555 0.17962241 -0.003004296 -0.21987604 -0.07644775 0.2211273
0.1504833 -0.33076563 0.2024845 -0.0055375895 -0.14895824 -0.1815902 -0.24676622 0.07956946
-0.02399935 0.064195 0.04260892 -0.18082127 -0.16420661 0.09541281 -0.24431114 0.018940559
0.06191505 -0.27423242 0.0212582 -0.035475627 -0.10984113 -0.098474436 -0.13735132 -0.060566153
0.1083955 -0.058460377 -0.044348728 0.14120986 0.22123243 0.0019390779 -0.13399003 0.1497106
-0.21966705 0.050655093 0.15761082 0.17330238 0.030494316 0.100616135 -0.017288642 -0.20766683
-0.16496348 -0.03616712 0.14202029 -0.12956247 -0.01060374 0.013805449 0.049519982 0.23316725
-0.031331494 -0.09743058 0.05679575 -0.012806474 -0.0231781 -0.05953465 0.13895804 -0.05001903
0.04154324 -0.18261863 -0.24869828 -0.10617652 0.02683815 -0.034723192 0.1720536 -0.12322593
-0.17216164 0.03174883 0.03528525 -0.101962574 0.13707267 0.07768767 -0.010022083 0.0012048171
-0.07229481 0.07398611 0.078565836 -0.07694226 0.031075353 0.11216746 -0.10433875 -0.23184244
0.14895074 0.08663486 0.077409655 0.058087036 -0.033725936 0.023089686 -0.18174522 -0.33038247
-0.23679425 0.021860061 0.2391722 -0.009947097 -0.023342632 -0.015154879 0.01920939 -0.13258925
-0.048337013 -0.013101426 -0.11141106 0.33024088 -0.005669023 0.048342768 0.06441716 0.19224739
-0.078703605 0.035563637 -0.2846214 0.13684857 -0.24410403 0.00026286935 -0.0570286 -0.0029874172
0.04725328 0.010888676 0.0019029601 -0.061609782 -0.084659785 -0.050309 -0.3047492 0.022504127
0.052787874 -0.12064693 0.047324654 0.11449295 -0.11543177 0.054098118 0.16442539 -0.19020429
0.09297268 -0.0936204 0.16677494 -0.017931843 -0.22942784 -0.024845188 -0.11532496 0.37980035
-0.123583384 -0.05203674 0.10957176 0.2988808 -0.083366185 0.047464967 0.020975817 -0.26555976
0.2054381 -0.08558443 0.06641684 0.44778842 0.18805468 0.08935639 -0.21667728 0.08241774
-0.028812896 0.040693358 0.12216777 0.02789938 0.08481173 0.11513541 -0.018269027 -0.16487177
-0.20022613 0.18411042 0.26029497 -0.15159127 0.13490772 -0.15579288 0.019671585 0.14873596
-0.18416166 -0.13834234 -0.02756177 0.2217397 0.31223324 0.21169156 -0.06250922 0.26902616
-0.18578924 -0.34725896 -0.13247176 -0.1230486 0.3357399 -0.25357908 0.19315492 -0.12830718
-0.22815368 -0.39251956 -0.3715827 -0.12154488 0.015024258 0.2751992 0.07588338 -0.27230284
-0.07740485 0.16808674 0.3204672 -0.25120988 0.07695813 0.20608258 0.06604763 -0.20092858
0.3597706 0.22607115 0.37035483 0.062345125 -0.2907697 0.4367456 0.06411552 -0.09765348
-0.07873253 -0.03737729 0.37571415 -0.38862574 0.32620347 -0.00871549 0.031455033 -0.34431067
-0.3051532 -0.03945016 -0.07079778 0.28181982 0.025343003 -0.3495106 -0.2314968 0.30756637
0.23935668 -0.17467768 -0.072680496 0.22074561 -0.09281089 -0.0822538 0.29497457 0.14224377
0.1466963 0.21006243 -0.29329145 0.15058525 -0.21021265 -0.12077483 -0.13027313 0.07695337

arith.constant2 f4 [30, 30]
00000000: 4ef0 5c3e cbb5 e6bd 4b11 f4bd 6c00 41bd
00000010: 7719 96bc 2000 aebb f090 1b3e 5237 583e
00000020: 2bbe 4e3e 44ed cd3c 85cb 5dbe 55fd 543e
00000030: 459b 013e 3c04 803b f497 a8bd 634d 993d
00000040: 47f5 f73c b513 55be 8124 35bd a1bc 0e3e
00000050: 857a cb3d 1bfa 99be 83c1 0cbe ee49 06be
00000060: 3994 973d 6828 733d 555e 313e f509 19be
00000070: 53a7 7abe 51e3 f13b 0c80 4e3e 93ca 3ebd
00000080: 68ff 80bd a1be 503e 74d3 1fbe 9abb 43be
00000090: 5200 663e d750 ddbd 5df6 2b3d c77c 613e
000000a0: 4ddb 22be efa5 863c abc3 2d3d 372e 7dbe
000000b0: 297b 0bbe 14be 46be 30b6 503d d74b ff3b
000000c0: e576 5e3c 3065 aa3d 3651 1abe a671 b3bd
000000d0: be66 8abe 5bd2 c1bc 5591 e43c 766e 273e
000000e0: 83d9 1a3d e9d4 81be de96 2b3c abe0 863d
000000f0: 0c44 54be 224a 613e 9cac e93c 39cf 003d
00000100: 0766 9d3d 655b 3b3e 7edb 10be d97d 13be
00000110: 98c3 41be 3024 11be 6cca 953e d4ae 62be
00000120: d24d a83d a076 06bc f926 19be 54e5 6d3d
00000130: 8fb9 a4be 1272 b43e 04a2 61be 9035 e33d
00000140: 9d58 a93e f2ab 8c3e d4d9 db3d 4493 c5bd
00000150: 15c5 d7bd 9f1e 49be de4e 0bbe 988b 653e
00000160: 55d3 a13d 8070 b7be 36a9 8e3d f1db f93c
00000170: 300d 583e 1ca6 a33c 0cea 66bd 1b8c 34be
00000180: 73ae c43d bf1e 7d3e 27a9 813e 6302 f4bc
00000190: 18ae eebd b083 51bc b90f 5abe ac11 83be
000001a0: f3c2 c7be fccf 183d 6eb3 903c fd8d a83d
000001b0: 9875 003e 3e35 8abe 17ea 2ebe 9e8d bc3d
000001c0: a2df ed3c a7f3 c8bd 7432 173d ef58 7f3d
000001d0: d7c8 a9bd b7f7 eabd 30f7 a1bb 60b2 093e
000001e0: 3c71 8e3d 5364 c63d c2a2 403d 3da4 a0be
000001f0: df8f 883d d468 a93e d257 bdbd 90af 5dbe
00000200: dad4 e63c 7707 f53c c59c 143e 3c81 df3d
00000210: c486 b83e f25f 973e 7c1b 7b3e e0ca c3bd
00000220: 209e 63be fd3b 553e 8b8d bcbd 3d43 f2be
00000230: 1687 7f3e 980e 603e 8a77 fa3c ae1f 903d
00000240: 67eb 9cbe 449c e2bc 5fac 00bd 2553 b63d
00000250: 92ef 00bd da14 3fbe a5d0 083e 3659 033d
00000260: 2d58 ba3e 0550 013e 5886 aabd 475a b3be
00000270: 6db2 a1bd 907c fd3d f9a2 853d 8706 6a3c
00000280: 1f9b 58be 1714 623e 17e8 6bbe 2d3f cfbe
00000290: d289 86be 9603 393d 0414 a73d df9e adbd
000002a0: be27 103d 18df 56be 5213 41bd a455 88bd
000002b0: 71c4 6cbe f13a 893d b284 85be 11a8 2dbe
000002c0: 962a 24bd d5ca f6bc 3128 dabd ab42 1d3e
000002d0: d768 433e fc06 f1bd 2355 bd3b 533b 933e
000002e0: c510 6ebe 0b53 75bc 5da9 003e 7117 433e
000002f0: 642c 3f3d 76d3 c33d 9499 f8bd 1a58 c4bd
00000300: d0a7 39be 2f38 c7be 3025 c7bd 1b0c 813d
00000310: e656 3d3e 54e4 8ebd f641 673d 23f6 2ebd
00000320: 041f 443c 689a 09be c4d4 37be 80c5 f0bc
00000330: d305 47bd 7549 0c3e 1535 693e 4eb7 e2bd
00000340: 3a68 92be 6a54 103e fa44 6c3e 5611 5abe
00000350: 384c bdbd e02e aabd 93ea 74bc b687 8d3e
00000360: 1aae 883e 3804 a53d f453 153e c331 083e
00000370: a2f0 95bd 472b 943e 54c8 173c 7218 00bc
00000380: 79bc 393e fb3f df3d 689f 013e e6ca 22be
00000390: 74c8 403e 7e29 803e 3cab 303e 5f11 30be
000003a0: 047a f5bd 7ce5 b03c bbba 70bd a959 d53d
000003b0: 3b4a 4b3e 027c 47be fe18 2cbe 3333 173e
000003c0: 0d69 bc3d 4772 b2bc 6b80 0b3d 27bb 443e
000003d0: 0b2a 3cbe 7347 7fbe 4786 4a3e 1f5d d83d
000003e0: 9c1b 733e 5a94 1f3e 3d57 79be 0694 e23d
000003f0: 5060 a9bd 1a31 36be a0d8 d3bc bbd5 01be
0.21576044 -0.11265143 -0.11917361 -0.047119543 -0.01832269 -0.0053100735 0.15192008 0.21114853
0.20189731 0.025137551 -0.21659668 0.20799764 0.12656887 0.003906755 -0.08232108 0.074854635
0.030268325 -0.20808299 -0.044224266 0.13939144 0.09935478 -0.30073628 -0.13745694 -0.1311414
0.07401318 0.059364706 0.17321141 -0.14945205 -0.24477892 0.0073818346 0.20166034 -0.04657991
-0.06298715 0.20385219 -0.15608007 -0.19114533 0.2246106 -0.108064346 0.041982997 0.22020255
-0.15903969 0.016436545 0.04242293 -0.24724661 -0.136212 -0.19408447 0.050954998 0.0077910232
0.013578151 0.08320081 -0.15070042 -0.08761911 -0.2703151 -0.023659876 0.027901331 0.16350731
0.03780509 -0.2535775 0.010472981 0.06585821 -0.20729083 0.22000936 0.02852469 0.031447623
0.07685476 0.18296583 -0.1414623 -0.14403476 -0.1892227 -0.1417396 0.29255998 -0.22137004
0.08217968 -0.008206993 -0.14956273 0.058080032 -0.3217282 0.3524328 -0.2203446 0.110942006
0.3307542 0.27474934 0.10734907 -0.09647229 -0.10535637 -0.19640587 -0.13604304 0.22416532
0.079016365 -0.35828018 0.06965868 0.030500384 0.2109878 0.019976668 -0.05637555 -0.17631571
0.09603586 0.2471876 0.25324365 -0.029786294 -0.116542995 -0.012787744 -0.2129506 -0.2559942
-0.39015922 0.037307724 0.017663684 0.08230207 0.12544858 -0.26993746 -0.17081486 0.09206699
0.0290373 -0.09812098 0.03691335 0.062340673 -0.0829026 -0.11473029 -0.004942797 0.13446951
0.069551915 0.09687104 0.047030218 -0.31375304 0.06668066 0.3308779 -0.09245266 -0.21649003
0.028177667 0.029910786 0.14512928 0.109133214 0.36040318 0.29565388 0.24522203 -0.0956018
-0.22228289 0.20823665 -0.09206685 -0.47316924 0.24953875 0.21880567 0.030574579 0.070372924
-0.30648348 -0.027662404 -0.031414386 0.08902577 -0.031478472 -0.18660298 0.13360842 0.0320675
0.36395398 0.12628181 -0.08326405 -0.35029814 -0.0789536 0.12377274 0.06525225 0.014283783
-0.21152924 0.22077976 -0.23037754 -0.40477887 -0.26277024 0.045169435 0.081581146 -0.08477568
0.03519415 -0.20983541 -0.047137566 -0.0665696 -0.23121811 0.06700695 -0.260778 -0.16958643
-0.040079676 -0.030126015 -0.10652197 0.15357463 0.19082962 -0.1176891 0.0057779714 0.28756198
-0.23248585 -0.014973412 0.12564607 0.19051911 0.046673194 0.09561817 -0.12138668 -0.095871165
-0.18130422 -0.38910052 -0.0972389 0.06301137 0.1849018 -0.06977144 0.05645939 -0.042715203
0.011970285 -0.13437808 -0.17952257 -0.02939105 -0.04858954 0.13699897 0.22774155 -0.11070119
-0.28595144 0.14094701 0.23073187 -0.21295676 -0.09243053 -0.08309722 -0.014948505 0.27642602
0.2669533 0.08057445 0.14582807 0.13300233 -0.07321288 0.28939268 0.009264071 -0.007818328
0.18138303 0.10900875 0.12658465 -0.15897712 0.18826467 0.25031656 0.1725282 -0.17194127
-0.11986163 0.021593802 -0.05877183 0.10417492 0.19852535 -0.19480899 -0.16806409 0.14765625
0.09199724 -0.021783007 0.034058016 0.19212018 -0.18375413 -0.249296 0.19777785 0.105646364
0.23741001 0.15583935 -0.24349685 0.110633895 -0.08270323 -0.17792168 -0.02586013 -0.12679188

arith.constant3 f4 [30, 30]
00000000: 3317 613e 8074 31be ddc1 7f3d 2483 583e
00000010: 09cc 42be 62f9 f8bd 0ced 823e c03d 333e
00000020: 35d8 533e 1860 253e ef3d 63be f1f5 843d
00000030: c09a 9abd c747 b0be dee3 153e ec51 17bd
00000040: 0a11 cb3e 979c 7dbe d4e2 903e 163e dfbd
00000050: 1030 3cbe 4ee7 39be a425 bfbd eaa9 533d
00000060: 199d 75bd 70ed 523e 688f 5b3e 44ab 59bd
00000070: 563e c2be ce58 a83e a433 5e3e 92e1 c7bc
00000080: 0443 893c e463 4c3e d96c 1fbe 6fcc cabd
00000090: 6c63 213e d488 febc 6999 323e b5c0 683d
000000a0: bcf5 20be 7ee1 233e d0ac 36be 6e29 6fbe
000000b0: 0930 6bbe 3044 6dbe aea2 0c3e 371b 4fbe
000000c0: bb04 213e 49c1 1bbe 78ce d0bd 89a6 28be
000000d0: 7fff 5abe b1cd cebc e6f9 1ebe 849f 4a3e
000000e0: 9204 6d3e 2119 8fbe 5297 76be ba0b 853e
000000f0: ea7c c73d b8bd 94bd c7da 37bc 4a79 103e
00000100: 86b4 edbd 4df0 11be 5c12 ae3d 5e32 3d3e
00000110: 5f9d cb3d 0401 9e3d 91ed 6f3c 094e 093e
00000120: 9354 c8be 7788 15be 1f6e d2be 82d7 36bd
00000130: 7c08 683e b113 8ebd f037 e73d dd0b 993e
00000140: ca44 3abd 0096 c7bc 0c72 263d 54b3 6ebe
00000150: c459 4b3d 5929 cd3d f0d4 153e 785a 8bbc
00000160: 3b4b 68be 0419 68bd bd5e 503d b77c 50be
00000170: 3504 6d3e ba8d 173d 9261 013e 8878 7abe
00000180: 5264 fc3d bb55 553d ab16 5c3e a354 5cbd
00000190: d2b2 e1bd f693 ab3d 342e 49be 48f6 fcbd
000001a0: c888 e2be 012f 0cbe 0038 023e b7cd e8bb
000001b0: 86f6 f63d c30a a8be a43a a0be 85a5 f6bd
000001c0: 4f69 643c 19a0 423d f519 033e a39a 633e
000001d0: a89e b7bc 3cb4 ba3c 7f0c 09be 60c1 0b3e
000001e0: 6299 df3e 69b6 8bbe 805d 513f 168e cd3e
000001f0: d67c 78bd 8037 acbe 814a b53e da72 573e
00000200: 335b 933e 6947 7e3e 782b 90be f23d 813e
00000210: 4979 54be f2bf ecbe 8ac9 a3bc 3ea1 bbbe
00000220: 0cb0 d43e fd66 24be 9edd c93e 862d 69bf
00000230: e115 e1be 2392 81be 86a3 6cbe 2e06 933c
00000240: 3332 8dbe 66c2 6d3e 44e5 3b3e beb6 d5be
00000250: 965a 32be beeb 863e 9cca d7bb b1b8 89bd
00000260: 9407 4a3e fb80 533e 73e3 a8bd 207d c5be
00000270: 68f6 283e 97ef e73d 6b68 793e bd0a 423e
00000280: 0a4a 84be 3f64 c63c 3d6d 8bbe a570 61be
00000290: 392f 57be 0099 5abd db82 9f3d b243 85bd
000002a0: 3f2d 263e 22ef c1be 6f74 4ebe 9788 4a3c
000002b0: a4c8 e73d f8b5 853e 092a 68be 1d6e b63c
000002c0: 5660 4bbc 96e3 43be a9d4 abbd a983 0a3e
000002d0: e12e 90bd fa07 a73c 1312 0a3e 1b81 cb3d
000002e0: 485f f43c 87cd 70be 9cc6 683d 9d0e 393e
000002f0: ff54 6b3e 9117 4b3e 4b56 37be 9563 a73d
00000300: f965 08be 50d1 d0bd cc7c 55be f6e1 2ebe
00000310: 51d9 273e 25bc 29be e4fb 2f3e 39b8 f1bd
00000320: 99d3 ddbd 980f a9bd b99e 11be 3a6b acbd
00000330: f18a 15be 0986 5c3e 6e96 173e 32b9 5abd
00000340: 1111 71be 1ef2 47bd 7c2b 873d 3498 7bbe
00000350: 7f3b fe3d b905 ec3d e413 c0bd 36f0 8dbd
00000360: f0a5 f23d fb53 0a3e e7dd 223e 2dc4 d43d
00000370: 5591 62be e74c f23d ca84 213e 7c79 40be
00000380: 6f79 65bc 4df9 883d 8959 b93d 9182 6cbe
00000390: 64da fc3d ae5a e3bd 4092 d7bc ca01 c4bd
000003a0: c73a 89be 39d6 ecbd acba d23d 0887 1b3e
000003b0: 9445 663e 2ca1 48be 54c1 43be 2ab2 773e
000003c0: 79a0 a33d 1bdf e1bd 070c 33bd c5e9 ab3e
000003d0: d568 2ebe 8571 d0bd 7f40 da3d 76b8 323e
000003e0: 9928 4f3e b7fe 443e 5da6 0cbe 101e 8c3e
000003f0: 8dde 77be 1e22 aebe 7d42 3dbe a7da e7bd
0.21981506 -0.17329597 0.06244074 0.21143776 -0.19023146 -0.12156941 0.25571477 0.17504025
0.20687945 0.16149938 -0.22191595 0.06492222 -0.075490475 -0.34429762 0.14637706 -0.03694336
0.39661437 -0.24766766 0.28298056 -0.10900514 -0.1837771 -0.18154642 -0.09333351 0.051675715
-0.059964273 0.20598388 0.21441424 -0.053141847 -0.37938184 0.32880253 0.21699387 -0.024399552
0.016755588 0.1995998 -0.15568866 -0.09902274 0.15760583 -0.031071104 0.17441334 0.056824405
-0.1571874 0.16003987 -0.1783936 -0.23355648 -0.22967543 -0.23170543 0.13733932 -0.20225225
0.15724461 -0.15210451 -0.10195631 -0.16469778 -0.21386527 -0.025244566 -0.15525016 0.19787413
0.23146275 -0.2794886 -0.24081162 0.2598551 0.09740622 -0.072627485 -0.011221594 0.14108768
-0.11606698 -0.14251824 0.084995955 0.18476245 0.099421255 0.077150375 0.014644043 0.13408674
-0.39127025 -0.14602838 -0.4109964 -0.044639118 0.22659487 -0.069373496 0.11289966 0.29891863
-0.04547576 -0.024363518 0.040636107 -0.23310596 0.049646154 0.10017652 0.1463201 -0.017010912
-0.22684948 -0.05666448 0.0508716 -0.20360075 0.23146136 0.037000395 0.12634876 -0.24460042
0.12323822 0.052083712 0.21493022 -0.053791653 -0.110204354 0.08377831 -0.19646531 -0.12351662
-0.4424498 -0.13689806 0.12716675 -0.0071046012 0.12058739 -0.3282071 -0.3129474 -0.12043289
0.013941123 0.047515962 0.1280287 0.22226958 -0.02241452 0.02279102 -0.13383673 0.13647985
0.4367171 -0.27287605 0.81783295 0.40147465 -0.060665928 -0.33636093 0.35408404 0.21039906
0.28780517 0.24831928 -0.28158164 0.25242573 -0.20749392 -0.46240193 -0.019993562 -0.36646456
0.41540563 -0.16054912 0.39426893 -0.9108509 -0.43962005 -0.25306806 -0.23109254 0.017947283
-0.2757736 0.23218688 0.18349177 -0.41740984 -0.17417368 0.26351732 -0.006585432 -0.0672468
0.19729453 0.20654671 -0.082465075 -0.38572025 0.16500247 0.11324995 0.24356239 0.18949409
-0.25837737 0.024217723 -0.2723178 -0.22015627 -0.21014108 -0.05336857 0.077886306 -0.065070525
0.16228198 -0.37877756 -0.20161603 0.012361667 0.11317566 0.26115394 -0.22672285 0.022269303
-0.012413105 -0.19129786 -0.08390171 0.13526787 -0.070401914 0.020389546 0.13483457 0.09936734
0.02983059 -0.23515902 0.056830034 0.18071981 0.22981642 0.19833209 -0.17904012 0.08173291
-0.1332015 -0.10196173 -0.20848387 -0.17078385 0.16391493 -0.16575678 0.17185932 -0.11802716
-0.10831375 -0.082549274 -0.14220704 -0.08418889 -0.14603783 0.21535505 0.14803478 -0.053399272
-0.23541667 -0.048814885 0.06600091 -0.2456978 0.12413692 0.11524529 -0.09378794 -0.06930582
0.11848056 0.13508599 0.15904962 0.1038898 -0.22125752 0.11831074 0.15773311 -0.18796343
-0.014006003 0.06688175 0.090502806 -0.23096682 0.12346342 -0.1110128 -0.026314855 -0.09570654
-0.26802656 -0.11564297 0.10289511 0.15188229 0.2248748 -0.19592732 -0.19116718 0.24189058
0.07989592 -0.11028882 -0.043712642 0.3357679 -0.17032178 -0.10177902 0.10656833 0.17453179
0.2023033 0.19237791 -0.13735338 0.27366686 -0.2420599 -0.34010404 -0.18482395 -0.113210015

arith.constant4 f4 [30]
00000000: 9764 47bc d3dd ccbc e971 1c3e a94e 81bd
00000010: 93d3 b53d bf63 ebbc 4219 04bd 978c 4dbd
00000020: 8fa7 a0bc 7d8f afbd b34c 2fbd 59ad 96bd
00000030: 56fc 1ebc fb6c 24bc 9cd0 903d 02db 34be
00000040: 7ad2 2dbd 531f 8dbd 3665 75bd 21ef 82bd
00000050: 501f 4d3d a6a7 03bd 6b37 c6bd c946 f1bc
00000060: a674 bd3d fa93 6dbd 1c33 1e3d 073d 70bd
00000070: 86c5 33bd 5cd2 1bbd
-0.012169979 -0.025008118 0.15277828 -0.06313831 0.08878245 -0.028734086 -0.03225065 -0.050182905
-0.019611148 -0.0857229 -0.042797755 -0.07357282 -0.009703716 -0.010035749 0.07071039 -0.1766167
-0.042437054 -0.0689074 -0.059910975 -0.063932665 0.05007869 -0.032142304 -0.09678539 -0.029452698
0.092507645 -0.05800245 0.03862296 -0.05865195 -0.043889545 -0.03804241

arith.constant5 f4 [30]
00000000: 8ad1 5e3e 6517 2cbe fbda 06bd 43ac ea3d
00000010: f2fb abbd 836c afbd 1e2b 513e a625 713e
00000020: eef0 533e 6f92 2b3e 2188 44be de1a 773e
00000030: 838c cfbd e502 d0bd 8304 a7bd d0a9 cfbb
00000040: 607d 123e 9172 1abe c7dc 9d3e b381 0bbd
00000050: 6828 d4bd 74d9 3fbe 1803 72be deb7 35bd
00000060: b3f7 acbc d48b 413e 7d59 3b3d b846 73be
00000070: efdc febd 10cf 253e
0.2175962 -0.168058 -0.03292368 0.114586376 -0.08397664 -0.08565619 0.20426604 0.23549518
0.20697376 0.16755079 -0.19192554 0.24131343 -0.10134222 -0.10156802 -0.081551574 -0.006337382
0.1430564 -0.15082766 0.30832502 -0.034059238 -0.103592694 -0.18735296 -0.23633993 -0.044364803
-0.021114206 0.18900996 0.04573964 -0.23757446 -0.124444835 0.1619227

arith.constant6 f4 [30]
00000000: 1d11 923f 2187 8f3f cce6 553f 2354 8d3f
00000010: 11d0 653f 0875 8d3f 385d 933f 6997 893f
00000020: 0be6 933f a862 843f c522 933f 5ce3 923f
00000030: 8537 8a3f 554b 953f 764b 793f 38bf 523f
00000040: cde3 903f 6db8 8f3f 59d6 953f 4cc9 563f
00000050: e524 873f 5120 923f 35c9 963f 597f 583f
00000060: 9714 913f 7b45 913f da42 663f f58a 953f
00000070: 62bc 7d3f 10a5 893f
1.1411473 1.1213113 0.83555293 1.1041301 0.8977061 1.105134 1.1512823 1.0749332
1.1554579 1.0342607 1.1494986 1.1475635 1.0798193 1.1663615 0.9738077 0.82323027
1.1319519 1.1228157 1.1706039 0.83900905 1.0558134 1.1416112 1.1780154 0.8456932
1.1334409 1.1349329 0.8994576 1.1683031 0.99115574 1.0753498

arith.constant7 f4 [30]
00000000: 1635 673e 0d9d 3e3e a3d9 293e bba2 aa3d
00000010: 6239 693e f6fd 983d 51d2 253e 52e3 203e
00000020: b5a3 573e 82ab 333e b9d9 5c3e 8014 5d3e
00000030: 5577 8b3d 67cd eb3d 5c5a 7a3d f330 29be
00000040: b912 313e 2aef 083e 8a13 663e 7403 8ebd
00000050: 2231 b63d 5938 423e 31a3 893e 87a7 9c3d
00000060: 1b51 8e3e 655e 2d3e ef0b 863e dcb8 893e
00000070: 1e56 053e 2bfb 213e
0.22578844 0.18614598 0.16586928 0.083318196 0.22775796 0.07470314 0.1619351 0.15711716
0.21058543 0.17545894 0.2156743 0.21589851 0.0680987 0.11513787 0.06112133 -0.16522579
0.17292298 0.13372484 0.22468391 -0.069342524 0.0889609 0.18966807 0.26882318 0.07649141
0.27796254 0.1693054 0.2618098 0.2689885 0.13021132 0.15818469

arith.constant8 f4 [30, 60]
00000000: 8e53 cabd 64d2 e7be 0d39 8dbb d6b0 3dbe
00000010: b7fa d53d 7a20 47be ce6d 743d 8c3c a33d
00000020: 6259 5e3e 1211 163e a456 013d 31f6 43be
00000030: 2dc4 02be f494 04be 5dd8 e8bc c6c9 6cbe
00000040: 6191 733e 8324 213e 1391 3c3e f108 57be
00000050: 9b76 143e cb63 8a3d 6c48 db3d acc0 e1bc
00000060: f441 a63d 9cbb 2cbf 2e66 843b 773e 64bd
00000070: d5e9 823c 1092 5d3e 28db 5dbd ba0d 3fbe
00000080: 4ed8 213e 74c9 49be e356 e83d ecb4 a0bd
00000090: c706 80bc 2b1d 5cbe 320a d73d a3da 593d
000000a0: 21c7 8e3e 669c 83bb 56fd 3ebe 016a 6bbe
000000b0: c626 86be 4761 97bd 5bfb bf3d e11f 37bc
000000c0: 2c63 223d 5239 c3bd 41cf 89be 4648 87be
000000d0: e104 31bd 08cf ecbd bf49 82ba a1e1 0fbd
000000e0: 40ed 9b3a d874 6f39 e7bd 783c 0aac 6a3e
000000f0: 4a7e 13bb 79f7 16bf 350d 3a3e e219 cdbd
00000100: c0a4 193e 6266 97be 09f1 263d bcb5 33bd
00000110: 8bb3 4e3e 6af0 3b3e c8da 883e 4fdc 90be
00000120: da61 3ebe 9961 23be 878c 28bc 0670 5fbe
00000130: 7c9e 6a3e 12f1 1f3e e705 b33d 2543 57be
00000140: e349 463d 3f7d 9abd 1ebd 2d3d dba3 c33d
00000150: 7947 a93b df97 3bbf 5f76 183c b1b0 0dbe
00000160: f6c5 debc e812 383e 8b0a 0d3d b6d0 eebd
00000170: f8c6 023e 1f62 a5be f6ae 5d3d f538 83be
00000180: 6dcd 02bc 09d1 86be 5faa 533e ea47 b23d
00000190: 1be8 7e3e fdcf 10bd dc04 14be 1417 6ebe
000001a0: bb31 a7be 9d0c 5fbe 237b 7e3d 1b7b a3bd
000001b0: f6f6 183e 882f d73d 69ad 87be 06f9 b9be
000001c0: c0b6 563d 7cd2 cabe 981b 673a a49a 30bd
000001d0: d49d a83a ee2b 793a 4a72 78bc 45b0 383e
000001e0: 01e4 b93c fc27 773e 3a67 f93c 6942 4abc
000001f0: d036 113c 4e7c 853e 1982 903c c9a0 54bd
00000200: de85 1ebd 4b1e 0cbb 6e92 f03c 42ff 873b
00000210: 4626 83bb b536 753d 7911 90bc f7fa 233e
00000220: ce20 733c 0300 733c 52bf 1ebe a000 353e
00000230: 8909 ef3c 7328 19bc d6d2 003d 4370 a63d
00000240: 019b 913c f7ed 1abd e435 41bd af94 96b8
00000250: ad92 98bb 43e5 47be 6996 513c d839 0dbc
00000260: bcc5 b53c ffad 9ebc c9a8 a3bc 2db1 93bd
00000270: 080b d5bc 10e9 673c e090 55bb 699e 47bd
00000280: bacc 34be de46 063d 137e 583c 5db5 753e
00000290: ecd8 213b 456e a5bc 33b9 fbbc dd6d abbc
000002a0: 24c1 913c f2bb edbc 23ae 4f3e 3cf9 543e
000002b0: 7200 333a c33e e5bb a70b 373b 4f67 dc3c
000002c0: 571c c23b 28f5 e0ba 49a8 a83b 4a1a 80be
000002d0: de29 c93a 7fd5 a63e 6e3a a8bd e59c 9e3d
000002e0: 5992 16be f5ff 363e 1ecf eabd b44c 0d3d
000002f0: 16f2 7dbd 0ec0 14be ca55 f0bd 34bb 173e
00000300: 97ae 853d 7d09 503d bf1d 4b3b 3888 1b3e
00000310: 23ac 15be 851b aebd 7411 11be 0585 5a3e
00000320: 0cd7 aeba c5b4 b7bd e9d0 11bd 130a 03be
00000330: a93c 0fbd b4f2 6c3e de56 69bd 7a82 813d
00000340: 85a8 ac3d 86b5 1ebe a68b 99bd 3539 2f3e
00000350: d37f 61bd bd0b 273e e227 88bd bc40 d33d
00000360: a634 0e3e 345b 633d 3961 8abd b0f3 2ebd
00000370: bed9 20be 26e4 11ba 0bb2 ce3d ba77 093e
00000380: 0467 303e b108 283e f891 09bd edc3 c33d
00000390: c6ac 58bd 9af8 4f3e 14af 063e 83a7 db3d
000003a0: 4034 2abd a6f6 033e a72e a53a fcad 1abd
000003b0: 468a 9a3b 7e3d b83a 83bf 1dbc 4624 90be
000003c0: 2974 adbc 9767 10be 5a80 cd3d f273 cdbd
000003d0: df0b d73d a9ac f2bc 3040 6cbc c306 7abd
000003e0: 6e39 4f3d ea45 c43c f8d8 483d 436f 5ebe
000003f0: ee0e f0bd 1fc3 ca3d 665e dcba 12f3 e73d
-0.09879218 -0.45277703 -0.0043097795 -0.18524489 0.10448211 -0.19445983 0.05967503 0.07970533
0.21713784 0.1465495 0.031576768 -0.19136883 -0.12770148 -0.12947446 -0.028423483 -0.23123845
0.23785926 0.15736584 0.18414716 -0.20999505 0.1449837 0.06757315 0.10707173 -0.027557693
0.08118048 -0.6747377 0.004040501 -0.055723634 0.01598064 0.2163775 -0.05416408 -0.1865758
0.1580517 -0.19705755 0.11344697 -0.07847008 -0.015628232 -0.21495502 0.104999915 0.053187024
0.27886298 -0.004016447 -0.18651327 -0.22989656 -0.26201457 -0.07391601 0.09374114 -0.011177034
0.03964536 -0.09532417 -0.26915935 -0.26422328 -0.043217544 -0.115629256 -0.0009940191 -0.035127286
0.0011896268 0.00022836344 0.015181995 0.2291719 -0.0022505694 -0.58971363 0.181691 -0.100147024
0.15004253 -0.295703 0.040757213 -0.043874487 0.20185678 0.1835343 0.26729417 -0.28293082
-0.18592015 -0.159552 -0.010287411 -0.21820077 0.2291202 0.15619305 0.0874136 -0.21021707
0.048410308 -0.0754342 0.042416684 0.09552737 0.005165991 -0.7327861 0.009305566 -0.13836934
-0.027194005 0.17975962 0.034433883 -0.11660902 0.12771213 -0.32301423 0.054121934 -0.25629392
-0.007983548 -0.26331356 0.2067046 0.08705123 0.24893229 -0.035354603 -0.14454979 -0.23250991
-0.3265513 -0.21782155 0.06212915 -0.07982465 0.14937958 0.10507113 -0.2649949 -0.36322802
0.052420378 -0.39613712 0.00088160625 -0.043116227 0.0012864419 0.0009505142 -0.015163967 0.18035991
0.022691729 0.24136347 0.03044473 -0.012344935 0.008863166 0.260714 0.01764016 -0.05191115
-0.038701884 -0.002138036 0.029366698 0.004150302 -0.0040023653 0.059866626 -0.017586457 0.16013704
0.014839364 0.014831546 -0.1550267 0.1767602 0.029179351 -0.009348023 0.03145107 0.08126881
0.017774107 -0.037824597 -0.047170535 -7.180252e-05 -0.004656157 -0.1952105 0.012792208 -0.008619748
0.022189014 -0.019370077 -0.019977944 -0.07211528 -0.026006237 0.0141546875 -0.0032587573 -0.048735056
-0.17656222 0.032782428 0.013213652 0.23994966 0.0024695946 -0.020194182 -0.030727958 -0.02092641
0.017792292 -0.029020283 0.20281272 0.207982 0.00068283745 -0.006996007 0.002793053 0.02690473
0.0059237885 -0.0017162906 0.0051470143 -0.25020057 0.001534756 0.3258476 -0.082142696 0.07744769
-0.14704265 0.17871077 -0.11465286 0.034496978 -0.06199845 -0.14526388 -0.11735113 0.14817506
0.06527441 0.0507903 0.0030993072 0.15188682 -0.14616446 -0.08501343 -0.14166814 0.21339805
-0.0013339235 -0.08970026 -0.035599623 -0.12796812 -0.03496996 0.23139459 -0.05696761 0.063237146
0.0843058 -0.15498933 -0.07497339 0.17111667 -0.055053543 0.16313072 -0.06648232 0.103150815
0.13887271 0.0555069 -0.06756825 -0.042712867 -0.15708062 -0.0005565308 0.10092553 0.13424578
0.17226797 0.16409566 -0.033586472 0.09558854 -0.052899145 0.20309678 0.13152725 0.1072531
-0.041553736 0.12887058 0.0012602404 -0.03776358 0.0047161905 0.0014056412 -0.0096281795 -0.28152674
-0.021173554 -0.14102016 0.10034247 -0.100318804 0.10500311 -0.029623346 -0.0144196 -0.061041605
0.05059188 0.023959119 0.049035043 -0.2172213 -0.117215976 0.09900498 -0.0016812801 0.11325659

arith.constant9 f4 [30, 60]
00000000: e62b 183c 48cb 653c da7b 503c df6e 24bc
00000010: 0720 3c3c 5055 9b3c dd70 1c3c 8fe7 81bc
00000020: 1008 003a 501c d13b 6441 2c3c 1391 3bbc
00000030: 4900 2dbb aedb f53b f059 f9bb dc0e c43a
00000040: 3d88 573c fa93 1c3c 07d8 f8bb b163 ea3a
00000050: 20e2 623c 7ff7 233c 4dbe 153c 9e5a 433d
00000060: afe2 b93b b27e d0b9 3a95 543c 7f61 53bc
00000070: 2096 60bc 07a7 91bc 5401 843b 5573 2cbc
00000080: b02d 813c 8691 54bc 2ed6 5e3b a04e a03a
00000090: e874 64bc 0291 66bc 43b1 793c d566 1f3c
000000a0: f73e 31bb f5f7 f23b 8650 5abc b780 503c
000000b0: 45af 69bc 05d1 80bc 3bc0 ddbb ba75 12bc
000000c0: 9d36 843c af5c 08bd 55b9 ee3b c440 f13c
000000d0: 4e09 08bb 0d8f 88bc d01a 42ba c847 fe3b
000000e0: 1306 263b 5406 9eb9 b149 543a 54fe 5abc
000000f0: 084a 94bd 2b51 26bd a82e e1bc 74e0 a63c
00000100: 8281 debc 30c7 32bd 0e72 5aba cd90 ae3d
00000110: 85dc b3b9 b8af a2bc fa11 b1bc 0c63 d73c
00000120: dd66 b73b 621a 3dbc 0e9a a33c ce5e 74bc
00000130: 087a c9bc 154c 9cbc 81b8 b63c d664 7fbc
00000140: ec0e 95bd 27e6 efbc 9cef 11bd 1d88 cdbd
00000150: 9405 a1bc 9499 8f3b e1a8 1dbc 73e1 833d
00000160: 529f d23c 9301 1d3d 3d70 6dbc a50d c03c
00000170: 3789 54bd 85c3 ea3c 4565 3dbc bc53 29bb
00000180: 4bf6 e53c c227 ae3c b849 15bd 0668 c4ba
00000190: 90c5 423c 805c 7dbc 13db 073d 9600 09bd
000001a0: 5710 9b3c 223f c43c 4505 4c3c a8f6 b03c
000001b0: 92e4 7ebd 9867 8c3d 5793 d5bc ba75 58bd
000001c0: 09b0 c13b 0338 5a3d f894 313a 2263 41bc
000001d0: ddf4 5bbb 1a15 ba38 c274 78bc c1a6 013d
000001e0: 2f00 9ebb 3ec7 0b3f 1ab6 8abd 5a27 673e
000001f0: 7d4d 10be aabe 913e 0186 1ebe 9c38 b73c
00000200: 63d8 0cbe 6e89 6abe bfcb 35be 19af 5a3e
00000210: 3995 0c3e 778c a73d 9126 693c b3d4 653e
00000220: 1742 72be 4da5 57be 57c6 a9bc a817 ae3e
00000230: 0bf5 afbd 717f 42bd 6f4f e43b ee5d c9b9
00000240: 87b1 39bd d002 503e 5cea d1bd 613e aa3c
00000250: dbea 0d3e 70bd 72be 6c38 c33c 5605 513e
00000260: 95e0 7fbe b3b7 703e 2f46 2ebd 2ff9 aabc
00000270: 671b 923b fc4c 6a3e 83ea 0abe 9408 1bbe
00000280: 87d4 f4be 396b 97bc 01f2 813e 1272 533e
00000290: d39b 913e 5dda 7c3e 4ea5 88bc 7962 013e
000002a0: 7a4e d0bd 8cbb 243d 0836 863e 6a56 ab3e
000002b0: 2743 fbbb e2d5 8d3e 4602 ac3b e831 8b3b
000002c0: b9c1 843c 9785 a5b9 cfd1 423c 0996 82be
000002d0: 391f 413d 349c c73d 67ff 3f3d f5b3 d439
000002e0: f316 5d3c 4129 963d 65aa 383c 6d67 11bc
000002f0: 76db beb8 fee6 143c ab4e f53b 3c84 79bb
00000300: 1072 a9ba 965e 213c 7f10 a7bc 5058 1e3d
00000310: 625a d43b f427 953c 6937 3bbd ec82 1a3d
00000320: 1871 ed3c de46 353d 3cf2 573c 494d 303d
00000330: 2c36 aa3c 6ccd 883b d6aa 93bc 8b97 ddbb
00000340: 266c 31bd 871b a3bd f29e 133c 8aec c4bc
00000350: 491e 063d 8918 6abc 4de2 9b3c 1fb5 22ba
00000360: 7d26 77bd f7b4 d7bc b161 6a3c e99f 133a
00000370: 96d7 04bd 0aa9 2e3c c85b 20bc 941b af3d
00000380: 068c 42bc ea10 343c 9647 3abd 1ca9 3ebc
00000390: f27c 433d 5ac1 73bd 379e a53d 8703 de3d
000003a0: 8185 cfbb b77b 413c 9654 45ba 1a41 893c
000003b0: de9f 023c 681b 7fb6 fba8 e9bb 2159 8bbd
000003c0: 0665 60bd 13ea a53e 11ff a9bd feac 753e
000003d0: c838 25be 94a7 843e 2d84 16be aff4 ac3d
000003e0: 5031 14be e4ee 64be ce5f 68be 0c02 603e
000003f0: 470b 053e e9f0 5d3c 13ca 383d 70cf 6d3e
0.00928781 0.014025517 0.012724841 -0.010036199 0.011482245 0.018961579 0.009548393 -0.015857486
0.0004884014 0.006381549 0.010513637 -0.011448163 -0.0026397875 0.0075029945 -0.0076095983 0.0014958042
0.01315504 0.009556765 -0.007594112 0.0017882494 0.013847858 0.010007738 0.0091396095 0.04769384
0.0056727747 -0.00039767247 0.0129750315 -0.012901663 -0.013707668 -0.01777984 0.0040284786 -0.010525544
0.015768856 -0.012974149 0.0034002173 0.0012230463 -0.013943888 -0.0140726585 0.015240016 0.009729107
-0.0027045587 0.0074148127 -0.013324862 0.0127260005 -0.014262979 -0.015724668 -0.0067673004 -0.008939201
0.016139323 -0.033291515 0.007285277 0.029449828 -0.00207575 -0.016669774 -0.0007404508 0.007760022
0.002533321 -0.00030140823 0.0008098139 -0.013366301 -0.07240683 -0.04060475 -0.027488068 0.0203707
-0.027161364 -0.04364699 -0.00083330355 0.08523712 -0.0003430584 -0.01985918 -0.021615017 0.026292346
0.005596979 -0.011541935 0.01997092 -0.014915181 -0.024594322 -0.019079247 0.022304775 -0.015588006
-0.07278237 -0.02928455 -0.0356289 -0.10035727 -0.01965598 0.0043823216 -0.009622783 0.064394854
0.025710735 0.03833158 -0.014492092 0.023444006 -0.05188867 0.028657684 -0.011559789 -0.0025837263
0.028071543 0.021259192 -0.036447257 -0.0014984615 0.011887923 -0.015463948 0.03316791 -0.033447824
0.01892869 0.023955885 0.012452428 0.02160199 -0.0622297 0.068556964 -0.026071234 -0.052846648
0.0059108776 0.053276073 0.0006774212 -0.01180342 -0.0033562698 8.8731016e-05 -0.015164556 0.03165317
-0.004821799 0.54600894 -0.06773014 0.22573605 -0.1409206 0.28465778 -0.15480806 0.02236586
-0.1375442 -0.22903988 -0.17753504 0.21355857 0.13728799 0.081810884 0.014230386 0.2244442
-0.23658024 -0.21059151 -0.020724459 0.34002423 -0.0859166 -0.04748482 0.006967477 -0.0003840769
-0.04533532 0.20313573 -0.10249779 0.020781698 0.13859122 -0.23705077 0.023830615 0.20412192
-0.24988015 0.23507576 -0.0425474 -0.020870773 0.004458833 0.2288093 -0.13566022 -0.15139991
-0.47818395 -0.018483745 0.25379947 0.20648983 0.28439197 0.24692674 -0.016680386 0.1263522
-0.10171218 0.04021792 0.26213098 0.33464366 -0.0076679173 0.27702242 0.0052492945 0.0042478926
0.016205655 -0.00031570785 0.011890843 -0.25505093 0.047148917 0.0974659 0.04687443 0.0004056987
0.013494241 0.07332087 0.011271094 -0.008874756 -9.100784e-05 0.009088276 0.0074861846 -0.0038073203
-0.001292767 0.009849211 -0.020393608 0.03865844 0.006480501 0.018207528 -0.04570714 0.037722513
0.028984591 0.044257037 0.013180312 0.043042455 0.020777784 0.004174879 -0.018025797 -0.00676245
-0.04331603 -0.07964235 0.0090100635 -0.024038572 0.032743726 -0.014288076 0.019028807 -0.0006206799
-0.06033944 -0.026331408 0.014305518 0.00056314335 -0.03243216 0.010660419 -0.009787507 0.08550182
-0.0118742045 0.010990361 -0.045478426 -0.0116369985 0.04772658 -0.059510566 0.08086818 0.108405165
-0.0063330536 0.011809281 -0.0007527558 0.016754676 0.007972686 -3.8013914e-06 -0.0071307397 -0.06804109
-0.054783843 0.32405147 -0.08300603 0.23991773 -0.16134942 0.25909102 -0.14698859 0.08445107
-0.14471936 -0.22356755 -0.22692797 0.21875781 0.12992583 0.013546207 0.045114588 0.23223662

arith.constant10 f4 [30, 60]
00000000: 5eb4 2d3a 0ac6 c0bb 453e 543a 704e 6eba
00000010: e27c 1e3a 5a5f 263b 625e 903a 63a1 e0ba
00000020: 5a10 bf38 21c8 2039 06ef 803a 725b 30b9
00000030: 6c3f b9b8 fdd2 113c 40d5 66ba 5645 b03a
00000040: dfb6 7b3a 4e95 9339 7e96 89ba 99e0 45b9
00000050: 7078 913a f4e2 263a 2d7e 523a 9ea3 3c3b
00000060: 81d0 213a 3508 d8bb 9522 ab3b 816f e0b9
00000070: 9898 a3ba 3d69 12bb 4cbe 6e39 b6ca 34ba
00000080: da5e cd3a d782 5ab9 2b48 ce38 a0f1 f138
00000090: 2531 4dba 4b84 1db9 19d1 373a 6c33 a83b
000000a0: 418e 9839 cf3a 913a a096 d1b9 87c3 053b
000000b0: aa12 8db9 ec21 c1b9 9aa4 2039 110e 42ba
000000c0: a8be 8a3a cb5f 89ba 8c37 913a 7ee7 463b
000000d0: faa1 86b8 a2ac 9fb9 7fef d5b7 9259 283a
000000e0: d0a8 c934 3fe1 48b9 4a25 20b9 5e82 8abb
000000f0: 3ca5 f539 c1a1 c03b 011c 8b3a 2420 57ba
00000100: f875 8839 5b72 a33b f775 8b3a 45fc cebb
00000110: f0fd 11b9 9f75 b038 9dfa d239 a3d4 143a
00000120: 647a 8939 92fe a03b 839b 77ba 7280 443b
00000130: 4b51 d3b9 6439 0fb9 08c0 0bbb fd73 073b
00000140: 228f ef3a bbbc 8c3a 577d 853a a9a4 033c
00000150: 3b0f 303a 2fd3 8bbb 9884 403b 7639 b0ba
00000160: 1e38 adba 5a10 60bb 0b95 6439 6196 16ba
00000170: 2383 ad3a b838 e6b8 070d 7639 d36a 7a38
00000180: 5501 93ba 057a 6bb9 17ac 883a 2323 413b
00000190: 4b59 e0ba 657b 743a 577e c0b9 6a3a 853b
000001a0: f34a dfb8 473e 09ba cd60 d6ba e909 cbb9
000001b0: 5ef6 aa3a 9829 efba 2a65 433b a723 b93b
000001c0: 35e1 b5b8 bc84 aeb9 daf6 5a37 f6dc 303a
000001d0: 1c4f 0739 d000 00b9 4654 52b8 942d 9ebb
000001e0: 452d a1ba 2dfe 0f3e 9d97 a5bb 9233 4d3c
000001f0: 6204 8cbb b29a 0c3d d87f cdbb 9d9d ad3b
00000200: d395 293c 2f97 293b 78b9 47bc b6cc 3b3c
00000210: 72b3 09bc 1f53 05bd c14c 8ebb 2227 ff3c
00000220: bb7e 0bbd 1644 9fbc 1caa 1cba 0a98 083d
00000230: 74a4 bcbb ff1f 0fbb 3d86 033c 8415 71bd
00000240: d52a 29ba 17a6 133e 5ad4 05bd a714 80b9
00000250: 5dfa e53b 76e4 03bd 229d 853b 7a84 943b
00000260: e5dd 1abd 79d7 483c 2169 b53a 8c23 b2bc
00000270: 87a0 11bb 680c a13c c977 e4bb 872c 2bbd
00000280: 8173 cabd 7c7e 2b3b 049c bd3c 5727 f73c
00000290: cd2e 9e3c 8f26 aa3c ad74 3bbc 0350 3f3b
000002a0: 6312 ccba c169 eb3b b251 1e3d ba7f 173c
000002b0: e202 bfba 5863 003d d4a2 6d3a 8479 ca3b
000002c0: 0c0c a43b 784a 3bba bc82 273b 05c5 1ebd
000002d0: 570f c539 c118 73b9 8200 d239 e75d 45ba
000002e0: c3da 5e3a c15c 753b 264e 2e3a a6e9 b8ba
000002f0: 8825 0339 3c05 553a ad01 5f3a da55 a0ba
00000300: 2431 dcb9 7dd3 f1ba 5863 d7b9 ac56 213a
00000310: 2122 c63a 6ccc e73a def9 9bba 04ee 4bba
00000320: dd14 f63a 4023 15b8 f0c7 c439 2398 1a3c
00000330: 8a5b 8bb9 187c 9f3a fa5a 39bb 5004 aeba
00000340: 38ab 69ba 683f bdba 2506 c538 5ae8 ccba
00000350: a517 e53a 9c4f 0cbb 2722 07b8 e16b 8338
00000360: a52d 00bb a35b f3ba 5e1f 2c3a 4773 86ba
00000370: 7b46 ad3a 25d9 b938 a293 01bb fe76 353b
00000380: 8644 9bba db3d b5ba 6c7a e9ba eb13 8eb9
00000390: fe28 0d3b a1eb 2e3a 9175 fd3a 4da5 b23b
000003a0: f020 b8b8 751a 44bb 940a 4837 b041 2339
000003b0: 29bb 8538 4052 7738 1c56 0839 0195 01bb
000003c0: d000 a93c 2128 de3b 1f2f e13c d636 f6bc
000003d0: 98c9 723c d2d5 e33b 018a c03c 2476 e4bc
000003e0: 0c0e adbc a8c2 88bb 99ea be3c ed58 34bc
000003f0: 9c77 01bc 9414 853d 20c8 f8bc a563 d93d
0.0006626303 -0.005882983 0.0008096437 -0.00090906676 0.00060458307 0.0025386424 0.0011014456 -0.0017137941
9.1106354e-05 0.00015333343 0.000983686 -0.00016818734 -8.833301e-05 0.008900401 -0.00088055804 0.0013448398
0.000960214 0.00028149266 -0.0010497121 -0.00018871053 0.0011098515 0.0006366216 0.0008029666 0.0028784047
0.0006172732 -0.006592775 0.0052226284 -0.00042807686 -0.001248139 -0.002234056 0.0002276834 -0.00068966614
0.0015668527 -0.00020838842 9.836288e-05 0.00011536782 -0.00078274525 -0.0001502197 0.0007012054 0.005133083
0.00029097687 0.0011080148 -0.0003997581 0.0020410733 -0.00026907522 -0.00036837102 0.00015320108 -0.0007402609
0.0010585384 -0.0010480819 0.0011079176 0.0030350382 -6.4197884e-05 -0.00030455465 -2.5503103e-05 0.00064220384
3.7561995e-07 -0.00019157397 -0.0001527268 -0.0042269668 0.0004685315 0.0058786576 0.0010613204 -0.00082063884
0.00026027835 0.0049879975 0.0010640015 -0.006316694 -0.00013922877 8.4142426e-05 0.00040241043 0.00056774373
0.00026221864 0.0049131596 -0.00094454753 0.0029983786 -0.00040305624 -0.00013658922 -0.0021324176 0.00206685
0.001827691 0.0010737398 0.0010184449 0.0080348635 0.00067161367 -0.0042671184 0.0029375907 -0.0013444859
-0.0013215577 -0.0034189434 0.00021799297 -0.0005744454 0.0013237934 -0.00010977819 0.00023465241 5.9704133e-05
-0.0011215607 -0.00022456802 0.0010427263 0.0029470406 -0.0017116455 0.00093262485 -0.00036715224 0.0040658014
-0.00010647429 -0.00052354153 -0.0016355753 -0.0003872656 0.0013043394 -0.0018246649 0.0029814937 0.005650002
-8.672701e-05 -0.0003328676 1.3051287e-05 0.0006746793 0.00012904074 -0.00012207334 -5.0146387e-05 -0.0048272107
-0.0012296817 0.14061804 -0.005053474 0.012524502 -0.0042729834 0.034327216 -0.0062713437 0.00529833
0.010350662 0.0025877466 -0.012190215 0.011462381 -0.0084045995 -0.032549974 -0.004342646 0.03114659
-0.034056406 -0.019441646 -0.0005976276 0.03334812 -0.005756909 -0.002183914 0.00802761 -0.05885841
-0.0006453221 0.14418827 -0.032673217 -0.0002442945 0.007018371 -0.0322003 0.0040775696 0.004532394
-0.03780927 0.012258404 0.0013840535 -0.021745466 -0.0022220926 0.019659236 -0.0069722873 -0.04179051
-0.09885312 0.002616792 0.023145683 0.030170126 0.019309426 0.02077034 -0.011441392 0.0029191978
-0.0015569445 0.0071842377 0.03865213 0.009246761 -0.0014573003 0.03134474 0.0009065096 0.0061790366
0.005006319 -0.00071445806 0.0025560101 -0.03876211 0.00037586197 -0.00023183507 0.000400547 -0.0007528946
0.0008501226 0.003743932 0.0006649218 -0.0014107719 0.00012507115 0.0008126085 0.00085070246 -0.0012232617
-0.00041998283 -0.0018449869 -0.00041082012 0.0006154578 0.0015116372 0.0017684824 -0.0011900028 -0.00077793025
0.0018774528 -3.5557197e-05 0.00037532998 0.009435686 -0.00026580348 0.001216772 -0.0028282986 -0.0013276432
-0.0008913758 -0.0014438452 9.3948365e-05 -0.0015633211 0.001747836 -0.0021409756 -3.2218315e-05 6.266661e-05
-0.0019558456 -0.0018566739 0.00065659534 -0.0010257744 0.0013219857 8.861934e-05 -0.0019771834 0.0027689333
-0.0011845983 -0.0013827638 -0.0017812974 -0.0002709919 0.0021539326 0.00066726847 0.0019337406 0.0054518343
-8.779939e-05 -0.0029922996 1.1923392e-05 0.00015569362 6.3767955e-05 5.896599e-05 0.00013002049 -0.001977265
0.02063027 0.006779686 0.02748829 -0.030055445 0.0148185715 0.0069529796 0.023503305 -0.027888365
-0.021124862 -0.0041735955 0.023305224 -0.01100753 -0.007902052 0.064980656 -0.030368865 0.10614709
