Riproduzione/models/FD001/LSTMsmall/QUAD-QUAD/lstm_small_batch_1.tflite (tflite, 231356 bytes, 29 tensors)

sequential/dense_1/BiasAdd/ReadVariableOp f4 [15]
000000 69 58 5c 3d c0 fd 96 ba ab 17 00 bc c2 b9 2e 3d
       0.053795252 -0.0011519715 -0.007818143 0.04265762
000010 ae e9 17 3d 57 e7 3e 3d fa ff 01 3e e3 d1 66 bc
       0.03708809 0.04660734 0.12695304 -0.014088127
000020 4c 6b 84 bd b8 ab 1d bc cd 3d a4 bc 6b 7e 2e 3d
       -0.06465778 -0.0096234605 -0.020049 0.04260103
000030 3a de 38 3d e8 a5 b3 bc 12 e1 2e 3d
       0.045133807 -0.021929696 0.042695113

sequential/dense/BiasAdd/ReadVariableOp f4 [30]
000000 59 5f 33 3d 0e 5e 83 bb 9d 24 19 3d eb 8c 33 3d
       0.043792102 -0.004009015 0.037388433 0.04383556
000010 2f 1d 27 3e 89 7a 12 3e a7 ae 0d bc 6a 42 60 bc
       0.16319726 0.14304556 -0.008647597 -0.013687709
000020 e3 e5 3b 3d 40 23 8d ba 44 e7 32 3d 97 0b 14 3e
       0.045873534 -0.0010767952 0.043677583 0.14457546
000030 94 1f 8c bb 55 eb 31 3d 4b b3 32 3d 22 a3 d6 3b
       -0.0042762253 0.04343732 0.04362802 0.0065502087
000040 df 08 2d 3d 9b d5 39 bc 5d cd 2a 3d f7 5f 2c 3d
       0.04224479 -0.011342431 0.041699756 0.042083707
000050 60 1d 09 3a b8 30 0b bc 95 f5 2d 3e fa eb 11 bc
       0.00052305125 -0.008495502 0.16988213 -0.008906359
000060 3e 31 30 3d c1 ae 55 bc 47 52 1c 3d d7 ef 18 bc
       0.04301571 -0.013042153 0.038164403 -0.009334526
000070 53 e9 41 3d 36 e5 33 3d
       0.047341656 0.043919764

arith.constant f4 [30, 30]
000000 dd 6d 83 be 2a 98 d0 bd ed 4b 8d 3d 56 ed b6 bd
       -0.25669757 -0.10185273 0.06899247 -0.08931987
000010 1f e6 fb 3b 2b 40 4b be 45 50 c0 bc 0f e6 80 3e
       0.0076873447 -0.19848697 -0.023475775 0.2517552
000020 5c a1 94 bd 4a 35 02 be d9 f2 2c bd e2 27 64 3e
       -0.07257339 -0.1271564 -0.042223785 0.22280839
000030 4b 9c fc 3d 65 40 2a 3d ec 72 66 be a0 7e 29 be
       0.12334498 0.041565318 -0.22504777 -0.1655221
000040 b7 1b 16 bd d9 28 26 3d 4b b0 89 3d 80 b1 31 3e
       -0.036647525 0.0405663 0.06723078 0.17352867
000050 49 d2 f8 bd 5e 24 36 bd a4 6d d9 3c 20 cd 0e 3e
       -0.12149484 -0.044468276 0.026541539 0.13945436
000060 26 cf c3 3d f0 81 0e 3d 86 fb 84 bd a4 2b bc 3e
       0.09560995 0.034791887 -0.06493287 0.36752045
000070 c5 b5 77 be e7 18 af 3d 00 1d 81 bd 03 d5 69 bc
       -0.24190433 0.085496716 -0.063043594 -0.014271977
000080 d0 a3 38 3d 32 cd 9c bd 32 b6 a1 bd 8b f3 06 bd
       0.0450781 -0.076563254 -0.07896079 -0.032947104
000090 04 5c 2f bd b8 6d 0d 3e 15 56 3a 3e 87 88 d3 3d
       -0.042812362 0.13811386 0.181969 0.10328775
0000a0 f2 13 c6 3d 14 28 ab 3d cd e3 0c 3e 44 53 b5 bd
       0.09671773 0.08357254 0.13758774 -0.08853772
0000b0 30 08 cd bd 48 ec 66 3d 52 de 96 bc af a3 43 3e
       -0.10011327 0.05637768 -0.018416557 0.19105409
0000c0 75 c2 e5 bb eb 4d 3d bd 58 22 f2 3d c7 cb 12 3e
       -0.0070117065 -0.046216886 0.11822957 0.14335547
0000d0 ed ca 0d bc 94 2a f5 3b 9f 44 34 3d 2a 23 71 bd
       -0.008654338 0.0074818823 0.044010755 -0.058871426
0000e0 6b 95 16 3e a5 bb c4 bd c9 7f 79 bd 70 b6 35 3e
       0.14705436 -0.09606103 -0.06091288 0.17745376
0000f0 cd 8e dd bd 3e 8b 70 3c 27 20 e7 bb c8 e3 f4 3d
       -0.10818253 0.014681635 -0.0070533934 0.11957508
000100 13 a4 8e bd 56 f0 d3 3c cc fb 8f bd 71 19 0e 3e
       -0.069648884 0.025871437 -0.07030448 0.13876893
000110 16 a7 3c be 23 af 3a bd 05 bc 8e be a0 f5 46 be
       -0.18423113 -0.04557718 -0.27877823 -0.19429636
000120 3d ab 8f bd 74 35 86 bd c3 e3 27 bd a2 af 2d 3c
       -0.07015083 -0.06553164 -0.040988695 0.010600956
000130 7d 81 f6 bd ff e5 3d 3d da 71 ba bd 73 c9 bf bd
       -0.12036417 0.04636192 -0.09103747 -0.09364595
000140 8c c4 4e bc c4 ed 8f bd d0 9a db 3d 99 b2 65 3e
       -0.012620103 -0.07027772 0.107228875 0.22431411
000150 fc e8 29 be 4e 74 68 3d 2c 1d 5e bc e5 73 1b 3d
       -0.16592783 0.05675154 -0.01355676 0.037952323
000160 31 0e 66 bd 78 01 87 bd 7d 28 20 3d 43 78 62 be
       -0.056165878 -0.06592077 0.039101113 -0.22116189
000170 1e 5f 35 bc 64 bb 3c bd 05 33 55 bd 7a e8 16 bd
       -0.011070041 -0.046077147 -0.05205061 -0.0368428
000180 06 ed f6 3d b7 7e f6 3d 60 8d 90 bd 60 0e bb bd
       0.120569274 0.12035888 -0.07058215 -0.09133601
000190 3e 7d c0 bd 78 ac 28 be 87 59 35 3e 08 09 23 bb
       -0.09398888 -0.16472042 0.17709933 -0.002487721
0001a0 63 6f 1f 3d da 93 06 3d a0 6f 08 3e 28 24 5b 3d
       0.038924586 0.032855846 0.13323832 0.05350128
0001b0 b9 8c aa bc 67 41 b2 bc 74 07 9f 3d dd d5 31 3e
       -0.020819055 -0.021759702 0.077650934 0.17366739
0001c0 f3 59 9e 3d 1c 9a 13 3e 9b eb 8a bd 46 f8 8a 3d
       0.07732 0.14414257 -0.067832194 0.06785636
0001d0 74 02 12 be 25 6d ae 3c 10 4c 8c bd 4b 58 fd 3c
       -0.14258748 0.021292279 -0.06850445 0.03092589
0001e0 80 b7 04 be 29 1f 17 bc 9e 30 77 3d 90 c1 b6 3d
       -0.12960625 -0.009223738 0.0603491 0.08923638
0001f0 44 7b 3f be 5b 00 01 bd 8e b6 0e be df 1e 38 3d
       -0.18699366 -0.03149448 -0.13936827 0.044951316
000200 c8 e3 fc 3d 19 7f 28 3e 63 48 29 bd 7b 2c 8c 3c
       0.12348133 0.16454734 -0.0413288 0.017111054
000210 47 ff 00 be 60 d4 99 3d 33 ff ac bd f4 62 6a bd
       -0.1259738 0.075112104 -0.08447113 -0.057223275
000220 19 40 23 3a d2 3a ba 3c a6 b3 88 be d8 65 0a 3e
       0.0006227508 0.022733126 -0.2669956 0.13515413
000230 59 72 64 bd e7 ef 19 3e eb 13 9e bd 83 50 bd bc
       -0.055773113 0.15032922 -0.07718643 -0.02310968
000240 57 9b 2d 3d 50 9f 60 3e d5 d8 ee 3d ba 5c b6 3d
       0.04238447 0.21935773 0.11662451 0.08904405
000250 cd 06 94 bd 7e 25 5b 3d 14 cf f3 bd 0e fe 83 bd
       -0.0722786 0.053502552 -0.119047314 -0.064449415
000260 45 49 a0 bd 4f 1b ea bb 6f 5d d0 bd 97 1a 7d bd
       -0.07826475 -0.0071443687 -0.10174071 -0.061792936
000270 45 04 64 be a0 54 b5 3d 92 64 e1 3d bf bc b5 3b
       -0.22267254 0.088540316 0.110055104 0.005546182
000280 12 52 6d be 9f 73 54 3e 06 b3 22 3e ff d7 86 3d
       -0.23175839 0.20747231 0.15888605 0.06584167
000290 86 f2 8d 3c 05 7b 32 be 65 e4 3a 3e a0 30 c7 bd
       0.017327558 -0.1742974 0.18251188 -0.09726071
0002a0 b7 b2 3f be 02 33 22 3c fb ab 85 3c 0f 9c 3c 3e
       -0.18720518 0.0098998565 0.016317358 0.18418907
0002b0 85 1a c4 bc cf 4e 9a 3c 12 25 45 3d d3 5f fe 3c
       -0.023938427 0.018836407 0.048131056 0.031051552
0002c0 82 1f 51 bd 89 6c 52 3d a3 e3 dc bd 5a 5e 24 3e
       -0.05105544 0.05137304 -0.10785606 0.16051617
0002d0 dc b7 3c 3d a9 32 03 3e 55 18 60 3d e4 57 91 3b
       0.04607378 0.12812294 0.054710705 0.004435526
0002e0 48 68 ec bd 52 46 b7 ba de e5 86 bd 2c b6 ed 3c
       -0.115433276 -0.0013982749 -0.065868124 0.02901753
0002f0 df 20 8d bc 44 bd 22 be 6d 25 80 bb 65 3b 67 3d
       -0.017227588 -0.15892512 -0.0039107115 0.056453127
000300 4c 8d 03 be 2a 4c 33 3d 8c 5d 62 3e 07 7d 01 be
       -0.12846869 0.043773808 0.22105998 -0.1264535
000310 97 c8 47 3e 9e 1b 54 bd 3e d1 a3 bd d5 e4 30 bd
       0.19510113 -0.05178415 -0.07998894 -0.04318698
000320 53 b4 9b 3d 88 ee a4 bd 73 00 c6 3d d2 29 d5 3d
       0.076027535 -0.08053309 0.096680544 0.10408367
000330 43 07 9b 3d dd 60 d5 bd 7c 32 16 3e b3 e7 8d 3c
       0.075697444 -0.10418866 0.14667696 0.017322397
000340 9a d9 24 bc 01 23 26 bd b3 5e 0e be 8f f2 61 bc
       -0.010061646 -0.040560726 -0.13903312 -0.013790741
000350 38 e7 5b 3c 90 53 2a 3c 33 52 9c bd e0 c7 8d 3d
       0.013421826 0.010395899 -0.07632866 0.06922889
000360 c0 d1 fc bc 5c f2 fd 3d 86 03 e7 3d f9 1d 2a 3d
       -0.030861735 0.12399742 0.11279969 0.04153249
000370 16 18 1d be 01 6f aa 3c 49 23 8c 3d fc f0 02 be
       -0.1534122 0.020804884 0.068426676 -0.1278724
000380 e1 4a 05 be 96 8d de bc 03 cb 61 bd cd 65 6e 3b
       -0.13016845 -0.027167123 -0.055125248 0.0036376596
000390 7c 67 a3 bd f1 66 3f bd 9f fc 95 3c 8b fe ca bd
       -0.079787225 -0.046729032 0.018308936 -0.099118315
0003a0 aa 08 cd 3d 24 c2 a6 bd d8 c0 5d bc e7 58 1d be
       0.10011418 -0.08142498 -0.013534747 -0.15365945
0003b0 47 a7 37 bd 48 ed 15 3e c7 1f b7 3b 05 cf 22 bd
       -0.044837262 0.14641297 0.005588505 -0.03974821
0003c0 7e 03 51 3d fb ed c6 3c cb 67 3e 3b 7a f0 67 3d
       0.05102872 0.0242834 0.0029053565 0.05662582
0003d0 1b 0b 01 be 76 3f 7e 3d fd c8 89 3d 15 09 9b bc
       -0.12601893 0.06207224 0.067277886 -0.01892523
0003e0 4a 82 b5 3d 31 86 e3 3c 5a 11 71 bb 00 aa b3 3d
       0.08862741 0.027773948 -0.0036784024 0.08772659
0003f0 a6 35 c5 bd c0 41 3b 3d f0 12 c3 bd 3d e6 3d bd
       -0.09629373 0.045717 -0.095250964 -0.04636215

arith.constant1 f4 [30, 30]
000000 a4 53 ec 3c d5 95 7c bd 5c 31 83 3c b7 a8 fc 3c
       0.028848477 -0.06166633 0.016014747 0.030842168
000010 62 8c 5c bb 37 85 aa 3b 3b 96 65 bc ff f2 d5 bd
       -0.003365301 0.0052038687 -0.0140128685 -0.104467385
000020 f3 10 46 bd b3 f5 e0 3b d7 1c ab 3d e2 c5 49 be
       -0.048356008 0.006865227 0.0835511 -0.19704393
000030 f1 7b 5e 3e 92 4d 3e be cb b0 1a bb 6c 23 f4 bd
       0.21726967 -0.18584278 -0.0023603912 -0.11920819
000040 8f 5b 33 bd 6b 16 21 3d b6 70 18 bd 48 24 5e bd
       -0.04378849 0.03932802 -0.037216865 -0.05423382
000050 8a 6b 7e bd 89 c1 45 bd 75 f0 9e 3d 4a 1a 0a be
       -0.062114276 -0.048280273 0.07760707 -0.13486591
000060 ad c3 ab bd 03 51 b7 3c df 2f ad 3d 1b c2 1e be
       -0.083869316 0.022377497 0.08456396 -0.15503733
000070 9c 3d 03 3d f5 a7 d4 bd fe 73 0b be 71 5e c4 3c
       0.032041177 -0.10383598 -0.13618466 0.023970814
000080 f5 ee 80 3d 45 7d b1 3d 9d be dd bd 56 e7 50 3d
       0.062955774 0.086664714 -0.10827372 0.05100187
000090 0e a1 eb 3d 42 15 1e 3c 86 79 38 bd cc d5 cc bd
       0.11505328 0.009648623 -0.04503777 -0.10001716
0000a0 4e e8 b6 bc fe d9 52 bd 3b 9c a6 bd 75 ce 0c 3d
       -0.022327568 -0.051477425 -0.08135267 0.03437658
0000b0 1d e4 3c 3e 29 53 17 3e 36 f1 09 be ef 55 fe 3d
       0.18446393 0.14777817 -0.13470921 0.12418734
0000c0 c8 d9 c0 3d b4 ed e5 3c 5e 91 0b 3d 85 12 38 be
       0.094165385 0.028067447 0.03407418 -0.17975815
0000d0 d8 b2 32 3d e7 71 84 3e 70 e7 ce 3d cf bd b4 3b
       0.04362759 0.2586815 0.10102737 0.005515791
0000e0 1d c9 ad bd 73 e0 eb bd cb 44 fa 3d 91 1b bc 3b
       -0.08485625 -0.1151742 0.122201525 0.005740591
0000f0 e2 77 f0 3d 56 6f 70 3d 72 e5 28 be b2 c3 1e bd
       0.11741616 0.05869993 -0.16493776 -0.03876085
000100 a1 d2 06 3d 47 47 54 3e a6 9a 0e be 4e f7 ab bc
       0.032915715 0.20730315 -0.13926181 -0.020991948
000110 60 ca 83 bd 0a 1f d6 b8 37 ec 8d 3d d7 20 0f 3d
       -0.06435084 -0.00010210097 0.0692982 0.034943428
000120 c1 b8 00 be fc 99 25 3d a8 54 37 3e d6 06 9f 3c
       -0.12570478 0.040430054 0.17903388 0.01941244
000130 04 b2 7d bd 0f 99 4c bc 5d 23 c5 3d d8 1b 52 bd
       -0.061937347 -0.012487664 0.09625886 -0.051296085
000140 7f 27 03 3e b5 9e 1f bd 5b 02 c5 3c 39 6f a9 bd
       0.12808035 -0.038969714 0.024048975 -0.08273167
000150 e0 83 8a 3d cf 45 6b be a7 2a 37 bb f9 d4 b5 3d
       0.067634344 -0.22975849 -0.0027949007 0.08878512
000160 55 80 d3 3d 40 db 25 be ad ea 0c bb 93 97 d9 3d
       0.10327212 -0.16196918 -0.0021502182 0.106246136
000170 1a ca 07 3d 2a 54 a9 3d ce 72 ad bd 29 d0 ab bd
       0.033151723 0.08268006 -0.08469163 -0.08389313
000180 a2 d3 12 be a4 d2 5e 3e da 67 e3 bc da 81 d3 3c
       -0.14338544 0.2176004 -0.027759481 0.025818754
000190 15 a3 c5 3d 34 6d 37 bc bd c8 27 3d 5f 98 de 3d
       0.09650246 -0.01119547 0.040962923 0.10868906
0001a0 18 bb d7 bd ee 97 12 3e 20 bf 92 3d 98 66 25 3e
       -0.10533732 0.14315769 0.071653605 0.16152418
0001b0 57 74 ed 3d 66 24 17 be 1b c8 16 be ba 3e 53 3c
       0.11594456 -0.14759979 -0.14724772 0.012893373
0001c0 51 de a8 3c 46 45 97 bd d1 5e 5f 3c d5 d5 bb bd
       0.020613821 -0.0738626 0.013633446 -0.091716446
0001d0 81 c5 ac 3c 01 77 dd bd 11 31 48 bd 09 59 01 be
       0.021090271 -0.10813714 -0.04887492 -0.1263162
0001e0 e2 04 ce 3c fe 5e 27 be eb 55 98 3d 5a 19 98 bd
       0.025148813 -0.1634483 0.074382626 -0.074267104
0001f0 bf 64 a6 3c 80 e5 9c bd 94 dc 51 be ec 6c d5 3d
       0.020311711 -0.07660961 -0.204943 0.10421166
000200 25 c4 92 bd db 03 d6 3d 2c 2d 9f 3c c8 e5 fe 3d
       -0.07166318 0.10449954 0.01943072 0.12446171
000210 48 92 36 3d 19 19 15 bd fc 29 e3 3d 5a 77 82 be
       0.0445731 -0.036400888 0.11091992 -0.25481683
000220 bb c5 1f bb 2c 1b 10 3e 91 ce 13 be e6 0b 46 bb
       -0.002437933 0.14072865 -0.14434268 -0.0030219494
000230 99 1c aa bc cc 60 50 bd fb c4 de 3b b7 00 42 3d
       -0.02076559 -0.050873563 0.0067983842 0.047363963
000240 a0 1c 51 3d 0b e0 af 3c f8 f2 93 3d 74 cd 5d bd
       0.05105269 0.021469137 0.07224077 -0.054151013
000250 03 48 f7 3d 95 c4 54 bd 41 28 e2 3d 84 64 82 3d
       0.12074282 -0.051945288 0.11042834 0.06366828
000260 a8 4b 42 3d 34 0f 03 bc ee 65 13 3e 3b 1f f0 bc
       0.047435433 -0.00799923 0.14394352 -0.029311767
000270 36 46 8e 3b 75 21 2a 3d 9b 09 6d 3b 4f 55 36 bd
       0.004341866 0.041535813 0.0036169055 -0.04451495
000280 f2 a0 16 be 5a 01 01 be 8c 27 97 bd f4 b7 7e bc
       -0.14709833 -0.12598172 -0.0738059 -0.0155467875
000290 77 11 aa bd bd bc af 3d a9 8c ae bd f4 d6 c8 bc
       -0.083041124 0.08580921 -0.085229225 -0.02451656
0002a0 5d b9 c5 bd 1b a4 ef 3d 35 df bc bd 38 30 cc bd
       -0.09654496 0.117012225 -0.09222261 -0.099701345
0002b0 0c 8c f7 b9 21 1b af 3a d0 cb db 3d e3 c3 d9 3c
       -0.00047215854 0.0013359525 0.107322335 0.026582664
0002c0 0c f0 25 be 5e 6e 2e be f2 7c 70 3d 12 c8 4e 3c
       -0.16204852 -0.17034289 0.058712907 0.012620943
0002d0 0c f7 27 3e 2f c7 21 bd 85 66 38 bd e9 64 f0 bd
       0.16402835 -0.039496597 -0.045019645 -0.11737997
0002e0 1b fb 31 3e 24 43 56 3d 0b 33 88 3c 7c f1 b2 3d
       0.17380945 0.052310124 0.016625902 0.08737466
0002f0 29 21 71 bc 58 95 d3 3d 81 94 00 3d 7b e6 05 be
       -0.014717379 0.103312194 0.031391624 -0.13076203
000300 49 ef 8f 3d 96 41 a2 3d 71 6d 2c be 7e 00 10 3d
       0.07028062 0.07922666 -0.16838624 0.03515672
000310 d4 27 d3 bc fa e6 00 bd b4 ec bd bc cd f6 e8 3d
       -0.025775827 -0.031470276 -0.023184158 0.113751985
000320 28 3f c1 ba bf cb 5c bc 1a 0d 3b be b1 1b 0d 3e
       -0.0014743553 -0.013476311 -0.18266717 0.13780095
000330 d1 8d df bc 05 c8 5a 3c 66 4e fa 3d 8f f6 4c 3e
       -0.027289303 0.013353352 0.122219846 0.2001593
000340 c9 9d 4d 3d 9f 57 2f bd a6 46 7f 3d 2a 91 52 bc
       0.050199304 -0.04280817 0.062323235 -0.012851993
000350 70 ce b8 bd e9 3a f1 bb 90 ed 9d bd 2d ee 39 bd
       -0.0902375 -0.007361759 -0.07711327 -0.045393158
000360 e9 ea 34 be 1c 67 7e 3e b8 c2 3d 3e 48 61 05 bd
       -0.17667736 0.2484402 0.1853131 -0.032563478
000370 0a ba 00 bd 19 05 81 bd e1 28 8b 3c a2 be 5b be
       -0.03142742 -0.062998004 0.016987266 -0.2145944
000380 3f 9c 0d bd 81 16 87 3c 99 c3 69 bd 34 dc 6b be
       -0.034572836 0.016490223 -0.057071302 -0.2303322
000390 33 9c 59 bc 04 65 a9 bd 0a 9d f5 3c 8e 03 c8 3d
       -0.01328187 -0.0827122 0.029982109 0.09766303
0003a0 95 62 de bc ff af 1b 3d b8 d2 1c bd da c1 bf bd
       -0.027146617 0.03800964 -0.038286895 -0.09363146
0003b0 fb 57 cd bc dd 8b c0 3c 64 4d 06 3d 00 5e b5 3d
       -0.025066366 0.023504192 0.03278865 0.0885582
0003c0 2e 37 14 be a0 f0 88 bc 2d 12 72 bd c6 35 ed 3c
       -0.14474174 -0.016716301 -0.059099365 0.028956305
0003d0 a3 96 c6 bc 31 f7 f9 bd b3 4e 8c bc 7d 20 38 3d
       -0.024241751 -0.12205351 -0.01712737 0.04495286
0003e0 dc 92 f0 bd 82 56 07 bc db ea 81 be 81 78 0c 3e
       -0.11746761 -0.008260371 -0.25374493 0.13717844
0003f0 5e b9 90 3d e7 99 60 3c 8b ec 53 3d 5f 50 7c 3d
       0.07066606 0.013708568 0.051739257 0.061600085

arith.constant2 f4 [30, 30]
000000 25 d6 90 bd a0 a3 9c 3d 90 52 f9 bb a8 ec 30 bb
       -0.07072095 0.076483965 -0.007608719 -0.0026996527
000010 ac c1 9b bc 76 f0 cd bc 37 5e 25 3d 53 fb 73 3c
       -0.019013248 -0.025139075 0.040373053 0.014891463
000020 91 98 01 3c ca 47 fe bc 02 61 ce bd 49 ba 61 3e
       0.00790991 -0.031040091 -0.100770965 0.22043718
000030 8d f9 ba 3d 0a fc 3c 3e 98 87 cc bd c7 6d 2e be
       0.09129629 0.1845552 -0.099868 -0.17034064
000040 f6 1e ee 3b 2b d4 2a bb 1d 7d 0a be 71 42 c9 3c
       0.0072668744 -0.0026066403 -0.1352429 0.024567815
000050 15 ca ff bb f3 79 27 3d 82 e7 f8 3d 0d df 59 3e
       -0.0078060725 0.040887784 0.121535316 0.21276493
000060 df 8b e6 bd 7e 3b 37 3e 4b 9e 52 bd 99 16 82 bd
       -0.11257147 0.17893788 -0.05142049 -0.063519664
000070 8d 52 ad 3d 09 b6 11 be ab 0c 41 be cb b2 8b 3b
       0.08463011 -0.14229597 -0.18852489 0.004263257
000080 20 b0 ed 3c 3e 33 e4 3d e8 da 80 bd ee d1 63 bd
       0.029014647 0.11142586 -0.06291753 -0.055620126
000090 3b 0e 8f 3c f3 72 e6 3d 2e f5 b5 bd fd 1f 27 be
       0.01746284 0.112523936 -0.08884655 -0.16320796
0000a0 6c 37 ae bb 58 57 c7 bc 8c a2 96 3d e9 db d8 3d
       -0.0053166654 -0.024333641 0.07355222 0.105888195
0000b0 45 e7 78 3d 12 d2 11 3d 93 26 4d bd ea 0d d4 bd
       0.06076743 0.03560073 -0.050085615 -0.103542164
0000c0 ee 59 a2 3d 3c 71 ba bd c5 df 4e 3e 55 c2 17 be
       0.07927309 -0.09103629 0.20202549 -0.14820226
0000d0 3b df 20 bd 35 77 b5 bd 72 a4 4e 3e 54 79 15 3d
       -0.03927539 -0.088606276 0.20179918 0.03649266
0000e0 0c 86 06 3d d8 da 7b 3d 7e 44 c8 3d 9c 04 0b bc
       0.03284268 0.061488003 0.09778689 -0.008484986
0000f0 15 53 06 3e 2f 7a 3d 3d a4 66 04 3e d5 ef bb bc
       0.13117631 0.0462591 0.1292978 -0.02294151
000100 b1 67 ba bd df 92 9f bd 45 1d be 3c 00 df fd bc
       -0.09101809 -0.07791685 0.023207316 -0.030990124
000110 69 d1 11 3e a0 a8 d0 bc c3 5c 9e bd bd 26 81 3d
       0.1424004 -0.025471032 -0.07732537 0.06306217
000120 63 f8 f3 bd c9 14 ea 3b 7f 01 2d be 68 c8 ed bd
       -0.119126104 0.007143591 -0.16895102 -0.1161049
000130 04 cf fa bd 48 c2 e6 3d 62 de 58 3d 57 bf 96 bd
       -0.12246516 0.11267525 0.052946456 -0.07360714
000140 8b 20 be 3d 91 69 aa bc 26 03 af bb b0 df ae bd
       0.09283551 -0.020802291 -0.0053409515 -0.08538759
000150 50 62 1d be 7c 62 08 be bc 06 13 bd a9 31 09 3e
       -0.15369534 -0.13318819 -0.035895094 0.1339785
000160 be ea 38 3d 4d cb d8 3a 1d 20 be 3d 56 2c 93 bd
       0.045145743 0.001654008 0.09283469 -0.07186191
000170 b7 7f 7e 3e a4 d4 41 3d dc 91 a5 3d 47 31 09 3e
       0.24853407 0.04732193 0.08084461 0.13397704
000180 ab ac 1c 3e 53 e1 7b 3d 6d 75 d1 bd e6 3c 0f 3d
       0.15300243 0.061494183 -0.10227475 0.034970187
000190 51 53 18 3e 13 83 06 3d d4 61 9c be c6 0d cd 3c
       0.14875533 0.032839846 -0.30543387 0.025030982
0001a0 35 db 1e 3e d8 b3 46 bd c8 4e 26 bd c0 38 40 bc
       0.15513308 -0.048511356 -0.040602475 -0.01173228
0001b0 83 ee ca 3d 3d 10 7f bd b4 a7 bd bc 9d a2 1c 3c
       0.09908774 -0.062271345 -0.023151256 0.009560254
0001c0 54 7b 3f 3d ed a1 65 be dc 74 b7 bd bf 80 0b 3d
       0.046748474 -0.22425051 -0.08957836 0.03405833
0001d0 b8 b4 c6 bc d7 d7 e7 bd 9f 8c d7 3d 58 9f 25 bd
       -0.024256095 -0.11320465 0.10524868 -0.040435165
0001e0 3e 7f c0 bd f6 54 29 be d9 b0 03 bc a3 d6 0e bd
       -0.093992695 -0.16536316 -0.008037769 -0.034872662
0001f0 03 ca 61 bd a1 b8 2a 3e 89 a1 e2 3c 72 3a 15 bd
       -0.055124294 0.16671993 0.027664917 -0.03643269
000200 43 cd 45 3d 74 d1 1c 3d 3c 64 91 3c a0 36 9f 3d
       0.048291456 0.038285688 0.01774799 0.07774091
000210 7b 83 9a 3c 78 69 18 3e ac f2 56 3d d0 62 90 3d
       0.018861523 0.14883983 0.052477524 0.07050097
000220 07 59 5c be e9 cd 55 bd 5c 8d f6 3c 3b ad 2d 3b
       -0.21518336 -0.052198324 0.030096702 0.0026500958
000230 3b 8e 68 bd d1 c0 f0 3d b2 8d 5c bc 19 49 66 bd
       -0.056776267 0.11755527 -0.013461517 -0.056222055
000240 78 14 17 bd 33 c8 ba 3d e4 4c 16 be c5 7f 8b 3d
       -0.036884755 0.09120216 -0.14677769 0.068114795
000250 3d 70 46 ba f6 ce d9 39 75 ce 84 bc 46 5f 95 bd
       -0.00075698254 0.00041543663 -0.016211728 -0.072935626
000260 76 11 02 3b c6 e4 f0 3c e5 ee a5 bd a5 9e c2 3d
       0.0019846833 0.029405963 -0.08102206 0.09502915
000270 f6 44 4e 3d 77 9a 6c 3d 88 7c 7c bd 18 ac 87 3d
       0.050358735 0.057764497 -0.0616422 0.06624621
000280 e2 47 c0 3d 95 4e 50 3d 9b 06 a0 3d e1 e9 2a bd
       0.093887106 0.05085619 0.0781376 -0.04172695
000290 d2 c1 04 be 28 18 33 3d fb 80 13 bd 1b e4 ae bc
       -0.12964562 0.04372421 -0.036011677 -0.021349004
0002a0 c9 1b 10 be 47 0a b5 bd d7 fe 23 3e 37 9c f7 bc
       -0.14073099 -0.08839851 0.16015182 -0.030225856
0002b0 8b fb 50 bd fd 24 e0 3c 0d 61 c1 bd c6 00 98 3d
       -0.05102114 0.027361387 -0.09442339 0.074220225
0002c0 ce a2 14 3e 37 ed f7 3c a6 46 28 be ad 44 a3 3d
       0.1451523 0.03026448 -0.164332 0.07972083
0002d0 5c 79 c8 3c 26 3c e0 bc 8f b5 cf 3d 58 0e 63 3d
       0.024471931 -0.027372431 0.101420514 0.0554336
0002e0 01 ee ab 3d a1 09 8a 3d b4 c8 bb bd 13 97 59 bd
       0.08395005 0.06740118 -0.091691405 -0.05312259
0002f0 5f d1 8c 3d cb e2 13 be 37 4d 84 3d c6 6d ef bd
       0.06875872 -0.14441983 0.0646004 -0.116908595
000300 3e 42 86 3b 1f 80 92 bc 52 08 94 bd f0 6b 80 bd
       0.004097252 -0.017883359 -0.072281495 -0.062705874
000310 2d 45 70 3e df ea 50 3d fe f8 0b 3c 44 e7 7e 3d
       0.23463888 0.05100524 0.008543251 0.06223227
000320 f3 f1 d1 bb e0 ab 32 3d e2 f0 1d be 92 09 fa bd
       -0.0064070164 0.043620944 -0.15423921 -0.12208857
000330 91 5e 0f be 1c a6 1d be 79 6e b8 bd b4 e6 0c be
       -0.14000918 -0.15395397 -0.09005446 -0.13759881
000340 ea 95 fb 3d c3 f4 13 3c 17 17 20 be 93 a9 1d be
       0.12284453 0.009030524 -0.15633808 -0.15396719
000350 8b 13 14 bd a6 3b 09 be c6 d7 ac 3d 9e 8d 35 be
       -0.03615145 -0.1340166 0.08439593 -0.17729804
000360 0d af 42 be cb f9 50 3e 47 02 a3 3d b6 87 05 3b
       -0.19012089 0.20407788 0.07959419 0.002037508
000370 1f 0c 09 be 9e 64 06 be 49 ff 2f bd b8 3e 1d 3e
       -0.1338353 -0.1312432 -0.04296807 0.15355957
000380 5f 16 5c bc 72 cb c2 bd 77 9a 5c 3d a4 6d b8 3d
       -0.013433068 -0.0951146 0.053858247 0.09005287
000390 66 d1 51 3d 02 7a 00 3d 45 65 04 be 0d 54 44 3d
       0.05122509 0.031366356 -0.12929256 0.04793172
0003a0 ab 15 2c 3e a6 43 e7 bd d4 ea d0 ba c4 b7 a5 3c
       0.1680514 -0.112922 -0.0015939125 0.020229228
0003b0 b0 e5 13 3d cb 34 c3 ba f5 10 17 3e df 0b 97 3d
       0.03610772 -0.0014893053 0.14752562 0.07375311
0003c0 70 40 83 bd d4 14 db bd 27 f1 68 bd 0c dc 25 bd
       -0.06408775 -0.10697332 -0.056870606 -0.040493056
0003d0 ed c4 c6 bd 7d 4b c4 bd 50 6e dc 3b 0f d7 8f 3d
       -0.09705529 -0.09584711 0.0067270175 0.07023441
0003e0 e1 a9 6f 3c 7e c4 be bc db bf 33 3b d1 fb 44 3d
       0.014627905 -0.023287054 0.0027427587 0.048091713
0003f0 47 2e b3 bd 46 14 a2 3d 6c 82 9c 3c eb 08 fd bd
       -0.08749061 0.07914023 0.019105159 -0.123552166

arith.constant3 f4 [30, 30]
000000 16 b5 82 3d d7 70 3e 3d 62 4d 95 bd 70 e1 66 bd
       0.06382196 0.04649433 -0.0729015 -0.056367338
000010 83 23 f4 bd 03 fa 31 3d c8 41 50 bd 7e 85 31 3e
       -0.11920836 0.04345132 -0.050843984 0.1733608
000020 d9 5b 8c 3c 4d 19 10 be c9 5c 72 3c 02 db bc 3d
       0.01713364 -0.14072151 0.0147926295 0.0922146
000030 fa 2d 87 bd cb 4a 40 3c e4 66 ca bd e0 28 2e bd
       -0.06600566 0.011736582 -0.09882906 -0.04251945
000040 ab 99 07 3d 56 d5 3b 3e 47 3f 6e 3d ec d2 7f bd
       0.033105534 0.183431 0.058165815 -0.06245701
000050 98 e9 84 3c 82 69 1a 3e dd 8a 3c 3e 93 26 d6 3d
       0.016224667 0.1507931 0.18412347 0.10456576
000060 8c 84 19 3e 24 82 99 bb cc 8a 97 bc 24 d3 76 3d
       0.14991969 -0.0046847034 -0.0184988 0.060259953
000070 e8 a5 dd bd f8 65 be 3d a0 3c da bd 10 b2 34 bd
       -0.1082266 0.09296793 -0.106560946 -0.044115126
000080 6d cf 03 be 62 98 76 3d c2 24 3a bc 8d d3 f4 bc
       -0.12872095 0.060203917 -0.011361303 -0.029886032
000090 af ae db 3d 25 c2 ef 3b c5 20 e1 3d f4 14 84 bb
       0.107266776 0.007316845 0.109925784 -0.004030818
0000a0 62 59 e0 bd f2 8c 58 3d f0 6c 87 3c 95 18 f1 3d
       -0.109545484 0.05286879 0.016531438 0.11772267
0000b0 61 a9 24 be 21 72 7f be 23 06 8f 3c 9e 44 79 3d
       -0.16080238 -0.2494588 0.01745898 0.060856454
0000c0 63 40 57 bd 46 3d d9 bd 77 19 43 3d 9d 76 01 3e
       -0.05255164 -0.1060739 0.047631707 0.12642904
0000d0 8f cc 3f 3e 5f 89 ef bb c0 7f 4d 3d 20 3e fd 3d
       0.18730377 -0.007310077 0.05017066 0.12365365
0000e0 e3 36 e8 3d 16 19 04 be 42 2d ce bc 93 26 66 3e
       0.11338594 -0.12900195 -0.025168065 0.22475652
0000f0 b2 ac 33 3d 71 f7 31 be d7 3c 9a bd dc 70 ea bc
       0.043865867 -0.17379548 -0.075311355 -0.028618269
000100 dc 2f 25 be 95 b7 e7 3c a8 63 21 bd b8 a8 e4 bd
       -0.16131538 0.02828578 -0.03940168 -0.11164993
000110 6d ce f8 bd 52 29 9c 3d e5 24 7d 3b f3 9b 3c 3e
       -0.121487476 0.07625069 0.0038626727 0.18418865
000120 cc 9f 7f 3d 17 cf 18 3d 22 bc da bc f4 d8 be 3d
       0.062408254 0.03730687 -0.026701037 0.09318724
000130 0f 1e f2 3d a8 68 dd 3c 1a 11 6e 3d 9a 9e be 3d
       0.118221395 0.027027443 0.058121778 0.093075946
000140 bf 7d 4c 3d 04 73 d6 bd a1 d2 21 3d bd 3c 38 bd
       0.04992461 -0.10471156 0.039507512 -0.0449798
000150 1f d9 55 bd 9f 18 2b bc 71 c4 ce 3d 41 b9 a2 bd
       -0.052209016 -0.010442882 0.10096062 -0.07945491
000160 4b 14 09 bd 51 38 2b 3d a6 d9 33 3d ae f1 21 3e
       -0.03346662 0.041801754 0.043908738 0.1581485
000170 0a 46 bf 3d ce f8 1f be 31 71 c0 bd 93 5b 12 3d
       0.09339531 -0.15622255 -0.093965895 0.035731863
000180 ac 8d be 3b a0 4e f9 3b 87 ad 7a bb ac 00 1c bd
       0.0058152284 0.00760825 -0.0038250403 -0.03808658
000190 84 fd 59 bd 89 c7 b0 bd c4 32 0e 3d 9f eb de 3d
       -0.053220287 -0.08631808 0.034716383 0.10884785
0001a0 74 83 0a be 82 4f 26 3e 44 12 2a bd 81 90 87 3c
       -0.13526708 0.16241267 -0.041521326 0.016548397
0001b0 a3 35 89 be 28 70 0d 3e 5d 7e 3d bd 89 7e 4f bc
       -0.26798734 0.13812315 -0.046263088 -0.012664446
0001c0 d3 e1 07 3e d5 5a 00 bd ae 2b af 3c 9c 99 45 bd
       0.13269739 -0.031336624 0.021383133 -0.048242196
0001d0 41 61 72 3d d1 11 2c bd ba f4 3e 3d 21 bd de 3d
       0.05917478 -0.04200918 0.04662011 0.10875917
0001e0 92 da 71 bd 46 06 e0 bd 28 a5 ba 3c 4c 66 62 be
       -0.059046336 -0.109386966 0.02278383 -0.22109336
0001f0 db 9e 1b be 03 fd cb 3d 4f ae 92 bd c8 55 eb bc
       -0.15197317 0.099603675 -0.07162153 -0.028727427
000200 cb e9 e6 3d 2f 2f 86 bd fd f2 0d 3d 71 ba ed 3c
       0.11275061 -0.06551968 0.03465556 0.029019566
000210 fb df 3a bc 17 eb 7c bd 87 67 3e bd 85 c2 81 3c
       -0.01140594 -0.061747637 -0.04648545 0.015839824
000220 bc 42 26 bd d7 db b7 3d 01 44 c6 3d 58 ae 23 3e
       -0.040590987 0.08977478 0.096809395 0.15984476
000230 74 80 03 bd e9 29 5a 3d 95 f9 51 3d 36 d0 74 bc
       -0.032104924 0.053262625 0.05126341 -0.0149422195
000240 a7 a4 30 3d 8e 8a e3 3c de c4 db 3d 9d c9 bf 3d
       0.043125775 0.027776029 0.10730909 0.093646266
000250 18 a5 e1 bd b3 f1 0c be e1 ef 81 3d 1a 7b 12 be
       -0.11017817 -0.13764076 0.063445814 -0.14304772
000260 a1 50 ab bd 93 02 fe bd 43 b4 af 3b f1 6e ee 3d
       -0.08364988 -0.12402835 0.005362065 0.11642254
000270 e3 88 47 be 35 7f ee 3d a2 19 5b 3d 2f 70 63 bd
       -0.19485812 0.116453566 0.053491242 -0.05552691
000280 22 62 dc bd 0b d4 49 3e 1c b5 97 3c 33 96 cf bc
       -0.10760905 0.19709794 0.018518977 -0.025340175
000290 59 00 e7 bd 52 b7 3c bd 75 4d 9b 39 9d da 21 3d
       -0.11279363 -0.046073265 0.00029621614 0.039515126
0002a0 51 01 c2 bc e4 d2 74 3c 05 41 54 be b7 1f 2f 3d
       -0.023682268 0.014942858 -0.20727928 0.042754855
0002b0 8d ce 44 bd 27 48 33 3d b9 22 85 3d 6a c7 16 3d
       -0.048048545 0.04376998 0.065007634 0.03681127
0002c0 84 55 b4 3d c1 cf 10 3e c1 27 3b be de fd 8e 3e
       0.08805373 0.14141752 -0.18276884 0.2792806
0002d0 72 32 49 be 7d b2 1d 3d 5c 2b b5 3d 9b 28 4a 3d
       -0.1964815 0.038500298 0.08846161 0.04935513
0002e0 ef c5 93 3d 9a 5b 98 bd 68 2b 26 be b9 3b 2c bd
       0.07215487 -0.074393466 -0.16227496 -0.042049143
0002f0 3f 72 ac 3c b1 13 83 3d 57 ce 02 be c1 4b b8 bc
       0.02105057 0.0640024 -0.12774025 -0.02249706
000300 ac 48 c6 bd 2e 6b af 3d 07 02 81 3d 0f b3 2b be
       -0.0968183 0.08565365 0.06299215 -0.16767524
000310 94 6a bb 3d 8e 0f 53 3d 9e 21 28 3d 33 17 52 3d
       0.091511875 0.051528506 0.041047685 0.051291656
000320 f6 44 ae 3d bb cb 5c 3e b4 14 eb 3d 1c ba 55 3e
       0.08509247 0.21562092 0.11478558 0.20871776
000330 c2 62 a8 ba a3 a6 f4 3d e6 31 8d 3d fd 5b 93 3d
       -0.0012846815 0.11945846 0.06894283 0.0719528
000340 76 dd 08 be 47 f8 09 3e be 77 42 3b f5 b6 5d 3c
       -0.1336573 0.13473617 0.0029673423 0.01353239
000350 ba 53 8a bb d9 bc e2 3d 2a 93 0f be 61 04 06 bd
       -0.0042214068 0.11071176 -0.14020982 -0.03271902
000360 b4 91 9f 3d f9 86 16 3e 86 98 06 bd 23 87 01 3e
       0.077914625 0.14699925 -0.0328603 0.12649207
000370 34 8d 1d be ac ae 77 3d 58 bf 0c bc 85 af 2d 3e
       -0.15385896 0.060469314 -0.008590542 0.16961487
000380 d2 02 b1 bd b0 6c cb 3d f7 61 04 3e 3d 41 b3 3d
       -0.08643116 0.0993284 0.12927996 0.087526776
000390 fa ff 8b bc 95 c5 a6 bd 0c 27 3c be f9 63 4b 3e
       -0.017089833 -0.081431545 -0.1837427 0.19862355
0003a0 6f 60 4e 3d be aa 95 bd 14 fa 80 3e 4e 07 b8 3c
       0.050384935 -0.07307957 0.25190794 0.02246442
0003b0 a6 f0 2e 3d 6f 67 d2 bc 12 ac 85 bc 1d 58 89 3d
       0.04270997 -0.025684087 -0.016317401 0.067062594
0003c0 99 8d 18 bd 54 dc d7 bc 89 54 8c bd 6d 90 07 be
       -0.037244413 -0.026350178 -0.06852061 -0.13238688
0003d0 61 c1 a8 3d 3d 52 55 bd e2 b5 d0 bd 41 33 27 3e
       0.08240009 -0.05208038 -0.101909414 0.16328146
0003e0 00 4d a7 3d b0 1b c4 bd 35 c7 bb bd 96 af f3 3d
       0.081689835 -0.095755935 -0.09168855 0.11898725
0003f0 70 72 5d 3d de fd ba 3d b4 97 82 bc 4c e3 b6 bd
       0.054064214 0.091304526 -0.015941478 -0.08930072

arith.constant4 f4 [30]
000000 43 00 d1 3d b4 58 80 3d 75 b5 40 3d ea 7a 5a 3d
       0.10205128 0.06266919 0.04704805 0.053339876
000010 39 91 84 3d dc 84 cd 3d 5b bc 35 3d be 22 01 3d
       0.064730115 0.100351065 0.044369083 0.031527273
000020 52 3f 94 3d af 9a cd 3d ca b7 69 3d d4 68 0b 3d
       0.0723864 0.10039269 0.05706004 0.03403552
000030 af e0 81 3d 38 f1 2c 3e 0e 19 29 3e 62 b0 2b 3d
       0.06341683 0.16888893 0.16513464 0.04191626
000040 58 01 51 3d 5b 73 18 3d ac ee 6a 3d 17 e8 8c 3d
       0.051026672 0.037219387 0.05735652 0.06880205
000050 3a cf ad 3d 1a 3d 22 3d 91 f3 a2 3d 90 d7 0a 3d
       0.08486791 0.039609052 0.07956613 0.033896983
000060 67 5f b8 3d b0 6a ef 3d 23 c1 59 3d 68 f5 ac 3d
       0.090025716 0.11690271 0.053162705 0.08445245
000070 82 1b 37 3d d2 0b 93 3d
       0.044703968 0.07179989

arith.constant5 f4 [30]
000000 c1 e6 81 3f 38 46 7d 3f 4e ce 7c 3f 96 f0 81 3f
       1.0148546 0.9893527 0.98752296 1.0151546
000010 ed ec 81 3f cc cb 80 3f 1a d5 80 3f 8a 18 7f 3f
       1.0150429 1.0062194 1.0065033 0.9964682
000020 c7 d1 7e 3f e4 cd 80 3f e5 71 82 3f 17 5a 7e 3f
       0.99538845 1.0062833 1.0191008 0.99356216
000030 d4 f4 80 3f 4a e7 76 3f 3e ec 6c 3f 92 19 7a 3f
       1.0074716 0.9644667 0.92547977 0.9769527
000040 fd 90 80 3f 66 fb 7b 3f 53 69 81 3f bb 99 82 3f
       1.0044247 0.9843048 1.0110267 1.0203165
000050 3b 76 80 3f cd a5 80 3f 5c 87 7f 3f 10 b8 7f 3f
       1.0036081 1.0050598 0.99815917 0.9989023
000060 1c b2 77 3f 18 ee 7c 3f 1c 01 81 3f 9c a7 83 3f
       0.9675615 0.988008 1.0078464 1.0285525
000070 31 79 82 3f 4f 90 84 3f
       1.0193235 1.035654

arith.constant6 f4 [30]
000000 87 07 d4 bc 4e c1 c1 bc 46 03 4e bd 18 82 9d bd
       -0.025882496 -0.023651745 -0.05029609 -0.07690829
000010 1b d6 ba bc 6d 19 e7 bc c7 8e 83 bd 1e d0 1a 3d
       -0.022807172 -0.028210366 -0.06423717 0.037796132
000020 2c dc 79 bd b7 48 7b 3d 0e 54 ab bc da b0 24 3d
       -0.061000988 0.061348643 -0.020914104 0.04020772
000030 66 a6 8b 3d eb bd 87 bd 96 46 09 3d 28 20 7d 3c
       0.06818847 -0.06628021 0.03351458 0.015449561
000040 97 b4 13 3d 46 f3 11 3d 36 c1 b1 bd 71 ed 9c 3c
       0.036060896 0.035632394 -0.0867943 0.01915619
000050 ef 19 11 bc 79 4f 03 3d c3 d7 1a 3d 32 41 04 3d
       -0.008856281 0.032058213 0.037803423 0.032288738
000060 3a 82 9b 3c a5 31 36 3d cc c2 84 3c 50 e6 b1 3d
       0.018982995 0.04448094 0.016206168 0.08686507
000070 ae f0 8e bd d1 48 0c 3d
       -0.069795 0.03424913

arith.constant7 f4 [30]
000000 7d 57 9f 3d dc 70 5b 3d c3 19 34 3d e4 ae 9d 3c
       0.07780359 0.053574428 0.04396988 0.019248433
000010 26 a6 4f 3d 35 fb b5 3d 8e b2 d8 3c ad 47 98 3c
       0.05069556 0.088858046 0.026452329 0.018588865
000020 90 3a 96 3d 36 8f 7d 3d 7a ca 62 3d 62 ae 22 3d
       0.07335389 0.061904155 0.055368878 0.039717086
000030 43 d3 3f 3d 36 17 df 3d fa 31 c6 3d 31 88 3f 3d
       0.046832334 0.10893099 0.09677501 0.04676074
000040 9b d8 37 3d 98 3c 34 3d 18 b4 13 3d 13 c3 57 3d
       0.044884305 0.0440031 0.036060423 0.05267627
000050 7e 11 8c 3d 53 01 29 3d d6 f1 32 3d 3a dc 41 3d
       0.06839274 0.04126103 0.043687664 0.047329165
000060 a4 1b a8 3d 10 22 b0 3d e2 75 33 3d 4c 6f 63 3d
       0.08208397 0.08600247 0.043813594 0.055526063
000070 83 a4 c8 3c d5 f0 82 3d
       0.024492508 0.06393591

arith.constant8 f4 [30, 60]
000000 62 2c 62 3d b5 03 ad bd 39 8d 22 3d ab a7 6a bd
       0.055218108 -0.08447973 0.03968546 -0.057288807
000010 f5 c9 d6 bd 2e 7e d9 3d 88 d2 2d 3c ac f4 d2 3c
       -0.10487739 0.1061977 0.010609277 0.025751434
000020 0a ce a8 bd 4f 59 bc 3c 60 f3 9e 3c fc 1f bf bb
       -0.08242424 0.022991804 0.01940316 -0.0058326703
000030 28 29 ff bd a2 e1 02 3d 16 4d ce bd e4 05 36 3c
       -0.12459022 0.03195346 -0.10073297 0.011109803
000040 17 e9 15 3c cf c8 aa bb e1 11 f3 bc 35 fb a7 3c
       0.009149811 -0.0052119265 -0.029671611 0.020505527
000050 8f eb a9 bd 7a 4f 95 ba 33 e7 41 3d e9 d3 cc bd
       -0.08296882 -0.0011391484 0.04733963 -0.10001356
000060 3e 60 36 3d 10 fa 09 3e 61 e1 3f 3c a0 d4 7b bc
       0.044525377 0.13474298 0.011711449 -0.015370518
000070 26 07 2c 3d 75 8e 40 3d 4f f5 a3 38 d6 01 53 be
       0.041999005 0.047010858 7.818138e-05 -0.20606169
000080 51 53 40 3b de 37 a9 bd 10 a7 d7 3d f7 81 d8 bd
       0.0029346535 -0.08262609 0.105299115 -0.10571664
000090 e7 d7 c2 3d 76 f2 ea bc 15 6d a7 bc d8 71 f2 3c
       0.09513836 -0.028680068 -0.020437757 0.0295953
0000a0 70 1f 27 bd 56 93 fc 3c d9 bc c6 bd 94 7d 8c 3d
       -0.040801466 0.030831974 -0.097039886 0.068598896
0000b0 7a 96 16 bd e6 19 e4 3c 33 79 02 3d 61 1b 84 3a
       -0.0367646 0.02784438 0.031853866 0.001007896
0000c0 94 79 1d 3d e7 8b 1f 3e aa db 80 3d 64 fd c8 bc
       0.038446024 0.15580712 0.062918976 -0.024534889
0000d0 12 b6 47 3d fc e7 2e bc 36 38 3e 3d de c4 b8 bd
       0.04875762 -0.010675427 0.046440326 -0.090219244
0000e0 18 52 90 bd a4 eb f3 bb 3b 5e 45 bd 05 f3 98 bd
       -0.07046908 -0.007443862 -0.04818557 -0.07468227
0000f0 a0 cb 88 3d 95 61 73 bd b3 14 bb ba bc 12 1a bd
       0.066794634 -0.059419233 -0.0014273137 -0.037615523
000100 5f 02 19 bd ac c7 99 3c 87 8a 00 bd 55 ca 92 3c
       -0.037355777 0.018771969 -0.03138211 0.017918745
000110 26 19 7d bd 2c bd 1f 3d 44 ec ca 3c 98 5b e5 3b
       -0.06179156 0.038998768 0.024770863 0.006999444
000120 98 e5 e1 3b be b7 a5 3c 5d 7a 61 bd d3 10 51 bb
       0.006893825 0.020229217 -0.055048335 -0.0031900897
000130 e6 0b 08 bd 4f 50 59 3c 87 59 42 3d b7 2c a7 3c
       -0.033214472 0.013263776 0.04744866 0.020407064
000140 63 72 8a bd a9 38 36 bd d7 df e2 3a f9 6f 46 bd
       -0.06760099 -0.04448763 0.0017309141 -0.04844663
000150 48 0b 8c 3d 99 36 88 3d 24 82 da 3c ec 67 30 bd
       0.06838089 0.06651039 0.026673384 -0.043067858
000160 48 25 4f bc e0 90 5c 3d 6d 17 ef bb 15 8d 04 be
       -0.012643166 0.0538491 -0.0072964937 -0.12944444
000170 df e1 93 3c 76 d5 e9 bc 4d 66 8c 3a 14 55 f7 bd
       0.01805204 -0.028544169 0.001071164 -0.12076774
000180 5a 11 49 bc 45 50 9e 3b 3e 4e c4 bd 13 f5 aa bb
       -0.012272203 0.004831346 -0.09585236 -0.0052172034
000190 9e 43 69 bb d2 7e 02 3d 38 a4 86 bd a7 d6 8b 3d
       -0.0035593282 0.031859227 -0.06574291 0.06828051
0001a0 31 db c9 bb 93 80 2d 3b 93 cd 92 3b da d2 bc bb
       -0.006160163 0.0026474341 0.0044800728 -0.00576244
0001b0 c5 4a ab 3c f9 c1 97 3d 34 90 8b bc ca 08 82 3c
       0.020909676 0.07410044 -0.017036535 0.015873332
0001c0 1d f0 8e 3d 70 88 1b bd 3f 90 1d 3d 2d 86 a7 bc
       0.06979392 -0.037971914 0.038467642 -0.020449722
0001d0 5d 62 92 bd 30 df 6c 3d a5 78 ea 3d 3f 8f df bd
       -0.071476676 0.057830036 0.11448792 -0.10915994
0001e0 59 52 e2 3d 64 b5 89 bd 3d 58 66 bd 0d 40 36 bd
       0.11050863 -0.06724051 -0.056236494 -0.044494677
0001f0 94 6c 4e bd a1 cb 2a bc 9f 1b 2f 3d b5 24 22 bc
       -0.050396517 -0.0104245255 0.04275095 -0.009896447
000200 6b e3 89 3c 08 ef 5f 3b 95 ab 67 bd fc 01 8d bd
       0.016832074 0.0034169573 -0.056560118 -0.06885144
000210 59 c3 de bd a4 0f 0c 3d bf 4d 8a bd a4 46 8e bd
       -0.10877103 0.034194604 -0.0675311 -0.069470674
000220 88 1d a0 3d 68 3a 92 b8 b9 aa 87 bd b4 6c 0b 3d
       0.07818133 -6.9727015e-05 -0.0662436 0.034039214
000230 29 75 2b 3d df a0 0e 3d 9c a2 d8 3b 69 15 c3 bd
       0.04185978 0.034821387 0.0066111814 -0.09525568
000240 c0 6d 41 bd cb 52 9d bd 9e 4d 54 3d e9 a2 d1 3d
       -0.047223806 -0.07681807 0.051831834 0.10236151
000250 33 ab 79 3d 80 ee d8 3d 78 8f 04 be d5 af 7b bd
       0.060954284 0.10592365 -0.12945354 -0.061446983
000260 72 d3 b8 3d 42 e9 64 3d 9d d9 0c 3d c9 c7 69 bd
       0.09024705 0.055886514 0.03438722 -0.057075296
000270 33 d8 95 bd ae 90 8d 3c cc f2 d7 bd c8 fa 1f 3d
       -0.07316627 0.017280903 -0.10544357 0.039057523
000280 88 c3 58 3c 6f 05 30 3e 53 98 49 3d 0a ce 84 3c
       0.013230212 0.17189573 0.049217533 0.016211528
000290 75 da 2d 3d 70 4a 0b bd 56 e6 98 3d 8c 00 44 3d
       0.042444665 -0.034006536 0.07465808 0.047852084
0002a0 87 e2 37 bd 3f 17 4a 3c ce 20 5a bd 44 95 13 bd
       -0.044893768 0.012334644 -0.05325394 -0.036031023
0002b0 4b 9f 1a 3e b5 4e dc 3d 4a 9a 36 3d 74 9e 50 bd
       0.15099828 0.107572 0.044580735 -0.050932363
0002c0 44 cc b2 bd 23 da 46 bd 73 f0 af 3d 01 98 1a 3d
       -0.08730367 -0.048547875 0.08590784 0.03774262
0002d0 81 87 c0 b9 ab 54 82 3d 2a ea 85 3c 06 c6 0f bd
       -0.00036722052 0.063638054 0.01634701 -0.03510096
0002e0 9a 54 8f 3d 1b c7 7b bd 45 0d 98 3c 20 31 12 3d
       0.06998558 -0.06146918 0.018561015 0.03569138
0002f0 d6 f9 f8 bd bd 03 6e 3c 2d b6 c2 bc 94 55 0b 3d
       -0.121570274 0.014527258 -0.023768509 0.03401716
000300 16 3c 47 3d 00 b8 81 3d c5 2e c2 bd c1 84 86 3b
       0.048641287 0.06333923 -0.09481577 0.004105181
000310 30 f7 ef bc f9 44 cd 3c 98 31 e6 3d 4f 52 81 bc
       -0.029292673 0.025057303 0.11239928 -0.015786318
000320 8a 8d 8d 3d 6d 3f 04 3e c5 62 d1 3d cc 4b 26 bd
       0.06911762 0.1291482 0.10223917 -0.04059963
000330 8d c9 14 bc 29 41 00 3e 05 ef 1b bd ea 4c b2 3b
       -0.009081257 0.12524857 -0.038069744 0.005441298
000340 58 54 cf 3d 44 de fa bc d0 90 85 bd fa b5 c5 3d
       0.10123509 -0.030623563 -0.065217614 0.0965385
000350 56 f2 b2 bd af 53 ba bd 7c 56 08 3e fc 94 8f 3d
       -0.08737628 -0.09097993 0.13314241 0.070108384
000360 15 59 73 3d 99 70 b1 3d 1c 00 90 bc 89 a6 4c 3d
       0.059411127 0.086640544 -0.017578177 0.049963508
000370 f5 6c 10 bd 5e fd 68 bd c6 83 bc bd a8 16 15 bd
       -0.03526016 -0.056882255 -0.09204821 -0.03639856
000380 fc d7 78 3d c9 6a 2c bd 9b 74 3c 3c 53 b3 a9 3d
       0.060752854 -0.042094026 0.01150241 0.082861565
000390 0e f9 59 3d c0 f2 7c bd 74 d2 1d 3d 00 6f 5a 3d
       0.053216033 -0.061754942 0.038530782 0.053328514
0003a0 2b a8 87 3d 9b c6 f7 3c 4b 8c 97 bd 7e 77 11 3d
       0.06623872 0.03024607 -0.07399806 0.035514347
0003b0 18 1d 98 3d 25 60 0e bd b0 67 81 3c 0c 99 7c bd
       0.07427424 -0.03475966 0.015796512 -0.061669394
0003c0 db 1a 95 bd 74 bc bd bd d9 cc 5d bd 5a 40 91 3b
       -0.07280513 -0.0926446 -0.054150436 0.00443272
0003d0 5f 20 bd bd 93 36 00 3e e8 4b 00 3c 36 5b 84 3c
       -0.0923469 0.12520818 0.007830597 0.016156774
0003e0 ce 70 9a bc 49 c8 b1 bd 92 e8 c0 3c c7 d9 ab bd
       -0.018852618 -0.086807795 0.023548398 -0.08391147
0003f0 61 e2 c2 bd 95 99 f4 bc fe 7a a1 bd d3 e7 a5 bc
       -0.095158346 -0.02985839 -0.07884787 -0.020252144

arith.constant9 f4 [30, 60]
000000 85 fe e5 3d 8a 76 ae bc 8b 40 c0 3d 06 07 ce bb
       0.112301864 -0.021296758 0.093873106 -0.0062874584
000010 b7 d2 7f bd a3 6c 2b bc df 78 2f bd f2 01 91 3d
       -0.062456813 -0.010462913 -0.04283988 0.07080449
000020 e3 45 e4 bd a3 25 af bd d8 fa 6b bd 61 19 00 3d
       -0.11146142 -0.085521005 -0.05761227 0.031274203
000030 90 19 ce 3d e5 ee 10 3e 16 0b 68 bd c8 48 ac bd
       0.100634694 0.14153631 -0.056651197 -0.084123194
000040 30 c6 ca bd 6e 51 9d 3d 7e bd f1 bc e6 29 23 3d
       -0.099010825 0.07681547 -0.029509302 0.03983488
000050 37 30 26 3c c2 09 ea bd e0 0c e3 3c 9d 85 c1 3d
       0.010143331 -0.114276424 0.0277161 0.09449313
000060 ce b9 bb bd 19 15 97 bd 05 9b 75 bc dd ec 5a 3d
       -0.09166299 -0.07377071 -0.014990573 0.053448547
000070 88 37 d9 3c cf 43 02 bc f4 e7 69 bd 59 d7 ab 3d
       0.026515737 -0.007950737 -0.057105973 0.08390684
000080 ba fa 15 3d ff 89 05 be 4f 90 57 3d d0 6c cd 3d
       0.036616065 -0.13040923 0.052627858 0.1003052
000090 da 7a 1d 3e 03 d3 4e 3d 53 6b 9b 3d 22 db fe bb
       0.15378895 0.050494205 0.0758883 -0.0077775875
0000a0 58 b9 83 3d 75 ed 61 bb de d1 b2 3d a0 8f 16 3e
       0.06431836 -0.003447381 0.08731435 0.14703226
0000b0 e7 12 89 3d f6 95 ae bd 14 68 03 bd 99 a3 d3 3d
       0.066930585 -0.085246965 -0.03208168 0.10333938
0000c0 42 4d bd 3d 0d bc af 3d cf eb 1a 3e f8 b2 b1 bd
       0.092432514 0.0858079 0.15129016 -0.08676714
0000d0 4a c6 29 3b 5f 9f f2 bc ba b7 df 3d d7 e3 3f 3d
       0.0025905543 -0.02961701 0.10923715 0.046848144
0000e0 dc f7 b4 3d 69 81 b0 bd 75 7e a0 bd e6 04 67 3d
       0.08836338 -0.08618433 -0.0783662 0.056401156
0000f0 9f 76 a5 3d 06 6b 90 bd 46 3e bd bd 36 b5 cd bc
       0.08079266 -0.07051663 -0.09240393 -0.025110822
000100 19 ed 72 bd f7 7a a4 bd 1f 0b da bc 39 3a 8f bc
       -0.059308145 -0.08031266 -0.026616631 -0.017483817
000110 58 8e b0 3d 14 5e 3b bd cd 5f c0 3d 98 39 ff bd
       0.086209 -0.045744017 0.093932725 -0.12462157
000120 e2 b6 61 bd 95 29 59 3c 79 f4 93 bd 49 da a4 bd
       -0.05510605 0.013254543 -0.07224364 -0.08049447
000130 4a ac 71 bd f1 78 f1 3c db b5 9a 3d a7 97 5b 3d
       -0.0590022 0.029476615 0.075542174 0.053611424
000140 1d b4 a2 bd 21 f5 0e 3d 75 31 7b 3c ea b3 b8 3d
       -0.0794451 0.034901742 0.015331616 0.09018691
000150 38 ab 10 bd 9a 70 ec bc eb 10 50 bd c5 3e 5f bd
       -0.035319537 -0.028862286 -0.050797384 -0.05450322
000160 35 57 22 3d b5 0c 2c bc dc 7a d1 3c 2c de 6f 3d
       0.03963395 -0.0105010765 0.02557128 0.05856149
000170 a3 2c 2d 3d aa 70 89 3d d9 47 87 3d dc 07 39 3d
       0.042278897 0.06710942 0.06605501 0.04517351
000180 5f 18 c3 3d 9d 64 10 3c 49 db c9 bd 03 c8 de 3d
       0.09526133 0.008813051 -0.098562784 0.10877993
000190 17 b5 87 3d d1 9e 0d 3d 24 bc ac 3d 19 8c 0c 3e
       0.06626337 0.034575287 0.084343225 0.13725318
0001a0 84 82 41 bd fe 30 a2 bd 8a 7d 35 3d 36 6b f7 bc
       -0.04724361 -0.07919501 0.044309177 -0.03020249
0001b0 34 47 7d bd 41 2b bb bd 04 01 94 3c c3 6c 49 bd
       -0.061835483 -0.091391094 0.01806689 -0.04917599
0001c0 a9 01 b8 3d e9 b1 0b bd 4c eb 16 3c e2 9d 1e be
       0.08984692 -0.034105215 0.009211373 -0.15489915
0001d0 b2 42 43 bd aa 0b a4 3d 39 6f 6f bd 38 b5 d6 bc
       -0.047671027 0.08010037 -0.05845568 -0.026209459
0001e0 3c 2d 30 3b df 13 bb ba dc a3 a6 3d 14 35 c8 3c
       0.002688243 -0.001427289 0.081367224 0.024439372
0001f0 22 6a 3f bb b4 ee 2b bd b9 c1 41 3d 74 48 c0 bc
       -0.0029207547 -0.041975692 0.04730389 -0.023472048
000200 62 cb cf 3d 6e e1 16 3e 3f e5 5b 3d 79 14 9d 3d
       0.10146214 0.14734432 0.053685423 0.076699205
000210 7a 78 c3 bd 47 1d ac bc ae 33 8b 3b 7c a2 0e 3d
       -0.095444635 -0.021010054 0.004248104 0.034822926
000220 a3 e9 01 3d e7 07 cd 3d 8a 1f df 3d de 15 c6 3d
       0.031716954 0.10011273 0.108946875 0.096721396
000230 75 5d ef 3a 0a 02 51 3d 94 d1 fe 3d d5 9c 52 bd
       0.0018262105 0.051027335 0.124423176 -0.051419098
000240 a8 6d 44 3c 5d aa 91 3d 3a ca 30 bb 7a 22 da bd
       0.011989035 0.07112572 -0.0026976005 -0.10651107
000250 eb 11 ad 3d 7d c1 8d 3d c3 51 9e bc 76 72 e3 bd
       0.08450683 0.069216706 -0.019326096 -0.11105816
000260 88 03 97 bd e0 6d a2 bd e5 7a 24 3d 46 21 95 3d
       -0.073737204 -0.07931113 0.040156264 0.07281737
000270 17 4d f1 bd a4 12 bd 3d 41 e2 97 ba 33 97 2b 3e
       -0.11782282 0.09232071 -0.0011587815 0.16756897
000280 4f d6 31 3e bf e6 25 3e c5 66 08 3b 96 8a 4a 3d
       0.17366908 0.16201304 0.0020813209 0.049448572
000290 58 15 3c 3d ca 3e 4d bd ce a2 11 3d f4 46 e4 3d
       0.045918792 -0.05010871 0.035555653 0.11146346
0002a0 e3 8a 1b bd 26 f1 3c 3d 74 4d 03 3e f4 e4 19 bd
       -0.03797425 0.046128415 0.12822515 -0.037571862
0002b0 f1 7a c5 3a b1 82 8f 3d 13 11 21 bd a6 4e 65 bd
       0.0015066547 0.07007349 -0.039322924 -0.055983208
0002c0 9b e8 fa bd 75 f3 74 3d 18 c0 79 bd 6a dd 67 bd
       -0.12251397 0.05980249 -0.06097421 -0.05660764
0002d0 ec 28 d6 3d 63 9c 12 be 4d c1 c5 3d b3 06 97 3d
       0.10457024 -0.1431747 0.0965601 0.07374325
0002e0 28 3c c7 bd 32 39 a3 bd 45 5b f5 3d c4 8c 59 3d
       -0.09728271 -0.079698935 0.11980299 0.05311276
0002f0 ef a3 20 3d d4 83 8a bc 8c 6a 17 ba b7 e1 b5 bc
       0.03921884 -0.016908564 -0.00057760696 -0.022202356
000300 d1 21 ec 38 a1 e3 2a 3d c4 91 0e 3e 26 b3 4e 3d
       0.00011259656 0.04172099 0.13922793 0.050463818
000310 fe ae 2c 3d f6 08 8d 3d 0b 56 3e 3d 9d 24 c6 3d
       0.042159073 0.06886475 0.046468776 0.09674952
000320 a7 27 af bd a9 16 eb 3c d3 53 e6 3d aa 71 9a 3d
       -0.08552485 0.028697329 0.11246457 0.07541211
000330 23 b3 d1 3d d0 ca f4 3d 70 a2 d3 3d 2b eb 0e 3d
       0.10239246 0.11952746 0.10333717 0.034892242
000340 d2 ac bf bd cf 64 09 3e 9a 10 86 bd 60 94 ec bd
       -0.09359135 0.13417362 -0.06546135 -0.11551738
000350 c8 f9 a9 3d fa c4 80 3d 83 c8 99 3c f5 78 f5 bd
       0.08299595 0.0628757 0.01877237 -0.11985961
000360 97 7b 54 3e 48 f6 a3 bb aa d3 56 bd db e6 70 3d
       0.20750271 -0.0050037242 -0.052447952 0.05881391
000370 3d 1a 13 3d 09 f9 c2 3d 7a d7 02 3e fd 92 22 3d
       0.035913695 0.09520156 0.1277751 0.03969096
000380 b2 cc 64 bd 50 d2 c7 bd 18 fd 04 3d 12 df 32 3d
       -0.055859275 -0.09756911 0.03246793 0.043669768
000390 ce fb ed 3d d8 b1 77 3d 06 c1 1f 3e da ea 0b 3e
       0.116202936 0.06047234 0.15600976 0.13663808
0003a0 c1 8e 01 bd eb 46 1c be 52 e1 dd bc 8f d4 ef bd
       -0.03163028 -0.15261428 -0.02708498 -0.11710464
0003b0 14 2c 7e b9 1f 39 d9 bd 34 ef dc 3c 43 9e 18 be
       -0.00024239748 -0.10606598 0.02696953 -0.14904122
0003c0 e8 1c be 3c 48 91 f9 3c 63 14 cb 3d c4 88 69 bd
       0.023207143 0.030464783 0.09915998 -0.057015195
0003d0 4e 07 c1 bd ba 61 e9 bd 04 73 72 bc d6 fd 72 3c
       -0.094252214 -0.11395593 -0.01479793 0.014831027
0003e0 65 12 97 3d 1d 32 af bd d4 1a ad 3d 39 00 22 be
       0.07376555 -0.0855448 0.08452383 -0.15820397
0003f0 ee 77 b8 3c 80 6c 04 3e c0 f9 f0 bd 09 5b e6 3c
       0.022518124 0.12932014 -0.11766386 0.02811958
