Riproduzione/models/FD002/CNNSmallQUAD/CNN_small_QUAD.tflite (tflite, 119396 bytes, 9 tensors)

sequential_4/conv1d/BiasAdd/ReadVariableOp f4 [64]
0	0xbf779975	-0.9671853
1	0xbf0e1535	-0.5550111
2	0xbf26d964	-0.6517546
3	0xbf2159a1	-0.6302739
4	0xbf352777	-0.70763344
5	0xbf498735	-0.78721935
6	0xbf72874f	-0.94737715
7	0xbe9fdc33	-0.31222686
8	0xbf7f8d57	-0.9982504
9	0xbea3dd3e	-0.32004732
10	0xbfa02ded	-1.2514015
11	0xbf1f4777	-0.6221842
12	0xbf32e384	-0.6987841
13	0xbe14b2d8	-0.14521348
14	0xbe9c2652	-0.30497986
15	0x3ed26b32	0.4109741
16	0xbf223b94	-0.6337216
17	0xbf8e3c1f	-1.1112098
18	0xbfc7a451	-1.559702
19	0xbe848b96	-0.25887746
20	0xbf45418a	-0.7705313
21	0xbe708891	-0.23489596
22	0xbf908eb4	-1.129355
23	0xbf21ad25	-0.6315482
24	0xbec3e7fe	-0.38262933
25	0xbe9d808a	-0.3076213
26	0xbf81d0c8	-1.014184
27	0xbf060038	-0.52344084
28	0xbeed2722	-0.46318918
29	0xbeff7220	-0.49891758
30	0xbeecbffb	-0.4624022
31	0x3e958143	0.2920018
32	0xbece048c	-0.40237844
33	0xbf8c840a	-1.0977795
34	0xbef49574	-0.47770274
35	0xbf2f7c13	-0.685487
36	0xbf081bdc	-0.5316751
37	0xbeafed68	-0.34360814
38	0xbed32b8a	-0.41244155
39	0xbec98abc	-0.39363658
40	0xbee30510	-0.443398
41	0xbe8dc64c	-0.2769035
42	0xbe800e24	-0.25010788
43	0xbef8a1a2	-0.48560816
44	0xbf133255	-0.57498676
45	0xbe9f5370	-0.31118345
46	0xbf20641b	-0.6265275
47	0xbf05a470	-0.52204037
48	0xbf436fd3	-0.76342505
49	0xbf03a6ee	-0.5142659
50	0xbf6868ce	-0.9078492
51	0xbe46540f	-0.19368003
52	0xbf3d80dc	-0.7402475
53	0xbea908c6	-0.33014506
54	0xbf500a20	-0.8126545
55	0xbf32de87	-0.698708
56	0xbf55dcf4	-0.8354027
57	0xbf118a28	-0.56851435
58	0xbf37a93d	-0.7174261
59	0xbf736e89	-0.9509054
60	0xbe951403	-0.2911683
61	0xbf9f0f2c	-1.2426505
62	0xbf9b78fc	-1.2146297
63	0xbf806aae	-1.0032556

sequential_4/conv1d_1/BiasAdd/ReadVariableOp f4 [32]
0	0xbd7672b4	-0.060167983
1	0xbd75d810	-0.060020506
2	0x3e2cfd50	0.16893506
3	0xbf79fb53	-0.97649115
4	0xbd91798e	-0.07103263
5	0xbef50838	-0.47857833
6	0x3eb1561d	0.34636012
7	0xbda217d7	-0.07914703
8	0xbf6849ad	-0.9073742
9	0xbee9611b	-0.45581898
10	0x3eefb886	0.46820468
11	0xbeb2b306	-0.3490221
12	0xbd708a7f	-0.05872583
13	0x3e618ed0	0.22027135
14	0xbd7dddf1	-0.061979238
15	0xbd72617f	-0.05917501
16	0xbf5cc99d	-0.8624514
17	0xbe17b0d2	-0.14813545
18	0xbd75d462	-0.060016997
19	0xbe85392f	-0.2602019
20	0xbd75fbc7	-0.060054567
21	0xbd7b8508	-0.061406165
22	0xbd75fbcd	-0.06005459
23	0xbd74ff03	-0.05981351
24	0xbd68ab35	-0.0568039
25	0x3d109e45	0.035307188
26	0x3f49ac65	0.7877868
27	0x3d9f5d5e	0.0778148
28	0x3c379ec4	0.011207286
29	0xbd752e0e	-0.059858374
30	0x3e871cb9	0.263891
31	0xbe8cd486	-0.27505893

sequential_4/conv1d_2/BiasAdd/ReadVariableOp f4 [16]
0	0x3f7c4b11	0.9855204
1	0x3fc047cf	1.5021914
2	0xbe41e998	-0.18936765
3	0x40075435	2.1145146
4	0xbee3d5c9	-0.44499043
5	0xbef2f949	-0.47455814
6	0x3e060e9e	0.13091514
7	0xbda3c2b6	-0.079961225
8	0x3f3adad7	0.72990173
9	0xbfc56ba1	-1.5423471
10	0x3fc5b6e4	1.5446439
11	0x3f42bac6	0.76066244
12	0xbec102a8	-0.3769734
13	0xbef1f977	-0.4726064
14	0x3f81a1f7	1.0127553
15	0x3f02fc97	0.5116667

sequential_4/conv1d/Conv1D f4 [64, 1, 8, 21]
0	0x3fd57ec0	1.6679306
1	0x3f9dff3b	1.2343515
2	0x3f0b6d21	0.5446339
3	0x3e452887	0.19253741
4	0x3fa3c71d	1.279514
5	0x3f9c24e2	1.2198756
6	0x3fa2ba8c	1.271318
7	0xbe9c38e8	-0.30512166
8	0x3f28e84c	0.65979457
9	0x3d404f67	0.046950724
10	0xbee5b3ca	-0.4486373
11	0x3fab453a	1.3380501
12	0xbf59b341	-0.85039145
13	0xc007b285	-2.120271
14	0x3f3033a5	0.68828803
15	0xbe8b0b88	-0.27157235
16	0x3eea0dca	0.45713645
17	0xbe957523	-0.2919093
18	0xbf6a2962	-0.91469395
19	0x3fa22562	1.2667658
20	0x3fa4760d	1.2848526
21	0xbdb633ee	-0.088966236
22	0xbd45bd9a	-0.04827652
23	0xbe93a596	-0.2883727
24	0xbe7d35e7	-0.24727593
25	0xbe08dbb8	-0.13365066
26	0xbda8a1c4	-0.08233979
27	0x3e32e0a5	0.17468508
28	0xbf2568e8	-0.646132
29	0xbe25c135	-0.16186984
30	0x3db9bb90	0.09068978
31	0xbf6449b6	-0.89174974
32	0x3e2974df	0.16548489
33	0xbf0c6304	-0.54838586
34	0xbf491bef	-0.7855825
35	0x3e34dd71	0.17662598
36	0x3fae1316	1.3599575
37	0xbec0f349	-0.37685612
38	0xbf031f09	-0.5121923
39	0xbf289627	-0.65854114
40	0x3e4d580a	0.20053115
41	0x3e008941	0.12552358
42	0x3f4b3a73	0.7938606
43	0x3e2068fd	0.1566505
44	0xbeefdb6a	-0.46847087
45	0xbec6863d	-0.3877429
46	0x3f311a3a	0.69180644
47	0x3f04de30	0.5190153
48	0x3e743fdb	0.23852484
49	0xbfa47ef5	-1.2851244
50	0xbe8ba0fe	-0.27271265
51	0xbef310f1	-0.47473863
52	0xbf87effc	-1.0620112
53	0x3e6359aa	0.22202173
54	0xc00d295e	-2.2056499
55	0xbf83a1be	-1.0283735
56	0x3fa2bb2c	1.271337
57	0x3d341603	0.043966305
58	0xbe848df0	-0.2588954
59	0xbfabf17b	-1.3433069
60	0xc00f713f	-2.241287
61	0x3e75335f	0.23945378
62	0x3eb5a884	0.3548013
63	0x3f901b5c	1.125835
64	0x3f505315	0.81376773
65	0x3e093934	0.13400728
66	0x3ed1a88b	0.409489
67	0x3f52d059	0.82349163
68	0x3f66bf64	0.9013579
69	0x3f87eed7	1.0619763
70	0xbedb0af6	-0.427818
71	0x3ea583dc	0.32327163
72	0x3ee96995	0.45588365
73	0xbeb68bef	-0.35653636
74	0x3f80d86d	1.0066048
75	0xbf36dd6e	-0.71431625
76	0xbf39c1a7	-0.72561115
77	0x3e4ad842	0.19809058
78	0x3fa3a55a	1.2784836
79	0x3e81a67c	0.2532233
80	0xbea36ee0	-0.31920528
81	0xbf38f5d5	-0.7225011
82	0x3f8b8fd0	1.0903263
83	0x3f814f63	1.0102352
84	0xbed51396	-0.41616505
85	0xbe3b9c69	-0.18321384
86	0xbf21fd5c	-0.6327722
87	0xbef56f96	-0.47936696
88	0xbe9dae90	-0.30797243
89	0xbe3d2c49	-0.18473925
90	0x3de3481a	0.11097737
91	0xbfb0f211	-1.3823873
92	0xbe924cef	-0.2857432
93	0x3e909c40	0.2824421
94	0xbf8721d1	-1.0557195
95	0xbc1776f7	-0.009244672
96	0xbfc6ba37	-1.5525578
97	0xbf0cae5f	-0.5495357
98	0x3e992731	0.29912713
99	0x3e9d03ef	0.30667064
100	0xbf06eef0	-0.5270834
101	0xbfad587d	-1.354263
102	0xbfc49cf5	-1.53604
103	0xbd788105	-0.060669918
104	0xbdc9c226	-0.09851484
105	0x3f471b9a	0.7777649
106	0x3f948d79	1.1605674
107	0x3e9ba50d	0.3039936
108	0xbf388fc3	-0.7209436
109	0xbe559d83	-0.20860867
110	0x3c544835	0.012956669
111	0x3d8f2396	0.06989209
112	0x3f19e3cd	0.6011322
113	0x3f31114e	0.6916703
114	0xbf98edf3	-1.1947616
115	0xbf3c9538	-0.7366519
116	0x3e2dbd34	0.16966707
117	0x3dd5bf34	0.1043686
118	0xbf8bed9e	-1.093189
119	0x3db7a18a	0.08966358
120	0xbee1f5de	-0.44132894
121	0x3e293ac9	0.16526331
122	0x3f2ece96	0.68283975
123	0x3e5ee732	0.21767882
124	0x3e9f8875	0.31158796
125	0x3e93a99d	0.28840342
126	0x3f532986	0.82485235
127	0x3f12ae02	0.57296765
128	0xbe5bd177	-0.21466623
129	0xbeb1edce	-0.34751743
130	0x3dea0ceb	0.11428245
131	0x3e4389e0	0.19095564
132	0x3e9a9f75	0.3019978
133	0xbf295fa2	-0.6616155
134	0x3ea8c329	0.32961395
135	0xbe0098d3	-0.12558298
136	0xbf908c16	-1.1292751
137	0x3e82a1c5	0.25514045
138	0xbf8f5a44	-1.1199422
139	0xbf53cfb4	-0.82738805
140	0x3e98230a	0.29714233
141	0x3e681eec	0.22668046
142	0xbe7677a1	-0.24069072
143	0xbefdfa82	-0.49605185
144	0xbf8600f0	-1.0469036
145	0x3eca56d8	0.39519382
146	0x3ea63540	0.32462502
147	0x3f639b65	0.8890899
148	0x3f14683f	0.57971567
149	0xbf27a876	-0.65491426
150	0xbf10ee98	-0.56614065
151	0x3f79643d	0.97418576
152	0x3f7b06cc	0.98057246
153	0x3f5ca134	0.86183476
154	0xbf1db192	-0.61599076
155	0xbd1d8604	-0.038457885
156	0xbeed203b	-0.46313652
157	0xbfbf4acb	-1.49447
158	0x3f569e8c	0.83835673
159	0xbf9b2194	-1.2119622
160	0xbfcb283a	-1.5871651
161	0x3eb54440	0.35403633
162	0xbde38897	-0.11110037
163	0xbebf0eb5	-0.37315908
164	0xbf161e42	-0.5863992
165	0xbf965184	-1.1743627
166	0x3f7c18aa	0.98475134
167	0x3f97e55f	1.1866874
168	0x3eae5fb8	0.34057403
169	0x3e7351ac	0.23761624
170	0x3c78c24c	0.015183043
171	0x3db64202	0.08899309
172	0x3da07494	0.078347355
173	0x3de0ebad	0.109824516
174	0x3e40aacc	0.18815154
175	0xbe134022	-0.14379933
176	0x3e16920a	0.14704147
177	0x3f259bfb	0.6469113
178	0xbe4d9d08	-0.20079434
179	0x3dd608ae	0.10450874
180	0xbea22d82	-0.31675345
181	0xbf5895b9	-0.8460346
182	0xbe2907b5	-0.16506846
183	0xbe49615c	-0.19666046
184	0x3dd4d12f	0.10391461
185	0xbe99e6bf	-0.30058858
186	0xbeafc131	-0.3432708
187	0x3e845df6	0.25852937
188	0x3df7e450	0.12104094
189	0x3fb20158	1.390666
190	0x3ef202d2	0.47267777
191	0xbe4d4937	-0.2004746
192	0x3e2fc360	0.17164373
193	0x3f5d7560	0.86507225
194	0x3f30b61d	0.6902788
195	0x3f350ebb	0.707256
196	0xbf4e5c30	-0.80609417
197	0xbdb317b0	-0.087447524
198	0x3f81fd9e	1.0155523
199	0xbf855cd3	-1.0418953
200	0x3f36b91b	0.713762
201	0xbf9847c5	-1.1896902
202	0xc00052ed	-2.0050614
203	0x3f082e2e	0.53195465
204	0x3f5d9058	0.86548376
205	0x3e0050cf	0.12530826
206	0xbf4c3afa	-0.7977749
207	0xbf88d52e	-1.0690057
208	0x3f427ab9	0.7596851
209	0x3f35a994	0.7096188
210	0x3f8c79cc	1.097467
211	0x3f0ed671	0.5579596
212	0xbe715d85	-0.23570831
213	0xbce1d617	-0.027567906
214	0x3f2891de	0.65847576
215	0x3ee9d6fc	0.45671833
216	0x3ed02a12	0.40657097
217	0xbf3241dd	-0.6963175
218	0xbd803872	-0.06260766
219	0xbf15e66f	-0.5855474
220	0xbf842de4	-1.0326505
221	0x3edd0969	0.43171242
222	0xbf9b63cd	-1.2139832
223	0xbfab6dca	-1.339288
224	0x3f953c49	1.1659023
225	0xbf9b364e	-1.2125947
226	0xbdc03457	-0.09384983
227	0xbf2c6415	-0.67340213
228	0xbf8d2fc3	-1.1030201
229	0x3edfcd19	0.43711165
230	0x3f0589ce	0.521634
231	0x3ef97fcd	0.48730317
232	0x3e7b11c8	0.24518502
233	0xbdbbff15	-0.091795124
234	0xbdc3033f	-0.095221035
235	0x3f12aec6	0.57297933
236	0x3efbbdca	0.49168235
237	0x3f1d4f48	0.614491
238	0xbeb7f306	-0.359276
239	0xbe05a448	-0.1305095
240	0x3f00967a	0.5022961
241	0xbef14b38	-0.471277
242	0x3f09a290	0.53763676
243	0xbf056e48	-0.521214
244	0xbf677847	-0.90417904
245	0xbe9f4455	-0.3110682
246	0xbe803085	-0.25037017
247	0xbe4873e3	-0.19575457
248	0xbe855189	-0.2603877
249	0xbec563b5	-0.38552633
250	0x3f0ca208	0.5493474
251	0x3f3f61eb	0.74758786
252	0x3e02207e	0.12707707
253	0x3e96adef	0.29429576
254	0x3e972ec6	0.29527873
255	0x3ef5f3db	0.4803761

sequential_4/conv1d_1/Conv1D f4 [32, 1, 6, 64]
0	0xbdc29213	-0.09500518
1	0xbdeb58f0	-0.11491573
2	0x3d2311b3	0.0398118
3	0xbe1fda3a	-0.1561059
4	0xbe189d6d	-0.14903803
5	0xbc87471c	-0.0165134
6	0xbb2770d4	-0.0025549429
7	0xbdea6d6e	-0.11446653
8	0xbdd87402	-0.10569002
9	0xbdb72120	-0.08941865
10	0xbd947478	-0.07248777
11	0xbd7a30ef	-0.061081823
12	0x3d24e56d	0.04025786
13	0xbd157604	-0.0364895
14	0xbdfcf1e6	-0.12350826
15	0xbdb5d2b2	-0.088780776
16	0xbe1a61c9	-0.15076365
17	0x3d0b06a1	0.03394187
18	0xbdf077ea	-0.11741622
19	0xbdad2182	-0.08453657
20	0xbdb16c88	-0.08663279
21	0x3d0ae2fc	0.033907875
22	0x3c08cce4	0.008349631
23	0xbd469558	-0.04848227
24	0x3c3262a4	0.010887776
25	0x3cf0da89	0.02940108
26	0xbd593718	-0.053031057
27	0xbd63a58a	-0.055577792
28	0xbd9f7207	-0.07785421
29	0xbe02d485	-0.12776382
30	0xbccc6a1e	-0.024952944
31	0xbe1c3ac7	-0.15256797
32	0xbdb47d65	-0.088129796
33	0xbcbc2f5b	-0.0229718
34	0xbd9cd4f8	-0.07657808
35	0x3d29d7cb	0.04146556
36	0x3b7cfab0	0.003860157
37	0x3cae7bf0	0.021299332
38	0x3c7aac45	0.015299861
39	0x3d16e852	0.03684265
40	0xbd45c110	-0.048279822
41	0x3cae7a57	0.02129857
42	0xbd7f59f0	-0.06234163
43	0xbd4c4ac4	-0.04987599
44	0xbdf2cf18	-0.11855906
45	0xbe061d7f	-0.1309719
46	0xbe20ce43	-0.15703683
47	0x3c7ce6fe	0.015435932
48	0xbd66b6b3	-0.05632658
49	0xbdf2bbaf	-0.11852204
50	0xbd08e0af	-0.0334174
51	0xbb96e161	-0.004604504
52	0xbd1edaac	-0.03878276
53	0xbd733005	-0.059371967
54	0xbe20ec70	-0.15715194
55	0xbc282ca8	-0.010264553
56	0xbd572b5f	-0.052531596
57	0xbd65e29d	-0.05612432
58	0xbe135da2	-0.14391187
59	0xbe0db01c	-0.13836712
60	0xbcfbf785	-0.030757675
61	0x3ca35e0a	0.019942302
62	0xbd8c02ad	-0.06836448
63	0xbc276b5d	-0.0102184685
64	0x3d0b1c73	0.03396268
65	0xbd83149b	-0.064004146
66	0xbd332540	-0.043736696
67	0xbe107392	-0.14106587
68	0xbd84075a	-0.06446715
69	0x3d12072e	0.03565138
70	0xbe0e4bcd	-0.13896103
71	0x3d150245	0.036379118
72	0xbe12dcca	-0.14342037
73	0xbc63a649	-0.013894626
74	0xbde800f5	-0.113283075
75	0xbd2dc051	-0.042419735
76	0xbd4c68ee	-0.049904756
77	0xbc9ddc7e	-0.019270178
78	0xbe103daf	-0.1408603
79	0xbd18626e	-0.037203245
80	0xbde4e3c1	-0.11176253
81	0xbde90026	-0.113769814
82	0xbe0dc8e9	-0.13846172
83	0xbdcd7f29	-0.100340195
84	0xbe0122d6	-0.12610945
85	0xbe22de93	-0.15905218
86	0xbe085f25	-0.13317545
87	0xbe063521	-0.13106205
88	0xbe0578ba	-0.13034335
89	0xbe20fe56	-0.15722021
90	0x3ca36f0b	0.01995041
91	0xbd51bfb8	-0.051208228
92	0xbdc40d3b	-0.09572836
93	0xbd411ed1	-0.04714853
94	0x3d1fee4e	0.039045624
95	0xbe0d8d0a	-0.13823333
96	0xbe1449a9	-0.14481224
97	0xbd3f23c2	-0.04666496
98	0xbda05f63	-0.078306936
99	0xbd43b689	-0.0477815
100	0xbd37c73c	-0.04486774
101	0xba3a2e7a	-0.00071022625
102	0xbd65167e	-0.055929653
103	0xbd619191	-0.055070464
104	0xbdf70f8b	-0.120635115
105	0x3d171401	0.03688431
106	0xbd817dee	-0.06322847
107	0xbdddcf09	-0.108305044
108	0xbe25685d	-0.16153093
109	0xbd79654e	-0.060887627
110	0xbd80bd97	-0.062861614
111	0xbe048c5f	-0.12944172
112	0xbd452c3f	-0.0481379
113	0x3d1083fb	0.035282116
114	0xbd2c1635	-0.042013366
115	0x3c4888b4	0.012239624
116	0xbd539b77	-0.051661935
117	0x3c673636	0.014112046
118	0xbdec39c1	-0.11534453
119	0xbdceb022	-0.100921884
120	0xbd90dfa6	-0.070739076
121	0xbdabaf7a	-0.08383079
122	0xbe0ccaaa	-0.13749185
123	0xbd66ddf6	-0.056364022
124	0x3b30b32d	0.0026962266
125	0xbdd7159a	-0.10502167
126	0xbda49b4e	-0.080374345
127	0xbdfb7023	-0.12277248
128	0xbe01f2b4	-0.1269024
129	0xbe20c982	-0.15701869
130	0x3ce08284	0.027405985
131	0xbe0b0871	-0.13577439
132	0xbd34605c	-0.044037208
133	0xbd21b7db	-0.03948198
134	0x3c702bba	0.014658863
135	0x3afb922d	0.0019193344
136	0x3b86415b	0.0040971464
137	0xbc89a6ed	-0.01680323
138	0xbdb215ad	-0.086955406
139	0xbce25084	-0.027626283
140	0xbd10556a	-0.035237707
141	0x3ce27da5	0.027647803
142	0x39a7c26a	0.00031997572
143	0xbd051339	-0.032489035
144	0xbe0b65b3	-0.13613014
145	0xbe1d7ad8	-0.15378892
146	0xbe1a258e	-0.15053388
147	0xbe051262	-0.12995294
148	0xbe01b814	-0.12667876
149	0xbdde6722	-0.10859515
150	0xbd9e2e55	-0.07723681
151	0x3ce4b852	0.027919922
152	0x3c0a3cb5	0.008437325
153	0xbd913104	-0.07089427
154	0xbe145630	-0.14486003
155	0xbdc4e5bd	-0.096141316
156	0xbe0fd0cc	-0.14044493
157	0xbe168d98	-0.14702451
158	0xbab847c4	-0.0014059474
159	0xbe06084e	-0.13089105
160	0x3bf67639	0.0075214175
161	0xbbc939d5	-0.0061409273
162	0xbda67425	-0.081276216
163	0xbe10b37c	-0.14130968
164	0xbc056480	-0.008141637
165	0xba75e197	-0.0009379624
166	0xbdaa482f	-0.08314549
167	0xbd23329c	-0.039843187
168	0xbd3a1362	-0.04542864
169	0xbe115f74	-0.14196569
170	0xbca9d16a	-0.02072974
171	0xbcccf7df	-0.025020538
172	0xbe216621	-0.15761615
173	0xbca118da	-0.01966517
174	0xbe0bfe69	-0.13671269
175	0x3c110b0f	0.008852734
176	0xbc897550	-0.016779572
177	0xbdf51166	-0.11966209
178	0xbc974168	-0.018463805
179	0x3ce7a6a3	0.0282777
180	0xbd93f375	-0.0722417
181	0xbd8cb01a	-0.06869526
182	0xbd7974a5	-0.060902257
183	0x3cda0619	0.026614236
184	0xbe25d4c2	-0.16194442
185	0x3cac81cd	0.021057988
186	0xbdddcfe0	-0.10830665
187	0xbcebeb96	-0.02879886
188	0x3cbdfafa	0.023190964
189	0xbe24875e	-0.16067263
190	0xbc8810d8	-0.016609594
191	0x3d26ce03	0.04072381
192	0xbdf242d0	-0.1182915
193	0xbe10b301	-0.14130785
194	0xbdb725c3	-0.08942749
195	0xbe104b2b	-0.14091174
196	0xbd405d38	-0.0469639
197	0xbd807057	-0.06271427
198	0xbda5a87f	-0.08088779
199	0xbe0043e4	-0.12525898
200	0x3c47f827	0.01220516
201	0xbdf905d1	-0.121593125
202	0xbc6c8e5e	-0.01443824
203	0xbe038c66	-0.12846527
204	0xbdb476be	-0.08811711
205	0xbe048503	-0.12941365
206	0xbe1ecbc9	-0.15507425
207	0xbd5e202a	-0.054229893
208	0x3c892a8e	0.016743924
209	0xbd9e3586	-0.077250525
210	0xbe14f50f	-0.14546607
211	0xbde1adcb	-0.110194765
212	0xbe1166d1	-0.14199378
213	0xbe1113ac	-0.1416766
214	0xbd5ca617	-0.053869333
215	0xbe03b48f	-0.12861846
216	0x3c5cd33b	0.013478096
217	0x3ceb63d9	0.028734135
218	0xbd6c7a1c	-0.05773364
219	0xbe23e2ed	-0.16004534
220	0xbe057ebf	-0.13036631
221	0xbdb0a1ee	-0.08624636
222	0xbe1362b0	-0.14393115
223	0x3cc6e5b1	0.024279447
224	0xbe07fcfc	-0.132801
225	0xbd996bc8	-0.07491261
226	0xbdfce0d1	-0.12347568
227	0xbdc12996	-0.0943176
228	0xbdccfc4b	-0.100090586
229	0xbd8589d9	-0.06520433
230	0xbe0a1024	-0.1348272
231	0xbd5691cd	-0.05238514
232	0x3bc8a743	0.006123455
233	0xbad439fa	-0.0016191595
234	0xbd4c1b86	-0.049830936
235	0xbe05570f	-0.13021491
236	0xbd91f89b	-0.07127496
237	0xbd2bb5e1	-0.0419215
238	0xbda296bc	-0.079389066
239	0xbe189119	-0.148991
240	0xbd3be433	-0.045871925
241	0xbca39f40	-0.019973397
242	0xbd84401f	-0.06457543
243	0xbdb0fdd3	-0.08642163
244	0xbdceca86	-0.10097222
245	0xbd51d873	-0.051231813
246	0xbc3ad327	-0.011402882
247	0xbe18dfd9	-0.14929141
248	0x3d0faf60	0.03507936
249	0xbde18ce1	-0.11013199
250	0x3d1e7579	0.03868625
251	0x3d1d813b	0.038453322
252	0xbddc4592	-0.10755457
253	0xbcd59474	-0.026071765
254	0x3cff57e1	0.031169834
255	0x3d0f76b1	0.035025302

sequential_4/conv1d_2/Conv1D f4 [16, 1, 3, 32]
0	0x3e6d01a1	0.23145153
1	0x3dfadada	0.12248774
2	0x3e16dd9f	0.14732979
3	0x3daf57f4	0.085616976
4	0x3e49ca79	0.19706143
5	0x3d77788a	0.06041769
6	0xbe0b23df	-0.13587902
7	0x3df3886e	0.11891256
8	0xbe0aa532	-0.1353958
9	0xbef65889	-0.48114422
10	0xbec55670	-0.3854251
11	0xbcee0dbe	-0.029059287
12	0xbdae3fb4	-0.08508244
13	0x3f012f4c	0.50462794
14	0x3d0b4e0d	0.034009982
15	0xbd93db23	-0.072195314
16	0x3dcb9d7a	0.09942146
17	0x3e2ecd45	0.17070492
18	0x3e248d73	0.16069584
19	0xbc8a527d	-0.016885037
20	0x3c76cddf	0.015063732
21	0xbd82fc8e	-0.06395827
22	0x3d959f60	0.07305789
23	0x3d20084c	0.039070413
24	0xbde10382	-0.10986997
25	0x3e362ef1	0.17791344
26	0xbdea14b4	-0.1142973
27	0x3df4f198	0.11960143
28	0x3e64a12c	0.22327107
29	0x3e31509b	0.17315905
30	0x3e3020d9	0.1720003
31	0x3e1c15f9	0.15242757
32	0x3e8043f3	0.2505184
33	0x3d55246a	0.05203668
34	0x3e9c245e	0.30496496
35	0x3da26300	0.07929039
36	0x3e1b5d88	0.15172398
37	0x3e0de0f0	0.13855338
38	0x3de9c617	0.11414736
39	0xbdbfbad5	-0.09361807
40	0x3db62d02	0.08895303
41	0x3c38e30b	0.0112846
42	0xbca5ef32	-0.020255659
43	0x3f080d29	0.5314508
44	0x3e501541	0.20320608
45	0x3f19d638	0.60092497
46	0x3d90cc85	0.07070259
47	0x3e398977	0.18118845
48	0x3e4d0988	0.20023167
49	0x3d83bc99	0.064324565
50	0x3e69f0db	0.22845785
51	0x3da34eb7	0.07973998
52	0x3dfbcc6e	0.12294851
53	0x3e4ca9c9	0.19986643
54	0xbcf8c358	-0.030366585
55	0xbda6f910	-0.08152974
56	0xbe23d409	-0.15998854
57	0x3c1ee9e3	0.009699318
58	0xbdc95835	-0.09831277
59	0x3dde1bec	0.108451694
60	0xbf018b2e	-0.50602996
61	0x3c885cdc	0.016645841
62	0x3e3d9ed7	0.18517624
63	0xbe381490	-0.17976594
64	0xbd907811	-0.07054151
65	0xbe033760	-0.12814093
66	0x3db3b72b	0.08775171
67	0x3e7793d1	0.24177481
68	0xbe071181	-0.13190271
69	0x3e113556	0.14180502
70	0xbcf03bce	-0.029325392
71	0x3d56b004	0.052413955
72	0x3c933093	0.017967498
73	0x3def524e	0.1168562
74	0xbf47a8ee	-0.7799214
75	0x3da94cee	0.08266626
76	0x3d9359c5	0.071948566
77	0x3f09c50f	0.5381631
78	0xbda91a9a	-0.08257027
79	0xbdea84e7	-0.1145113
80	0x3e1eb3f0	0.15498328
81	0x3ea8a541	0.3293858
82	0xbd7a079b	-0.06104241
83	0x3e8639b9	0.26215914
84	0xbcd8cf35	-0.026465992
85	0x3e37517b	0.17902176
86	0xbe0db2cb	-0.13837735
87	0x3dcbdbcb	0.099540316
88	0xbc4bc9a4	-0.012438212
89	0x3e4a8f82	0.19781306
90	0xbd4b32e3	-0.049609076
91	0x3e7567fc	0.23965448
92	0x3e8cb5b1	0.2748237
93	0x3e40b43c	0.18818754
94	0x3e488747	0.19582854
95	0x3e868c8a	0.26279098
96	0xbe736229	-0.23767914
97	0x3da6b9a2	0.081408754
98	0xbc5c1c08	-0.013434418
99	0x3ebb5041	0.36584666
100	0xbcc956f7	-0.0245776
101	0x3e6fe337	0.2342652
102	0x3ead8b59	0.33895376
103	0x3dd5e68b	0.10444363
104	0x3c3c226a	0.011482814
105	0xbe3c9464	-0.18415982
106	0xbf05599f	-0.52089876
107	0x3f6837fc	0.90710425
108	0xbc47cf57	-0.01219543
109	0xbc64bce0	-0.013961047
110	0xbe0f4cd6	-0.13994154
111	0xbdf55d32	-0.11980666
112	0x3e4869cb	0.19571607
113	0x3d25ea99	0.040506933
114	0xbe489da4	-0.19591385
115	0x3f4dd5e0	0.8040447
116	0xbda59e37	-0.08086818
117	0xbdc18f99	-0.09451217
118	0x3e04eb59	0.12980403
119	0xbe57c23f	-0.21070193
120	0xbe02c39e	-0.12769935
121	0xbdf0696a	-0.11738856
122	0x3f8efe92	1.1171439
123	0x3ebd61ac	0.3698858
124	0xbdff5203	-0.12466814
125	0x3cd2a2c2	0.025712375
126	0x3f0fb881	0.56140906
127	0xbdbe4160	-0.09289813
128	0x3d057a43	0.0325873
129	0xbd05aab2	-0.03263349
130	0xbeb246c8	-0.34819627
131	0xbecce37d	-0.4001731
132	0xbd5b6325	-0.05356135
133	0x3df6a625	0.12043408
134	0x3e9385a4	0.28812897
135	0xbeac0fe8	-0.33605886
136	0x3ea76a9f	0.32698533
137	0x3f264076	0.6494211
138	0xbf15fc0e	-0.5858773
139	0xbde1d596	-0.110270664
140	0x3c530cc7	0.012881464
141	0xbe33723d	-0.17524047
142	0xbe0c1e37	-0.13683401
143	0xbdefc2ca	-0.11707075
144	0xbee76192	-0.45191628
145	0xbf630ef0	-0.8869467
146	0xbe4260a5	-0.1898218
147	0x3ed4951f	0.4152002
148	0xbe390319	-0.18067588
149	0x3ce31960	0.02772206
150	0xbd5b67f5	-0.053565938
151	0xbe4ad641	-0.19808294
152	0xbe610ea9	-0.21978249
153	0x3ed710ea	0.42005092
154	0x3ebda5e3	0.37040624
155	0x3ea4769c	0.32121742
156	0x3e807ff1	0.25097612
157	0xbe81dab1	-0.2536216
158	0x3e56e8fd	0.20987315
159	0x3e13c26a	0.14429632
160	0xbe22a381	-0.15882684
161	0x3cdadba3	0.02671606
162	0x3f5a87ce	0.8536347
163	0xbfff3ca9	-1.9940387
164	0x3d267c31	0.040645782
165	0xbf941d6f	-1.1571482
166	0xbef9f41b	-0.4881905
167	0x3e4eb3cc	0.20185775
168	0xbeead2b4	-0.4586388
169	0xbf67ad6f	-0.90499014
170	0x3f3e692c	0.7437923
171	0x3ec0b57d	0.37638465
172	0x3e0c4189	0.13696875
173	0x3e192960	0.1495719
174	0xbd6a638e	-0.05722385
175	0xbe43ff46	-0.19140348
176	0xbf4816a3	-0.7815954
177	0xbf7eec00	-0.9957886
178	0xbde050c4	-0.10952905
179	0x3e40ed2e	0.18840477
180	0xbc385fa2	-0.011253269
181	0xbda64beb	-0.08119949
182	0xbe3519d3	-0.17685632
183	0xbdb4c8f2	-0.0882739
184	0xbe18b3a2	-0.14912274
185	0xbf1db7bb	-0.61608475
186	0x3ea32b8a	0.31869155
187	0xbfdfd98c	-1.7488265
188	0x3d671478	0.056416005
189	0xbe27d6d1	-0.1639054
190	0x3bdc847c	0.0067296606
191	0xbd8d74bb	-0.0690703
192	0x3e69f26c	0.22846383
193	0xbc96aaed	-0.01839205
194	0xbf8258ac	-1.018331
195	0xbf410aec	-0.7540729
196	0xbe03607b	-0.12829773
197	0x3eb1db4c	0.34737623
198	0xbe509900	-0.20370865
199	0x3d56af22	0.052413113
200	0x3db863f6	0.09003441
201	0xbda8adf2	-0.082363024
202	0xbf4a3bcc	-0.7899749
203	0xbed1d0b4	-0.4097954
204	0xbdb1c079	-0.08679289
205	0xbfd4ee71	-1.6635267
206	0x3dad03d3	0.08447995
207	0x3e164435	0.14674456
208	0xbec47d44	-0.3837682
209	0xbc2958fd	-0.010336158
210	0xbc8e1afd	-0.017346853
211	0xbd550710	-0.05200869
212	0xbda9025f	-0.082524054
213	0x3e1d0117	0.15332447
214	0x3ce0adca	0.02742662
215	0x3c5fba01	0.013655187
216	0xbd5893cf	-0.052875336
217	0x3ee4ba0c	0.44673193
218	0xbe88a8b7	-0.2669122
219	0x3e40f66d	0.18844004
220	0x3edbf035	0.429567
221	0x3dc1f747	0.094709925
222	0xbe22daf9	-0.15903844
223	0xbf7e1c4e	-0.9926194
224	0x3dee234a	0.116278246
225	0xbd9f1b4b	-0.077688776
226	0xbf463d94	-0.7743771
227	0x3ea22b7b	0.31673798
228	0xbdf41f52	-0.119200364
229	0xbfbae5c8	-1.4601374
230	0xbf7be876	-0.9840158
231	0x3d894540	0.067026615
232	0xbf28edb3	-0.659877
233	0xbee22c0b	-0.44174227
234	0xbf4fa87e	-0.81116474
235	0xbf878f73	-1.0590652
236	0xbe4bb12c	-0.19891804
237	0xbe6526cc	-0.22378081
238	0xbe6e7b89	-0.23289312
239	0x3e675480	0.22590828
240	0x3d213e3f	0.039366003
241	0xbe71fc91	-0.23631503
242	0xbdae5ae9	-0.085134335
243	0x3acabbb2	0.0015467315
244	0x3d381045	0.04493739
245	0xbe6e8668	-0.2329346
246	0xbcbfe437	-0.023424251
247	0xbe6abd87	-0.22923861
248	0xbe463c9e	-0.19359061
249	0x3f3a9fc5	0.7290004
250	0x3f318e71	0.69357973
251	0xbd17e223	-0.037080895
252	0x3eab1309	0.3341296
253	0x3cefae3c	0.029257886
254	0x3df574f5	0.119851984
255	0xbf312f7d	-0.69213086

sequential_4/dense_12/BiasAdd/ReadVariableOp f4 [32]
0	0x3f809ecb	1.004846
1	0x3e672e5b	0.22576277
2	0x3f4ed519	0.8079391
3	0x3f99e1b8	1.2022009
4	0xbd9384ca	-0.07203062
5	0xbeb91b64	-0.3615371
6	0x3f9ecac5	1.240563
7	0x3fac6d7c	1.3470912
8	0x3fa00fe3	1.2504848
9	0xbd75fbc4	-0.060054556
10	0x3f819b5b	1.0125536
11	0xbd9cb5f9	-0.07651896
12	0x3f0cb21c	0.54959273
13	0xc027b527	-2.6204317
14	0x3fc3b96c	1.5290961
15	0xbd77f360	-0.060534835
16	0x3fbc6889	1.4719402
17	0x3fc0a170	1.5049267
18	0xbd908677	-0.07056897
19	0xbd7949d7	-0.060861435
20	0x3f885d6b	1.0653509
21	0xbda54f6f	-0.080717914
22	0xbdd53b97	-0.104117565
23	0x3fccb7d1	1.5993596
24	0xbd76edea	-0.060285486
25	0xbe4fb462	-0.20283654
26	0xbd82d123	-0.06387546
27	0xbd803601	-0.062603004
28	0xbd3c4401	-0.04596329
29	0x3e044b3a	0.12919322
30	0xbd784a55	-0.060617764
31	0xbd75fbc2	-0.060054548

sequential_4/dense_12/MatMul f4 [32, 128]
0	0xbd901552	-0.070353165
1	0x3e446861	0.19180442
2	0xbdcf1363	-0.101111196
3	0x3da98832	0.0827793
4	0x3e883429	0.26602295
5	0x3f8b3565	1.087567
6	0xbeebbbee	-0.46041816
7	0x3db5f49b	0.088845454
8	0xbd453ebe	-0.04815554
9	0xbe42c41c	-0.19020122
10	0x3d8ec639	0.06971402
11	0xbdae3cc4	-0.08507684
12	0xbe886914	-0.26642668
13	0xbed94476	-0.42435044
14	0x3d4dce58	0.050245613
15	0xbd090e01	-0.03346062
16	0xbe22058e	-0.15822431
17	0x3e6ec370	0.23316741
18	0xbe82e8c4	-0.2556821
19	0x3ef0a44f	0.47000358
20	0x3d065a00	0.032800674
21	0xbf43a813	-0.76428336
22	0x3ee81f30	0.45336294
23	0xbe58279f	-0.21108864
24	0xbbd6052a	-0.0065313773
25	0xbecbf0b7	-0.39832088
26	0x3e7ded1c	0.24797481
27	0x3ac408bc	0.0014956216
28	0x3d5c48de	0.05378043
29	0xbd158569	-0.036504183
30	0x3e57e792	0.21084431
31	0x3de0b49a	0.10971947
32	0x3d9f5a5c	0.077809066
33	0xbb1254b6	-0.0022328324
34	0xbebc6d88	-0.36802316
35	0x3eb63a82	0.35591513
36	0x3ee6bbf0	0.4506526
37	0x3f681626	0.90658796
38	0x3e73a403	0.23793034
39	0x3e69f8d4	0.22848827
40	0x3e553859	0.20822276
41	0xbe52c979	-0.20584668
42	0x3e70886e	0.23489544
43	0x3dea2664	0.11433104
44	0xbdeed962	-0.11662556
45	0xbeb101ab	-0.34571585
46	0xbd24c649	-0.040228162
47	0xbd52b003	-0.05143739
48	0xbdc57576	-0.096415445
49	0xbdee31be	-0.11630581
50	0xbdfc6ff9	-0.123260446
51	0x3f491c6b	0.7855899
52	0xc00253a9	-2.0363562
53	0x3f01b8fb	0.5067288
54	0xbed8dff7	-0.42358372
55	0xbeb7cf04	-0.35900128
56	0xbd03e823	-0.032203805
57	0x3cf48208	0.02984716
58	0x3d9c651b	0.07636472
59	0x3e6bb45c	0.2301802
60	0xbdb28cb4	-0.08718243
61	0x3d87891c	0.066179484
62	0x3e2dceb7	0.16973387
63	0xbe607205	-0.21918495
64	0x3d9da7ec	0.07698044
65	0x3ea1a139	0.31568316
66	0xbe9d044f	-0.3066735
67	0x3ec41e80	0.3830452
68	0xbfea4572	-1.8302443
69	0xbef9a12a	-0.4875577
70	0xbf0a9ff4	-0.5415032
71	0xbee854f3	-0.4537731
72	0x3d4c5434	0.04988499
73	0xbe84f252	-0.25966126
74	0x3dd7045e	0.1049888
75	0x3d8b51cb	0.0680271
76	0xbe38131d	-0.17976041
77	0xbe126e88	-0.14299977
78	0x3d2df0fa	0.04246614
79	0x3db099c0	0.086230755
80	0x3e4d26dc	0.20034355
81	0x3b1b1af4	0.0023667188
82	0xbe50993c	-0.20370954
83	0x3e912d55	0.28354898
84	0xbf8e49ea	-1.1116307
85	0xbf7145c4	-0.9424708
86	0xbf4447a1	-0.766718
87	0x3dbf7d97	0.09350126
88	0xbb817fa1	-0.003951982
89	0xbeafbd48	-0.34324098
90	0xbd58a6e0	-0.05289352
91	0x3dc6b404	0.09702304
92	0x3d7966ff	0.06088924
93	0xbed58c55	-0.41708627
94	0x3d19c929	0.037545357
95	0xbde08f8e	-0.10964881
96	0xbda507af	-0.08058106
97	0x3d7dfae8	0.06200686
98	0xbf3698ca	-0.7132689
99	0x3d8adb8d	0.06780157
100	0xbfcf67e3	-1.6203579
101	0xbf17d980	-0.59316254
102	0xbee93ceb	-0.4555429
103	0x3e948080	0.29004288
104	0xbda15521	-0.07877565
105	0xbd705047	-0.05867031
106	0xbd37062e	-0.044683628
107	0x3cbf6851	0.023365172
108	0xbe024f34	-0.12725526
109	0xbe153833	-0.1457222
110	0x3d52da41	0.051477674
111	0x3c3129d4	0.010813195
112	0x3dc2d16e	0.09512602
113	0x3e53cfe8	0.20684779
114	0xbec6ed97	-0.38853142
115	0xbe135d88	-0.14391148
116	0xbfa6ee99	-1.3041564
117	0x3e69206f	0.22766279
118	0xbf2df07d	-0.6794508
119	0x3f7a4626	0.9776329
120	0x3db629df	0.08894705
121	0xbd3600b4	-0.044434264
122	0xbd3a1782	-0.045432575
123	0x3d5e0dc0	0.05421233
124	0xbd947cfa	-0.072504
125	0x3c2deab9	0.010615044
126	0xbe2d2f2f	-0.1691253
127	0x3d83dfb8	0.06439155
128	0xbe8bd156	-0.27308148
129	0x3f09de6f	0.5385503
130	0x3e96c47c	0.2944678
131	0xbf2a21f2	-0.66458046
132	0x3e9cd41f	0.30630586
133	0xbf818ec2	-1.0121691
134	0x3ebf2cf1	0.37338975
135	0xbfe8d6fb	-1.8190607
136	0xbe11d7b7	-0.14242445
137	0xbe531475	-0.20613272
138	0xbf11125e	-0.5666865
139	0xbe97384f	-0.29535148
140	0x3e48c5f6	0.19606766
141	0x3f4bc172	0.7959205
142	0x3ea1d1df	0.3160543
143	0xbdb76faa	-0.08956845
144	0xbe80b531	-0.25138238
145	0x3eae9b0a	0.3410266
146	0x3dc0038c	0.093756765
147	0xbe59c22e	-0.2126548
148	0xbe954405	-0.29153457
149	0xbed062fe	-0.40700525
150	0xbec57f1b	-0.38573536
151	0x3d8bb4ca	0.06821592
152	0xbe71c6cb	-0.2361099
153	0x3df1b604	0.11802295
154	0xbed99f03	-0.4250413
155	0xbf2a2783	-0.6646654
156	0xbdc3b5c7	-0.09556156
157	0x3f40c69c	0.75303054
158	0xbe34dff7	-0.17663561
159	0x3d8e4244	0.06946233
160	0xbe6c2686	-0.2306157
161	0x3f98f5f5	1.195006
162	0x3bb07c9f	0.0053859497
163	0x3e04e9fe	0.12979886
164	0xbd8a3f1c	-0.067503184
165	0x3f24c035	0.64355785
166	0xbed93a04	-0.42427075
167	0xbfbcd3e7	-1.4752167
168	0x3e0c506e	0.13702556
169	0xbe83b047	-0.25720426
170	0xbdf0bdcf	-0.11754953
171	0xbf2b0e16	-0.6681837
172	0xbe37a2e8	-0.17933238
173	0xbe2a0bf2	-0.1660612
174	0xbcb72b7a	-0.022359598
175	0xbcd3b0ad	-0.025841082
176	0xbe2717c6	-0.16317663
177	0x3f481513	0.78157157
178	0x3d6db2d8	0.058031887
179	0xbe8c1f05	-0.27367416
180	0xbface439	-1.3507148
181	0x3e4c98e5	0.199802
182	0xbe531511	-0.20613505
183	0xbe117192	-0.1420348
184	0x3ebe3094	0.37146437
185	0x3e9016e5	0.28142467
186	0xbd38440d	-0.044986773
187	0xbf6facb4	-0.936229
188	0x3e3d0093	0.1845725
189	0xbd8aca8b	-0.06776913
190	0xbea8f733	-0.33001098
191	0xbe22a355	-0.15882619
192	0xbeda11d7	-0.42591736
193	0x3fa54095	1.2910334
194	0xbd99e9b9	-0.07515282
195	0xbf8d2446	-1.1026695
196	0xbf68a92f	-0.90883154
197	0x3e1c3b06	0.1525689
198	0xbe397db5	-0.1811436
199	0xbdb07789	-0.086165495
200	0xbe9f6d2b	-0.31137976
201	0xbe3d35d3	-0.18477564
202	0xbe800e99	-0.25011137
203	0xbfa8431e	-1.3145483
204	0x3e1eeeb7	0.1552075
205	0xbdbd29f4	-0.092365175
206	0xbd2da010	-0.042388976
207	0xbebea446	-0.37234706
208	0xbef8b4f3	-0.48575553
209	0x3ef8a380	0.4856224
210	0xbdd05771	-0.10172928
211	0x3e0c6471	0.1371019
212	0xbf8606b9	-1.0470802
213	0x3ef88d81	0.4854546
214	0x3c70bb36	0.014693072
215	0x3fb6b188	1.4272928
216	0xbf1d6f88	-0.6149831
217	0xbd96368c	-0.07334623
218	0xbe3f45ca	-0.18678966
219	0xbecc36e9	-0.39885643
220	0xbe01b406	-0.1266633
221	0x3c85e764	0.016345687
222	0xbe818651	-0.25297788
223	0xbeafde1b	-0.3434914
224	0xbe48fa6a	-0.19626775
225	0xbeade27f	-0.33961865
226	0xbee08ba7	-0.43856546
227	0xc013db7a	-2.3102708
228	0xbf8ffa2a	-1.1248219
229	0xbf80542e	-1.002569
230	0xbebf523e	-0.37367433
231	0x3fb63297	1.4234189
232	0x3e313059	0.173036
233	0x3dde7f93	0.108641766
234	0xbec198d3	-0.37811908
235	0x3dd63644	0.10459569
236	0x3db4a15b	0.088198386
237	0xbe85a64b	-0.26103434
238	0xbddb0b05	-0.10695461
239	0x3d8af05e	0.06784128
240	0xbe216870	-0.15762496
241	0xbda7db23	-0.08196094
242	0xbe8dcf04	-0.27697003
243	0xbfb97df5	-1.4491564
244	0xbedb7fef	-0.42871043
245	0xbedad915	-0.42743745
246	0xbf14f752	-0.5818988
247	0xbef64b41	-0.4810429
248	0xbde066bc	-0.10957095
249	0xbe25050f	-0.16115211
250	0x3f148d25	0.5802787
251	0x3ede0b3e	0.43367952
252	0xbb9ad202	-0.004724742
253	0xbd8163b2	-0.063178435
254	0xbecd076e	-0.4004473
255	0x3d06ba33	0.032892417

sequential_4/dense_13/MatMul f4 [1, 32]
0	0x3c85a2c3	0.016312962
1	0x3d947d3f	0.07250451
2	0x3d2b5bca	0.041835584
3	0x3e1368ad	0.143954
4	0xbe258065	-0.1616226
5	0x3e6d8815	0.23196442
6	0x3e04b467	0.12959443
7	0x3dcf53a4	0.10123375
8	0x3e05c6dd	0.13064142
9	0xbe281f83	-0.16418271
10	0x3deeef5d	0.11666749
11	0xbe61ba28	-0.22043669
12	0x3dc60320	0.09668565
13	0xbd6f69da	-0.058450557
14	0x3d58b15f	0.05290353
15	0xbeb4fad2	-0.3534761
16	0x3e122b57	0.14274345
17	0x3d5f7789	0.054557357
18	0xbe464529	-0.1936232
19	0x3cdadc0e	0.026716258
20	0x3d26a815	0.04068764
21	0xbe87fe76	-0.26561326
22	0xbcf5ac4d	-0.029989386
23	0x3e32ca0d	0.17459889
24	0xbeac9f27	-0.33715174
25	0xbde92d3c	-0.11385581
26	0xbdbccaa5	-0.09218339
27	0xbddf1d54	-0.10894266
28	0xbdf0c5f5	-0.11756507
29	0xbdd66a8c	-0.10469541
30	0xbe606019	-0.21911658
31	0x3ca50418	0.020143554
