Riproduzione/models/FD001/LSTMlarge/QUAD-QUAD/lstm_large_batch_1_QUAD.tflite (tflite, 694000 bytes, 53 tensors)

sequential_2/dense_6/BiasAdd/ReadVariableOp f4 [64]
0.1608603 0.20632966 0.37640432 -0.07018953 0.22272934 0.1334327 0.016683266 -0.047885645
0.035375077 -0.049178485 0.22105104 0.103181474 0.021004021 -0.05154487 0.22557142 0.0637544
0.18321092 0.13741675 0.2127891 0.22044171 0.21657397 -0.06596015 0.12110318 0.16988736
-0.10554694 -0.06645592 -0.07512345 0.22569385 0.11562146 0.030402662 0.22056857 -0.0019553201
-0.060082484 0.210783 0.21107082 -0.14543843 0.16559139 -0.073451325 0.23352279 0.17925972
0.12730882 0.23479757 -0.09246824 0.21663448 -0.123164125 0.14382616 0.1852979 0.1557087
0.17459321 0.22155029 -0.06027407 -0.037871152 -0.049253874 -0.08889265 0.057565298 -0.08388882
-0.13889049 -0.07856344 0.17025568 -0.043395676 -0.11752339 -0.088737436 0.1314975 -0.015317606
00000000: 90b8 243e 1548 533e 11b8 c03e 87bf 8fbd
00000010: 2913 643e 95a2 083e 58ab 883c bd23 44bd
00000020: 75e5 103d 616f 49bd 345b 623e cf50 d33d
00000030: a010 ac3c b720 53bd 32fc 663e ab91 823d
00000040: a59b 3b3e fab6 0c3e 63e5 593e 79bb 613e
00000050: 91c5 5d3e 1d16 87bd f204 f83d f4f6 2d3e
00000060: fe28 d8bd 0b1a 88bd 53da 99bd 4a1c 673e
00000070: f2ca ec3d 010f f93c badc 613e d424 00bb
00000080: 0d19 76bd 80d7 573e f322 583e d0ed 14be
00000090: ca90 293e a66d 96bd 9920 6f3e dc8f 373e
000000a0: 3e5d 023e c66e 703e fd5f bdbd 6ed5 5d3e
000000b0: 793d fcbd 2a47 133e bcbe 3d3e 1a72 1f3e
000000c0: 90c8 323e 14de 623e f1e1 76bd c81e 1bbd
000000d0: 6ebe 49bd 5a0d b6bd 97c9 6b3d e7cd abbd
000000e0: 4f39 0ebe dee5 a0bd 8157 2e3e aabf 31bd
000000f0: 1ab0 f0bd f9bb b5bd 48a7 063e b2f6 7abc

sequential_2/dense_7/BiasAdd/ReadVariableOp f4 [32]
0.21464495 0.22985838 -0.08506841 -0.102768615 0.08530332 -0.0667366 0.22351804 0.22820048
0.20913272 0.16678187 0.021806533 0.22331804 -0.10908317 -0.08600125 -0.11656273 -0.06487844
0.22338182 -0.084278025 0.22650218 0.17925432 -0.084758855 0.061876792 -0.11029361 0.11019805
0.22354248 0.18751843 0.20348133 0.2235654 -0.06122541 -0.061176922 -0.083420806 0.22378491
00000000: e3cb 5b3e ff5f 6b3e 5938 aebd 5a78 d2bd
00000010: 82b3 ae3d 33ad 88bd eae1 643e 63ad 693e
00000020: e326 563e dec8 2a3e 9da3 b23c 7cad 643e
00000030: ff66 dfbd 6c21 b0bd 71b8 eebd fdde 84bd
00000040: 34be 643e f599 acbd 30f0 673e 728e 373e
00000050: 0d96 adbd 8572 7d3d 9ee1 e1bd 84af e13d
00000060: 52e8 643e d504 403e 695d 503e 54ee 643e
00000070: 7fc7 7abd a794 7abd 87d8 aabd df27 653e

arith.constant f4 [128, 128]
-0.030756732 0.0009150142 0.15891269 0.059727013 0.08005462 0.014442904 0.0010444277 0.03700057
0.18555644 0.108316384 0.15084979 -0.16947098 -0.11100097 -0.24319932 -0.17417361 0.043699075
-0.11182809 0.1167177 -0.15705875 0.07277492 -0.14032547 0.13783963 0.2877981 0.21177904
-0.07207618 0.1973639 -0.040417675 0.2556458 0.19637923 0.06952902 -0.022773338 0.16381644
-0.08236898 -0.081508085 -0.16481395 -0.18848363 -0.13059355 0.19580987 0.20844524 -0.13833478
0.16895466 0.07923397 -0.18439467 -0.010070265 0.14544933 -0.048175562 0.012010673 0.2094783
-0.22881128 0.16685927 -0.043902505 0.13043605 0.14244056 0.06716358 0.1594903 -0.08585251
-0.1884754 -0.06660857 -0.011512623 -0.45116356 -0.22331594 0.03410486 0.10327055 0.031756457
-0.09548745 0.097371146 0.07752911 0.116264865 -0.055657633 -0.07798865 0.060317613 0.043185286
0.05019811 0.254686 -0.33645344 0.12896049 0.05894609 0.035550315 0.0075875274 0.034519814
0.081806146 -0.39795038 -0.288929 -0.27462184 -0.019566705 0.14149861 0.32712093 0.3418675
0.094906256 0.27071166 0.100703225 -0.013249714 0.16599154 -0.04286216 -0.078953505 -0.28964385
0.09951334 -0.23591426 0.10960946 -0.5171813 0.29976225 -0.2214815 0.011105228 -0.18226957
0.35854998 -0.26465753 -0.12450076 -0.22583422 -0.23593435 0.057830725 -0.10742497 -0.41998744
0.19339862 0.032191988 0.13033395 0.22343323 -0.21921623 -0.12222975 -0.13647407 0.1044949
-0.040224496 -0.25142008 -0.31906092 0.063977435 0.22320196 -0.053347606 0.39255366 0.16889842
0.013017753 0.06791024 -0.04214548 0.32636592 -0.010195888 -0.041300885 -0.20495091 0.17079051
-0.047557015 0.13515167 0.20105222 0.28854218 -0.20275147 0.25087765 0.09816254 0.13246688
-0.054933663 0.03868121 -0.27410904 -0.027606849 0.14557375 -0.17995206 -0.037008405 0.1746108
0.03739974 -0.033578802 -0.108001776 0.19665663 -0.18982103 0.0015759321 -0.03882986 0.050454866
0.18878873 0.11161163 -0.29946637 -0.006712211 -0.018916043 -0.23217283 0.09236992 -0.043005038
-0.07488119 0.01502073 -0.30165207 0.072154365 0.22316124 0.23206638 -0.057486508 -0.16475013
-0.26892075 0.30959582 0.09925592 -0.08969919 -0.018295405 -0.030495947 -0.031230386 0.13369763
-0.0066782893 -0.23285617 -0.022203151 0.2335236 0.14162225 -0.07074391 -0.021186998 0.021837033
0.17160776 0.2278969 0.26495078 0.008279019 -0.16720983 -0.19762512 0.11450625 0.31068584
-0.21307649 -0.080470756 0.1339823 0.05369718 0.28875938 -0.124092504 0.10821464 -0.0102463225
-0.065686285 0.15375635 -0.21301739 0.19786559 -0.14793298 -0.07331414 -0.23238412 -0.20616123
-0.012701825 -0.1485102 0.26275927 -0.25687197 0.026588324 -0.27029106 0.2967451 -0.23994333
0.014082281 0.086638734 0.23002993 0.2996991 -0.11247434 0.14053121 0.20248553 0.17045674
-0.20205487 0.40223816 -0.13862881 0.056612317 0.08165394 0.10226228 0.21446396 0.08833951
0.2640278 0.16413808 0.080114454 -0.22502747 0.14836648 0.2547748 -0.28910938 -0.20556843
0.21713646 -0.20080157 0.0907434 0.36878315 -0.30841133 -0.21345502 -0.2102409 -0.1830365
00000000: 8bf5 fbbc 90dd 6f3a 02ba 223e 50a4 743d
00000010: adf3 a33d eea1 6c3c 2ee5 883a e98d 173d
00000020: 8202 3e3e fbd4 dd3d 5e78 1a3e cd89 2dbe
00000030: 7a54 e3bd 3e09 79be 915a 32be cdfd 323d
00000040: 2006 e5bd b109 ef3d 02d4 20be 040b 953d
00000050: 7bb1 0fbe d525 0d3e 465a 933e 9bdc 583e
00000060: ad9c 93bd c319 4a3e 018d 25bd 02e4 823e
00000070: a317 493e 3b65 8e3d 278f babc 7fbf 273e
00000080: 11b1 a8bd b6ed a6bd fdc4 28be da01 41be
00000090: 51ba 05be 6282 483e ab72 553e a2a7 0dbe
000000a0: 7302 2d3e 6b45 a23d f5d1 3cbe c1fd 24bc
000000b0: abf0 143e bd53 45bd 6ac8 443c 7b81 563e
000000c0: 814d 6abe 28dd 2a3e 1dd3 33bd 0791 053e
000000d0: f0db 113e 0f8d 893d 6d51 233e 71d3 afbd
000000e0: b2ff 40be 136a 88bd 719f 3cbc e9fe e6be
000000f0: efac 64be 8ab1 0b3d 837f d33d 0f13 023d
00000100: ed8e c3bd 866a c73d 95c7 9e3d 461c ee3d
00000110: 42f9 63bd 83b8 9fbd 9a0f 773d 0ee3 303d
00000120: 899c 4d3d 3466 823e a043 acbe 380e 043e
00000130: 7571 713d 359d 113d cba0 f83b a664 0d3d
00000140: fb89 a73d 27c0 cbbe 80ee 93be 3c9b 8cbe
00000150: 5b4a a0bc 03e5 103e 657c a73e 4209 af3e
00000160: 365e c23d b89a 8a3e 7e3d ce3d 5415 59bc
00000170: b0f9 293e 3b90 2fbd 60b2 a1bd 334c 94be
00000180: a6cd cb3d 8293 71be ed7a e03d fe65 04bf
00000190: 707a 993e 0ccc 62be b4f2 353c e0a4 3abe
000001a0: dd93 b73e 3181 87be 41fa febd 1641 67be
000001b0: c698 71be e9df 6c3d 9f01 dcbd 9808 d7be
000001c0: 4a0a 463e bfdb 033d 4376 053e aecb 643e
000001d0: 387a 60be 9753 fabd dcbf 0bbe 6c01 d63d
000001e0: 71c2 24bd 22ba 80be f45b a3be 9a06 833d
000001f0: 0e8f 643e 0583 5abd cbfc c83e b5f3 2c3e
00000200: 6a48 553c 8614 8b3d bda0 2cbd 6f19 a73e
00000210: a70c 27bc 1e2b 29bd a7de 51be b5e3 2e3e
00000220: 25cb 42bd 3365 0a3e a2e0 4d3e cdbb 933e
00000230: 159e 4fbe 0973 803e 7109 c93d 66a5 073e
00000240: 1f02 61bd 3070 1e3d 0558 8cbe c227 e2bc
00000250: 4911 153e 5a45 38be 2096 17bd 2ccd 323e
00000260: 7830 193d ed89 09bd 0930 ddbd 5b60 493e
00000270: 7260 42be 828f ce3a 0f0c 1fbd c3a9 4e3d
00000280: d551 413e a394 e43d a853 99be 1bf2 dbbb
00000290: d1f5 9abc b7be 6dbe 712c bd3d 0d26 30bd
000002a0: 4f5b 99bd 8219 763c 2472 9abe abc5 933d
000002b0: 6184 643e cfa2 6d3e f976 6bbd 42b4 28be
000002c0: fbaf 89be 5883 9e3e b046 cb3d 35b4 b7bd
000002d0: 3fe0 95bc a3d2 f9bc ded6 ffbc 08e8 083e
000002e0: 8dd5 dabb d971 6ebe 62e3 b5bc d020 6f3e
000002f0: 6c05 113e 2fe2 90bd 5b90 adbc 94e3 b23c
00000300: f2b9 2f3e ce5d 693e a1a7 873e b9a4 073c
00000310: 0e39 2bbe 3d5e 4abe 4182 ea3d 3712 9f3e
00000320: b930 5abe dacd a4bd a832 093e 93f1 5b3d
00000330: 45d8 933e 3624 febd a39f dd3d 31e0 27bc
00000340: 8886 86bd 4e72 1d3e 3b21 5abe 479d 4a3e
00000350: be7b 17be b925 96bd 1af6 6dbe ee1b 53be
00000360: 511b 50bc 0f13 18be 6288 863e b984 83be
00000370: c2cf d93c 9763 8abe f9ee 973e b4b3 75be
00000380: 5eb9 663c a66f b13d f78c 6b3e 2972 993e
00000390: f258 e6bd 6ae7 0f3e 5e58 4f3e 368c 2e3e
000003a0: 79e7 4ebe 29f2 cd3e b6f4 0dbe 51e2 673d
000003b0: 2e3a a73d e36e d13d 719c 5b3e 58eb b43d
000003c0: a72e 873e d013 283e 0c13 a43d 9a6d 66be
000003d0: 62ed 173e d871 823e 2506 94be 8880 52be
000003e0: 0559 5e3e ed9e 4dbe add7 b93d 25d1 bc3e
000003f0: 17e8 9dbe f493 5abe 6449 57be ec6d 3bbe

arith.constant1 f4 [128, 128]
-0.037748013 -0.107154526 -0.09564485 0.31682488 -0.060948253 -0.056207594 -0.25667953 0.3024343
0.13009097 0.11411902 0.26129195 0.43003637 -0.21694563 0.26070064 0.12553686 0.21743026
-0.053609435 -0.10784435 -0.335002 -0.049917847 -0.4256137 -0.029523214 0.07183544 0.47511974
0.0013842216 0.041198418 0.081855685 0.25956306 -0.13411754 0.07019578 -0.010937934 0.052430905
0.22219011 -0.096738465 -0.27593032 0.012676772 0.01965789 -0.35761574 0.19247746 -0.021407938
-0.045904737 0.1088676 -0.26014355 -0.0016629288 0.2901521 0.4734879 0.023136461 -0.1959123
-0.179834 0.48553512 0.1249606 -0.13100488 -0.07190214 -0.0011935066 -0.023780169 -0.0153126605
0.010227183 -0.2974657 -0.031973857 0.16514362 0.21767232 -0.19869232 -0.065948695 0.10169918
0.13330305 0.33195978 0.2866154 0.23731224 -0.121192925 -0.27814603 0.23022407 0.41503367
-0.16425401 0.1928467 0.27319044 -0.16223016 0.34847304 0.15095238 0.2301727 0.30667162
-0.037796635 0.07963685 -0.38182208 -0.29311785 -0.22153439 -0.012532244 -0.19700223 -0.2841479
-0.042552415 -0.061204694 0.32597306 -0.40584597 -0.15079887 -0.37676454 0.13518302 -0.21973966
-0.07925054 0.023078363 0.3804922 -0.13203512 -0.18503301 0.26945752 0.04919653 0.23717637
-0.0056077866 0.09227176 -0.16399516 -0.4694739 -0.08540828 0.24014139 0.3279371 -0.10352344
0.3999695 0.13631769 0.093726635 -0.074173704 0.14721794 0.2588487 -0.34993666 -0.39127198
0.23934913 -0.3040997 0.0632251 0.4445546 -0.22323847 -0.13320859 0.17916597 -0.082286045
0.10935411 -0.10951904 -0.021354297 0.27239692 -0.020259343 0.03223059 -0.30972537 0.27730942
-0.0016999862 0.2082441 0.17726016 0.2501844 -0.21510518 0.18616776 0.07407199 0.22204965
-0.04560142 0.056656394 -0.27406707 -0.011843488 0.14683975 -0.04061942 -0.04841385 0.22120363
0.06032141 -0.12797527 0.02743453 0.16090536 -0.06766596 0.072888024 0.0020596662 0.0949023
0.24831262 0.023277933 -0.26599148 0.023454394 -0.0038899272 -0.21436408 0.08412068 -0.08424266
-0.009528278 -0.04554046 -0.18938783 0.038165372 0.18317562 0.33084717 0.032193426 -0.23960367
-0.17828579 0.34304267 -0.009324499 -0.0012307917 -0.006969949 0.013920757 0.039041165 -0.0082446365
-0.0021518695 -0.10473096 0.004265907 0.10775727 0.05048312 -0.13031869 0.03887394 -0.048813164
0.16947414 0.19799177 0.3316215 -0.002518568 -0.20214173 -0.09529734 0.21511538 0.28448763
-0.20339984 0.056586813 0.06340547 -0.027142068 0.3038293 -0.14679319 0.08888891 0.015607268
-0.081051 0.0856622 -0.17545429 0.14629473 -0.20850699 -0.049266 -0.10549357 -0.21729718
0.08869524 -0.04840859 0.2836725 -0.31348172 0.038448762 -0.2701036 0.40273866 -0.24035901
0.031632334 0.049611863 0.22150236 0.22373606 -0.113265745 0.113964245 0.28607318 0.19040203
-0.18244389 0.2717202 -0.16099799 0.09266031 0.1051021 0.06643016 0.29309866 0.13516892
0.3205553 0.14251176 0.07375647 -0.33448535 0.068521746 0.30825305 -0.329273 -0.22719254
0.26120025 -0.21828446 -0.016269369 0.22060972 -0.2968857 -0.17748423 -0.10743765 -0.081653185
00000000: a99d 1abd d573 dbbd 72e1 c3bd df36 a23e
00000010: e0a4 79bd ef39 66bd 806b 83be abd8 9a3e
00000020: 9136 053e 3cb7 e93d 0fc8 853e ba2d dc3e
00000030: ff26 5ebe 8e7a 853e bc8c 003e 0aa6 5e3e
00000040: 9195 5bbd 80dd dcbd 6285 abbe a876 4cbd
00000050: 0aea d9be abda f1bc 761e 933d e542 f33e
00000060: c56e b53a acbf 283d f4a3 a73d 73e5 843e
00000070: 1c56 09be cec2 8f3d 0535 33bc cac1 563d
00000080: ce85 633e d11e c6bd bd46 8dbe 3cb2 4f3c
00000090: 9509 a13c 6919 b7be d018 453e b35f afbc
000000a0: 9b06 3cbd faf5 de3d 8931 85be a2f6 d9ba
000000b0: d18e 943e 026d f23e ad88 bd3c 3c9d 48be
000000c0: 6726 38be 0f98 f83e 58eb ff3d 2526 06be
000000d0: 6e41 93bd 706f 9cba a1ce c2bc f4e1 7abc
000000e0: ea8f 273c 6d4d 98be 05f7 02bd 691b 293e
000000f0: 7ee5 5e3e 0076 4bbe 1c10 87bd a947 d03d
00000100: 9880 083e a2f6 a93e 41bf 923e fb01 733e
00000110: ff33 f8bd 2869 8ebe dcbf 6b3e 4b7f d43e
00000120: 3432 28be 9b79 453e 9edf 8b3e aa1f 26be
00000130: 0f6b b23e 4393 1a3e 64b2 6b3e 1004 9d3e
00000140: a5d0 1abd a518 a33d 2f7e c3be 8b13 96be
00000150: e9d9 62be 0b54 4dbc f4ba 49be d57b 91be
00000160: 714b 2ebd c6b1 7abd f1e5 a63e 0bcb cfbe
00000170: 056b 1abe 48e7 c0be 6b6d 0a3e 6f03 61be
00000180: 1b4e a2bd d60e bd3c e0cf c23e 3734 07be
00000190: 4b79 3dbe 56f6 893e 4d82 493d 5dde 723e
000001a0: 86c1 b7bb faf8 bc3d 59ee 27be e25e f0be
000001b0: 89ea aebd a0e7 753e 5fe7 a73e 1904 d4bd
000001c0: cdc8 cc3e dd96 0b3e c0f3 bf3d 62e8 97bd
000001d0: 4dc0 163e d187 843e e62a b3be cd54 c8be
000001e0: f017 753e f5b2 9bbe 297c 813d a99c e33e
000001f0: a098 64be d567 08be 4977 373e 9685 a8bd
00000200: 0cf5 df3d 854b e0bd 35ef aebc 9c77 8b3e
00000210: ecf6 a5bc 3904 043d 5394 9ebe 80fb 8d3e
00000220: 12d2 deba f13d 553e b083 353e 2b18 803e
00000230: 8844 5cbe c3a2 3e3e 0eb3 973d fc60 633e
00000240: 8ec8 3abd 8910 683d 8552 8cbe 300b 42bc
00000250: 295d 163e 8d60 26bd 9a4d 46bd 3483 623e
00000260: 9513 773d f30b 03be 61be e03c 60c4 243e
00000270: 7394 8abd 5146 953d 77fb 063b 235c c23d
00000280: aa45 7e3e 5db1 be3c 0930 88be 6e23 c03c
00000290: 26ee 7ebb 4282 5bbe 7747 ac3d 6a87 acbd
000002a0: 7f1c 1cbc a288 3abd e2ee 41be 4b53 1c3d
000002b0: 6492 3b3e cd64 a93e 41dd 033d aa5a 75be
000002c0: 8d90 36be 4aa3 af3e c9c5 18bc 8452 a1ba
000002d0: 2c64 e4bb e313 643c a1e9 1f3d 8314 07bc
000002e0: 6106 0dbb 307d d6bd 06c9 8b3b d8af dc3d
000002f0: 63c7 4e3d 4372 05be 483a 1f3d 50f0 47bd
00000300: a18a 2d3e 5bbe 4a3e 4bca a93e 8f0e 25bb
00000310: 3efe 4ebe 402b c3bd 3547 5c3e 5da8 913e
00000320: 0c48 50be 93c7 673d bada 813d 0b59 debc
00000330: 848f 9b3e f450 16be 640b b63d a0b5 7f3c
00000340: 11fe a5bd aa6f af3d 4aaa 33be 49ce 153e
00000350: db82 55be 25cb 49bd 030d d8bd 2783 5ebe
00000360: daa5 b53d 1648 46bd 863d 913e ad80 a0be
00000370: 737c 1d3d 054b 8abe c333 ce3e ac20 76be
00000380: e890 013d cf35 4b3d 84d1 623e 111b 653e
00000390: dff7 e7bd 1666 e93d 2f78 923e c0f8 423e
000003a0: 92d2 3abe e91e 8b3e a8dc 24be b0c4 bd3d
000003b0: c53f d73d 890c 883d 0711 963e b969 0a3e
000003c0: d31f a43e 9aee 113e a20d 973d aa41 abbe
000003d0: 2155 8c3d 58d3 9d3e 7896 a8be 29a5 68be
000003e0: 0abc 853e f685 5fbe 5747 85bc 84e7 613e
000003f0: 6701 98be 6dbe 35be 4508 dcbd c939 a7bd

arith.constant2 f4 [128, 128]
-0.113769956 -0.041300938 -0.12607181 -0.06154035 -0.021081017 0.17322716 0.0475326 -0.018699458
-0.02411984 -0.20425788 -0.10057682 -0.05517806 0.032407645 0.10482489 0.04740697 -0.057010155
0.051643215 -0.017948596 0.13176423 -0.046774093 0.16681261 -0.06222675 0.0823206 -0.10385791
-0.054415848 0.09638223 0.073964596 -0.15356599 -0.05858242 -0.22356367 0.064930625 0.01861822
0.040320344 -0.024706965 0.076969154 0.08612856 0.051083036 0.06424174 -0.017713854 0.12511706
0.01780063 -0.01852101 0.06842362 -0.05710083 -0.08144824 -0.08604388 -0.11641406 -0.13901381
0.013930323 -0.12908661 -0.0942066 -0.042414498 -0.04717651 -0.06686225 -0.13686681 0.22013862
-0.040004607 -0.011701698 -0.07612362 0.08862853 0.30268008 -0.056641277 -0.06997352 0.19887234
-0.10169631 -0.03895841 -0.109466545 -0.0067422707 -0.037115928 0.056094993 -0.09250115 0.028930131
0.030925231 -0.124015756 -0.1336282 0.023055743 -0.114472106 -0.13248095 -0.15811837 -0.09921076
-0.10957681 0.061274253 0.09999118 0.13493288 -0.023501873 -0.10293917 -0.13964815 0.09084188
-0.11718511 -0.16812783 -0.07336568 0.098697186 0.036318257 0.13616818 -0.12292458 0.18157193
-0.148507 0.0872638 -0.100802206 -0.09167363 -0.06649596 0.0709403 0.09193279 0.09949854
-0.1251031 -0.06852825 0.13261503 -0.067046635 -0.095088005 -0.010763233 -0.093954414 0.014329914
-0.0793112 -0.015776012 -0.057508763 -0.09991862 0.13071519 0.058104493 0.13071695 0.005352137
0.0026241795 0.08354165 0.10631195 -0.11091929 0.07969649 0.13832621 0.0908792 -0.106009945
0.06742777 0.0008273012 0.017846415 0.06110708 0.10539315 0.015809027 0.03683546 -0.096968085
0.1209313 0.049082674 0.052826453 -0.04949498 -0.10961923 -0.14740285 0.06312052 -0.009509473
-0.08799839 -0.099887185 -0.090632945 0.045337588 -0.23189552 -0.02427551 0.05888082 -0.028245067
-0.057761263 0.13314281 -0.015957545 0.060888276 0.1781 -0.10992903 -0.024001531 0.19415845
0.00057617406 -0.05720473 0.012526776 0.009642174 -0.03728145 0.050411187 0.012620237 -0.16653003
0.12804808 -0.017321173 0.00242464 -0.07272822 -0.003042772 0.0590671 0.12693557 0.037006356
-0.07764359 -0.0048335693 0.07418459 0.0076695466 0.07649056 -0.038009085 0.10992641 -0.11152962
-0.083325766 0.060808133 -0.010736026 -0.043617595 -0.21045813 0.08677306 0.08411907 -0.061167892
0.022428673 -0.11075514 -0.015171845 0.058097094 -0.0129564805 0.13344142 0.13360831 -0.058938317
-0.010817936 0.09390446 0.09943428 0.013989918 0.080058515 0.046983268 0.06862068 -0.117152154
-0.011096762 -0.28658235 0.039100725 -0.16240263 0.0021467996 -0.024830712 0.14218102 0.23994377
0.014124885 0.10475997 0.013701222 0.007627954 -0.1333205 0.045347806 0.002485356 0.006137913
0.012148279 0.027671795 0.014774596 -0.0042395676 0.072745726 -0.062960185 0.06350705 -0.18324368
0.18162246 0.09398834 -0.124032736 -0.011556013 -0.16200024 0.03396869 -0.08599407 -0.100012146
0.035391577 -0.0016716499 -0.13734362 -0.06687513 -0.00895418 -0.2969125 0.042998504 0.1444848
0.03760498 0.00559684 0.13087979 0.02024028 0.1033982 -0.07257317 0.15449686 0.044860527
00000000: 3900 e9bd 2c2b 29bd f818 01be bc11 7cbd
00000010: 19b2 acbc 7662 313e 8bb1 423d 9b2f 99bc
00000020: f896 c5bc fa28 51be 38fb cdbd 6402 62bd
00000030: e1bd 043d 6fae d63d d02d 423d 7b83 69bd
00000040: d687 533d ef08 93bc 34ed 063e 3196 3fbd
00000050: edd0 2a3e 7ae1 7ebd b497 a83d 75b3 d4bd
00000060: 27e3 5ebd 0c64 c53d c07a 973d 6740 1dbe
00000070: 1ff4 6fbd e0ed 64be 59fa 843d 3d85 983c
00000080: f226 253d 4366 cabc 01a2 9d3d 2c64 b03d
00000090: 723c 513d 2c91 833d a51c 91bc b01e 003e
000000a0: a0d2 913c 60b9 97bc af21 8c3d 8fe2 69bd
000000b0: 56ce a6bd c637 b0bd 7f6a eebd a359 0ebe
000000c0: 023c 643c 482f 04be 64ef c0bd d3ba 2dbd
000000d0: 283c 41bd 13ef 88bd d026 0cbe 056c 613e
000000e0: dfdb 23bd 7bb8 3fbc b3e6 9bbd e082 b53d
000000f0: e2f8 9a3e af00 68bd 474e 8fbd 31a5 4b3e
00000100: 2846 d0bd db92 1fbd ff2f e0bd 44ee dcbb
00000110: df06 18bd ddc3 653d 3e71 bdbd e2fe ec3c
00000120: e956 fd3c f9fb fdbd d5d5 08be 66df bc3c
00000130: 5a70 eabd 16a9 07be c8e9 21be 032f cbbd
00000140: ce69 e0bd b6fa 7a3d 2dc8 cc3d d82b 0a3e
00000150: 0087 c0bc c6d1 d2bd edff 0ebe 4f0b ba3d
00000160: bffe efbd b429 2cbe bf40 96bd c021 ca3d
00000170: 74c2 143d ac6f 0b3e e2bf fbbd feed 393e
00000180: 3812 18be 5db7 b23d 6371 cebd 62bf bbbd
00000190: 092f 88bd 2649 913d 4247 bc3d e4c5 cb3d
000001a0: 071b 00be 8a58 8cbd 3ccc 073e bf4f 89bd
000001b0: 80bd c2bd 4558 30bc 2c6b c0bd 04c8 6a3c
000001c0: e96d a2bd b23c 81bc 4f8e 6bbd 22a2 ccbd
000001d0: 34da 053e fafe 6d3d aada 053e fb60 af3b
000001e0: 6dfa 2b3b e217 ab3d 14ba d93d a729 e3bd
000001f0: ea37 a33d 63a5 0d3e e01e ba3d be1b d9bd
00000200: 9217 8a3d 3edf 583a a532 923c 6b4b 7a3d
00000210: 5dd8 d73d ef81 813c c8e0 163d 3497 c6bd
00000220: d4aa f73d ea0a 493d 8d60 583d 40bb 4abd
00000230: 0c80 e0bd c6f0 16be 5545 813d 9fcd 1bbc
00000240: 8038 b4bd a791 ccbd c49d b9bd e8b3 393d
00000250: 0576 6dbe 6fdd c6bc 042d 713d 3362 e7bc
00000260: 1397 6cbd 9756 083e 66b9 82bc fc65 793d
00000270: d95f 363e 7922 e1bd dc9e c4bc 79d1 463e
00000280: 630a 173a 824f 6abd 1b3d 4d3c 35fa 1d3c
00000290: 6fb4 18bd f67b 4e3d 1cc5 4e3c d986 2abe
000002a0: 091f 033e 22e5 8dbc b6e6 1e3b 88f2 94bd
000002b0: 3e69 47bb 58f0 713d 66fb 013e fa93 173d
000002c0: 9a03 9fbd eb62 9ebb 17ee 973d d250 fb3b
000002d0: 15a7 9c3d 6aaf 1bbd 1921 e13d a469 e4bd
000002e0: b3a6 aabd f311 793d 28e6 2fbc 5da8 32bd
000002f0: 5682 57be 13b6 b13d 9e46 ac3d 2f8b 7abd
00000300: 56bc b73c 97d3 e2bd 5593 78bc 38f7 6d3d
00000310: 6b47 54bc dea4 083e 9ed0 083e 4e69 71bd
00000320: b63d 31bc fb50 c03d 33a4 cb3d f835 653c
00000330: b8f5 a33d 8771 403d 0089 8c3d 78ed efbd
00000340: 31cf 35bc ecba 92be 1528 203d e04c 26be
00000350: 52b1 0c3b c769 cbbc e797 113e d2b3 753e
00000360: 106c 673c 658c d63d 177b 603c eaf3 f93b
00000370: 2b85 08be 9fbe 393d 5be1 223b 8c20 c93b
00000380: 9309 473c f6af e23c 2611 723c 12ec 8abb
00000390: b6fb 943d 45f1 80bd fc0f 823d 3ba4 3bbe
000003a0: 3dfb 393e f57c c03d e004 febd 6e55 3dbc
000003b0: 64e3 25be c122 0b3d a91d b0bd 2bd3 ccbd
000003c0: c2f6 103d 431b dbba cea3 0cbe d4f5 88bd
000003d0: 8eb4 12bc ea04 98be 331f 303d d3f3 133e
000003e0: ae07 1a3d b265 b73b 5a05 063e f2ce a53c
000003f0: 6fc2 d33d 3ea1 94bd 6d34 1e3e acbf 373d

arith.constant3 f4 [128, 128]
-0.13702127 -0.05810481 0.2114457 0.15346417 0.12267371 0.06420465 -0.024348807 0.13087949
0.14892006 0.01590934 0.16275674 -0.08308847 -0.08801491 -0.038912557 -0.16256563 0.02296667
-0.0852675 0.10070753 -0.19378142 0.091584936 -0.22893395 0.06431832 0.13546129 0.25572026
-0.09287892 0.1566056 -0.07723359 0.25374693 0.23933701 0.088518515 -0.04481411 0.27128106
0.008635014 -0.112659834 -0.23806275 -0.03717909 0.004209072 0.16127595 0.2158777 -0.18350135
0.32650888 0.09859185 -0.21036199 -0.033254188 0.18977246 -0.1059682 -0.033185128 0.19944915
-0.09440822 0.2200032 -0.033948276 0.09016383 0.1737909 0.15972924 0.1168124 -0.09822227
-0.13271086 -0.09148871 0.12095883 -0.33937556 -0.12014758 0.039920192 0.102269016 0.14230773
-0.06366066 0.050689906 0.2279654 0.16994908 -0.05968982 -0.112837724 0.18795529 0.12161461
-0.11057072 0.20356911 -0.08359947 0.12534043 0.17582867 0.060432658 -0.10727918 -0.095621936
0.13706496 -0.2817215 -0.3693418 -0.25992203 0.029309018 0.064019024 0.20194708 0.24690044
0.09758823 0.23426215 0.2487092 -0.117754675 0.06625008 -0.11729743 -0.122746155 -0.27482238
0.02700734 -0.12121451 0.2396129 -0.4348177 0.18523492 -0.1540866 -0.0242861 -0.15492827
0.34422523 -0.25299636 -0.09103973 -0.34679553 -0.3374656 0.08152334 -0.07881766 -0.309278
0.32497638 0.030891424 0.18837611 0.24626923 -0.17789058 0.043336388 -0.1687288 0.13212788
-0.08266743 -0.07527384 -0.23978524 0.12558489 0.2189161 -0.018120918 0.36764455 0.15340158
0.00742864 -0.011367675 -0.12570241 0.2761545 -0.04971264 0.0061372416 -0.16216664 0.24515091
-0.034993008 0.21249722 0.22568496 0.33409706 -0.21666941 0.2505608 0.04173771 0.09565092
-0.061700013 0.0025463153 -0.3420431 0.07317913 0.15764248 0.008735443 -0.059980668 0.3447377
0.00540875 -0.114145435 -0.004325601 0.18119004 -0.17391147 0.044118956 0.043493222 0.05928449
0.13587844 0.07768254 -0.28906268 0.0128109325 0.13317709 -0.2509771 0.048735198 -0.115935415
-0.051437914 0.016323062 -0.19945754 0.094457865 0.13089174 0.37914422 -0.0064411247 -0.22893445
-0.20035326 0.30943784 0.03965826 -0.044576634 0.007331131 -0.083533265 -0.03811476 -0.038621042
-0.041467123 -0.1921668 0.010606589 0.216618 0.17426975 -0.04779406 -0.050259516 -0.0044577364
0.16472161 0.21754219 0.27186975 -0.018603101 -0.18575524 -0.20345746 0.20645 0.3797544
-0.19931376 -0.034335468 0.03658726 -0.04906572 0.25783274 -0.007062636 0.10356679 -0.033699937
-0.07577882 0.17331697 -0.18131194 0.16261867 -0.11816293 0.020994278 -0.19534875 -0.1425575
-0.0030827387 -0.06323506 0.2546867 -0.32390127 0.007060804 -0.2422795 0.33172673 -0.18622367
-0.011120657 0.045834117 0.2194188 0.2667197 -0.06594843 0.14493245 0.13412926 0.2144663
-0.23520295 0.3037943 -0.11423312 0.08868172 0.08828518 0.16018367 0.24831593 0.12322861
0.30193627 0.14163499 0.22819577 -0.26056102 0.05670853 0.21665712 -0.2524904 -0.21586692
0.16933537 -0.26506412 0.07630176 0.29584017 -0.26566336 -0.21419156 -0.14721048 -0.087988876
00000000: 4e4f 0cbe 4fff 6dbd 3985 583e b625 1d3e
00000010: 5b3c fb3d ba7d 833d 2677 c7bc 4605 063e
00000020: 807e 183e 4e54 823c b4a9 263e 4a2a aabd
00000030: 2941 b4bd c662 1fbd 9b77 26be 9924 bc3c
00000040: baa0 aebd c03f ce3d a36e 46be e290 bb3d
00000050: a96d 6abe 53b9 833d 5db6 0a3e c4ed 823e
00000060: 4e37 bebd 385d 203e a52c 9ebd 1eeb 813e
00000070: c314 753e 3249 b53d 008f 37bd 5ae5 8a3e
00000080: e079 0d3c 33ba e6bd b9c6 73be 1a49 18bd
00000090: 41ec 893b 8625 253e 0b0f 5d3e c7e7 3bbe
000000a0: 2c2c a73e 86ea c93d 2269 57be 8b35 08bd
000000b0: b653 423e db05 d9bd 21ed 07bd 663c 4c3e
000000c0: 1959 c1bd 8548 613e 590d 0bbd d0a7 b83d
000000d0: 3ef6 313e 1090 233e 573b ef3d c228 c9bd
000000e0: 5be5 07be 6f5e bbbd 43b9 f73d a2c2 adbe
000000f0: ef0f f6bd 5b83 233d 6b72 d13d 1eb9 113e
00000100: 8560 82bd 38a0 4f3d c36f 693e 2207 2e3e
00000110: 507d 74bd 7717 e7bd 5a77 403e 1511 f93d
00000120: e772 e2bd 6c74 503e 3336 abbd 3e59 003e
00000130: 6e0c 343e 3c88 773d 30b5 dbbd 6fd5 c3bd
00000140: c25a 0c3e cd3d 90be 5e1a bdbe 8014 85be
00000150: 7719 f03c 681c 833d 37cb 4e3e 78d3 7c3e
00000160: 57dc c73d 6be2 6f3e a0ad 7e3e 5d29 f1bd
00000170: 1fae 873d a339 f0bd 5662 fbbd 85b5 8cbe
00000180: 7f3e dd3c 503f f8bd 165d 753e 6da0 debe
00000190: 39ae 3d3e e1c8 1dbe a5f3 c6bc 84a5 1ebe
000001a0: 4a3e b03e bd88 81be 0a73 babd 2f8f b1be
000001b0: 4bc8 acbe b5f5 a63d 276b a1bd b059 9ebe
000001c0: 4e63 a63e 0310 fd3c abe5 403e 002e 7c3e
000001d0: f328 36be 7f81 313d 3ec7 2cbe 884c 073e
000001e0: 8b4d a9bd 2c29 9abd 438a 75be 5399 003e
000001f0: 8b2b 603e 5272 94bc e83b bc3e 4e15 1d3e
00000200: f36b f33b 7c3f 3abc 22b8 00be 1f64 8d3e
00000210: 7b9f 4bbd ea1a c93b 030f 26be d708 7b3e
00000220: d454 0fbd df98 593e f519 673e c50e ab3e
00000230: 96de 5dbe 8149 803e 29f5 2a3d a1e4 c33d
00000240: 27b9 7cbd 15e0 263b 4620 afbe f1de 953d
00000250: 086d 213e 1b1f 0f3c 4aae 75bd 7681 b03e
00000260: e23b b13b 15c5 e9bd c5bd 8dbb e289 393e
00000270: d915 32be 14b6 343d f325 323d 4bd4 723d
00000280: b823 0b3e 0618 9f3d 0600 94be f2e4 513c
00000290: 935f 083e 1280 80be 8f9e 473d 8c6f edbd
000002a0: 90b0 52bd f1b7 853c 993e 4cbe 2073 c13d
000002b0: 7c08 063e 311f c23e 1210 d3bb cb6d 6abe
000002c0: 6829 4dbe a36e 9e3e b370 223d fd95 36bd
000002d0: fc39 f03b 7d13 abbd 391e 1cbd 1931 1ebd
000002e0: 6ed9 29bd 60c7 44be 42c7 2d3c 1cd1 5d3e
000002f0: c573 323e b4c3 43bd ecdc 4dbd 3412 92bb
00000300: c8ac 283e 61c3 5e3e 8332 8b3e 8865 98bc
00000310: 9f36 3ebe 2757 50be a167 533e 2b6f c23e
00000320: e818 4cbe 59a3 0cbd 86dc 153d 23f9 48bd
00000330: a702 843e af6d e7bb d31a d43d f208 0abd
00000340: ed31 9bbd 017a 313e d6a9 39be 8285 263e
00000350: 68ff f1bd 31fc ab3c 8109 48be 98fa 11be
00000360: c607 4abb 6281 81bd 4c66 823e 63d6 a5be
00000370: 515e e73b 1e18 78be 16d8 a93e 6bb1 3ebe
00000380: 6b33 36bc 8ebc 3b3d 52af 603e 7c8f 883e
00000390: f80f 87bd 2c69 143e 2e59 093e 0e9d 5b3e
000003a0: 0bd9 70be ed8a 9b3e 0ef3 e9bd c39e b53d
000003b0: dcce b43d 3007 243e 8846 7e3e 485f fc3d
000003c0: 6497 9a3e c308 113e 27ac 693e 4168 85be
000003d0: 3447 683d 5ddb 5d3e 6c46 81be 380c 5dbe
000003e0: 4066 2d3e 7cb6 87be 1944 9c3d 5d78 973e
000003f0: 0705 88be 0855 5bbe 58be 16be 8333 b4bd

arith.constant4 f4 [128]
-0.10109128 -0.09719486 -0.07057389 -0.018793466 -0.074100144 -0.068537615 -0.07597984 -0.18986462
-0.099569425 -0.29818726 -0.031875465 -0.10742694 0.011157135 -0.020178271 -0.10488482 -0.17315564
-0.18371207 -0.06694353 0.041182835 -0.14154004 0.130263 -0.077215455 -0.090760216 -0.123491615
-0.048604622 -0.07826899 -0.06841769 -0.13672452 -0.14681806 -0.0630908 -0.059921153 -0.033905514
-0.101241484 -0.008317509 0.09821858 -0.11049733 -0.0765482 -0.100182466 -0.15729818 -0.20763603
-0.10556667 -0.05686197 -0.01878129 -0.14861406 -0.026567303 -0.10175736 -0.08001543 -0.056356356
-0.019747404 -0.00031330236 -0.17481567 -0.09278954 -0.09034567 -0.010983273 -0.11248532 -0.08877457
-0.07170801 -0.19753553 -0.086428136 -0.09673855 -0.03347515 -0.40600115 -0.049438387 -0.08474333
-0.044698816 -0.14790376 0.01831682 -0.1172762 -0.060171645 -0.16006494 -0.09129012 -0.22906542
-0.035144117 -0.17180908 0.0042365207 -0.05720091 -0.0037436723 0.04091423 -0.20363034 -0.07324528
-0.086058415 -0.05990875 -0.045769077 0.0527584 -0.06576647 -0.16970608 -0.05381879 -0.11671063
-0.0897471 0.010313688 0.033939373 0.021358358 -0.018780125 -0.03426168 0.08638029 -0.17070356
-0.03986109 -0.08163282 -0.15138413 -0.039870825 -0.10381161 -0.0919037 -0.013765552 -0.14416274
-0.0435872 0.08379345 -0.20628512 -0.005598319 -0.09867092 -0.13742143 -0.118158355 -0.007974979
0.02281092 -0.04630784 -0.04528203 0.040900458 -0.034756985 -0.031699035 -0.02228968 -0.15024927
-0.09492131 0.01437265 -0.10948146 0.0037636026 -0.15914845 -0.003536065 -0.066631824 -0.08680299
00000000: f208 cfbd 190e c7bd 0b89 90bd c1f4 99bc
00000010: d1c1 97bd 735d 8cbd 519b 9bbd df6b 42be
00000020: 0eeb cbbd 00ac 98be d98f 02bd a802 dcbd
00000030: 6acc 363c e74c a5bc dacd d6bd b64f 31be
00000040: 041f 3cbe b119 89bd 55af 283d dfef 10be
00000050: aa63 053e 2323 9ebd 7ee0 b9bd 2ce9 fcbd
00000060: a415 47bd 7e4b a0bd 931e 8cbd 8301 0cbe
00000070: 7957 16be c035 81bd e26f 75bd 82e0 0abd
00000080: b257 cfbd 2946 08bc d326 c93d 6d4c e2bd
00000090: 4dc5 9cbd 772c cdbd c612 21be 8a9e 54be
000000a0: 5733 d8bd 19e8 68bd 38db 99bc 492e 18be
000000b0: aca3 d9bc 2a66 d0bd 21df a3bd ecd5 66bd
000000c0: 4fc5 a1bc bb42 a4b9 e102 33be 7108 bebd
000000d0: 2707 b9bd 30f3 33bc b45e e6bd 71cf b5bd
000000e0: a6db 92bd c146 4abe 3c01 b1bd dc1e c6bd
000000f0: 3d1d 09bd 62df cfbe e87f 4abd e98d adbd
00000100: 1b16 37bd 1574 17be 280d 963c 812e f0bd
00000110: 8b76 76bd 10e8 23be 50f6 babd 2090 6abe
00000120: 47f3 0fbd b8ee 2fbe 83d2 8a3b 804b 6abd
00000130: 6658 75bb ae95 273d 7984 50be 9f01 96bd
00000140: 653f b0bd e162 75bd 5b78 3bbd 3119 583d
00000150: 92b0 86bd 6ec7 2dbe 1771 5cbd fc05 efbd
00000160: 54cd b7bd befa 283c 0304 0b3d b9f7 ae3c
00000170: c7d8 99bc fa55 0cbd 26e8 b03d eacc 2ebe
00000180: 6245 23bd 1c2f a7bd 7104 1bbe 974f 23bd
00000190: 2e9b d4bd 0238 bcbd e988 61bc 669f 13be
000001a0: 7e88 32bd e69b ab3d 683c 53be 1b72 b7bb
000001b0: fb13 cabd 34b8 0cbe 02fd f1bd 7ca9 02bc
000001c0: f7dd ba3c 4aad 3dbd a679 39bd 3d87 273d
000001d0: 575d 0ebd d9d6 01bd d998 b6bc f2da 19be
000001e0: 1b66 c2bd 437b 6b3c d137 e0bd c6a6 763b
000001f0: d0f7 22be 54bd 67bb 4476 88bd c4c5 b1bd

arith.constant5 f4 [128]
0.90463436 0.8820749 0.9134538 1.2131371 0.9194856 0.9083771 0.94542783 1.1349648
0.8883713 1.1024756 1.1731644 0.95493203 1.1823605 1.0976632 0.9619761 0.7919797
0.7548113 0.9187509 1.2376108 0.8327079 0.72457397 0.8917466 0.8634257 0.8743574
0.94678015 0.85362417 0.8654713 1.3517345 0.7886563 0.8233702 0.9198954 0.81472784
0.83777875 0.932225 1.2293307 0.8746566 0.8753825 0.95428514 0.7216381 0.7355024
0.7836804 0.8725833 1.1174829 0.80725825 1.0747691 0.90593946 0.76131415 0.9732385
1.1629025 1.1693041 0.7506009 0.8633905 0.84436554 0.8320244 0.8747715 0.7997069
0.8770053 1.0225111 0.9017604 0.87326026 0.88872236 0.99748963 0.939807 0.7834127
1.0812643 0.73038554 1.1672798 0.7528725 1.0524337 0.8372953 0.92591673 0.72932595
1.0646355 0.71622133 0.7817031 0.8043695 1.2103105 0.9083895 0.81044716 0.9190408
0.96724653 0.8197268 0.75126797 1.0358878 1.0803627 1.1760418 0.84278053 0.7903522
0.88397765 0.9839686 1.2049432 1.215808 0.8959123 1.0048199 1.2035841 1.0188068
0.97209513 0.8756877 0.7719795 1.246367 0.7761876 0.862352 1.1474739 0.7822964
1.0018809 1.2445416 0.79021245 0.842486 0.77954984 0.86478597 0.60629046 0.93916047
1.2188481 1.0603375 0.8669227 1.0697703 0.9647682 1.0831248 1.1493162 0.9306933
0.87603873 1.155905 0.9673444 1.2290893 0.8894235 1.0501392 0.83767307 0.85871094
00000000: 1e96 673f a9cf 613f 1cd8 693f 1448 9b3f
00000010: 6963 6b3f 678b 683f 8f07 723f 8746 913f
00000020: 4d6c 633f ec1d 8d3f 402a 963f 6d76 743f
00000030: 9757 973f 3a80 8c3f 1144 763f 2ebf 4a3f
00000040: 503b 413f 4233 6b3f 086a 9e3f 582c 553f
00000050: ae7d 393f 8149 643f 7709 5d3f e3d5 5f3f
00000060: 2f60 723f 1d87 5a3f 878f 5d3f a305 ad3f
00000070: 61e5 493f 64c8 523f 447e 6b3f 0192 503f
00000080: ab78 563f 4ca6 6e3f b55a 9d3f 7fe9 5f3f
00000090: 1119 603f 084c 743f 46bd 383f e349 3c3f
000000a0: 479f 483f 9f61 5f3f ae09 8f3f 7aa8 4e3f
000000b0: 0992 893f a6eb 673f 7ce5 423f 2926 793f
000000c0: fdd9 943f c2ab 953f 6127 403f 2907 5d3f
000000d0: 5728 583f 8dff 543f 06f1 5f3f 97b9 4c3f
000000e0: 6b83 603f a5e1 823f c5d9 663f fc8d 5f3f
000000f0: 4f83 633f 7b5b 7f3f 3197 703f bc8d 483f
00000100: de66 8a3f 8cfa 3a3f 6d69 953f 41bc 403f
00000110: 26b6 863f fc58 563f e108 6d3f 1bb5 3a3f
00000120: fa45 883f 485a 373f b21d 483f 29eb 4d3f
00000130: 74eb 9a3f 378c 683f 7779 4f3f 4246 6b3f
00000140: 789d 773f 9ed9 513f 1953 403f f997 843f
00000150: 5349 8a3f 8a88 963f 77c0 573f 8654 4a3f
00000160: 5c4c 623f 5ee5 7b3f 943b 9a3f 999f 9b3f
00000170: 825a 653f f09d 803f 0b0f 9a3f 4368 823f
00000180: 3adb 783f 122d 603f 73a0 453f f488 9f3f
00000190: 3bb4 463f 1ac3 5c3f 6de0 923f 9444 483f
000001a0: a23d 803f 244d 9f3f 5d4b 4a3f 2aad 573f
000001b0: 9490 473f 9d62 5d3f da35 1b3f d26c 703f
000001c0: 3703 9c3f 24b9 873f a5ee 5d3f 3cee 883f
000001d0: 0cfb 763f d5a3 8a3f cb1c 933f eb41 6e3f
000001e0: 1344 603f b2f4 933f e2a3 773f cc52 9d3f
000001f0: 42b1 633f f66a 863f be71 563f 7bd4 5b3f

arith.constant6 f4 [128]
-0.009014439 0.0020164768 0.051052485 -0.012250198 -0.00586363 0.03984543 -0.006037422 -0.016624968
0.008362755 0.119613886 -0.011787096 -0.047773473 0.044507418 -0.05992239 -0.033271022 0.05013629
-0.015980743 0.03280784 0.057328273 0.024646513 -0.2605272 0.032722183 0.032092426 0.1131666
-0.00810161 0.038054682 -0.03513319 -0.0981224 0.02441591 0.019506123 -0.017899424 -0.066527076
0.0041653784 -0.049419787 0.05630251 -0.035245262 -0.046876308 0.0062416117 0.13099092 0.105754524
0.02256319 -0.011520376 0.018880175 -0.020337697 -0.02225731 -0.029693278 0.118924834 0.03612407
0.032682728 -0.041628975 0.035110526 0.036916643 0.02197242 0.07096839 0.021237005 -0.05374576
-0.024930695 -0.034102067 0.010183211 -0.02958035 -0.05748669 -0.13235813 0.028296094 0.042194005
-0.043329246 0.119576894 -0.04180759 0.11134288 0.017286746 -0.21609206 -0.0069098375 -0.016179126
0.01363951 0.13807188 0.09342803 -0.14445627 -0.040421113 0.27396634 0.09777117 0.11243921
0.014643253 -0.035363235 -0.33316106 -0.2688716 0.013445634 -0.021604272 0.062465675 0.03694195
0.026920637 0.05289251 -0.029100355 0.061703034 -0.15355423 0.04592388 -0.06621772 -0.09928945
-0.06670848 -0.046682633 0.091688775 -0.045405038 0.10449592 -0.04995923 -0.040520765 -0.019387413
0.04958682 -0.06460425 -0.06332757 -0.14082256 -0.115364775 0.04302566 0.15954183 -0.04095914
-0.034959942 -0.016653204 -0.1581084 0.052045964 -0.048755176 -0.082963765 0.025884978 0.04867046
0.0070247436 0.024605872 -0.017554488 -0.043264586 0.01730714 0.1579796 0.052693263 0.04356701
00000000: 4cb1 13bc de26 043b 691c 513d 0eb5 48bc
00000010: b223 c0bb f634 233d 91d5 c5bb 1631 88bc
00000020: f003 093c 20f8 f43d aa1e 41bc 1eae 43bd
00000030: 694d 363d 2e71 75bd 3247 08bd b65b 4d3d
00000040: 0cea 82bc 8361 063d 0dd1 6a3d 7ce7 c93c
00000050: d263 85be b207 063d 5973 033d e4c3 e73d
00000060: 9dbc 04bc 3adf 1b3d d2e7 0fbd 66f4 c8bd
00000070: e003 c83c 4ecb 9f3c d0a1 92bc 593f 88bd
00000080: ba7d 883b 676c 4abd 769d 663d 565d 10bd
00000090: 5f01 40bd 6f86 cc3b 7c22 063e d495 d83d
000000a0: 70d6 b83c f6bf 3cbc 99aa 9a3c 3e9b a6bc
000000b0: f654 b6bc 513f f3bc dd8e f33d d5f6 133d
000000c0: 53de 053d 2583 2abd 0ed0 0f3d e835 173d
000000d0: 81ff b33c e057 913d 3af9 ad3c 8424 5cbd
000000e0: 753b ccbc 9cae 0bbd 7cd7 263c 7d52 f2bc
000000f0: 2a77 6bbd e488 07be 36cd e73c 9fd3 2c3d
00000100: 027a 31bd bbe4 f43d 6f3e 2bbd bc07 e43d
00000110: ef9c 8d3c 3d47 5dbe eb6b e2bb 168a 84bc
00000120: 4078 5f3c b762 0d3e 3257 bf3d 58ec 13be
00000130: 9c90 25bd 5145 8c3e 403c c83d 8746 e63d
00000140: 41ea 6f3c 0ad9 10bd 1694 aabe 8aa9 89be
00000150: 144b 5c3c 71fb b0bc 02dc 7f3d 7150 173d
00000160: ab88 dc3c d1a5 583d de63 eebc 52bc 7c3d
00000170: 523d 1dbe ae1a 3c3d 289d 87bd 4458 cbbd
00000180: 759e 88bd 4a36 3fbd 53c7 bb3d a2fa 39bd
00000190: f501 d63d 0da2 4cbd 1af9 25bd 5ad2 9ebc
000001a0: 8d1b 4b3d 3c4f 84bd e3b1 81bd ca33 10be
000001b0: 5e44 ecbd ad3b 303d ef5e 233e c5c4 27bd
000001c0: 2832 0fbd 4d6c 88bc 2be7 21be 262e 553d
000001d0: 82b3 47bd e8e8 a9bd bc0c d43c ad5a 473d
000001e0: d22f e63b 4192 c93c 6ece 8fbc 3536 31bd
000001f0: b4c7 8d3c 67c5 213e e4d4 573d 5273 323d

arith.constant7 f4 [128]
-0.105273485 -0.09861627 -0.078085735 -0.116673775 -0.07647152 -0.07078793 -0.073867425 -0.023031477
-0.09978205 0.074059516 -0.08043025 -0.122778274 -0.06592056 -0.07865113 -0.06948319 -0.13848878
-0.19119513 -0.074662045 0.031926636 -0.14604104 0.14986472 -0.07557596 -0.090922534 -0.15521029
-0.04734982 -0.08080209 -0.07194514 0.0062158327 -0.16248259 -0.13292871 -0.063084275 -0.0441195
-0.098049 0.016375314 0.034394212 -0.11370909 -0.07319343 -0.105919905 -0.21978584 -0.2145729
-0.110258885 -0.05713126 -0.04942149 -0.14806515 -0.08629698 -0.120856375 -0.097536966 -0.06488323
-0.15647224 -0.0075066313 -0.1986538 -0.09574694 -0.09022039 -0.0152432695 -0.114565425 -0.08857195
-0.07715502 -0.1360155 -0.0862929 -0.09767305 -0.04715705 -0.3541609 -0.050643723 -0.09543389
-0.098704904 -0.2124204 -0.012167398 -0.15141241 -0.099413395 -0.21905284 -0.11205454 -0.23632331
-0.043080848 -0.19632171 -0.044369895 -0.05831888 -0.09702767 0.110040754 -0.21158582 -0.12303095
-0.13769063 -0.07764034 0.018028127 0.040535353 -0.12807982 -0.050243672 -0.06904218 -0.14212608
-0.09114335 0.027686223 -0.055338908 -0.050914593 -0.042633556 -0.06753494 0.07427315 -0.1182791
-0.06248803 -0.08174371 -0.2532146 -0.08804087 -0.11384695 -0.07332953 -0.05842695 -0.120620824
-0.09226405 0.06718503 -0.19135167 0.0037820851 -0.124731906 -0.14224935 -0.17312416 -0.0253645
-0.037879333 -0.07706451 -0.19485553 0.036442243 -0.025636803 -0.054650012 -0.013043951 -0.15291595
-0.12438585 -0.0025711237 -0.12402551 -0.08043583 -0.17759569 0.007454406 -0.105697885 -0.09154286
00000000: a099 d7bd 54f7 c9bd 6aeb 9fbd a9f2 eebd
00000010: 1a9d 9cbd 43f9 90bd ce47 97bd 82ac bcbc
00000020: 885a ccbd 84ac 973d 9db8 a4bd 2d73 fbbd
00000030: 5c01 87bd d813 a1bd 344d 8ebd 01d0 0dbe
00000040: a8c8 43be 6ae8 98bd 81c5 023d c88b 15be
00000050: 2376 193e 92c7 9abd 9835 babd 72ef 1ebe
00000060: e3f1 41bd 917b a5bd f957 93bd 2fae cb3b
00000070: d661 26be 771e 08be 5432 81bd a6b6 34bd
00000080: eacd c8bd 8625 863c f2e0 0c3d 50e0 e8bd
00000090: 70e6 95bd 89ec d8bd 8a0f 61be 00b9 5bbe
000000a0: 69cf e1bd 7802 6abd 306e 4abd 649e 17be
000000b0: 79bc b0bd 8c83 f7bd 76c1 c7bd 80e1 84bd
000000c0: 423a 20be 30fa f5bb e76b 4bbe f916 c4bd
000000d0: 78c5 b8bd e8be 79bc 47a1 eabd 3665 b5bd
000000e0: 7303 9ebd a647 0bbe 55ba b0bd cf08 c8bd
000000f0: c027 41bd 9454 b5be cb6f 4fbd d872 c3bd
00000100: cc25 cabd bc84 59be c459 47bc db0b 1bbe
00000110: 4099 cbbd 634f 60be da7c e5bd bdfe 71be
00000120: 8b75 30bd 8f08 49be 35bd 35bd c7df 6ebd
00000130: 71b6 c6bd 0c5d e13d f4a9 58be a7f7 fbbd
00000140: c6fe 0cbe e601 9fbd b9af 933c 6608 263d
00000150: 5b27 03be 4fcc 4dbd fd65 8dbd 8089 11be
00000160: 5da9 babd 38ce e23c 0dab 62bd d28b 50bd
00000170: 86a0 2ebd c24f 8abd 851c 983d 503c f2bd
00000180: 73f3 7fbd 3f69 a7bd 58a5 81be c64e b4bd
00000190: 9728 e9bd cb2d 96bd 1951 6fbd 0d08 f7bd
000001a0: eff4 bcbd 4e98 893d b1f1 43be dcdc 773b
000001b0: 7173 ffbd d0a9 11be 7647 31be 36c9 cfbc
000001c0: 5c27 1bbd ffd3 9dbd 3588 47be 7644 153d
000001d0: 4604 d2bc b1d8 5fbd 4cb6 55bc 0096 1cbe
000001e0: 02be febd 4c80 28bb 1601 febd 8abb a4bd
000001f0: a5db 35be 1744 f43b 2278 d8bd d37a bbbd

arith.constant8 f4 [128, 14]
0.0033625888 0.052008793 0.022588227 -0.02531168 0.041314434 0.096050285 0.033583805 0.004796314
0.046023328 0.048421275 0.011875269 0.008942667 0.0044445638 -0.0013104212 0.0028546897 -0.0017146342
-0.008489969 0.0066838088 0.025961254 0.009747824 -0.00520008 0.004117731 0.022828108 0.011657473
-0.00046228096 -0.00091131165 0.002070482 0.008085052 -0.0023476556 0.019391268 -0.012961061 -0.0038164237
0.054205388 0.022843257 0.0049030753 -0.015077851 0.04015894 0.03420249 0.012306743 0.00059345795
0.00265682 0.0011612424 -0.02406954 -0.038108815 -0.019410213 0.013396592 0.027219074 -0.18259409
-0.049133994 0.024846703 0.022264892 -0.124763 -0.053943887 -0.02289107 0.028657367 0.04794352
0.0011063535 0.008805444 -0.00575959 -0.007526933 0.029239597 0.0880541 0.0019250455 -0.0053245113
0.03369698 0.087432764 0.0018048467 0.004945043 -0.004285536 0.00016851052 -0.10922934 0.031117242
-0.16297902 0.04541626 0.08954033 0.08973272 -0.06260304 0.036901604 0.12520114 0.086576834
-0.032154232 -0.08133831 0.051053014 0.02483631 -0.016589321 -0.0440949 0.024706453 0.06320351
-0.14365251 -0.18354838 -0.08713654 0.046471763 -0.086908124 -0.27833414 -0.04868015 -0.059560243
0.03364548 0.04007843 -0.088810496 0.020729465 -0.122202426 -0.021895226 -0.026016176 0.33550215
-0.044601157 -0.0042397734 0.08760514 0.31915265 -0.085538834 0.038076963 0.09506159 -0.26822805
-0.0026851618 -0.012558295 -0.011949595 -0.0051747193 0.027292036 0.030515311 -0.004436255 0.0008603813
0.013376763 0.06558589 -0.0059677637 -0.00028949042 0.004810758 -0.0014989135 -0.69090074 0.08507353
-0.6106908 0.31467745 0.09483699 0.29936048 -0.20050977 0.04182087 -0.2770846 0.25787604
-0.31306306 -0.02148161 -0.008662524 0.16823159 -0.0027987324 -0.005733412 -0.0007728295 0.02487268
-0.022896046 -0.08453796 -0.013458045 0.034656134 0.04698476 -0.0844689 -0.036593497 0.005241909
0.0013394346 0.034127757 0.0014907108 0.007873776 -0.044971567 -0.040054865 0.09116922 -0.16148287
-0.007762579 -0.03838016 0.09675112 -0.117300615 -0.00943068 -0.020580564 -0.00016495324 0.012701736
-0.011477182 0.012749267 0.004526948 -0.005703669 0.00893631 -0.004164178 -0.0014430596 -0.007891235
0.0029132457 -0.047906496 -0.010808045 -0.01068915 -0.0028087837 -0.0050703734 -0.02329342 0.023470737
-0.056047402 0.021490557 -0.0034047924 0.18673307 -0.018224502 0.01109279 0.007543159 0.20023192
-0.0036775281 -0.06414459 0.016097566 0.009335404 0.024258098 0.015642283 0.072606124 -0.0049466738
-0.01008155 -0.1214155 -0.032084778 -0.053480856 0.04859897 -0.11391358 0.021264024 0.032716166
-0.036578707 0.0041728118 0.007703895 -0.0028838154 -0.01882634 0.016836884 0.023040488 0.0646352
-0.01235864 0.007810937 0.022495382 0.05770126 0.009623173 -0.010659738 0.0048247594 0.008863379
0.002317451 -0.008287439 -0.0014777117 -0.009443681 -0.0031326297 0.009403524 0.005840277 -0.0067751985
0.006414841 0.0021032288 0.015671527 0.0021170236 -0.00087482936 -0.012757201 0.01002687 0.017811162
-0.0027138612 0.0059508528 0.0275774 0.01776224 -0.0077387 -0.010144396 0.016706403 0.06368725
0.023919102 -0.004669081 -0.0014462007 0.015260887 0.04937843 0.024431895 0.06988093 -0.027181728
00000000: e15e 5c3b 2c07 553d f20a b93c 715a cfbc
00000010: 5339 293d 03b6 c43d 2c8f 093d 662a 9d3b
00000020: f582 3c3d 6355 463d 7d90 423c 4484 123c
00000030: b4a3 913b 70c2 abba bf15 3b3b 94bd e0ba
00000040: 8319 0bbc da03 db3b b2ac d43c 56b5 1f3c
00000050: 6f65 aabb 08ee 863b 0302 bb3c fcfe 3e3c
00000060: 4d5e f2b9 17e5 6eba ecb0 073b 2a77 043c
00000070: 20db 19bb 70da 9e3c a15a 54bc f71c 7abb
00000080: 7806 5e3d c821 bb3c faa9 a03b 1709 77bc
00000090: b37d 243d e917 0c3d 39a2 493c 4a92 1b3a
000000a0: 0b1e 2e3b d434 983a 7c2d c5bc fd17 1cbd
000000b0: 2b02 9fbc 617d 5b3c 89fa de3c f2f9 3abe
000000c0: ba40 49bd 508b cb3c dd64 b63c be83 ffbd
000000d0: 44f4 5cbd 0e86 bbbc dbc2 ea3c 6d60 443d
000000e0: 1003 913a b644 103c f1ba bcbb 7ea4 f6bb
000000f0: e187 ef3c b555 b43d cf51 fc3a 3d79 aebb
00000100: d805 0a3d f30f b33d 9b90 ec3a 070a a23b
00000110: ae6d 8cbb 33b2 3039 a2b3 dfbd 96e9 fe3c
00000120: f9e3 26be 6606 3a3d ec60 b73d cac5 b73d
00000130: 0636 80bd 2326 173d ba34 003e 324f b13d
00000140: 28b4 03bd b394 a6bd f71c 513d 8475 cb3c
00000150: 54e6 87bc db9c 34bd 3065 ca3c d870 813d
00000160: a519 13be 1bf4 3bbe a474 b2bd 2d59 3e3d
00000170: e3fc b1bd d081 8ebe d664 47bd 71f5 73bd
00000180: d8cf 093d 4829 243d 47e2 b5bd d7d0 a93c
00000190: 4445 fabd 9e5d b3bc e01f d5bc f0c6 ab3e
000001a0: b4af 36bd cced 8abb 536a b33d fa67 a33e
000001b0: fc2e afbd 97f6 1b3d a7af c23d 3055 89be
000001c0: 8af9 2fbb 4fc1 4dbc 3cc8 43bc b190 a9bb
000001d0: 8c93 df3c 3ffb f93c 015e 91bb 368b 613a
000001e0: 362a 5b3c e551 863d 3b8d c3bb bfc6 97b9
000001f0: 90a3 9d3b 3177 c4ba dfde 30bf 083b ae3d
00000200: 3b56 1cbf 671d a13e e539 c23d c745 993e
00000210: 6f52 4dbe 5c4c 2b3d 08de 8dbe 5408 843e
00000220: cd49 a0be 34fa afbc 42ed 0dbc e744 2c3e
00000230: f06a 37bb 59df bbbb b697 4aba cac1 cb3c
00000240: 7d90 bbbc 3d22 adbd 227f 5cbc 97f3 0d3d
00000250: 1773 403d 08fe acbd 10e3 15bd 52c4 ab3b
00000260: f88f af3a 8cc9 0b3d f463 c33a 0301 013c
00000270: 1b34 38bd 9210 24bd eeb6 ba3d c45b 25be
00000280: 3b5d febb 8434 1dbd 7425 c63d 4e3b f0bd
00000290: 2483 1abc 9298 a8bc 4cf7 2cb9 f11a 503c
000002a0: ca0a 3cbc 4de2 503c cb56 943b d8e5 babb
000002b0: 9a69 123c a873 88bb 0c25 bdba 3d4a 01bc
000002c0: 27ec 3e3b 9a39 44bd 3a14 31bc 8b21 2fbc
000002d0: 9213 38bb 6025 a6bb d8d1 bebc b445 c03c
000002e0: f691 65bd f70c b03c f022 5fbb f436 3f3e
000002f0: 8d4b 95bc 89be 353c 9b2c f73b 9909 4d3e
00000300: af02 71bb 3d5e 83bd 0bdf 833c 86f3 183c
00000310: ebb8 c63c 3f24 803c 85b2 943d b517 a2bb
00000320: 162d 25bc b1a8 f8bd 546b 03bd be0e 5bbd
00000330: b70f 473d 864b e9bd e431 ae3c 6301 063d
00000340: 8ed3 15bd 15bc 883b f570 fc3b 65fe 3cbb
00000350: b239 9abc 81ed 893c 68bf bc3c 765f 843d
00000360: e57b 4abc e3f2 ff3b 3c48 b83c 2858 6c3d
00000370: 83aa 1d3c 2fa6 2ebc 0419 9e3b b537 113c
00000380: 60e0 173b 0ac8 07bc c7af c1ba abb9 1abc
00000390: ce4c 4dbb 3d11 1a3c cb5f bf3b 7c02 debb
000003a0: 9633 d23b 53d6 093b 9361 803c c3bd 0a3b
000003b0: ce54 65ba 9403 51bc be47 243c b7e8 913c
000003c0: 09db 31bb 5fff c23b 00ea e13c 1e82 913c
000003d0: ec94 fdbb ae34 26bc dedb 883c 766e 823d
000003e0: fef1 c33c 17ff 98bb 718e bdba cd08 7a3c
000003f0: 0941 4a3d 6625 c83c bc1d 8f3d 37ac debc
