Riproduzione/models/FD002/LSTMlarge/MSE/lstm_large_batch_1_MSE.tflite (tflite, 708356 bytes, 53 tensors)

sequential_3/dense_10/BiasAdd/ReadVariableOp f4 [32]
0	0xbd9adbc3	-0.075614475
1	0xbdc21194	-0.09476009
2	0x3f202a19	0.62564236
3	0xbdd916f2	-0.106000796
4	0xbdc17543	-0.09446194
5	0xbda98699	-0.082776256
6	0x3fc3f761	1.5309869
7	0xbdbba9ef	-0.09163272
8	0xbc41836f	-0.011811121
9	0xbd4dd4d6	-0.050251804
10	0x3fbf6074	1.495131
11	0xbd2cc49e	-0.042179696
12	0xbdbb59a8	-0.0914796
13	0xbdac95b5	-0.08426992
14	0x3fa443b6	1.2833164
15	0xbd63b0a9	-0.055588398
16	0x3fc8b51f	1.5680274
17	0xbdc6f725	-0.09715108
18	0x3fc88958	1.5666914
19	0x3df10e5b	0.11770316
20	0xbd8a24c6	-0.06745295
21	0xbdde1867	-0.10844498
22	0xbd7ee0a2	-0.062225945
23	0xbd8f3f57	-0.06994503
24	0x3fd03e1a	1.6268952
25	0xbda8f87e	-0.08250521
26	0xbdb5481f	-0.08851647
27	0x3f8f3b39	1.1189948
28	0xbddab4ee	-0.10679041
29	0xbdb77d38	-0.089594305
30	0xbe1f3e55	-0.15551122
31	0x3fa2da16	1.2722805

sequential_3/dense_9/BiasAdd/ReadVariableOp f4 [64]
0	0x3d9f2c7e	0.07772158
1	0x3ea39a9c	0.31953895
2	0x3e946dd0	0.2899003
3	0xbdee350f	-0.11631214
4	0xbd0cdabe	-0.034388296
5	0xbd0f65e7	-0.03500929
6	0x3dbab5b0	0.091166854
7	0x3db25213	0.08707061
8	0xbd761605	-0.060079593
9	0x3e35a981	0.17740442
10	0x3f917ccd	1.1366211
11	0x3eeda011	0.46411183
12	0x3e7d18dc	0.24716514
13	0x3f7b6330	0.98198223
14	0xbd6ee3b1	-0.058322612
15	0x3f32ee76	0.6989511
16	0x3e2b7aec	0.1674611
17	0xbcfdc961	-0.030979814
18	0x3f27f221	0.65603834
19	0x3ed50f8d	0.41613427
20	0x3e78623e	0.24256226
21	0x3f23131b	0.6370103
22	0x3ef5dcda	0.4802006
23	0x3e16425c	0.14673752
24	0x3e64dad7	0.22349106
25	0xbca2e81e	-0.019886073
26	0x3f1f67f6	0.62268007
27	0x3f396874	0.7242501
28	0x3f63d05b	0.889898
29	0xbd5ee355	-0.05441602
30	0x3f483a94	0.78214383
31	0x3fb3b4c6	1.4039543
32	0x3ef0c39b	0.47024235
33	0xbcb576e2	-0.022151414
34	0x3eee1ec9	0.46507862
35	0x3f19c38e	0.6006402
36	0xbd7a55be	-0.061116926
37	0x3e70c2b3	0.23511772
38	0x3e99cddb	0.30039868
39	0x3f073332	0.5281249
40	0xbdcb38c7	-0.09922939
41	0xbda7a4f0	-0.08185756
42	0x3e3c0f56	0.18365225
43	0x3e656ad9	0.2240404
44	0xbde1526c	-0.11002049
45	0x3fadbd64	1.3573422
46	0xbde86f17	-0.11349314
47	0x3e332905	0.17496116
48	0x3f8489ae	1.0354517
49	0x3eb79dec	0.35862672
50	0xbda33769	-0.07969553
51	0xbf1673c0	-0.5877037
52	0x3e9e7e79	0.30955866
53	0xbdd971f0	-0.10617435
54	0x3ed20cef	0.41025493
55	0x3fb276ec	1.3942542
56	0x3e2e0aae	0.16996261
57	0xbdc70bcf	-0.09719049
58	0xbd62c4d5	-0.055363495
59	0xbd78adf6	-0.060712777
60	0x3e5739c9	0.21018137
61	0xbdc868a6	-0.09785585
62	0x3d27f669	0.04100648
63	0x3d678c2e	0.05653017

arith.constant f4 [32, 32]
0	0x3dd51de5	0.104060926
1	0xbcb81e99	-0.022475528
2	0x3ce70134	0.028198816
3	0xbead98ba	-0.33905584
4	0xbe870f01	-0.26378635
5	0xbf00f68e	-0.5037621
6	0x3f344d71	0.70430666
7	0xbe3a46d3	-0.1819108
8	0x3d1467b4	0.03623171
9	0x3e9880d3	0.29785785
10	0x3deaf333	0.11472168
11	0x3e63753b	0.22212689
12	0xbe8661a4	-0.2624637
13	0x3ddcf17f	0.10788249
14	0x3e68d5fa	0.22737876
15	0x3e3141b5	0.17310221
16	0xbe1310a9	-0.14361824
17	0x3c13b366	0.00901494
18	0x3df36f13	0.1188642
19	0xbe4ac3cc	-0.19801253
20	0xbe95d83e	-0.29266542
21	0x3d03f83a	0.03221915
22	0xbda1a444	-0.07892659
23	0xbe2fafcc	-0.17156905
24	0xbea7bee2	-0.3276282
25	0xbe9063d0	-0.2820115
26	0xbeb3fde6	-0.35154647
27	0x3dcb11d2	0.09915508
28	0x3e26992b	0.16269366
29	0xbeb0264a	-0.34404212
30	0x3d97f052	0.07418884
31	0xbee82dec	-0.45347536
32	0x3e974557	0.2954509
33	0x3d7605ed	0.060064245
34	0x3dae76fc	0.08518788
35	0x3df1f296	0.11813848
36	0x3e12dc17	0.1434177
37	0x3ec8bfcc	0.3920883
38	0xbeb67f5d	-0.35644045
39	0x3f064b7e	0.5245894
40	0xbeb3295b	-0.3499249
41	0xbe37e628	-0.17958891
42	0xbe932ca3	-0.28744993
43	0x3dfeb970	0.12437713
44	0x3e11326a	0.14179388
45	0xbde9322a	-0.11386521
46	0xbda528f8	-0.08064455
47	0xbeeeebe2	-0.4666434
48	0xbec64aa0	-0.3872881
49	0x3dbc600b	0.09198006
50	0x3eb4b92e	0.3529753
51	0x3d8456ec	0.064618915
52	0x3a94f51e	0.0011364555
53	0xbdc62418	-0.09674853
54	0xbed7c5e5	-0.4214317
55	0x3d7730c0	0.060349226
56	0x3ebd2ee6	0.36949843
57	0xbd811ddc	-0.06304523
58	0x3d96e190	0.073672414
59	0x3f1602f5	0.5859826
60	0xbf067dae	-0.5253552
61	0xbd8a9de9	-0.067684
62	0xbdac469f	-0.084119074
63	0x3dcbcb08	0.099508345
64	0x3ea69e35	0.32542577
65	0x3f1c2bb8	0.6100421
66	0xbeb1e7a2	-0.34747034
67	0xbf238996	-0.63881814
68	0xbe31d42d	-0.17366095
69	0xbec2d350	-0.38051844
70	0x3f044df0	0.51681423
71	0xbe15c6ba	-0.1462659
72	0xbeb411f4	-0.35169947
73	0x3ec740dc	0.3891667
74	0xbf008c36	-0.50213945
75	0x3f00cb6b	0.5031039
76	0xbf3a1243	-0.72684115
77	0x3ec9e230	0.3943038
78	0x3f1e936e	0.6194371
79	0xbeb2536a	-0.34829265
80	0xbea8bd60	-0.32956982
81	0x3e0de4b0	0.13856769
82	0x3f0e198c	0.5550773
83	0xbf2da209	-0.6782537
84	0xbece5812	-0.40301567
85	0x3e3f3d7e	0.18675801
86	0xbea1d4ca	-0.31607658
87	0x3e54b657	0.20772682
88	0x3f064b8f	0.52459043
89	0xbd0cba96	-0.03435763
90	0xbf060800	-0.5235596
91	0x3d93888c	0.072037786
92	0xbf226104	-0.63429284
93	0xbee85969	-0.45380715
94	0x3f1f0ada	0.62125933
95	0xbec61974	-0.38691294
96	0x3e540a5c	0.20707077
97	0x3f3c2c90	0.73505497
98	0xbe93bc73	-0.28854713
99	0xbe663264	-0.2248016
100	0x3e1689c7	0.14700995
101	0x3e893a03	0.26802072
102	0xbad6bb3c	-0.0016382704
103	0x3ea2ac31	0.31771997
104	0xbe937452	-0.28799683
105	0xbe233cd7	-0.15941177
106	0x3d246db0	0.04014367
107	0x3e0ab12c	0.13544148
108	0xbeab3cd0	-0.33444834
109	0x3ebbdca3	0.3669177
110	0x3d3eabbf	0.04655051
111	0xbed0c3f7	-0.4077451
112	0xbdf906de	-0.12159513
113	0x3e8cc47c	0.27493656
114	0x3e4ab888	0.19796956
115	0xbd8f7814	-0.07005325
116	0xbdc84cbb	-0.0978026
117	0xbe6f70b3	-0.23382835
118	0xbe735a9e	-0.23765036
119	0xbef6d7ea	-0.48211604
120	0x3e6bd8f8	0.23031986
121	0xbe182f89	-0.14861883
122	0xbec82e87	-0.39097998
123	0x3f48b5e3	0.7840254
124	0xbf0fedf4	-0.5622246
125	0xbf0fdf5b	-0.5620019
126	0x3ea56216	0.32301396
127	0x3dbbe413	0.09174361
128	0xbed57b59	-0.4169567
129	0xbea65c4e	-0.32492298
130	0x3df04e38	0.11733669
131	0x3e7acf65	0.24493177
132	0x3cae9f6e	0.021316256
133	0x3d4040de	0.046936862
134	0x3d81442c	0.06311831
135	0xbea5a86f	-0.32355067
136	0x3ed55660	0.4166746
137	0xbed50aa4	-0.4160968
138	0x3e5796b7	0.21053587
139	0xbe3d8367	-0.18507157
140	0x3e4bc4c0	0.19899273
141	0xbeaf067b	-0.34184632
142	0xbed1d0ee	-0.40979713
143	0x3ecf7265	0.40516964
144	0x3e90cf81	0.28283313
145	0xbee920e7	-0.45532915
146	0xbf52db6e	-0.82366073
147	0x3ef09898	0.4699142
148	0x3f07d160	0.53053856
149	0x3d2bbc4b	0.041927617
150	0x3eeb2471	0.4592624
151	0x3e2c52a5	0.16828401
152	0xbeb923b2	-0.36160046
153	0xbe9711e2	-0.2950583
154	0x3c97204b	0.018448016
155	0xbeb23ce5	-0.34812084
156	0x3ee886c7	0.45415327
157	0x3e86ae85	0.26305023
158	0x3d795563	0.060872447
159	0x3d596f14	0.053084448
160	0xbf1f3c99	-0.6220184
161	0xbf2c88ca	-0.67396224
162	0x3f32109e	0.69556606
163	0x3f2dcbb8	0.67888975
164	0x3dcffd65	0.10155753
165	0x3d1bd8c1	0.03804851
166	0xbed968e3	-0.42462835
167	0xbe96af36	-0.2943055
168	0x3ef4ee06	0.47837847
169	0xbf677b66	-0.90422666
170	0x3ed38eff	0.41320035
171	0xbebd1dd6	-0.36936826
172	0x3ebe7ccd	0.3720459
173	0xbf2952da	-0.66142046
174	0xbf39ce90	-0.72580814
175	0x3f3f6189	0.747582
176	0x3f39da8f	0.7259912
177	0xbf593f67	-0.8486237
178	0xbf407d06	-0.7519077
179	0x3ee5de30	0.44896078
180	0x3f4e2e65	0.8053954
181	0x3dfa01ad	0.12207351
182	0x3f688637	0.90829796
183	0x3d8ff652	0.07029404
184	0xbf0dca6b	-0.5538699
185	0xbe2d9f4c	-0.16955298
186	0x3ebfcaeb	0.37459502
187	0x3e06990d	0.13144322
188	0x3ea3aedf	0.31969354
189	0x3f101a09	0.56289726
190	0xbed01837	-0.40643474
191	0x3e99f6c1	0.3007107
192	0x3ead019a	0.33790284
193	0x3d4ec020	0.050476193
194	0x3ebad8de	0.36493582
195	0xbe1db77d	-0.15402026
196	0x3e16f91d	0.14743467
197	0x3e56b425	0.20967157
198	0xbf0c3fd6	-0.54784906
199	0x3e36c4d2	0.17848518
200	0xbe8d94c8	-0.27652574
201	0x3d88ea98	0.0668537
202	0xbe7c84e1	-0.24660064
203	0x3e9a1504	0.3009416
204	0x3d9e060f	0.07715999
205	0x3ee38b3c	0.44442165
206	0x3eac821a	0.3369301
207	0xbde1c2e8	-0.110235035
208	0xbf0ed81d	-0.5579851
209	0x3df192fd	0.11795614
210	0x3dec57cb	0.11540183
211	0x3f134f2e	0.57542694
212	0xbd90df78	-0.07073873
213	0xbc60aa5e	-0.013712494
214	0xbe8b355a	-0.27189142
215	0x3ef46e46	0.47740382
216	0x3e87f688	0.26555276
217	0x3c5226a2	0.012826594
218	0x3ea6a1e1	0.3254538
219	0xbf2cc5e1	-0.6748944
220	0xbe0d504e	-0.13800165
221	0x3d46819d	0.048463453
222	0x3c34fa15	0.011045952
223	0x3d109046	0.03529384
224	0x3efcce51	0.49376157
225	0x3ebf45e4	0.3735801
226	0xbe1a75dc	-0.15084022
227	0xbebda638	-0.37040877
228	0xbd09768e	-0.03356033
229	0x3dfe5861	0.12419201
230	0xbeb6318d	-0.3558468
231	0x3d44dad0	0.04806024
232	0xbec26509	-0.3796771
233	0x3e85a8e6	0.26105422
234	0xbeb84652	-0.3599115
235	0x3e214116	0.15747485
236	0xbc9ffe9f	-0.019530592
237	0x3eb186a7	0.34673044
238	0x3f15cdda	0.5851723
239	0xbea62464	-0.3244964
240	0xbe273fc7	-0.16332923
241	0x3e957803	0.29193124
242	0x3ea18ea3	0.31554136
243	0x3f111ab4	0.5668137
244	0xbe9f3137	-0.31092235
245	0xbe004136	-0.12524876
246	0xbed5c944	-0.41755116
247	0xbf265b3c	-0.6498296
248	0x3ec7ca68	0.3902161
249	0xbf305c5a	-0.6889092
250	0x3e5244e3	0.2053409
251	0xbed98caa	-0.4249013
252	0xbecf6def	-0.4051356
253	0xbde99df3	-0.114070795
254	0x3ea10fb8	0.31457305
255	0x3e135958	0.1438955

arith.constant1 f4 [32, 32]
0	0x3e3887d7	0.18020569
1	0x3e109062	0.14117578
2	0xbe396271	-0.18103959
3	0xbeb0f9cf	-0.3456559
4	0xbe3175b5	-0.17330058
5	0xbf1f9074	-0.6232979
6	0x3f66d1f8	0.90164137
7	0xbe114ab8	-0.14188659
8	0xbe76912f	-0.2407882
9	0x3ecbde98	0.39818263
10	0x3d0ab3eb	0.03386299
11	0x3dcb7746	0.09934859
12	0xbec0fe2f	-0.37693927
13	0x3e5b5b8a	0.21421638
14	0x3e5d110d	0.21588536
15	0x3e704963	0.23465495
16	0xbd6155e9	-0.05501357
17	0x3ea75e4f	0.3268914
18	0x3e6a9553	0.22908525
19	0xbf08b058	-0.5339408
20	0xbe27622a	-0.1634604
21	0xbb600c2c	-0.0034186943
22	0xbd40bacd	-0.047053147
23	0xbf22af75	-0.63548976
24	0xbdf2d7d3	-0.118575715
25	0xbc3a9c44	-0.011389796
26	0xbed650c1	-0.41858485
27	0xbca035c3	-0.019556886
28	0xbe1a3aa5	-0.15061434
29	0xbf0e9cef	-0.5570821
30	0x3e914dec	0.28379762
31	0xbef396ca	-0.4757598
32	0x3e156f45	0.14593227
33	0xbebe20bf	-0.37134358
34	0xbd02f664	-0.031973258
35	0x3e2b55ea	0.16731992
36	0x3eaf80e9	0.34278038
37	0x3f539f04	0.82664514
38	0xbf88ab79	-1.0677329
39	0x3f300f98	0.68773794
40	0x3e064ae0	0.131145
41	0xbe0795ed	-0.13240786
42	0x3e77cf75	0.24200232
43	0xbdf953b3	-0.121741675
44	0x3eee27b7	0.46514675
45	0xbd766de6	-0.0601634
46	0xbe58e264	-0.21180111
47	0xbf48350a	-0.7820593
48	0x3df9de2f	0.12200581
49	0xbd0acb32	-0.03388519
50	0xbd51f88d	-0.051262427
51	0xbe14bb97	-0.14524685
52	0x3e95b36a	0.29238445
53	0xbef92ea6	-0.48668402
54	0xbccd5238	-0.025063619
55	0xbe70aaf3	-0.23502712
56	0x3da868e5	0.08223132
57	0xbe9a7327	-0.3016598
58	0x3ea52e61	0.32261947
59	0x3f2240dd	0.63380224
60	0x3c11b226	0.008892572
61	0x3ec4f1d7	0.3846576
62	0xbef08eb6	-0.4698388
63	0x3e831166	0.2559921
64	0x3e936d8d	0.28794518
65	0x3f25ce59	0.64767987
66	0xbe9f8c7c	-0.3116187
67	0xbe8068a2	-0.25079829
68	0x3e3b13eb	0.18269317
69	0xbe89bdab	-0.26902518
70	0x3ecbbc57	0.3979213
71	0xbe22197d	-0.15830036
72	0xbe3b79b2	-0.18308142
73	0x3f0ce3e5	0.5503524
74	0xbe74a549	-0.23891176
75	0x3eaee139	0.34156206
76	0xbf5e3c01	-0.8681031
77	0x3edb2a84	0.42805874
78	0x3ef168ce	0.47150272
79	0xbd233b23	-0.03985132
80	0xbe5f7ab9	-0.21824159
81	0x3e862929	0.26203278
82	0x3ef92e41	0.486681
83	0xbef0b8f1	-0.470161
84	0xbef30301	-0.4746323
85	0x3d6920f2	0.056916185
86	0xbe34c6d7	-0.17653976
87	0x3ea0a50f	0.3137593
88	0x3efbfcf7	0.49216434
89	0x3c694dbf	0.0142397275
90	0xbedc24bd	-0.4299678
91	0xbe0e6ea1	-0.13909389
92	0xbe80d437	-0.25161907
93	0xbf1d9625	-0.6155723
94	0x3f2429a1	0.6412602
95	0xbe951d64	-0.29123986
96	0x3ea4c4bc	0.32181346
97	0x3f19901b	0.5998551
98	0xbedad362	-0.42739397
99	0xbdfe6c9d	-0.1242306
100	0x3e9724f9	0.29520395
101	0x3ec6cb1b	0.38826832
102	0xbec3b3d6	-0.3822314
103	0x3e2bd45e	0.1678023
104	0xbe909975	-0.28242078
105	0xbeafa5f1	-0.3430629
106	0x3e6d7a73	0.23191242
107	0x3e7c63cb	0.24647443
108	0xbebf34a0	-0.37344837
109	0x3df2a9b2	0.11848773
110	0xbcffb53c	-0.031214349
111	0xbe3e597f	-0.18588828
112	0xbe006e07	-0.12541972
113	0x3e8498f4	0.25897944
114	0x3e909b15	0.28243318
115	0xbd7688a5	-0.060188908
116	0xbe950881	-0.2910805
117	0x3d234be1	0.039867286
118	0xbd10145e	-0.035175674
119	0xbee769c6	-0.45197886
120	0x3e944136	0.28956002
121	0xbd4e08b6	-0.050301276
122	0xbd85614d	-0.06512699
123	0x3f76f625	0.96469337
124	0xbf1ead94	-0.6198361
125	0xbf01c8da	-0.506971
126	0x3d855737	0.065107755
127	0x3efe38b6	0.49652642
128	0xbed84b66	-0.42245024
129	0xbe9c9458	-0.30581927
130	0x3de6e358	0.11273831
131	0x3ef14d09	0.47129086
132	0xbe315fde	-0.17321727
133	0x3e082a4b	0.13297383
134	0xbe1f2806	-0.15542611
135	0xbeda0a9c	-0.4258622
136	0x3d75fe5e	0.060057037
137	0xbeffb0af	-0.49939486
138	0x3dd08b4d	0.101828195
139	0xbea115ca	-0.31461936
140	0x3e8e3ca3	0.27780637
141	0xbdeab35e	-0.11459993
142	0xbf0e5f6d	-0.5561436
143	0x3dfa1cb8	0.12212509
144	0x3eb31178	0.34974265
145	0xbf0edce0	-0.5580578
146	0xbf39a711	-0.7252055
147	0x3f03619b	0.5132081
148	0x3ee9f9ff	0.45698544
149	0xbe95d144	-0.2926122
150	0x3e98a330	0.29812002
151	0x3e0e9e6a	0.13927618
152	0xbeed158d	-0.46305504
153	0x3df04f77	0.11733907
154	0x3e83be56	0.25731152
155	0xbf0c878e	-0.5489434
156	0x3e6cfba2	0.23142865
157	0x3ea457a3	0.32098112
158	0xbe4c7b63	-0.19968943
159	0x3dbe4f2c	0.092924446
160	0xbf030753	-0.5118305
161	0xbf1cf3b6	-0.61309373
162	0x3eff80a5	0.49902835
163	0x3f0f522b	0.55984753
164	0x3e59df36	0.21276554
165	0x3ebeb876	0.37250108
166	0xbed9f5c1	-0.42570308
167	0xbe687697	-0.22701488
168	0x3d105f68	0.035247236
169	0xbece268d	-0.40263787
170	0x3e9ac38d	0.30227318
171	0xbde3f28e	-0.11130248
172	0x3ee2b7cd	0.44280854
173	0xbdfb3256	-0.1226546
174	0xbe42185b	-0.18954603
175	0x3e832130	0.25611258
176	0x3eb7ec87	0.35922644
177	0xbea3a263	-0.3195983
178	0xbee0b098	-0.4388473
179	0x3f100c06	0.56268346
180	0x3e9cc69d	0.3062028
181	0xbd90064e	-0.070324525
182	0x3e700b3e	0.23441789
183	0x3d14b513	0.0363055
184	0xbe904df6	-0.2818448
185	0xbdc40acd	-0.095723726
186	0x3f22942c	0.6350734
187	0xbd0d231b	-0.034457307
188	0xbe68fa53	-0.22751741
189	0x3e4f968d	0.20272274
190	0xbe9ef484	-0.31045926
191	0x3f294e11	0.66134745
192	0xbf05b21a	-0.52224886
193	0xbef4d03b	-0.47815117
194	0x3eb5a851	0.35479978
195	0x3ebab1ca	0.36463767
196	0x3e8f0961	0.27936843
197	0x3f8269c6	1.018853
198	0xbf219691	-0.6312037
199	0x3e03e57c	0.1288051
200	0x3e38cc30	0.18046641
201	0xbeaa34c4	-0.33243382
202	0x3f3ee4fb	0.74568146
203	0xbeed60f6	-0.46363038
204	0x3f0c22ac	0.54740405
205	0xbdda65fb	-0.106639825
206	0xbf15d051	-0.5852099
207	0xbe7342eb	-0.23755996
208	0x3e3f5e7f	0.18688391
209	0xbdc3d527	-0.0956214
210	0xbefeb0db	-0.49744305
211	0x3e603348	0.21894562
212	0x3eae2ae8	0.3401711
213	0xbf2954c5	-0.66144973
214	0x3ebf7627	0.3739483
215	0xbdc933dd	-0.09824345
216	0xbe9186bf	-0.28423116
217	0xbed29842	-0.41131788
218	0x3f2264f2	0.6343528
219	0x3e0f2f89	0.13982977
220	0x3f024175	0.5088113
221	0x3f27410f	0.65333647
222	0xbf0b4f5a	-0.54417956
223	0x3f07589f	0.528696
224	0xbecdba85	-0.40181366
225	0xbd9fd08b	-0.07803448
226	0x3cf3df54	0.029769577
227	0x3e104e7e	0.14092442
228	0x3e343942	0.17599967
229	0x3e8799be	0.26484483
230	0xbe7fb550	-0.24971509
231	0x3d9af8ce	0.07566987
232	0x3e25d10f	0.16193031
233	0xbe21eb0f	-0.15812324
234	0x3ee9e163	0.4567977
235	0xbea6cc29	-0.32577637
236	0x3eb125ca	0.34599143
237	0xbe5bc7a6	-0.21462879
238	0xbe1b8128	-0.15185988
239	0xbe861b7c	-0.26192844
240	0x3efc3583	0.49259576
241	0xbe50a7b9	-0.20376481
242	0xbe4b520e	-0.1985552
243	0xbe65e53e	-0.2245073
244	0x3e3f33d9	0.18672122
245	0xbe8bcfda	-0.27307016
246	0x3e109716	0.14120135
247	0xbf87c42d	-1.0606743
248	0xbe2fcc56	-0.17167792
249	0xbf539b4b	-0.82658833
250	0x3ec19166	0.37806243
251	0x3e629463	0.22126918
252	0x3eb0c82a	0.34527713
253	0x3ebb637b	0.36599335
254	0x3e434f15	0.19073136
255	0x3f082995	0.5318845

arith.constant2 f4 [32, 32]
0	0x3d110820	0.03540814
1	0xbd56f689	-0.052481208
2	0xbe87a862	-0.26495653
3	0xbe9ffe27	-0.3124859
4	0x3eac9860	0.33710003
5	0x3e534eff	0.20635603
6	0xbd8ff1db	-0.07028552
7	0x3e978c57	0.29599258
8	0x3ce75b96	0.028241914
9	0x3eb2e4b4	0.34940112
10	0x3daba94e	0.08381902
11	0x3dc01103	0.09378245
12	0xbcdbe8a1	-0.026844325
13	0x3e7adcdd	0.24498315
14	0x3ddfbdea	0.10924895
15	0x3e0a1023	0.13482718
16	0xbe588147	-0.21143065
17	0x3d47e0f8	0.04879853
18	0x3e3b1298	0.18268812
19	0x3d27a6e0	0.04093063
20	0xbe50a0e5	-0.20373876
21	0x3bf35fbf	0.0074271853
22	0xbe4e26f6	-0.2013205
23	0x3ebbd0bf	0.36682698
24	0x3e56dc21	0.2098241
25	0x3e6d7fea	0.23193327
26	0x3dfbdd8b	0.12298115
27	0xbe0272b5	-0.1273907
28	0xbdc83d01	-0.097772606
29	0x3d736690	0.059423983
30	0x3b82ea65	0.003995227
31	0x3e9a83fa	0.30178815
32	0xbea7fc73	-0.3280979
33	0x3e8ee3cd	0.27908173
34	0xbd8a89ba	-0.067645505
35	0x3ebd557e	0.36979288
36	0xbecd69ce	-0.40119785
37	0xbf0121cd	-0.504422
38	0x3f5b8ae8	0.8575883
39	0xbd4a2cc5	-0.0493591
40	0x3f2d6aa7	0.67740864
41	0xbe724050	-0.23657346
42	0x3f0b6d8b	0.54464024
43	0xbee7113d	-0.4513034
44	0xbef4df0f	-0.4782643
45	0xbe9b4a63	-0.3033019
46	0xbec82673	-0.39091834
47	0xbd506ea8	-0.05088678
48	0x3ee1163e	0.43962282
49	0xbee379c3	-0.44428834
50	0xbe556a5e	-0.20841357
51	0xbf4c4f1b	-0.79808205
52	0x3e601ffc	0.21887201
53	0x3d78708d	0.06065421
54	0x3e9b8af6	0.30379456
55	0x3dfa2d8e	0.1221572
56	0xbf021f52	-0.5082904
57	0x3e12478c	0.14285105
58	0xbeca271e	-0.3948297
59	0x3eb40d62	0.3516646
60	0x3e917c74	0.28415263
61	0xbeb18d96	-0.34678334
62	0x3e923ef8	0.28563666
63	0xbecb788f	-0.39740416
64	0xbeb6f0cc	-0.35730588
65	0x3e5462a2	0.2074075
66	0x3e099dbb	0.13439076
67	0x3da44bf4	0.080222994
68	0xbe1803fd	-0.14845271
69	0xbe23c356	-0.15992483
70	0xbe0321fa	-0.1280593
71	0x3d854385	0.06507019
72	0x3dcbd8e6	0.099534795
73	0xbdfc4b26	-0.12319021
74	0xbd854045	-0.06506399
75	0xbe5df7ec	-0.21676606
76	0x3d08f622	0.033437856
77	0xbd403895	-0.04692896
78	0xbe49183e	-0.19638154
79	0xbd2f1c73	-0.04275174
80	0x3dd7c25e	0.105351195
81	0xbde5c21b	-0.11218663
82	0xbd72e8e1	-0.059304122
83	0x3e0b3b4b	0.13596837
84	0x3d51bf82	0.051208027
85	0x3d6746c8	0.056463987
86	0x3e47636c	0.1947152
87	0x3db0886a	0.08619769
88	0xbdddbafd	-0.10826681
89	0xbea58244	-0.32325947
90	0xbcb16a9f	-0.021657286
91	0xbecb8763	-0.3975173
92	0x3e1727cb	0.14761274
93	0x3e1e5301	0.15461351
94	0xbe0a0175	-0.13477118
95	0xbdd576e0	-0.10423064
96	0xbe58c03a	-0.21167079
97	0xbecaec71	-0.39633515
98	0x3ee0613e	0.4382419
99	0xbd1b5ba9	-0.03792921
100	0x3e4ca4f8	0.19984806
101	0x3e8f7e7f	0.28026196
102	0xbed70375	-0.41994825
103	0x3ecd15d1	0.40055707
104	0xbadac5a6	-0.0016690984
105	0xbdec7ac4	-0.11546853
106	0x3d15990d	0.036522914
107	0xbda75aee	-0.0817164
108	0x3e118e9d	0.14214559
109	0x3d26b05e	0.04069554
110	0xbe479c4c	-0.19493216
111	0x3dc3d64f	0.095623605
112	0xbdcef966	-0.10106163
113	0xbddf8546	-0.10914092
114	0xbe5ff562	-0.2187095
115	0x3f41067b	0.75400513
116	0x3e755e60	0.23961782
117	0x3b0a4a0c	0.0021101264
118	0x3dc12606	0.094310805
119	0x3e9a2863	0.30108938
120	0x3cf1e34e	0.029527333
121	0xbe39ad36	-0.18132481
122	0x3e5b21cd	0.21399613
123	0xbefc2900	-0.4925003
124	0x3d7a8bb1	0.061168376
125	0x3e725d01	0.2366829
126	0xbd8c3c80	-0.06847477
127	0x3ef21382	0.47280508
128	0x3e007b9e	0.12547156
129	0xbee84514	-0.45365202
130	0x3dad9675	0.08475963
131	0x3d898d30	0.067163825
132	0xbe3774cc	-0.17915648
133	0x3e382b92	0.17985371
134	0xbeb809dd	-0.35945025
135	0x3cd03002	0.025413517
136	0x3d2d1885	0.04225971
137	0x3d846bf2	0.064659014
138	0x3e4aaadd	0.19791742
139	0x3cd752cd	0.0262846
140	0x3eb41d1b	0.35178456
141	0xbc9d0e37	-0.019171817
142	0xbd6d2f05	-0.05790617
143	0x3e621f92	0.22082356
144	0x3da4ba5b	0.08043357
145	0xbdb106ed	-0.08643899
146	0xbc2cd090	-0.010547772
147	0x3ee628a9	0.44952896
148	0x3ecfe120	0.40601444
149	0x3e15ef70	0.1464212
150	0x3dcce4db	0.10004588
151	0xbe9d8246	-0.30763453
152	0xbe06a0d7	-0.13147293
153	0xbe9f43dc	-0.3110646
154	0x3ef18c7a	0.47177488
155	0x3ebe4e01	0.37168887
156	0x3d90518a	0.07046802
157	0x3e9b7ad7	0.30367157
158	0xbed52b48	-0.41634583
159	0xbd941186	-0.07229905
160	0xbe970100	-0.2949295
161	0xbf81e0d7	-1.0146741
162	0x3e6ddf15	0.2322963
163	0x3eb47fe0	0.3525381
164	0x3e1e7b8e	0.1547682
165	0x3eb792c9	0.35854176
166	0xbed3ad53	-0.41343173
167	0xbd31823d	-0.043337096
168	0x3d830000	0.063964844
169	0xbe5aad3e	-0.21355149
170	0x3f1dc1b6	0.61623704
171	0xbe7b9673	-0.2456911
172	0x3f26e9ca	0.65200484
173	0xbeb157fd	-0.34637442
174	0xbef1ca6e	-0.47224754
175	0x3ea172cf	0.31532905
176	0x3dac0cd8	0.08400887
177	0xbe8b0e0a	-0.27159148
178	0xbe6066ff	-0.2191429
179	0x3eb0263f	0.3440418
180	0x3ef4f824	0.47845566
181	0xbd08d430	-0.033405483
182	0x3e0fbf98	0.14037931
183	0xbd9bfde5	-0.07616786
184	0xbeca8dc6	-0.3956129
185	0xbe8754f3	-0.26432
186	0x3f2b23da	0.6685158
187	0xbd9caae9	-0.07649786
188	0x3db4aeea	0.08822425
189	0x3f24fc3c	0.6444738
190	0xbf154909	-0.5831457
191	0xbe7901cd	-0.24317093
192	0xbeff3e15	-0.49852052
193	0xbd8762c1	-0.06610633
194	0x3e248511	0.16066386
195	0x3ed37799	0.41302183
196	0xbecbbacf	-0.3979096
197	0xbf2b91dd	-0.67019445
198	0x3e4fe675	0.20302756
199	0xbd599cdc	-0.05312811
200	0x3f0619e6	0.5238327
201	0xbf1350f6	-0.5754541
202	0x3e01d8ef	0.1268041
203	0xbe678d98	-0.22612607
204	0xbd919645	-0.0710874
205	0xbeadae0a	-0.33921844
206	0xbec69590	-0.38785982
207	0x3e0304a2	0.12794736
208	0x3ee8bd67	0.45457003
209	0xbeb44fc6	-0.35217112
210	0xbed14a0f	-0.40876815
211	0xbf806d97	-1.0033444
212	0x3ebd3753	0.36956272
213	0xbe43d542	-0.1912432
214	0x3ef67a09	0.4813998
215	0xbe4f3713	-0.20235853
216	0xbe68373b	-0.22677319
217	0xbd1d037a	-0.038333394
218	0x3e02748b	0.1273977
219	0xbe72a133	-0.23694305
220	0x3e988c98	0.29794765
221	0x3e707bb3	0.23484688
222	0x3c7b2fef	0.0153312525
223	0xbddcc31e	-0.10779403
224	0x3f19fcb5	0.60151225
225	0x3e12975b	0.1431555
226	0xbeb8321f	-0.3597574
227	0xbf000b3c	-0.5001714
228	0x3f0c161e	0.5472125
229	0x3f6e193a	0.9300724
230	0xbea9d147	-0.33167478
231	0xbea90e93	-0.33018932
232	0xbf035470	-0.51300716
233	0x3df586c9	0.11988599
234	0xbebef6b8	-0.37297606
235	0x3eeb4121	0.45948127
236	0x3dbed7f2	0.09318532
237	0x3ed56a01	0.41682437
238	0x3e914c07	0.28378317
239	0xbdc813c2	-0.097693935
240	0xbf2a945f	-0.66632646
241	0x3ebc1935	0.3673798
242	0x3ef0b08d	0.47009698
243	0x3f0293d2	0.51006806
244	0xbe9782bd	-0.29591933
245	0x3cde2a71	0.027119847
246	0xbeeaa28e	-0.45827144
247	0xbee6ebdd	-0.45101824
248	0x3eb2b830	0.3490615
249	0x3f14ad8c	0.5807731
250	0x3e85ed5a	0.26157647
251	0x3cc79e01	0.024367334
252	0xbf4a0fae	-0.78930175
253	0x3e5cd355	0.21564992
254	0x3d789755	0.060691196
255	0x3ee3b86c	0.4447664

arith.constant3 f4 [32, 32]
0	0x3edba701	0.4290085
1	0x3eea20b2	0.4572807
2	0xbeda3a49	-0.42622593
3	0xbed50055	-0.41601816
4	0xbea9e071	-0.33179048
5	0xbed743be	-0.4204387
6	0x3f5416f2	0.8284751
7	0xbea7bd08	-0.32761407
8	0xbee06b7e	-0.4383201
9	0x3ef82ad8	0.48470187
10	0xbe4c75b4	-0.19966775
11	0x3eefd41d	0.46841517
12	0xbf05e9e7	-0.5231003
13	0x3efa5046	0.4888937
14	0x3ea68e05	0.32530227
15	0xbd2b57d4	-0.041831806
16	0xbeb1fcab	-0.34763083
17	0x3efde121	0.49585822
18	0x3edbccef	0.4292979
19	0xbeb99836	-0.3624894
20	0xbeaba289	-0.33522442
21	0x3d74a8a3	0.059731137
22	0xbf0213f6	-0.5081171
23	0x3c7fe066	0.015617466
24	0x3ebd5980	0.36982346
25	0xbe80d8c6	-0.25165385
26	0xbe4dfc8b	-0.20115869
27	0xbdcbeea3	-0.09957626
28	0xbe83605a	-0.25659448
29	0xbf4a2add	-0.78971654
30	0x3ec16e19	0.3777931
31	0xbf048ac8	-0.51774263
32	0xbe8346bb	-0.256399
33	0xbdf6578a	-0.120284155
34	0xbd9b2fd3	-0.07577481
35	0x3da65b44	0.08122876
36	0x3b877f31	0.0041350354
37	0xbebc104f	-0.36731192
38	0x3e59e2dd	0.21277948
39	0x3e74caca	0.23905483
40	0x3e9dda94	0.30830824
41	0x3c6652af	0.014057799
42	0xbd0d1961	-0.03444803
43	0xbe9909b9	-0.2989023
44	0x3e3051cd	0.17218705
45	0xbe44281b	-0.19155924
46	0xbc1fae17	-0.009746096
47	0xbe98280f	-0.29718062
48	0xbd3e0f59	-0.046401355
49	0xbe4aa053	-0.19787721
50	0xbe21d998	-0.15805662
51	0xbf1e478c	-0.6182792
52	0x3de55cde	0.11199354
53	0xbeb3966c	-0.350757
54	0x3ec821a0	0.39088154
55	0x3eabe8c2	0.33576018
56	0xbd2e35df	-0.042531844
57	0x3e3facdf	0.18718289
58	0xbe0f411a	-0.13989678
59	0xbede72f9	-0.43447092
60	0x3e86a838	0.26300216
61	0x3e654970	0.22391295
62	0xbd6b85cd	-0.05750065
63	0xbf2bd8de	-0.6712779
64	0xbe9be21e	-0.3044595
65	0x3da099ea	0.07841857
66	0xbdb573a2	-0.08859946
67	0x3d6f0edc	0.05836378
68	0xbe81553d	-0.25260344
69	0xbe9bff30	-0.3046813
70	0x3f3d5d21	0.7397023
71	0xbf209fa0	-0.6274357
72	0x3eb27662	0.34855944
73	0xbd73ce8b	-0.059523147
74	0x3b8d23d8	0.0043072514
75	0xbda893eb	-0.08231338
76	0xbe614a81	-0.22001077
77	0xbe3c7572	-0.18404177
78	0xbe0d07ac	-0.13772458
79	0x3f392edc	0.72337127
80	0x3eefe646	0.46855372
81	0xbe91362f	-0.2836165
82	0xbe109a47	-0.14121352
83	0xbf82c25a	-1.0215561
84	0x3e18ca51	0.14920928
85	0x3ece8dd7	0.4034259
86	0x3ea9b093	0.33142528
87	0x3edfadb1	0.43687204
88	0xbe6fa260	-0.23401785
89	0x3f04f77e	0.51940143
90	0xbf11d602	-0.56967175
91	0xbeb8a1aa	-0.3606084
92	0x3e836926	0.2566616
93	0xbeb652f4	-0.35610163
94	0x3c5372d2	0.012905793
95	0xbe960dea	-0.2930749
96	0x3e80668e	0.25078243
97	0x3f26f624	0.6521933
98	0xbed068f4	-0.40705073
99	0xbe6731b7	-0.22577558
100	0x3e05944f	0.13044856
101	0xbc8158c5	-0.015789399
102	0x3f0ed9cc	0.5580108
103	0xbed075e4	-0.40714943
104	0x3e01fdfe	0.12694547
105	0x3ef5785a	0.47943383
106	0x3f2b411c	0.66896224
107	0x3ea58247	0.32325956
108	0xbf442ba3	-0.76629084
109	0xbe1fd9d9	-0.15610446
110	0x3f182d87	0.5944447
111	0x3efb4fe5	0.49084392
112	0xbdd36392	-0.10321726
113	0x3c417c42	0.0118094105
114	0x3ea276c7	0.31731245
115	0xbecffeb1	-0.40624002
116	0xbd745abc	-0.059656844
117	0x3f1ea52a	0.6197077
118	0xbd4a37a3	-0.049369466
119	0xbce8fd4e	-0.028441098
120	0xbd9fe549	-0.078074045
121	0x3e6a2253	0.22864656
122	0xbed8624d	-0.42262498
123	0x3ecd9307	0.40151235
124	0xbe910470	-0.28323698
125	0xbf104f7f	-0.563713
126	0x3edbdd56	0.42942303
127	0xbe617d4b	-0.22020452
128	0xbe9e5bef	-0.30929515
129	0xbf0f8f7e	-0.56078327
130	0x3ea63e27	0.32469293
131	0xbcc5b3ad	-0.024133528
132	0x3cdd6699	0.027026461
133	0xbcefb067	-0.02925892
134	0x3e0ce1c3	0.13757996
135	0xbea4440b	-0.32083163
136	0x3f225174	0.6340554
137	0xbeafc73a	-0.34331685
138	0x3f28a88c	0.6588218
139	0xbe45051f	-0.19240235
140	0x3e584495	0.21119912
141	0xbd60b67d	-0.054861534
142	0xbeccc0aa	-0.3999074
143	0x3ecbe8a1	0.3982592
144	0x3e0a5d3d	0.1351213
145	0xbf138c9e	-0.5763644
146	0xbefef8c7	-0.49799177
147	0x3e199035	0.14996417
148	0x3e8408c3	0.25787935
149	0xbde0ce5e	-0.109768614
150	0xbd85af45	-0.06527571
151	0x3eff3cf8	0.49851203
152	0xbe4b81ad	-0.19873686
153	0xbdd7a4a4	-0.105294496
154	0x3dff420b	0.124637686
155	0xbe0e5cc1	-0.1390257
156	0x3e62cf06	0.22149286
157	0x3e31d2d3	0.1736558
158	0xbe75a2a8	-0.2398783
159	0x3e602957	0.2189077
160	0xbe82d74d	-0.25554886
161	0xbee162db	-0.44020733
162	0x3f3f56ad	0.7474163
163	0x3f02d047	0.51099056
164	0x3f0d4910	0.5518961
165	0x3f2cf768	0.6756501
166	0xbf5969f4	-0.84927297
167	0xbc88655f	-0.0166499
168	0x3f1ad29f	0.6047763
169	0xbf288fb9	-0.65844303
170	0xbe70d57b	-0.23518936
171	0xbd3caf8e	-0.04606586
172	0x3f44c378	0.7686076
173	0xbf0095e1	-0.502287
174	0xbf39606f	-0.7241277
175	0x3f03bda1	0.51461226
176	0x3f58cf15	0.8469098
177	0xbf5fd646	-0.8743633
178	0xbead3ce5	-0.3383552
179	0x3ee17cb1	0.44040444
180	0x3f5d1bbc	0.86370444
181	0x3d8c9fde	0.0686643
182	0x3ea5a996	0.32355946
183	0x3edd25f3	0.43193015
184	0xbe496aac	-0.19669598
185	0xbe7e811b	-0.24853937
186	0x3f517f89	0.8183523
187	0x3e9be440	0.30447578
188	0x3e82f99c	0.25581062
189	0x3f24171f	0.6409778
190	0xbf1566a4	-0.5835974
191	0x3f13f7ea	0.5780016
192	0x3e6a81a2	0.22901013
193	0xbe602c0c	-0.21891803
194	0x3e89cfe6	0.26916426
195	0x3ee0d4bb	0.439123
196	0x3db5eec0	0.088834286
197	0x3f47537a	0.7786175
198	0xbf0aad21	-0.54170424
199	0x3cbabfb4	0.02279649
200	0xbe0191f7	-0.12653337
201	0xbe8cc3f6	-0.27493256
202	0x3ecace6f	0.3961062
203	0xbedc0a62	-0.4297667
204	0x3e0460df	0.12927578
205	0xbe92d57d	-0.28678504
206	0xbe474a00	-0.19461823
207	0xbe273bef	-0.16331457
208	0xbec7552c	-0.38932168
209	0xbee3ae5a	-0.44468957
210	0x3ca16c70	0.019705027
211	0x3eb66867	0.35626528
212	0x3e676652	0.22597626
213	0xbc02a186	-0.0079730805
214	0xbe544932	-0.20731047
215	0xbee5f822	-0.44915873
216	0x3d972dd5	0.07381789
217	0xbebc1771	-0.36736634
218	0x3f1fbe7a	0.6240002
219	0x3ed3ac4f	0.413424
220	0xbeb63169	-0.35584572
221	0x3d8f5cb9	0.07000107
222	0xbe86c39e	-0.2632112
223	0x3e83cae7	0.2574074
224	0x3cabad66	0.020956706
225	0x3e53bd27	0.20677625
226	0x3e1ed35d	0.15510316
227	0xbd41b541	-0.047291998
228	0x3c069875	0.0082150595
229	0xbc060fdd	-0.008182493
230	0xbe9f4da7	-0.31113932
231	0x3e15ad3a	0.14616862
232	0xbd41f80e	-0.047355704
233	0x3cdb0334	0.026734926
234	0x3ee46bec	0.44613588
235	0x3da18e0e	0.07888423
236	0x3d95565f	0.072918646
237	0xbe12d5ad	-0.14339323
238	0xbcb2eb54	-0.021840729
239	0xbeca8538	-0.39554763
240	0x3ccea7b0	0.025226444
241	0xbe5d56aa	-0.21615091
242	0x3d2d523a	0.042314745
243	0x3e2114cd	0.15730591
244	0xbc1dfffb	-0.00964355
245	0xbe8abd11	-0.2709737
246	0xbe31f8e5	-0.17380102
247	0x3d86fa5c	0.06590721
248	0xbd7fd313	-0.062457155
249	0xbeb21608	-0.34782434
250	0x3f21f36d	0.63262063
251	0xbe2d08ff	-0.16897963
252	0xbe99d8f3	-0.30048332
253	0xbd6c7753	-0.057730984
254	0x3e9c63d1	0.30544904
255	0x3d668ab4	0.05628462

arith.constant4 f4 [32]
0	0xbdf47c6b	-0.11937793
1	0xbdcb81e6	-0.099368855
2	0xbeb59022	-0.35461527
3	0xbe890c0e	-0.2676701
4	0xbe08c313	-0.13355665
5	0xbdea6b22	-0.11446215
6	0x3d53d327	0.051715042
7	0xbe36caee	-0.17850849
8	0xbe371ae7	-0.17881356
9	0xbe21d748	-0.1580478
10	0xbf0b3b20	-0.5438709
11	0x3e8708e0	0.2637396
12	0xbed67948	-0.41889405
13	0x3ded65c4	0.11591676
14	0xbea827d1	-0.32842878
15	0xbe2fe0cb	-0.17175595
16	0x3ef6f1d5	0.48231378
17	0xbec2adbe	-0.3802318
18	0x3c4983f2	0.012299525
19	0x3e55fa69	0.20896305
20	0xbf038527	-0.5137505
21	0xbdd6af2e	-0.104826316
22	0x3e242d90	0.16033006
23	0x3edccf69	0.4312699
24	0xbf188154	-0.5957234
25	0x3dc8205f	0.09771799
26	0xbec4eade	-0.3846044
27	0x3e27e740	0.16396809
28	0x3b3035c7	0.0026887523
29	0xbee89798	-0.45428157
30	0xbf1f9d8f	-0.6234979
31	0x3dcb23cf	0.09918939

arith.constant5 f4 [32]
0	0x3f8fc1b9	1.1230994
1	0x3f94fd4b	1.1639799
2	0x3f87e72b	1.0617422
3	0x3fa20108	1.2656565
4	0x3f8506c3	1.0392689
5	0x3f944037	1.1582097
6	0x3f7ed194	0.9953854
7	0x3f39454b	0.7237136
8	0x3f5ae0d3	0.85499305
9	0x3fcfb8fe	1.622833
10	0x3eb593df	0.3546438
11	0x3fac4325	1.3457991
12	0x3f79a02f	0.97510046
13	0x3fa46be4	1.2845426
14	0x3f9caec1	1.2240831
15	0x3f75d439	0.9602695
16	0x3f9fa1ad	1.2471215
17	0x3f854ed0	1.0414677
18	0x3fbbc40d	1.4669205
19	0x3f86f56f	1.054365
20	0x3f4612f9	0.773727
21	0x3f78c70d	0.9717873
22	0x3fa991bf	1.3247603
23	0x3ea1a661	0.3157225
24	0x3f163bbc	0.586849
25	0x3f63b6ba	0.88950694
26	0x3f5ece52	0.8703357
27	0x3ea3a5c4	0.31962407
28	0x3f903f62	1.1269343
29	0x3f52378c	0.8211601
30	0x3f0e1791	0.5550471
31	0x3f7b70cc	0.9821899

arith.constant6 f4 [32]
0	0x3d72f468	0.059315115
1	0xbf08e020	-0.5346699
2	0xbe84c09d	-0.25928202
3	0xbe77f027	-0.24212705
4	0x3f1dd98f	0.61660093
5	0x3efaa0cd	0.48950806
6	0xbee88fce	-0.45422214
7	0x3e8de7c1	0.27715877
8	0xbe54bda9	-0.20775475
9	0x3ecf3891	0.40472844
10	0xbdf3c738	-0.11903232
11	0x3e3e9100	0.1861
12	0x3e9df34a	0.30849677
13	0x3ea03bca	0.31295615
14	0x3e806aee	0.2508158
15	0xbe8f20ef	-0.27954814
16	0xbec1e929	-0.378732
17	0x3e4bb08c	0.19891566
18	0x3e2e03c9	0.16993631
19	0x3f49e6b1	0.7886763
20	0xbe3302ac	-0.17481488
21	0xbf2aff54	-0.6679585
22	0xbe4d0713	-0.2002223
23	0x3f20eedc	0.6286447
24	0x3d806f3f	0.062712185
25	0x3edacf5a	0.42736322
26	0x3e670a15	0.2256244
27	0xbe58659c	-0.21132511
28	0x3e693fd7	0.22778259
29	0x3ea0754e	0.31339496
30	0xbea11536	-0.31461495
31	0x3ea66ef2	0.3250652

arith.constant7 f4 [32]
0	0x3e56b707	0.20968257
1	0xbf04423d	-0.5166357
2	0xbec7a1a3	-0.38990507
3	0xbd41d233	-0.047319602
4	0xbc060319	-0.0081794495
5	0xbe11fa23	-0.14255576
6	0x3e3ea3dc	0.18617195
7	0xbf1da028	-0.61572504
8	0x3e1e550d	0.15462132
9	0x3cb78bd0	0.022405535
10	0xbf40a200	-0.7524719
11	0x3e602111	0.21887614
12	0xbeddfd99	-0.43357542
13	0x3e656c60	0.22404623
14	0xbe2290cd	-0.1587555
15	0xbdc63bb9	-0.0967936
16	0x3ef0447e	0.46927255
17	0x3d925172	0.07144441
18	0x3ea6856d	0.3252367
19	0xbd6bef6b	-0.057601374
20	0xbe385557	-0.18001305
21	0xbd81a1da	-0.06329699
22	0x3ec9190a	0.39276916
23	0x3ebd184c	0.369326
24	0x3e3d4404	0.18482977
25	0xbe8af9dc	-0.27143753
26	0xbf2c1b84	-0.67229486
27	0x3d1d58ac	0.038414642
28	0x3dee8ddd	0.11648152
29	0xbf143d0c	-0.5790565
30	0xbf096420	-0.53668404
31	0x3f1d5674	0.6146004

arith.constant8 f4 [32, 64]
0	0xbb2a7480	-0.002600938
1	0x39ddd2ca	0.00042309455
2	0x39e5c4af	0.00043824824
3	0x3bcf2026	0.006320971
4	0xb9b186fa	-0.00033860636
5	0x3b5ae2de	0.0033399384
6	0x38c94871	9.59792e-05
7	0x384f75ac	4.9462236e-05
8	0x3902fd7c	0.00012492196
9	0xb90661a1	-0.00012815605
10	0x3ae49f42	0.0017442482
11	0x3a24bd72	0.0006284333
12	0x3ae2a8c4	0.0017292728
13	0xba0567b7	-0.0005089002
14	0x3a1b8467	0.000593251
15	0xbb95b4b7	-0.004568662
16	0xb9689b26	-0.00022183041
17	0xbb1351d6	-0.0022479198
18	0x38f41dc4	0.00011640371
19	0xbbc66609	-0.006054644
20	0x39306e2d	0.00016825712
21	0x39aec69a	0.00033335836
22	0x3a81d01e	0.0009903943
23	0xbb0ccc8c	-0.0021484224
24	0x3a22d130	0.0006210981
25	0x3a4cb50b	0.000780896
26	0xb9f8cbfc	-0.00047454226
27	0xbbacca07	-0.005273107
28	0x3ba17474	0.0049272124
29	0x3badeddd	0.0053078965
30	0xb9f77241	-0.00047196637
31	0xb9d73f22	-0.00041055033
32	0x3a5242b1	0.0008020802
33	0x37d4693c	2.5321373e-05
34	0xbb8bdc5a	-0.0042682113
35	0xbb4bae9c	-0.0031079417
36	0x38e99f1f	0.000111399444
37	0x3b86fb73	0.0041193306
38	0x3bacf4fb	0.0052782274
39	0xb98a563d	-0.00026385664
40	0xba876dfe	-0.0010332463
41	0xbb32105f	-0.0027170402
42	0x391990da	0.00014645178
43	0xbb445c2d	-0.0029962168
44	0xb9dc59b5	-0.00042028507
45	0x3a901044	0.0010991176
46	0x3be443bc	0.0069660824
47	0x3ba56464	0.005047368
48	0xbbc72578	-0.0060774647
49	0x3b678863	0.0035329096
50	0x3b81d8b6	0.0039626015
51	0x3ace8683	0.001575664
52	0x3a4112e1	0.0007365179
53	0x3bb9fe27	0.0056760493
54	0x3b66c040	0.0035209805
55	0x38533f38	5.0365197e-05
56	0x3a8173b5	0.0009876402
57	0xbb071f30	-0.0020617954
58	0xbbdf2c0b	-0.0068106703
59	0xbbd05dfd	-0.0063588605
60	0xbaa29b54	-0.001240591
61	0x3ba60368	0.005066324
62	0xba032b8c	-0.00050037424
63	0xb999bd50	-0.00029323483
64	0x3b6505f6	0.003494618
65	0xb98e5cc3	-0.00027153463
66	0xbabe115d	-0.0014501024
67	0xbb1e4f14	-0.002415602
68	0x3735cd07	1.0836177e-05
69	0xbb301b77	-0.002687184
70	0x3944af3f	0.00018757301
71	0xb98acb25	-0.00026472766
72	0xb87611ec	-5.866766e-05
73	0xbaa0f261	-0.0012279266
74	0x39a4b1eb	0.00031413077
75	0xb7aa149d	-2.0275178e-05
76	0xba581ba6	-0.0008243866
77	0xb8eb6730	-0.000112248934
78	0xba1f4d87	-0.0006076921
79	0x3b2d2e59	0.002642533
80	0xba2c2b47	-0.0006567728
81	0x3a52b155	0.0008037289
82	0x39439d14	0.00018655165
83	0x3ad73b59	0.0016420885
84	0xb9d756df	-0.0004107272
85	0xb93cae29	-0.00017993957
86	0x3b5acff0	0.00333881
87	0x3a7bff8a	0.00096129684
88	0xb978749a	-0.0002369456
89	0xba1bde94	-0.00059459475
90	0x394a403f	0.00019288155
91	0x3b351830	0.0027632825
92	0x37aadad5	2.036748e-05
93	0xbb38d2d5	-0.0028201838
94	0x3aa2b5bd	0.0012413781
95	0xb8f95c93	-0.000118904885
96	0xbab44a5a	-0.0013755069
97	0xba802951	-0.0009777938
98	0x3a54a0fc	0.0008111147
99	0x3af619d5	0.0018776009
100	0x395fd3ea	0.00021345881
101	0xb9f14702	-0.00046020007
102	0x394c4f41	0.0001948448
103	0xba2fa120	-0.000669973
104	0x3a9fbc1d	0.00121868
105	0x3b0b1452	0.0021221829
106	0xba937d88	-0.0011252621
107	0x3b0d358f	0.0021546816
108	0x3a41dfaf	0.0007395697
109	0xb9e5b975	-0.0004381646
110	0xbb8dea11	-0.0043308814
111	0xbb18819c	-0.0023270613
112	0x3b8173f0	0.0039505884
113	0xbb25e223	-0.002531179
114	0xbb3000b7	-0.0026855895
115	0xbaab81af	-0.0013084913
116	0xb984e786	-0.000253495
117	0xb93834fe	-0.00017567349
118	0xbb820652	-0.0039680386
119	0xb9126249	-0.00013960259
120	0xba0a42a1	-0.00052742107
121	0xbaf0e90f	-0.0018380004
122	0x3b862dd0	0.0040948167
123	0x3b60576c	0.0034231795
124	0x3a582a7e	0.0008246078
125	0xbb486a41	-0.003058091
126	0x3953a605	0.00020184375
127	0xb9bb4149	-0.0003571606
128	0xbaf1144f	-0.0018392893
129	0x3a255b72	0.0006307877
130	0x3a401f9a	0.0007328928
131	0x3a83428d	0.001001434
132	0xb91222d4	-0.0001393662
133	0x3ab92f0f	0.0014128404
134	0xb9552260	-0.00020326069
135	0xb8d8d3a1	-0.000103391016
136	0xb6b605f7	-5.424717e-06
137	0x395ea610	0.00021233433
138	0x39c4add6	0.0003751355
139	0xb8a35603	-7.7884666e-05
140	0x39143b5c	0.00014136493
141	0xb771216f	-1.4372504e-05
142	0x39ba55ba	0.00035540556
143	0xba141584	-0.0005648958
144	0xb6813d07	-3.851604e-06
145	0xb8b36723	-8.554596e-05
146	0x3937437b	0.00017477378
147	0xba386d08	-0.000703529
148	0x3966a9e7	0.00021997803
149	0x38e7de28	0.00011056318
150	0xbad87563	-0.0016514476
151	0xba065701	-0.0005124659
152	0xb82458ad	-3.9183233e-05
153	0x39b2225d	0.00033976408
154	0xb9ccf6de	-0.00039093842
155	0xbaba8c9e	-0.0014232581
156	0x3a18e043	0.00058317574
157	0x3a86e2fe	0.0010291038
158	0xba3e79b1	-0.0007266058
159	0xb8150874	-3.553224e-05
160	0xb83eadcf	-4.5461402e-05
161	0x388ebf90	6.806769e-05
162	0xb9139b91	-0.00014076965
163	0xb9fee528	-0.0004861739
164	0xb989c8fe	-0.00026280427
165	0x39de69b9	0.0004242191
166	0x3a3c8305	0.0007191154
167	0xb94f596f	-0.00019774375
168	0xba432f44	-0.0007445703
169	0xbaa310bf	-0.0012440904
170	0x393bc8bb	0.00017908488
171	0xba78641e	-0.0009475368
172	0xb9eb1f70	-0.00044846116
173	0x39a34b1e	0.0003114575
174	0x3b0db2ab	0.0021621387
175	0x3a669fda	0.00087976234
176	0xbb0319a5	-0.00200043
177	0x3a7bb181	0.000960134
178	0x3ab86cca	0.0014070508
179	0x3a46c691	0.0007582689
180	0x392b2b49	0.00016323956
181	0x3a9164ee	0.0011092701
182	0x3afdd160	0.0019364767
183	0x397e131a	0.00024230444
184	0x386314cd	5.414039e-05
185	0x3a22ab28	0.0006205314
186	0xbae4af08	-0.0017447183
187	0xbaa70103	-0.001274139
188	0xba099b1e	-0.00052492495
189	0x3acc5020	0.0015587844
190	0x3929eb78	0.00016204815
191	0xb908f8a6	-0.000130626
192	0x393868f4	0.00017586706
193	0x3b7d3e64	0.0038641924
194	0x3be3442d	0.0069356174
195	0xbc06a2d6	-0.008217534
196	0x3a0a1a94	0.00052682427
197	0xba57af81	-0.0008227751
198	0x3a88b0bf	0.0010428651
199	0xb7636efd	-1.3556096e-05
200	0xba69c826	-0.0008918069
201	0xbb792ef4	-0.003802237
202	0xbb1aa987	-0.0023599581
203	0xbb1fc872	-0.002438095
204	0x3a212c89	0.0006148299
205	0x3b8604a7	0.00408991
206	0xb983000a	-0.00024986296
207	0x3bee4320	0.0072711855
208	0xbb137b98	-0.0022504088
209	0x3b928845	0.004471811
210	0x3b681260	0.0035411343
211	0x3ba4fb29	0.0050348234
212	0x3b3969f2	0.0028291908
213	0xba1b4a68	-0.0005923868
214	0xbb82096e	-0.0039684093
215	0x3b5db2fc	0.0033828607
216	0xbc2468e2	-0.010034772
217	0xb9d085a9	-0.00039772436
218	0x3b96b00c	0.004598623
219	0x3b94b75e	0.0045384606
220	0xbbec0974	-0.0072032753
221	0xbb9dc29e	-0.00481446
222	0x3b8fdfe8	0.0043907054
223	0x3b76bdec	0.0037649823
224	0xba2cc707	-0.00065909367
225	0x39fbd357	0.0004803191
226	0x3b6fee63	0.0036610595
227	0x3ae3f976	0.0017393071
228	0x38130e5e	3.506091e-05
229	0xbbb174c9	-0.005415533
230	0xbb571bdf	-0.003282301
231	0x3bc1ad16	0.005910526
232	0xba173810	-0.0005768547
233	0x3a18e80a	0.00058329164
234	0xbb83c241	-0.0040209596
235	0x3afbe03f	0.0019216611
236	0xba387cd0	-0.00070376415
237	0xbb4bf69c	-0.0031122332
238	0xbbf06124	-0.007335799
239	0xbbf09335	-0.007341767
240	0x3c0fdaa3	0.008780154
241	0xbb1a9472	-0.0023587015
242	0xbaed2676	-0.0018093127
243	0x3b4a70db	0.003089002
244	0x38ec68c8	0.00011272874
245	0xbbc063c5	-0.0058712685
246	0x3a52f0bf	0.0008046738
247	0x3b32c8c6	0.0027280315
248	0xbaad76f0	-0.0013234299
249	0xbb684656	-0.0035442314
250	0x3bf1ed7b	0.007383046
251	0x3c18f28a	0.00933517
252	0x3960fcce	0.00021456482
253	0xbb663be4	-0.0035130912
254	0x3b403ff3	0.0029334992
255	0xbb2a7358	-0.0026008692

arith.constant9 f4 [32, 64]
0	0xb99f80e9	-0.0003042289
1	0xb9954f61	-0.00028478637
2	0xba33c2a5	-0.00068573124
3	0x3b6513b4	0.003495437
4	0xb97aa9b3	-0.00023905076
5	0x3a1b6e69	0.0005929233
6	0xb7433aac	-1.1636566e-05
7	0x3a0c6821	0.00053560926
8	0xb88e84c4	-6.795817e-05
9	0xba14c9bb	-0.0005675812
10	0x3a215b9e	0.00061553146
11	0x3906989c	0.00012836087
12	0x393f2518	0.00018228998
13	0xba4fa455	-0.0007920911
14	0x388f323b	6.8281275e-05
15	0xbaa491b0	-0.0012555625
16	0xb9fd81e9	-0.0004835271
17	0xba2cf032	-0.0006597071
18	0x396ffa65	0.00022886095
19	0xbb6431bc	-0.0034819683
20	0x37d9bd89	2.5956675e-05
21	0x3736610e	1.0870643e-05
22	0x3b37eecb	0.0028065916
23	0xba5e2066	-0.00084734557
24	0xb6ef8611	-7.1383624e-06
25	0x390e9fc8	0.00013601698
26	0xb9a6a80e	-0.00031787198
27	0xba71e1a2	-0.00092270423
28	0x3b75d942	0.003751353
29	0x3ae6a978	0.0017598113
30	0xb9afafb2	-0.00033509504
31	0xb960b794	-0.00021430693
32	0x39a1684f	0.0003078603
33	0x3873d844	5.8137128e-05
34	0xbb48d1ff	-0.0030642746
35	0xba462a5a	-0.00075594115
36	0x378bc9af	1.6664007e-05
37	0x3b1ec2d1	0.0024225006
38	0x3b89890e	0.0041972464
39	0xb9dae364	-0.0004174962
40	0xb942242d	-0.00018514758
41	0xb992ff87	-0.00028037673
42	0x37eb9cf9	2.808728e-05
43	0xba8079ef	-0.0009801964
44	0x393010ca	0.00016790922
45	0xb9fa99fc	-0.00047798443
46	0x3b383508	0.002810778
47	0x3ae14728	0.0017187344
48	0xbb00eb23	-0.0019671402
49	0x3a650299	0.0008736044
50	0x3a5983ab	0.0008297513
51	0x3910f2ec	0.00013823406
52	0x3814eb5b	3.550514e-05
53	0x3b7db129	0.0038710332
54	0x39489db9	0.00019132243
55	0xb925fec0	-0.00015830528
56	0x394db527	0.00019617808
57	0xbb5e65fa	-0.0033935294
58	0xbaf0877a	-0.0018350922
59	0xbb02a5eb	-0.001993532
60	0xb81a25a8	-3.675153e-05
61	0x3adca7ca	0.0016834673
62	0xba1e5783	-0.0006040262
63	0xb9edd517	-0.00045362927
64	0x39f0e1f3	0.00045944712
65	0xb9f4d752	-0.00046699733
66	0x3971d683	0.00023063463
67	0xba1378b7	-0.0005625593
68	0x386d2de4	5.6547942e-05
69	0xb9f51fe4	-0.00046753802
70	0xb7ceb60e	-2.464189e-05
71	0xb9d4ef2b	-0.00040613985
72	0xb90a7b2e	-0.00013206594
73	0x39575412	0.00020535316
74	0x39d85090	0.00041258754
75	0x399f3763	0.0003036811
76	0xb9885d0e	-0.00026009273
77	0xb9e057f8	-0.0004279015
78	0xb8e1758b	-0.0001075073
79	0x3a1bcbb3	0.00059431343
80	0x39b4d50e	0.00034491014
81	0x3a1148c3	0.00055421534
82	0xb9bc9597	-0.00035969607
83	0x3a4a134d	0.00077085645
84	0xb6f10315	-7.1827185e-06
85	0xb935645f	-0.00017298896
86	0xb8ee6e08	-0.00011369219
87	0x390a124a	0.00013167519
88	0xb9c14882	-0.0003686585
89	0xb873919a	-5.8071317e-05
90	0x35894834	1.0228309e-06
91	0x3a19c03e	0.0005865133
92	0xb9d254a5	-0.00040117386
93	0xba160a37	-0.0005723568
94	0x39b97299	0.00035371332
95	0xb9e03534	-0.0004276425
96	0xb9223cfb	-0.00015472241
97	0xb88b5193	-6.643231e-05
98	0x3a25852f	0.00063140964
99	0x3a2368b5	0.0006233559
100	0xb8230886	-3.8870166e-05
101	0xb9e01470	-0.00042739836
102	0xb9da6eed	-0.00041662846
103	0x39a69740	0.00031774677
104	0x398e56cb	0.00027149016
105	0x39f3d464	0.00046506815
106	0x39a5295a	0.00031502062
107	0x3a0195ac	0.00049432623
108	0x388f5b29	6.835751e-05
109	0x39d7a2a3	0.0004112917
110	0xba8332e9	-0.0010009679
111	0xba1d9219	-0.0006010845
112	0x3a32b01a	0.00068164023
113	0xb9fbc5e4	-0.0004802189
114	0xb9cfc334	-0.00039627554
115	0xb933ac2a	-0.00017134906
116	0xb828db5f	-4.0258627e-05
117	0xb9fed8a0	-0.00048608053
118	0xb9def484	-0.00042525318
119	0xb9cb6a28	-0.0003879827
120	0xb8590f62	-5.1751158e-05
121	0x3864c669	5.454422e-05
122	0x3a39a660	0.0007081982
123	0x39f1ca5b	0.0004611787
124	0x3886a1bc	6.419743e-05
125	0xba35a477	-0.0006929109
126	0xb9c8e314	-0.0003831616
127	0x39a3e78b	0.00031262296
128	0xb9d86cd7	-0.00041279822
129	0x39eddd22	0.0004536892
130	0xb96e56bb	-0.00022729758
131	0x3a43a4f8	0.0007463242
132	0xb91507c6	-0.00014212643
133	0x39e31c5c	0.00043317943
134	0x36fb5c10	7.4911004e-06
135	0x394b58d8	0.00019392685
136	0x38a7b4f1	7.9968835e-05
137	0xb963e05b	-0.00021731986
138	0xb8ededdd	-0.00011345346
139	0xb93a8d77	-0.00017791042
140	0x3943196a	0.00018606117
141	0x38300253	4.1963835e-05
142	0x38b48d46	8.609383e-05
143	0xba0d7e8b	-0.00053975795
144	0xb9c2065e	-0.00037007307
145	0xb9d408f9	-0.00040442476
146	0x39b990e1	0.00035393893
147	0xba4254d8	-0.00074131554
148	0xb862f979	-5.411494e-05
149	0x391d02c4	0.00014973717
150	0x39eaf9a1	0.00044817946
151	0xb956aabb	-0.00020472232
152	0x398cfc42	0.00026890828
153	0x383788b2	4.3757907e-05
154	0xb8b5bd4f	-8.666014e-05
155	0xba13c7c8	-0.00056373747
156	0x3a52104e	0.0008013294
157	0x3a1925e9	0.0005842136
158	0xb9accefa	-0.00032960606
159	0x39531d50	0.00020133448
160	0x389ab90c	7.37776e-05
161	0x37e9c4b4	2.7867361e-05
162	0xba4e2021	-0.0007863064
163	0xba124f0d	-0.00055812375
164	0x38131f06	3.5076424e-05
165	0x3a14634f	0.000566055
166	0x3a5e7436	0.00084859447
167	0xb99e9ab9	-0.00030251386
168	0xb97b37d7	-0.00023958027
169	0xb9dc26ff	-0.00041990724
170	0xb9c6c6be	-0.00037913577
171	0xb9f1505f	-0.00046026983
172	0xb81438b6	-3.5338766e-05
173	0xb96dbfe2	-0.00022673563
174	0x3a92ac8c	0.0011190339
175	0x3a224185	0.0006189573
176	0xba455c6c	-0.00075287255
177	0x39e50e83	0.00043689096
178	0x39db6f5a	0.00041853898
179	0x3913cb75	0.00014094806
180	0x36b589ed	5.410277e-06
181	0x3a723e17	0.00092408195
182	0x39b69872	0.00034827326
183	0x399d2469	0.000299725
184	0x37403e13	1.1458545e-05
185	0xb9b8bdbc	-0.00035236578
186	0xba2526c5	-0.00063000276
187	0xb9c8bb8d	-0.0003828671
188	0xb85b4ffb	-5.2288156e-05
189	0x3a49fcdf	0.0007705222
190	0x3990dfcb	0.0002763256
191	0xb9a03c55	-0.0003056253
192	0xb958cfae	-0.00020676732
193	0x3b5c4303	0.0033609278
194	0x3b541b6f	0.0032364985
195	0x3a1b68df	0.0005928408
196	0xba315b88	-0.00067656534
197	0x3a7a4ead	0.0009548467
198	0x3b201eb1	0.0024432356
199	0x3a71fec2	0.0009231382
200	0xb9ad2060	-0.00033021253
201	0xbb26516b	-0.0025378119
202	0xba426f9c	-0.0007417144
203	0xba65c4c8	-0.00087649794
204	0x3a9cd500	0.0011965334
205	0x3ad8a685	0.0016529119
206	0x3879ce4e	5.9558362e-05
207	0xb99ef582	-0.00030319026
208	0xbb1f6aa9	-0.002432505
209	0xb9602e2c	-0.00021379505
210	0x3b01dcd2	0.0019815457
211	0xbb4d204a	-0.0031299763
212	0x3a89e628	0.0010520862
213	0xb8bcb120	-8.997531e-05
214	0xb92e093a	-0.0001659737
215	0x3a6b2a7e	0.00089708704
216	0xbb91121a	-0.0044272067
217	0x39090817	0.00013068352
218	0x3b296241	0.0025845917
219	0xba9456c3	-0.0011317361
220	0x3addc574	0.0016919808
221	0x3add52b0	0.0016885605
222	0x3b034ff8	0.0020036679
223	0x3ab00249	0.0013428415
224	0x3a74ab6a	0.0009333404
225	0x39c92492	0.00038364955
226	0xbb5f2359	-0.0034048168
227	0xba593a07	-0.000828654
228	0x39f03806	0.00045818108
229	0x3a6d539f	0.0009053293
230	0x3b98a32e	0.0046581244
231	0x3afd067c	0.0019304301
232	0xba832075	-0.001000418
233	0xba62b773	-0.0008648552
234	0xbad52a86	-0.0016263283
235	0xba6dd525	-0.00090725935
236	0xb931ca1b	-0.00016955326
237	0xbadb328e	-0.001672344
238	0x3b16439a	0.0022928477
239	0x3a372993	0.0006987091
240	0x3a918ffc	0.0011105533
241	0x3a5a1792	0.0008319552
242	0x3a8ce91a	0.0010750622
243	0x3b319a59	0.0027100055
244	0x392d086c	0.00016501703
245	0x3aed0036	0.0018081728
246	0x3a92f83c	0.0011212896
247	0x3a91afac	0.0011114976
248	0x38b0094f	8.394068e-05
249	0xbbd63e68	-0.006538201
250	0xbaf62c29	-0.0018781471
251	0xba7eb8ea	-0.00097168854
252	0xb905b702	-0.00012752044
253	0x3ac2850f	0.001484068
254	0x3af68aca	0.0018809673
255	0xbab52c5e	-0.0013822427
