Riproduzione/models/FD002/CNNAlternativeQUADCNN_alternative_QUAD_batch_1.tflite (tflite, 972876 bytes, 11 tensors)

sequential_7/conv1d_10/BiasAdd/ReadVariableOp f4 [256]
00000000: ba4d 46bd 6a09 25bc 5c67 9abd e169 60bd
00000010: 9ce8 aabd ba16 14bd bb1f ccbd 15cd 6fbd
00000020: 4657 b1bd b59d a239 6c24 50bd f89c 8ebd
00000030: 72d7 32bd 54fd b3bd 8dab c1bc b170 43bd
00000040: f507 28bd 1def cdbd 453f 3fbd 28e8 93bd
00000050: 68e9 6abd e79b 53bd 10fc b6bd defe a6bd
00000060: 66b7 72bd 51be acbd b947 a1bd 0c8d 83bd
00000070: 1cab e5bd 3392 88bc 36f7 b0bd 0f60 98bd
00000080: d8a7 8fbd 1c10 7fbd f553 9f3c 2efa c5bd
00000090: 5c05 dcbd 3c1e bbbd a80b 83bd a2d5 2dbd
000000a0: 4086 36bd 5834 95bd b6f2 d2bd 179a 46bd
000000b0: 75bd 9abd 6e02 a2bd 7410 77bd 8344 14be
000000c0: ae61 94bd 7480 b1bd 275d 65bd 6823 b8bd
000000d0: 5319 86bd 75f8 dabd 13be aebd bed5 bfbd
000000e0: 5192 d7bd 0e64 bebb 0527 12be 47d3 1fbd
000000f0: 190b 4dbd 057a edbd 82a9 03be 7b14 8bbd
00000100: 13f1 16be 63cc a9bd 2cfa 85bd 5f05 69bd
00000110: c241 d1bd 675a b1bd 86b7 28bd 7b47 a4bd
00000120: a8b8 97bd 3259 b93c 0eeb a2bd 33c4 a3bd
00000130: 0e38 83bd cede b0bd a9f9 c5bc 3656 7dbd
00000140: 44af 50bd 97d6 9cbd 511f 86bd 7115 06be
00000150: b8e4 d4bd 5850 acbd 1e28 4cbd a1ae 3cbd
00000160: 594d c7bd dcce d4bc 3d85 f3bc 96d7 abbd
00000170: 8f90 61bd ea8b 63bd e8e2 79bd 6553 67bd
00000180: e96f 9ebd 4f1e 29bd ddc7 d3bd 93f3 6abd
00000190: 39c2 82bd 8312 98bd 4446 39bd 9502 e5bd
000001a0: 82a1 6fbd fe27 20be afd0 babd b63d 74bd
000001b0: d77c 52bd 512b e9bd f702 84bd 2af0 babd
000001c0: 17f8 93bd a102 40bd 4d87 92bd a8b7 2ebd
000001d0: 853f 0ebd c42a bbbd 5a54 ccbd 09e8 d0bc
000001e0: 4be6 5cbd 4b6c 37bd ca3a 71bd 53ea 41bc
000001f0: 4976 86bd 9244 3cbd bf40 1dbd 0789 9bbd
00000200: dc7b 263d a866 59bd 0ed8 62bd 5f39 9fbd
00000210: 9528 abbd 6126 b4bd 5bd4 a6bd 0224 5bbd
00000220: b608 063d c6bb c9bd 7860 bcbd f92f 0bbd
00000230: 2a36 07bd 588d 66bd 86d1 32bd 6784 9abd
00000240: 275a 9bbd 6897 08bd a545 c3bd 4de7 84bd
00000250: a4d1 87bd 9672 beba 8f3b debd 848b a4bd
00000260: 9e8d 94bd 97c6 d93c 9551 a6bd 0ddc 7ebd
00000270: 69d5 9fbd 9092 85bd 50a2 b2bd 80d5 d7bd
00000280: 6c3a a6bd 90c5 53bd d19e 91bd d5a2 a1bd
00000290: b99f 59bd caff cbbd 962f 22bd 5323 99bd
000002a0: b14e bbbd 2fad 64bd 323a b6bd 373f bbbd
000002b0: a62f 84bd 19c1 0dbe 0351 04be ed2d 75bd
000002c0: 1dbd d9bb d786 92bd 04c2 633c 535e 95bd
000002d0: b7ed 3dbd 155d b3bd 824a 7ebd 4f10 4dbd
000002e0: c233 96bd 2706 7fbd af60 64bd e754 0fbe
000002f0: 5839 18be c350 adbd ac94 9ebd aae1 58bd
00000300: 7c45 9abd 6fde 84bd d2d1 f3bd 1c88 c2bd
00000310: d3ea 63bd 93a5 b2bd 9343 6cbd 8571 4bbd
00000320: 136d eb3c 370e a2bd 0e30 92bd 28a0 78bd
00000330: 0617 9b3b 3750 f0bd bc1e 65bd 109f b1bd
00000340: bf4d 70bd 41a4 95bd 5194 8fbd efc6 8dbd
00000350: 7e75 69bd b654 92bd 1954 92bd 2672 3abd
00000360: 8861 e1bd cce3 05be fa3f 6cbd 0b46 a0bd
00000370: e950 dcbd 0803 6bbd e7d0 98bd 675b 0a3b
00000380: 6ff9 ffbd 4fb8 35bd 9d25 99bd 0856 eabd
00000390: 1725 82bd 6f22 adbd aee7 acbd 0327 abbd
000003a0: 5a0f adbd bdd6 87bd ef9a 84bd 7c88 2bbd
000003b0: bef1 98bd 0c97 bdbd 898b 99bd 0876 58bd
000003c0: a61a 57bd ce30 0fbe 7025 a6bd 34ad b0bd
000003d0: 7d84 8fbd 676b 663c aad5 e6bd d789 40bd
000003e0: e447 20bd 68a6 eabd daba 61bd 8c00 66bd
000003f0: 3ed4 52bd 1e53 c4bd ebc1 8abd 77e5 98bd
-0.04841397 -0.010073045 -0.075392455 -0.054788474 -0.08345148 -0.036154486 -0.099669896 -0.05854519
-0.08659224 0.0003101655 -0.050815985 -0.06963533 -0.043662496 -0.08788553 -0.023641372 -0.047714893
-0.041023213 -0.10055373 -0.046691198 -0.07222015 -0.0573515 -0.051662352 -0.08934796 -0.08154081
-0.059256934 -0.084347375 -0.07875008 -0.06423387 -0.11214277 -0.016671276 -0.08640902 -0.07440197
-0.070144355 -0.062271222 0.019449214 -0.096668586 -0.1074321 -0.09136626 -0.06398708 -0.042440064
-0.044561625 -0.072853744 -0.103002 -0.048486795 -0.07555667 -0.0791062 -0.060318425 -0.1447926
-0.072451934 -0.086670786 -0.05599704 -0.08991128 -0.06547799 -0.10691921 -0.085323475 -0.0936694
-0.105259545 -0.0058102673 -0.14272697 -0.03901985 -0.05005941 -0.11595539 -0.12857631 -0.06791016
-0.147404 -0.08290937 -0.06541857 -0.056889888 -0.102176204 -0.08659821 -0.041190647 -0.08021446
-0.07408267 0.02262554 -0.079549894 -0.079964064 -0.06407176 -0.086362466 -0.024166899 -0.061849795
-0.050948396 -0.07658117 -0.06548942 -0.13094117 -0.10395187 -0.08413762 -0.049842946 -0.046064977
-0.0973155 -0.025977544 -0.029726619 -0.08390729 -0.055069502 -0.055553354 -0.06100741 -0.056476016
-0.07736189 -0.04128867 -0.10340855 -0.057361197 -0.06384701 -0.07425406 -0.045233026 -0.11182133
-0.058503635 -0.15640256 -0.091218345 -0.059629165 -0.051388588 -0.11385215 -0.06445878 -0.09127839
-0.07225054 -0.046877507 -0.07154713 -0.042655617 -0.034728546 -0.09139016 -0.09977026 -0.025501268
-0.053930562 -0.04478101 -0.058893956 -0.011835652 -0.0656553 -0.04596383 -0.038391825 -0.07594495
0.040645465 -0.053076416 -0.055381827 -0.077746145 -0.0835735 -0.08796383 -0.08145972 -0.053501137
0.03272315 -0.09850268 -0.091980875 -0.033981297 -0.03301064 -0.05628714 -0.04365685 -0.07544785
-0.075855546 -0.033347517 -0.09534768 -0.064894296 -0.06631783 -0.0014529999 -0.10851204 -0.08034423
-0.07253574 0.026583953 -0.08121029 -0.062221576 -0.07804377 -0.06522095 -0.08722365 -0.10538769
-0.08116612 -0.051702082 -0.0711037 -0.07892386 -0.05313084 -0.09960897 -0.039596163 -0.07477441
-0.091458686 -0.055829223 -0.088978186 -0.09142917 -0.06454401 -0.13843192 -0.12921529 -0.05985825
-0.0066448585 -0.07154625 0.013901237 -0.072933815 -0.04636928 -0.08757988 -0.062082775 -0.05006438
-0.07334091 -0.062261727 -0.055756267 -0.13997231 -0.14865625 -0.0846267 -0.07743201 -0.052949585
-0.07532784 -0.06487738 -0.119052544 -0.09498617 -0.055643868 -0.08722987 -0.05768163 -0.049668808
0.028738534 -0.079128675 -0.07138072 -0.060699612 0.004732969 -0.1173405 -0.055937514 -0.08672917
-0.058667894 -0.073067196 -0.07010711 -0.06922709 -0.056996815 -0.071450636 -0.071449466 -0.045519017
-0.11004931 -0.13075179 -0.0576782 -0.0782586 -0.1075762 -0.057375938 -0.0746172 0.002111161
-0.124987476 -0.044365223 -0.07477877 -0.114421904 -0.063547306 -0.08453833 -0.08442627 -0.0835705
-0.08450194 -0.06632755 -0.06474864 -0.04187821 -0.07467984 -0.092573255 -0.07497317 -0.05284694
-0.05251565 -0.13983461 -0.081126094 -0.08626786 -0.07007692 0.014063693 -0.11271222 -0.047006454
-0.03913106 -0.11457521 -0.055109836 -0.056152865 -0.05147194 -0.09586166 -0.06775268 -0.07465642

sequential_7/conv1d_11/BiasAdd/ReadVariableOp f4 [96]
00000000: 8b3f b9bc 6523 0f3e d8e9 51bc 245a 05bd
00000010: 41e1 f13d 846d f0bc d4f0 02bd 3740 ecbc
00000020: aa06 073e 1dd6 d1bc 172c 19bd 45cd 39bb
00000030: 2afa 07bd 232b 9b3c 41a1 b3bc 7683 acbc
00000040: b629 90bc aed4 b7bc 40c4 663c c8ab 1dbd
00000050: 9551 e9bc 7ab5 9abc c71b 88bc a705 0dbd
00000060: 73c8 a93c d00c 25bd ab81 b33c 2b03 03bd
00000070: 4754 bcbc 7572 0a3c 7923 81bc b35b d3bc
00000080: 89d5 24bd ba7d 223c 0665 23bd 69cb 833d
00000090: 6ee2 893d 05b4 28bc 333b c1bc e5f5 c8bc
000000a0: eebb af3d 32b9 68bc d35b dabc de7c 193e
000000b0: 4b7c dfbc 28aa 43bd 031c edbc 3ec9 afbc
000000c0: 8a3a bcbc 3cc5 7f3d db24 553e 4353 e3ba
000000d0: 4569 3bbc 31aa 3cbc 329e 183d 0a70 d1bc
000000e0: 19f2 ecbc aa6d 7cbd fafe a7bc 4f21 4d3d
000000f0: 53ae 11bd bbb5 4a3d 61b7 76bc dac1 3abc
00000100: b066 42bc 1e71 d4bc b216 b0bc 5ec4 74bc
00000110: 2603 82bc 1e61 93bc e7c2 a63d 1a1a 44bc
00000120: 14b9 07bc a474 f0bc 16f3 ea3d ceb7 28bd
00000130: 4b49 b2bc 5cb7 96bb b71f 24bd 7581 c0bc
00000140: b56d f0bc bbe4 07bd 2cd7 6f3c 4523 25bd
00000150: 047b 7dbc eb6b 17bd 4287 24bc 9583 b6bc
00000160: 0f59 7a3d 1750 833d a8ad a03d ba69 06bd
00000170: fd9b 90bc cf32 363e ed16 ebbc eb96 823c
-0.022613307 0.13978346 -0.0128121 -0.032556668 0.11810542 -0.029349096 -0.031967953 -0.028839214
0.13186136 -0.025614792 -0.037395563 -0.002835111 -0.03319756 0.018941468 -0.021927478 -0.02105878
-0.017598014 -0.02244028 0.014084876 -0.0384939 -0.028481284 -0.018885363 -0.016614808 -0.03442922
0.020725464 -0.040295422 0.021912416 -0.031985443 -0.022989405 0.00845014 -0.015763985 -0.025800562
-0.040242705 0.009917671 -0.039891265 0.06435282 0.06732641 -0.010296826 -0.023587799 -0.024531314
0.085807666 -0.01420431 -0.026655113 0.1498904 -0.027280947 -0.047769696 -0.028944021 -0.021458264
-0.022977132 0.062443957 0.2081484 -0.001734354 -0.011438672 -0.011515186 0.03726024 -0.02556612
-0.028924035 -0.06162802 -0.020507324 0.050080594 -0.03556664 0.049489718 -0.015058369 -0.011398757
-0.011865303 -0.025932845 -0.021495197 -0.014939396 -0.015870642 -0.017990645 0.081426434 -0.011969114
-0.008283872 -0.029352494 0.11472146 -0.041190915 -0.021763464 -0.004599495 -0.040069308 -0.02349923
-0.029349187 -0.03317712 0.014638703 -0.04031684 -0.015471224 -0.036968153 -0.010042014 -0.02227954
0.06112009 0.0641176 0.07845622 -0.032815672 -0.017652506 0.1779282 -0.028697455 0.015941104

sequential_7/conv1d_12/BiasAdd/ReadVariableOp f4 [32]
00000000: 97c5 723c b09e 0b3d 4fd5 343d c02a 31bd
00000010: b9d6 203d 5046 b03c 6d2f 733c 0422 243d
00000020: 9b73 233c 731c 74bc 91d1 863d 5ccc 483e
00000030: 3bf6 783d 5899 1d3d 4b59 5b3d 92f8 863d
00000040: d223 0abd 34f0 523d db48 6d3d 4a68 b23c
00000050: 1967 333d 9531 2d3e e66c e13d e09a 6f3c
00000060: 7b2c 283d bcc1 c33c 7eb8 22bc 31a7 96bc
00000070: 4300 0a3d 8369 4d3d e7b6 6d3d ff0a af3c
0.014817617 0.034086883 0.04414874 -0.04325366 0.039267275 0.021517903 0.01484285 0.040071502
0.009976293 -0.014899361 0.0658294 0.19609207 0.0607817 0.038476318 0.053551953 0.0659038
-0.033725567 0.051498607 0.05793081 0.021778245 0.043799493 0.16913445 0.11007099 0.014624327
0.041058045 0.02389609 -0.009931682 -0.01839027 0.033691656 0.050149452 0.058035757 0.021367548

sequential_7/conv1d_10/Conv1D f4 [256, 1, 7, 21]
00000000: 4906 4ebd 195e 7bbc f1f5 e3bc f612 4fbd
00000010: 6f2e abbd 5893 5bbd 5e55 9f3c d98f 4b3d
00000020: 5b2d 6bbd b026 1b3e a418 9ebd 2d64 993c
00000030: 813c 79bc 7aac 3fbd ae1d 41bd 00f8 013e
00000040: 9a6a d0bc a403 58bd b5c2 3f3c 9052 a2bc
00000050: 6bb4 23bb 2520 f33d e81d c23d 5f0b 553d
00000060: 138e a9bc 3aef 3cbd 49c8 5e3b cc45 723d
00000070: c1a5 71bd 6600 fe3c ac91 bf3d 2059 b5bd
00000080: bcc7 9d3d f27e b6bc 4bb9 a6bd 5bfb 0dbd
00000090: f8fa 0abe 300c 6a3d 91b6 8dbc 86a3 a53c
000000a0: 9439 113d 1908 9a3d 9ffa 943d 1d65 a53d
000000b0: 8f35 803c 6983 d2bd 532b 763d dd1e 043d
000000c0: 3a88 c93d 2878 7e3b f2b7 5cbb cd6c a63c
000000d0: 0dfd 06bd f9dc a93d 8e69 4e3c dcdd e6bd
000000e0: 30a7 973b 135a 3c3d 5136 5bbd 7409 cdbc
000000f0: 7b66 68bc df51 fe3d 7ec9 f33d 6dc2 893c
00000100: c293 023d 63ec bdbd ed3d c9bd 1c50 eabd
00000110: d9b0 ebbd f2a8 a7bd 39f0 613c a358 783c
00000120: 3d32 a23d 24f6 fe38 862c 2f3c 7722 8bbb
00000130: 5761 6f3c ac84 23be b0db d2bb 6828 96bd
00000140: 77f0 ae3d c71a 663c 0cc1 84bd 6b2a a3bd
00000150: 93f4 043d 76b1 283c eb21 06bd 1bdc 21bd
00000160: e071 ddbc ef44 003d 8664 ddbc 930f be3c
00000170: 647d 0a3c c462 643d 695b 2abe fd93 c6bc
00000180: a29c 72bd d44a 2dbe f8b4 28be e00e b33d
00000190: 97c7 3bbb fa65 603d eb02 bfba 3ac0 ce3b
000001a0: 5e3d b33c d6aa a73d 0d55 2f3d 6add 063d
000001b0: 9457 51bc 2e21 a83b da88 42bd 4c83 ea3b
000001c0: 8cab 4a3c 5569 d73d ed94 a83d ff1f 06be
000001d0: 7951 c5bc 56ae 8abc d326 04bd 7d7e 0fbe
000001e0: 490f a73d c104 77bd a0d3 ffbb e860 11bb
000001f0: 379f 7d3d d1bd 1cbd 85fd 203c 7c47 013d
00000200: b62d 0abe 2a5f f1bd e677 06be 138e eabd
00000210: c588 17bd 6d35 833d 9639 c7bb abc2 b23d
00000220: 7441 acbd 92d7 f9bb 91d3 8a3d 57c2 253c
00000230: ead6 16be 8502 88bc 7e4f fabd 23e2 88bb
00000240: ca59 fdbb 0a9a 88bd cf78 b5bd 5c13 16bc
00000250: 85c5 f0bb c6a7 aa3d 1a13 6c3d 0277 873c
00000260: b0d4 94bc 8fc4 2b3c 3cab 9a3d b200 8b3d
00000270: bd1a 663d da1c 153d 1360 a1bc 7429 983d
00000280: 0bca 953e 5251 bf39 7932 b8bd 770f 883d
00000290: e760 093c 2a3a 603d a945 553d 5109 a53c
000002a0: 89a3 16bd 4ab3 6d3b 6d28 9039 97bb 963c
000002b0: 43dc c73d f709 b03d 2ff3 b3bc 4f00 86bd
000002c0: 2f86 ffbc fb60 92bc c15c c5bc 4e3e aabc
000002d0: bc7b babd 0e51 97bc fb81 013e 78b1 adbd
000002e0: 8e9e 9bbd 4e94 69bd 25e1 a6bd 87c1 9f3d
000002f0: 065d 58bc 9aa9 57bd a608 9a3c 7f1b 833c
00000300: ff46 073d 86dd aebc 634a 1fbd e15b d3bc
00000310: 758e bbbc bf61 63bc 7f71 06be 92e4 333d
00000320: 973e 14bc daa2 8a3d 9a3c 643e 3205 643c
00000330: 7d2a c9bd be97 913c 3947 833d a3d4 4f3d
00000340: 7532 51bd 4023 d23c a6ed a2bd 7370 a73a
00000350: 5a6d a93d 0330 4c3d c511 9c3d 9fae e13c
00000360: 7f8c fc3d 6645 5abd 0dc8 ae3d f7cd 003e
00000370: c5a5 303d dd03 223d b55c 403d f56f 213e
00000380: 9e6e ad3b d326 fd3d cdac b83d d20c 893c
00000390: 5807 d2ba c333 9f3d 56f6 a33d 9e47 823d
000003a0: 7765 bbbc 430e 75bc 851d 8cbb 1040 bf3d
000003b0: d99e 6c3d b4ce 993d 59eb 0dbe 4385 3ebc
000003c0: 260e 75bc 3fff fdbd 2fa6 273b 3f6e adbd
000003d0: d7cd 29be 0748 3a3e 102e cc3c 72ba 27bd
000003e0: 85ce 32be 6e81 35be 5a39 eb3b f002 463d
000003f0: 7705 b1bc fea0 03bd 6684 ff3d c357 163e
-0.050298963 -0.015342259 -0.027827235 -0.050555192 -0.08358466 -0.053607315 0.019449886 0.04969773
-0.0574163 0.15151477 -0.077195436 0.018724525 -0.015212179 -0.046795346 -0.047147445 0.1269226
-0.025441457 -0.052737847 0.011704137 -0.01981476 -0.0024979364 0.118713655 0.094783604 0.052012797
-0.02069763 -0.04612658 0.003399389 0.059148595 -0.058995966 0.03100605 0.093539566 -0.0885489
0.07704112 -0.02227733 -0.081408106 -0.03466354 -0.135723 0.05714053 -0.017298969 0.020219576
0.0354553 0.07521076 0.07274365 0.080759265 0.015650539 -0.10278971 0.06009991 0.032255996
0.09840436 0.0038828943 -0.0033678976 0.020315552 -0.03295617 0.082941 0.012598408 -0.11272785
0.0046280846 0.04598434 -0.053518597 -0.025028922 -0.0141845895 0.124179594 0.11903666 0.016816342
0.031879194 -0.09273603 -0.098262645 -0.11441061 -0.115083404 -0.08186521 0.013790184 0.015157851
0.079197384 0.00012157511 0.010691768 -0.004246052 0.01461061 -0.15968579 -0.00643488 -0.07331926
0.08541959 0.01404447 -0.06482133 -0.07967075 0.032459807 0.010296216 -0.03274719 -0.03951655
-0.027031839 0.03131574 -0.027025472 0.023200786 0.008452747 0.055758253 -0.16636433 -0.024240488
-0.059231408 -0.16923076 -0.16475284 0.087430716 -0.00286529 0.054784752 -0.0014573013 0.0063095363
0.021879848 0.08186881 0.04280572 0.032926 -0.012777228 0.0051309085 -0.047493793 0.007156765
0.0123700015 0.10518137 0.0823153 -0.13098143 -0.0240867 -0.016928833 -0.03226359 -0.14013095
0.08157212 -0.060307268 -0.00780721 -0.0022183005 0.061919417 -0.03826696 0.009826069 0.031562313
-0.13494 -0.11785729 -0.13131675 -0.1145288 -0.036995668 0.064066745 -0.006079863 0.08728536
-0.08410922 -0.007624575 0.06778634 0.010117135 -0.1473042 -0.016602764 -0.12222193 -0.004177348
-0.007731651 -0.066700056 -0.08860933 -0.009159889 -0.007347765 0.083327815 0.057635404 0.01653624
-0.018167824 0.010483875 0.075521916 0.06787242 0.056177843 0.036404468 -0.019699132 0.074297816
0.2925571 0.00036490947 -0.08994002 0.06643575 0.00838492 0.05474297 0.052068386 0.020146044
-0.036777053 0.0036270195 0.0002749594 0.018399997 0.097588085 0.08595651 -0.021966545 -0.065430276
-0.031191913 -0.01786851 -0.02409208 -0.020781662 -0.09105632 -0.018471267 0.1264724 -0.08481115
-0.07598601 -0.0570262 -0.08148412 0.07800584 -0.013205772 -0.05265198 0.018802952 0.016004322
0.03302669 -0.021345865 -0.0388893 -0.025800647 -0.022895077 -0.013878285 -0.13129233 0.043919154
-0.009048126 0.06769343 0.22288743 0.013917254 -0.09822557 0.017772552 0.06410069 0.050739896
-0.05107351 0.025651574 -0.07955484 0.0012774601 0.0827281 0.049850475 0.07620577 0.027549086
0.12331485 -0.05328884 0.085342504 0.1257857 0.04312684 0.039554466 0.046963412 0.15765364
0.0052927276 0.12360921 0.09017334 0.016729746 -0.0016023917 0.07773545 0.08005969 0.06361316
-0.02287553 -0.014957014 -0.00427598 0.09338391 0.057768676 0.075101286 -0.1385931 -0.011628452
-0.0149569865 -0.124022 0.002558123 -0.084682934 -0.16582428 0.18191539 0.024924308 -0.040949292
-0.17461593 -0.17725155 0.0071784677 0.048342645 -0.021609051 -0.032135956 0.12476425 0.14681916

sequential_7/conv1d_11/Conv1D f4 [96, 1, 7, 256]
00000000: 4ddc babc 7d42 febc 8819 153d 244f fc3b
00000010: 74bb a4bc ec75 9bbd 7236 de3c b825 4f3c
00000020: e3e7 e6bc 8210 bbbc 0993 07bd bb17 043d
00000030: 5634 3c3c 9b55 a43b f25f 37bd b2fb debc
00000040: 4f28 923c 1f14 cdba a237 f6bc 3954 f3bb
00000050: d01b 0ebd e646 2e3d 3a8e f5bc e6eb f3bb
00000060: ba2c 6bbc a4e2 3bbd c876 ef3c 5f0b 29bd
00000070: b743 b4bc fe3f 4ebd 8f05 093d 7efc 50bd
00000080: 9238 bb3c 608d babb 514a 113d 1074 283c
00000090: 8212 bb3c ae9b 11bc dcea 05bd c24e 8bbc
000000a0: 6729 13bc 371e 06bd 2d63 4cbd 19e9 b0bc
000000b0: 7881 4ebd b871 23bd 1f99 26bd 344a 08bd
000000c0: 3ab4 20bc 8ea6 e0bc 6729 cfbc 0602 c63b
000000d0: 8f05 a03b 2114 0dbd 405e 3ebd 04bf 04ba
000000e0: 218c 3ebd ec49 cb3c d7b3 c4bc f55f 4cbd
000000f0: 06a5 42bd 5bcc 51bd 9e87 90bd db39 283d
00000100: d29d 3bbd 330a 86bc eb58 2bbd 1e3d 5fbd
00000110: 3185 b83c 5881 3c3a 76ae 39bd de63 3abd
00000120: 8051 c7bc b226 96bd 2b6d 80bc 476e af3b
00000130: e13c 0fbd c856 01bd 8121 44bd b6e2 223c
00000140: 9c46 a4bc 0e5d 223c aac4 92bc c6e7 f6bc
00000150: 7289 dfbc fcd4 16bc a773 083d f618 4cbd
00000160: 3a56 7abc e3a6 e7bc 73de d63c 70f9 4b3c
00000170: 8a6d 52bd ec46 56bb 34eb 32bd 9a8c 473c
00000180: 62b1 1fbc 3e63 6fbc 785f fcbc 10de e8ba
00000190: 7d92 eb3c 4413 2fbc 1963 d93c 0151 113d
000001a0: 3235 dcbb 1615 2abd a251 4dbd cbe1 57bc
000001b0: 2aac febb e39a 89bc 257c 3ebd 87d3 9c3c
000001c0: f519 adbc 553f 60bd 1e52 dcbc 5613 c73c
000001d0: 4ab1 e6bc 0d64 033a 1464 42bd fa58 b0bc
000001e0: ca2a 00bc 3d2f 003d 2ff5 a1bb a6bf f3bc
000001f0: 2f41 073d 89ab cc3b d681 793c 65c2 193d
00000200: 65c7 74bc a64b 3b3c 03ce 4c3c 5ad5 bb3c
00000210: efbd 3f3a 05e4 8c3b 440a 0bbd 3b49 6abd
00000220: b209 3ebc 0460 ad3c d066 ba3b 5072 8dbb
00000230: de3f 1dbc 06db 27bd 23b0 37bd 68ac 103d
00000240: 3ca0 50bd 3e72 a7bc 1ea5 0bbd b437 2cbd
00000250: ccbb cc3c 93ee 253d af43 02bc e983 36bd
00000260: c559 b63c b864 e23b 3014 e53c 6710 34bd
00000270: 81b4 213d 5cf5 b03c 3a2a e9bc 3d89 41bd
00000280: 89fd 0dbd 0793 14bd 8bd2 0a3d fd64 aeb9
00000290: a5cb 83bc ea88 2ebd 55da dc3b 0087 4abd
000002a0: e2c1 eebc 5c79 0ebd dc96 cc3c cd0b 09bb
000002b0: 2363 8cbc 016d 26bb c772 b73c 1b8b 09bd
000002c0: da6e 4b3c 2e6b 3b3b 41c7 e33b f404 34bb
000002d0: c955 41bb 1390 89bc a56d e63c f1f9 36bc
000002e0: bbe4 533c a3e3 54bd 4089 50bd 64b0 5bbd
000002f0: 68c6 12bb d7cb 0ebc cc0f 37bd 1d10 8ebc
00000300: 36c4 03bd ce7d 74bd e959 16bd 225c 39bc
00000310: 068c 0b3d 5db5 28bd 8b64 3bbd 63a0 90bc
00000320: e34c 34bb b64e 063d b59a 31bb dc51 53bd
00000330: 3a67 36bd 1481 183d 37fd 7cbc f405 233d
00000340: ada7 49bd 5c05 153a 1c0f 043d f74f 1fbd
00000350: dc49 b3bc 107a 0b3c f924 013a 2004 43bd
00000360: 3044 d73c a299 98bc 3b80 e7bc f667 1c3d
00000370: 829b b0bc 8d98 54bc 999a 55bd 0256 a3bd
00000380: ec2c 42bd 653b 08bd b205 53bc 2871 27bd
00000390: 388c 80bc 460c 67bd f295 bfbc a27b 283d
000003a0: dfcc 40bd 7b1d 2f3d 6124 b0bc 6f09 b9bc
000003b0: 70fb bd3c a65f 17bd 4db5 e53c 59b5 11bd
000003c0: f9e3 0bbd c112 b3bc b3fa 583d 2ae2 843c
000003d0: ce0c 51bd 4c3b 2abd 997e 9abc c97f abbc
000003e0: ad92 55bd f2ea b23c 1aa2 71bd de9f c0bb
000003f0: f7da b8bc e57a 07bb 51a9 043c 3397 ce3c
-0.022810126 -0.031037563 0.0364013 0.007699864 -0.020108916 -0.07590851 0.02712557 0.01264327
-0.028186744 -0.02283502 -0.033099208 0.032249194 0.011487087 0.005015088 -0.044769235 -0.027219627
0.017841486 -0.0015646255 -0.030055825 -0.0074258116 -0.034694493 0.042548083 -0.029975045 -0.007443893
-0.014353925 -0.04587044 0.029231444 -0.04127061 -0.022004945 -0.050353996 0.033452567 -0.051022045
0.022854123 -0.0056931227 0.035471264 0.010281578 0.022835974 -0.008887215 -0.032694682 -0.017005328
-0.008982039 -0.03274366 -0.04989927 -0.021595525 -0.05041644 -0.039903373 -0.04067337 -0.03327389
-0.009808594 -0.02742317 -0.025288297 0.0060427217 0.004883475 -0.034443025 -0.046476603 -0.0005063864
-0.046520356 0.024815522 -0.024011536 -0.0498962 -0.04752066 -0.05122028 -0.07057117 0.0410708
-0.045804806 -0.016362285 -0.041832846 -0.054501645 0.022524448 0.00071909046 -0.045332395 -0.045505397
-0.024330854 -0.07331599 -0.015677055 0.0053537223 -0.034970168 -0.0315769 -0.047883514 0.009941747
-0.0200532 0.009909881 -0.017916042 -0.030139815 -0.027287219 -0.009206053 0.03331342 -0.049828492
-0.015279347 -0.02827782 0.026229119 0.012449607 -0.051373996 -0.0032696081 -0.04368134 0.012179518
-0.009746881 -0.0146110635 -0.030807242 -0.0017766375 0.028756374 -0.010685746 0.026536511 0.035477642
-0.0067202086 -0.041524015 -0.05012668 -0.013176392 -0.0077719884 -0.016797489 -0.046505112 0.019143833
-0.021130541 -0.054747898 -0.026894625 0.024301212 -0.02816071 0.0005012162 -0.047458723 -0.021526802
-0.007822702 0.03129505 -0.0049425582 -0.029754471 0.03302115 0.0062460345 0.015228709 0.037538905
-0.0149401175 0.01143161 0.012500289 0.022928882 0.0007314374 0.004299643 -0.033945337 -0.057198744
-0.011598991 0.021163948 0.0056885257 -0.0043166056 -0.009597747 -0.04098036 -0.04484571 0.03532067
-0.05093406 -0.020440217 -0.034093015 -0.04204531 0.024991892 0.040510725 -0.007950707 -0.044559393
0.022259602 0.0069089793 0.027963728 -0.043960955 0.039478783 0.021601371 -0.028462518 -0.04725002
-0.034665618 -0.03627303 0.033892196 -0.00033263108 -0.016088316 -0.04261104 0.0067398944 -0.049445152
-0.029145185 -0.034783706 0.02497428 -0.0020911575 -0.017137116 -0.0025394561 0.022393597 -0.033579927
0.012416566 0.002859782 0.006951243 -0.0027468773 -0.0029500595 -0.016792333 0.028128454 -0.011167989
0.012932952 -0.051974904 -0.05091214 -0.053635016 -0.0022396091 -0.008715591 -0.0446928 -0.017341668
-0.032169543 -0.05969029 -0.03670684 -0.01131347 0.034069084 -0.041188587 -0.045750182 -0.017654603
-0.0027511648 0.03278991 -0.002710027 -0.05159174 -0.04453204 0.037232473 -0.0154412305 0.0398006
-0.049232174 0.00056846975 0.032240972 -0.03889462 -0.021885805 0.008512989 0.0004926469 -0.047611356
0.026277632 -0.018627945 -0.028259387 0.038185082 -0.021558527 -0.012975824 -0.05214939 -0.07975389
-0.047406122 -0.033259768 -0.012879776 -0.0408794 -0.015691862 -0.05640819 -0.02338693 0.04113353
-0.04707038 0.042752724 -0.021501722 -0.022587506 0.023191184 -0.03695645 0.028040553 -0.035573337
-0.03415296 -0.021859528 0.05297346 0.016221125 -0.051037602 -0.041560456 -0.018859195 -0.020934956
-0.052141834 0.021840546 -0.058992483 -0.0058784327 -0.022565348 -0.0020672616 0.008097009 0.025218582

sequential_7/conv1d_12/Conv1D f4 [32, 1, 7, 96]
00000000: 125c 80bc 0362 8cbc b47f 813d 72bd 943c
00000010: 3122 07be a010 293e d2bf 36bc d91f 8bbd
00000020: e7e6 ecbc 6391 363d 721b 043c dbe1 0fbd
00000030: 6724 613d a8ec 0abf d277 89bc 8b6f 183d
00000040: b9e1 c13d 76d7 923d d155 26bf efdf a63d
00000050: d431 f0bc d5bd 863d f4ed bcbd a040 1fbb
00000060: 3f0c 883e 9385 cf3c 4d34 f23e 8640 c53d
00000070: 6e6b ffbd f0dd ce3d 1a6b 22bc a947 5bbd
00000080: 4ecc 893e 76dd ea3b 46b1 be3b 136b dc3e
00000090: c2cc 113f 7bdc 823d 4cc9 053d 2eb3 953c
000000a0: fcb9 b8be 7a40 13be 5914 af3d 46fb 80be
000000b0: 58bb b13d 0c0e c1be 1528 93bb 5ff1 7e3c
000000c0: 4198 be3c 9580 373f f7af 9a3e 6bc1 04bd
000000d0: ea4f 1abc 08bc 36be 1177 02bf a92d 8f3d
000000e0: 2631 153d d531 0bbf ea0c 753c a848 2abe
000000f0: b62f dcbc 9234 ad3e 2eb4 c93d 1e89 20be
00000100: 06fb 123e ff0a c73d 662c e63d de30 b5bd
00000110: d63c 3cbd 9198 86bd aa77 4ebe 7b4a a8bb
00000120: 2366 523d 381f 55bc 05e1 593f ee73 433d
00000130: d68f ed3b a91f a8be 6ce1 0f3d adf0 42bd
00000140: f0b0 0f3d 0bcc 51bd 2c07 d13e 685b 7abd
00000150: 0ab0 d3bd e3a0 183d d767 30bd 405f df3d
00000160: 6a90 c13e 80f7 be3d c375 823d 0d32 31bd
00000170: feb8 c53b f20f 9bbd 350c 633d af64 413f
00000180: df74 853d b36e 67be 068b a23d 3c34 8339
00000190: c6ce 2bbe 8ce9 083e bd65 7dbd 18d6 11ba
000001a0: 6879 b2bd 08c0 cc3c 5da1 2e3d b55d 91bd
000001b0: 1131 693c 01bc c4be 530c ee3c 7925 d4bd
000001c0: 02ed 0fbd 20b4 113d 6263 08bf 8ab4 003e
000001d0: 78f5 4b3d 339d 813d faa9 d5bd ba25 333d
000001e0: fc1b 703e 0cd7 e13d b1df ca3e c655 61bd
000001f0: 2dfe 46bd fc6f 943d 55f2 013c 508d 4e3c
00000200: 0d2d fd3d 5b21 1cbe b199 953b b241 e23e
00000210: b180 b93e 6cfb 383b 5810 263c 5bc6 44bd
00000220: f8cd 96be 7f62 a9bb 913b 443d a66b 87be
00000230: 03e7 39ba 5546 05be 3d7f 133d 20b0 8d3d
00000240: 018e ae3d abbc 1a3f b1c0 813e 3bd2 9dbd
00000250: eedc 3cbc 2a76 3dbe 0710 b1be 7c73 453d
00000260: 89af 10bd bb04 c2be b2ce 463d e290 02be
00000270: 47dc 9fbc 458a 913e 5ed9 3bbd ec97 1ebe
00000280: 262d d23d 4370 d23d f73c dc3d f027 543d
00000290: 6833 c93d 09a3 38bd dfc8 d1bd c81e 363d
000002a0: 2172 843d 334c 793d 9cb6 513f 1ed1 b43c
000002b0: 5c24 d03d 7b69 89be 127a cbbc e315 00bb
000002c0: 3cf0 ae3b e2e0 41bd 5c34 9c3e 38d5 47bd
000002d0: ed44 bdbd e57d 133d 5838 923d ff8b d83b
000002e0: 5df5 9c3e 6272 0cbb 2ed9 023e dea5 b23d
000002f0: 3cb3 aebc 25b9 03be 04da 58bd 997b 153f
00000300: 0bd2 06bc ccba 8cbd 267f c73d 178b 4d3d
00000310: 417e f4bd 0fde f13a 2003 dabc 140c 1cbd
00000320: 5d4c 103d 6010 173d 27ed da3c 5079 5ebb
00000330: 7884 dd3c 4207 fdbe 4838 a53c c683 c73a
00000340: 9ef2 11bc 3469 ab3d 9088 08bf 3c34 543d
00000350: b98c 1e3d 39ad fcbb 9bd2 5c3b 8865 5fbd
00000360: b868 fe3d 1def e03d 2745 d63e dfbc 963d
00000370: e2a8 bfbd 326d 0b3a c363 743b b0a2 1a3d
00000380: 8051 0f3d c8db b0bd 873a 60bd 1053 c43e
00000390: 694b 8f3e 8434 463d 920d 43bc f4c7 edbc
000003a0: d124 84be 2831 2fbc d972 ae3d a8b8 95be
000003b0: a893 f9bc c08c cfbd 960e e7bd f41e 0c3e
000003c0: 48f9 03bc 6952 e83e cf2f ac3e 6f90 74bd
000003d0: 10dd a7bd 1883 19be 3b93 05bf 5ef6 c53a
000003e0: 82f1 ac3b f055 04bf 1600 db3d d327 6abe
000003f0: 3ab9 ecbc 623a ba3e fc7f 463d d041 e5bc
-0.015668903 -0.01713658 0.063231856 0.01815674 -0.13196637 0.16510248 -0.011154132 -0.06793184
-0.028918697 0.044572245 0.008063184 -0.035127502 0.054966357 -0.5426736 -0.016780768 0.03721575
0.09466881 0.07170002 -0.64974695 0.08148181 -0.029320635 0.06579176 -0.092250735 -0.0024299994
0.26571843 0.025332248 0.47305527 0.096314475 -0.124716625 0.10100925 -0.00991323 -0.053535137
0.26913685 0.0071675135 0.0058194725 0.4305044 0.5695306 0.063897096 0.032662675 0.018273916
-0.36079395 -0.14380065 0.08548803 -0.25191706 0.08678311 -0.3770603 -0.004490862 0.015560477
0.02326596 0.71680576 0.30212376 -0.03241102 -0.009418467 -0.17845166 -0.5096293 0.06991131
0.036423825 -0.5437291 0.014956692 -0.16629279 -0.02687822 0.3382917 0.0984882 -0.15677306
0.1435357 0.09718894 0.11238937 -0.08847211 -0.045956455 -0.065720685 -0.20162836 -0.005135832
0.051366936 -0.013007931 0.8510898 0.04771798 0.0072498126 -0.32836655 0.03512709 -0.047592808
0.03508085 -0.05121998 0.40825784 -0.061122328 -0.10336311 0.03726281 -0.04306778 0.10906839
0.37805492 0.09324551 0.063701175 -0.043260623 0.0060340157 -0.07571401 0.055431563 0.75544256
0.06516432 -0.22600822 0.07936673 0.00025025185 -0.16778097 0.13370341 -0.061864603 -0.00055632135
-0.08714563 0.024993911 0.042634357 -0.07097951 0.01423289 -0.38424686 0.029058611 -0.1035871
-0.035138138 0.03557217 -0.53276646 0.1256887 0.049794644 0.063288115 -0.10432811 0.04373715
0.23448175 0.11027345 0.39623788 -0.05501344 -0.048582245 0.07247922 0.007931312 0.012606934
0.123621084 -0.15247099 0.0045654406 0.44190747 0.36230996 0.002822603 0.010135733 -0.04804073
-0.29454017 -0.0051692124 0.04790837 -0.26449317 -0.00070916134 -0.13015111 0.036010016 0.06918359
0.08523179 0.60444134 0.25342324 -0.07706114 -0.011527283 -0.18502107 -0.3458254 0.048205838
-0.035323653 -0.37894234 0.048536964 -0.12750581 -0.019514216 0.28425804 -0.045861594 -0.15487641
0.10262518 0.102753185 0.107538156 0.0517959 0.09824258 -0.045077357 -0.10243391 0.04446295
0.06467081 0.060863685 0.81919265 0.022072371 0.10163185 -0.26838288 -0.024838481 -0.0019544296
0.0053386968 -0.047333606 0.30508697 -0.048787326 -0.09241662 0.036008734 0.07139653 0.0066084857
0.30655947 -0.0021430482 0.1277816 0.08723043 -0.0213257 -0.12863596 -0.05294229 0.5839172
-0.008228789 -0.06871566 0.097410485 0.050181475 -0.119381435 0.001845302 -0.026612818 -0.038097456
0.035229076 0.03688085 0.026724411 -0.003394682 0.027040705 -0.494196 0.020168439 0.0015221767
-0.008907942 0.08369675 -0.5333338 0.051807627 0.038708422 -0.0077110794 0.0033694867 -0.054540187
0.12422317 0.10983107 0.41849634 0.07360243 -0.09358384 0.00053187006 0.0037290908 0.037752807
0.034989834 -0.0863567 -0.054743316 0.38344622 0.2798722 0.048389927 -0.011905091 -0.02902601
-0.2580934 -0.010692872 0.08517999 -0.29242444 -0.030465916 -0.10134268 -0.11282079 0.13683683
-0.008055039 0.45375374 0.33630225 -0.059708055 -0.08196461 -0.14991415 -0.5217778 0.001510333
0.0052778134 -0.5169363 0.10693376 -0.22866754 -0.028896917 0.36372668 0.0484619 -0.027985483

sequential_7/dense_20/BiasAdd/ReadVariableOp f4 [128]
00000000: 7711 873d 95dc 823d b66a 683d 2aa0 c3bb
00000010: 17da 853d 322b 7e3d d4ad 1dbd 51ec 843d
00000020: 2309 6c3e 9608 783d ddec 853d e229 e3bb
00000030: 036e c2bc b477 fe3d ffbb 143e 3314 e3bd
00000040: 1e3e 883d 9ca3 03bc 0000 0000 d79c 823d
00000050: 2bdb 75bd 801c 40bd e174 0dbd 0000 0000
00000060: 9f63 353d 0cca 7b3d 6a9c c33c bc30 af3e
00000070: d06b 7b3d e3bd 773d 3e1e 14bd 0730 7d3d
00000080: acc9 7cbc e2ec fd3d 9bc8 adbd c31d 763d
00000090: 0a06 16bc ad2e 7ebc 77a2 cc3d 1154 87bd
000000a0: f16a 9abd 756a 67bc ce26 8a3d fafb 36bd
000000b0: 0c75 cfbd 9dee 60bc dcc3 f1bd 666f 5fbc
000000c0: 6b7d 3cbd 46d1 833d 23ce 853d d2c4 843d
000000d0: 034b 103e 4442 163e ab0f 08bd 8040 54bd
000000e0: 0936 213e 5fe6 5cbd efd6 443e ee75 4bbc
000000f0: b167 e8bb aba3 783d 788d 59bd 4f25 e93d
00000100: 2249 08be 00c9 703d 58b1 93bd 13e9 33bd
00000110: 1719 96bc 90d5 5e3d 64cf fe3d 7fe4 853d
00000120: 61dd bd3c f823 8cbc 2e7c 4f3d 489a 7f3d
00000130: 474f 803d 8c5b 2fbd 1c12 6abc 6f5e d1bd
00000140: 8fb0 ed3d b6c9 1cbd bf52 6fbc 3fac 2abc
00000150: 42d2 cebc fd56 8cbc 6072 7b3d f911 39bc
00000160: 5115 23bc a93f b1bd 0072 c5bd d27f 0bbd
00000170: 900c 6e3d 5852 d4bb a75d 7c3d b281 23bd
00000180: 83c6 bcbc 7623 8f3d be2c 233e 45c4 533d
00000190: 461b 713d b663 d53d 26c2 623d 71df 2b3b
000001a0: b212 60bd 04ef bfbc 5d1c b43e 8e29 253c
000001b0: 5940 9b3d f1e2 793d 3dfe a63d 5f77 5a3b
000001c0: 1013 c73d a42b 833d c6c2 883d 890c 12bd
000001d0: 8e38 b2bd 6167 4abc e76b d9bc 1b4c 653d
000001e0: cc36 7f3d 5f01 6e3c eafa 153d f39e 93bc
000001f0: 1cd2 c1bc a6ec 873d 0860 e9bb 884e 823d
0.06595128 0.06389729 0.056742392 -0.005970021 0.06535738 0.062052913 -0.038495854 0.06490386
0.2305036 0.060555063 0.06539319 -0.006932483 -0.023734098 0.12425175 0.1452484 -0.11087837
0.06652473 -0.008034613 0.0 0.06377571 -0.060023468 -0.04690218 -0.034535293 0.0
0.04428446 0.061471984 0.023878295 0.3421687 0.061382115 0.060483824 -0.036161654 0.06181338
-0.015428942 0.123986974 -0.08485528 0.060086977 -0.009156713 -0.015514058 0.09991925 -0.06607831
-0.07539929 -0.014124502 0.06745683 -0.044673897 -0.10129747 -0.013728765 -0.11804935 -0.013637399
-0.046018045 0.064364 0.06533458 0.06482853 0.14091115 0.14673716 -0.033218067 -0.051819324
0.15743269 -0.053930636 0.19222616 -0.012418253 -0.007092439 0.06070296 -0.05311343 0.11384069
-0.13309148 0.05878544 -0.0721156 -0.04392345 -0.01832251 0.054402888 0.124419 0.06537723
0.02317685 -0.017106995 0.050655536 0.062402993 0.06265121 -0.042811915 -0.014286544 -0.1022309
0.116059415 -0.038278304 -0.014607131 -0.010417043 -0.025246743 -0.017131323 0.061388373 -0.011295789
-0.009953813 -0.0865472 -0.096408844 -0.034057446 0.05811745 -0.0064795427 0.06161275 -0.03991861
-0.023043877 0.069891855 0.15935037 0.05170085 0.0588639 0.10419409 0.055360936 0.002622571
-0.05470533 -0.023429401 0.3517789 0.010080708 0.07580633 0.061007444 0.08153961 0.003333531
0.09720433 0.06404808 0.06677775 -0.035656486 -0.08702193 -0.012353749 -0.02654071 0.055980783
0.062308118 0.014526694 0.036616243 -0.018020129 -0.023659758 0.06636934 -0.0071220435 0.06362635

sequential_7/dense_19/BiasAdd/ReadVariableOp f4 [64]
00000000: db68 833d f499 92bc 8fdd c63b c0be 57bc
00000010: 1e09 9c3e ea64 9abd 41ca 23bd 0860 7a3d
00000020: 90f6 eabc c812 3a3c ca6b 6fbd 0d16 f2b9
00000030: a642 443d e876 a53d 8030 493c 063a 393d
00000040: 56bf 723d b5bf 08be 3757 0fbe 50e2 283d
00000050: b60e 773d 3fe8 d43c 95be 443d f10d 92bc
00000060: ab8f 113d 844f bf3d 252e 3e3d 8370 4e3d
00000070: 7ea2 04be 70db ba3c 69d5 07be f594 bcbd
00000080: 78e6 8f3d 4074 203c 12fe 0ebd 85c2 a83d
00000090: 3f2c 3b3d b113 2a3d b10a 3b3d b67b f43c
000000a0: 572f e43b bd17 25be 5dda 473d f5d5 273e
000000b0: 3995 babd d88a fe3d 3baa 2b3d 8cb0 453d
000000c0: e3d5 c83c 684b 7b3d 7dfc 0a3e dc24 833d
000000d0: aa07 f8bc 2216 c9bd 7b17 813e 13b0 703d
000000e0: 7d2e 85bd bc9d a33c 355a d0bd 1757 793d
000000f0: 4cd7 82bc af6c 273d a1bc 813e 2544 8abb
0.06416484 -0.017895676 0.0060688923 -0.013168037 0.30475706 -0.07538779 -0.039987806 0.06112674
-0.028682023 0.011357017 -0.058452405 -0.00046174266 0.047915123 0.0807932 0.01227963 0.04522135
0.059264503 -0.1335438 -0.13998114 0.041231453 0.060316764 0.02598965 0.048033316 -0.017828913
0.035537403 0.09341338 0.046430726 0.05040027 -0.12952611 0.022809714 -0.13265003 -0.09208099
0.0702638 0.009793341 -0.03491027 0.08240227 0.045696493 0.041522685 0.045664493 0.029844146
0.006963651 -0.16122337 0.04879223 0.16390212 -0.09110493 0.12428826 0.04191039 0.04826407
0.024516052 0.06135121 0.13572879 0.06403515 -0.030277092 -0.098186746 0.25213227 0.058761667
-0.065030076 0.019972675 -0.101734556 0.06087407 -0.015971802 0.040875133 0.25339225 -0.0042195492

sequential_7/dense_19/MatMul f4 [64, 32]
00000000: 3712 fbbd 733f b3bd 8173 ccbd 5dff 533e
00000010: b775 0fbe 2a00 5d3d b12d 71be 559a 0cbd
00000020: 8792 acbe 8cac 6a3e 6bd7 8bbe c6cf a3be
00000030: 1545 6fbe a121 11bd 6127 12be 65ae aebd
00000040: 63c7 98bd 42ea a0bd 99b8 be3d ce22 5cbe
00000050: ca40 8a3d 7def 78be 1f96 1c3e 3f22 79be
00000060: 8393 3fbe 1fef 823d 4c35 0e3e a8af 15be
00000070: 0ab0 5f3e 7a66 9abc cc4d e0bd 4784 30be
00000080: 77e5 59be 4489 f13d 8b9f 40be 4673 14bd
00000090: 5b64 45be 5f3d 953c 580c 3bbe 876c 34be
000000a0: b359 0b3b afb5 283e c246 fd3d 15d3 333d
000000b0: fd29 5f3e 310a 543d 19c2 0cbe 9bc4 283e
000000c0: 461e fc3b 58d9 c83d 37d7 6ebe a6e7 293e
000000d0: d359 753d 807b 63be b710 d6bd a0ab 5ebe
000000e0: 311e 65be 7841 953d 7c96 843d ae1b 3a3d
000000f0: 3aeb 323e f332 43be 9e4c 4bbe b1cd 45be
00000100: 006f 4ebe ba02 1dbe 7486 403d e0b6 063e
00000110: 377f 0fbe 4caa 19be beb7 10be 8937 813e
00000120: 8153 6a3e 5c33 153e c03a 14be bdbe 81bc
00000130: 0483 cabd 4101 16bd ed29 40be c1e0 5abd
00000140: a68f 603e 80e7 29bd 5239 9a3d ad9a 373e
00000150: bc5a 80bc 4582 febc eb3b e1bd c317 6fbe
00000160: ac52 de3d dee3 41bd 39c4 f23d 4595 90bd
00000170: 4f14 a7bd a225 0f3e 2175 00be aa64 2abe
00000180: e201 45be 5c0a bd3d 344c ab3d 8f9c 08be
00000190: b4ea 15bd f589 42be 045c 17be d363 7bbe
000001a0: 09ca b6bd 3006 2abe c119 ec3b 291c 72be
000001b0: c869 38bb 937b 973a 7abd 48be 69ba 413e
000001c0: 301b 00be 8712 2a3c 2666 323e fe45 8d3c
000001d0: bdec 92bd 35a6 093e bde4 c7bc 26c7 443d
000001e0: fc7c b7bd 094a 43bd 27b0 333e fef4 16bd
000001f0: 8b0e 0fbe 4848 41be 5acc 4dbe 9fb7 51be
00000200: fa82 cc3e bd34 0bbd a81c 89be 9034 fe3e
00000210: 2bb1 0d3e db8c 18be 18d6 4d3f 58b1 42be
00000220: c0cd fbbb 7de4 1abe bfee 933e 6cbb 1dbe
00000230: 351b d03d d86f d4bd 0736 41be ca58 8fbe
00000240: 74d8 023f f2f5 19be a9d6 89be 338e 2bbe
00000250: 2a52 753e 9f0b d13d d9f6 5c3d 3129 c73e
00000260: b6ca 7c3e 6e4d 233c 4057 a8bc 8a44 e03e
00000270: f4d4 63bd 5bac 9abd 8e04 b23c b1fa bf3e
00000280: d447 03be 58fe 953c 35e0 44be a170 fe3d
00000290: 33c3 08be b34c 073e 8868 28be f81f b63d
000002a0: e83e ce3d 40aa 043d 37e9 b13d fdbb ecbd
000002b0: dc6c 97be afb5 f8bd a834 c83d 703c aabd
000002c0: 7c97 46be 0049 4bbb 40b3 293e 5e45 41be
000002d0: 3d72 4abe 1b4a ec3d f625 253c 7cf3 65be
000002e0: 411e babd 89e8 cbbd 5420 5e3e 749b 673e
000002f0: fa42 443e c177 95be 0533 8ebe f386 3cbe
00000300: ebc7 ad3e 30c7 3abd 5093 0cbd 3269 59bf
00000310: aae4 80be b657 51be a832 b5be f8f5 213d
00000320: 3229 d63e 3769 2d3e 5b57 6dbe 00be 363c
00000330: 485a 193e 5b95 86bd 19c2 2cbe cb54 0e3e
00000340: 033d 09bf 4820 b83d cb18 2abd 6b52 c13b
00000350: d17a 523b 58f9 b0be 1524 793e 7480 edbe
00000360: 48a1 0a3e 8512 58be bf13 37be cbdc fabd
00000370: 58cc 2dbe 1901 68be 4477 bf3d 98c2 96be
00000380: a912 823d adb7 1d3e fd1d 49bd 32fa 9b3e
00000390: 4177 ffbc 44f6 143e 4436 803d 989f 1abe
000003a0: 2ca4 8bbc 7595 013e 7ccc 793e c001 89be
000003b0: 94ad 2ebe 82fb 86bd 6a12 073e 3cba a1bc
000003c0: 9782 cf3d ef13 b9bd f6db 9a3e 48ed 7d3e
000003d0: 2b3a 503e 4520 8ebd 2ac8 cdbc e061 af3e
000003e0: ca09 953d a996 9f3e dc10 33be c0b6 3e3e
000003f0: c0a5 8fbc 9363 24be 83f7 02bf 2351 9b3d
-0.122593336 -0.08752336 -0.09982968 0.20702882 -0.14009748 0.053955235 -0.23552586 -0.03432687
-0.33705541 0.22917384 -0.27312788 -0.31994456 -0.23366196 -0.03543246 -0.14272834 -0.08529357
-0.07459905 -0.07857181 0.09312553 -0.21497652 0.06750639 -0.24310108 0.15291642 -0.2432947
-0.18708615 0.06393265 0.13887519 -0.14617789 0.21844497 -0.018847693 -0.109523386 -0.1723796
-0.2127894 0.117937595 -0.18810861 -0.036242746 -0.19276564 0.01821774 -0.18266428 -0.17619525
0.0021263182 0.16475557 0.123670116 0.043902475 0.21793361 0.05176753 -0.13745917 0.16481249
0.0076940386 0.0980708 -0.23324285 0.16592273 0.059900116 -0.2221508 -0.10452407 -0.21745157
-0.22374798 0.07287878 0.06474015 0.045436554 0.17472544 -0.19062404 -0.19853446 -0.19316746
-0.2015953 -0.15333071 0.047003224 0.13155699 -0.14013372 -0.1500637 -0.14132592 0.25237682
0.22883417 0.14570373 -0.14475536 -0.015838021 -0.098882705 -0.03662229 -0.18765993 -0.053437
0.21929798 -0.04148054 0.07530464 0.17930098 -0.015668266 -0.031067977 -0.109977566 -0.23348908
0.10855612 -0.04733645 0.11853833 -0.07059721 -0.081581704 0.139792 -0.12544681 -0.16639963
-0.19239 0.092304915 0.08364144 -0.13340972 -0.036600783 -0.18997939 -0.14781195 -0.24549799
-0.08925254 -0.16603923 0.0072052185 -0.23643555 -0.0028139222 0.0011557214 -0.1960353 0.18918766
-0.12510371 0.010380394 0.17421779 0.017245289 -0.071740605 0.13442309 -0.024401063 0.048041485
-0.08959386 -0.047678027 0.17547666 -0.036854737 -0.13970391 -0.1887523 -0.20097485 -0.20480202
0.39943677 -0.033985842 -0.26779675 0.49649477 0.13837115 -0.14897482 0.80404806 -0.19012964
-0.0076844394 -0.15126224 0.28893086 -0.15403527 0.10161439 -0.10372895 -0.18868266 -0.27997428
0.5111153 -0.15035227 -0.26921585 -0.16753463 0.23957124 0.10207295 0.05394635 0.38898614
0.24686703 0.009967191 -0.020549417 0.4380229 -0.05562301 -0.075524054 0.021730687 0.3749595
-0.12820369 0.018309757 -0.19226153 0.12423826 -0.13355713 0.13212852 -0.16446126 0.08892816
0.10070592 0.032388926 0.0868706 -0.115592934 -0.2957524 -0.121440284 0.097756684 -0.08312309
-0.19393724 -0.0031018853 0.16572285 -0.18874118 -0.19770141 0.11537572 0.010079851 -0.22456163
-0.09087802 -0.09956462 0.2169202 0.22617894 0.19166175 -0.29192927 -0.277733 -0.18410854
0.33941588 -0.045600116 -0.034320176 -0.8492614 -0.25174457 -0.20443615 -0.3539021 0.039541215
0.41828305 0.16934668 -0.23177855 0.011153698 0.14975846 -0.06571456 -0.16870917 0.13899533
-0.5360872 0.08990532 -0.04152755 0.0058997176 0.0032116661 -0.34565234 0.2433017 -0.46387064
0.13538086 -0.21100815 -0.17878626 -0.12249144 -0.16972482 -0.22656669 0.0934892 -0.29445338
0.063512154 0.15402098 -0.049100865 0.3046432 -0.031184794 0.14547068 0.0626035 -0.15099943
-0.017046057 0.1265467 0.24394411 -0.26759148 -0.17058402 -0.0659094 0.13190618 -0.019742124
0.1013233 -0.09037005 0.30245942 0.24797547 0.2033469 -0.06939749 -0.02511986 0.3425436
0.07277258 0.31169632 -0.174869 0.18624401 -0.01753509 -0.1605361 -0.5115892 0.07583835

sequential_7/dense_20/MatMul f4 [128, 64]
00000000: b0d7 72be e54d ab3d c00a 823c 45e7 93bc
00000010: d39b da3d fac9 9ebd a968 9cbe 3ae7 273e
00000020: 6591 eabd 052d 543e 4d1d c7bc 2ac9 04be
00000030: ab30 5d3e 94ee 363e 1fc4 923c 5496 85bd
00000040: 63a1 3e3e ef5e 1a3e 29d8 98bd 863b 093d
00000050: 67c1 f73d 3fbe 813c 7947 e8ba 4e8e a53d
00000060: 3b18 0a3e dcbf 313e 8c00 813d f749 8fbd
00000070: 38a1 37be e05b ae3c 647d 93be f6ec 11be
00000080: 970d 603e b281 10be 3d60 043d d819 1abd
00000090: 91d8 393d 386b 8abc 5c94 4a3e d7d9 423e
000000a0: e8a7 3e3e acb4 cabe f078 63be 2ea3 e0be
000000b0: 8ff3 06be eb7a b63e cb92 a73c 8a5f 493e
000000c0: e351 783e 9dca 133e e65b 07bd 8b54 ee3d
000000d0: a5f4 b73d 1d19 8b3a 21d9 8ebc 591b 923d
000000e0: 98bd 2fbe f2cf 09bc b222 103e c3ee 463e
000000f0: a065 a2bb ee51 94bc 41c7 9b3e 12aa afbe
00000100: 1684 50be 01ca 6bbd 327f ed3c 8ad4 813b
00000110: 00b4 a93e 1523 47bd 5602 8abe 3ddd a7bd
00000120: d6e5 903d 810a 193e 8d86 61be 8d74 053e
00000130: 1a24 6f3d bfc0 82bd 6e45 fabd 22d7 46be
00000140: b558 2b3e d220 7abe ab80 913d ad1a 5b3e
00000150: d42f 2b3e 1c73 923d 36e0 bbbd 43c1 14be
00000160: 4851 143e b080 713e 2a75 0cbc 4eb3 95bd
00000170: aeca edbd 4a31 a4bb a932 8cbe 08a8 023c
00000180: 235e 8c3d f4c3 a5bc f609 e8bb ed61 aebc
00000190: a421 82bd 7352 81be 3c1d 0d3e 1a00 613e
000001a0: 6b68 303b f108 99be 478b 9dbe 9efc bdbd
000001b0: ac5b 5bbe 4bdd 423e 4dd0 ce3d 0e72 b8bd
000001c0: 1cd0 663e f60b d4bd 83be 583e ae9e 633e
000001d0: 36ae ddbd 38f0 cebd 1925 edbd 40ce f2bc
000001e0: fd2f bbbd 272d 253d 2df8 15bc d874 b23d
000001f0: 9188 76bd dc5b 9dbc 50cc d33d b519 2dbd
00000200: 61b7 513e 99f9 1c3e 8e74 dd3d 360d 0abd
00000210: a005 aebe 732b b1bd 687c c53d 778c c33d
00000220: 27a4 9c3d 3330 94bd eac4 51be f72f 943c
00000230: 6d61 f5bd 7bf4 2e3c fa40 163e bf73 e53d
00000240: ddb5 2abe 0126 debd 17b5 11bd 5402 1a3e
00000250: 2720 083e fed4 873d fd82 04be 5cf2 2c3c
00000260: c16a 33bd edde 51bd 7b87 01bd bf00 19bd
00000270: 891f a8bc 35d0 31be d233 463e 33a2 3abc
00000280: 0c35 e53d f335 5d3d b7c4 063d b6bd 63be
00000290: 7866 c83d 5992 543d 8f5c 27bd c1e2 483d
000002a0: 1f40 e43c 523a 9d3e 8fae ee3d 3008 d63d
000002b0: ef10 abbd eb22 c5be 0d09 ef3c 1273 853d
000002c0: 926d e33d eac6 8a3d 8171 0a3e a551 b2bc
000002d0: e396 3d3d 1e82 84be ab18 9f3e f6b2 913b
000002e0: 7782 803e 2ec3 293b 9932 fabd ea05 3cbd
000002f0: 6a4d 2cbd 79c1 d2bd 000e b4be a90c 053c
00000300: 3457 43bd 11e3 36bd 20b6 74bd e9d6 81bd
00000310: 92d7 30be 6292 9a3d 157e a5bd c8fb 16be
00000320: 9c11 e8bd 370d dbbd 947e 61bd daaa e8bd
00000330: 37b2 103e fe7b c43d a18d 163e 01db 11be
00000340: cb74 75bd 6fb0 89bd f110 d2bd 2f06 cabd
00000350: 1bd6 653d 6b45 3abe d58d 233e 0b32 e9bd
00000360: cdb4 743d 5c08 d1bd b8a0 da3d 65cf 20be
00000370: f681 45be c535 de3c ae18 e33d fe23 1cbe
00000380: f01c c4bd 4eac 273e 6ee8 a93d 55f9 1ebe
00000390: 2726 d03c f0c5 083d ed32 d63d 90ec 543c
000003a0: 0158 20bd f906 6d3d 417e 2bbc c1c7 20be
000003b0: cecf de3d c41a 893d 5b12 10be 7521 68bc
000003c0: d338 103e 2e00 933d b848 8e3b 1d5c 0ebe
000003d0: 00cc 5d3b f03e be3c df62 8d3d 10d3 003c
000003e0: 9052 13bd 36de a33d 0001 ddba 91bb 4b3d
000003f0: 853e 143e 54b7 ddbd cb60 453d 90f1 71bd
-0.23715091 0.083644666 0.015874267 -0.018054614 0.10674252 -0.07753368 -0.305486 0.163968
-0.11453513 0.20720299 -0.024305964 -0.12967363 0.21600597 0.17864448 0.017915783 -0.065228134
0.18616252 0.15075277 -0.07463104 0.03350403 0.120974354 0.015837787 -0.0017721496 0.08083783
0.13485806 0.17358345 0.062989324 -0.069965295 -0.17932594 0.021284044 -0.28806603 -0.1425055
0.21880184 -0.14111975 0.032318342 -0.037622303 0.04537255 -0.016896829 0.19783157 0.19028412
0.18618739 -0.39590967 -0.22214103 -0.43874496 -0.13178848 0.35640654 0.020455739 0.19665352
0.24249987 0.1443276 -0.033046626 0.11637219 0.08982209 0.0010612343 -0.01743752 0.071341224
-0.17162168 -0.008411394 0.14075735 0.19427018 -0.0049559623 -0.018105473 0.30425456 -0.3430944
-0.20362887 -0.057565693 0.028991316 0.003962104 0.33145142 -0.04861744 -0.26954907 -0.08196495
0.07075088 0.14945413 -0.22023983 0.13032742 0.05838404 -0.0638442 -0.12220274 -0.19418004
0.16733058 -0.24426582 0.071046196 0.21396895 0.16717464 0.071508616 -0.09173624 -0.14526848
0.14484131 0.23584247 -0.008572856 -0.0730959 -0.11610924 -0.0050107585 -0.273824 0.007974632
0.06853893 -0.02023504 -0.0070812656 -0.021286929 -0.06354073 -0.25258216 0.13780683 0.21972695
0.0026917707 -0.29889634 -0.30770323 -0.092766985 -0.21421689 0.19029729 0.10098324 -0.09006129
0.22540325 -0.10353844 0.21166424 0.222285 -0.10824244 -0.10104412 -0.115793414 -0.029639363
-0.091400124 0.040326264 -0.009153408 0.087136924 -0.060188834 -0.019208841 0.10341704 -0.042260844
0.2048011 0.15329589 0.10813247 -0.033704005 -0.33988667 -0.086508654 0.09642869 0.09548276
0.07648497 -0.07235756 -0.20485273 0.018089278 -0.11981473 0.010678406 0.14673224 0.112037174
-0.16670938 -0.108470924 -0.03557309 0.1503995 0.13293515 0.06632422 -0.12940593 0.01055583
-0.04380298 -0.05123799 -0.031623345 -0.037354227 -0.02052285 -0.17364581 0.19355705 -0.01139121
0.111917585 0.054006528 0.032902446 -0.22240338 0.09785169 0.05189738 -0.040859755 0.049044374
0.027862607 0.30708557 0.11654388 0.104507804 -0.08352839 -0.38503203 0.02917912 0.065160885
0.11104883 0.06776221 0.13519861 -0.021767447 0.046286475 -0.25880522 0.31073508 0.0044463826
0.25099537 0.002590369 -0.12216682 -0.045904078 -0.042066015 -0.10290808 -0.3516693 0.008120694
-0.047690585 -0.04465014 -0.059744 -0.06339819 -0.17269734 0.075474516 -0.08080689 -0.14744484
-0.11331484 -0.1069588 -0.055052355 -0.11360712 0.14130484 0.09593962 0.14702465 -0.142437
-0.059925836 -0.06723105 -0.102571376 -0.09864461 0.05611239 -0.18190543 0.15972073 -0.11386498
0.059742738 -0.102066725 0.10675186 -0.15704115 -0.19287857 0.027125249 0.11088692 -0.15248105
-0.09575832 0.16374323 0.082962856 -0.155248 0.025408817 0.033391893 0.10458932 0.012995854
-0.039146427 0.057867978 -0.010467113 -0.157012 0.10879479 0.06694558 -0.14069502 -0.014168133
0.14084177 0.07177769 0.004342165 -0.13902326 0.0033843517 0.02322337 0.06903624 0.007862821
-0.03596741 0.08001368 -0.001686126 0.049739424 0.14476974 -0.10825983 0.048188012 -0.059068263

sequential_7/dense_21/MatMul f4 [1, 128]
00000000: dde2 2d3e 1014 243e 28b0 adbd 5d71 37be
00000010: 162c 433e afbc 6d3e 1829 59be 5382 3c3e
00000020: 21c8 723e 1f9d fa3d 3cc1 553e c323 28be
00000030: 16e6 873d 9c75 383e d4a4 f8bd ee92 1cbc
00000040: 9e99 3c3e be5c b1bd 0068 893a 1a5f 873e
00000050: 4465 86be a43a bbbd 0dd3 cfbc 3853 82bd
00000060: 407c 3fbe 9dff 063e 83ea 69be 8201 c23e
00000070: 1f4f 9b3d 89e8 8f3d 25eb abbd 9df9 e53d
00000080: aed9 1ebd 7403 9dbe cca0 94bd 8e54 bb3d
00000090: dcba 3ebe 12d9 3fbe ab81 143e 6529 18bc
000000a0: 6e49 adbd 1a29 debd c2e6 533e 8fb6 95bc
000000b0: d4f8 36bd 0dec 15be ac71 bfbd 183a 7cbe
000000c0: f9bf 66bd 1315 3b3e a0e7 443e 6bb2 2b3e
000000d0: c57b f13d ed2e 7d3e 8bf6 cdbd 0693 8dbe
000000e0: 510d a3be f185 b7bb aa21 7c3e 3f52 16be
000000f0: 1803 15be 3925 1e3e 8639 fdbd d3ea 943e
00000100: 359e babe e2cd 6f3e d630 c5bd dea3 fe3a
00000110: 40e5 2fbe 25c1 7e3d be17 5d3e e512 503e
00000120: 130c d83d b117 cbbd 973b 243e 3c76 3d3e
00000130: b3fd ec3d d9c9 40be bd86 edbd 8861 ffbd
00000140: 7abc 803e f906 5ebd e3ff a83d 5aec fabd
00000150: 2e8a ddbd 92c1 cdbd 1bdb 313e 16a8 a7bb
00000160: 51ef 003e 4900 13be 1890 0abd 259b a3bd
00000170: 427b 8c3d 3e96 0fbe bd53 133e c129 34be
00000180: 4f51 88bd 4527 8a3e 237a 203e e113 033d
00000190: 6714 933d f21b 843e 0180 2d3e dfce fbbc
000001a0: d932 91bb 6da6 57be 5b25 943e 8211 25bd
000001b0: 4ddd 323e f036 823e 2129 7ebe 75ae b7bd
000001c0: 6978 1b3e b2a8 873e 5833 5b3e b066 1bbe
000001d0: e588 59bd daa6 77bd 294e 9cbd a19a 493e
000001e0: 36c9 2f3e 518b 353d eb1b 083e a733 36bc
000001f0: 53d6 023a 10ea 6b3e 40ee 29bd 42a3 763e
0.16981073 0.16023278 -0.08480865 -0.17914338 0.19059786 0.23216508 -0.21207082 0.1840909
0.23709156 0.12237 0.20874494 -0.16419892 0.06635682 0.18013614 -0.121408135 -0.009556515
0.18417975 -0.08660267 0.0010483265 0.26439744 -0.26249135 -0.09142044 -0.025369192 -0.06363529
-0.18699741 0.13183446 -0.22843365 0.37891775 0.075834505 0.070267744 -0.0839446 0.112292506
-0.038781814 -0.30666697 -0.07257232 0.09146987 -0.18625969 -0.1873515 0.1450259 -0.009287213
-0.08461271 -0.10847683 0.20693496 -0.018275527 -0.044670895 -0.14640827 -0.09347853 -0.24631536
-0.056335423 0.18269758 0.19228983 0.1676728 0.11791185 0.24724932 -0.1005679 -0.27651232
-0.31846097 -0.005600684 0.24622217 -0.14679812 -0.14551961 0.15443887 -0.12364487 0.29085407
-0.36448827 0.23418382 -0.09628455 0.0019427498 -0.17177296 0.062195916 0.21591088 0.20319708
0.10549178 -0.09916628 0.16038357 0.18502134 0.11571827 -0.18826999 -0.11597965 -0.124697745
0.25143796 -0.05420587 0.082519315 -0.12252112 -0.10817371 -0.10046686 0.17368738 -0.005116473
0.12591292 -0.14355578 -0.033828825 -0.07988576 0.06859447 -0.14022157 0.14387412 -0.17594053
-0.066561334 0.26983085 0.15671591 0.03200138 0.07181626 0.2580257 0.16943361 -0.030738292
-0.0044311103 -0.2105958 0.2893475 -0.0402999 0.17467232 0.2543254 -0.24820377 -0.08968822
0.15182652 0.26495892 0.21406305 -0.15175891 -0.05310907 -0.060461856 -0.07632095 0.19687892
0.171666 0.044322316 0.132919 -0.011120713 0.0004991043 0.23038507 -0.04148698 0.24085715
