Riproduzione/models/FD002/CNNSmallQUADCNN_small_QUAD.tflite (tflite, 119396 bytes, 9 tensors)

sequential_4/conv1d/BiasAdd/ReadVariableOp f4 [64]
-0.8751044 -1.0529779 -1.7204566 -0.08374475 -1.3190835 -1.0416385 -1.1813484 -0.90823233
-0.3671813 0.6899996 -1.3203971 -0.54954314 -1.4343791 -1.241112 -1.03264 -0.19419023
-0.6821986 -0.35421082 -0.43763295 -1.358092 -1.2638088 -0.993501 -0.7138005 0.54331815
-0.87253064 -0.35768947 -1.2404033 -1.0187043 -1.2876375 -1.3723763 -1.7075126 -0.95309544
-1.281298 -1.6529472 -0.8004273 -1.3774593 -0.8330756 -0.6873206 -2.310345 -1.7816486
-0.9153139 -0.8659804 -1.3685735 -1.249464 -0.6060587 -1.7567214 -0.9389067 -1.0828719
-1.0636401 -1.8516568 -1.1987333 -0.88813084 -1.3063312 -0.6820753 -1.1172587 -1.3496807
-0.555516 -1.4926848 -0.85044926 -0.8569121 -0.30231938 -0.6198359 -0.9900875 -1.3560163
00000000: d806 60bf fbc7 86bf ec37 dcbf 5e82 abbd
00000010: bad7 a8bf 6954 85bf 6d36 97bf ea81 68bf
00000020: 30ff bbbe d0a3 303f c602 a9bf dcae 0cbf
00000030: bc99 b7bf c2dc 9ebf 8c2d 84bf ced9 46be
00000040: 91a4 2ebf 1f5b b5be 6d11 e0be f5d5 adbf
00000050: 7dc4 a1bf 1556 7ebf a1bb 36bf e616 0b3f
00000060: 2b5e 5fbf 1323 b7be 89c5 9ebf e764 82bf
00000070: 4ed1 a4bf 07aa afbf c68f dabf 10fe 73bf
00000080: 9301 a4bf c693 d3bf cee8 4cbf 9650 b0bf
00000090: 7144 55bf 3ef4 2fbf b1dc 13c0 100d e4bf
000000a0: 0352 6abf e4b0 5dbf 6b2d afbf 70ee 9fbf
000000b0: aa26 1bbf 3fdc e0bf 315c 70bf 8c9b 8abf
000000c0: 5c25 88bf 1703 edbf 1870 99bf 8b5c 63bf
000000d0: dc35 a7bf 7d9c 2ebf 5502 8fbf 56c2 acbf
000000e0: 4c36 0ebf 4c10 bfbf 0bb7 59bf 975e 5bbf
000000f0: 9bc9 9abe 91ad 1ebf 6076 7dbf f191 adbf

sequential_4/conv1d_1/BiasAdd/ReadVariableOp f4 [32]
0.05145079 -0.060054537 -0.071205474 -0.37847376 -0.48508346 -0.25868934 -0.06907126 -0.06005459
-0.060054522 0.03749261 -0.06005446 -0.017279187 -0.023245523 -0.08733415 -0.05853749 -0.088407576
-0.100944184 0.7915713 -0.47562 -0.026299058 0.07566683 0.059117265 -0.060040127 -0.08309211
-0.072672315 -0.073140875 -0.37221745 -0.017580215 -0.057392288 -0.27221844 -0.027155371 -0.4390948
00000000: 10be 523d bffb 75bd 2dd4 91bd 50c7 c1be
00000010: dc5c f8be ee72 84be 3c75 8dbd cdfb 75bd
00000020: bbfb 75bd da91 193d aafb 75bd 158d 8dbc
00000030: 656d bebc 3fdc b2bd 02c5 6fbd 080f b5bd
00000040: d3bb cebd 6ba4 4a3f 7784 f3be 1f71 d7bc
00000050: 36f7 9a3d f224 723d a3ec 75bd 322c aabd
00000060: 39d5 94bd e2ca 95bd 4993 bebe 6204 90bc
00000070: 2d14 6bbd 3760 8bbe f174 debc 09d1 e0be

sequential_4/conv1d_2/BiasAdd/ReadVariableOp f4 [16]
1.3658795 1.6681141 1.2880398 -2.0820992 -0.111045405 0.7607699 2.8766885 0.26356316
-2.1099255 -0.76865286 1.4175779 0.84501326 2.0811934 -1.3669193 -0.8837444 -0.7807526
00000000: 24d5 ae3f c384 d53f 7dde a43f 1d41 05c0
00000010: c66b e3bd d1c1 423f aa1b 3840 c0f1 863e
00000020: 0509 07c0 6fc6 44bf 3173 b53f ca52 583f
00000030: 4632 0540 36f7 aebf 133d 62bf 67df 47bf

sequential_4/conv1d/Conv1D f4 [64, 1, 8, 21]
0.097357616 0.43329147 0.0135185355 -0.12444965 -0.03540042 0.08075317 0.22576433 -0.020981442
0.29549065 -0.73943746 -0.981945 0.2089986 -0.18280736 -0.56922245 0.19078344 -1.3980199
0.24506514 -0.16358113 -0.21770799 0.22764134 0.21943276 0.27828842 0.6786546 0.44949585
0.2084711 -0.70424175 -0.38646755 -0.12448711 -0.04284368 0.8375226 0.12062382 0.11623846
-0.15666975 -0.12579282 0.20090148 0.17498621 -0.28696287 0.2831197 0.020221667 -0.27144742
-0.25232723 -0.31221768 0.58886915 0.72550005 0.1514076 -0.043534964 -0.18803103 0.1134472
0.25100568 -0.21295765 0.7229437 -0.42971107 -0.26927418 0.3635245 -0.41094264 -0.68062687
0.056557685 -0.33600184 0.16200233 -0.1570078 -0.3546712 0.26049328 0.4261727 0.43024978
0.5592405 -0.00093389873 0.10713601 0.116017945 0.20876722 0.54380345 0.12109756 0.5541748
0.45742938 -0.109804586 0.42069572 -0.24041246 0.19326936 -0.29851335 0.68993026 0.33799818
-0.03916461 -0.22688538 0.57813567 0.5255038 1.2445138 1.3506631 0.2913045 0.3680174
-0.28558615 -0.01480767 0.40712836 0.085559994 0.9988256 -0.27208078 -0.21603718 0.3606974
-0.24809025 -0.4478919 0.22275726 -1.600477 0.47072533 0.05539348 -0.22473831 0.4422445
0.14785819 -0.39498192 -0.07889757 -0.59329426 -0.2291642 -0.8749233 -0.7472165 -0.372785
-0.08829607 0.23437569 0.110372454 -0.91530854 -0.37911987 -0.06287801 3.1814094 -0.65051204
-0.27484524 -0.22896685 0.033758447 0.00037505483 -0.53409725 -0.53524196 -0.25390136 0.06993087
-0.30117047 0.057455845 -0.79376954 -0.7356582 -0.35039404 -0.18971269 0.41622937 1.0621704
0.27639297 -0.18514487 -0.117448635 2.7032146 -0.7867558 0.70469385 -0.10564302 -0.10946913
-0.2303048 -0.51265574 -0.4618199 0.4268803 0.2896301 -0.2763053 -0.5856721 0.45113528
0.59206957 1.0180795 -0.38750476 0.34048665 0.40573472 -0.9770013 1.0349126 -0.57215595
-0.3278584 -0.13062026 0.057977695 -0.5806647 -0.38059407 -0.5259276 0.89867944 0.82531404
1.7518761 0.80561066 0.63616526 0.5250164 1.8931084 1.674779 1.2828444 -1.481305
0.1863886 -0.5297317 -0.8768152 1.2965013 -2.315657 -1.0496384 1.7065785 -0.3285771
0.29764396 -1.544279 -2.4021537 1.2476653 1.2085358 -0.16877942 -0.1929483 -0.11448296
0.2993065 0.51771283 0.4693535 0.62993777 -1.1812657 0.24527049 0.8530209 -0.7719235
0.663922 -1.3049335 0.5740114 0.7700195 2.7351768 -0.18040842 -1.1811764 -1.3143994
0.54328394 0.36679056 0.8227565 0.74695987 0.3490407 0.78398716 0.56358105 0.64517653
0.82352173 -0.4858032 0.8577745 0.40532264 0.19052891 0.7361313 -0.76111597 0.5857574
0.82038337 1.1861669 0.6844456 -0.41713277 -0.823237 0.6246938 0.5757903 -0.8811416
-0.8748278 -0.9882136 0.07973326 0.13577761 0.020270722 0.23401673 -1.9279402 -0.4932644
0.6684044 -1.0021405 0.15361486 -1.5808153 1.1506028 0.9262673 1.3294235 -0.76011765
-2.0025358 -1.5465232 0.13442753 0.053663038 0.008811853 -0.06951783 -0.29105708 -0.04574737
00000000: 6e63 c73d 61d8 dd3e d97c 5d3c 75df febd
00000010: 0800 11bd eb61 a53d c42e 673e 46e1 abbc
00000020: 8d4a 973e c64b 3dbf bf60 7bbf bb03 563e
00000030: da31 3bbe 90b8 11bf bc5c 433e 51f2 b2bf
00000040: 5bf2 7a3e d081 27be d8ee 5ebe d01a 693e
00000050: fbb2 603e d27b 8e3e 4fbc 2d3f 5224 e63e
00000060: 7379 553e 3049 34bf 13df c5be 19f3 febd
00000070: db7c 2fbd e267 563f 9f09 f73d 6e0e ee3d
00000080: 096e 20be d5cf 00be 1eb9 4d3e 962f 333e
00000090: ccec 92be 11f5 903e e9a7 a53c 28fb 8abe
000000a0: 0931 81be ffda 9fbe 21c0 163f 5fba 393f
000000b0: 980a 1b3e b851 32bd 358b 40be 0157 e83d
000000c0: d183 803e 9211 5abe d712 393f 1703 dcbe
000000d0: 4ede 89be e21f ba3e 1367 d2be 903d 2ebf
000000e0: 08a9 673d 6f08 acbe f0e3 253e a7c6 20be
000000f0: 7797 b5be 605f 853e 4f33 da3e b349 dc3e
00000100: 632a 0f3f e2d0 74ba 206a db3d d19a ed3d
00000110: 13c7 553e b436 0b3f ff01 f83d 66de 0d3f
00000120: 2f34 ea3e 3ae1 e0bd 6e65 d73e af2e 76be
00000130: 67e8 453e bed6 98be 459f 303f 190e ad3e
00000140: 126b 20bd a454 68be b300 143f 6b87 063f
00000150: 3a4c 9f3f 87e2 ac3f dd25 953e c76c bc3e
00000160: 5938 92be df9b 72bc 2173 d03e 143a af3d
00000170: 09b3 7f3f 2c4e 8bbe da38 5dbe 54ad b83e
00000180: 5f0b 7ebe 1652 e5be 7b1a 643e 6edc ccbf
00000190: e902 f13e 46e4 623d cd21 66be df6d e23e
000001a0: 2368 173e 123b cabe 0d95 a1bd 22e2 17bf
000001b0: 05aa 6abe f9fa 5fbf 9549 3fbf addd bebe
000001c0: 92d4 b4bd 2e00 703e f40a e23d a951 6abf
000001d0: 001c c2be 30c6 80bd 369c 4b40 f587 26bf
000001e0: 84b8 8cbe 4976 6abe 4c46 0a3d 02a3 c439
000001f0: 99ba 08bf 9e05 09bf 5cff 81be ea37 8f3d
00000200: 0433 9abe d256 6b3d 7b34 4bbf 1954 3cbf
00000210: d966 b3be 0b44 42be 041c d53e 33f5 873f
00000220: 6183 8d3e 9e96 3dbe e988 f0bd 7801 2d40
00000230: d468 49bf d166 343f 5e5b d8bd 5a31 e0bd
00000240: 06d5 6bbe 683d 03bf a873 ecbe 0e90 da3e
00000250: 654a 943e e377 8dbe 9bee 15bf 34fb e63e
00000260: df91 173f 6e50 823f 0667 c6be 4454 ae3e
00000270: 76bc cf3e c21c 7abf 0478 843f d078 12bf
00000280: 0edd a7be 51c1 05be 057a 6d3d 71a6 14bf
00000290: 3add c2be 31a3 06bf db0f 663f c847 533f
000002a0: 7a3d e03f 803c 4e3f badb 223f 7a67 063f
000002b0: 6051 f23f 295f d63f 3f34 a43f 679b bdbf
000002c0: a7dc 3e3e 7f9c 07bf f676 60bf c1f3 a53f
000002d0: b933 14c0 8d5a 86bf 2a71 da3f 423b a8be
000002e0: ca64 983e efaa c5bf e3bc 19c0 7fb3 9f3f
000002f0: 4db1 9a3f 83d4 2cbe 3d94 45be 0b76 eabd
00000300: b43e 993e d488 043f 1a4f f03e 9a43 213f
00000310: b733 97bf 3028 7b3e 945f 5a3f c79c 45bf
00000320: cbf6 293f 1008 a7bf 69f2 123f ff1f 453f
00000330: 230d 2f40 fcbc 38be ca30 97bf 3d3e a8bf
00000340: a814 0b3f f9cb bb3e 2ca0 523f c338 3f3f
00000350: 76b5 b23e 62b3 483f d946 103f 4a2a 253f
00000360: 52d2 523f 32bb f8be 1c97 5b3f 7386 cf3e
00000370: 031a 433e 1a73 3c3f 7fd8 42bf 32f4 153f
00000380: a504 523f 51d4 973f d437 2f3f 6d92 d5be
00000390: a9bf 52bf efeb 1f3f fe66 133f 7f92 61bf
000003a0: b7f4 5fbf 91fb 7cbf 314b a33d 4909 0b3e
000003b0: c90e a63c 15a2 6f3e bfc6 f6bf 278d fcbe
000003c0: 8d1c 2b3f 2446 80bf 374d 1d3e 2858 cabf
000003d0: f446 933f db1f 6d3f 8d2a aa3f 1297 42bf
000003e0: 8c29 00c0 79f4 c5bf 5fa7 093e c6cd 5b3d
000003f0: 975f 103c 5d5f 8ebd 6f05 95be 9861 3bbd

sequential_4/conv1d_1/Conv1D f4 [32, 1, 6, 64]
-0.920473 1.3749542 1.496472 0.9503385 -1.7611234 -0.31993026 1.1505457 0.6084663
0.80193204 -0.5348099 -0.6904203 0.19665657 -0.52769625 0.31846893 0.39028618 1.9256428
-0.677479 0.8558696 0.4596029 0.057290565 -1.7639325 0.18010205 1.0082089 -0.21970955
-0.60532683 0.87332827 0.45196187 -0.5136614 -0.5645284 -0.9279417 -1.1720665 0.3286712
2.3609195 -0.28589168 -0.15324594 2.728097 -0.98110354 0.47428912 0.16768639 0.47585246
-0.21086742 -0.70482516 -1.7962679 -0.5801035 -1.4298455 -0.7371406 0.63843775 -1.3825388
-1.0873352 -1.4845827 0.9272611 0.16662069 -0.21975791 0.08212073 0.5891388 1.1756558
0.6235377 0.031722818 -2.9281414 -2.1664808 0.22560237 0.19168076 0.27778557 -0.09705337
0.39236355 -0.81520987 0.49641937 0.8031545 0.31738272 0.9823984 0.29259446 -1.0843686
0.5861071 -1.3863621 0.63035595 0.0982239 -1.4470884 -1.6066447 0.33953074 0.57806146
-0.6465531 0.92654294 0.65628046 -0.491604 0.24800467 -1.0177855 0.23454353 -0.0904169
-0.33715495 0.29164606 -1.6015476 -0.7880799 -0.1210117 0.42555338 -0.99541885 0.90150267
1.2006005 -1.4987335 0.08817896 1.2515713 -1.2118788 -2.2147262 -0.15390301 1.1988881
-0.06947722 -1.7123705 -0.19900195 0.1050728 -0.28857937 2.6180303 -0.3674589 0.49249104
1.4896508 -0.6284824 -1.00424 -0.5723811 -0.14684285 -0.46451944 -0.07673919 -0.36833063
0.011795198 0.4220311 -2.0522573 -1.126772 0.2983143 0.75288755 -0.100488566 0.35564262
-0.8658185 -0.26542056 2.2135122 0.19738182 -0.16862074 1.3740244 -1.317254 2.2081046
-0.37239006 -0.43189228 -0.19954567 -1.4930055 1.0398172 -1.4396636 -0.77603596 1.1124531
-0.7000031 0.8984839 0.8193585 0.36640835 1.7866987 -0.6228245 0.5722975 -0.6717045
-0.13393936 -0.5657808 0.8095838 -2.461253 0.16839217 0.7195671 1.2251998 -0.050193097
0.3848267 1.2640796 0.55667245 -1.1194805 0.25244305 -2.6910372 -0.49155346 -0.07495022
-0.1817282 -2.0554328 -1.7138134 -1.1078333 0.85734683 -2.12534 0.16217831 0.6533811
-1.2810178 0.8069893 0.39986426 -1.4161931 -0.40295056 -0.3574718 -0.39883485 -0.28265768
-1.3688469 -0.6340782 -1.4342631 -1.0286245 0.19687787 -1.6360916 0.6901981 -0.46440104
-0.22573793 0.63799626 -1.1805103 0.3262993 0.20678893 0.06427051 -2.6792436 0.3901159
0.04840387 -1.1730336 -0.12572688 -2.3581948 -0.14382432 -0.74725413 -0.26743814 -0.5222425
1.6652409 0.12687363 -0.66170084 -0.79211 -0.06354673 -0.5204342 -2.7578278 -2.183947
0.47311655 -0.3251678 -0.42012447 -2.0635698 0.37067991 0.21418974 -0.9714682 -2.0156105
1.3602302 -3.5905335 0.4716191 0.8382473 -0.15675956 -0.84330934 -3.033689 -3.398898
0.40791702 -0.57703525 -0.06846765 -0.19224076 0.46940833 1.6873704 -1.347643 0.19450362
0.4883605 -0.16046223 -4.926854 0.3011972 -3.369456 -0.3691082 0.25357813 0.48618835
-2.4180205 -0.86117023 -0.6672867 -0.99738663 0.6866704 1.3139007 0.010303688 -0.11960198
00000000: 1ea4 6bbf 80fe af3f 658c bf3f 6249 733f
00000010: 7e6c e1bf e6cd a3be 1545 933f 73c4 1b3f
00000020: 6b4b 4d3f 4de9 08bf 63bf 30bf 5760 493e
00000030: 1a17 07bf 5c0e a33e 97d3 c73e 777b f63f
00000040: 446f 2dbf 451a 5b3f 1251 eb3e 83a9 6a3d
00000050: 8ac8 e1bf ac6c 383e fd0c 813f 8afb 60be
00000060: b3f6 1abf 7192 5f3f 8c67 e73e 507f 03bf
00000070: ef84 10bf 968d 6dbf 4606 96bf 9747 a83e
00000080: 4e19 1740 6560 92be 81ec 1cbe 2499 2e40
00000090: 9a29 7bbf 06d6 f23e fbb5 2b3e efa2 f33e
000000a0: a1ed 57be 6c6f 34bf 1bec e5bf aa81 14bf
000000b0: 2d05 b7bf 3fb5 3cbf a870 233f 08f7 b0bf
000000c0: cd2d 8bbf ce06 bebf fc60 6d3f 9d9e 2a3e
000000d0: 3808 61be ea2e a83d cdd1 163f e47b 963f
000000e0: 2ba0 1f3f c9ef 013d ab66 3bc0 9fa7 0ac0
000000f0: 4f04 673e f647 443e e939 8e3e ebc3 c6bd
00000100: e0e3 c83e 98b1 50bf ae2a fe3e 899b 4d3f
00000110: fd7f a23e 767e 7b3f f1ce 953e 97cc 8abf
00000120: 1d0b 163f 5074 b1bf 025f 213f 9d29 c93d
00000130: 313a b9bf 89a6 cdbf f9d6 ad3e d6fb 133f
00000140: 8184 25bf eb31 6d3f ff01 283f 85b3 fbbe
00000150: f0f4 7d3e cc46 82bf 2e2c 703e 7f2c b9bd
00000160: 939f acbe a252 953e 83ff ccbf 9bbf 49bf
00000170: fbd4 f7bd 22e2 d93e c5d3 7ebf e1c8 663f
00000180: 47ad 993f 80d6 bfbf 2c97 b43d 7d33 a03f
00000190: d81e 9bbf 13be 0dc0 c098 1dbe 2a75 993f
000001a0: 134a 8ebd f52e dbbf 2bc7 4bbe 6830 d73d
000001b0: adc0 93be cf8d 2740 9323 bcbe c927 fc3e
000001c0: e1ac be3f 39e4 20bf f08a 80bf 9187 12bf
000001d0: f95d 16be 7ed5 edbe 7029 9dbd d595 bcbe
000001e0: a540 413c 7614 d83e 2f58 03c0 113a 90bf
000001f0: a7bc 983e 3dbd 403f f3cc cdbd ca16 b63e
00000200: 48a6 5dbf 34e5 87be 2faa 0d40 761e 4a3e
00000210: eaaa 2cbe 08e0 af3f c79b a8bf 9651 0d40
00000220: e9a9 bebe fc20 ddbe b355 4cbe ce1a bfbf
00000230: bb18 853f e646 b8bf 4baa 46bf dd64 8e3f
00000240: 6733 33bf 0a03 663f 7bc1 513f e099 bb3e
00000250: 8bb2 e43f 6d71 1fbf 1782 123f d3f4 2bbf
00000260: 6627 09be 03d7 10bf e240 4f3f 2b85 1dc0
00000270: ff6e 2c3e 8d35 383f 59d3 9c3f 4797 4dbd
00000280: 0108 c53e 5ccd a13f 1682 0e3f 234b 8fbf
00000290: 3740 813e f439 2cc0 e5ac fbbe 807f 99bd
000002a0: f516 3abe 368c 03c0 3d5e dbbf 7bcd 8dbf
000002b0: 157b 5b3f 9205 08c0 1212 263e fc43 273f
000002c0: 64f8 a3bf da96 4e3f 02bb cc3e d145 b5bf
000002d0: 894f cebe 8b06 b7be 1534 ccbe 82b8 90be
000002e0: 6036 afbf f352 22bf ef95 b7bf f8a9 83bf
000002f0: 5a9a 493e 736b d1bf d3b0 303f f9c5 edbe
00000300: d827 67be b953 233f f61a 97bf b410 a73e
00000310: 7ac0 533e 42a0 833d ba78 2bc0 45bd c73e
00000320: 2343 463d f725 96bf 8cbe 00be aaec 16c0
00000330: af46 13be 0c4c 3fbf a7ed 88be afb1 05bf
00000340: 9d26 d53f 29eb 013e 3a65 29bf b9c7 4abf
00000350: ca24 82bd 2d3b 05bf 4080 30c0 cac5 0bc0
00000360: 553c f23e 657c a6be 8e1a d7be 8711 04c0
00000370: c2c9 bd3e 8e54 5b3e 24b2 78bf c3ff 00c0
00000380: 061c ae3f 4dcb 65c0 0f78 f13e 6097 563f
00000390: 9485 20be 1fe3 57bf f627 42c0 8b87 59c0
000003a0: 80da d03e 95b8 13bf c438 8cbd c3da 44be
000003b0: 4a56 f03e c1fb d73f 917f acbf f52b 473e
000003c0: 630a fa3e 3650 24be caa8 9dc0 8536 9a3e
000003d0: 2ba5 57c0 c0fb bcbe fed4 813e aeed f83e
000003e0: d9c0 1ac0 a775 5cbf 4dd3 2abf bb54 7fbf
000003f0: a2c9 2f3f e62d a83f cdd0 283c e2f1 f4bd

sequential_4/conv1d_2/Conv1D f4 [16, 1, 3, 32]
0.16410565 0.13450208 0.09952223 -0.34329972 0.18262899 -0.016559282 -0.15496176 -0.2083903
0.068073325 -1.1727984 -0.1318311 0.13270852 0.21717785 -0.032105852 -0.16737808 0.08170562
0.05182522 0.41923475 0.39931735 0.276935 0.32017517 0.5525122 -0.22659694 0.12821679
-0.111576855 -0.40615293 0.4135951 0.03769566 0.028439162 -0.0028377527 -0.081913464 -0.35648897
-0.31678617 -0.12593883 -0.17064682 0.0010606138 -0.47819123 -0.38721284 0.019193584 0.0742038
-0.051158894 -0.15486395 0.08099581 0.14012785 0.07866739 -0.14234422 0.056531835 0.009217903
0.042967822 0.22854131 0.22188325 0.04614538 0.03664549 0.42567566 -0.21626562 0.17581697
0.048753213 -0.14388655 0.6500482 0.10421495 -0.044342913 -0.5630692 0.044098087 0.17876443
0.34520352 -0.17644767 0.0023103917 -0.12172544 0.28134835 0.16606341 -0.09727012 0.07947693
0.1786132 -0.8245139 0.065572776 0.07870127 0.0686306 0.05483655 -0.2053346 0.34623617
-0.007929408 0.4866291 0.8842337 0.025792612 0.40315646 1.066202 0.0070066364 -0.009189441
0.23926917 0.26090202 0.26002902 0.16309795 0.1461532 0.19975963 0.1047545 -0.40195522
-0.8853873 -0.15581758 0.06500119 -0.11030228 -0.6782338 -0.42559427 -0.0861234 0.054124936
-0.22509441 0.688274 -0.08270585 0.023885652 -0.059550058 -0.070388526 0.18572168 0.13862188
-1.6614788 -1.6839186 -0.14608635 0.09140606 -0.5902739 -0.45405194 -0.15663403 -0.02785017
-0.3276957 0.23579617 -0.7056793 0.115272865 0.071278095 0.16288593 -0.05057222 -0.30634704
-0.91057 0.053721912 0.23735708 0.15864627 -1.2609023 -1.7855365 0.12843913 0.1859563
0.08624097 0.30878457 0.08630489 -0.055325583 0.050682995 -0.07111877 0.07763724 -0.1505047
-0.19456618 -0.5892991 0.13559772 -0.03999629 0.055349346 -0.5175554 -0.037585318 0.056698874
-0.16291042 -0.11333049 -0.6550469 0.111032754 -0.12690073 -0.103002675 -0.11720684 0.16942486
-0.0017459746 0.11293226 -0.086055525 0.43778545 -0.15205601 -0.038764518 -0.09397951 0.1270694
0.15368561 -0.06705765 -0.18883462 0.10385771 -0.02250092 -0.18172622 -0.06858839 0.12828574
-0.36490044 0.69422257 0.18585816 -0.07757883 -1.5578362 -0.41836166 0.27074987 0.21172799
-0.12026552 -0.09950813 -0.7240295 -0.08804053 0.13390088 0.14462191 -0.029671103 0.7730662
0.22749452 0.042957213 0.18011892 -0.009720118 0.29299745 0.71635735 0.09878009 0.039846223
-0.07427615 -1.8404474 -0.019036528 -0.09371293 -0.09882947 -0.10527915 -0.012453309 -0.0762467
-0.13084196 0.37960768 -0.28270197 -0.062042814 -0.16878262 1.2619722 -0.25591916 0.08593247
0.18000844 0.045369055 0.37527195 -0.14688879 -0.116434194 0.16927604 0.10136451 0.1642832
0.104196265 -0.06053985 -0.10464986 0.21725865 0.10802695 0.20248802 -0.19622661 0.08539476
0.19194254 -1.0442146 -0.13042262 0.09877672 0.132818 0.050421815 0.19423975 -0.45166257
-0.057099704 0.51435184 -0.3030003 -0.027607195 0.043959357 0.8117773 0.064757325 0.05313946
0.07829316 0.31832418 0.20105398 0.09078334 0.10829286 -0.15095128 -0.06140706 0.1410792
00000000: 500b 283e eaba 093e 50d2 cb3d fbc4 afbe
00000010: 1803 3b3e 55a7 87bc 4cae 1ebe 4464 55be
00000020: 076a 8b3d 421e 96bf bbfe 06be bee4 073e
00000030: df63 5e3e 6d81 03bd 2965 2bbe 4755 a73d
00000040: af46 543d f0a5 d63e 5373 cc3e 6dca 8d3e
00000050: 00ee a33e 7171 0d3f 0709 68be 434b 033e
00000060: 6882 e4bd 47f3 cfbe bdc2 d33e c466 1a3d
00000070: 3ff9 e83c 97f9 39bb 3fc2 a7bd b985 b6be
00000080: cc31 a2be 1cf6 00be 0abe 2ebe 4b04 8b3a
00000090: 7bd5 f4be c340 c6be dd3b 9d3c 29f8 973d
000000a0: fd8b 51bd a894 1ebe 22e1 a53d ad7d 0f3e
000000b0: 5e1c a13d afc2 11be ed8d 673d b006 173c
000000c0: 07ff 2f3d bc06 6a3e 5d35 633e f002 3d3d
000000d0: 9519 163d 29f2 d93e bc74 5dbe 5d09 343e
000000e0: 73b1 473d ff56 13be 8f69 263f a66e d53d
000000f0: eaa0 35bd 4e25 10bf 32a0 343d 060e 373e
00000100: 84be b03e b3ae 34be f169 173b 304b f9bd
00000110: e40c 903e 870c 2a3e 8f35 c7bd cdc4 a23d
00000120: 61e6 363e 5813 53bf 054b 863d 222e a13d
00000130: 338e 8c3d 4a9c 603d 3c43 52be de45 b13e
00000140: 59ea 01bc 7327 f93e 245d 623f 074b d33c
00000150: 866a ce3e 4f79 883f ed97 e53b 4f8f 16bc
00000160: fa02 753e f394 853e 8622 853e 2603 273e
00000170: 2fa9 153e ca8d 4c3e 8789 d63d 13cd cdbe
00000180: bea8 62bf a58e 1fbe 581f 853d 29e6 e1bd
00000190: bba0 2dbf 7ee7 d9be 7761 b0bd 1cb2 5d3d
000001a0: 267f 66be ba32 303f af61 a9bd d8ab c33c
000001b0: c3ea 73bd dc27 90bd d32d 3e3e e5f2 0d3e
000001c0: 56ab d4bf a58a d7bf a997 15be 1a33 bb3d
000001d0: 311c 17bf 7f79 e8be ac64 20be 0a26 e4bc
000001e0: bbc7 a7be 8d74 713e 66a7 34bf 2e14 ec3d
000001f0: 40fa 913d 92cb 263e d124 4fbd 85d9 9cbe
00000200: 1e1b 69bf 820b 5c3d bc0d 733e 2b74 223e
00000210: 3f65 a1bf 768c e4bf 8c85 033e 546b 3e3e
00000220: 1b9f b03d 0319 9e3e 9ec0 b03d 149d 62bd
00000230: f998 4f3d b8a6 91bd 4600 9f3d e71d 1abe
00000240: 5b3c 47be 4edc 16bf 21da 0a3e 26d3 23bd
00000250: ffb5 623d 837e 04bf 10f3 19bd 143d 683d
00000260: fdd1 26be d119 e8bd 27b1 27bf 2465 e33d
00000270: 44f2 01be 11f3 d2bd 240a f0bd b67d 2d3e
00000280: 30d9 e4ba 0749 e73d e13d b0bd 6a25 e03e
00000290: 92b4 1bbe 8bc7 1ebd 5478 c0bd 7b1e 023e
000002a0: c35f 1d3e 8555 89bd dd5d 41be 5ab3 d43d
000002b0: d953 b8bc 7016 3abe 1278 8cbd 565d 033e
000002c0: 3bd4 babe 92b8 313f 9a51 3e3e a6e1 9ebd
000002d0: 2d67 c7bf 8033 d6be ba9f 8a3e 39cf 583e
000002e0: c54d f6bd ebca cbbd ff59 39bf 984e b4bd
000002f0: 501d 093e c417 143e d010 f3bc abe7 453f
00000300: 53f4 683e e7f3 2f3d 1871 383e 2141 1fbc
00000310: c303 963e 3263 373f 374d ca3d cb35 233d
00000320: 181e 98bd c893 ebbf 7ef2 9bbc 91ec bfbd
00000330: 1b67 cabd 989c d7bd f708 4cbc 3b27 9cbd
00000340: 6ffb 05be f05b c23e 50be 90be 9b20 7ebd
00000350: 5ad5 2cbe 4e88 a13f d607 83be 5dfd af3d
00000360: 2254 383e e7d4 393d a523 c03e 046a 16be
00000370: 0d75 eebd b356 2d3e 3298 cf3d db39 283e
00000380: da64 d53d a2f8 77bd aa52 d6bd 0d79 5e3e
00000390: 3c3d dd3d 0559 4f3e a1ef 48be 73e3 ae3d
000003a0: 968c 443e d3a8 85bf 828d 05be 734b ca3d
000003b0: 7101 083e 1b87 4e3d c9e6 463e 5140 e7be
000003c0: 61e1 69bd 90ac 033f db22 9bbe 7c28 e2bc
000003d0: ba0e 343d a3d0 4f3f 7d9f 843d c3a8 593d
000003e0: 2a58 a03d 63fb a23e 18e1 4d3e 9eec b93d
000003f0: a6c8 dd3d f992 1abe f885 7bbd 1177 103e

sequential_4/dense_12/BiasAdd/ReadVariableOp f4 [32]
-0.39414486 -0.060054597 1.6251259 -0.09223679 -0.1501756 -0.060054537 0.5844209 -0.6327509
1.3457786 -0.09255088 1.4881209 -0.017090945 -0.06329705 1.609846 -0.07130104 0.7063407
-0.23786086 -0.06807587 -0.30757627 -0.12731855 1.2567024 -0.08243395 -0.081668414 -0.07246114
-0.38731837 1.8050282 1.4590131 1.3558367 -0.060054544 0.86962354 -0.2991932 -0.060054127
00000000: 5bcd c9be cffb 75bd 2004 d03f a4e6 bcbd
00000010: a2c7 19be bffb 75bd 9c9c 153f f7fb 21bf
00000020: 7942 ac3f 518b bdbd bf7a be3f 4f02 8cbc
00000030: e2a1 81bd 6f0f ce3f 4806 92bd bed2 343f
00000040: cc91 73be 5d6b 8bbd a37a 9dbe cb5f 02be
00000050: a0db a03f 21d3 a8bd c541 a7bd 8266 94bd
00000060: 984e c6be 2a0b e73f f1c0 ba3f 0f8c ad3f
00000070: c1fb 75bd a69f 5e3f da2f 99be 51fb 75bd

sequential_4/dense_12/MatMul f4 [32, 128]
-0.3075771 -0.107542455 0.024909174 -0.5255421 0.0022283702 -0.10759443 -1.7374212 -0.38391355
-0.20028265 -0.036294486 0.02062276 -0.11665243 0.45553124 -0.26988897 -0.1492728 -0.3274757
-0.3292698 -0.15348774 -0.6557985 -0.3267437 -0.0022399323 0.091875434 -1.0164728 -0.08320821
-0.00875665 -0.2525933 0.1943873 -0.231114 -0.015276738 -0.27064565 -0.32213125 -0.07765253
-0.4459699 -0.12939869 -0.82738733 -0.12129122 -0.19921094 0.030789237 -1.4416412 -0.22805241
0.09079687 0.05132533 0.0514665 0.008510842 -0.5517272 -0.046490245 -0.22754273 -0.2342685
-0.61251765 0.27150595 -0.14129663 -0.35085276 0.07788569 0.074845545 -0.60049874 -0.10865215
-0.080738544 -0.119290546 0.07814745 -0.029384797 0.035944104 -0.30346248 -0.39915577 -0.27324513
-0.3845188 -0.058256194 -0.0026096236 -0.17247677 -0.10837467 -0.040484555 -0.93517095 -0.055221252
-0.04193336 -0.15884228 -0.42864767 -0.07382701 0.18311484 -0.08666472 -0.4649503 -0.18747549
-0.3229035 -0.20476004 -0.047952473 -0.23331428 -0.14575738 -0.45255324 -0.70742154 -0.14796422
0.09887961 -0.1872375 -0.29132694 0.040776458 -0.014788544 -0.31843743 -0.13552187 -0.00094185193
-0.48148426 -0.23317552 -0.04985149 -0.19017887 0.031871356 -0.13148296 -0.33010325 -0.21264926
0.03330989 -0.12556353 -0.27657333 -0.30853665 0.33423683 -0.25898015 0.105104044 -0.025743267
-0.92114496 0.0030202013 -0.2304611 0.015664143 -0.47495973 -0.7871749 -1.0276697 -0.4367038
-0.17742415 -0.18730953 -0.30765823 -0.065785296 1.181628 -0.23640215 -0.42652237 -0.09831276
-0.038082823 0.05192415 0.07918645 -0.13902587 -0.121899106 -0.035317123 -0.18239541 0.04275863
0.04033266 -0.24449745 -0.10522571 0.0049532964 -0.07185187 0.046815444 -0.23822685 0.09352438
-0.12228381 0.08886316 0.0011713415 -0.1953554 -0.17543153 -0.014278993 -0.029458273 -0.057112124
0.037603214 0.077219486 -0.00028968797 -0.20937823 -0.21605486 -0.16004084 -0.06056071 -0.028228821
0.11019091 -0.0645133 -0.124936946 -0.2513264 -0.049222596 -0.19920391 -0.24268869 -0.017867696
0.06549702 0.043316886 0.04670635 -0.10494517 -0.08140902 -0.035300676 -0.17445774 0.035855275
-0.13731699 0.12939745 -0.11017257 -0.21176633 -0.042372707 -0.20032799 0.10835066 -0.17697775
-0.24639544 -0.04842629 -0.12693532 -0.13936633 0.07302284 -0.08153831 -0.22192656 -0.13125116
0.065650694 0.10584757 -0.0541739 -0.24727643 0.06524272 -0.06668318 -0.2487491 0.12794349
-0.005735406 0.13048929 -0.056954354 -0.05009516 -0.04816438 -0.0052359584 0.05475602 0.06558058
-0.13434203 -0.22487225 -0.03551797 -0.19885483 0.13179882 0.093304045 -0.031860206 -0.008879826
-0.19574934 -0.03130659 -0.05130745 -0.19872345 -0.081223235 0.12129416 -0.083609134 -0.03610244
-0.07483134 -0.0038990148 -0.17453653 -0.21446908 0.05142597 0.06450662 0.055421215 0.0834097
0.11325824 0.021422569 -0.14394015 -0.15037365 -0.18831484 0.10404942 -0.0915917 -0.06450149
-0.15926306 0.024331834 -0.19200213 0.05647647 -0.11980375 0.0686533 0.1027711 -0.16486092
0.10529237 -0.25277194 0.053332344 -0.14871211 -0.06937725 -0.029173048 -0.11880367 0.081436746
00000000: bf7a 9dbe 383f dcbd 530e cc3c ed89 06bf
00000010: d909 123b 785a dcbd d163 debf 5190 c4be
00000020: e516 4dbe 87a9 14bd 10f1 a83c 78e7 eebd
00000030: 643b e93e e32e 8abe f8da 18be e5aa a7be
00000040: 0d96 a8be e42b 1dbe 69e2 27bf f34a a7be
00000050: d4cb 12bb 3029 bc3d c81b 82bf 1169 aabd
00000060: 0d78 0fbc e953 81be 770d 473e 26a9 6cbe
00000070: 494b 7abc 1192 8abe 63ee a4be 4a08 9fbd
00000080: 2b56 e4be 1781 04be a8cf 53bf 8867 f8bd
00000090: f4fd 4bbe b639 fc3c b387 b8bf 9286 69be
000000a0: b6f3 b93d 823a 523d 89ce 523d 0f71 0b3c
000000b0: fe3d 0dbf 8e6c 3ebd f600 69be 15e4 6fbe
000000c0: f5cd 1cbf d402 8b3e 10b0 10be f9a2 b3be
000000d0: 8882 9f3d 9f48 993d 49ba 19bf 0585 debd
000000e0: 405a a5bd 9a4e f4bd c50b a03d 63b8 f0bc
000000f0: 203a 133d 6f5f 9bbe 255e ccbe c9e6 8bbe
00000100: a6df c4be 0c9e 6ebd 3806 2bbb c09d 30be
00000110: 8af3 ddbd 22d3 25bd 5d67 6fbf ae2f 62bd
00000120: 51c2 2bbd 8da7 22be b577 dbbe 9e32 97bd
00000130: 7582 3b3e 467d b1bd f70d eebe 93f9 3fbe
00000140: 9c53 a5be 9eac 51be d069 44bd f0e9 6ebe
00000150: 6c41 15be 0fb5 e7be 9419 35bf ef83 17be
00000160: 6581 ca3d 30bb 3fbe ce28 95be 3705 273d
00000170: a64b 72bc 3b0a a3be 3fc6 0abe 9de6 76ba
00000180: 1b85 f6be 90c5 6ebe 1331 4cbd 40be 42be
00000190: 8a8b 023d 78a3 06be 4b03 a9be bac0 59be
000001a0: f46f 083d ba93 00be 059b 8dbe 84f8 9dbe
000001b0: 1721 ab3e 0c99 84be ca40 d73d 8be3 d2bc
000001c0: 28d0 6bbf 92ee 453b fffd 6bbe 1752 803c
000001d0: ec2d f3be 4b84 49bf ae8a 83bf a497 dfbe
000001e0: adae 35be 12ce 3fbe 6185 9dbe 71ba 86bd
000001f0: 963f 973f 6813 72be 2461 dabe 3358 c9bd
00000200: bcfc 1bbd 6bae 543d 812c a23d cc5c 0ebe
00000210: 3da6 f9bd b0a8 10bd ddc5 3abe ac23 2f3d
00000220: dc33 253d 8a5d 7abe 9480 d7bd 434f a23b
00000230: 1327 93bd 8dc1 3f3d bdf1 73be b689 bf3d
00000240: ef6f fabd e3fd b53d b387 993a 3f0b 48be
00000250: 53a4 33be 70f2 69bc 7a52 f1bc 67ee 69bd
00000260: d405 1a3d 4025 9e3d 43e1 97b9 3f67 56be
00000270: 7c3d 5dbe bfe1 23be 820e 78bd 2140 e7bc
00000280: c6ab e13d 8d1f 84bd f1de ffbd dbad 80be
00000290: a29d 49bd 1cfc 4bbe 6283 78be 465f 92bc
000002a0: 4d23 863d 0c6d 313d 284f 3f3d 7eed d6bd
000002b0: c6b9 a6bd 7197 10bd 0da5 32be fbdc 123d
000002c0: d39c 0cbe c480 043e 28a2 e1bd 46d9 58be
000002d0: 018f 2dbd c822 4dbe f3e6 dd3d a839 35be
000002e0: 164f 7cbe a55a 46bd 55fb 01be 0cb6 0ebe
000002f0: 008d 953d 8ffd a6bd b740 63be b466 06be
00000300: df73 863d 9cc6 d83d 74e5 5dbd 0836 7dbe
00000310: fa9d 853d 3191 88bd 16b8 7ebe 9e03 033e
00000320: 13f0 bbbb fc9e 053e f848 69bd 9530 4dbd
00000330: 0348 45bd 6792 abbb d947 603d 1c4f 863d
00000340: f590 09be e944 66be 4a7b 11bd 9aa0 4bbe
00000350: 45f6 063e 3116 bf3d d97f 02bd b17c 11bc
00000360: 8472 48be 573b 00bd c327 52bd 297e 4bbe
00000370: 5e58 a6bd 1369 f83d 443b abbd 27e0 13bd
00000380: 2c41 99bd 9d86 7fbb b4b9 32be c89d 5bbe
00000390: 0aa4 523d 0c1c 843d 5b01 633d b4d2 aa3d
000003a0: f0f3 e73d 627e af3c 0c65 13be 8dfb 19be
000003b0: 9bd5 40be dd17 d53d 6e94 bbbd 5b19 84bd
000003c0: db15 23be 8e53 c73c 359c 44be df53 673d
000003d0: ab5b f5bd 1a9a 8c3d a879 d23d 4dd1 28be
000003e0: 87a3 d73d 536b 81be 0473 5a3d fd47 18be
000003f0: a915 8ebd 51fc eebc 574f f3bd 4fc8 a63d

sequential_4/dense_13/MatMul f4 [1, 32]
0.16335198 -0.10530074 0.15635163 -0.19311093 0.06274122 -0.029253261 0.16397123 -0.17178722
0.08483082 0.14342713 0.15409538 0.395743 0.012430267 0.070383966 -0.13079667 -0.148839
0.08570654 -0.2715787 0.066417985 0.1963317 0.059661336 -0.19143765 -0.10108512 0.048353206
0.03801481 -0.16335736 0.08931535 0.094640985 -0.18529738 0.031315092 -0.41728848 -0.009609567
00000000: be45 273e eaa7 d7bd a41a 203e dfbe 45be
00000010: 787e 803d 89a4 efbc 13e8 273e fde8 2fbe
00000020: c8bb ad3d 90de 123e 2ecb 1d3e d49e ca3e
00000030: 52a8 4b3c 7825 903d 90ef 05be 4069 18be
00000040: e986 af3d 5d0c 8bbe 2706 883d 2d0b 493e
00000050: 725f 743d 3b08 44be b705 cfbd 030e 463d
00000060: 6bb5 1b3d 2747 27be f7ea b63d 22d3 c13d
00000070: 99be 3dbe 4144 003d d6a6 d5be 7271 1dbc
