Riproduzione/models/FD002/LSTMsmall/MSE/lstm_small_batch_1_MSE.tflite (tflite, 238120 bytes, 29 tensors)

sequential_1/dense_3/BiasAdd/ReadVariableOp f4 [30]
0	0x3dca0789	0.098647185
1	0x3d0a1a66	0.03371658
2	0xbbcde931	-0.006283902
3	0x3dc9ec65	0.09859542
4	0x3da4fa5b	0.08055564
5	0x3dba9c6d	0.09111867
6	0x3d65a06a	0.056061186
7	0xbc2bb992	-0.010481255
8	0xbc19f9da	-0.009397948
9	0x3db1facb	0.08690413
10	0xbc1c6f33	-0.009547996
11	0x3de5d34e	0.11221944
12	0xbbf48e7e	-0.0074632755
13	0x3d356f9d	0.044295896
14	0x3d178fbf	0.03700232
15	0x3e6f1b10	0.23350167
16	0xbbdb6043	-0.006694825
17	0x3e0bfb41	0.13670065
18	0x3dbb5664	0.09147337
19	0x3d01b44c	0.031666085
20	0xbb2cc51d	-0.0026362606
21	0x3df3058d	0.11866293
22	0x3b81fc55	0.003966848
23	0xbc34bbf2	-0.011031138
24	0x3d14ba51	0.036310498
25	0x3d86c89b	0.06581231
26	0xbbf54b53	-0.007485786
27	0x3dcf9b98	0.10137099
28	0x3d78f3f4	0.060779527
29	0x3dc04b3f	0.09389352

sequential_1/dense_4/BiasAdd/ReadVariableOp f4 [15]
0	0x3f0b0f48	0.5432019
1	0x3c1e46e6	0.009660458
2	0x3dc6e88f	0.09712326
3	0x3dc1ee4f	0.09469282
4	0x3cce929f	0.025216399
5	0x3dbf0415	0.093269505
6	0x3e93a218	0.28834605
7	0x3dd8c82d	0.105850555
8	0xbd3c7262	-0.04600752
9	0x3db90f49	0.090361185
10	0x3de598d9	0.11210794
11	0x3ed8e386	0.42361087
12	0x3c8576a8	0.016291931
13	0xbd00102e	-0.03126543
14	0x3a942c2c	0.0011304668

arith.constant f4 [60, 60]
0	0xbc2a05be	-0.010377346
1	0x3de24384	0.11048034
2	0xbcfe6d3f	-0.031057952
3	0x3d3798c7	0.044823434
4	0xbd7c1fec	-0.06155388
5	0xbdbdf4a2	-0.09275176
6	0xbc765d09	-0.01503683
7	0x3ce29e3f	0.027663348
8	0xbd3e1ab3	-0.04641218
9	0xbdd56bab	-0.10420927
10	0xbc36b4cc	-0.011151504
11	0x3d647963	0.055779826
12	0xbe73c9ac	-0.238074
13	0x3e3d876a	0.18508688
14	0xbd637945	-0.055535574
15	0xbdc3ee98	-0.095669925
16	0x3d2286d1	0.039679352
17	0xbd0be928	-0.034157902
18	0x3e1a051f	0.15041016
19	0xbdc4050b	-0.09571274
20	0xbd7c5446	-0.061603807
21	0xbd8c7024	-0.068573266
22	0x3c4e6369	0.012596943
23	0xbe0225bc	-0.12709707
24	0x3d6b5e6d	0.0574631
25	0xbc67626c	-0.014122587
26	0x3d8c40db	0.06848308
27	0x3db50569	0.088389225
28	0xbddf0b72	-0.10890855
29	0x3d90cec7	0.0707069
30	0xbe15f9ea	-0.14646116
31	0xbd438f6a	-0.047744192
32	0xbdd38ca4	-0.103295594
33	0x3dca3704	0.09873775
34	0xbdc0cedb	-0.094144545
35	0x3e0334c0	0.12813091
36	0xbe3b5bcd	-0.18296738
37	0x3e424014	0.18969756
38	0x3dce7493	0.100808285
39	0x3e522392	0.20521381
40	0x3d63d43f	0.055622336
41	0x3d9b8506	0.075937316
42	0xbd4ada6b	-0.049524706
43	0xbcb3820d	-0.021912599
44	0x3d40344b	0.04692487
45	0xbe1cf6f1	-0.15328576
46	0x3da03e34	0.07824364
47	0xbdcb9b5c	-0.09941742
48	0xbcb7d54d	-0.022440577
49	0x3d3b1d9b	0.04568253
50	0x3d656185	0.056001205
51	0x3d60b4ce	0.05485993
52	0x3e501f3c	0.20324415
53	0xbcc4fa02	-0.024044994
54	0x3b571204	0.0032817135
55	0x3db7ce05	0.08974842
56	0x3d05a626	0.032629155
57	0x3caf7255	0.021416822
58	0xbd81b0e1	-0.06332565
59	0x3da42fc6	0.080169246
60	0x3cc2e060	0.023788631
61	0x3db4eb6e	0.08833967
62	0xbee47a1c	-0.44624412
63	0x3e30a6b7	0.17251097
64	0x3dd61306	0.10452847
65	0x3d9de9f4	0.07710639
66	0xbf050ae6	-0.51969755
67	0x3e6fb453	0.23408632
68	0xbe8336a3	-0.25627622
69	0x3de49d72	0.11162843
70	0xbd0f2f03	-0.034956943
71	0xbd07a620	-0.033117414
72	0xbdd41217	-0.10355013
73	0xbc47210e	-0.012153877
74	0xbd26a01a	-0.04068003
75	0xbca15c56	-0.01969735
76	0x3d300fef	0.042983945
77	0xbed5c009	-0.41748074
78	0x3e99367f	0.2992439
79	0xbae46d19	-0.0017427533
80	0x3de3ae54	0.11117235
81	0x3e0a0be0	0.13481092
82	0xbdad065f	-0.08448481
83	0xbc4e3ea4	-0.012588177
84	0xbdc1a59b	-0.09455415
85	0xbe2571e9	-0.16156735
86	0x3d8ccb2f	0.06874692
87	0xbd78b74a	-0.060721673
88	0x3da7b2e5	0.08188418
89	0x3e36f95c	0.1786856
90	0xbe8bf31c	-0.27333915
91	0xbe7a9925	-0.24472483
92	0x3d79eab0	0.06101483
93	0x3d3b98eb	0.04580013
94	0xbded2361	-0.115790136
95	0xbe4aba75	-0.1979769
96	0xbcc319af	-0.023815958
97	0xbe3e2485	-0.18568619
98	0x3e215da4	0.15758377
99	0xbdecdc4d	-0.115654565
100	0x3d542f2b	0.051802795
101	0x3e82058b	0.25394854
102	0x3d5d3565	0.054006
103	0xbd547ebb	-0.051878672
104	0x3e41b5b1	0.18916966
105	0xbcc26b4e	-0.023732807
106	0x3e1ed24b	0.15509908
107	0x3e23dd35	0.16002353
108	0x3e54e3d4	0.20790035
109	0xbb55010d	-0.0032501847
110	0xbb933ef6	-0.0044935895
111	0x3ea5c934	0.32380068
112	0x3e7124b6	0.2354916
113	0x3cc9d43c	0.024637334
114	0xbe4e9719	-0.20174827
115	0xbba2af65	-0.0049647563
116	0x3c0fa20b	0.008766661
117	0x3e906fc6	0.28210276
118	0xba5d7c38	-0.0008448991
119	0xbd7ba27d	-0.061434258
120	0x3d150cb5	0.03638907
121	0x3e423e32	0.18969038
122	0x3eb3fa47	0.35151884
123	0xbe618931	-0.2202499
124	0x3ededb93	0.43526897
125	0xbefa97a6	-0.48943824
126	0x3e7ec248	0.248788
127	0xbe8c2fc9	-0.27380207
128	0xbea0e74c	-0.31426466
129	0x3cbece5b	0.023291757
130	0x3b437d6d	0.0029829398
131	0x3d8321ef	0.06402957
132	0xbe7a66be	-0.24453256
133	0x3de22bfd	0.11043546
134	0xbecb97a9	-0.39764145
135	0xbd8ef1a0	-0.0697968
136	0xbe3552dc	-0.1770739
137	0xbe4cc6da	-0.19997731
138	0x3d4a7742	0.04943014
139	0xbe4c288f	-0.19937347
140	0xbe7a6a99	-0.24454726
141	0xbdd72f1f	-0.105070345
142	0xbdbd8670	-0.092541575
143	0x3cc365d4	0.023852266
144	0xbe0b0205	-0.13574989
145	0x3e9a9903	0.30194864
146	0x3ee21775	0.4415852
147	0x3e1e7b8d	0.15476818
148	0xbe8ac583	-0.27103814
149	0x3e85eb44	0.26156056
150	0x3d578fe1	0.052627448
151	0xbe87ca61	-0.2652159
152	0x3e9f58ad	0.31122342
153	0x3e251bd5	0.16123898
154	0xbe2369c6	-0.15958318
155	0x3ef0acbb	0.47006783
156	0x3ec565a2	0.38554102
157	0xbd60c994	-0.05487974
158	0xbdd5eb64	-0.10445288
159	0x3ed7ad9b	0.42124638
160	0xbeb5112f	-0.35364673
161	0xbd7cbb83	-0.061702263
162	0xbe3bdbe9	-0.18345608
163	0xbe31e76a	-0.17373434
164	0xbd00cb68	-0.031443983
165	0xbede1481	-0.43375018
166	0x3ebf30de	0.3734197
167	0xbbac4c9c	-0.005258156
168	0x3e6c8546	0.23097715
169	0x3e03b1ed	0.12860842
170	0xbd8dd3d9	-0.06925172
171	0xbeadef98	-0.33971858
172	0x3ce1f7ee	0.027584042
173	0xbeb6d264	-0.3570739
174	0xbe40779c	-0.18795627
175	0x3e6044c2	0.21901229
176	0x3e1e7d83	0.15477566
177	0xbe69bb55	-0.22825368
178	0xbe8b2fb1	-0.27184823
179	0xbe514d72	-0.204397
180	0x3e41799a	0.18894044
181	0xbcfae2c2	-0.030625705
182	0xbdaa2ec7	-0.08309703
183	0x3e87d566	0.26529998
184	0x3f15562b	0.58334607
185	0xbd63baa4	-0.055597916
186	0xbf2f5611	-0.684907
187	0xbef3b97a	-0.47602445
188	0x3e22a1a9	0.15881981
189	0x3da8dade	0.082448706
190	0x3cf0a56c	0.029375754
191	0xbeca10e2	-0.39466006
192	0xbd896431	-0.06708563
193	0x3f33c663	0.7022459
194	0xbe069346	-0.13142118
195	0xbe484064	-0.19555813
196	0xbdbd8cf8	-0.09255403
197	0xbd95f715	-0.07322518
198	0x3e99793e	0.29975313
199	0xbec2cc09	-0.3804629
200	0x3e3d563a	0.18489924
201	0x3f1c755f	0.61116594
202	0xbeafb316	-0.3431632
203	0x3ea651d3	0.32484302
204	0x3e67081a	0.22561684
205	0xbc654129	-0.013992586
206	0x3efef3b5	0.4979531
207	0x3eb6ce9d	0.35704508
208	0xbe1a3170	-0.15057921
209	0x3e700d25	0.23442514
210	0xbe97f6af	-0.29680392
211	0xbf26e4c5	-0.65192825
212	0x3e4ef239	0.20209588
213	0x3de5ea47	0.112263255
214	0xbeca4e72	-0.39512974
215	0x3ecb74b7	0.39737484
216	0xbef0afe0	-0.47009182
217	0x3e502dd5	0.20329984
218	0x3e00b67d	0.12569614
219	0x3df33bd3	0.11876645
220	0xbf4a495f	-0.79018205
221	0x3d8de4cb	0.069284044
222	0x3e3e4dbb	0.1858434
223	0xbe861b56	-0.2619273
224	0xbca0bec3	-0.019622212
225	0xbf0d2193	-0.55129355
226	0x3e0bf21b	0.13666575
227	0x3e699d3b	0.22813885
228	0xbe1d527c	-0.15363497
229	0x3dbcb1e8	0.092136204
230	0xbe09c653	-0.13454561
231	0xbd83aada	-0.06429072
232	0xbd99688b	-0.07490643
233	0xbec77bbb	-0.38961586
234	0xbc5c50d7	-0.013447008
235	0x3e1804ba	0.14845553
236	0x3e970669	0.29497078
237	0xbe221304	-0.15827566
238	0x3e9c9498	0.30582118
239	0x3d031f41	0.032012228
240	0x3dcb4cc9	0.09926755
241	0xbe50aecb	-0.20379178
242	0xbea7e00a	-0.32788116
243	0x3d3c564d	0.04598074
244	0x3edb426b	0.4282411
245	0x3cfa06a3	0.030520743
246	0xbd82ecb5	-0.063928045
247	0xbdb43359	-0.08798856
248	0x3d071f01	0.032988552
249	0x3e5ea650	0.2174313
250	0x3db74897	0.08949392
251	0xbe839a8e	-0.25703853
252	0xbec28eff	-0.37999722
253	0xbc1c869a	-0.009553576
254	0x3d481cdd	0.04885565
255	0x3e7339d6	0.23752531

arith.constant1 f4 [60, 60]
0	0xbcae4ed7	-0.021277828
1	0x3dfe51f9	0.12417979
2	0xbe0bd901	-0.13656999
3	0x3d8a1db3	0.06743946
4	0xbc6e4987	-0.0145438975
5	0xbd85d3d3	-0.06534543
6	0x3c05a07b	0.008155937
7	0xbd5069f6	-0.050882302
8	0xbc9c5fb9	-0.019088613
9	0x3e166ac6	0.14689168
10	0xbc964d25	-0.018347332
11	0x3d8621a9	0.06549389
12	0xbd85970d	-0.06522951
13	0x3c16f60d	0.0092139365
14	0xbe0555a6	-0.13020954
15	0x3d1935b7	0.037404742
16	0x3e67c26c	0.2263276
17	0xba4152d5	-0.00073747087
18	0x3e5111a0	0.2041688
19	0xbd21cfd7	-0.039504852
20	0xbd575093	-0.052567076
21	0xbd86db3d	-0.06584785
22	0x3e0bd086	0.13653764
23	0x3d4099b1	0.04702157
24	0x3dc61044	0.09671071
25	0xbcf704c7	-0.030153645
26	0x3e06d9e7	0.1316906
27	0xbc3b6b53	-0.011439162
28	0xbdb27be8	-0.087150395
29	0xbd3e9ac1	-0.046534304
30	0xbbb7ca0e	-0.0056088036
31	0xbe046c85	-0.12932022
32	0xbda1b273	-0.078953646
33	0x3c9b0c62	0.018926803
34	0xbd05bae4	-0.032648936
35	0x3c72648e	0.014794482
36	0xbdfd546d	-0.123696186
37	0xbcf9cd29	-0.030493336
38	0x3d64136f	0.055682596
39	0x3d14fbbf	0.036372896
40	0xbdeddd73	-0.11614504
41	0x3d0e754f	0.034779843
42	0xbde229c4	-0.110431224
43	0x3dc45e25	0.09588269
44	0xbd567afe	-0.05236339
45	0xbd0a0b13	-0.033701967
46	0xbda82f92	-0.08212198
47	0x3cb54262	0.02212638
48	0xbcd1abb7	-0.025594575
49	0x3e0d1380	0.1377697
50	0xbcf581e6	-0.029969167
51	0x3e01c52a	0.12672868
52	0x3dad1dc1	0.08452941
53	0x3e147b6c	0.14500207
54	0x3d265dd2	0.040616818
55	0x3e8092f1	0.25112107
56	0x3c569b38	0.0130985305
57	0x3d475b5d	0.048671115
58	0xbdf67d5f	-0.120356314
59	0x3c6e5f01	0.014549018
60	0x3be1e750	0.0068940297
61	0x3e756d7f	0.2396755
62	0xbdf4f55d	-0.11960862
63	0xbe5d4a11	-0.21610285
64	0xbea33e22	-0.3188334
65	0x3bf332bd	0.00742182
66	0xbd5d188b	-0.053978484
67	0xbc7a0553	-0.015260058
68	0xbe512238	-0.2042321
69	0x3df321e8	0.118717015
70	0xbd2fca5a	-0.042917587
71	0x3dd490b0	0.103791595
72	0xbe86d8b5	-0.2633721
73	0x3ddb35e7	0.107036404
74	0xbdc6964a	-0.09696634
75	0x3dd7c2e4	0.10535219
76	0xbe283ddb	-0.16429846
77	0xbe7815c1	-0.24227048
78	0x3deebc9b	0.116570674
79	0x3e2e0ad2	0.16996315
80	0x3dcfbce3	0.10143449
81	0x3e326db9	0.17424668
82	0xbe188fd6	-0.14898619
83	0xbd28e7bd	-0.041236628
84	0x3d030f9c	0.031997308
85	0xbe5763e7	-0.21034203
86	0x3dc369ab	0.09541639
87	0x3d413c68	0.04717675
88	0xbe2c7b67	-0.1684395
89	0x3def7eb3	0.11694088
90	0xbd1606b1	-0.036627475
91	0x3d924c72	0.07143487
92	0x3e11c8e0	0.14236784
93	0x3da93277	0.082615785
94	0xbe812335	-0.25222173
95	0x3e075177	0.1321467
96	0xbd8bb7d2	-0.0682217
97	0xbed69057	-0.41906998
98	0x3cc84746	0.024448048
99	0x3ec7a6a9	0.3899434
100	0xbe5935d4	-0.2121194
101	0x3e21a344	0.15784937
102	0xbe4ad403	-0.19807439
103	0x3d91aabb	0.071126424
104	0x3d6688c6	0.05628278
105	0xbdda40ca	-0.10656889
106	0xbea35b29	-0.31905487
107	0x3c7975bb	0.015225823
108	0x3d893aa3	0.06700637
109	0x3df5a86e	0.11995016
110	0x3c86eb4a	0.016469616
111	0x3e1e8bd6	0.1548303
112	0x3d9fa886	0.07795815
113	0xbea61503	-0.32437906
114	0xbe9792be	-0.29604143
115	0xbde5e28a	-0.112248495
116	0x3dd6f3e6	0.10495739
117	0xbea57635	-0.32316747
118	0xbd20ad13	-0.039227556
119	0xbe39e390	-0.18153214
120	0xbc4571cb	-0.012051056
121	0x3d85144d	0.06498013
122	0xbd8f589b	-0.06999322
123	0x3e301370	0.17194915
124	0x3e423245	0.18964489
125	0xbd8cc410	-0.068733335
126	0xbe1a1d8d	-0.15050335
127	0xbcbe7e03	-0.023253446
128	0x3dedce14	0.11611572
129	0xbe06665e	-0.13124987
130	0x3df8d421	0.121498354
131	0x3d0c8969	0.034310732
132	0xbdadb594	-0.08481899
133	0xbe839e93	-0.2570692
134	0xbdb40a4c	-0.087910265
135	0xbe871756	-0.2638499
136	0x3da9c1c3	0.0828891
137	0xbe06f43f	-0.1317911
138	0x3e184be5	0.14872701
139	0xbdd3a4dd	-0.103341796
140	0xbb22055e	-0.0024722437
141	0xbd95647f	-0.07294559
142	0xbe2d9e4f	-0.16954921
143	0xbe47650f	-0.19472145
144	0x3dfb3dc7	0.122676425
145	0x3e54debb	0.2078809
146	0x3c82e139	0.015976535
147	0x3c7a03d1	0.015259699
148	0x3ddf53ef	0.10904681
149	0xbdd02b7e	-0.101645455
150	0xbe1068b9	-0.14102449
151	0xbdbdde5c	-0.09270927
152	0xbd1adaa4	-0.03780617
153	0x3dcc3b2a	0.09972222
154	0xbca83500	-0.020533085
155	0xbe21471e	-0.15749785
156	0x3ea18216	0.3154456
157	0xbe14cc79	-0.14531125
158	0xbe0ca274	-0.13733846
159	0xbc4e8580	-0.012605071
160	0x3c5cd687	0.013478882
161	0x3e1792ca	0.1480209
162	0x3d4c73b8	0.049915045
163	0xbdb86067	-0.09002762
164	0xbd674ff9	-0.056472752
165	0xbdd990c0	-0.10623312
166	0xbe626d3f	-0.22111987
167	0x3d9cf983	0.07664778
168	0x3d2f46c4	0.042792097
169	0x3e79db36	0.24400029
170	0xbed40e2b	-0.4141706
171	0x3df8dafa	0.121511415
172	0xbe052d5e	-0.13005587
173	0xbd9d4a33	-0.07680168
174	0x3d2b19e5	0.04177274
175	0x3d4a6a94	0.049418047
176	0xbd8a3276	-0.06747906
177	0xbe0ecd38	-0.13945472
178	0xbe5c49a7	-0.21512471
179	0x3e1bca5d	0.15213914
180	0xbe2523d0	-0.16126943
181	0xbdaef21d	-0.08542273
182	0xbd9de288	-0.07709223
183	0xbc20e6b5	-0.00982063
184	0x3edc5091	0.43030217
185	0xbd1b3211	-0.037889544
186	0xbe837a8a	-0.25679427
187	0xbe072fd7	-0.13201843
188	0xbdce5cd1	-0.10076297
189	0xbf061450	-0.52374744
190	0x3e2d5802	0.16928104
191	0x3d5061b1	0.050874416
192	0xbdfce562	-0.12348439
193	0xbd5f3ebc	-0.054503188
194	0xbe5d44b9	-0.21608247
195	0xbec81698	-0.39079738
196	0x3e14374f	0.14474224
197	0xbdbad048	-0.09121758
198	0x3ed546ec	0.41655672
199	0x3e1fb6a9	0.15597023
200	0xbebeec7a	-0.37289792
201	0xbd1d8a15	-0.038461763
202	0xbde5064d	-0.111828424
203	0x3e79c610	0.24391961
204	0x3ea26d78	0.31724143
205	0xbe8af779	-0.27141932
206	0x3d8dc360	0.069220304
207	0x3dd5d2e9	0.104406185
208	0x3b92435b	0.004463596
209	0xbdfafdbf	-0.122554295
210	0x3e9c5fd0	0.3054185
211	0xbdac38c9	-0.084092684
212	0x3dcf45b8	0.1012072
213	0x3eb31d1a	0.3498314
214	0xbe1f28a7	-0.15542851
215	0x3e4cff4b	0.20019262
216	0xbe5df3a6	-0.21674976
217	0xbdc2d786	-0.09513764
218	0x3ccccda2	0.025000397
219	0x3e9a3643	0.30119523
220	0xbe6d1a2e	-0.23154518
221	0x3e668d2c	0.2251479
222	0x3dbb3796	0.091414616
223	0x3e1c9117	0.15289722
224	0xbdab05dc	-0.08350727
225	0x38f1bed6	0.000115273215
226	0xbeb8cb1a	-0.36092454
227	0xbe7f40ed	-0.24927111
228	0x3e6d2359	0.23158015
229	0x3e6ebf01	0.2331505
230	0x3dbe1194	0.092806965
231	0x3d9a9c4e	0.07549344
232	0x3eaf1c65	0.3420135
233	0x3c38e844	0.011285845
234	0x3e06b96f	0.13156675
235	0x3e84e7cb	0.25958094
236	0x3d67e275	0.05661245
237	0xbefcbcb3	-0.49362716
238	0x3dd8dd99	0.105891414
239	0xbe374aa7	-0.17899571
240	0xbdd850ef	-0.10562312
241	0xbe464735	-0.19363101
242	0xbe981ddd	-0.29710284
243	0xbd9a51ba	-0.07535119
244	0x3df701b8	0.12060875
245	0x3e08bb6d	0.13352747
246	0x3da6fe7f	0.0815401
247	0xbdc0c77b	-0.09413048
248	0xbd83ec54	-0.064415604
249	0xbd574ed0	-0.052565396
250	0xbe3ea9d9	-0.18619479
251	0x3e667b43	0.22507958
252	0x3ea8ee62	0.32994372
253	0xbe7425d1	-0.23842551
254	0x3e526590	0.20546556
255	0xbd7554d1	-0.05989534

arith.constant2 f4 [60, 60]
0	0x3cbf03ba	0.023317207
1	0x3d8e351b	0.06943723
2	0xbd6d55e4	-0.05794324
3	0xbd8d8508	-0.06910139
4	0x3c34515c	0.011005726
5	0xbdc0020c	-0.093753904
6	0xbd6d1e66	-0.05789032
7	0x3d09b9ae	0.033624344
8	0xbc58b977	-0.013227812
9	0xbe11e8bd	-0.14248939
10	0xbd6a81c4	-0.05725266
11	0x3cb1d26e	0.021706786
12	0xbdd42237	-0.103580885
13	0x3d112d10	0.035443366
14	0xbdc62530	-0.09675062
15	0x3d90db5a	0.07073088
16	0x3d2d1072	0.04225201
17	0x3d5f8649	0.054571424
18	0x3d5f0445	0.05444743
19	0xbaeb739d	-0.0017963533
20	0xbdbe32cb	-0.09287032
21	0xbe08d74b	-0.13363378
22	0xbde6765a	-0.112530425
23	0x3dfab4c5	0.1224151
24	0x3c6aec25	0.014338528
25	0xbd783e56	-0.060606323
26	0x3d41b59d	0.04729234
27	0x3d54a5cc	0.05191593
28	0x3af48e10	0.001865806
29	0xbd72e852	-0.05930359
30	0xbd595c2f	-0.05306643
31	0xbd99e046	-0.0751348
32	0x3d27598d	0.040856887
33	0x3e0743e7	0.13209496
34	0xbde93095	-0.113862194
35	0xbc134ec7	-0.00899095
36	0x3d3f3e6e	0.046690397
37	0x3da15ae3	0.078786634
38	0xbc095c34	-0.008383799
39	0xbd4cc982	-0.04999686
40	0x3e114083	0.14184766
41	0x3e1f009f	0.1552758
42	0xbbcd3c23	-0.0062632724
43	0xbe2d520b	-0.16925828
44	0xbd1cf1b7	-0.038316455
45	0x3cd7beec	0.026336156
46	0x3dc8ada0	0.09798741
47	0xbdc7270e	-0.09724246
48	0x3e766483	0.2406178
49	0x3da8821b	0.08227941
50	0xbd53bbb0	-0.051692665
51	0xbdfce31e	-0.12348007
52	0xbe113e18	-0.14183843
53	0xbcc8c157	-0.024506254
54	0x3d4a425b	0.049379688
55	0x3e09661b	0.13417856
56	0x3e7876c2	0.24264053
57	0xbda908c9	-0.08253629
58	0xbe1a27b9	-0.15054215
59	0xbd2da004	-0.04238893
60	0xbd9c6906	-0.07637219
61	0xbbf56f47	-0.007490072
62	0xbda14796	-0.07874982
63	0xbe225ac1	-0.15854932
64	0xbda72044	-0.08160451
65	0xbd36a5e8	-0.044591814
66	0xbe10f4b7	-0.14155851
67	0x3d728c5c	0.05921589
68	0xbd2e1278	-0.042498082
69	0x3e5cca2e	0.215615
70	0x3e5d60ed	0.21619006
71	0xbd65a611	-0.056066576
72	0x3e1f0325	0.15528543
73	0x3cbcc931	0.023045154
74	0xbdfa48d8	-0.12220925
75	0xbd176432	-0.036960788
76	0xbda09101	-0.07840157
77	0xbdae9214	-0.08523956
78	0x3e390ddb	0.18071692
79	0x3d835bc9	0.06413991
80	0xbba6591a	-0.0050765397
81	0xbdf7ffc1	-0.12109328
82	0x3dca3683	0.098736785
83	0xbd46d1df	-0.048539992
84	0xbde5fa1c	-0.11229345
85	0xbcc583d6	-0.024110716
86	0x3dc65347	0.09683853
87	0x3d238a5e	0.03992688
88	0xbda69900	-0.08134651
89	0xbdb2b28a	-0.0872546
90	0x3d939b18	0.07207316
91	0x3dc74997	0.09730833
92	0x3df58fc9	0.119903155
93	0xbde7d30d	-0.113195516
94	0xbe1b80e0	-0.1518588
95	0xbdcad9db	-0.09904834
96	0x3da97676	0.08274548
97	0x3de3f228	0.11130172
98	0xbc905be0	-0.017621934
99	0x3bdb4229	0.0066912365
100	0xbaa39bff	-0.0012482404
101	0xbd9d3d6b	-0.0767773
102	0xbd30f326	-0.043200634
103	0x3d6884e1	0.05676735
104	0xbe0011bd	-0.12506767
105	0xbc93a856	-0.018024605
106	0xbd3aad37	-0.045575347
107	0x3c76d3d6	0.015065154
108	0x3dbc5c54	0.09197298
109	0xbd4016f2	-0.046896882
110	0xbd9080aa	-0.07055791
111	0x3d5ddaa2	0.054163583
112	0xbd896563	-0.06708791
113	0x3e1942b5	0.14966853
114	0xbd801e53	-0.06255784
115	0xbca7e823	-0.020496434
116	0xbdc732c7	-0.09726482
117	0xbe42c736	-0.19021305
118	0x3d21aace	0.039469533
119	0x3cf6d0d3	0.030128872
120	0x3df9d62d	0.12199054
121	0xb99c371b	-0.00029795695
122	0xbd606a1c	-0.054788694
123	0xbe071877	-0.13192926
124	0xbdd5e121	-0.104433306
125	0xbcb30587	-0.021853222
126	0x3dfae794	0.12251201
127	0xbd22c6e2	-0.03974045
128	0xbbd45ea9	-0.006481011
129	0xbd7a10c9	-0.061051164
130	0x3d26637b	0.040622216
131	0xbdb2d71e	-0.087324366
132	0x3c2fdbd2	0.010733562
133	0xbd6a7732	-0.05724258
134	0x3dea878d	0.114516355
135	0x3c0ee7f6	0.008722296
136	0xbd6cecd9	-0.057843063
137	0x3da50354	0.080572754
138	0xbd2de2dc	-0.042452678
139	0xbcaf6568	-0.021410659
140	0xbd24b80a	-0.040214576
141	0xbd964022	-0.07336451
142	0x3d57861e	0.05261814
143	0xbdfaa2ed	-0.12238107
144	0x3b667526	0.003516504
145	0xbc6f047a	-0.01458847
146	0xbc033688	-0.008008607
147	0xbd5c0bb7	-0.05372211
148	0x3e09cd8d	0.13457318
149	0x3cc0db64	0.023542114
150	0x3dea7b50	0.11449301
151	0xbd684f47	-0.05671623
152	0xbb2ab7f1	-0.002604958
153	0x3e243947	0.16037475
154	0x3da7a5bf	0.081859104
155	0xbdcfe6dc	-0.10151455
156	0xbd0b15c9	-0.033956323
157	0x3de1c494	0.110238224
158	0x3bcd3888	0.0062628426
159	0xbd81af82	-0.063323036
160	0x3d7452cc	0.059649274
161	0xbc90c1cd	-0.017670536
162	0xbd947006	-0.07247929
163	0x3ce688e6	0.02814145
164	0xbd2e1218	-0.042497724
165	0xbbc0c1f0	-0.005882494
166	0xbd4571d5	-0.04820426
167	0xbd8fcdcb	-0.07021674
168	0xbb8d1ee9	-0.0043066633
169	0xbda0b507	-0.07847028
170	0xbe1b35b1	-0.151572
171	0x3ce14b43	0.027501708
172	0x3dc73930	0.097277045
173	0xbc32ae0a	-0.010905752
174	0xbbf36c88	-0.0074287094
175	0x3d8820f3	0.066469096
176	0xbdbeaf0c	-0.09310731
177	0x3d6fa253	0.058504414
178	0xbbd299f0	-0.006427042
179	0x3dd99bae	0.10625397
180	0x3d85c06a	0.06530841
181	0x3cbc5d6e	0.02299377
182	0x3dc8d143	0.098055385
183	0x3e2dacc6	0.16960439
184	0x3db21912	0.08696188
185	0xbc113598	-0.008862875
186	0x3d6b0c86	0.05738499
187	0x3dfa1b00	0.12212181
188	0xbe07b630	-0.13253093
189	0xbe3cbc5b	-0.18431227
190	0xbe2c8c20	-0.16850328
191	0xbd62c48c	-0.055363223
192	0x3dae58f7	0.085130624
193	0xbd3af38b	-0.045642417
194	0xbca97f1d	-0.020690495
195	0x3e5e6671	0.21718766
196	0x3d274867	0.040840533
197	0x3c51d523	0.012807163
198	0x3e23f3fa	0.16011038
199	0x3cdafef7	0.026732905
200	0x3cfe70c3	0.031059628
201	0x3ccf7061	0.025322141
202	0xbd2afa74	-0.041742757
203	0x3da56cc0	0.08077383
204	0x3d8ba611	0.06818784
205	0xbd4d5982	-0.05013419
206	0xbe19504b	-0.14972036
207	0xbd85ab77	-0.06526845
208	0x3bdcd98c	0.006739801
209	0xbd0518c5	-0.032494325
210	0x3e18147e	0.14851567
211	0xbc7ab53b	-0.015301998
212	0xbc609e65	-0.013709639
213	0x3d87f1b1	0.06637896
214	0x3d8f5279	0.06998152
215	0x3cf99165	0.030464837
216	0xbd181a42	-0.037134416
217	0x3decef51	0.115690835
218	0x3c2a2ff0	0.010387406
219	0x3cb6dbe0	0.022321641
220	0x3c8f1225	0.017464707
221	0x3d9088ab	0.07057317
222	0x3c9cf805	0.019161234
223	0x3da9db15	0.0829374
224	0x3d9df718	0.07713145
225	0xbd3e3e09	-0.04644588
226	0xbd8dc7a0	-0.06922841
227	0x3c662097	0.014045856
228	0x3d720c43	0.059093725
229	0x3d9712fb	0.07376667
230	0xbd5a1bd5	-0.0532492
231	0xbd7315ba	-0.059346892
232	0x3db4f4f1	0.08835781
233	0xbc20b80e	-0.009809507
234	0x3ceb3902	0.028713707
235	0xb91f0c15	-0.00015167923
236	0xb9f156c4	-0.00046031747
237	0xbc90ac6e	-0.017660346
238	0x3c756455	0.014977534
239	0x3d452eeb	0.048140448
240	0xbe3c3e76	-0.18383202
241	0x3da1752f	0.07883679
242	0x3d195a7b	0.037439805
243	0x3b242465	0.0025046107
244	0xbca42557	-0.020037336
245	0x3ca00120	0.019531786
246	0x3a2ffa1f	0.0006712991
247	0xbde96465	-0.11396102
248	0xbdb59a13	-0.08867278
249	0x3e7d7480	0.24751472
250	0x3df011a2	0.11722113
251	0x3b6685ee	0.0035175043
252	0xbc12da7c	-0.008963224
253	0x3e55fca7	0.2089716
254	0xbd646bf0	-0.055767
255	0xbd80166c	-0.06254277

arith.constant3 f4 [60, 60]
0	0xbde70356	-0.11279933
1	0xbd43bbe0	-0.047786593
2	0xbc30de1e	-0.010795144
3	0x3cae1e35	0.021254638
4	0xbda66078	-0.08123869
5	0x3df538ba	0.1197371
6	0xbcecba71	-0.028897496
7	0x3d1fdd85	0.039029617
8	0xbd519c98	-0.05117473
9	0xbdcbda97	-0.09953802
10	0xbd27ae69	-0.040937815
11	0xbc859708	-0.016307369
12	0x3bde9337	0.0067924517
13	0x3dfef4ab	0.124490105
14	0x3ca80e10	0.020514518
15	0xbd7d0ab5	-0.06177779
16	0x3c9a9347	0.018869055
17	0x3c6b76c0	0.014371574
18	0x3e4d66ff	0.20058821
19	0xbe26834c	-0.16261023
20	0xbcc71dd1	-0.02430621
21	0x3d0c9da3	0.03433002
22	0xbe03f9a2	-0.12888196
23	0xbd94ab2f	-0.07259213
24	0x3dfd6425	0.12372617
25	0xbdb36385	-0.08759216
26	0x3da81c0f	0.08208477
27	0x3c1d6a2d	0.009607834
28	0xbe3e5e47	-0.18590651
29	0x3ca89f47	0.020583762
30	0xbdcc9457	-0.09989231
31	0x3da137bb	0.07871958
32	0xbc80dff8	-0.015731797
33	0xbda5faa4	-0.081044465
34	0xbd0e9865	-0.034813304
35	0x3b8802f6	0.0041507436
36	0xbc136514	-0.008996267
37	0xbd3c2a7e	-0.04593896
38	0x3d508763	0.050910365
39	0x3d09c6ad	0.033636738
40	0xbda6b14b	-0.08139285
41	0xbd2fe20b	-0.04294018
42	0xbe52bae9	-0.20579113
43	0xbc278e17	-0.010226748
44	0x3d3113b0	0.043231666
45	0xbd8bc900	-0.06825447
46	0xbdca9dd8	-0.098933876
47	0xbdfbd6a6	-0.122968
48	0x3df3c425	0.11902646
49	0x3d249082	0.040176876
50	0xbe14abfa	-0.14518729
51	0x3e1d32f5	0.1535147
52	0x3df0379a	0.11729355
53	0xbc218dc2	-0.009860458
54	0xbdcb1e54	-0.09917894
55	0x3bb191a9	0.0054189754
56	0x3dc97be6	0.09838085
57	0xbda65648	-0.081219256
58	0xbdc2f4d9	-0.09519357
59	0x3b1a1c9c	0.0023515588
60	0x3ea97402	0.3309632
61	0x3de72047	0.11285453
62	0xbdcecdeb	-0.100978695
63	0x3ca493d7	0.020090027
64	0xbe4ba42e	-0.19886848
65	0xbd261710	-0.040549338
66	0xbe7a521d	-0.24445386
67	0xbe5360b9	-0.20642366
68	0xbc9c8936	-0.019108396
69	0x3da6c216	0.08142488
70	0xbe86a24f	-0.26295707
71	0x3ddb52f5	0.10709182
72	0xbdd98a05	-0.10622028
73	0x3f08b50f	0.53401273
74	0xbe8132da	-0.2523411
75	0xbe21afe9	-0.1578976
76	0xbe1cc290	-0.15308595
77	0xbe1ab681	-0.15108682
78	0xbd59abae	-0.053142242
79	0x3e808644	0.25102437
80	0x3e51bb70	0.20481658
81	0x3e0e8b3f	0.13920306
82	0xbe368f10	-0.17828012
83	0x3e4bfe93	0.19921331
84	0x3eb3cc6d	0.35116902
85	0xbe9a149d	-0.30093852
86	0x3e43d04c	0.19122428
87	0x3dfbaa22	0.1228831
88	0xbe388285	-0.18018539
89	0x3e873bfb	0.2641295
90	0xbe12722c	-0.14301366
91	0xbe851f6a	-0.2600053
92	0x3ed832f7	0.42226383
93	0x3e95e82b	0.29278693
94	0xbe474ac2	-0.19462112
95	0x3eacd923	0.33759412
96	0xbea4dbb1	-0.3219886
97	0xbe249eab	-0.16076152
98	0x3d7bffb9	0.061523173
99	0x3db2cfbe	0.0873103
100	0xbeafdc06	-0.34347552
101	0x3de25be7	0.11052685
102	0x3d2eb2ba	0.042650916
103	0xbd671b47	-0.056422498
104	0x3db1d606	0.086834
105	0xbe6dbb52	-0.23215988
106	0x3c1299b6	0.00894778
107	0xbe7fc2ad	-0.24976607
108	0xbdf59daa	-0.11992963
109	0x3e7350d1	0.23761298
110	0xbd7d045c	-0.061771736
111	0x3c94c541	0.018160464
112	0x3dc8bb64	0.09801367
113	0xbeac4ab8	-0.33650756
114	0xbd5b6fec	-0.053573534
115	0xbe074b09	-0.13212217
116	0x3e5b530d	0.214184
117	0xbd020304	-0.031741157
118	0x3b99bb17	0.0046914923
119	0x3cf35eb1	0.029708238
120	0x3d694cf9	0.056958172
121	0xbbb39fab	-0.0054816804
122	0x3d969814	0.07353225
123	0xbd46c959	-0.048531864
124	0x3d2a7482	0.041615017
125	0xbe807d18	-0.2509544
126	0xbd1a482f	-0.037666496
127	0xbafad5ff	-0.0019137262
128	0xbd31ac5a	-0.043377258
129	0xbd37e411	-0.044895235
130	0xbde99dd3	-0.11407056
131	0x3baab042	0.005209
132	0xbe35ca8a	-0.17753044
133	0xbd2d0324	-0.042239323
134	0xbe679cde	-0.22618434
135	0xbe316db6	-0.17327008
136	0xbbf1ed73	-0.0073830425
137	0xbe2528e5	-0.16128881
138	0x3d052747	0.03250816
139	0xbe02707e	-0.12738225
140	0xbd66c390	-0.056338847
141	0x3e4aeef1	0.19817711
142	0xbc614384	-0.013749007
143	0xbdb4859f	-0.08814549
144	0x3e05113a	0.12994853
145	0x3e1ce329	0.1532103
146	0x3e020a76	0.12699303
147	0x3eafbdbf	0.34324452
148	0xbdfe736f	-0.12424361
149	0xbd3b4e1a	-0.04572878
150	0xbe0ea0f8	-0.13928592
151	0x3d9d3e9f	0.0767796
152	0x3e8258b8	0.25458312
153	0x3d95d6f9	0.073163934
154	0xbdc10860	-0.094254255
155	0x3d3bbbf1	0.04583353
156	0x3e4b509a	0.19854966
157	0x3e6b2c48	0.2296611
158	0x3d641fe7	0.055694487
159	0x3e605d80	0.21910667
160	0xbe1d7d73	-0.15379886
161	0xbccf1ed1	-0.02528325
162	0x3d6ebb9b	0.058284383
163	0xbe9d46f0	-0.30718184
164	0xbe542a8d	-0.20719357
165	0xbe2bcdf2	-0.1677778
166	0xbc340627	-0.010987795
167	0xb979a60a	-0.00023808345
168	0x3e9ff18f	0.31238982
169	0x3ea4376e	0.3207354
170	0xbe7276eb	-0.23678176
171	0x3e4201bf	0.18945979
172	0x3d64e48e	0.05588203
173	0xbe9701a4	-0.2949344
174	0xbdf83b6a	-0.12120707
175	0x3dc2d7d8	0.09513825
176	0x3d773716	0.06035527
177	0xbe2316ca	-0.15926662
178	0x3c1dd5c2	0.009633483
179	0xbd401e64	-0.046903983
180	0x3dda49e2	0.10658623
181	0xbe9c576e	-0.30535454
182	0x3d4e1d01	0.05032063
183	0x3e8537ea	0.26019222
184	0x3eb6a909	0.3567584
185	0xbd9a769a	-0.07542153
186	0xbe8e795c	-0.27826965
187	0xbed873cb	-0.42275843
188	0xbde9d1b1	-0.114169486
189	0xbd712077	-0.05886885
190	0xbe047b5e	-0.12937686
191	0xbf0b0a23	-0.5431234
192	0x3d653388	0.055957347
193	0x3f0d3d14	0.5517132
194	0xbdea44c6	-0.11438899
195	0xbe7e565e	-0.24837634
196	0xbe0496c7	-0.12948142
197	0xbe0a93f3	-0.13533
198	0x3ee1e7d3	0.4412218
199	0xbeda15d9	-0.42594793
200	0xbccf83ae	-0.025331344
201	0x3eaeea3f	0.3416309
202	0xbe9faaf8	-0.31185126
203	0x3bfa0bb5	0.00763079
204	0x3cb70973	0.022343373
205	0x3d9fe6fb	0.07807728
206	0x3f0e46bb	0.55576676
207	0x3e8f4116	0.27979344
208	0xbdad9ef1	-0.08477581
209	0x3e21aee4	0.15789372
210	0xbd132a2d	-0.035928894
211	0xbf0f0373	-0.5586464
212	0x3e389810	0.18026757
213	0x3e568b0d	0.20951481
214	0xbe0ed2ab	-0.13947551
215	0x3e73a4f7	0.23793398
216	0xbf58ce6c	-0.84689975
217	0xbd793d07	-0.060849216
218	0x3b9a765c	0.0047138166
219	0x3e12b4b4	0.14326745
220	0xbeca9c9f	-0.39572617
221	0xbd41e141	-0.04733396
222	0x3d8cb364	0.068701535
223	0xbd93b2ab	-0.072118126
224	0xbd644f59	-0.055739734
225	0xbf0c0e3a	-0.5470921
226	0x3e3841c5	0.17993839
227	0x3e82cd49	0.25547245
228	0xbda8e494	-0.08246723
229	0x3c1bbb8c	0.009505164
230	0x3d84a90d	0.064775564
231	0xbdeda9d9	-0.116046615
232	0x3b5e9348	0.0033962298
233	0xbee2cbd6	-0.4429614
234	0xbcab5cbc	-0.020918243
235	0xbe24d0be	-0.16095254
236	0x3e8b8775	0.27251783
237	0xbe2ff45e	-0.17183062
238	0x3e8d8dd2	0.27647263
239	0x3e6ca6b8	0.23110473
240	0x3e67fb1b	0.22654383
241	0x3d51b7f2	0.051200815
242	0xbe73a19c	-0.23792118
243	0x3d1c6852	0.038185425
244	0xbd559d0b	-0.05215172
245	0xbd562245	-0.052278776
246	0xbe05cd5c	-0.1306662
247	0xbcda6c52	-0.02666298
248	0x3cd599bf	0.026074288
249	0x3e6d62f8	0.23182285
250	0xbe34ee34	-0.17668992
251	0xbd17049e	-0.036869638
252	0xbeb87a31	-0.36030725
253	0x3e45a151	0.19299819
254	0x3e9cfc46	0.3066122
255	0x3db04e68	0.08608705

arith.constant4 f4 [60]
0	0x3e03d77c	0.1287517
1	0xbd75e79d	-0.060035337
2	0x3e9053d3	0.28188953
3	0x3e86727e	0.26259226
4	0x3df219b5	0.118213095
5	0x3dd40a33	0.10353508
6	0x3d0912f9	0.03346536
7	0x3d4da385	0.050204773
8	0x3d8888cc	0.06666717
9	0x3d9b7996	0.0759155
10	0x3d204c1b	0.03913508
11	0x3e25a7aa	0.1617724
12	0x3e136dea	0.14397398
13	0x3dc8ec09	0.09810645
14	0x3dd8d1fe	0.10586928
15	0x3e843a82	0.25825888
16	0x3dbf970f	0.09354984
17	0x3e076913	0.13223676
18	0x3d1e8abd	0.03870653
19	0x3c17806d	0.009246928
20	0x3cdcd15d	0.026955301
21	0x3e0c3365	0.1369148
22	0x3c7f1792	0.015569584
23	0x3e4b50fe	0.19855115
24	0x3e2f3ad4	0.17112285
25	0x3dfe467b	0.12415787
26	0x3d5f8b4a	0.054576196
27	0x3d8110e9	0.063020535
28	0x3d9b6584	0.07587722
29	0x3d3a60e4	0.04550256
30	0x3c8b068b	0.016970893
31	0x3de0a19d	0.10968325
32	0x3da88ee1	0.08230377
33	0x3d529d7b	0.051419716
34	0x3ddc674f	0.10761892
35	0x3cdf08ce	0.027225878
36	0x3e07ada3	0.13249831
37	0x3f1b8cb2	0.6076156
38	0x3e2ff858	0.1718458
39	0x3c012e3b	0.007884557
40	0x3e3bde09	0.18346418
41	0x3e257ca1	0.16160823
42	0x3d650e97	0.055922117
43	0x3dfe5ecd	0.124204256
44	0x3df8e891	0.121537335
45	0xbc0917b8	-0.008367471
46	0x3ed5f1a1	0.4178591
47	0x3d7807c7	0.060554292
48	0x3e689c07	0.2271577
49	0x3c95ac34	0.01827059
50	0x3e417794	0.18893272
51	0x3e981bc7	0.29708692
52	0x3e492810	0.19644189
53	0x3d294e2b	0.041334312
54	0x3e11ae9a	0.14226761
55	0x3c16580a	0.009176264
56	0x3a57f634	0.0008238286
57	0x3d7cacae	0.061688118
58	0x3e0437a1	0.12911846
59	0x3d8079cd	0.06273232

arith.constant5 f4 [60]
0	0x3f86e927	1.0539902
1	0x3f90c233	1.1309265
2	0x3f7ffa42	0.9999124
3	0x3f86e81d	1.0539585
4	0x3f7aa4e8	0.97907877
5	0x3f839ce8	1.0282259
6	0x3f76001f	0.96093935
7	0x3f7c46e9	0.985457
8	0x3f85e633	1.0460876
9	0x3f843182	1.0327609
10	0x3f7eaa28	0.9947839
11	0x3f8793bf	1.0591964
12	0x3f787ca2	0.97065175
13	0x3f83b4e2	1.0289576
14	0x3f7d7102	0.9900056
15	0x3f8322f7	1.0245045
16	0x3f82a26d	1.0205818
17	0x3f6fc840	0.9366493
18	0x3f7e9918	0.9945235
19	0x3f8035d2	1.0016425
20	0x3f7a9a1b	0.97891396
21	0x3f79464d	0.97372895
22	0x3f85d756	1.045634
23	0x3f846f45	1.0346457
24	0x3f766a37	0.9625582
25	0x3f837ba8	1.0272112
26	0x3f84ba9c	1.0369449
27	0x3f8262cf	1.0186404
28	0x3f75255b	0.95760125
29	0x3f7d6081	0.9897538
30	0x3f6bbdbc	0.92086387
31	0x3f860e5d	1.0473133
32	0x3f88d99b	1.0691408
33	0x3f81f326	1.0152328
34	0x3f81e6ae	1.0148523
35	0x3f809692	1.004595
36	0x3f86b187	1.0522927
37	0x3f7dd786	0.9915699
38	0x3f868868	1.0510378
39	0x3f6babd8	0.9205909
40	0x3f89e304	1.0772405
41	0x3f8253e2	1.0181849
42	0x3f8d9239	1.1060249
43	0x3f84a5bb	1.0363077
44	0x3f86e464	1.0538449
45	0x3f81c501	1.0138246
46	0x3f77afdc	0.96752715
47	0x3f80ffb2	1.0078032
48	0x3f6adb6c	0.9174106
49	0x3f83a995	1.0286127
50	0x3f7880c4	0.9707148
51	0x3f88e820	1.0695839
52	0x3f883193	1.0640129
53	0x3f838d63	1.0277523
54	0x3f87a1e5	1.0596281
55	0x3f7afa2c	0.9803798
56	0x3f7dfd31	0.99214464
57	0x3f774acf	0.96598524
58	0x3f89b316	1.0757778
59	0x3f8256cf	1.0182742

arith.constant6 f4 [60]
0	0x3d151c9f	0.03640425
1	0x3a6bef7a	0.00090002234
2	0xbc4e5143	-0.0125926165
3	0x3c94f753	0.01818434
4	0xbc30829c	-0.010773327
5	0xbc80ff69	-0.015746789
6	0x3bf08b08	0.0073407926
7	0x3d14adab	0.036298435
8	0x3c239937	0.00998526
9	0xbc981203	-0.018563276
10	0x3b3887fc	0.0028157225
11	0xbc5b8e27	-0.013400591
12	0x3ca57355	0.020196596
13	0xbc09870f	-0.008394017
14	0x3c44ceec	0.012012225
15	0x3c47f851	0.012205199
16	0x3b42a4a0	0.0029700175
17	0xbc1b6848	-0.009485312
18	0x3d964b8c	0.07338628
19	0x3cb1ce00	0.021704674
20	0xbbf46973	-0.0074588596
21	0xbcab0aa2	-0.020879094
22	0xbbdbec5a	-0.006711525
23	0xbc90ffbc	-0.017700069
24	0xbb3296f9	-0.0027250631
25	0x3ccc1a0e	0.024914768
26	0xbc9cd5b4	-0.01914487
27	0xbbc38dbf	-0.005967825
28	0x3bc7bdc9	0.006095622
29	0xbcc28f70	-0.023750037
30	0x3c8c8131	0.017151447
31	0x3cd0a060	0.025467098
32	0x3c91768e	0.017756727
33	0x3c1c9a73	0.009558308
34	0x3bb67a8b	0.0055688075
35	0xbd1ee43b	-0.038791876
36	0x3cb04318	0.021516368
37	0xbc7aec21	-0.015315087
38	0xbd2b49b4	-0.041818336
39	0x3ca42c39	0.020040618
40	0x3d50b386	0.050952457
41	0x3cf1bc7d	0.029508824
42	0x3c974c79	0.018469082
43	0x3d045e2c	0.03231637
44	0xbc50616c	-0.01271854
45	0x3c5ea489	0.013589033
46	0x3bda28b6	0.006657685
47	0xbc3ff671	-0.011716471
48	0x3be60adc	0.0070203375
49	0x3d28a7b2	0.04117555
50	0xbc1af27b	-0.009457226
51	0xbcdf8d82	-0.027289156
52	0x3c2f3124	0.010692868
53	0xbc22a9ac	-0.009928148
54	0xbb70ca3b	-0.0036741633
55	0x3bee5df8	0.0072743855
56	0xbc1f3c5e	-0.0097189825
57	0x3a9e8d50	0.0012096558
58	0xbcde4371	-0.027131768
59	0x3ae5529e	0.0017495935

arith.constant7 f4 [60]
0	0x3dd6f4d2	0.104959145
1	0x3e980765	0.29693142
2	0x3e51d606	0.204918
3	0x3e608122	0.2192426
4	0x3e92dffd	0.28686514
5	0x3d82619d	0.063662745
6	0xbd6329c6	-0.05545976
7	0x3d18ee11	0.037336413
8	0x3d379192	0.04481656
9	0x3e3baba4	0.18327194
10	0x3c9255cd	0.017863179
11	0x3e03a380	0.12855339
12	0x3e0fd976	0.14047799
13	0x3d915bf4	0.07097617
14	0x3dba9651	0.09110702
15	0x3eba9bf0	0.36447096
16	0x3d4b0f15	0.04957493
17	0x3ce0358e	0.027369287
18	0x3e148532	0.14503935
19	0x3c69f0d0	0.014278606
20	0x3d4e0880	0.050301075
21	0x3e2c3c90	0.16819978
22	0x3dfdf381	0.1239996
23	0x3e5826cd	0.21108551
24	0x3e255e0a	0.16149154
25	0x3e2ac472	0.166765
26	0x3d00c736	0.031439982
27	0x3d03bf17	0.03216466
28	0xbc50d4ba	-0.01274603
29	0x3d25eb75	0.040507752
30	0x3e05b16c	0.13055962
31	0x3d23ea2c	0.040018246
32	0x3da5222f	0.08063161
33	0x3dab20cd	0.08355866
34	0x3d2a8df2	0.041639276
35	0xbc70e97a	-0.014704103
36	0x3d99a60f	0.07502376
37	0x3f2ceaa9	0.67545563
38	0x3e86b0b4	0.2630669
39	0x3ccbf86e	0.024898734
40	0x3dffa3fd	0.1248245
41	0x3dc35836	0.09538309
42	0x3d242b28	0.04008022
43	0x3dec9158	0.115511596
44	0x3d975368	0.07388955
45	0x3c82fba6	0.015989136
46	0x3ee2d4ad	0.44302884
47	0x3d8d2408	0.06891638
48	0x3e887522	0.26651865
49	0x3d8083dd	0.06275151
50	0x3e3b8a9b	0.18314593
51	0x3e8ef99e	0.27924818
52	0x3e016027	0.12634335
53	0x3ce2f525	0.027704785
54	0x3db734b1	0.08945597
55	0x3d216c9e	0.039410226
56	0x3c351152	0.011051493
57	0x3e96714a	0.29383308
58	0x3b72e604	0.003706337
59	0x3dffd06e	0.12490927

arith.constant8 f4 [60, 21]
0	0xbd6e0887	-0.0581136
1	0x3d9d122b	0.07669481
2	0x3e77eba9	0.24210991
3	0x3e3f3758	0.18673456
4	0xbcec66c3	-0.028857594
5	0x3db03807	0.08604436
6	0x3dd84e37	0.10561793
7	0x3dcf829d	0.101323344
8	0xbb7c4487	-0.0038492994
9	0xbe226d72	-0.15862063
10	0x3e8b4ece	0.2720856
11	0xbdac4f2f	-0.084135406
12	0x3e62b55b	0.22139494
13	0x3aa4dcab	0.0012577971
14	0x3dc53da9	0.09630901
15	0xbe085588	-0.13313878
16	0x3db3496b	0.08754238
17	0x3e15d3ea	0.1463162
18	0x3e557fa4	0.20849472
19	0xbd2bb16d	-0.041917253
20	0x3d41a4cf	0.047276314
21	0x3e942469	0.2893403
22	0x3e9ca1f6	0.30592316
23	0x3deca8f3	0.11555662
24	0x3e187532	0.14888456
25	0x3e8e98ee	0.2785105
26	0x3e76ab9f	0.24088906
27	0x3e5bc947	0.214635
28	0x3e3c49f2	0.18387583
29	0x3e029470	0.12751937
30	0x3e97e3e6	0.2966606
31	0x3dbf6903	0.09346201
32	0x3e7075a1	0.23482372
33	0xbdb773d4	-0.08957639
34	0x3db3ede9	0.08785612
35	0xbe363ef9	-0.1779746
36	0x3e24c3a6	0.16090259
37	0x3e5bb1a0	0.21454477
38	0x3d95d060	0.07315135
39	0x3d0de477	0.03464171
40	0x3ea0d3db	0.31411633
41	0x3e8bf3c5	0.2733442
42	0xbd9e9be3	-0.07744577
43	0xbe69c148	-0.22827637
44	0xbe39c3d3	-0.18141107
45	0xbe021ae8	-0.12705576
46	0xbdac203b	-0.08404585
47	0xbcbd1ea3	-0.023085898
48	0xbe04c937	-0.12967382
49	0x3de2cf38	0.1107468
50	0xbdbcc84d	-0.09217892
51	0xbd82cdce	-0.063869104
52	0xbe256cfe	-0.16154858
53	0xbd0ac77a	-0.033881642
54	0x3e80853e	0.25101656
55	0xbe1a3183	-0.1505795
56	0xbc63dd66	-0.013907766
57	0xbdf37d9d	-0.11889193
58	0xbde261cc	-0.110538095
59	0x3d89dd42	0.06731655
60	0x3d8fbc0d	0.0701829
61	0x3d9179b9	0.07103295
62	0x3d9b98c9	0.07597501
63	0xbc0cab3d	-0.008585748
64	0x3ce91af7	0.02845524
65	0x3d6617e1	0.056175116
66	0x3d4fca8a	0.050730266
67	0x3dcf2117	0.10113733
68	0x3e00b6cf	0.12569736
69	0x3dfb4b3a	0.12270208
70	0x3e2d6ae4	0.16935307
71	0xbc141df8	-0.009040348
72	0x3e19bdc6	0.15013799
73	0x3e075a61	0.1321807
74	0x3c8c2265	0.017106244
75	0x3e8d2284	0.27565396
76	0xbdf396a4	-0.11893967
77	0xbe8e1d88	-0.27756906
78	0xbd3f0b0a	-0.046641387
79	0x3db02c01	0.08602143
80	0x3e8e701f	0.27819917
81	0x3e898cee	0.26865333
82	0x3c1537ff	0.009107589
83	0x3d46763c	0.0484526
84	0x3e3829fe	0.17984769
85	0x3e3cd4bc	0.18440527
86	0x3caadfda	0.020858694
87	0x3dae54fe	0.08512305
88	0x3da65b07	0.08122831
89	0x3e05866d	0.1303956
90	0x3d56ad8b	0.052411597
91	0x3dcca8e4	0.09993151
92	0x3e0c4ec0	0.13701916
93	0x3de2ecab	0.11080297
94	0x3e2f2108	0.17102444
95	0x3df4bfc8	0.11950642
96	0x3e1dc1db	0.15405981
97	0x3d10ef3a	0.035384394
98	0xbde7504f	-0.112946145
99	0x3e576245	0.2103358
100	0x3d68df2a	0.05685345
101	0x3e2124be	0.15736672
102	0x3e0f27c1	0.13980009
103	0x3c95a530	0.018267244
104	0x3e117f53	0.14208727
105	0x3e063f10	0.13109994
106	0x3c3eddcd	0.011649561
107	0xbccd7b5e	-0.02508324
108	0xbdae8534	-0.085215
109	0x3da3901c	0.07986471
110	0x3d6a0b80	0.057139874
111	0xba85276f	-0.0010158847
112	0xbd61ea36	-0.055155
113	0x3c550284	0.013001088
114	0xbcde9223	-0.027169293
115	0xbcf913a0	-0.030404866
116	0x3dbd3fac	0.0924066
117	0x3d25bd43	0.040463697
118	0xbe3aa589	-0.18227209
119	0x3d9a8c44	0.07546285
120	0xbdd80c40	-0.105492115
121	0xbc29f0cb	-0.010372351
122	0xbd84cd70	-0.064844966
123	0xbc26cbd9	-0.010180437
124	0xbda074c7	-0.078347735
125	0xbd61faf0	-0.055170953
126	0x3bed717f	0.007246196
127	0xbd86592b	-0.06559976
128	0xbda7ab90	-0.0818702
129	0x3d6d8f01	0.057997707
130	0x3e2a6a0a	0.16642013
131	0x3cfc5924	0.030804224
132	0x3e0867be	0.13320825
133	0xbdec39e4	-0.11534479
134	0xbd29876b	-0.04138891
135	0x3c9648d9	0.018345283
136	0xbd8e26be	-0.06940983
137	0x3e103780	0.14083672
138	0xbcfc9f74	-0.030837752
139	0x3d467ab9	0.04845688
140	0x3df3122f	0.118687026
141	0xbe0d6c6c	-0.13810891
142	0x3c0077f2	0.007841097
143	0xbde7fbd8	-0.11327332
144	0xbdbd948a	-0.09256847
145	0xbd94061a	-0.07227726
146	0xbd172293	-0.036898207
147	0xbc9587f0	-0.018253297
148	0x3dbc0175	0.091799654
149	0xbdbf1dd9	-0.09331865
150	0xbdf651d3	-0.120273255
151	0xbcfcf4ab	-0.030878386
152	0xbdd5cb1c	-0.10439131
153	0xbdecb35e	-0.11557649
154	0x3e164c29	0.1467749
155	0x3da83fa2	0.08215262
156	0x3d60f10e	0.054917388
157	0xbd477fd3	-0.048705887
158	0xbd9b9999	-0.07597656
159	0x3de8e82b	0.113724075
160	0xbc9a4df5	-0.018836001
161	0xbe8caf16	-0.2747733
162	0xbe754160	-0.2395072
163	0xbcdfccf4	-0.027319409
164	0xbce9434d	-0.028474474
165	0xbd9d67e8	-0.07685834
166	0xbdfd1111	-0.12356771
167	0xbdb54166	-0.088503644
168	0x3dc828f7	0.097734384
169	0x3d0e9678	0.034811467
170	0x3d3b3068	0.04570046
171	0xbd0f941f	-0.03505337
172	0xbdc41b59	-0.09575529
173	0x3d810f16	0.063017055
174	0x3da5f3e1	0.08103157
175	0xbc2bdc72	-0.01048957
176	0xbe1427a1	-0.14468242
177	0xbd4c2bbd	-0.0498464
178	0xbd0767f6	-0.03305813
179	0x3d3bd7e0	0.04586017
180	0xbe1ea491	-0.15492465
181	0xbe16e2a7	-0.14734899
182	0x3e4a0950	0.19730115
183	0xbd9f4770	-0.077772975
184	0xbda05b4d	-0.07829914
185	0xbe35b90b	-0.1774637
186	0xbe090394	-0.13380271
187	0xbd2ef6e1	-0.04271591
188	0xbd2e78db	-0.042595726
189	0x3e405602	0.1878281
190	0x3e717d6e	0.23583004
191	0x3e0113f6	0.1260527
192	0x3e3fed02	0.18742755
193	0x3ebb6404	0.36599743
194	0x3e95fba9	0.29293564
195	0x3dc0bc08	0.09410864
196	0x3e462c75	0.19352897
197	0x3e4f7ca2	0.20262387
198	0x3da83251	0.08212722
199	0x3dd52d50	0.10409033
200	0x3e62ca27	0.22147427
201	0x3c72c626	0.01481775
202	0x3d03f52f	0.032216247
203	0xbdd9daf7	-0.10637467
204	0xbd96ec16	-0.073692486
205	0x3e2a0acb	0.1660568
206	0x3dbcad95	0.09212796
207	0x3ccdf65f	0.025141893
208	0x3e1eae28	0.15496123
209	0x3e89b548	0.2689612
210	0xbc99ac03	-0.01875878
211	0x3d0782c9	0.03308371
212	0xbdfefa04	-0.124500304
213	0xbe0189bd	-0.12650199
214	0x3b8a6c7b	0.0042243577
215	0x3d580c8e	0.052746348
216	0x3e058057	0.13037239
217	0x3cd44dc8	0.025915995
218	0xbd53babe	-0.051691763
219	0x3d4a93dd	0.04945742
220	0x3b9e96c0	0.004839748
221	0xbd1a15e1	-0.03761852
222	0x3d3f8cba	0.046765067
223	0xbe4d6cf9	-0.20061101
224	0x3dcee892	0.10102953
225	0x3ca28d3b	0.019842735
226	0x3d65e611	0.05612761
227	0xbe21bccd	-0.15794678
228	0xbc5812a7	-0.013188041
229	0xbc1e8847	-0.009676046
230	0x3a28c2c3	0.0006437713
231	0x3cfe1b24	0.031018801
232	0x3d8e441b	0.06946584
233	0x3d902bf1	0.07039631
234	0x3a767f84	0.00094031566
235	0xbafe676e	-0.0019409487
236	0xbdb0c396	-0.08631055
237	0xbdcf7de5	-0.10131434
238	0xbc329265	-0.010899161
239	0xbdbcfbec	-0.09227738
240	0x3db1c468	0.0868004
241	0x3dab768e	0.08372222
242	0x3b80f194	0.0039350484
243	0x3d65c7a9	0.056098614
244	0xbd3989a0	-0.045297265
245	0x3d2970c6	0.041367315
246	0x3de9047b	0.11377808
247	0xbcbde283	-0.023179298
248	0x3cc73439	0.024316894
249	0x3dc5c451	0.09656585
250	0xbda14c26	-0.07875852
251	0x3d96be05	0.07360462
252	0x3dac2658	0.08405751
253	0x3ca046a3	0.019564932
254	0xbcd0ac93	-0.025472915
255	0x3d3a149f	0.045429822

arith.constant9 f4 [60, 21]
0	0xbd67710b	-0.05650429
1	0xbc088083	-0.008331421
2	0x3cf4f8b7	0.029903753
3	0x3e06e9aa	0.13175073
4	0x3bca4fb3	0.0061740517
5	0xbd3fa3a4	-0.04678692
6	0x3d1e378b	0.03862719
7	0x3cf7d00f	0.030250577
8	0xbdd68d4b	-0.10476168
9	0x3c8de01e	0.017318781
10	0x3e26903a	0.16265956
11	0x3ced4f95	0.028968612
12	0x3dfba27f	0.12286853
13	0xbbd26fe3	-0.0064220293
14	0x3e4710c9	0.19439997
15	0xbc943046	-0.018089425
16	0x3cf87b3c	0.0303322
17	0xbd959296	-0.0730335
18	0xbd323a27	-0.04351249
19	0x3d7c8506	0.0616503
20	0xbdd7998b	-0.10527333
21	0x3bee33ca	0.0072693573
22	0xbcc1d088	-0.023659006
23	0xbe0d57c5	-0.13803013
24	0xbe31f675	-0.17379172
25	0xbde84e6c	-0.11343083
26	0xbe370882	-0.17874339
27	0xbd3e1415	-0.04640587
28	0x3d8dc1ad	0.06921706
29	0xbde96e74	-0.113980204
30	0xbda76ff8	-0.08175653
31	0xbdcf3f03	-0.101194404
32	0xbdc65c57	-0.09685581
33	0xbc91b7e1	-0.017787876
34	0xbd750dbd	-0.059827555
35	0xbe0ba6b0	-0.13637805
36	0xbe019091	-0.12652804
37	0xbdd35aba	-0.10320039
38	0x3da0bad7	0.07848137
39	0x3e302365	0.17201002
40	0xbe0a3704	-0.1349755
41	0xbd1e65f2	-0.03867144
42	0xbe5636ab	-0.20919292
43	0xbde53f89	-0.11193759
44	0xbe18a799	-0.14907683
45	0xbd2a08a4	-0.041512147
46	0xbdaae898	-0.08345145
47	0xbd2081de	-0.03918635
48	0xbd9705aa	-0.07374127
49	0xbc9b4894	-0.018955506
50	0xbd9ece20	-0.07754159
51	0xbdced2e9	-0.10098822
52	0x3da4b010	0.08041394
53	0x3cc484ca	0.0239891
54	0x3e045700	0.12923813
55	0xbe350510	-0.17677712
56	0xbd0d872d	-0.03455274
57	0xbdffc9ff	-0.124896996
58	0xbb551872	-0.0032515791
59	0xbe098a01	-0.1343155
60	0xbddaa9d1	-0.10676921
61	0xbe0d8384	-0.138197
62	0x388bbc90	6.663159e-05
63	0xbe05a817	-0.13052402
64	0xbe3d28ab	-0.18472545
65	0xbdc1e357	-0.0946719
66	0xbd02a8cd	-0.031899262
67	0x3cde4b58	0.027135536
68	0xbcd84250	-0.026398808
69	0x3ded6259	0.11591024
70	0xbd09879a	-0.033576585
71	0xbe5de0ba	-0.21667758
72	0x3e1b1483	0.15144543
73	0xbd2cca2d	-0.042184997
74	0xbd3bda4e	-0.04586249
75	0x3c53f4ee	0.012936814
76	0xbec312e9	-0.38100365
77	0xbcd86bc6	-0.026418578
78	0xbddcede6	-0.10787563
79	0xbdf99874	-0.12187281
80	0x3d61368d	0.054983664
81	0xbd99a175	-0.075014986
82	0xbd36165b	-0.044454914
83	0x3d126389	0.035739455
84	0xbe43db54	-0.19126636
85	0xbe389de8	-0.18028986
86	0xbe833315	-0.2562491
87	0xbe665ad1	-0.22495581
88	0xbc805d27	-0.015669418
89	0xbd010d56	-0.03150686
90	0xbd255707	-0.0403662
91	0xbe300ac2	-0.17191604
92	0xbe210378	-0.1572398
93	0xbe9f9483	-0.31167993
94	0xbe50715c	-0.20355743
95	0xbd7f1267	-0.06227341
96	0xbe2cb4ca	-0.1686584
97	0xbd681cac	-0.05666797
98	0x3e2ceac4	0.16886431
99	0xbdda1589	-0.10648639
100	0xbe5baaa6	-0.21451816
101	0xbe25ca08	-0.1619035
102	0xbd8067eb	-0.06269821
103	0xbdd9ca45	-0.10634283
104	0xbc05a6ef	-0.008157476
105	0x3df425db	0.11921283
106	0xbc3e2e49	-0.011607715
107	0xbd34e1b2	-0.044160552
108	0x3d5f5ad5	0.054529984
109	0x3e287c80	0.16453743
110	0x3d42a7ab	0.047523182
111	0x3d92a4a1	0.07160307
112	0xbd048620	-0.032354474
113	0xbd8a43ba	-0.06751199
114	0xbcd5df3a	-0.02610742
115	0xbd3477c5	-0.044059534
116	0x3d557d88	0.05212167
117	0xbdbed7e3	-0.09318521
118	0xbe2e6435	-0.17030413
119	0x3da740a8	0.08166629
120	0xbc6a265d	-0.014291373
121	0x3abe7368	0.0014530243
122	0xbdebbe40	-0.11510897
123	0x3baa67ae	0.005200348
124	0x3d9f296f	0.07771575
125	0x3d665a2e	0.056238346
126	0xbd227299	-0.03966007
127	0xbd2b21e4	-0.041780367
128	0xbe053e1c	-0.13011974
129	0xbe6ff824	-0.23434502
130	0xbe900adc	-0.28133285
131	0xbe7f9ac4	-0.24961382
132	0xbe8e9b13	-0.27852687
133	0xba977a65	-0.0011556862
134	0xbdc8e2e7	-0.09808903
135	0xbf303f6f	-0.6884679
136	0xbe0e4b24	-0.13895851
137	0xbea2d6ef	-0.31804606
138	0xbd5fcedc	-0.054640636
139	0xbe85e4ce	-0.26151127
140	0x3e7c8736	0.24660954
141	0xbfa89f88	-1.3173685
142	0xbd94f6fc	-0.07273671
143	0xbc515a76	-0.012777915
144	0x3b256474	0.0025236877
145	0xbe88da53	-0.26729068
146	0xbe9192b4	-0.28432238
147	0x3dae3c93	0.08507647
148	0xbdd3c032	-0.10339393
149	0xbdb8f54a	-0.0903116
150	0xbec3080a	-0.3809207
151	0x3c228645	0.009919708
152	0xbd3ea72f	-0.046546157
153	0x3c509ceb	0.012732725
154	0xbe119fc2	-0.14221099
155	0xbe0d6e4f	-0.1381161
156	0xbcadcbb8	-0.021215305
157	0xbe94df8a	-0.29076797
158	0xbdc267ae	-0.094924316
159	0x3da61b5b	0.081106864
160	0xbda6592d	-0.08122478
161	0xbe431a76	-0.19053063
162	0xbe99390f	-0.29926345
163	0xbdf395b9	-0.11893792
164	0xbda2743a	-0.07932325
165	0x3d9e0305	0.0771542
166	0x3d98cff7	0.07461541
167	0x3db4b602	0.08823778
168	0xbd7e3f5a	-0.062072136
169	0xbe028e93	-0.127497
170	0x3c97266e	0.018450942
171	0xbd86f518	-0.06589717
172	0xbe0532da	-0.1300768
173	0xbda3fbe0	-0.08007026
174	0xbd61fa2f	-0.055170234
175	0x3b06c272	0.0020562676
176	0xbc8ed15d	-0.017433817
177	0xbd6adb71	-0.057338182
178	0x3cae85be	0.021304008
179	0xbd98d00c	-0.07461557
180	0x3e037bfe	0.12840268
181	0x3c9bc40e	0.019014385
182	0x3d095d8a	0.03353647
183	0xbdfa33fb	-0.12216946
184	0xbc8f631f	-0.01750332
185	0xbc0d24f0	-0.008614764
186	0x3d0c7e28	0.0343
187	0xbda13933	-0.07872238
188	0xbdd2a878	-0.10286039
189	0xbc0f68d8	-0.008753024
190	0xbd1c45ba	-0.038152434
191	0xbd3aa4b3	-0.045567226
192	0xbdd74a5c	-0.1051223
193	0xbd49940a	-0.049213447
194	0xbcf78500	-0.030214787
195	0xbdae992a	-0.085253075
196	0x3c3e64d6	0.011620721
197	0xbdb2e930	-0.08735883
198	0xbe5dd004	-0.21661383
199	0xbc6847d4	-0.014177281
200	0xbd825211	-0.06363309
201	0x3d7fcac2	0.062449224
202	0xbdfe67c7	-0.12422138
203	0xbafb1ad7	-0.0019157779
204	0xbd845c1d	-0.06462882
205	0xbdafb900	-0.08580208
206	0x3d4bce5d	0.04975735
207	0xbd1dbb70	-0.038508832
208	0xbd819744	-0.0632768
209	0xbdc9d79c	-0.09855577
210	0xbc4a42d1	-0.012345032
211	0xbd1a1c37	-0.037624564
212	0x3d6237a7	0.055228855
213	0x3e663a3e	0.22483155
214	0x3dfd48b4	0.12367383
215	0x3d3c7f93	0.0460201
216	0xbda704b1	-0.08155192
217	0xbcb77582	-0.0223949
218	0x3c02e24a	0.007988522
219	0x3cc5f507	0.02416469
220	0x3e2dd596	0.16976008
221	0xbd9b8a4d	-0.07594738
222	0xbb8b60e2	-0.0042534927
223	0x3d6c3679	0.057669137
224	0x3dd52f47	0.10409408
225	0x3d9fd070	0.07803428
226	0x3d9cf75d	0.07664368
227	0xbd141606	-0.036153816
228	0x3d724881	0.059151176
229	0x3c736861	0.014856429
230	0xbcd143b8	-0.025544986
231	0x3cd28184	0.025696523
232	0xbbc44783	-0.00598997
233	0x3a4a8e5d	0.0007726902
234	0x3d124592	0.03571088
235	0xbc72def5	-0.014823665
236	0x3dc04b6c	0.093893856
237	0xbdb3bf52	-0.08776726
238	0xbd9a7440	-0.07541704
239	0xbc9d8bd6	-0.019231718
240	0xb96ac81d	-0.00022390527
241	0x3c9b59e6	0.018963765
242	0x3d2e9e73	0.042631578
243	0xbca9a966	-0.020710658
244	0xbe215f0f	-0.15758918
245	0xbd0765ae	-0.033055954
246	0xbd2a0409	-0.041507754
247	0xbd5c6079	-0.05380294
248	0x3cc7c35b	0.024385145
249	0x3d664cc1	0.056225542
250	0xbd08cc03	-0.033397686
251	0xbcff9fa6	-0.031204056
252	0x3ad6adfe	0.0016378758
253	0x3cdc447f	0.02688813
254	0x3c8da56c	0.017290793
255	0xbe037e21	-0.12841083
