Riproduzione/models/FD001/CNNAlternative/CNN_alternative_batch_1.tflite (tflite, 922632 bytes, 11 tensors)

sequential_2/conv1d_7/BiasAdd/ReadVariableOp f4 [256]
0.0127037335 0.004791868 0.0012215088 0.016262572 -0.0056362706 0.019561308 -0.0006555156 -0.107952245
0.028703852 0.007856877 0.011000897 -0.05911729 0.0006787291 0.02465294 0.037091184 0.010779399
0.0060538007 -0.0060535152 0.015742552 -0.01943696 0.034545783 -0.0014422187 0.07733212 -0.0014004858
0.027044611 0.0060768817 0.054312043 0.0018240657 0.014964504 0.019317541 0.007996738 0.01408846
0.02154451 0.007313401 0.018676117 -0.002568177 -0.06651575 0.018357575 0.024279468 0.0015730248
0.02039261 0.026928525 0.023091912 0.015784288 -0.009008987 0.0049940627 0.00033593402 0.025201803
0.014277294 0.02190486 0.0034704017 0.016763233 0.010135875 -0.019878708 0.019226637 0.001119231
-0.020502385 0.04602647 0.007497556 0.016965056 -0.008695059 0.011432832 0.034117293 0.00032550757
-0.010128545 -0.036231138 0.020250084 0.021219198 0.0144198295 0.015175134 0.012095956 -0.020424856
0.0207457 0.026396262 0.012366464 0.113443226 0.009288872 -0.035376456 0.00606406 -0.002781432
0.026000548 -0.015256919 0.016567914 0.011901043 0.030988038 0.014846877 0.02899623 0.008823991
-0.015605408 0.022275716 0.024636216 0.027459927 0.063234664 0.040220976 -0.005960443 0.03603411
0.024356928 -0.020912621 -0.0021898956 0.0166689 0.03938209 0.019629128 0.018490588 0.017489383
-0.034731384 -0.025595522 0.038687572 0.007924469 -0.017572835 0.11333231 0.009416266 0.009864636
0.006922215 -0.05868903 0.010625369 -0.0018763364 0.04478661 0.01841947 0.0120373955 0.011614146
0.002099742 -0.00037522905 0.010673175 0.025199201 -0.04666809 0.017779795 0.02530993 -0.045110714
0.023666728 0.019906104 -0.0021852816 0.06083772 -0.015243516 0.012566536 -0.0010583203 0.0037904754
0.047366157 0.052658003 0.018593812 -0.011370945 -0.020940706 0.03458741 0.02805474 0.020387257
-0.019811405 0.01921773 0.076394 0.017039638 0.029113742 0.03300833 0.02075376 -0.011298736
-0.0021035585 0.004863117 0.048355885 0.02550111 0.008685841 -0.03329114 0.02530192 0.019368755
0.023993004 -0.0075760786 -0.019589359 -0.0014634631 0.020069351 0.017580027 0.024743998 0.016212871
0.017294332 0.018503144 0.045147926 0.0106931 0.0256525 0.01862722 -0.076680444 0.013108822
0.008617657 0.021401031 0.01883435 0.021378137 -0.015762025 0.041735515 -0.0047208085 0.00899219
0.0012475972 -0.013507199 0.009798427 0.038979188 0.035561167 0.043083925 0.0133024445 0.0013507715
0.014115155 0.019026691 0.018581644 -0.02262286 0.0032861982 0.021025047 0.0056803674 -0.026080757
-0.019818667 -0.008368719 0.0121110445 0.038885325 0.007916406 0.019566283 -0.00984722 0.008318741
0.0064159273 0.019418407 0.025873492 0.007924208 0.051441662 0.023342207 0.013691333 0.025673807
-0.002017309 -0.021739284 -0.013209147 -0.026475951 -0.007567818 0.014770723 -0.04355697 0.008897548
0.025074204 0.020162024 0.023036648 0.022235252 0.02586579 0.00020910843 -0.006961515 0.029384151
0.0723284 0.029799532 0.0025812238 0.008977211 0.047245823 0.0029357148 0.0010093624 -0.0030546675
0.0005048142 0.018872572 0.03381754 0.057961926 0.03673592 -3.7629346e-05 0.021384854 0.052919324
0.007892286 -0.04405569 0.018905453 0.009685498 0.0049663093 0.002765829 -0.006293439 -0.01606043
00000000: 5223 503c 1a05 9d3b 091b a03a 1639 853c
00000010: 77b0 b8bb 093f a03c e8d6 2bba 1116 ddbd
00000020: 5724 eb3c 21ba 003c 1b3d 343c f924 72bd
00000030: bdec 313a f6f4 c93c edec 173d 149c 303c
00000040: f65e c63b 915c c6bb 86f6 803c 423a 9fbc
00000050: e17f 0d3d d408 bdba 4d60 9e3d 8190 b7ba
00000060: a98c dd3c 9420 c73b 4e76 5e3d 7d15 ef3a
00000070: ae2d 753c d23f 9e3c c004 033c 49d3 663c
00000080: 1d7e b03c 41a5 ef3b a8fe 983c dc4e 28bb
00000090: 6939 88bd a062 963c bce5 c63c f42d ce3a
000000a0: 670e a73c 3699 dc3c 402b bd3c 0d4e 813c
000000b0: 6e9a 13bc 3ca5 a33b 4d20 b039 0374 ce3c
000000c0: 50eb 693c d271 b33c ae6f 633b 0c53 893c
000000d0: f110 263c acd8 a2bc 2e81 9d3c 29b3 923a
000000e0: 9ef4 a7bc 4086 3c3d 0fae f53b 4dfa 8a3c
000000f0: b975 0ebc c650 3b3c 93be 0b3d e3a8 aa39
00000100: 32f2 25bc 1a67 14bd 81e3 a53c e2d3 ad3c
00000110: 2641 6c3c 20a1 783c 1e2e 463c 0752 a7bc
00000120: e3f2 a93c f93c d83c b69c 4a3c ec54 e83d
00000130: 5a30 183c e7e6 10bd 06b5 c63b af48 36bb
00000140: 1aff d43c 28f8 79bc 6fb9 873c 98fc 423c
00000150: a0da fd3c 5140 733c 8089 ed3c 8092 103c
00000160: d3ad 7fbc 907b b63c e4d1 c93c a4f3 e03c
00000170: 2d81 813d c0be 243d d24f c3bb 8198 133d
00000180: 2e88 c73c f250 abbc 5a84 0fbb 388d 883c
00000190: 1d4f 213d 44cd a03c 9379 973c e545 8f3c
000001a0: 7f42 0ebd b3ad d1bc dc76 1e3d a2d5 013c
000001b0: e8f4 8fbc c51a e83d af46 1a3c 489f 213c
000001c0: c0d3 e23b e963 70bd 0716 2e3c 67ef f5ba
000001d0: 2a72 373d 6ee4 963c 7f38 453c 4249 3e3c
000001e0: d39b 093b 64ba c4b9 8ade 2e3c 8e6e ce3c
000001f0: 0a27 3fbd efa6 913c c556 cf3c 03c6 38bd
00000200: bae0 c13c 2012 a33c f136 0fbb f930 793d
00000210: f1bf 79bc dfe3 4d3c 56b7 8aba a069 783b
00000220: 0403 423d ebaf 573d 0d52 983c 334d 3abc
00000230: d88b abbc 87ab 0d3d 0ed3 e53c 2d03 a73c
00000240: 874b a2bc 806e 9d3c 7574 9c3d b696 8b3c
00000250: f17f ee3c be33 073d ca03 aa3c 551e 39bc
00000260: dbdb 09bb c85a 9f3b d210 463d b4e7 d03c
00000270: 0f4f 0e3c 4a5c 08bd f945 cf3c 39ab 9e3c
00000280: fa8c c43c c140 f8bb dd79 a0bc acd1 bfba
00000290: 7b68 a43c fd03 903c edb3 ca3c dbd0 843c
000002a0: d8ac 8d3c e893 973c 08ed 383d 1d32 2f3c
000002b0: 3125 d23c 1d98 983c a30a 9dbd 62c6 563c
000002c0: 1331 0d3c 3751 af3c 7f4a 9a3c 3421 af3c
000002d0: 5d1f 81bc dcf2 2a3d 03b1 9abb fa53 133c
000002e0: 6a86 a33a 4c4d 5dbc 9589 203c a4a8 1f3d
000002f0: 96a8 113d c578 303d 7ff2 593c 5f0c b13a
00000300: 4043 673c dddd 9b3c 8838 983c 9353 b9bc
00000310: 425d 573b b83c ac3c 6022 ba3b 50a7 d5bc
00000320: c25a a2bc f41c 09bc 676d 463c 3846 1f3d
00000330: d0b3 013c 7849 a03c 3c56 21bc 544b 083c
00000340: b33c d23b 5a13 9f3c a5f4 d33c 8ad4 013c
00000350: 7eb4 523d 2838 bf3c 9d51 603c e051 d23c
00000360: d434 04bb 9516 b2bc 2e6b 58bc 18e4 d8bc
00000370: 75fb f7bb e700 723c cb68 32bd 05c7 113c
00000380: 6b68 cd3c d42a a53c 5ab7 bc3c b426 b63c
00000390: 7ee4 d33c 1e44 5b39 6c1d e4bb 08b7 f03c
000003a0: ea20 943d 261e f43c c029 293b 2715 133c
000003b0: d684 413d 1f65 403b 954c 843a d130 48bb
000003c0: 8255 043a a79a 9a3c 4384 0a3d 7c69 6d3d
000003d0: 6778 163d 34d4 1db8 4a2f af3c efc1 583d
000003e0: a64e 013c bd73 34bd 9cdf 9a3c ecaf 1e3c
000003f0: 6cbc a23b e942 353b 3139 cebb 2a91 83bc

sequential_2/conv1d_8/BiasAdd/ReadVariableOp f4 [96]
-0.0047509065 0.061165582 0.053319074 0.038556494 -0.006009602 -0.0056064487 -0.0060323803 0.09452333
0.032010365 -0.004531907 -0.006023307 -0.005846366 0.040743884 0.04331894 0.048990976 0.03315869
0.039546516 0.03586951 -0.0060353777 -0.0076424666 -0.0060245562 -0.00600845 -0.008752939 -0.008115255
-0.003837769 0.03614767 -0.00769698 0.034558248 -0.008275732 0.03338821 0.040636286 0.038519252
0.038429126 0.02805429 -0.007701717 -0.008057381 -0.009016709 -0.005438489 -0.0084882295 -0.005150482
-0.0060463888 0.059268627 0.029048136 -0.006004336 0.04293216 0.05816158 0.04021892 0.038508188
-0.0077483994 0.030991662 0.03309473 0.03262839 0.05056992 -0.005242337 -0.0047101253 -0.0061317515
0.03339416 0.022585923 0.046966236 0.03440708 -0.0071353414 -0.005677285 0.042951647 0.060420677
0.036623824 0.045550574 0.037198145 0.029915042 -0.005565605 -0.0059953034 -0.005948294 0.03731815
0.035194166 0.04589722 -0.006005419 0.03500124 -0.008390324 -0.006029132 -0.0050645806 0.042299677
0.020449985 -0.0060113464 -0.0060854647 -0.006719598 0.03231578 -0.0060051545 0.04121504 -0.0066326847
0.032955643 0.033926766 -0.0061561996 0.044882763 0.034668405 0.041862827 -0.006007655 0.034734726
00000000: 7ead 9bbb c388 7a3d 1a65 5a3d 6aed 1d3d
00000010: 32ec c4bb 4db6 b7bb 46ab c5bb 7395 c13d
00000020: 4d1d 033d 6480 94bb 295f c5bb df92 bfbb
00000030: 0fe3 263d 336f 313d c3aa 483d 68d1 073d
00000040: 87fb 213d e8eb 123d 6bc4 c5bb a86d fabb
00000050: a469 c5bb 88e2 c4bb 7d68 0fbc d9f5 04bc
00000060: 1483 7bbb 940f 143d f336 fcbb f38c 0d3d
00000070: f096 07bc 13c2 083d 3c72 263d 5dc6 1d3d
00000080: dc67 1d3d 1cd2 e53c af5e fcbb 1b03 04bc
00000090: d2ba 13bc 5a35 b2bb 3712 0bbc 60c5 a8bb
000000a0: c920 c6bb a9c3 723d 5bf6 ed3c 05c0 c4bb
000000b0: a2d9 2f3d d63a 6e3d 98bc 243d c3ba 1d3d
000000c0: 49e6 fdbb 3ae2 fd3c 578e 073d 59a5 053d
000000d0: 6822 4f3d e9c7 abbb 6557 9abb dcec c8bb
000000e0: 51c8 083d 1d06 b93c ab5f 403d 70ee 0c3d
000000f0: 95cf e9bb 8508 babb 11ee 2f3d ac7b 773d
00000100: dd02 163d 3d93 3a3d 155d 183d 6410 f53c
00000110: ae5f b6bb 4074 c4bb e8e9 c2bb ebda 183d
00000120: c227 103d b9fe 3b3d 1bc9 c4bb 765d 0f3d
00000130: 9277 09bc 0690 c5bb c8f4 a5bb 6d42 2d3d
00000140: ba86 a73c d4fa c4bb 9468 c7bb 1330 dcbb
00000150: 8d5d 043d e3c6 c4bb 1ad1 283d fe56 d9bb
00000160: 7ffc 063d cbf6 0a3d f2b9 c9bb fdd6 373d
00000170: 7500 0e3d 5b78 2b3d dddb c4bb 0046 0e3d

sequential_2/conv1d_9/BiasAdd/ReadVariableOp f4 [32]
0.047269255 0.039293062 0.04316776 -0.0061759315 -0.00874347 0.04160074 0.04800309 0.077962436
0.034293387 0.045878693 0.044365596 0.10504427 0.04708754 0.052107543 -0.007111039 -0.004284192
0.063862324 0.08720219 0.045863193 0.050649695 0.04896655 -0.0060914345 -0.0008862681 0.10347826
0.051270522 0.05005188 0.052562047 0.054739658 0.01910786 0.0716666 0.061236605 -0.0068093436
00000000: 689d 413d c3f1 203d add0 303d 785f cabb
00000010: c540 0fbc 8a65 2a3d e39e 443d c5aa 9f3d
00000020: 3977 0c3d 4ceb 3b3d b3b8 353d 7321 d73d
00000030: ddde 403d b86e 553d b803 e9bb 6862 8cbb
00000040: 40ca 823d 1097 b23d 0bdb 3b3d 0e76 4f3d
00000050: 2691 483d a89a c7bb 7254 68ba 69ec d33d
00000060: 0a01 523d 3303 4d3d 4d4b 573d b136 603d
00000070: 1688 9c3c f0c5 923d 3cd3 7a3d ea20 dfbb

sequential_2/conv1d_7/Conv1D f4 [256, 1, 7, 14]
0.071520284 -0.015787622 0.038191393 0.036165416 -0.03969247 -0.0124710575 0.011894214 -0.060963813
0.018703328 -0.05450169 -0.03038287 -0.019566877 0.0038905025 -0.021073395 0.029518431 0.041194193
0.0076751164 -0.048630107 -0.05294147 -0.017756786 0.031179009 -0.03491516 0.020280004 0.04689716
0.05267852 0.057217587 -0.017886173 0.03405815 -0.037061635 -0.043501012 0.0041092313 -0.019638862
0.02296308 0.05069579 -0.005802703 -0.036758214 0.03130453 -0.01999481 -0.028690409 0.04907399
0.021300336 -0.04160073 -0.00059931574 -0.046539884 0.03833826 -0.029728 -0.025934465 -0.056497768
0.04236599 0.025118498 -0.04431584 -0.027324302 -0.030281764 -0.05634915 -0.007956796 -0.04432029
0.026420197 -0.019927453 0.009103648 -0.040532544 -0.024178509 -0.02798484 -0.037609063 0.058015175
-0.058843922 -0.0028593643 -0.01237726 0.037529424 0.043186072 -0.0009178132 -0.03435549 0.047823105
0.024244001 0.06673338 -0.043800734 -0.06160036 0.007275554 0.052145742 0.01658334 0.009413155
-0.036170267 -0.002841102 0.059218578 -0.005912838 -0.002982832 -0.040355485 -0.0071797194 0.07181076
-0.0055774506 0.042784072 0.01602591 0.027542513 -0.068106614 -0.06073792 -0.009361409 0.011756434
-0.01157953 0.010513729 -0.09847442 -0.041551434 -0.1424326 0.057013754 -0.059534624 0.0359809
-0.124708794 0.111619495 -0.092222415 0.0027406875 -0.0821015 -0.029864753 0.10298096 0.064224355
-0.076182164 -0.060541756 -0.08890061 0.032978192 -0.04205204 -0.061328806 -0.048894074 0.05180137
-0.05763663 0.040134933 -0.07943139 -0.04665898 0.013873207 0.022475522 -0.06587517 -0.007334969
-0.0062718913 0.006945576 -0.003626019 0.042216588 -0.02055019 0.052235365 -0.08401542 0.05471209
0.0009911761 -0.023231575 0.03525672 0.0033290137 -0.094453275 -0.070406325 -0.04847786 0.055302624
-0.06072199 -0.05299175 -0.006947861 0.08470649 -0.0042032045 0.023587503 0.012724633 0.038886253
-0.019269684 0.06381823 -0.0029982107 -0.08964765 -0.01726154 0.05491668 0.019753935 0.02333513
-0.055090215 0.033323996 -0.020417156 0.029762592 -0.03615566 0.025718352 -0.052872214 0.03357147
-0.0041307257 -0.015533354 0.0017717865 -0.043275192 -0.05593952 0.022642605 -0.031761706 -0.036288828
0.0098139355 0.02982227 0.005333866 0.0100670615 0.031763665 0.04407181 0.011861539 0.013839776
0.0022239732 -0.010513769 -0.052778613 0.005683025 -0.042258427 0.03391823 -0.05879365 0.02619361
0.0030241138 0.05169754 -0.023992455 0.0040239915 -0.043188144 0.056964055 0.015576197 0.0010360151
0.037393115 -0.02560188 0.048071697 0.034725767 0.013630056 -0.05272449 0.042969916 -0.030214576
-0.038289912 0.05673446 -0.032402456 0.04421591 0.01643889 -0.0613823 -0.00798265 0.015507647
-0.03591034 0.018478155 0.056101363 -0.026633682 -0.020193899 0.019925185 -0.03175403 0.053004477
0.01902382 0.0073739938 -0.010677375 -0.0018052371 -0.037734415 -0.01866515 0.04087617 -0.025437282
0.028594753 -0.039713968 -0.019222386 -0.006067268 0.019065073 -0.042521413 -0.020980302 0.020353729
-0.029059412 -0.05109856 -0.058784273 -0.046441264 -0.038983595 -0.0037085076 -0.017638208 0.0055119866
-0.018204466 0.032821335 -0.022014467 -0.034316476 0.04363398 -0.020462116 0.023776267 0.01182998
00000000: 3a79 923d 0b55 81bc 946e 1c3d 3022 143d
00000010: 9294 22bd 6853 4cbc f3df 423c 31b5 79bd
00000020: b937 993c 2a3d 5fbd 7fe5 f8bc b74a a0bc
00000030: cdf7 7e3b 1da2 acbc a3d0 f13c 3ebb 283d
00000040: 8b7f fb3b 5d30 47bd 28d9 58bd ae76 91bc
00000050: 1f6b ff3c 3303 0fbd 4022 a63c 3d17 403d
00000060: 6fc5 573d fd5c 6a3d 0686 92bc 8f80 0b3d
00000070: f1cd 17bd 1e2e 32bd bba6 863b aee1 a0bc
00000080: 121d bc3c 64a6 4f3d 9a24 bebb c88f 16bd
00000090: 2e39 003d 28cc a3bc 2608 ebbc cf01 493d
000000a0: 0b7e ae3c 8765 2abd 661b 1dba 9ba0 3ebd
000000b0: 9408 1d3d 2288 f3bc 8474 d4bc 346a 67bd
000000c0: f687 2d3d 4fc5 cd3c 8784 35bd 37d7 dfbc
000000d0: 7611 f8bc 5ece 66bd 395d 02bc 3189 35bd
000000e0: 2b6f d83c e63e a3bc 7827 153c 7405 26bd
000000f0: 0212 c6bc 7740 e5bc f60b 1abd 52a1 6d3d
00000100: 5306 71bd 2c64 3bbb fec9 4abc 74b8 193d
00000110: e1e3 303d 6799 70ba 58b8 0cbd 29e2 433d
00000120: 5b9b c63c 83ab 883d 6668 33bd a950 7cbd
00000130: c567 ee3b c696 553d c9d9 873c a239 1a3c
00000140: 4627 14bd c831 3abb 2e8f 723d 7bc0 c1bb
00000150: 9e7b 43bb cb4b 25bd da43 ebbb 8511 933d
00000160: 0cc3 b6bb 5a3e 2f3d c548 833c d6a0 e13c
00000170: 7b7b 8bbd 53c8 78bd 9860 19bc 0f9e 403c
00000180: 12b8 3dbc c741 2c3c f5ac c9bd d631 2abd
00000190: dad9 11be 4187 693d 94da 73bd b560 133d
000001a0: 5367 ffbd c398 e43d 1bdf bcbd 1b9d 333b
000001b0: d524 a8bd eda6 f4bc aee7 d23d 0f88 833d
000001c0: 6505 9cbd a2fa 77bd 8611 b6bd 2414 073d
000001d0: c33e 2cbd ea33 7bbd 2745 48bd ac2d 543d
000001e0: 6314 6cbd 8764 243d edac a2bd 7d1d 3fbd
000001f0: 734c 633c 961e b83c 90e9 86bd 2e5a f0bb
00000200: 7084 cdbb b797 e33b 81a2 6dbb 4deb 2c3d
00000210: df58 a8bc c0f4 553d 4710 acbd c919 603d
00000220: 5aea 813a 2550 bebc 5a69 103d 952b 5a3b
00000230: b870 c1bd 3131 90bd b890 46bd 0185 623d
00000240: 9fb7 78bd e10d 59bd e2aa e3bb 997a ad3d
00000250: 09bb 89bb 943a c13c fb7a 503c 3147 1f3d
00000260: 75db 9dbc 22b3 823d a17d 44bb 3099 b7bd
00000270: 1368 8dbc 50f0 603d 01d3 a13c 5129 bf3c
00000280: 47a6 61bd be7e 083d e141 a7bc aed0 f33c
00000290: f517 14bd 4baf d23c 8990 58bd 3d82 093d
000002a0: 0a5b 87bb 9c7f 7ebc 4a3b e83a 5441 31bd
000002b0: d720 65bd fc7c b93c 9018 02bd 98a3 14bd
000002c0: a1ca 203c d54d f43c b6c7 ae3b 51f0 243c
000002d0: 9e1a 023d a484 343d e756 423c 3ac0 623c
000002e0: 14c0 113b f241 2cbc 632e 58bd ab38 ba3b
000002f0: 2c17 2dbd d8ed 0a3d 9cd1 70bd fb93 d63c
00000300: 3630 463b cdc0 533d d38b c4bc b0db 833b
00000310: 0de6 30bd 2453 693d 4e33 7f3c e6ca 873a
00000320: 8629 193d 09bb d1bc d4e6 443d 9b3c 0e3d
00000330: 9950 5f3c a3f5 57bd 3901 303d 8f84 f7bc
00000340: e2d5 1cbd 6562 683d 70b8 04bd be1b 353d
00000350: daaa 863c 026c 7bbd a9c9 02bc c913 7e3c
00000360: b816 13bd 805f 973c 8bca 653d e12e dabc
00000370: ad6d a5bc 243a a33c 8410 02bd 391b 593d
00000380: d8d7 9b3c 8ba1 f13b 28f0 2ebc b59d ecba
00000390: 678f 1abd a8e7 98bc c56d 273d d961 d0bc
000003a0: 8b3f ea3c 1dab 22bd 4478 9dbc efcf c6bb
000003b0: 5b2e 9c3c ef2a 2ebd e2de abbc ddbc a63c
000003c0: 010e eebc b94c 51bd c7c7 70bd 3239 3ebd
000003d0: 43ad 1fbd 6f0a 73bb 017e 90bc e59d b43b
000003e0: 8821 95bc aa6f 063d af57 b4bc 6f8f 0cbd
000003f0: 8bb9 323d 2ba0 a7bc 72c6 c23c 88d2 413c

sequential_2/conv1d_8/Conv1D f4 [96, 1, 7, 256]
-0.018850781 0.020038838 0.0060508 -0.05068838 0.012946237 -0.032324996 -0.04475776 -0.028422164
-0.036508035 -0.0016970701 -0.03691314 -0.00421657 0.044221528 0.023373201 0.03765531 0.015927188
-0.013472593 0.019944957 -0.03462092 0.03448857 -0.02559368 0.018579133 -0.022068301 -0.036215853
0.013222779 -0.0066358093 0.017436175 -0.023868809 -0.0040583564 0.025455166 0.006355913 -0.038954288
0.012188162 -0.012988397 -0.004447553 0.026039809 0.021175602 -0.044031695 0.0020685464 0.03550986
-0.0013738285 -0.006392241 0.030339884 -0.005012779 0.03895504 0.029179886 -0.022390027 -0.005826567
-0.0058027958 -0.017467797 0.0056924103 -0.032089483 -0.0031930304 0.002938845 0.03684702 0.029472189
-0.032513604 -0.021510694 -0.045864847 0.02953116 0.0015093674 0.035296932 -0.05275353 0.040597122
-0.0284593 -0.016056327 0.0061149313 -0.0006655574 -0.02133361 0.019752845 0.040713027 0.010012586
-0.050676767 0.032383393 -0.04637116 -0.047397345 0.033118606 -0.015343483 -0.018466879 0.031758085
-0.024408719 0.009533862 -0.047243636 -0.0234995 -0.032872554 0.037643187 -0.0002938967 0.0059539624
0.006689033 -0.047403563 0.026900616 -0.0066486504 -0.048956852 -0.01962378 0.011099062 0.012517347
-0.010433728 0.039513975 0.019951927 -0.023926372 0.040576607 0.03179727 -0.03586712 -0.049392737
-0.036268257 -0.048276242 0.004058547 0.037976593 0.031884465 0.0224179 -0.0038789255 -0.04892275
0.04468852 -0.053818822 -0.01021927 -0.018205063 0.008589107 0.03330553 -0.048341114 -0.0029477896
0.00096894655 0.037240382 -0.04397716 0.033480965 0.04077732 0.019779855 0.043496497 0.0046826107
-0.037776668 -0.004940429 -0.0070030983 -0.025402913 -0.04231579 -0.011203572 -0.030301593 0.008021503
-0.034944195 0.02409294 -0.01923312 0.042997554 -0.031457633 -0.039668325 -0.005995039 -0.02021405
0.01507614 -0.019009475 0.035249926 0.024540918 -0.035849668 -0.026734244 0.04617708 0.009158717
0.001582339 -0.016640022 -0.029351015 0.035115626 0.03393266 -0.03674608 0.0428564 -0.04627117
0.03334076 -0.05343838 0.021826396 -0.0015632225 0.011911604 -0.04569649 -0.050984636 -0.0066215494
0.011968824 -0.03232664 -0.030023389 0.023542764 -0.006275469 -0.052245926 0.010180513 0.023542814
-0.005728493 0.03322186 0.018860286 -0.02670326 -0.03812156 0.02179709 0.009741934 -0.015033085
0.038368933 -0.042126074 -0.00037240813 -0.02584084 0.031448416 0.016914988 -0.036190886 0.011618141
-0.0130475545 0.03422513 0.024023179 -0.011523253 -0.044905186 -0.017997302 -0.04499216 -0.016857259
-0.01905694 0.02547343 0.004402472 -0.034811627 0.007914749 0.02988429 0.020404045 0.036339425
0.036195394 -0.025861315 0.015501416 0.013871205 0.0032349299 -0.022174139 0.018468585 0.010267984
-0.037882708 -0.033733673 0.031229056 0.03540508 -0.037588183 -0.043692175 -0.032657195 -0.041877747
-0.038828507 -0.049162194 -0.007814721 -0.041878045 -0.014731109 -0.015813518 0.042989437 0.012348338
0.006952204 0.038978606 0.023393655 -0.0046328465 0.0037952736 0.017539583 0.016938908 0.021375762
0.04399447 -0.032961275 0.04236902 0.018658426 -0.017127136 -0.009791242 0.0055066566 0.008745374
-0.041573424 -0.03982168 0.03880949 0.034448266 0.0016834597 0.03548309 -0.040350907 -0.011845207
00000000: f46c 9abc 7d28 a43c ca45 c63b 9e9e 4fbd
00000010: 741c 543c 3767 04bd ea53 37bd 99d5 e8bc
00000020: 7389 15bd 3970 deba 3c32 17bd 272b 8abb
00000030: a221 353d 2879 bf3c 743c 1a3d bc79 823c
00000040: 27bc 5cbc 9b63 a33c aace 0dbd e343 0d3d
00000050: d6a9 d1bc 4433 983c 95c8 b4bc 1357 14bd
00000060: 5ba4 583c 3471 d9bb 4fd6 8e3c 8588 c3bc
00000070: f6fb 84bb 5a87 d03c 4345 d03b 888e 1fbd
00000080: dbb0 473c 49cd 54bc c7bc 91bb 7051 d53c
00000090: 7578 ad3c 945a 34bd 7390 073b c972 113d
000000a0: 0912 b4ba 0176 d1bb 598b f83c 3d42 a4bb
000000b0: 528f 1f3d a80a ef3c 4a6b b7bc c9ec bebb
000000c0: 6125 bebb a018 8fbc 6687 ba3b 4370 03bd
000000d0: 2942 51bb a399 403b e7ec 163d a96f f13c
000000e0: fc2c 05bd 3237 b0bc c7dc 3bbd 55eb f13c
000000f0: f7d5 c53a 8493 103d 1614 58bd 2b49 263d
00000100: 7a23 e9bc 8f88 83bc c35f c83b cd78 2eba
00000110: d3c3 aebc b8d0 a13c b4c2 263d d40b 243c
00000120: 7192 4fbd 73a4 043d afef 3dbd b823 42bd
00000130: 60a7 073d 3b63 7bbc da47 97bc c414 023d
00000140: cbf4 c7bc ea33 1c3c 8b82 41bd 0682 c0bc
00000150: 5fa5 06bd be2f 1a3d 2616 9ab9 7519 c33b
00000160: ad2f db3b 3d2a 42bd ae5e dc3c ecdc d9bb
00000170: fb86 48bd 0dc2 a0bc d7d8 353c 8f15 4d3c
00000180: 3af2 2abc 68d9 213d 3972 a33c 3d01 c4bc
00000190: a833 263d db3d 023d 67e9 12bd 0a50 4abd
000001a0: 068e 14bd 4fbd 45bd 8ffd 843b 588d 1b3d
000001b0: 4999 023d bea5 b73c 9235 7ebb 3963 48bd
000001c0: 4f0b 373d 2071 5cbd ba6e 27bc c922 95bc
000001d0: 53b9 0c3c 616b 083d 5501 46bd b42f 41bb
000001e0: e700 7e3a 5f89 183d 6521 34bd 5623 093d
000001f0: 1e06 273d 5d09 a23c 6229 323d 9670 993b
00000200: b5bb 1abd 52e3 a1bb 3f7a e5bb c519 d0bc
00000210: 5253 2dbd 308f 37bc 0c3b f8bc 9f6c 033c
00000220: a521 0fbd 8f5e c53c c78e 9dbc 341e 303d
00000230: b8d9 00bd 417b 22bd 0872 c4bb ef97 a5bc
00000240: ea01 773c c2b9 9bbc 3a62 103d 090a c93c
00000250: 1ad7 12bd c601 dbbc 2e24 3d3d 710e 163c
00000260: 7d66 cf3a a850 88bc 8a71 f0bc 67d5 0f3d
00000270: f9fc 0a3d 0f83 16bd 318a 2f3d d786 3dbd
00000280: 5290 083d 34e2 5abd 45cd b23c 0be5 ccba
00000290: e328 433c 3e2c 3bbd 44d5 50bd 95f9 d8bb
000002a0: e318 443c f068 04bd 9cf3 f5bc c1dc c03c
000002b0: 73a2 cdbb d3ff 55bd 2bcc 263c dcdc c03c
000002c0: 15b6 bbbb a513 083d e380 9a3c ccc0 dabc
000002d0: 5a25 1cbd d08f b23c a29c 1f3c 544d 76bc
000002e0: be28 1d3d 648c 2cbd c63f c3b9 2bb0 d3bc
000002f0: 0ed0 003d 4d91 8a3c e53c 14bd 045a 3e3c
00000300: 69c5 55bc a62f 0c3d 42cc c43c 07cc 3cbc
00000310: 80ee 37bd 146f 93bc b349 38bd 3c18 8abc
00000320: 4d1d 9cbc a8ad d03c 9d42 903b a396 0ebd
00000330: ddac 013c e6cf f43c 6226 a73c a6d8 143d
00000340: 9f41 143d 1cdb d3bc a7f9 7d3c 0d44 633c
00000350: 1e01 543b 8aa6 b5bc 6e4b 973c 0c3b 283c
00000360: e62a 1bbd 522c 0abd 14d4 ff3c eb04 113d
00000370: 11f6 19bd 91f6 32bd 8dc3 05bd 0088 2bbd
00000380: a40a 1fbd 4c5e 49bd 5109 00bc 5088 2bbd
00000390: c05a 71bc 5a8b 81bc b115 303d af50 4a3c
000003a0: 50cf e33b 08a8 1f3d 0da4 bf3c 22cf 97bb
000003b0: 20ba 783b 2caf 8f3c 77c3 8a3c 391c af3c
000003c0: 8c33 343d 6702 07bd 238b 2d3d 8ed9 983c
000003d0: 354e 8cbc 726b 20bc 2f71 b43b c248 0f3c
000003e0: e548 2abd 0f1c 23bd b3f6 1e3d a019 0d3d
000003f0: 89a7 dc3a b756 113d fe46 25bd 6612 42bc

sequential_2/conv1d_9/Conv1D f4 [32, 1, 7, 96]
-0.060817637 0.27435473 0.10246645 0.010054097 0.032969274 -0.019234901 -0.06649708 0.2487346
0.015935633 -0.007991681 0.0022415295 0.061466776 -0.064874455 -0.054272976 0.04335077 -0.0051757935
0.02122538 -0.12142963 -0.008635192 -0.0038560622 0.05079343 0.008089258 0.06556595 0.07715751
-0.017488578 0.0060242894 0.04177025 0.082532175 -0.07228667 -0.0011551314 0.11539462 -0.015899472
0.1470194 -0.044023376 0.085174456 -0.041666634 -0.053353846 0.0037656715 0.00042799473 0.039870445
-0.061994128 -0.054444965 0.000253583 -0.027961021 0.022183055 -0.027268842 -0.03830775 -0.027494825
0.06928082 0.04465936 0.016730463 0.10279344 0.09942473 0.06568861 0.023884205 -0.05178027
0.08333313 0.048426118 -0.032446906 -0.05892441 -0.03105582 0.055377875 0.030245163 0.076384455
-0.031908065 0.060437106 0.04771777 -0.009742578 0.027896823 -0.009599732 -0.028704433 -0.051787164
0.054814175 0.16515508 -0.027083557 -0.0027160898 -0.06607686 0.045605723 -0.029092874 0.005256541
-0.038738836 0.0009582639 0.061315496 -0.0027289635 -0.054135732 0.052317165 -0.0013966858 -0.02499294
0.039036103 0.09313606 -0.0132896835 -0.042430177 0.10529117 -0.05083569 -0.04635924 -0.02355651
0.00080666627 0.06724495 0.018517224 0.0058370754 0.047209438 0.044646922 0.079139456 0.08783462
0.07967737 -0.06351205 0.05937396 -0.041825682 0.08153666 -0.017118813 -0.07551843 0.10254611
0.054739866 -0.112987876 -0.041548744 -0.043276917 0.04150855 -0.072947614 0.08472344 -0.027680278
-0.0086920615 0.06269632 -0.021400256 -0.05523347 0.0027676497 0.09290184 0.03610866 0.07945702
0.06359509 -0.05667243 0.058891688 0.020201325 -0.06503891 -0.013353714 -0.03389846 -0.070574604
0.044198446 -0.045999885 -0.029265435 -0.071212284 0.06849612 0.025808478 0.06775834 0.07971054
-0.037541915 0.0106813675 0.07877308 0.012136096 -0.03520079 0.024492295 0.05877055 -0.06630651
-0.026429603 -0.027083568 -0.02008466 0.03574115 0.059192654 0.07141944 0.10881468 -0.0056732944
-0.032810476 0.04315584 0.014299475 0.026776679 -0.04931415 0.0811838 0.075050265 0.085329786
0.054518495 -0.031046169 0.05425955 0.018932825 0.0761245 0.016400427 0.07902811 -0.004957431
-0.014248205 -0.04598511 -0.029088074 0.07995138 0.02078887 -0.01813466 0.016369134 0.06276323
-0.067121066 -0.026820775 -0.070239596 -0.053123787 0.035884183 0.025168024 0.0835521 0.0015951339
-0.037891172 0.05426323 0.04944888 -0.024865832 -0.06286532 0.07082609 -0.018675536 0.11046496
0.049585924 0.03039412 0.07020563 -0.010477045 -0.07468162 0.059823703 -0.06777818 0.06795447
-0.079525076 -0.16002321 -0.011626181 -0.020438993 -0.07198042 0.012053975 0.006400132 0.07876321
-0.063787326 0.00770355 -0.03181088 -0.017504565 -0.06401472 0.06253186 -0.06259876 -0.0025460399
0.022886174 -0.014621058 0.054619256 0.085115306 -0.020772154 0.025920274 -0.016784627 0.009946826
0.0500439 0.036581114 -7.122995e-05 0.021336997 0.07220173 0.07580763 0.055638764 0.08052515
0.005999246 -0.03353948 0.028535597 0.014841569 -0.026828732 -0.045219403 -0.055800647 0.0074475305
-0.01560023 0.06022941 0.086681604 -0.015378826 -0.03664428 -0.054041535 0.028427573 0.07863197
00000000: ea1b 79bd 3978 8c3e eed9 d13d f0b9 243c
00000010: ca0a 073d 8392 9dbc 9f2f 88bd 48b4 7e3e
00000020: 728b 823c 8aef 02bc a0e6 123b 96c4 7b3d
00000030: e6dc 84bd 574d 5ebd 9490 313d b499 a9bb
00000040: d9e0 ad3c 19b0 f8bd 9f7a 0dbc fdb5 7cbb
00000050: c60c 503d cf88 043c 7147 863d c204 9e3d
00000060: 3544 8fbc 6767 c53b 4817 2b3d a106 a93d
00000070: 090b 94bd c767 97ba 0454 ec3d 9c3f 82bc
00000080: 418c 163e db51 34bd f26f ae3d a2aa 2abd
00000090: 9089 5abd 7cc9 763b 7b64 e039 314f 233d
000000a0: 8eed 7dbd af01 5fbd 56f3 8439 830e e5bc
000000b0: 3db9 b53c e862 dfbc 96e8 1cbd d43c e1bc
000000c0: 1ae3 8d3d bcec 363d 530e 893c 5e85 d23d
000000d0: 319f cb3d c087 863d cfa8 c33c 8c17 54bd
000000e0: 8faa aa3d 775a 463d 0ce7 04bd b95a 71bd
000000f0: c668 febc e9d3 623d b4c4 f73c 746f 9c3d
00000100: 08b2 02bd e68c 773d b573 433d 559f 1fbc
00000110: e187 e43c 3248 1dbc 8f25 ebbc c71e 54bd
00000120: d484 603d 6a1e 293e 56de ddbc 6d00 32bb
00000130: 4e53 87bd 11cd 3a3d 2e54 eebc 103f ac3b
00000140: 9dac 1ebd 0034 7b3a f525 7b3d 69d8 32bb
00000150: 6ebd 5dbd 864a 563d 0011 b7ba febd ccbc
00000160: 52e4 1f3d 1ebe be3d f9bc 59bc 44cb 2dbd
00000170: e6a2 d73d 1639 50bd 30e3 3dbd 95f9 c0bc
00000180: 7576 533a b8b7 893d 6fb1 973c f044 bf3b
00000190: af5e 413d b1df 363d de13 a23d a3e2 b33d
000001a0: e42d a33d 9b12 82bd 1c32 733d 6851 2bbd
000001b0: b1fc a63d c13c 8cbc 68a9 9abd b203 d23d
000001c0: e936 603d 3066 e7bd 042f 2abd 2343 31bd
000001d0: df04 2a3d 8f65 95bd 7c83 ad3d c0c1 e2bc
000001e0: 2669 0ebc ee66 803d 974f afbc 7e3c 62bd
000001f0: 7561 353b 5243 be3d ade6 133d 5dba a23d
00000200: 243e 823d 5a21 68bd 6938 713d 407d a53c
00000210: 1f33 85bd 89c9 5abc 1dd9 0abd 6b89 90bd
00000220: 6e09 353d 606a 3cbd 11be efbc bfd7 91bd
00000230: b247 8c3d 4d6c d33c e2c4 8a3d 483f a33d
00000240: 8dc5 19bd e700 2f3c c853 a13d 7ad6 463c
00000250: b42e 10bd 11a4 c83c 63b9 703d b5cb 87bd
00000260: e582 d8bc 5cde ddbc 9688 a4bc 5065 123d
00000270: ff73 723d 5b44 923d 3bda de3d 0be7 b9bb
00000280: 4764 06bd 2ec4 303d 5848 6a3c c45a db3c
00000290: a2fd 49bd b143 a63d f4b3 993d 62c1 ae3d
000002a0: c94e 5f3d 8954 febc 433f 5e3d 0319 9b3c
000002b0: 29e7 9b3d 305a 863c 7dd9 a13d f271 a2bb
000002c0: 4e71 69bc e25a 3cbd 1d4a eebc 8dbd a33d
000002d0: 6c4d aa3c 238f 94bc 9018 863c 028a 803d
000002e0: c576 89bd 3eb7 dbbc c7d9 8fbd 5498 59bd
000002f0: 4bfb 123d 2c2d ce3c 5d1d ab3d d013 d13a
00000300: c633 1bbd 1f43 5e3d e98a 4a3d 6eb3 cbbc
00000310: 88bf 80bd 450d 913d 70fd 98bc 743b e23d
00000320: 9c1a 4b3d 17fd f83c f8c7 8f3d e9a7 2bbc
00000330: adf2 98bd b309 753d 49cf 8abd b72b 8b3d
00000340: 0bde a2bd 20dd 23be bd7b 3ebc ad6f a7bc
00000350: 786a 93bd 097e 453c 33b8 d13b 9b4e a13d
00000360: eea2 82bd 106e fc3b 204c 02bd bc65 8fbc
00000370: 261a 83bd b410 803d c733 80bd 76db 26bb
00000380: c97b bb3c 298d 6fbc 71b8 5f3d ef50 ae3d
00000390: 5d2a aabc c156 d43c ea7f 89bc 03f8 223c
000003a0: d5fa 4c3d 14d6 153d 4a61 95b8 edca ae3c
000003b0: 80de 933d 0841 9b3d 79e5 633d 5fea a43d
000003c0: 5395 c43b b260 09bd 7cc3 e93c 0d2a 733c
000003d0: eec7 dbbc fb37 39bd 388f 64bd 6a0a f43b
000003e0: 1b98 7fbc 1db3 763d 2086 b13d 79f7 7bbc
000003f0: 5018 16bd a85a 5dbd f1e0 e83c cc09 a13d

sequential_2/dense_5/BiasAdd/ReadVariableOp f4 [128]
-0.074401975 0.046144143 -0.013046137 -0.023461906 -0.008156356 -0.018508308 -0.010177957 -0.023890568
-0.015187386 -0.041633874 -0.011834601 -0.041824516 0.046455897 -0.007414524 0.007574567 0.055770196
-0.008477125 -0.006630724 -0.007172506 0.047156375 0.049135342 0.06608392 -0.0073388135 -0.029428521
-0.026784424 -0.0027152074 -0.03816838 -0.013596825 0.046873964 -0.031697378 -0.013515779 -0.0057543395
-0.0062365327 -0.0097332755 0.04730107 0.046725582 -0.0015418688 -0.008017952 -0.007671785 0.046720125
-0.01226467 -0.040546812 0.014886689 0.0 -0.04398122 0.04426199 -0.017433051 0.046451733
-0.021032035 -0.0040470134 -0.0064269574 -0.0066961627 0.04766474 0.02383201 -0.026540758 0.047177542
-0.00020834288 0.09793636 0.044378787 -0.017056646 -0.017866459 -0.011527633 0.0467396 0.048942268
-0.017616337 -0.020398049 0.04620414 0.04281668 -0.006005462 0.048223313 0.04723846 0.0
-0.012634069 0.047345422 -0.024573192 -0.02343194 -0.008555049 0.046499662 0.046771333 -0.031390287
-0.0063990913 0.0 0.046641268 0.03973419 -0.005793994 -0.010833643 -0.0067911926 0.038278542
0.047094956 0.0 -0.0043803393 0.04640617 -0.013582477 -0.043434992 -0.019265153 0.036776256
-0.017004661 0.0454813 0.0035031324 -0.002240339 0.07437727 0.04545415 0.03770315 -0.004779106
0.04664708 0.049491268 0.07348505 -0.009790476 -0.0828315 -0.019370519 0.0029403404 0.046834566
0.0022966934 -0.05132061 -0.012385942 0.03975552 -0.024385406 -0.010617855 0.04767121 0.047091015
0.046295933 0.04725105 -0.01868138 -0.0064914348 0.012068937 0.09742957 0.04673492 0.05450386
00000000: 1060 98bd a401 3d3d 77bf 55bc 2f33 c0bc
00000010: 3da2 05bc bc9e 97bc 72c1 26bc 27b6 c3bc
00000020: 84d4 78bc 4888 2abd eae5 41bc 2f50 2bbd
00000030: 8a48 3e3d 89f5 f2bb 1334 f83b 4a6f 643d
00000040: a4e3 0abc 8b46 d9bb 5707 ebbb 0b27 413d
00000050: 2442 493d 0257 873d 6e7a f0bb 1514 f1bc
00000060: 026b dbbc 9ff1 31bb 7256 1cbd 38c5 5ebc
00000070: eafe 3f3d 1cd5 01bd 4971 5dbc e68e bcbb
00000080: d45b ccbb 5178 1fbc c4be 413d 5363 3f3d
00000090: 8818 caba ba5d 03bc 9963 fbbb 9a5d 3f3d
000000a0: c1f1 48bc 6a14 26bd 4de7 733c 0000 0000
000000b0: a725 34bd 0f4c 353d c2cf 8ebc 2c44 3e3d
000000c0: 604b acbc cf9c 84bb 3a99 d2bb 7c6b dbbb
000000d0: 1a3c 433d 593b c33c 016c d9bc 3d3d 413d
000000e0: 9e76 5ab9 dc92 c83d 88c6 353d 61ba 8bbc
000000f0: ae5c 92bc 66de 3cbc 0672 3f3d b077 483d
00000100: 2350 90bc cf19 a7bc 8d40 3d3d 8b60 2f3d
00000110: 77c9 c4bb cf85 453d 1e7d 413d 0000 0000
00000120: 20ff 4ebc 46ed 413d b84d c9bc 57f4 bfbc
00000130: 7a2a 0cbc 6e76 3e3d 4c93 3f3d 1a93 00bd
00000140: 78af d1bb 0000 0000 ea0a 3f3d 51c0 223d
00000150: 8bdb bdbb 987f 31bc a788 debb f6c9 1c3d
00000160: a4e6 403d 0000 0000 f388 8fbb 6514 3e3d
00000170: 0a89 5ebc e4e8 31bd f4d1 9dbc b3a2 163d
00000180: 5c4d 8bbc 9a4a 3a3d cf94 653b a7d2 12bb
00000190: 1c53 983d 212e 3a3d 9e6e 1a3d 0c9a 9cbb
000001a0: 0211 3f3d 5bb7 4a3d 547f 963d 3c68 20bc
000001b0: 90a3 a9bd ecae 9ebc bab2 403b 9ad5 3f3d
000001c0: 1f84 163b 8f35 52bd 68ee 4abc afd6 223d
000001d0: e7c3 c7bc 83f6 2dbc e342 433d 82e2 403d
000001e0: cea0 3d3d 518a 413d b209 99bc 1ab6 d4bb
000001f0: cabc 453c 2889 c73d 1e6d 3f3d 713f 5f3d

sequential_2/dense_4/BiasAdd/ReadVariableOp f4 [64]
0.01058893 -0.005327662 0.04167062 0.048841294 0.05606035 0.044550996 0.055114936 0.052601397
0.046707183 0.04168582 0.075511545 0.053469047 0.050602853 0.008645552 0.059115063 -0.025713066
0.031993356 0.049015537 0.04906601 -0.053968932 -0.007203156 0.056446355 0.0053057065 0.03609487
0.09884194 0.042072635 0.03813968 0.046977237 0.043237854 0.053965982 0.034285605 0.0423461
0.0 0.0 0.04866866 0.062528476 -0.016020942 0.04695049 0.055264674 0.042104863
-0.03963112 0.015976945 0.042817462 -0.00053368194 0.07161578 0.04610249 -0.023564838 -0.009400617
-0.015697133 0.06563171 -0.0060164393 -0.007318694 0.04495111 0.029238679 0.030502569 0.007759736
-0.03820286 0.026241545 -0.0060054637 0.034445055 0.043221258 0.035468288 0.038807653 0.036740813
00000000: 317d 2d3c ab93 aebb d0ae 2a3d cf0d 483d
00000010: 8a9f 653d 1b7b 363d 33c0 613d 9074 573d
00000020: 0850 3f3d c0be 2a3d cca5 9a3d 5c02 5b3d
00000030: f044 4f3d 13a6 0d3c a322 723d 35a4 d2bc
00000040: 770b 033d 84c4 483d 71f9 483d 870e 5dbd
00000050: 7408 ecbb 4b34 673d 7edb ad3b 37d8 133d
00000060: a56d ca3d 5b54 2c3d 5a38 1c3d 346b 403d
00000070: 2d1a 313d 6f0b 5d3d 106f 0c3d 1b73 2d3d
00000080: 0000 0000 0000 0000 ca58 473d ee0e 803d
00000090: 5a3e 83bc 284f 403d 365d 623d 2676 2c3d
000000a0: 3e54 22bd 15e2 823c 5d61 2f3d cae6 0bba
000000b0: 4bab 923d f7d5 3c3d 0c0b c1bc 0c05 1abc
000000c0: 4697 80bc eb69 863d 8d25 c5bb a8d1 efbb
000000d0: a81e 383d f485 ef3c 86e0 f93c 6245 fe3b
000000e0: 9a7a 1cbd 82f8 d63c 7bc9 c4bb 4216 0d3d
000000f0: c608 313d 3247 113d c6f4 1e3d 897d 163d

sequential_2/dense_4/MatMul f4 [64, 32]
-0.073780365 0.038487703 -0.020326687 0.22878693 0.0009098557 -0.16923526 -0.0054512545 0.23924945
0.12904689 0.14504239 0.14546952 -0.04959715 0.04201677 0.10171483 0.12473888 -0.071214475
0.07021477 -0.1494287 -0.10766359 -0.038829178 -0.1605943 -0.14617194 -0.114517935 0.27062812
-0.036555942 -0.25080284 0.21012728 -0.101874 -0.25491905 0.27400103 -0.07367406 -0.1483516
-0.022442956 -0.2537682 -0.09658128 0.15573597 -0.18233715 -0.03252867 0.08589854 0.12646668
-0.17356867 -0.026778335 0.026076503 0.03147626 0.2327565 0.013910808 0.028991181 -0.2718749
0.23318093 -0.19938292 -0.1392273 0.13042735 0.22535206 -0.16014814 0.06433606 -0.021959795
-0.04470254 -0.19813102 0.010918985 -0.13837427 -0.124795586 -0.07774711 0.23007825 -0.1255076
0.028654719 -0.09728324 0.121371605 0.049961515 -0.10286326 -0.0005114586 0.10537941 0.2978599
0.27328068 0.19971347 -0.020459153 -0.057791296 0.25267774 0.19129623 0.10900959 -0.16132347
0.02246054 -0.29807732 0.17086811 0.2483596 0.098442614 0.057856828 0.15468444 -0.12439426
-0.12521675 0.17332312 -0.06694354 0.13953795 -0.30841133 0.22245115 -0.30480674 0.0415738
0.18008517 -0.08723465 -0.20369102 -0.21280348 -0.22776698 0.12604006 -0.21316713 0.2612687
0.101064324 0.14379631 -0.21942748 0.062288664 0.08900745 0.15213174 0.0009973403 0.17133944
-0.10067222 -0.4047779 0.22083253 0.27207702 0.17314458 0.036497135 0.14672096 0.062204987
0.13289112 0.043798957 0.12803994 0.23338118 -0.2512277 -0.049983148 0.12472823 -0.012450255
-0.1631963 0.15221459 -0.00895185 -0.19609497 0.044285454 -0.20321657 0.07049788 0.1379366
0.09837544 -0.20099205 -0.10720473 0.03999422 0.228101 -0.02418191 0.0049685948 -0.21489736
0.27018392 -0.4323711 0.10774984 0.0634178 0.26923135 -0.061989024 0.14736362 0.21884379
-0.020059468 -0.18182628 0.26978278 0.10799707 -0.14009556 -0.024477517 -0.054248825 -0.011071343
0.27012473 -0.18105832 0.18188737 0.15357734 -0.20821586 -0.029716318 0.042298328 0.018279565
-0.15223041 0.0042459155 0.046949092 0.11823454 0.20975724 -0.06795555 -0.09420774 -0.22619651
0.05184749 -0.46813136 0.22017823 -0.053245004 0.008279007 -0.1795944 0.12903006 -0.07892261
0.024874082 0.20069134 0.21392073 0.068364695 -0.5502461 -0.13918972 -0.087733336 -0.09565937
-0.0016977334 0.07027887 0.11669176 0.2086979 0.22331342 -0.07275453 0.23998761 0.2136485
0.2618126 0.24017498 0.04352585 0.31058902 -0.16205543 0.08628431 0.15069436 0.034039333
0.033456966 -0.26227385 0.18612127 0.27174106 -0.013607383 0.07636694 -0.06787361 0.189422
0.10844368 -0.05524052 0.059141036 0.09068267 -0.15581769 0.12212308 -0.3001792 0.20715909
0.22137368 -0.1664613 -0.09828485 -0.1703828 -0.1183136 0.22425103 0.06509883 0.002264575
-0.08183737 0.08356712 -0.18677154 0.015151486 0.21481183 0.15305737 0.13058512 -0.02846593
0.33005422 -0.25643486 -0.057438925 0.24686612 0.06277965 0.107495874 0.2027296 0.2687712
0.12659788 0.15255685 0.020897547 -0.088999294 -0.09696676 0.21407309 0.074034974 -0.08449895
00000000: 291a 97bd 48a5 1d3d 2784 a6bc 1f47 6a3e
00000010: 6283 6e3a 024c 2dbe 70a0 b2bb cffd 743e
00000020: de24 043e fe85 143e f6f5 143e 6226 4bbd
00000030: c719 2c3d dd4f d03d 1977 ff3d e5d8 91bd
00000040: c3cc 8f3d d603 19be ba7e dcbd 580b 1fbd
00000050: d572 24be 19ae 15be 6188 eabd c58f 8a3e
00000060: afbb 15bd 3b69 80be 9b2b 573e 51a3 d0bd
00000070: c084 82be dd49 8c3e 6de2 96bd 7be9 17be
00000080: 4ada b7bc e8ed 81be 68cc c5bd 4079 1f3e
00000090: 97b6 3abe c83c 05bd 93eb af3d 7b80 013e
000000a0: fcbb 31be 3d5e dbbc 649e d53c 40ed 003d
000000b0: b857 6e3e 28ea 633c ea7e ed3c 3033 8bbe
000000c0: fbc6 6e3e 092b 4cbe 9a91 0ebe bf8e 053e
000000d0: b1c2 663e e0fd 23be a0c2 833d 07e5 b3bc
000000e0: 031a 37bd dce2 4abe 8be5 323c fcb1 0dbe
000000f0: d494 ffbd e039 9fbd a299 6b3e 1085 00be
00000100: 4dbd ea3c 6f3c c7bd ad91 f83d 72a4 4c3d
00000110: f9a9 d2bd 6813 06ba 29d1 d73d 1881 983e
00000120: 72eb 8b3e b081 4c3e f499 a7bc 91b6 6cbd
00000130: fa5e 813e 29e3 433e 6c40 df3d fb31 25be
00000140: 2bff b73c 979d 98be 0df8 2e3e fb51 7e3e
00000150: 489c c93d 48fb 6c3d 9965 1e3e 6bc2 febd
00000160: d238 00be 9e7b 313e b219 89bd 09e3 0e3e
00000170: 17e8 9dbe 3cca 633e a10f 9cbe 4a49 2a3d
00000180: 3f68 383e 15a8 b2bd 6194 50be 28e9 59be
00000190: bf3b 69be a510 013e 7c48 5abe 03c5 853e
000001a0: d0fa ce3d 573f 133e 99b1 60be 6622 7f3d
000001b0: 8a49 b63d 6cc8 1b3e 30b9 823a 9b73 2f3e
000001c0: 3d2d cebd 0d3f cfbe ec21 623e ae4d 8b3e
000001d0: d04c 313e 057e 153d 053e 163e a8ca 7e3d
000001e0: 9c14 083e 8966 333d e71c 033e 7afb 6e3e
000001f0: eba0 80be 21bb 4cbd 8471 ff3d 28fc 4bbc
00000200: ee1c 27be 24de 1b3e c8aa 12bc 1fcd 48be
00000210: aa64 353d 0118 50be 3161 903d 413f 0d3e
00000220: 1079 c93d dcd0 4dbe 278e dbbd fbd0 233d
00000230: 4f93 693e 2419 c6bc 98cf a23b 0e0e 5cbe
00000240: 8c55 8a3e bf5f ddbe f3ab dc3d 31e1 813d
00000250: b1d8 893e 34e8 7dbd 7de6 163e 9618 603e
00000260: c153 a4bc ab30 3abe f820 8a3e 912d dd3d
00000270: 3675 0fbe 1385 c8bc 0434 5ebd 9464 35bc
00000280: ca4d 8a3e 5a67 39be af40 3a3e 6143 1d3e
00000290: 8a36 55be a36f f3bc 0341 2d3d 07bf 953c
000002a0: 4ae2 1bbe 5221 8b3b b14d 403d f324 f23d
000002b0: 9aca 563e 482c 8bbd fdef c0bd 0fa0 67be
000002c0: 095e 543d eaae efbe 6776 613e 6f17 5abd
000002d0: aca4 073c 98e7 37be 7520 043e 2da2 a1bd
000002e0: bbc4 cb3c 0882 4d3e 090e 5b3e ca02 8c3d
000002f0: eedc 0cbf c087 0ebe 89ad b3bd 0fe9 c3bd
00000300: 7b86 deba 5eee 8f3d 17fc ee3d e7b4 553e
00000310: 46ac 643e 5400 95bd 50bf 753e acc6 5a3e
00000320: 4d0c 863e 6ef0 753e 2948 323d 8605 9f3e
00000330: dcf1 25be d4b5 b03d 9f4f 1a3e d46c 0b3d
00000340: 2c0a 093d c248 86be 9396 3e3e a521 8b3e
00000350: 80f1 5ebc 4566 9c3d 5201 8bbd d7f7 413e
00000360: b817 de3d e243 62bd df3d 723d d6b7 b93d
00000370: ac8e 1fbe aa1b fa3d 17b1 99be 8321 543e
00000380: c8af 623e d574 2abe 9149 c9bd d478 2ebe
00000390: 674e f2bd 10a2 653e 8952 853d 4469 143b
000003a0: 5a9a a7bd 3d25 ab3d 0a41 3fbe f03d 783c
000003b0: a2f7 5b3e 12bb 1c3e 1bb8 053e 6231 e9bc
000003c0: defc a83e 6e4b 83be 1445 6bbd 79ca 7c3e
000003d0: 9e92 803d cc26 dc3d 5998 4f3e 619c 893e
000003e0: e0a2 013e dd37 1c3e 5531 ab3c 4345 b6bd
000003f0: 8296 c6bd fa35 5b3e a69f 973d c90d adbd

sequential_2/dense_5/MatMul f4 [128, 64]
0.07233872 0.04719943 -0.034283474 -0.16722082 0.01645359 0.14731075 -0.15110631 -0.21213552
0.1487873 -0.13520461 0.022306383 -0.1547173 -0.07617591 0.07941518 0.072975494 -0.101153746
-0.16753642 -0.031141555 -0.16164865 0.07952251 -0.13639681 -0.03182942 -0.12000491 0.15145357
-0.037579764 0.029325137 -0.039811283 0.017736487 0.05071889 -0.20416543 -0.027587011 0.0760678
0.108205065 -0.105844304 -0.119406134 -0.022311013 0.029427804 -0.008364686 -0.14757514 -0.07176065
-0.123945735 0.086550884 0.054794177 0.015868234 -0.011179416 0.117914364 0.01641189 -0.06674826
0.13316624 0.07339914 0.043376222 -0.09484625 0.057489764 -0.085087545 0.047477536 0.04814984
-0.20805271 -0.10852164 0.16677512 -0.106337175 -0.081014924 -0.18427901 -0.048056766 -0.15344182
0.018766157 -0.12791725 -0.08427188 -0.052394174 -0.019486442 0.16830558 0.028982947 0.010162401
0.15727834 0.16571744 -0.051991727 0.1455971 0.048963964 -0.21187887 0.16263644 -0.16117288
-0.018737772 -0.13390744 0.01371033 -0.16012295 0.027951207 0.16264199 -0.21582548 0.22979642
0.24786656 -0.034524903 -0.06622937 0.07211164 0.02685466 0.17677154 -0.11041721 0.08357702
-0.13266799 0.095231846 0.16193368 0.13382524 0.11323822 0.09545159 0.11622601 0.16237704
0.0054422054 0.07557675 0.08009064 0.13897692 0.12257469 0.04660279 -0.1265572 -0.12502481
0.085304745 0.01737063 -0.05943151 -0.062474567 0.17334166 0.05936758 0.044334084 -0.024419477
0.14585657 0.07406172 -0.1486446 0.15013301 0.01986124 -0.1465596 0.08953291 0.0038702246
-0.044221055 -0.091582686 0.106930844 0.007689496 0.08070533 -0.13162635 0.11784989 0.025418404
0.07702497 0.053201467 -0.053980708 -0.16539083 -0.01535294 -0.07392963 0.07472077 -0.058710873
-0.11979168 -0.00980131 -0.117236525 0.14002869 -0.19863467 -0.2132745 0.15577894 0.11938749
0.09187303 -0.028259248 0.016273817 0.0809468 -0.030679027 -0.15355068 -0.10078279 -0.02779006
0.06592749 0.0008147359 -0.15319106 -0.13662744 0.16364434 0.108874306 -0.1667258 -0.20488815
0.0056684776 0.16046926 -0.07000807 -0.13775666 -0.06330301 -0.17046088 -0.026776306 0.15157793
0.099970855 0.03418628 0.16299799 -0.16240999 -0.22277491 0.12528025 0.044653565 -0.052445035
-0.1280012 -0.10294175 -0.030603796 -0.19733699 0.13111661 0.0745667 -0.033480167 -0.18862891
-0.10587298 -0.07091842 -0.21400598 -0.13261746 0.1443853 -0.10706789 0.13885643 -0.20980996
0.103117734 -0.27901378 0.109695114 0.05839784 -0.2087087 0.06681773 0.017752497 0.18269122
0.15537304 0.1273155 0.13417195 0.13247444 -0.0055443263 -0.10582947 0.13859993 0.09377651
0.0018788535 -0.07781621 0.12888417 -0.12343904 0.11782178 -0.0646358 -0.19034235 -0.14211942
0.10972004 0.0054059625 -0.19780558 0.12231696 0.09966468 0.058396664 -0.13376647 -0.08926175
-0.060738303 -0.014933403 0.10493208 -0.36710134 -0.18497445 0.14702137 0.094064735 0.04348413
-0.0753718 0.110115506 0.12293845 0.071677044 -0.013477786 0.009415932 -0.018172156 -0.10849937
-0.016011495 0.047126662 0.1528034 -0.17785142 0.088434435 -0.024241453 0.028586768 5.1805022e-05
00000000: 5326 943d 3154 413d d46c 0cbd ef3b 2bbe
00000010: aec9 863c a1d8 163e 9dbb 1abe 0e3a 59be
00000020: b35b 183e 1473 0abe e0bb b63c 366e 1ebe
00000030: 1e02 9cbd 6da4 a23d 2d74 953d b229 cfbd
00000040: ab8e 2bbe 931c ffbc 3987 25be b3dc a23d
00000050: 9bab 0bbe 915f 02bd 22c5 f5bd a516 1b3e
00000060: 3ded 19bd 453b f03c 2811 23bd 1c4c 913c
00000070: 9cbe 4f3d be10 51be 28fe e1bc 6fc9 9b3d
00000080: 9e9a dd3d e6c4 d8bd 348b f4bd 96c5 b6bc
00000090: 9412 f13c 090c 09bc f01d 17be 3ff7 92bd
000000a0: 43d7 fdbd 9741 b13d dc6f 603d 19fe 813c
000000b0: df29 37bc 167d f13d 3a72 863c 50b3 88bd
000000c0: bb5c 083e 4a52 963d 44ab 313d c03e c2bd
000000d0: 637a 6b3d 6142 aebd ce77 423d c438 453d
000000e0: c50b 55be 9840 debd 19c7 2a3e 4ec7 d9bd
000000f0: 27eb a5bd a3b3 3cbe 2cd7 44bd da1f 1dbe
00000100: 7cbb 993c bdfc 02be bc96 acbd 469b 56bd
00000110: 08a2 9fbc 4c58 2c3e a56d ed3c 3380 263c
00000120: 930d 213e d5b1 293e 47f5 54bd 6817 153e
00000130: 708e 483d c6f6 58be 2b8a 263e 810a 25be
00000140: f57f 99bc 081f 09be 4ba1 603c 45f7 23be
00000150: eef9 e43c 9f8b 263e 5b01 5dbe c14f 6b3e
00000160: bbd0 7d3e fc69 0dbd 44a3 87bd 44af 933d
00000170: 4efe db3c 9903 353e 6b22 e2bd 6e2a ab3d
00000180: 1eda 07be ea08 c33d f1d1 253e 7c09 093e
00000190: 71e9 e73d 207c c33d e707 ee3d 2b46 263e
000001a0: 8754 b23b fcc7 9a3d 9006 a43d f74f 0e3e
000001b0: 7008 fb3d 91e2 3e3d 3698 01be 8106 00be
000001c0: 41b4 ae3d da4c 8e3c 746e 73bd 55e5 7fbd
000001d0: 7a80 313e 6b2b 733d a897 353d 5b0b c8bc
000001e0: 6d5b 153e acad 973d 4a36 18be 78bc 193e
000001f0: 0ab4 a23c b813 16be 085d b73d 98a3 7d3b
00000200: 2321 35bd b48f bbbd 8ffe da3d 2bf8 fb3b
00000210: d648 a53d 0fc9 06be 485b f13d 423a d03c
00000220: 44bf 9d3d c8e9 593d e01a 5dbd 375c 29be
00000230: e68a 7bbc 6b68 97bd 3407 993d d07a 70bd
00000240: 5755 f5bd ac95 20bc b419 f0bd ae63 0f3e
00000250: e366 4bbe a164 5abe 8484 1f3e 6e81 f43d
00000260: ed27 bc3d f07f e7bc ab50 853c 70c7 a53d
00000270: 9552 fbbc 643c 1dbe 3567 cebd fba7 e3bc
00000280: fe04 873d 0094 553a 1ede 1cbe 10e8 0bbe
00000290: 6292 273e 7ef9 de3d 2bba 2abe 33ce 51be
000002a0: a3be b93b 0e52 243e 6460 8fbd 1510 0dbe
000002b0: 02a5 81bd 4c8d 2ebe fc59 dbbc 3f37 1b3e
000002c0: 85bd cc3d ea06 0c3d f2e8 263e ce4e 26be
000002d0: 1b1f 64be 7749 003e a8e6 363d 9bd0 56bd
000002e0: bf12 03be 20d3 d2bd d0b4 fabc b512 4abe
000002f0: 6f43 063e 6db6 983d 8022 09bd f027 41be
00000300: efd3 d8bd ad3d 91bd 6224 5bbe dfcc 07be
00000310: bdd9 133e 6946 dbbd 6130 0e3e 6cd8 56be
00000320: 642f d33d e5da 8ebe d5a7 e03d 9332 6f3d
00000330: bcb7 55be bcd7 883d af6d 913c 6813 3b3e
00000340: 1c1a 1f3e ff5e 023e 5f64 093e 61a7 073e
00000350: 2ead b5bb 1fbd d8bd 24ed 0d3e e60d c03d
00000360: dd43 f63a 1b5e 9fbd 36fa 033e 9bcd fcbd
00000370: 8c4c f13d c65f 84bd 1be9 42be c187 11be
00000380: e6b4 e03d 8024 b13b 8c8d 4abe 5081 fa3d
00000390: ff1c cc3d 5731 6f3d 14fa 08be ddce b6bd
000003a0: bac8 78bd 3bab 74bc a1e6 d63d b5f4 bbbe
000003b0: f169 3dbe c58c 163e 03a5 c03d 6a1c 323d
000003c0: 885c 9abd 3d84 e13d 27c7 fb3d 6acb 923d
000003d0: efd1 5cbc 4845 1a3c c6dd 94bc eb34 debd
000003e0: 8a2a 83bc e307 413d 7f78 1c3e af1e 36be
000003f0: 1d1d b53d 0396 c6bc cc2e ea3c 3849 5938

sequential_2/dense_6/MatMul f4 [1, 128]
-0.0015493995 0.214837 -0.019231126 -0.08926412 -0.04234309 -0.048112202 0.021751082 -0.14919923
-0.16104536 0.02831323 -0.1408248 -0.079247914 0.23192053 -0.14500515 -0.059765104 0.14177153
-0.29388264 0.0065463684 -0.085086 0.15425791 0.045010272 0.031057652 -0.17379686 0.03204144
-0.0143534485 0.21810631 0.010607964 -0.010664124 0.11808618 -0.13567035 -0.13936725 -0.10198966
-0.028127521 -0.08935263 0.095326334 0.098364525 -0.2025927 -0.14665277 -0.12593706 0.12777913
-0.06212067 -0.020134965 0.1146261 0.08113131 -0.041589 0.10494751 -0.09814611 0.18265834
-0.07540388 -0.037393507 -0.07084775 -0.15665673 0.06814349 0.0962284 0.026685698 0.18531899
-0.090718195 0.17898498 0.009004735 -0.13787931 -0.03498033 -0.1456869 0.20064746 0.07848387
-0.05697945 -0.0003162108 0.19142964 0.090752035 -0.06882088 0.20019564 0.19013539 0.19198596
0.017116133 0.04536997 0.10666596 -0.054013517 -0.17181094 0.13610315 0.13514826 0.012402265
-0.021012664 -0.12771489 0.19650792 -0.094831556 -0.058076244 -0.14604555 -0.17784333 0.040221173
0.21108356 0.18141016 -0.21600062 0.1730348 -0.17186277 -0.1525403 -0.111797385 0.08398521
-0.166552 0.104186796 0.06395411 0.16026919 0.15539902 0.0966924 0.027086597 -0.021858731
0.17791007 0.04676051 0.26185092 -0.13325287 -0.19536218 -0.05488685 -0.051806066 0.15372778
-0.11159371 -0.041502096 -0.08883858 0.049504712 -0.0008567668 -0.04268277 0.07352718 0.21156186
0.23908348 -0.023544392 -0.1787712 -0.07793042 -0.14744493 0.21907456 0.22287653 0.12596846
00000000: 3815 cbba 3bfe 5b3e 988a 9dbc 1bd0 b6bd
00000010: f36f 2dbd 4d11 45bd 532f b23c afc7 18be
00000020: 13e9 24be 26f1 e73c 6034 10be bb4c a2bd
00000030: 937c 6d3e 3b7c 14be 41cc 74bd 8e2c 113e
00000040: c977 96be eb82 d63b 9241 aebd c9f5 1d3e
00000050: b15c 383d 9e6c fe3c cef7 31be e33d 033d
00000060: ba2a 6bbc 4357 5f3e 07cd 2d3c 94b8 2ebc
00000070: 2bd7 f13d 2bed 0abe 4ab6 0ebe f4df d0bd
00000080: b06b e6bc 83fe b6bd 743a c33d 5773 c93d
00000090: 7674 4fbe 252c 16be a5f5 00be 88d8 023e
000000a0: 3e72 7ebd 15f2 a4bc 17c1 ea3d 2c28 a63d
000000b0: 3a59 2abd b8ee d63d d400 c9bd ca0a 3b3e
000000c0: 596d 9abd ef29 19bd a018 91bd 9f6a 20be
000000d0: d08e 8b3d 6513 c53d f79b da3c 43c4 3d3e
000000e0: 76ca b9bd d747 373e 9988 133c 3c30 0dbe
000000f0: 8947 0fbd f22e 15be 8776 4d3e 27bc a03d
00000100: 4963 69bd 18c9 a5b9 2206 443e 34dc b93d
00000110: f6f1 8cbd 1600 4d3e dab2 423e f897 443e
00000120: 2237 8c3c ddd5 393d af73 da3d 473d 5dbd
00000130: 35ef 2fbe a05e 0b3e 4e64 0a3e df32 4b3c
00000140: c022 acbc b1c7 02be 5f39 493e 0c37 c2bd
00000150: 5be1 6dbd f78c 15be 901c 36be f5be 243d
00000160: 4a26 583e 96c3 393e 442f 5dbe 0930 313e
00000170: cbfc 2fbe 8633 1cbe 07f6 e4bd 7000 ac3d
00000180: 9c8c 2abe e35f d53d 5ffa 823d 9b1d 243e
00000190: ec20 1f3e aa06 c63d b6e4 dd3c 1511 b3bc
000001a0: 0f2e 363e f387 3f3d 5311 863e 7173 08be
000001b0: 060d 48be 09d1 60bd 9932 54bd d16a 1d3e
000001c0: 3e8b e4bd 1afe 29bd 00f1 b5bd 74c5 4a3d
000001d0: a698 60ba 21d4 2ebd 6b95 963d aca3 583e
000001e0: 4dd2 743e 2be0 c0bc cc0f 37be fc99 9fbd
000001f0: cefb 16be 1555 603e bf39 643e e0fd 003e
