Riproduzione/models/FD002/LSTMsmall/QUAD-QUAD/lstm_small_batch_1.tflite (tflite, 236512 bytes, 23 tensors)

sequential/dense/BiasAdd/ReadVariableOp f4 [30]
000000 00 00 00 00 00 00 00 00 00 00 00 00 00 00 00 00
       0.0 0.0 0.0 0.0
000010 00 00 00 00 00 00 00 00 00 00 00 00 00 00 00 00
       0.0 0.0 0.0 0.0
000020 00 00 00 00 00 00 00 00 00 00 00 00 00 00 00 00
       0.0 0.0 0.0 0.0
000030 00 00 00 00 00 00 00 00 00 00 00 00 00 00 00 00
       0.0 0.0 0.0 0.0
000040 00 00 00 00 00 00 00 00 00 00 00 00 00 00 00 00
       0.0 0.0 0.0 0.0
000050 00 00 00 00 00 00 00 00 00 00 00 00 00 00 00 00
       0.0 0.0 0.0 0.0
000060 00 00 00 00 00 00 00 00 00 00 00 00 00 00 00 00
       0.0 0.0 0.0 0.0
000070 00 00 00 00 00 00 00 00
       0.0 0.0

arith.constant f4 [30, 30]
000000 40 5f b4 bc ea 7c d5 bd e2 29 a1 3d cd 49 bd 3d
       -0.022018075 -0.10424216 0.07869317 0.09242592
000010 83 e1 21 3d 43 45 0d be e2 a3 f4 bd bc b6 34 3d
       0.039521705 -0.13795952 -0.11945321 0.04411958
000020 e5 ef 93 bd 8c c3 93 bd 86 f3 88 bc 6a 74 df 3c
       -0.072234906 -0.07215032 -0.016717684 0.02727719
000030 4d 8e 8c bc af 9d 94 bd 8a a0 e6 bd 77 e9 99 bd
       -0.017157698 -0.07256638 -0.11261089 -0.07515233
000040 1e 43 fe 3d 2f 6e cd bc bf c4 4c bd b0 9d b6 bd
       0.12415145 -0.025076954 -0.04999232 -0.08916795
000050 16 b5 b2 bd 5e 2d ba bc 69 de 4c 3d ee 13 93 3c
       -0.08725946 -0.02272671 0.050016794 0.01795384
000060 cb 91 23 bd c0 94 70 be 54 d4 01 be 85 8a dc 3c
       -0.03993396 -0.23494244 -0.12678653 0.02692152
000070 b1 6e 9a 3c bf 29 b6 bc 2a bd 79 3e 90 82 0a 3d
       0.01885161 -0.022236703 0.24388567 0.03381592
000080 dd 0e df 3c 58 01 0d bb e3 c4 eb 3c cc 82 30 3e
       0.027228767 -0.0021515694 0.028780406 0.17237395
000090 a6 03 c4 bd 6d 30 c3 3d 6d 1f 73 3d fa 95 70 bd
       -0.095710084 0.09530721 0.05935614 -0.05873678
0000a0 e2 a9 31 3e 37 f4 38 be 38 e7 1a bd f0 9d 4d 3d
       0.17349961 -0.1806191 -0.037818164 0.05019945
0000b0 20 68 2d bc 01 85 ab 3d a7 af 3a be 72 07 11 3d
       -0.010583907 0.08374978 -0.18231069 0.03540749
0000c0 c1 c4 84 3d f8 a8 0e bb 66 69 7f bc 16 83 90 3d
       0.0648284 -0.0021768194 -0.015589094 0.07056253
0000d0 5a d5 17 bd 0b 16 04 3e 25 24 b3 3d b2 17 f6 3d
       -0.037068702 0.12899034 0.087471284 0.12016238
0000e0 b2 b2 ad 3d 78 e1 00 3e 18 fb 9e 3d e3 40 64 bc
       0.08481349 0.1258601 0.07762736 -0.013931486
0000f0 00 27 23 3d 64 c7 81 bd a2 41 ff 3c 34 91 4b 3d
       0.039832115 -0.06336859 0.031159226 0.049699023
000100 ec 77 2a 3d f6 96 8d 3d 65 a3 9d 3d 51 e8 1e 3c
       0.041618273 0.06913559 0.07697181 0.009698943
000110 1f b0 b7 3d 51 d8 ad 3d 46 c4 07 bb cf f6 dd bd
       0.08969139 0.08488525 -0.0020716353 -0.10838091
000120 d8 18 2d 3c fc a8 d1 3d 3c 69 31 be 50 4f c7 bd
       0.010565005 0.10237309 -0.173253 -0.097319245
000130 e1 8d 10 3e 08 88 9d bb 0d 68 ef 3c 54 8e ba bc
       0.14116623 -0.004807476 0.02922442 -0.022772945
000140 94 1f c7 3a de 89 48 3c cc dd 70 bc f4 eb 8f bd
       0.0015191906 0.012239901 -0.014701318 -0.07027426
000150 06 b7 98 bd 36 d4 fd bd ec 73 76 3c be 7c 84 3d
       -0.07456784 -0.12393992 0.015042286 0.06469105
000160 66 cd 76 3e 71 c5 0e 3d 68 b8 a9 3d 16 3d 6a 3e
       0.24101791 0.034856264 0.08287126 0.22874865
000170 41 7b fd 3d 8d 63 6d bd 68 0f 60 bc f7 4c 12 bc
       0.123770244 -0.057956267 -0.013675548 -0.008929483
000180 75 29 64 3d 38 e3 fa b9 8b 99 a9 3c 86 9f ec bc
       0.0557036 -0.00047853007 0.020703098 -0.02888466
000190 6f 03 2a be ae 0c 2e bd 08 aa fa bc b7 30 cd bc
       -0.16602872 -0.04249256 -0.030598655 -0.025047643
0001a0 60 5c 44 3d 6b cf 18 3e 31 15 a1 bd 96 1d 9e 3d
       0.04793966 0.14922874 -0.0786537 0.07720487
0001b0 f8 ae e5 3c 9a c3 d2 3c 63 30 ec bd 0d 0d 04 bd
       0.028037533 0.025728036 -0.115326665 -0.03223901
0001c0 e3 5f 14 be 4e 0e 82 bd d9 43 b5 bd 46 59 c9 bd
       -0.14489703 -0.06350385 -0.088508315 -0.09831481
0001d0 f2 ea fe bb 71 75 4a bc 46 8e 42 3d 09 ff 53 bd
       -0.0077794725 -0.012357102 0.047498964 -0.051756892
0001e0 d1 c5 80 3d 4c cf 44 bb 50 21 e7 bd e3 d6 41 bd
       0.062877305 -0.0030030785 -0.11285651 -0.047324073
0001f0 1e 84 9d bd 64 43 ce bd cc 2a 2a 3e de b4 83 bc
       -0.07691215 -0.100714475 0.16617888 -0.016077455
000200 2a cf e7 bb 85 ee 1f 3c 9f 86 4e 3d 38 25 c9 bd
       -0.0070742564 0.009761457 0.050421353 -0.09821552
000210 f9 7c 93 bd 05 00 61 bd 6c 56 f1 bd c6 29 a0 bd
       -0.07201571 -0.05493166 -0.11784062 -0.07820468
000220 14 c1 22 be 83 a0 36 bb bb 68 0e be c3 f1 91 3d
       -0.15893966 -0.0027866669 -0.13907139 0.071261905
000230 02 3f 25 3d 56 f1 15 3e 47 c6 17 3d 51 d5 61 3d
       0.040343292 0.14642844 0.037054326 0.055135075
000240 1b e6 05 be 5b d8 4d bc 7d 77 07 3e ea 28 cc 3d
       -0.1307606 -0.01256379 0.13229175 0.09968741
000250 17 1b 60 bd a4 af a8 bd ac 98 92 bd 97 d5 c4 3d
       -0.054713335 -0.08236626 -0.07158026 0.096110515
000260 6e d6 07 3d f1 f7 d6 3b 4d 88 72 bd 5c 6a 6a 3c
       0.03316348 0.0065603186 -0.059212018 0.014307585
000270 94 e1 a4 bc 49 83 ee bd d0 95 68 bd e6 e1 34 bd
       -0.020127095 -0.116461344 -0.056783497 -0.044160746
000280 94 f5 aa 3d 21 62 9a 3d 63 ec 17 bd cd f5 16 be
       0.083476216 0.07538248 -0.03709067 -0.14742203
000290 f5 96 19 bd 4a 1d 04 3c 49 71 6c 3d 01 04 78 bd
       -0.03749748 0.008063624 0.057725225 -0.060550693
0002a0 57 7d 4b 3d ab 41 b8 3d 18 6d 01 3e f6 8c 16 be
       0.04968008 0.089969 0.12639272 -0.1470221
0002b0 88 8f 36 be f6 58 c4 3d 9d 44 03 be d4 cf 94 bd
       -0.1782819 0.095872805 -0.12819143 -0.072662026
0002c0 f5 55 40 3c 58 9e e4 bd ad 2a 49 bc e0 dc 95 3c
       0.011739244 -0.11163014 -0.012278241 0.018293798
0002d0 fc 92 b2 3d 30 7f c4 3d a2 4c b0 bc e0 e0 5e b9
       0.08719441 0.095945716 -0.021520916 -0.00021255342
0002e0 2b 33 18 3d 7b 97 fe 3c 7b 5e 7c 3c 99 e3 68 3d
       0.037158173 0.03107809 0.015403385 0.05685768
0002f0 cd a9 ba bd 19 99 d4 3c 8c 14 64 3c 70 0d 26 3e
       -0.09114418 0.025951909 0.013920914 0.16216063
000300 f8 10 00 bd 1c 57 94 3d 44 9f 46 3d 54 a5 f8 3c
       -0.031266183 0.07243177 0.04849173 0.030352272
000310 8b af a4 bd c0 a6 20 3d be 42 43 3e b5 fb 13 be
       -0.08041295 0.039221525 0.19068429 -0.14451487
000320 54 c7 eb 3c 39 ed ac bd 07 1f 03 3e c0 07 41 bc
       0.02878157 -0.08443684 0.12804805 -0.011781633
000330 76 21 b7 3c 0e f3 5d 3d 72 c0 e9 bc 44 f5 2d be
       0.022354823 0.054186873 -0.028534148 -0.16988093
000340 ad 9f 31 bd 0d 1c c3 3d 53 89 29 bd 99 05 12 3e
       -0.04336517 0.09526835 -0.04139073 0.14259948
000350 d9 29 a4 3d 4a 85 03 3e 29 77 00 3e 26 3b b0 3d
       0.08015794 0.12843814 0.12545456 0.08605032
000360 00 b2 70 bd 8b 8a 48 3d bc 51 2e 3e ac 94 80 3d
       -0.058763504 0.04896025 0.17023367 0.06278357
000370 1d 84 dc bc 40 69 f1 bd 83 4b 4c bd 37 ca c1 bd
       -0.026918465 -0.11787653 -0.0498767 -0.094623975
000380 8c c5 cc 3c 54 eb e4 bc 89 1e e5 3d fa f8 14 be
       0.024996541 -0.027944244 0.11187465 -0.14548102
000390 8b 68 ef bd 33 75 97 3d 7f 46 b4 bd 9e 31 bb bb
       -0.11689862 0.07395401 -0.088025086 -0.005712702
0003a0 23 89 17 3e ba 77 00 3d 2a 36 7d be 15 9b 7d 3c
       0.14798407 0.03136418 -0.24727693 0.015478869
0003b0 ef 58 7a be e8 7d 3b bd d2 8c 34 3d 8c 39 4f bc
       -0.24447988 -0.04577437 0.04407961 -0.012647998
0003c0 44 51 34 3d 31 cd 9c 3d 89 b2 9d bd 23 59 77 bd
       0.044022813 0.07656325 -0.077000685 -0.06038774
0003d0 33 e2 74 be 5a 32 2c 3d 67 66 c7 bc 3f 98 46 bd
       -0.23914413 0.042040206 -0.024340821 -0.048485037
0003e0 dc 3e 5a bb 9d d2 88 bd f2 e6 b3 3d c0 f5 1a 3e
       -0.0033301627 -0.06680796 0.08784284 0.15132809
0003f0 b7 71 f0 3d 49 2e 1e 3d 92 df 62 bd 76 30 60 bd
       0.117404394 0.03861836 -0.055388995 -0.054733716

arith.constant1 f4 [30, 30]
000000 30 bf 0c 3e 36 86 f6 3c 96 4f 9f 3c 91 17 cc 3d
       0.13744807 0.030093294 0.01944713 0.099654324
000010 36 cc fc 3d 34 cb b4 bd 58 28 4e 3d 75 45 4d 3d
       0.12343638 -0.088278204 0.050331444 0.050115068
000020 1a d6 02 3d 94 d3 94 3d 74 f5 a3 3d 6c 71 d1 bd
       0.031942464 0.07266918 0.08005801 -0.10226712
000030 ec 71 b1 3c e2 7e 42 bd 6c 9c a6 3d 83 00 98 bd
       0.021660767 -0.047484286 0.08135304 -0.074219726
000040 b0 b1 f5 3d 15 fa 76 bd 8d 83 b8 bd 16 f3 11 bc
       0.11996782 -0.06029709 -0.09009466 -0.008908054
000050 52 e0 b4 bd 09 b3 f7 3d d0 f4 a2 3d e4 1c 75 3d
       -0.08831848 0.12094695 0.079568505 0.059842005
000060 e7 ed 41 3d e6 00 60 3e 5a a8 41 bd 18 2c 75 3b
       0.047346022 0.21875343 -0.047279693 0.0037410315
000070 69 78 90 3d 25 40 ae 3d 26 63 58 bd 2e f9 c7 3d
       0.070542164 0.08508328 -0.05282893 0.09764324
000080 8e b2 5e bd 15 07 f8 3c 1d fa ee bd 1d 1c f0 3d
       -0.0543695 0.030276814 -0.11668799 0.11724112
000090 96 20 00 be a0 c3 d8 3d 1e 62 b8 3b 33 3d 13 bd
       -0.1251243 0.105841875 0.005626931 -0.035947036
0000a0 67 2d 76 ba 24 3e bd bd ff 29 02 3e 1b 8d 19 3c
       -0.0009390921 -0.09240368 0.12711333 0.009372021
0000b0 74 f2 a2 bb 06 27 d4 bd 11 72 46 3c c8 1f ea 3d
       -0.0049727503 -0.10359006 0.0121121565 0.11431843
0000c0 cd 69 fb bc 13 fe 28 be 11 56 2a 3e e4 37 bd 3d
       -0.030690098 -0.16503172 0.16634394 0.09239176
0000d0 7b 80 68 bd 95 d6 54 3d 6b de ed bc f1 44 aa 3d
       -0.056763154 0.051962454 -0.029036721 0.08313931
0000e0 c8 a8 23 be 31 19 45 3d 21 b0 d0 ba 9e cb 60 3d
       -0.15982354 0.048119728 -0.0015921631 0.054881684
0000f0 88 68 8e 3d fd e5 be bd e4 d0 34 bd 67 d6 37 bd
       0.069535315 -0.093212105 -0.044144526 -0.044882204
000100 73 86 a6 3d f9 84 52 3e 44 dc a3 bc 1d 50 42 bd
       0.08131113 0.20558538 -0.020002492 -0.047439683
000110 84 40 f7 bb ab ae 83 3b 4d 42 08 3d 3b 4f 94 3d
       -0.0075455327 0.004018625 0.033266354 0.072416745
000120 a5 13 15 3d bd 2d c7 bd c2 1c a3 3d 6d 12 85 3d
       0.036395688 -0.09725521 0.079644695 0.06497655
000130 b2 de bb bd 54 3f 7d be be 9e 92 bd 24 81 ad 3c
       -0.09173335 -0.24731189 -0.07159184 0.021179743
000140 df 00 79 3d 76 32 c6 bc 49 7a ce 3d 21 30 90 bd
       0.060791846 -0.024193984 0.10081918 -0.0704043
000150 d6 ee 5c 3d 50 d6 58 3c 22 aa 56 3d 52 3e 75 bd
       0.05393871 0.01323469 0.052408345 -0.059873886
000160 31 5f ca bc 06 9c 27 3e 45 ae 59 bc 1e 1c 8d bd
       -0.024703594 0.16368112 -0.013286178 -0.068901286
000170 b1 8d 63 3e e8 8c 91 3c 72 68 7d bd 19 04 92 3d
       0.2222202 0.017767385 -0.061867185 0.07129688
000180 86 d6 2b 3c 4b f7 e4 3c 78 5a 3a 3d 63 87 75 bd
       0.010488158 0.02794995 0.045496434 -0.059943568
000190 43 4f 03 be 78 7f 15 3d ae 59 a4 bc 3a 1d 36 bd
       -0.12823205 0.036498517 -0.020062294 -0.044461466
0001a0 d9 27 22 3d 6d 1b 4c bd 01 95 b6 bd 87 0b 71 bd
       0.039588783 -0.049830843 -0.08915139 -0.058848884
0001b0 38 d1 3e 3d b5 e5 49 be 8d 65 88 bd 44 ed 6a 3d
       0.046586245 -0.19716533 -0.06659994 0.05735518
0001c0 90 de 05 3b 28 50 21 be 70 ff d8 bc a5 68 9a 3d
       0.0020426847 -0.15753233 -0.02648899 0.075394906
0001d0 86 71 1f 3c bb 80 0b 3e f3 59 83 3d dd df 08 3e
       0.009731656 0.13623326 0.06413641 0.13366647
0001e0 a7 6d 42 be ec 3c 9f bd 0c 50 33 3e 33 1b 38 be
       -0.18987142 -0.07775292 0.17511004 -0.17979126
0001f0 c8 ac 1c ba 18 41 d4 bc c0 b7 d5 ba fe 77 10 be
       -0.0005976674 -0.025909945 -0.0016305372 -0.14108273
000200 17 18 84 3d 0b e5 14 bd ab cd 39 3c 1a e7 8c bc
       0.06449907 -0.036351245 0.011340539 -0.017200042
000210 d6 4b 85 bd 8c eb 6f 3d a2 52 d5 3d d9 72 df bd
       -0.06508605 0.058574244 0.104161516 -0.10910577
000220 2e ed 13 bd a4 58 11 bd b0 59 b3 bc c0 93 04 3d
       -0.036114864 -0.035484925 -0.021893352 0.032367468
000230 69 8b 94 3d 42 dc fe 3c ad 61 15 3d 34 aa 95 3d
       0.07253153 0.031110886 0.036470104 0.07307854
000240 e5 b1 b0 3c 4a 99 ae 3d 0e c4 f6 bd 8d 62 d3 3d
       0.021569202 0.08525331 -0.12049113 0.103215314
000250 e0 67 fa 3d 62 db 2d 3e 23 e3 e7 3d ff c6 28 be
       0.12226844 0.16978219 0.1132262 -0.16482161
000260 e1 e2 f0 3d f2 c7 5a 3d f8 b1 0a bd cf 96 38 3d
       0.11762024 0.05341334 -0.03386113 0.045065697
000270 70 a0 d7 bc f5 f0 ab bd 35 7a 9f 3c 0a 62 17 3d
       -0.02632162 -0.08395568 0.019467453 0.03695873
000280 2d 3a f1 bd 24 36 1e bd c0 72 f6 3a 26 19 36 3c
       -0.11778674 -0.03862585 0.0018802509 0.011114394
000290 c7 82 ee bd 58 91 ea 3c 04 62 68 3d 45 42 c6 bd
       -0.116460375 0.028633758 0.0567341 -0.09680609
0002a0 84 5e 41 3e 76 23 af 3d 56 8b 81 bd bd 36 56 3d
       0.18883711 0.085516855 -0.06325404 0.052298296
0002b0 90 f9 d5 bd 7c c6 a7 3c 6b 56 41 bd 45 cb 3a 3c
       -0.10447991 0.020480387 -0.047201555 0.011401002
0002c0 ac e4 6a be 82 7f 30 bd 57 5c 0b 3e 48 88 cf bd
       -0.22938794 -0.04309035 0.13609444 -0.101334155
0002d0 77 ba 23 bd 46 fe 37 3d 40 56 6d bc 84 24 9d bd
       -0.03997275 0.04492023 -0.014485896 -0.076729804
0002e0 e8 b0 06 3e a8 81 fa 3d bb e5 86 3d 70 5b e4 3d
       0.13153422 0.12231761 0.06586786 0.11150253
0002f0 9a 9f 2a be e0 d7 8a 3c 26 3b 4c be fa 25 02 be
       -0.16662446 0.01694864 -0.19944438 -0.127098
000300 52 a0 c6 bd a7 84 b3 3d 72 4c 76 bc 1d e8 82 bc
       -0.096985474 0.08765536 -0.015032874 -0.01597982
000310 b8 68 d9 bd 78 e5 68 bb 33 b8 2e be bd 3b b0 bd
       -0.10615677 -0.0035537165 -0.17062454 -0.08605144
000320 47 2d ca bc b4 7e 1b 3b 50 a8 05 3e 99 5c 0e bc
       -0.024679793 0.0023726644 0.13052487 -0.008689069
000330 00 2b 7c 3d c6 9c 30 bd e5 3d 77 bd bc 16 d4 bc
       0.061564445 -0.04311826 -0.06036176 -0.025889747
000340 87 19 9d 3d 1d 10 16 be b5 57 05 bd e0 81 24 3c
       0.076708846 -0.14654584 -0.032554347 0.01004073
000350 55 2e e6 bd 03 69 d6 bd 12 8b ef 3c 8f fd 22 3d
       -0.11239306 -0.10469248 0.029241119 0.039792594
000360 64 d2 21 bd 6a 58 c2 3d 8d c0 9c 3d c0 8a 6f b9
       -0.039507285 0.0948952 0.07653914 -0.00022844505
000370 e7 56 c0 3d 55 8f bc 3c 5a 3d 8c b9 f5 ff 42 be
       0.09391575 0.023017565 -0.0002674859 -0.19042952
000380 fc 63 18 3d a8 eb 81 bd 44 11 01 3e c8 26 6d bd
       0.037204728 -0.06343776 0.12604243 -0.057898313
000390 2c 18 48 3e e2 e9 7c 3d cc 05 4a 3e 5c 9f f4 bc
       0.19540471 0.061746486 0.19728774 -0.029861145
0003a0 fb 1e d6 bc 94 73 59 bd 89 8c b9 bc 95 e9 c6 bd
       -0.02613782 -0.05308874 -0.02265002 -0.09712521
0003b0 e6 98 f9 bc 07 7b a0 bd 01 5a 2d 3d 43 e7 28 3d
       -0.030468415 -0.078359656 0.042322163 0.041236173
0003c0 a4 69 6f 3c 97 5f da bc bf d3 58 bd 9d 98 3c 3d
       0.014612589 -0.026656909 -0.05293631 0.04604398
0003d0 51 91 87 bc a7 29 08 be d2 28 62 3d fc e3 c8 bd
       -0.016548784 -0.13297139 0.05521471 -0.098091096
0003e0 40 a7 19 3e 34 5b f4 3d 30 6f b1 bb 25 4e 4d 3e
       0.15005207 0.11931458 -0.005414866 0.20049341
0003f0 5b ed 8d bd 29 15 f2 bc 7d 8d 18 bd d2 ef 5f be
       -0.069300376 -0.029551106 -0.03724431 -0.21868828

arith.constant2 f4 [30, 30]
000000 84 25 ce 3d 1e 03 47 3e 34 24 d7 3c 72 b9 10 be
       0.10065749 0.19434783 0.02626238 -0.14133242
000010 fc e3 ff bc 3c cb 15 3d c0 e7 42 b9 86 a6 9f 3d
       -0.031236641 0.036570773 -0.00018587615 0.07795434
000020 b7 43 da 3b 42 18 35 3e d9 b2 36 3e f1 cb 81 3c
       0.0066609043 0.17685035 0.17841662 0.015844317
000030 6c 1f 2b 3c e7 26 1f be e7 a0 08 be e6 9b ae 3c
       0.010444503 -0.15542184 -0.1334263 0.021314573
000040 f6 82 9d 3c dd 43 3c be 68 39 05 3d 3c cd 5d 3d
       0.019227486 -0.18385263 0.03252545 0.054150805
000050 d2 98 3c be 2f d8 6a bd 28 9c ee bb 1c c4 42 3e
       -0.18417671 -0.057335075 -0.007281799 0.19020122
000060 37 0d 10 3e 1d 03 12 3d ef 9d 4b bd 9b 89 65 3c
       0.14067541 0.0356475 -0.049711164 0.0140098585
000070 c2 85 0c bc 8d 7a a2 bd 4e 9b d1 bd 8c 21 11 3b
       -0.008576812 -0.07933531 -0.102347 0.002214524
000080 84 af be bd 1e 77 ad 3c fe be bf bd 7e 04 f7 bc
       -0.09310821 0.021174964 -0.09362601 -0.03015351
000090 fe 4a fe bc 2d ae 8f bd 29 3d e7 bd d2 55 0d 3c
       -0.031041618 -0.07015643 -0.11290962 0.008626418
0000a0 e8 55 06 bd f0 bf e6 bd 4f c5 1a 3e aa 45 3d 3e
       -0.03279677 -0.11267078 0.1511433 0.18483606
0000b0 68 e2 9f 3a ad c8 50 bc a8 1b 96 3c ea b1 16 bd
       0.0012198212 -0.012743157 0.018323734 -0.036790766
0000c0 2e 3f 9f 3d d4 a0 7e 3d e7 c2 0d be 03 b1 ac bd
       0.077757224 0.062165096 -0.1384388 -0.084322
0000d0 2e 20 55 bd 87 21 01 3e fe 41 02 bd 59 d8 d0 3c
       -0.052032642 0.12610446 -0.031801216 0.025493788
0000e0 b2 3e 08 3e 2d 20 19 bd 2a 2d 92 3d 4a d2 fb 3b
       0.13305166 -0.0373842 0.071375206 0.0076849805
0000f0 2c bf b3 bd 96 74 14 be a0 d9 20 3d 96 e9 70 3c
       -0.087766975 -0.14497599 0.039270043 0.014704129
000100 86 02 5b bb 50 08 a5 3b 54 c9 35 3d 93 54 9f bd
       -0.0033418252 0.0050363913 0.044381455 -0.07779803
000110 30 76 0a 3d 89 23 91 3d e4 34 9f bd 90 41 8c 3c
       0.03380412 0.07086856 -0.0777376 0.017121106
000120 56 37 d7 3d 8e 27 85 3c 36 35 d3 3d 94 d1 a7 3d
       0.10508601 0.016254213 0.103128836 0.08194271
000130 c9 1f 1e be 3c a6 b0 3b 64 da d6 bc b4 de b4 3a
       -0.15441813 0.0053909104 -0.026227184 0.0013799281
000140 ea 39 ca 3b 03 ce 39 bd 8e d1 0d be b0 b1 68 3d
       0.0061714547 -0.045362484 -0.1384947 0.05681008
000150 9b 15 eb bd 0b 7f 09 3e 3e 1b 8e 3d d2 28 f2 bd
       -0.1147873 0.1342737 0.0693879 -0.11824192
000160 87 ce b8 bd 90 ff d3 3b 1b 5c d9 bd 24 27 7e bd
       -0.09023767 0.0064696744 -0.10613271 -0.062049046
000170 00 65 11 3a db 53 07 be 24 53 dc 3d ea c6 46 bd
       0.0005546361 -0.13215582 0.10758045 -0.048529543
000180 77 c6 21 be f6 69 9c 3c 0c 3f 1c 3e f1 9d 43 3d
       -0.15798365 0.019093495 0.15258425 0.047758047
000190 74 ec 23 be 46 95 0f be 55 61 b4 bc be fb cc 3c
       -0.16008168 -0.14021787 -0.022019068 0.025022384
0001a0 8f f5 f4 bc f4 47 4d bd fb 2e 42 3c f5 52 ce 3d
       -0.029902248 -0.050117448 0.011852021 0.100744165
0001b0 2a 26 a4 bd 41 df 4f bd 68 a4 51 bd 64 5d 42 3c
       -0.08015092 -0.05075002 -0.05118218 0.011863086
0001c0 d2 f2 7a bd 2b 90 ba bd d0 50 b4 3d 1a 0d d4 bc
       -0.061266728 -0.09109529 0.08804476 -0.025885154
0001d0 f5 cc 09 bd b7 1e fa 3d c8 7e 69 bd 6b 54 c8 bb
       -0.033642728 0.1221289 -0.057005674 -0.006113579
0001e0 b2 ef c9 3d aa 15 48 3e ec 60 61 bd 3c 87 6b bd
       0.098601714 0.19539514 -0.055024073 -0.057502016
0001f0 11 c6 30 bd 93 79 1b 3c d6 7a 7a bd ba ee 87 3c
       -0.04315764 0.009489435 -0.0611523 0.016593326
000200 f1 69 60 be 72 41 09 3c 95 55 06 be 30 f1 82 3c
       -0.21915413 0.00837742 -0.13118584 0.015984148
000210 00 f3 c6 3d 31 8e c3 bd 4b ca ab 3d ae ce 54 bd
       0.09714317 -0.09548605 0.08388194 -0.051954918
000220 3e df a8 bd 35 75 a4 3d 92 24 c9 3d 8c 1e b0 bd
       -0.08245705 0.08030168 0.09821428 -0.08599576
000230 73 fa 29 3e 7d d6 b9 bd a4 ae 9c bb c6 c0 e6 bd
       0.16599445 -0.090741135 -0.004781561 -0.11267237
000240 1c b8 30 bc 61 6d a9 bd be 24 eb 3d 3e 92 be bb
       -0.010786083 -0.082728155 0.114816174 -0.0058157733
000250 08 1f 41 3b 12 07 1a 3e 91 7e 12 3d f2 9f 92 bb
       0.002946796 0.1504176 0.035765234 -0.0044746334
000260 f2 49 ac bd d7 5c a1 3d 65 5e bc bc 5b c2 79 bd
       -0.084125414 0.07879036 -0.02299423 -0.060976367
000270 76 a3 22 3e b4 9d c0 3d f5 c3 a8 bd 06 91 17 3e
       0.15882668 0.094050795 -0.08240501 0.14801416
000280 23 df 6b bd f5 e9 b6 3d ee 01 42 3d e8 2f bf bc
       -0.057585847 0.089313425 0.04736512 -0.023338273
000290 5e 40 98 3d 41 0c 1a 3d 8f 0a 81 bd f2 d7 1b bd
       0.07434152 0.037609342 -0.06300842 -0.03804774
0002a0 44 9f 5c bd 94 f0 bc 3c 82 02 52 3d 62 d3 18 be
       -0.053862825 0.023063935 0.051271923 -0.14924386
0002b0 ed 8e 82 3c a2 e0 7c 3e a4 31 81 bd 07 48 44 be
       0.015937293 0.24695066 -0.06308296 -0.19168101
0002c0 8c 57 cf bc b4 df d8 bd 8b 8e ba 3d 71 65 04 bd
       -0.0253103 -0.10589543 0.09109219 -0.032323305
0002d0 22 f4 a7 bc 78 37 c7 3c f9 7f 29 3d 7a 26 49 3d
       -0.020502154 0.024318442 0.04138181 0.04910896
0002e0 ac 3e c2 3c 58 90 62 bd 3c 10 c7 3d 7e e2 6f 3c
       0.023711525 -0.05531344 0.09719893 0.014641402
0002f0 02 67 b2 3d 52 4f ec bd 95 87 19 3e 90 7e ab 3a
       0.087110534 -0.11538567 0.14993127 0.0013083983
000300 0d 1a 93 3c e9 3b 55 bd 4b 51 ce 3c 7a f7 38 3e
       0.017956758 -0.052059088 0.025185248 0.18063155
000310 62 b0 f3 3d 85 aa bb bc 07 3f 21 3c da 4c 2e 3d
       0.11898877 -0.022908458 0.009841687 0.04255376
000320 94 df 02 be 2b bb 28 be d1 b2 11 be d8 d2 d9 bc
       -0.12780601 -0.16477649 -0.1422837 -0.026589796
000330 8e b5 11 be bc 91 a7 bc fc d6 5b 3d 19 94 35 3e
       -0.14229414 -0.020455234 0.053671822 0.17732276
000340 01 68 9b bd f8 b4 bc 3d ee 00 ac 3d 90 62 19 bd
       -0.075881965 0.092142045 0.08398615 -0.037447512
000350 35 34 36 3e 2a 28 87 3e 0a a0 fd ba 42 8e 1d 3c
       0.17793353 0.2639783 -0.0019350064 0.009616436
000360 c8 26 92 bd 79 03 b9 bd d5 eb 29 be 04 99 77 3d
       -0.07136303 -0.090338655 -0.16593869 0.06044866
000370 f1 19 e2 3d 80 ad 99 3d fd 59 85 3d 6e d4 42 3d
       0.11040104 0.075037956 0.065113045 0.04756587
000380 03 0a a5 3d 77 1c 21 bc a8 8d b5 3d bd 83 e6 3d
       0.0805855 -0.009833447 0.088649094 0.11255596
000390 16 92 3f 3d c2 ef 9a 3d bb 26 bc 3d 8e 88 b1 bc
       0.046770178 0.075652614 0.09187075 -0.02167156
0003a0 74 4f 0c bd 60 59 2a bb 8a c1 b4 bd 60 e6 04 bc
       -0.03425546 -0.0025993213 -0.08825977 -0.008111566
0003b0 8a 52 e0 3c 83 48 2e 3e 41 c0 93 bc 9f 05 09 be
       0.027383108 0.17019849 -0.01803601 -0.1338105
0003c0 a4 68 56 3e be 22 77 bc 5a d9 d0 3d 81 94 66 bd
       0.20938355 -0.015083967 0.101977065 -0.056293968
0003d0 99 60 e5 3d a4 8d 9f 3d d9 1a 43 3d fb 9e 4c bd
       0.11200065 0.07790688 0.047633026 -0.049956303
0003e0 9a 4a d0 3d c9 e7 55 bd 06 f0 83 3d ee fa c4 bc
       0.10170479 -0.052223 0.06442265 -0.024045434
0003f0 75 10 c0 3d 6a 96 9e 3d 7e 98 0e be 80 73 27 be
       0.09378139 0.07743533 -0.13925359 -0.16352654

arith.constant3 f4 [30, 30]
000000 cd 23 ae 3d 3a da 10 3e 49 44 33 3d 2e 55 cc bd
       0.08502922 0.14145747 0.043766294 -0.09977184
000010 39 3e 4f 3d 05 bc 08 3d b2 44 51 bd 46 6b 43 bd
       0.05059645 0.033382434 -0.051090904 -0.047709726
000020 95 b5 50 3d c6 ef c1 3d 68 05 a5 bd 49 c3 c4 bd
       0.05095442 0.09469561 -0.08057672 -0.0960756
000030 24 cb d9 bc 03 8e db 3d 77 43 89 bd 27 92 94 3c
       -0.026586123 0.10720446 -0.06702321 0.018136097
000040 21 4b 9d bc 1e 37 d0 bc 33 69 b4 3d 58 85 11 3d
       -0.019200863 -0.025416907 0.08809128 0.035527557
000050 7e 58 aa 3d d3 d1 00 3e 41 b9 16 be 3e c1 b7 bd
       0.0831766 0.12580042 -0.14719106 -0.08972405
000060 ca d1 39 bd 94 ef 81 bd 4f 42 c8 3d 55 12 dd 3d
       -0.045366086 -0.06344524 0.09778272 0.10794512
000070 ab 58 9b bc 9f cf 9d bc 2e aa 3f bc c9 e5 7b 3c
       -0.018963179 -0.01926404 -0.011698289 0.015374609
000080 2b 2b 40 be 19 4b f5 3d 43 ad 10 3e f0 1d c5 b9
       -0.18766467 0.11977214 0.14128594 -0.00037597073
000090 68 a3 ce bd fc 02 b9 bd 01 e7 db 3d 07 74 d8 3b
       -0.10089761 -0.09033772 0.1073742 0.0066056284
0000a0 21 3d 32 be aa f3 06 bc 3d 99 42 3e 23 f9 33 bd
       -0.17406131 -0.008236805 0.19003768 -0.043938767
0000b0 17 74 5e bd ee 1f d9 3b cc 5b 23 3d 28 14 10 bc
       -0.05430993 0.006626121 0.039882466 -0.008793868
0000c0 3e c7 a2 3d b3 92 c8 3d be dd 03 be db 9a a6 3d
       0.07948159 0.09793606 -0.12877557 0.08135005
0000d0 e8 77 8d bd 7f 71 47 be 90 ac 4f bd b1 e8 7d be
       -0.06907636 -0.19476889 -0.050701678 -0.24795796
0000e0 85 29 1a bd 99 19 1f 3d 7a b9 e6 3c b3 43 3b 3d
       -0.037637252 0.03884277 0.028164614 0.04571886
0000f0 91 c3 ee 3a 8b ee 82 3d 02 1b 56 be 7a 69 da 3c
       0.0018216242 0.06393155 -0.2090874 0.026661623
000100 b1 a7 2a bd 49 60 27 3c 7b 1a 1c 3e 5e a0 dc bc
       -0.04166383 0.010215827 0.15244476 -0.026931938
000110 0a 1b 19 bc 66 6b 11 be 93 6c 14 be d5 e8 27 bd
       -0.0093448255 -0.14201126 -0.14494543 -0.04099353
000120 91 1f c1 bd cd 20 b6 3d c3 22 da 3b 54 37 10 be
       -0.09429849 0.08892975 0.006656976 -0.14083606
000130 47 0e 18 bd 70 68 9d bd 56 78 a0 3d ea 15 07 3e
       -0.03712299 -0.076859355 0.07835452 0.13191953
000140 7c 85 0c be eb ea fe bd fb 7f 8b 3c 12 8e 11 3d
       -0.13722795 -0.12447151 0.0170288 0.03553588
000150 bc d7 d7 bc 61 87 cc 3d 82 1f 2f bd 5d 5e 8d 3c
       -0.026347987 0.09986759 -0.042754658 0.01725691
000160 1b 74 63 bc 87 ab 21 3e 5f e4 16 3d b6 cc 7d bd
       -0.013882662 0.15788089 0.036838885 -0.061962806
000170 f4 a9 f0 3d e0 22 ed bd ec 60 c4 bd 91 bb d3 3d
       0.11751166 -0.115789175 -0.09588799 0.1033851
000180 c8 4a 95 bd 86 92 13 bc 8e 47 6a 3c 5b 18 b2 3b
       -0.07289654 -0.009007102 0.0142992865 0.0054350323
000190 24 c0 44 be ad 01 be 3d b1 2b db 3d d9 8b 3a be
       -0.19213921 0.092776634 0.10701693 -0.1821741
0001a0 10 75 ae bc 86 ff 90 3d 2c a9 80 3c 69 77 f2 3a
       -0.021296054 0.07079987 0.015705667 0.0018498722
0001b0 89 d7 7a bd d1 72 7f 3d 84 bd 03 3e 3a f4 9f 3d
       -0.061240707 0.062365357 0.12865263 0.078102544
0001c0 65 ac e8 3d ea b9 1a 3e 73 9a 60 3d 46 4f ec bd
       0.11361007 0.15109983 0.054834794 -0.11538558
0001d0 1a 23 6e 3c 6c 41 9c bd ce ff 16 3e 7c db 27 3d
       0.014534736 -0.07629666 0.14746019 0.0409808
0001e0 1b 63 f9 3c 07 a2 5a bc 1f df 9c 3d c0 a7 24 3d
       0.030442765 -0.013344294 0.076597445 0.04019904
0001f0 cf 51 92 3d 4e 40 26 3d 20 1c 12 be 97 e0 a8 3d
       0.0714451 0.04058867 -0.14268541 0.08245962
000200 40 5a 87 bd 7b a9 9d 3d 1f 6b 86 3c f9 b4 47 bc
       -0.06609011 0.076983415 0.016408501 -0.012189143
000210 99 c1 8f 3c 31 e1 09 bd e4 ff 0e 3e 4a 11 fc bd
       0.01754837 -0.033662025 0.13964802 -0.12307985
000220 43 44 4d bd c1 29 fa bd 2a a1 2c 3c 12 27 99 bc
       -0.050113928 -0.12214995 0.010536471 -0.018695388
000230 e4 66 13 3d 5b 58 9f 3d 9b 97 76 be 96 f7 3f bd
       0.035986796 0.07780524 -0.2408127 -0.046866976
000240 d1 21 18 be 36 e3 e8 3c 91 ee c1 3d c9 1a b3 3d
       -0.1485665 0.028428655 0.09469331 0.08745343
000250 e3 c5 f8 3d b5 d6 24 3d e2 46 22 3d db 64 14 bc
       0.12147119 0.040243823 0.03961838 -0.009057249
000260 62 de 58 be da 61 9e bc e5 ea b7 3d 9e f5 ee bc
       -0.21178582 -0.019333769 0.089803495 -0.029169854
000270 89 08 e8 3c 7a e8 c5 3d 75 e1 84 bc b8 a6 31 3c
       0.028324382 0.09663482 -0.016220788 0.0108429715
000280 3b f1 ba 3d aa 2b 84 bd 41 39 85 3d 6d bb 19 bd
       0.09128042 -0.06453641 0.06505061 -0.03753226
000290 b1 bf 78 bc 93 a8 7f bd 00 14 53 b8 3e a5 82 3d
       -0.015182422 -0.062416624 -5.0324947e-05 0.06379174
0002a0 22 a8 55 3d 58 d1 10 3d c0 bf 08 bd 39 99 19 3e
       0.052162297 0.035355896 -0.033385992 0.14999856
0002b0 57 a8 3a be d5 71 ac bd 30 5d c0 3c bf 99 99 3d
       -0.18228279 -0.08420149 0.023481935 0.07500028
0002c0 ed 27 7c bd ad f4 14 be 77 16 63 3d 94 f7 4b be
       -0.061561514 -0.14546461 0.055441346 -0.19918662
0002d0 d4 81 78 3d 0c df 8f 3a 11 1d 37 be 00 cf fd bc
       0.06067069 0.0010976507 -0.17882182 -0.030982494
0002e0 bd 4c dd bc 60 e0 6b bd 27 fa 52 bd 81 d8 1c be
       -0.02701413 -0.057587028 -0.051508095 -0.15316965
0002f0 d1 b0 90 bb ff 35 5b 3e d3 40 88 3d 67 51 b4 3d
       -0.0044156094 0.21407317 0.06652989 0.08804589
000300 67 16 29 bd d9 6c 5b 3d 8a 4f 0b 3e 1a 1c 8c 3d
       -0.04128113 0.053570602 0.1360456 0.068412974
000310 78 21 6b bd 06 c1 e4 bb b0 10 82 bb a4 84 03 3d
       -0.057404965 -0.006981018 -0.0039692745 0.032108918
000320 f3 ef 9e bd 99 0a a2 3d 20 ae 9e bd fa 7e e5 bd
       -0.077606104 0.079121776 -0.077480555 -0.112058595
000330 86 52 0f bd 60 17 50 bb d9 e3 1c be b2 d4 dd 3c
       -0.03499081 -0.0031752214 -0.15321292 0.02707896
000340 31 63 29 3e dd d2 38 3c 10 bd 43 3d 71 4b 6b be
       0.16541745 0.0112807425 0.047787726 -0.22977997
000350 d9 59 66 bd 2c 79 da 3d e0 a7 e4 bd d2 c8 14 3e
       -0.05623803 0.10667643 -0.11164832 0.14529732
000360 73 97 b9 3d 4d 78 bf bd ac c8 ad 3d f5 6d 06 3d
       0.0906209 -0.093491174 0.08485541 0.032819707
000370 1d 72 9d 3d b1 93 ba bc 10 74 05 bc c0 f0 3c 3d
       0.07687781 -0.022775503 -0.008145347 0.046128035
000380 eb 9b 2c 3e f7 bb b9 bd f0 de ed 3d c9 f1 58 be
       0.16856353 -0.090690546 0.116147876 -0.21185984
000390 dc a7 aa bd 96 54 e7 bd e1 ea 14 3e 9d cb dd 3c
       -0.08332798 -0.1129543 0.14542724 0.02707463
0003a0 c5 0f d2 3d d3 2d 97 bc 00 d2 4e 3c 47 3f c6 bd
       0.10256914 -0.018454468 0.01262331 -0.09680038
0003b0 03 16 8c 3d 2e 7d 14 bd 0f 9b bb bd c2 5c 05 be
       0.06840136 -0.036252193 -0.091604345 -0.13023666
0003c0 3a 43 c8 3c cc b5 6e bd 8c 0a 9e 3d c3 a4 a1 bd
       0.024446119 -0.058278844 0.077168554 -0.07892754
0003d0 1e 2c cc 3c 79 92 6e 3e df 84 d7 3d 5a 24 b1 bd
       0.02492338 0.23298062 0.1052339 -0.08649512
0003e0 44 d6 16 3d 5c 88 2e bd 53 98 5a 3d 83 31 97 3c
       0.036825433 -0.04261051 0.053367924 0.018456226
0003f0 ad d5 a1 3d 70 23 8c bd f4 d9 06 3c 64 eb f7 3d
       0.079020835 -0.06842697 0.008230675 0.12105444

arith.constant4 f4 [30]
000000 00 00 80 3f 00 00 80 3f 00 00 80 3f 00 00 80 3f
       1.0 1.0 1.0 1.0
000010 00 00 80 3f 00 00 80 3f 00 00 80 3f 00 00 80 3f
       1.0 1.0 1.0 1.0
000020 00 00 80 3f 00 00 80 3f 00 00 80 3f 00 00 80 3f
       1.0 1.0 1.0 1.0
000030 00 00 80 3f 00 00 80 3f 00 00 80 3f 00 00 80 3f
       1.0 1.0 1.0 1.0
000040 00 00 80 3f 00 00 80 3f 00 00 80 3f 00 00 80 3f
       1.0 1.0 1.0 1.0
000050 00 00 80 3f 00 00 80 3f 00 00 80 3f 00 00 80 3f
       1.0 1.0 1.0 1.0
000060 00 00 80 3f 00 00 80 3f 00 00 80 3f 00 00 80 3f
       1.0 1.0 1.0 1.0
000070 00 00 80 3f 00 00 80 3f
       1.0 1.0

arith.constant5 f4 [30, 60]
000000 56 dc 32 3e bd 0d da bd 3a 7a 15 3e 90 7f dc 3c
       0.17466864 -0.106471516 0.14597407 0.026916295
000010 e4 c1 1e 3e c0 6b 47 3c 38 ba 24 3e f8 1e b0 3c
       0.15503651 0.012171686 0.16086662 0.021499142
000020 6c 3e 65 bd b3 bc 33 be b8 c5 37 3d c8 ea 2b bd
       -0.055967733 -0.17552452 0.044866294 -0.04197195
000030 bf 42 31 be 84 9d ab 3d 2c 4f b8 bd 92 b5 94 bd
       -0.17310618 0.08379653 -0.08999476 -0.07261194
000040 d4 91 c9 3d b4 99 ae 3d d0 c4 b9 3d 7c b0 16 3e
       0.09842268 0.0852541 0.09070742 0.14715761
000050 48 21 e4 3c 52 27 36 3e 9e c2 1d be c0 d0 40 bb
       0.027847901 0.17788437 -0.15406272 -0.00294213
000060 2a 2e 2e 3e bc b8 3c 3d b0 a7 87 bd ba 7f e6 bd
       0.17009798 0.046074614 -0.06623781 -0.11254831
000070 a6 54 d1 bd 68 13 af bd b8 ef 1f 3e a0 8b 9f bb
       -0.102212235 -0.08548623 0.15618789 -0.0048689395
000080 a7 a5 db bd b0 3e f3 3d fc 73 8b bd e8 8c 16 bd
       -0.10724955 0.11877191 -0.06809232 -0.036755472
000090 80 12 02 3b be a1 35 3e e8 3a 26 3e 24 f8 1f be
       0.0019847453 0.17737481 0.16233408 -0.15622002
0000a0 d0 b8 35 3c 6c 42 bf 3d 88 e0 d3 3d 90 80 7c 3c
       0.011091426 0.09338841 0.1034556 0.015411511
0000b0 7a 5b 35 3e 20 ba ed 3b 9e 05 00 3e bc a0 21 bd
       0.17710677 0.007254854 0.12502143 -0.03945993
0000c0 ce a3 00 3e d8 9b f1 3c 93 87 1c be e0 57 f0 bc
       0.12562487 0.029493257 -0.15286092 -0.029338777
0000d0 82 d1 80 3d 6d 5c 33 be 24 f6 1d be 80 87 f0 3d
       0.062899604 -0.17515726 -0.15425926 0.117445946
0000e0 64 9f 8e 3d e8 6d d7 3d d0 99 13 3e a4 c8 81 3d
       0.06963995 0.1051901 0.14414144 0.06337097
0000f0 91 5d a5 bd 3b 73 9c bd ae 8a 98 bd 02 89 16 3e
       -0.08074487 -0.07639166 -0.07448326 0.14700702
000100 60 ad 3c bd e4 18 cd bd 9f 8b dd bd a0 0a 1d 3c
       -0.04606378 -0.10014513 -0.10817646 0.009585053
000110 f4 0d f8 3d 65 4b 92 bd 58 94 02 3e 4e 0e 1d 3e
       0.12112036 -0.071432866 0.12751901 0.15337488
000120 00 e4 a0 bc 78 f4 06 be 72 72 1d 3e e1 20 2b be
       -0.019639969 -0.13179195 0.15375689 -0.16711761
000130 74 03 10 3e b0 a7 b4 bc a9 9e 31 be 80 70 b5 3a
       0.14063817 -0.022052616 -0.1734568 0.0013842732
000140 16 d9 15 be bc 19 15 be 34 6c 34 bd 3c ed 7e 3d
       -0.14633593 -0.14560598 -0.044048503 0.062237963
000150 0e e1 05 be 64 35 c2 3d d2 c6 7c bd dc 29 5a 3d
       -0.13074133 0.0948284 -0.061713047 0.053262576
000160 3b 55 0e be a8 3a a7 bd 20 44 14 3e e8 5d 14 bd
       -0.138997 -0.08165485 0.14479113 -0.03622237
000170 e4 a9 d9 bd 54 db 09 be 4d e8 cf bd 98 65 2b bd
       -0.10628107 -0.13462573 -0.1015173 -0.041844934
000180 f0 b9 72 3d 84 9b 24 3e 88 f6 2d 3e 60 a9 a1 bc
       0.059259355 0.1607495 0.16988575 -0.019734085
000190 ae 0e 85 3d d0 1f e7 3c 12 8b 27 be c6 8d 2a 3e
       0.064969406 0.028213412 -0.16361645 0.16655645
0001a0 c8 a4 09 be 4e 9c 36 3e c7 b4 2b be 08 c7 f8 bd
       -0.13441765 0.17833063 -0.1676818 -0.12147337
0001b0 a8 05 f8 3d 64 f2 11 be d8 f5 28 be bc 76 2a 3e
       0.12110454 -0.14252621 -0.16500032 0.16646856
0001c0 24 b8 38 3e e7 19 2d be 3b 99 bd bd c0 ec 92 bc
       0.18038994 -0.16904412 -0.09257742 -0.017935157
0001d0 96 af f9 bd 7c 0f 4e 3d 82 09 1b 3e ab ba ef bd
       -0.121916935 0.050307736 0.15140346 -0.11705526
0001e0 08 97 d6 3c 60 12 12 be c8 43 38 be 00 d1 68 3a
       0.026195064 -0.14264822 -0.17994606 0.0008881241
0001f0 b8 db 9f 3c a0 04 e3 bd b4 5b 6a bd 60 88 ba 3d
       0.01951395 -0.110848665 -0.05721636 0.09108043
000200 7b a5 26 be 2c 53 07 bd 00 c9 f3 3b 98 d4 08 bd
       -0.16274063 -0.033038303 0.0074397326 -0.03340587
000210 90 c3 a4 3c 30 85 e8 3d 41 cb 15 be ce 40 b1 bd
       0.020112783 0.113535285 -0.14628316 -0.08654939
000220 95 ac b5 bd c4 ed ea 3d 1a 01 2f be a0 1e 41 3d
       -0.08870808 0.114711314 -0.17090264 0.047148347
000230 c2 bc 94 bd b8 ad d7 3c 68 4c f7 3c 64 7e 35 be
       -0.07262565 0.026327953 0.0301878 -0.17723995
000240 94 45 09 3e d0 6a 6a bd c9 f9 31 be 36 63 16 3e
       0.13405448 -0.05723077 -0.17380442 0.14686283
000250 30 bb 05 bc 78 81 97 3d f0 ce c0 3d 6d 8f e6 bd
       -0.008162305 0.07397741 0.0941447 -0.11257825
000260 a0 ed d1 bd 48 21 74 3d 3c 21 b4 3d e4 60 23 be
       -0.102504015 0.059602052 0.087954015 -0.1595493
000270 b8 e7 33 be 14 42 d3 3d 94 b2 5c 3d f8 4b 6b 3d
       -0.17568862 0.10315338 0.053881243 0.057445496
000280 80 2f 26 3b c8 cf 71 3d c7 63 29 be 48 a4 7d bd
       0.0025357902 0.059036046 -0.16541968 -0.06192425
000290 2e 53 0c be f5 60 22 be c0 b5 04 3e c0 9b da 3d
       -0.13703606 -0.15857299 0.12959957 0.10674238
0002a0 e4 05 83 bd e6 d1 e4 bd 16 d7 ca bd 43 59 ce bd
       -0.06397608 -0.111728474 -0.09904306 -0.10075619
0002b0 20 db 8d bb 72 b5 18 be 74 3c 30 3d 5c d8 c6 3d
       -0.0043291003 -0.14912966 0.043026403 0.09709236
0002c0 a4 8b f0 3d b1 a0 df bd 32 d5 32 3e a8 dd c5 3d
       0.11745384 -0.10919321 0.1746414 0.09661418
0002d0 28 92 1c 3d a0 a9 0a be 85 fd 87 bd 00 1c 59 bb
       0.038225323 -0.1354127 -0.06640152 -0.0033128262
0002e0 d0 13 a8 3c 67 5e 29 be 22 46 78 bd 7b 7a b3 bd
       0.02051726 -0.16539918 -0.06061376 -0.08763596
0002f0 b0 14 77 3d 50 74 f1 bc 1e 5b 1c be d8 d5 34 3e
       0.060322464 -0.029474407 -0.15269133 0.176597
000300 5c fa 25 3d 66 98 21 be d0 e8 98 bc b0 78 ee bc
       0.040521964 -0.15780792 -0.018665701 -0.029110283
000310 4c f7 ae 3d 40 d1 76 3c ba 55 1d be 08 55 eb bd
       0.08543262 0.0150645375 -0.15364733 -0.11490828
000320 80 0b f8 ba b0 3b 99 3d ab 47 d6 bd e0 b9 81 bc
       -0.0018924326 0.074820876 -0.10462888 -0.015835702
000330 08 f6 12 3e 16 41 25 3e 2c 58 18 3e 5e 2e 26 3e
       0.14351666 0.1613811 0.14877385 0.16228625
000340 5c a3 10 3e 38 0a f2 3c 64 97 31 bd 24 6e 35 3e
       0.14124817 0.029545888 -0.043357268 0.17717797
000350 08 b0 ba bd 18 f3 31 bd dc 5b 80 3d 80 49 2a bb
       -0.091156065 -0.043444723 0.06267521 -0.002598375
000360 d0 a2 30 3e b8 1a b5 bc 99 29 12 be d4 ab 7e bd
       0.17249608 -0.022107467 -0.14273681 -0.062175587
000370 40 8d 38 bc a8 a9 e2 3d b0 04 22 3e f8 83 3f bd
       -0.011264145 0.110675156 0.158221 -0.046756715
000380 f3 23 88 bd 4a 53 30 be 84 98 21 be dc df 07 3e
       -0.06647482 -0.17219272 -0.15780836 0.1326899
000390 4f d3 9f bd 40 4d 0e bd d8 e1 d1 3c 96 0b 23 3e
       -0.07803976 -0.03474164 0.025620386 0.15922388
0003a0 80 28 29 3e 08 1a 11 be da 70 14 3e d8 56 d3 3c
       0.16519356 -0.14170086 0.14496174 0.025798246
0003b0 24 fc b0 3d 7a 4e 03 be 24 fd 13 3d e2 d0 8c bd
       0.08641842 -0.12822905 0.036130086 -0.06875779
0003c0 0c b5 ed 3d 6c d6 34 3d d8 49 fe 3c c4 c8 b5 bd
       0.116067976 0.0441498 0.03104107 -0.08876184
0003d0 6e e3 6f bd 00 60 10 3e 94 fe 86 bd 88 de c9 bc
       -0.058566503 0.14099121 -0.06591526 -0.024642244
0003e0 a8 e1 ab 3d f0 dc bb 3d c4 8e 02 3d 4c ca 51 3d
       0.0839265 0.09173 0.031874433 0.051218316
0003f0 4e 18 11 be f6 5d 78 bd cf 68 06 be 78 c4 17 3d
       -0.14169428 -0.060636483 -0.13125919 0.0370526

arith.constant6 f4 [30, 60]
000000 42 60 9a bd 6a ab 1a 3e 1c 0b 7e 3d 10 a1 30 3e
       -0.07537891 0.15104452 0.062022313 0.1724894
000010 da bd 30 3e b2 4c 0e 3e 50 c4 c3 3d 54 23 dc 3d
       0.17259923 0.13896444 0.09558928 0.10748926
000020 a2 56 37 3e 84 86 9f 3d 06 4b 32 3e c0 92 58 bb
       0.17904142 0.07789329 0.17411432 -0.0033046454
000030 ea 36 2e be f0 68 bb 3d 44 04 c3 3d 47 1b b2 bd
       -0.17013136 0.091508746 0.09522298 -0.08696609
000040 78 e0 47 bd e0 60 22 3c 98 12 cc bc f4 13 00 3d
       -0.048798054 0.009910792 -0.02491121 0.03126903
000050 be 91 27 be f5 11 eb bd b0 2c 34 be f6 4d 80 bd
       -0.1636419 -0.114780344 -0.17595172 -0.0626487
000060 b0 bc d1 3c 6d c1 34 be 64 f6 c8 bd 0c 9e f3 3d
       0.025602669 -0.17651911 -0.0981262 0.118953794
000070 f2 83 a6 bd 23 18 db bd d8 53 2e 3d e8 29 e8 bc
       -0.08130635 -0.10697963 0.04256043 -0.028340295
000080 c3 56 ae bd 3a 03 36 3e 8a 8e 2c 3e 1a ce 2f 3e
       -0.08512642 0.17774668 0.1685125 0.17168465
000090 97 0d db bd a4 d3 3e 3d 00 5a ed 3a 20 c4 96 bb
       -0.106959514 0.046588555 0.0018108487 -0.0046010166
0000a0 74 b0 17 3e f4 39 c5 bd 1b 68 84 bd b1 ef d5 bd
       0.14813405 -0.09630194 -0.06465169 -0.10446108
0000b0 f4 ec b4 3d f2 a4 31 be 66 08 b0 bd 08 e9 0c be
       0.08834258 -0.17348078 -0.08595352 -0.1376077
0000c0 72 b4 f9 bd 60 68 e4 3d 40 6a 78 bc 31 ff 89 bd
       -0.1219262 0.111527205 -0.015162051 -0.06738127
0000d0 ec c2 56 3d e6 66 39 3e 38 8f 60 3d c0 4b 80 3d
       0.052431986 0.18105659 0.054824084 0.06264448
0000e0 d9 1a d3 bd b3 11 b7 bd ba 98 df bd bc 9f 40 bd
       -0.10307855 -0.08938923 -0.10917802 -0.047027335
0000f0 a2 55 35 3e b9 22 1e be 00 56 93 39 b3 6f 37 be
       0.17708448 -0.15442933 0.000281021 -0.17913704
000100 18 09 77 bd 38 0d 19 be 25 77 0b be ac 06 f2 bd
       -0.060311407 -0.14946449 -0.13619669 -0.11817679
000110 d2 5a 82 3d 40 33 8a 3d 72 ba 20 be 65 8d 8a bd
       0.06364979 0.067480564 -0.15696123 -0.0676525
000120 39 b6 07 be 44 ea 72 3d b3 dc 03 be 50 5c 3c 3d
       -0.13253106 0.059305444 -0.12877159 0.045986474
000130 48 a4 13 3e a0 0e 42 3c d0 8c a1 3d 60 a2 fe bd
       0.14418137 0.011844307 0.07888186 -0.12433314
000140 38 cc fa bd 08 19 c5 3c a2 06 92 bd f4 df 8b 3d
       -0.12245983 0.024059787 -0.07130171 0.06829825
000150 b9 56 9f bd d0 87 d4 bd 34 7d 48 bd 9a b2 f3 bd
       -0.07780213 -0.10377467 -0.048947528 -0.118993
000160 ee b6 14 3e 20 6d 74 bc 2e c1 2b be ac 29 5d 3d
       0.14522907 -0.014918596 -0.16772911 0.05399482
000170 da 2a 35 3e e0 0e cc 3b 38 18 a2 3d 2e fe ff bd
       0.17692128 0.006227359 0.079147756 -0.12499653
000180 d4 03 28 3d 8c 38 d7 3d 74 f1 f5 3d 24 06 1a 3d
       0.041019276 0.10508832 0.12008944 0.037603512
000190 c0 49 bd bb 3c 1e e9 3d 10 94 6c 3c b0 65 ef 3c
       -0.005776614 0.1138272 0.014439598 0.029223293
0001a0 f8 61 2d bd 2b 66 0b be 18 cb f8 bd 10 9d 4c bc
       -0.04232976 -0.13613193 -0.12148112 -0.0124886185
0001b0 00 48 dc 3b 59 6e a7 bd d0 34 14 3e b0 00 06 3d
       0.0067224503 -0.08175344 0.14473271 0.0327155
0001c0 90 0d aa 3d 9c 9b 2c 3d fe e5 ae bd 8c 60 28 3e
       0.08303368 0.04214059 -0.08539961 0.1644308
0001d0 b0 e7 dd bc 28 ff 33 3e 00 7c 35 3b 98 26 9d 3d
       -0.027088016 0.17577803 0.0027692318 0.07673377
0001e0 b0 68 1c be 5e e5 85 3d d8 1e 0c 3e f0 62 5f 3d
       -0.1527431 0.06537889 0.13683641 0.054537714
0001f0 40 15 6b bd 3b a8 1f be ac 7e 0a 3e 3c c1 d6 3d
       -0.057393312 -0.15591519 0.13524884 0.10486075
000200 cb 7f 34 be ac 55 a8 3d 43 89 c2 bd f8 8a 39 be
       -0.17626874 0.082194656 -0.09498837 -0.18119419
000210 dc 88 04 3e bb 61 cb bd ec 91 89 3d dd 5b 99 bd
       0.12942833 -0.0993075 0.067172855 -0.07488225
000220 28 d3 00 bd 36 8a 15 be 22 82 9f bd bc 31 37 bd
       -0.031451374 -0.14603505 -0.07788493 -0.044725165
000230 d4 b4 38 3e 60 86 78 3c f0 76 47 bd 26 9e 24 be
       0.1803773 0.015168756 -0.048697412 -0.16075954
000240 fc 3b db 3d eb 0a ac bd 54 12 4f 3d f8 c5 2d 3e
       0.107048005 -0.0840052 0.05055459 0.1697005
000250 00 70 21 b9 bc bf ef 3d c0 ee 6f bd 5c 2c 92 bd
       -0.0001539588 0.11706492 -0.0585773 -0.07137367
000260 05 89 a2 bd dc 69 e7 3d 20 2b 73 3d 21 80 f2 bd
       -0.07936291 0.11299488 0.0593673 -0.11840845
000270 bc 6d 0c be 54 51 4a bd 9c 03 09 3d fe 46 15 3e
       -0.13713735 -0.049393967 0.033450708 0.14577863
000280 c8 10 fe bc 54 2d 03 be 01 6f 14 be e2 4c 16 be
       -0.031013861 -0.1281026 -0.1449547 -0.14677766
000290 f4 38 d8 3d 58 1d 0f be e4 75 95 3d 18 0b ac 3c
       0.10557738 -0.13976038 0.072978765 0.021001384
0002a0 a3 cf aa bd 32 32 85 bd 5c e8 1e be 76 d7 e5 bd
       -0.08340385 -0.065037146 -0.15518326 -0.112227365
0002b0 f4 e6 fc bd 2e d7 84 bd e7 0e 0d be 9d e6 29 be
       -0.12348738 -0.06486355 -0.13775216 -0.16591878
0002c0 9a fa 8f bd e0 f5 a5 3d b0 e8 4d 3d b4 2c aa 3d
       -0.0703022 0.081035376 0.050270736 0.08309308
0002d0 f4 bd 78 bd bc 08 ec 3d 3e d7 2d 3e 37 61 16 be
       -0.06072803 0.115251034 0.1697664 -0.14685522
0002e0 00 8f 36 3c 70 79 81 bc 18 3b ce 3d 82 e8 33 3e
       0.011142492 -0.015804976 0.10069865 0.17569163
0002f0 4c 4a 8d bd 2c d9 1c 3d 3a 59 39 be f4 5c 23 3e
       -0.06898937 0.03829305 -0.18100443 0.15953428
000300 c6 c2 82 3d 72 4e 29 3e b8 be e8 bc 00 67 24 3d
       0.06384806 0.16533831 -0.028411254 0.04013729
000310 64 a4 4d bd b8 a6 ce 3d ea 4e 04 3e 52 28 bc bd
       -0.050205603 0.10090393 0.12920728 -0.09187378
000320 7c 0e 2f 3e 0c 07 21 be 36 e1 e7 bd 70 5d 0f be
       0.17095369 -0.15725344 -0.113222525 -0.14000487
000330 0b ab c7 bd f3 c1 1e be aa ca 93 bd f0 40 81 bc
       -0.09749421 -0.15503673 -0.072163895 -0.015778035
000340 50 7b 31 bd 64 21 14 bd 00 91 fc bc 35 5f 04 be
       -0.04333049 -0.036164656 -0.03083086 -0.12926944
000350 28 ec 28 3e 30 35 27 3e c8 d5 f8 bc 24 d4 b4 3d
       0.16496336 0.16328883 -0.030375376 0.08829525
000360 f7 23 dd bd 47 eb af bd a8 9c f2 3d 0f cf 8f bd
       -0.107978754 -0.085897975 0.11846286 -0.07021915
000370 cb 50 04 be a8 ae a4 3d c8 27 7e 3d d6 83 71 bd
       -0.12921445 0.080411255 0.062049657 -0.05896362
000380 7a a9 1c be 54 6c 9e 3d 58 a6 36 bd 38 67 ef 3c
       -0.15299025 0.07735506 -0.04459223 0.029224023
000390 de 63 a5 bd 00 53 58 3d 98 b3 9c 3d a6 62 14 be
       -0.08075689 0.05281353 0.07651442 -0.14490756
0003a0 78 6f d7 bc 02 bd 13 be fd 2b 2c be ec 95 ea 3d
       -0.02629827 -0.1442757 -0.16813655 0.114543766
0003b0 4e fa 35 3e 04 e5 ea 3d 58 43 46 3d 34 09 e5 3d
       0.17771265 0.114694625 0.048404068 0.11183396
0003c0 73 32 d8 bd 5e 34 74 bd 61 22 f2 bd 18 bb a3 bc
       -0.105564974 -0.059620254 -0.118229635 -0.019986674
0003d0 38 cd b6 3c 58 b0 c9 3d 6b 28 d4 bd fc 8a 09 bd
       0.022314653 0.09848088 -0.103592716 -0.03357981
0003e0 e6 2e f6 bd e0 55 1a bd 4a d9 0b 3e 7c f6 48 bd
       -0.12020664 -0.037679553 0.13657108 -0.04906319
0003f0 80 a7 be bb 44 61 ce 3d 31 27 01 be 40 3b c3 3d
       -0.0058183074 0.10077146 -0.12612607 0.095327854
