Riproduzione/models/FD001/CNNsmall/CNN_small_batch_1.tflite (tflite, 104960 bytes, 9 tensors)

sequential/conv1d/BiasAdd/ReadVariableOp f4 [64]
000000 c3 9e 1e 3d 5f 8f 8a bd 73 8e 1f 3f 8b d5 e5 3d
       0.038725626 -0.06765627 0.62326735 0.11222371
000010 02 47 6e 3e 99 03 8e be be 0c 09 be b2 d7 90 be
       0.23269275 -0.2773712 -0.13383767 -0.28289562
000020 40 3c 32 3e 31 f1 07 be c3 e4 64 be fc 9d e7 bd
       0.17405796 -0.13275601 -0.2235289 -0.1130943
000030 58 1d db bc 15 35 d1 3e 83 c4 98 be 81 df ae be
       -0.02674739 0.4086081 -0.29837427 -0.34154895
000040 f8 ca fc be 16 df 0b be 00 f5 b9 be 04 ee 31 bc
       -0.49373603 -0.1365932 -0.36319733 -0.01085997
000050 b1 87 bf 3c 56 5b 9b bd af 91 e3 be da fe 25 3d
       0.023380132 -0.0758578 -0.44447085 0.04052625
000060 5c 70 4b be c1 70 03 bf aa d7 6e bd 27 72 42 3f
       -0.1986708 -0.51343924 -0.058311142 0.7595543
000070 3b c3 b2 bc 39 ae b8 bd aa e8 9a bd f4 4e 4b be
       -0.021821609 -0.09017605 -0.075639084 -0.19854337
000080 03 07 06 bd 75 43 bf bd 36 db a8 bd 70 18 c4 bd
       -0.03272153 -0.09339038 -0.08244936 -0.095749736
000090 3b ef 45 bd 09 5f fa bb aa e6 a3 3e 99 35 03 3d
       -0.04832385 -0.0076407236 0.3201192 0.032033537
0000a0 7e 1f 70 bd 65 47 bc 3e 46 f7 45 be fb c4 83 be
       -0.058623783 0.3677322 -0.19332609 -0.25736222
0000b0 d5 d9 ef bc 10 20 d0 ba 86 7c c1 3d ae 3c 09 be
       -0.029278675 -0.0015878696 0.09447579 -0.13402054
0000c0 90 44 44 bd 3e 3c 84 3f 82 18 c0 3a 43 e0 82 bd
       -0.04791695 1.0330884 0.0014655741 -0.06390431
0000d0 6a f0 d5 bd 1e 14 96 be 8b 3c 61 bd 45 bc bb 3e
       -0.10446246 -0.29312223 -0.05498938 0.36667076
0000e0 2f f8 0c be a6 5e 9e be 9a 6c b7 bd 79 fa 09 bc
       -0.1376655 -0.30931586 -0.08956261 -0.008421534
0000f0 8a d2 37 3d 1a dd 67 be 21 e4 9e 3e 49 42 08 be
       0.04487852 -0.22642937 0.31033424 -0.13306536

sequential/conv1d_1/BiasAdd/ReadVariableOp f4 [32]
000000 56 a2 18 be 4f ee f4 bd c5 5c e6 bd cf fb 75 bd
       -0.14905676 -0.11959516 -0.11248163 -0.060054597
000010 2f 59 15 3d 08 52 09 3f ad 8c ca bd 70 04 af be
       0.036462005 0.53640795 -0.09890113 -0.34183073
000020 00 93 ee 3e bd 10 95 be 8e fb 75 bd 53 2a e8 3c
       0.46596527 -0.29114333 -0.060054354 0.028340494
000030 7c e1 86 be d1 fb 75 bd fe 51 12 3f 7c 13 76 bd
       -0.26343906 -0.060054604 0.5715636 -0.060077175
000040 f8 28 af bd 98 23 d7 3e 69 4f 0c 3f a7 18 3d be
       -0.08552736 0.42019343 0.5480867 -0.18466435
000050 c2 fb 75 bd 17 a7 2c be c8 40 76 bd a9 65 c9 3d
       -0.060054548 -0.16860615 -0.060120374 0.09833843
000060 e2 23 30 3f fc f1 1e 3f 23 63 3e be d3 fb 75 bd
       0.6880475 0.6208799 -0.18592505 -0.06005461
000070 9b a5 01 be 07 e4 0d 3f 7f 4a 0f 3f 0a fb 75 bd
       -0.1266083 0.5542607 0.55973047 -0.060053863

sequential/conv1d_2/BiasAdd/ReadVariableOp f4 [16]
000000 de 1e b9 be 99 92 73 3e c7 2f 3d 3f 76 9a 89 3f
       -0.36156362 0.23786391 0.7390103 1.0750263
000010 54 5a d5 3d 43 de 5c bf d2 0a d5 bd cd 9b 39 be
       0.10417619 -0.86276644 -0.104024544 -0.1812584
000020 ff 3c 28 3f 97 62 8d 3e 1c 57 4d be a3 c4 68 3b
       0.6571807 0.2761428 -0.20052761 0.0035517595
000030 4f 92 6a bd c7 fd 66 be c6 1f da be 8f 6a 84 be
       -0.057268437 -0.22557746 -0.42602366 -0.25862548

sequential/conv1d/Conv1D f4 [64, 1, 8, 14]
000000 34 74 e3 bd da 85 c6 be 66 e0 7b 3e cc 43 46 bf
       -0.11106148 -0.38773996 0.2459732 -0.774472
000010 6a 3d 95 3e d5 b5 7d be ed 15 79 3d 04 be 61 3f
       0.29148418 -0.24776395 0.060811926 0.88180566
000020 e0 0e 34 bf ad f3 3b be 60 ef 0c 40 10 06 8b bf
       -0.703352 -0.18354674 2.2021103 -1.0861225
000030 a5 f0 ea 3f 3b bd 8b 3e fd 6e 44 3d 27 3b 8d 3f
       1.8354689 0.2729281 0.04795741 1.1033677
000040 17 15 6e 3d 08 fa af 3e d4 a8 6f be be 2b 7a be
       0.05812558 0.34370446 -0.23404247 -0.24430749
000050 eb c6 d7 bc 53 a8 e7 be b0 55 20 3e 9e 8a df bd
       -0.026339969 -0.4524561 0.15657687 -0.10915111
000060 23 21 79 bf 47 03 a2 bf e1 eb cf 3d 2a c1 9f 3f
       -0.9731619 -1.265725 0.10152412 1.2480824
000070 1c 29 3b 3e 57 10 58 3e 1d 54 47 bf a7 7a a2 be
       0.182774 0.21099983 -0.7786272 -0.317342
000080 0d b6 6d 3d 4c 2f 2b be 83 e6 a0 3f 5e e7 cb 3f
       0.058034945 -0.16717261 1.2570347 1.5929983
000090 41 be 44 be f5 59 97 be f0 80 92 3e 65 cd 99 3f
       -0.19213201 -0.2956082 0.28613997 1.2015806
0000a0 f9 8f a1 bf 85 be f5 3e 9c 81 d1 be cd 0f a8 3f
       -1.2622062 0.47996917 -0.40919197 1.3129822
0000b0 f2 d3 06 3f da 6e 8b 3c 00 44 92 bc 10 57 6d be
       0.5266715 0.017020632 -0.01785469 -0.23177743
0000c0 d6 10 57 bf 1d 02 4f be 12 23 7c 3d 6e fe 9c be
       -0.84010065 -0.2021565 0.061556883 -0.30662864
0000d0 c7 15 93 3e 9c 10 7e bf 62 ba ca be bb 93 7c bf
       0.28727552 -0.99244094 -0.39595324 -0.9866292
0000e0 56 8f ad bd 95 ca 4e 3f 52 2e eb bf 9c dc 27 3e
       -0.08474605 0.80777866 -1.8373511 0.1639275
0000f0 7e 11 97 bc 6a 18 63 be fb 28 13 40 85 b3 2e bf
       -0.018440958 -0.22177282 2.2993762 -0.68242675
000100 e8 a9 32 3f a8 11 89 be 1e 6c 45 3e 33 dc 2b 3f
       0.69790506 -0.26771283 0.19279525 0.6713287
000110 04 cb c0 3f f6 3f 95 3f 2a 2e d5 be 12 6d 45 be
       1.5061955 1.1660144 -0.41636783 -0.19279888
000120 3b a4 8e bf 06 12 d4 3e c2 29 a1 bd 81 54 90 be
       -1.1143869 0.4142 -0.07869293 -0.2818947
000130 77 f8 92 be 29 64 8d 3f 68 ea c1 3e 72 74 3d be
       -0.2870519 1.1046191 0.3787415 -0.18501452
000140 2e d4 01 c0 94 f1 f2 3e ca 95 f4 3e a1 05 39 bf
       -2.0285754 0.47449934 0.4777053 -0.72274214
000150 29 d8 ad 3f 6c ec db bf 17 69 2d 3f a7 67 6a 3f
       1.3581592 -1.7181525 0.6773848 0.9156441
000160 83 a6 00 3f 45 71 9f bd 6d b8 10 40 40 37 7a bf
       0.50254077 -0.07785276 2.2612565 -0.97740555
000170 a1 23 fb 3e 9f 21 f7 bd 64 02 af 3f f0 64 c6 bf
       0.4905062 -0.120669596 1.3672605 -1.5499554
000180 71 dd 48 3f 6b 09 f0 be ff 19 28 40 10 b7 6a 3e
       0.7846289 -0.46882185 2.6265867 0.22921395
000190 53 53 0e 40 e4 87 fe bf 1a a7 62 3f 7e d5 06 be
       2.2238357 -1.988522 0.88536227 -0.13167378
0001a0 04 4b b2 3f 07 e2 3f bf ae 30 38 3f 7b 26 88 be
       1.3929143 -0.74954265 0.7194928 -0.26591858
0001b0 1c 43 a7 bf 77 f0 a7 3f e4 90 58 bc 1b f7 16 3f
       -1.3067355 1.3120259 -0.013218138 0.58970803
0001c0 95 1f 72 3f e3 ab 00 3f f0 fd 06 3f a6 7c 73 3e
       0.9457944 0.5026228 0.5273123 0.23778018
0001d0 63 b1 c6 be 2e 5f 32 3f 17 9b 84 3d b5 d2 70 3e
       -0.3880721 0.6967648 0.064748935 0.23517878
0001e0 d5 18 f4 be 63 e3 10 3f 29 c8 60 3e 62 cb 63 3f
       -0.47675195 0.56596965 0.21951355 0.8898221
0001f0 4c 3d 89 bf 82 71 20 bf e3 38 41 3f 89 ce 30 3e
       -1.0721831 -0.626732 0.7547743 0.17266287
000200 60 48 8b 3e 8a 1e 1d 3f 06 34 0d 3e 0b 08 04 3f
       0.27203655 0.61374724 0.13789377 0.5157477
000210 07 db 2f 3f c0 1e 27 3f f0 64 97 be c4 f5 1d 3f
       0.68693584 0.65281296 -0.29569197 0.61703134
000220 cd d3 e8 3e 20 70 db 3d 20 23 27 bf 1c 20 10 bd
       0.4547409 0.107147455 -0.6528797 -0.035186872
000230 69 47 ab bd 30 5a a4 3f f5 78 d7 bd 58 b6 dc 3d
       -0.0836323 1.2840023 -0.105211176 0.10776967
000240 fc da 14 bd 19 c1 35 3f d6 b4 9a be cf 2f 7a 3f
       -0.036341652 0.7099777 -0.30216092 0.977292
000250 4a fa 28 be 9d 8d 43 3f fe db c8 bc fe f4 a3 3e
       -0.16501728 0.7638796 -0.024518963 0.32022852
000260 71 52 89 be 89 c6 54 3e 2c c5 94 bd db 6e 1d 3f
       -0.2682071 0.2077886 -0.0726417 0.6149728
000270 0f bf 13 bf 4e 40 0b be 4a 89 02 bc b7 86 fe 3e
       -0.5771341 -0.13598749 -0.007967303 0.49712154
000280 d7 13 0c 3f 21 bc 46 3e 14 b0 33 bf d1 a1 36 3f
       0.54717773 0.19407703 -0.7019055 0.7134066
000290 0d 56 ba 3e 2f 9a 9e 3f 5c 56 c5 3d ce c0 87 3e
       0.36393777 1.2390803 0.09635612 0.26514286
0002a0 ed e3 1a be fc ab 5f be 77 e4 7f be 36 f1 a8 bc
       -0.1512601 -0.2184295 -0.24989496 -0.02062283
0002b0 fb de 27 be 59 8c 27 3f 74 3d a8 3e 1b d6 58 3e
       -0.16393654 0.6544853 0.32859385 0.21175425
0002c0 03 9e dd be d9 65 4a 3f 8f 5d 46 3f 0f 90 6a 3f
       -0.43284616 0.7906166 0.7748651 0.91626066
0002d0 ec 48 fe be 27 60 7d bf 53 b5 18 3f 17 06 45 bd
       -0.4966501 -0.9897484 0.5965168 -0.04810151
0002e0 8a 2c 3b 3e ed 21 0f 3f 30 12 b6 be 21 48 31 3f
       0.18278709 0.5591114 -0.3556075 0.69250685
0002f0 c1 14 9b be 2c 0d 98 3e 24 42 56 be f6 49 4d 3f
       -0.3028927 0.2969755 -0.20923668 0.8019098
000300 aa 19 5c 3e 8f f6 48 3f bd c7 60 bf 51 cb 85 bf
       0.21494165 0.7850122 -0.87804776 -1.0452672
000310 9f a7 67 3d 0e fa e1 3e 62 29 19 3e 0a ec 0d 3f
       0.05655634 0.4413609 0.14957193 0.5543829
000320 2a 19 8b bd 79 15 2d 3f 0a cf 2b be cf 9c 32 3f
       -0.06791909 0.6761089 -0.16778198 0.6977052
000330 73 65 92 3c da aa 71 3f a0 82 98 3f 31 04 76 3e
       0.01787064 0.94401324 1.1914864 0.24025036
000340 21 b9 90 bf 09 3f 1f bf 96 82 c1 3e ac 1a b9 3f
       -1.1306497 -0.6220556 0.37794942 1.4461265
000350 6d 5d 75 3e 75 ad 8d bd cd 15 72 3d e6 66 2a 3f
       0.2396142 -0.0691785 0.059102822 0.6656326
000360 c1 44 4a 3e c5 d6 2c 3f 60 10 04 3e 1a f6 53 3f
       0.1975279 0.6751521 0.12896872 0.82797396
000370 b1 26 ba 3f 8f e8 e4 3e 19 37 a1 bf 09 14 18 bf
       1.4543058 0.44708678 -1.259494 -0.5940557
000380 66 cd 87 3f fb f4 83 3f 72 9d 7b 3f bf 3a e3 bf
       1.0609558 1.0309137 0.9828712 -1.7752303
000390 02 fd b1 3e 33 c7 2e bf d2 0c ce 3f 1a d4 c0 bf
       0.34763342 -0.68272704 1.6097662 -1.5064728
0003a0 9c 52 88 3e 7d 41 2f bf 76 70 ec 3f 6a 69 5d 3f
       0.26625526 -0.684593 1.847182 0.86488974
0003b0 f1 7d 15 c0 23 93 94 bf ff 30 75 3f 6b 42 52 3f
       -2.3358119 -1.1607403 0.9577789 0.82132596
0003c0 65 c7 10 3f b6 76 e1 be e0 a1 07 be 26 76 26 bf
       0.5655425 -0.44035882 -0.13245344 -0.6502403
0003d0 7c c7 9a 3f a4 e1 8b bf 6d f6 32 3d 6e 91 3e bf
       1.2092128 -1.0928235 0.04369204 -0.7444066
0003e0 94 62 cf 3f 0a 12 eb 3e 61 81 89 bf 44 7e 37 bf
       1.6201959 0.459122 -1.0742608 -0.7167704
0003f0 ff f3 67 3f b2 ee fd 3e cd a6 45 3d 92 f6 63 be
       0.90606683 0.49596173 0.048254777 -0.22262028

sequential/conv1d_1/Conv1D f4 [32, 1, 6, 64]
000000 69 de ec be 3f 48 19 be 74 52 d6 be aa 65 79 be
       -0.46263435 -0.14968966 -0.41859782 -0.24355188
000010 16 41 b0 be ed 12 81 bd ff b3 95 3c 73 17 df bd
       -0.34424657 -0.06302438 0.018274305 -0.108931445
000020 7c a9 a6 be 12 ca 03 be ff 99 1a be 94 78 39 3c
       -0.3255118 -0.12870052 -0.15097807 0.011320252
000030 d8 85 93 3d 5d 74 57 bf 23 d7 23 be a8 0c bc bd
       0.07203263 -0.8416193 -0.16000037 -0.091821015
000040 9c be ef bd bd 2a 27 be 0f dd c5 bb 33 1d 2a be
       -0.11706278 -0.16324897 -0.006038315 -0.16612701
000050 f5 be 4d be cc fa fe bd a7 e9 ca bd 5b fb 13 be
       -0.20092376 -0.124501795 -0.09907847 -0.14451353
000060 41 f3 85 3c 45 0f d8 bd c5 f4 a6 be 68 2a bd be
       0.016351344 -0.105497874 -0.3260862 -0.36946416
000070 8d cc e0 bd 82 fa bb bd d3 3b 1d 3d 2e 7e 05 bd
       -0.10976515 -0.0917864 0.03838713 -0.032591037
000080 af d5 31 bd d3 c0 c0 bd ca f3 a0 be d0 74 38 bc
       -0.043416675 -0.09411778 -0.31435996 -0.011258319
000090 58 d1 04 be 46 2d 31 be 06 2f 4b be 58 78 30 be
       -0.12970483 -0.17302427 -0.19842157 -0.17233407
0000a0 04 e7 a3 bd 28 fa a3 3d 08 ef c4 bc de d7 b4 bd
       -0.08003047 0.08006698 -0.02403976 -0.08830236
0000b0 9f 4f 23 be 42 e9 c9 bd fa f4 70 be 31 3a 2e bd
       -0.15948342 -0.098589435 -0.23530951 -0.042535964
0000c0 8d 34 ee bd 3d 45 0b be 35 e8 51 be 30 f8 2c be
       -0.11631117 -0.13600631 -0.20498736 -0.16891551
0000d0 4b 15 5e 3e 15 fd 4d be 33 02 51 be ed 14 05 bd
       0.2168781 -0.20116074 -0.20410995 -0.03249066
0000e0 98 cf c8 bd 39 0c 72 3d fa 00 d4 bd 84 8c 5a be
       -0.0980522 0.059093688 -0.10351749 -0.21342665
0000f0 8b 72 57 be f6 ea 01 be 9c d1 43 be 14 26 14 be
       -0.21039788 -0.12687287 -0.19122928 -0.1446765
000100 02 7e ea be 04 bb 0e be ac 46 e1 be 06 73 87 be
       -0.4579926 -0.13938528 -0.4399923 -0.26454943
000110 c8 6b 24 be 4f 01 3f be e8 ba 20 be 99 2f 19 be
       -0.1605674 -0.18652843 -0.15696299 -0.14959563
000120 89 0f a1 be 9c 8f 34 bd 8d c3 a1 3c f5 c9 83 bd
       -0.31457165 -0.04408227 0.019746566 -0.064350046
000130 99 cb 55 3e 3e c8 15 bf 69 bc 07 be d0 ec 68 bc
       0.20878448 -0.5850867 -0.13255467 -0.014216617
000140 98 c7 ef bd 0f b0 3c bd fa 0a 7d bd bb 49 8b be
       -0.11707991 -0.04606634 -0.061778046 -0.2720469
000150 36 8b 7a be ee 0c 3f be ad ff 22 be b0 62 d2 bd
       -0.24467167 -0.18657276 -0.15917845 -0.102727294
000160 57 91 1a bd 45 79 7a be d3 2c ce be 5f 41 b3 be
       -0.037736263 -0.24460323 -0.40268573 -0.35010812
000170 d7 2c 63 be f7 2a 9a bd 6e 95 e8 3b 2e eb 5f be
       -0.22185074 -0.07527726 0.0070978915 -0.21867058
000180 c1 2e 70 be 3e 07 fe 3c 20 1d 93 be 91 7d d7 bd
       -0.23455335 0.031009313 -0.28733158 -0.10521997
000190 73 ac 8d be fc 57 22 be 15 e1 3a be af 6b f8 bd
       -0.2767063 -0.15853876 -0.18249924 -0.12129914
0001a0 fe 62 e3 bd b9 c2 38 3e 84 cf 41 be 43 72 10 be
       -0.11102866 0.18043031 -0.18926817 -0.14106087
0001b0 e5 c1 7c be 83 62 18 be 90 b0 5d be 84 91 3d bd
       -0.2468334 -0.14881329 -0.21649384 -0.046281353
0001c0 93 f8 e4 bd 99 fc 25 3d 5e 2a 90 be 38 7f 85 be
       -0.11180224 0.0405241 -0.28157324 -0.26073623
0001d0 a6 85 30 3e 9f 5c 7a be 13 0a 2c be 72 79 91 bc
       0.17238483 -0.24449395 -0.16800718 -0.017758105
0001e0 e8 6b 4f be 33 72 d9 3c 59 63 db ba c6 1e 82 be
       -0.20256007 0.026543712 -0.0016737982 -0.25414103
0001f0 90 10 6c be 7b 55 0c be d9 21 bd bd e7 71 2b be
       -0.23053193 -0.13704483 -0.092349716 -0.16742669
000200 09 56 e7 be a1 52 d8 3b 3e 02 95 be 68 67 69 be
       -0.45182827 0.006601647 -0.29103273 -0.22793353
000210 12 d5 b9 be fb 37 52 be 8d c4 94 bd a1 e6 f4 bd
       -0.36295372 -0.20529167 -0.072640516 -0.119580515
000220 ef ae 41 be 87 79 cf bd 23 c5 a9 bd 83 a4 11 3c
       -0.18914388 -0.101306014 -0.08289554 0.00888932
000230 d1 8d 47 3e 38 d0 af be aa 27 64 be f6 1c 5f be
       0.19487692 -0.34338546 -0.22280756 -0.21788391
000240 48 bd 01 be ab 34 35 bd 8e f7 15 3c 46 ed 3f be
       -0.12669861 -0.04423968 0.00915326 -0.18742856
000250 eb 76 ba be 66 3a 87 be 90 44 24 be d8 0d 37 bc
       -0.36418852 -0.26411742 -0.1604178 -0.011172734
000260 4e c6 e8 bd 47 5b eb bd ff 6e be be 3c 80 ed be
       -0.113659486 -0.11492019 -0.37194058 -0.46386898
000270 97 c9 29 be b9 01 97 bd 80 03 73 bc 8c 88 83 bd
       -0.16580807 -0.073733754 -0.014832377 -0.064225286
000280 45 13 55 be 64 10 45 bd ab e3 3e be 4b 9c 17 bc
       -0.20808132 -0.048111334 -0.18641536 -0.009253572
000290 ae 1d 61 be f5 42 3f be 36 3b 13 bc cd f6 89 be
       -0.21983978 -0.18677886 -0.008986285 -0.26946107
0002a0 05 3c e2 bd 0d b1 90 3e d5 e4 40 bd 90 42 4f be
       -0.11046604 0.2826008 -0.04709323 -0.20240235
0002b0 15 5f ee bd 07 1d 22 be 45 30 11 be 43 87 a0 3c
       -0.11639229 -0.15831386 -0.1417857 0.019595748
0002c0 62 aa 03 be 50 5a d7 bd ef a0 a9 be 9c 3a 4e be
       -0.12857965 -0.105152726 -0.33130595 -0.20139545
0002d0 a7 72 49 3e 86 4d 80 be 73 6d 88 be 66 16 bd bd
       0.19672643 -0.25059146 -0.26646003 -0.09232788
0002e0 18 e1 3e be fe de a3 bc ed 8f 1c be 10 23 47 be
       -0.18640554 -0.020003792 -0.15289278 -0.19446969
0002f0 f0 25 59 be 76 35 83 be bb e7 ad bd 1d 01 3b be
       -0.21205878 -0.25626725 -0.08491465 -0.18262143
000300 d7 f2 a8 be c3 8c 1a be 68 41 ec be e1 01 a3 be
       -0.32997772 -0.15092759 -0.4614365 -0.3183737
000310 8d 0e f2 bd 6a 42 2c be 9f 50 dc bd a3 07 60 be
       -0.118191816 -0.1682221 -0.10757565 -0.21877913
000320 3b 5f ba be 3c 44 71 bc 76 52 fe 3c c6 d9 59 3d
       -0.3640078 -0.014725741 0.03104518 0.0531862
000330 43 06 ef 3d 66 5f 3d bf 0b 2b 5f be bf a5 5b be
       0.11671116 -0.7397369 -0.21793763 -0.21449946
000340 bd eb 94 bd 69 6e 91 bc eb 01 12 3d 48 12 27 be
       -0.07271526 -0.017752843 0.03564636 -0.16315567
000350 61 3b 8d be 22 c5 b1 be 87 bd 5a be 5d c5 84 bd
       -0.27584365 -0.34720713 -0.21361361 -0.064829566
000360 5d 53 02 be 4d 1b 81 be 67 e0 e2 be 7f 87 c3 be
       -0.12727113 -0.2521614 -0.4431183 -0.38189313
000370 ed b1 5a be d5 1b d6 bd 35 68 bb 3c 78 75 78 be
       -0.21356936 -0.10454527 0.022876838 -0.24263561
000380 3e e6 5b be 63 81 fd bd 10 af c4 be 22 32 90 bd
       -0.21474549 -0.12378194 -0.38414812 -0.07040812
000390 19 6d 58 be 55 14 13 be 9a cf a9 bd fa 39 a7 be
       -0.21135367 -0.14363225 -0.0829155 -0.3266142
0003a0 2b 98 a8 bd 46 ba 58 3e 86 81 d9 bd 0e ae 3e be
       -0.08232149 0.21164808 -0.10620408 -0.18621084
0003b0 ba 89 14 be 74 02 68 be 89 b7 83 bd 23 38 cb bd
       -0.14505664 -0.22657186 -0.06431491 -0.099228166
0003c0 a7 fe e0 bd 21 e8 87 bd 13 4d 8d be 24 33 99 be
       -0.10986071 -0.06636072 -0.27597865 -0.2992183
0003d0 35 d3 13 3e 3c e1 59 be 0f 6b 8c be 7a 92 66 be
       0.14436038 -0.21277326 -0.2742543 -0.22516814
0003e0 13 98 5f be 9a 23 0d bd 35 8c fe bd fa 96 35 be
       -0.21835355 -0.03445778 -0.12429086 -0.17733374
0003f0 2a 45 83 be 3f 0a 00 be 79 9d 68 be 33 13 b7 bd
       -0.25638705 -0.12503909 -0.22716321 -0.08939209

sequential/conv1d_2/Conv1D f4 [16, 1, 3, 32]
000000 7a 98 7c be 14 d4 00 3e af b3 04 3e b1 de b9 bd
       -0.2466754 0.12580901 0.12959169 -0.09075678
000010 4a 1e da be 44 27 f2 be ce c1 23 bd 53 dc 99 3d
       -0.42601234 -0.47295582 -0.03997975 0.07512727
000020 3b 32 e2 bd f8 69 53 be 03 41 f0 bd 8b a2 b0 3d
       -0.11044737 -0.20645893 -0.1173115 0.086247526
000030 0c 92 2f be 35 bb 08 3e fa 21 cd be 4c 99 72 3d
       -0.17145556 0.13352664 -0.40064985 0.059228227
000040 34 6b 10 be 9b e5 87 be 76 a0 9a be 21 71 fa bd
       -0.14103395 -0.26542363 -0.30200547 -0.12228609
000050 f6 bb 76 3a 8b 0e 0a be 51 3b 12 be c0 88 5a be
       0.00094121636 -0.1348211 -0.1428044 -0.21341228
000060 ef 82 1a bf c2 79 d1 3d b7 76 c2 3d 46 4d 0b 3e
       -0.6035604 0.102283016 0.09495299 0.13603696
000070 48 6a 70 be ed 90 c6 3e b8 95 c0 be cb 1f 2d 3d
       -0.23478043 0.38782445 -0.37614226 0.04226665
000080 04 72 88 3d 55 75 01 be 8e c2 41 bc 0a 7d f1 bb
       0.06662372 -0.12642415 -0.011826171 -0.007369642
000090 6c 8b fa be 4b a4 d6 be 6f 59 f5 bd 57 02 3f 3d
       -0.48934495 -0.4192222 -0.11979949 0.04663309
0000a0 c1 1c 2a 3e c8 06 a4 bd 64 d6 37 bd 8d fd cb bd
       0.16612531 -0.08009106 -0.044882193 -0.0996047
0000b0 04 8a 08 3e eb ac 66 bd af 7b 00 bf 68 63 38 bd
       0.13333899 -0.05631725 -0.50188726 -0.045016676
0000c0 b5 21 52 be 78 40 61 be 60 23 c6 be 9c 68 e3 3d
       -0.2052067 -0.21997249 -0.38698864 0.11103937
0000d0 b8 0a da 3d ab 96 8b bd 81 26 c0 3d 0a 0d 51 be
       0.10646576 -0.06815847 0.09382344 -0.2041513
0000e0 0d 8e b9 be 49 f5 4d 3d 08 ee 87 bd cd c1 03 3d
       -0.3624119 0.05028275 -0.06637198 0.032167245
0000f0 8d 68 cf be 54 77 9c 3e 1a de e3 be 8c 0a 75 3c
       -0.40509453 0.3055979 -0.44505388 0.014956128
000100 4d b0 6a be 6d 1f 39 be 80 a2 ae 3d 30 9b d7 bd
       -0.22918816 -0.18078394 0.08527088 -0.105276465
000110 9e 6a 7c bf 1f 9f 06 be 31 17 11 bd b7 6f 25 be
       -0.98600185 -0.13146637 -0.035422508 -0.16155897
000120 e2 b4 99 be 01 cd 8a be d5 e2 84 bd ee 1b f3 3d
       -0.30020815 -0.2710953 -0.06488577 0.118705615
000130 fb 59 83 be 6f ff a5 3d bb c5 d1 be 91 1b f0 3d
       -0.25654587 0.08105361 -0.4097117 0.11724008
000140 e4 cd a2 3d de 26 d8 3c f2 34 3d bd 76 bf 39 3d
       0.07949427 0.02638572 -0.04619307 0.045348607
000150 88 d4 2a be bd c9 fa bd 46 2b 80 be e5 7c 7c 3e
       -0.16682637 -0.1224551 -0.25033015 0.24657018
000160 85 83 b9 3d 5b 0e b7 3e 26 a3 bd bc 86 89 52 be
       0.090582885 0.3575314 -0.023149084 -0.20560274
000170 81 4d 6f be e7 ae f2 3e 14 66 97 be 52 3f 75 3c
       -0.23369409 0.47399065 -0.29570067 0.01496871
000180 4e 35 71 be a9 09 ec 3d 80 ea 07 be 74 a6 f2 bb
       -0.2355549 0.1152528 -0.13273048 -0.0074050967
000190 eb b2 d4 bd 49 74 ac bd bf 5f dd be e0 38 b9 3e
       -0.103856884 -0.08420617 -0.4323711 0.36176205
0001a0 6d cf 7a bd a1 8a 0f 3d e6 0c f3 bd 60 8d a2 bd
       -0.061232973 0.035044316 -0.118676946 -0.079371214
0001b0 37 cf 6a bd bd 55 bc bd 7f dc 03 3e af 61 22 bd
       -0.05732652 -0.09196041 0.12877081 -0.03964394
0001c0 17 11 91 bd ab 7c bf bd 34 0f 1a be 7e a4 cd 3b
       -0.07083338 -0.093499504 -0.15044862 0.0062757125
0001d0 9c 0e d2 3d 8f 73 3c bd b1 c7 85 3e bb c9 9e be
       0.10256693 -0.046008643 0.26128915 -0.31013283
0001e0 71 aa 73 be 76 ac 29 3e d6 a2 1e 39 30 c3 a2 3d
       -0.23795487 0.16569695 0.00015128715 0.07947385
0001f0 27 fb d9 bd 8a ba 44 bc ba e3 3c bc ea 75 c9 3c
       -0.10643607 -0.012007365 -0.011528904 0.024592359
000200 bc 17 ab bd 26 f1 21 3e 8b b1 40 3e 7b c0 3e 3e
       -0.08354136 0.15814647 0.18817727 0.18628113
000210 18 8e 82 be dc 42 7f 3e 74 b6 00 be 8b 70 b2 3e
       -0.25499034 0.24927849 -0.125696 0.34851488
000220 fe 19 0b be a8 c6 16 3e 2b 6a 4f 3e 4c 2a 45 be
       -0.13584134 0.14724219 0.20255344 -0.19254416
000230 7d 98 a3 be c7 46 d2 bd 3e be 47 3e eb d3 78 3e
       -0.31952277 -0.10267406 0.19506165 0.2429959
000240 85 71 1d 3e ee 03 11 3e 4e e5 25 3e 1d 3e cd 3d
       0.15375336 0.14161655 0.16200754 0.10021613
000250 0f 2f 9f bb 78 9e c2 bd bb 70 0d be b5 7e 03 3d
       -0.0048579047 -0.09502882 -0.13812535 0.03210326
000260 cd 5a 13 bf 80 2c 5e 3e fc 8a 65 be 14 02 33 3e
       -0.57560426 0.21696663 -0.224163 0.17481261
000270 27 36 25 be 19 68 b4 bd 0b 80 bf bd c0 e3 f5 bd
       -0.16133939 -0.088089176 -0.09350594 -0.120063305
000280 f1 72 01 3d 50 b1 c9 ba 76 59 f2 3c 71 6d d7 bd
       0.031603757 -0.0015387926 0.029583674 -0.10518921
000290 40 01 c9 bd c5 4b d6 3c 70 99 fa 3c 02 b4 c0 3e
       -0.098146915 0.026159177 0.030590743 0.37637335
0002a0 91 98 db bd ab 38 64 bc 6b aa 85 3e 93 d7 8d 3e
       -0.10722459 -0.013929526 0.2610658 0.27703533
0002b0 8b 4e a5 be 95 3c f4 3d cc f9 0d be 3c 0a 0d 3e
       -0.32286486 0.119256176 -0.13864821 0.13773435
0002c0 3d d3 0c bd e8 4e 04 3e 25 35 d9 3d 6b 67 ec bc
       -0.03438114 0.12920725 0.1060584 -0.028857907
0002d0 c9 f8 49 bd 45 00 c1 bd d6 ae a6 bb 67 b4 ac bd
       -0.049309526 -0.094238795 -0.00508676 -0.084328465
0002e0 23 fa af be 50 eb 78 bd 90 d5 97 be 48 0e 99 bd
       -0.34370527 -0.060771286 -0.29655123 -0.07473427
0002f0 24 6f b3 bd a3 d4 04 bd c1 13 d7 3c 83 31 b0 3d
       -0.08761433 -0.03242935 0.026254537 0.086031936
000300 92 aa 16 3d aa 46 2f bd 9c b4 88 bd dd e3 12 3d
       0.036783762 -0.042792 -0.066750735 0.03586184
000310 bf 67 8b 3f 24 76 a7 be e3 94 4a 3f ed c0 a9 bd
       1.0891036 -0.32707322 0.79133433 -0.08288751
000320 52 72 2f bf 6d 3e 8b 3e 5d dc 1e bd a9 54 c5 bf
       -0.68533814 0.27196065 -0.038784374 -1.5416461
000330 ee 7a e6 3d d7 a9 12 3e 4d e3 c5 bf e8 60 83 be
       0.11253916 0.14322601 -1.5459992 -0.2565987
000340 a4 f6 87 bd 53 e1 a1 be 8e 0b 1f bf 41 a6 16 be
       -0.0663884 -0.3161722 -0.62127006 -0.14711858
000350 ad 24 35 3d 64 47 c5 bd 32 fb d2 bd 2a f5 c4 bf
       0.04422443 -0.09632757 -0.10301818 -1.5387318
000360 d8 f4 26 bf 0e 45 e3 be b8 7b 32 3e 9d 24 a9 3d
       -0.6521735 -0.44388622 0.17430007 0.082589366
000370 ee bc 06 3e 27 6e be bf 6e 95 05 3e cb 1a 77 be
       0.13158008 -1.4877366 0.13045284 -0.24131314
000380 39 49 f7 3b 30 b6 40 be 11 9c d3 bb ec 0a 18 be
       0.0075465706 -0.18819499 -0.0064578135 -0.14847916
000390 f0 5e f5 be f6 65 f3 be e3 1b 85 3f e9 8b 68 be
       -0.47923994 -0.47538728 1.0399135 -0.22709621
0003a0 9e c4 0f 3f 44 fd f4 3e f8 26 e4 bd 6a 09 03 c0
       0.5615939 0.47849476 -0.11140245 -2.0474496
0003b0 91 68 08 3e aa b4 28 bd 89 55 3e bf 11 4a 64 bd
       0.13321139 -0.04118792 -0.74349266 -0.055734698
0003c0 58 d5 07 3d 7f 9d ce 3d 00 5e c2 bf 01 b7 ca bd
       0.033162445 0.10088634 -1.5184937 -0.098981865
0003d0 66 71 00 be 6c 7e 6f bd 55 c6 0e 3e 20 78 cc bf
       -0.12543258 -0.058470175 0.13942845 -1.5974159
0003e0 e3 5c b8 bf 44 1a 48 bf a3 ca f4 3e 70 8b f4 bd
       -1.4403347 -0.7816508 0.4781085 -0.11940658
0003f0 d8 6a 90 3f ad 9d 0f 3f 3f 1a 38 3d fa f2 45 bd
       1.1282606 0.5609997 0.044946905 -0.048327424

sequential/dense/BiasAdd/ReadVariableOp f4 [32]
000000 c3 b0 b4 be eb ef 93 3e 94 cc c1 be 75 d2 c5 bd
       -0.35291108 0.2889398 -0.37851393 -0.09659282
000010 75 96 46 3e 98 83 84 bd 98 53 66 3f 77 dd ed 3c
       0.19393332 -0.06470412 0.89971304 0.029036267
000020 e9 0c 29 3f a2 dc 97 3e 46 2f 03 be da ac 0c c0
       0.66035324 0.29660517 -0.12811002 -2.19805
000030 dc 83 43 3f 31 ee b6 be 50 91 16 3f 77 38 03 bf
       0.76373076 -0.357286 0.5881548 -0.51258034
000040 3f c1 22 3c 99 dd bf 3e a7 2f 83 bd 9a fb 12 3f
       0.009933769 0.37473753 -0.06405573 0.57415164
000050 f9 bf a8 bd 1e 6e 7d bd 7f ca bb bd ac e3 0c 3f
       -0.08239741 -0.061872594 -0.091694824 0.550349
000060 3e 3a 2c 3f 30 c2 17 3f a4 a4 15 bf 22 c1 32 3f
       0.6727637 0.5928068 -0.58454347 0.6982595
000070 2a b5 aa 3e 4a 96 7e bd f8 7b 41 be 2f 14 1e 3f
       0.33341342 -0.062155046 -0.18894947 0.6174955

sequential/dense/MatMul f4 [32, 128]
000000 63 f6 b6 be 3a 36 42 be ee ba e2 3e a9 eb 04 be
       -0.35734853 -0.18965998 0.4428324 -0.12980522
000010 f7 35 43 3f ef 44 91 bf 1b f7 02 3e 62 47 82 3e
       0.7625422 -1.1349162 0.12789576 0.25445086
000020 38 e2 d5 3e d8 3e bd bc 09 23 8b bf 45 a4 a5 3f
       0.41774154 -0.023101255 -1.0870067 1.2940756
000030 3e c8 b7 be 52 38 ad 3d f3 df 0f bf 90 ed b2 3f
       -0.3589496 0.08458008 -0.56201094 1.3978748
000040 b1 8a d5 be 96 c8 94 3d 72 80 6d 3e 36 41 14 3e
       -0.41707376 0.07264821 0.23193529 0.14478001
000050 ab fc 05 3f 69 17 22 3e 25 a6 0c 3e 23 ad 29 3e
       0.52338666 0.15829243 0.13735254 0.16569953
000060 f2 c5 c6 3e de bd 93 bf bc 80 eb bf 50 71 00 40
       0.38822895 -1.1542318 -1.8398662 2.006916
000070 91 b2 30 bf 00 fc 94 3d 40 96 92 3e a1 27 8d 3e
       -0.6902247 0.07274628 0.28630257 0.27569297
000080 d1 36 d8 be 02 18 07 be f5 c9 c5 be c0 ba d2 bd
       -0.42229322 -0.13192752 -0.38630643 -0.10289526
000090 dd b5 9c 3e bf 97 aa 3e 83 29 8c 3e e1 70 02 3e
       0.306075 0.33318898 0.2737542 0.12738372
0000a0 1a e4 58 3e f7 c7 be be 3c 80 72 3e 33 85 a3 3f
       0.21180764 -0.37261936 0.2368173 1.2775024
0000b0 7f 23 79 bf d7 20 b7 bd 43 30 dd 3e f3 64 3b be
       -0.9731979 -0.089418106 0.43200883 -0.18300228
0000c0 d9 e0 ee be d1 b6 19 3e 46 56 cf be 24 2c 92 bd
       -0.4665592 0.15011145 -0.4049551 -0.071373254
0000d0 28 0f c4 3e f0 29 15 3f 4e 30 9c 3c 57 de 88 bd
       0.38292813 0.58267117 0.019066002 -0.06683033
0000e0 d8 7a 49 3b b7 1b 9f 3c 83 9a 1b 3f ad ae 88 3f
       0.0030743387 0.019422395 0.6078264 1.0678307
0000f0 6e f2 fb be 71 6e 0e 3e 09 2e 8e 3e ad f2 17 3f
       -0.49208397 0.13909318 0.27769497 0.5935467
000100 c5 66 fa be 12 15 86 be 2b 77 15 3f 7f 1c 5c 3d
       -0.48906532 -0.2618795 0.5838496 0.053738113
000110 cd f4 50 be 49 f7 71 3f 40 cd 36 be f5 7e a9 bd
       -0.20405884 0.9451795 -0.17851734 -0.08276168
000120 8f e8 a9 bd 11 9d 02 3f 76 79 6f 3f 3f 04 c5 3f
       -0.0829631 0.51020914 0.9354471 1.5391921
000130 e2 57 73 bd 7d 06 98 be 00 8a de 3e fb 48 48 be
       -0.059409983 -0.2969245 0.4346466 -0.1955909
000140 97 c1 29 bf 98 18 05 bf 47 10 e9 3e 0e 93 bf be
       -0.6631102 -0.5199065 0.4552023 -0.3741688
000150 0e 36 6b bd d1 27 aa 3f 19 9e f0 be 15 6e ed be
       -0.057424597 1.3293401 -0.4699562 -0.46373048
000160 49 6e a2 be 56 e7 33 3f ce 33 20 3f 46 a9 7c 3f
       -0.31724766 0.70274866 0.6257905 0.9869579
000170 15 2d 9a 3e d3 a8 4a bd a1 06 79 3f 88 4d b9 bf
       0.3011252 -0.04947741 0.9727574 -1.4476786
000180 3c 7d ef be 94 69 cb be c5 12 1a 3f 57 31 03 bf
       -0.46775234 -0.39728987 0.6018489 -0.5124716
000190 0a 13 8e 3e 29 35 a7 3f 9b 5f 78 bd 84 11 5b be
       0.277489 1.3063098 -0.06063805 -0.213934
0001a0 d8 f6 74 3d 6a 61 72 3e d5 e3 c6 be 70 a4 bf 3f
       0.05980572 0.23669973 -0.38845697 1.4972057
0001b0 c1 73 86 bc 72 dd 18 be f1 21 e3 3f 7a b6 80 be
       -0.016412618 -0.14928225 1.7744733 -0.2513922
0001c0 5f 17 3d bf e0 b2 51 be 45 e7 9b 3d e9 a8 b7 be
       -0.73863786 -0.20478392 0.076124705 -0.35871056
0001d0 e2 81 2b 3e 0f b6 82 3f 59 8b fd bd 03 fc 0e be
       0.16748765 1.021181 -0.12380094 -0.13963322
0001e0 bd c0 56 be 76 25 9b 3e f6 96 74 bf da 9e ee 3e
       -0.20971961 0.30302018 -0.9554285 0.4660557
0001f0 5e 3f 0b bf 28 e6 26 bd 3f 5a 08 bf f4 18 87 be
       -0.54393566 -0.040746838 -0.53262705 -0.26386225
000200 d7 7b bb 3d fc 52 ef bd 49 a1 0e bf b5 21 9e 3e
       0.0915448 -0.1168575 -0.5571485 0.3088509
000210 ce 2f d3 be 01 ef a0 bf ad 39 f0 be 65 e4 b9 be
       -0.4124741 -1.2572938 -0.46919003 -0.36307064
000220 46 25 6c 3e ec ca c3 be b4 e9 85 3e 1c 99 13 be
       0.23061094 -0.38240755 0.26154864 -0.14413875
000230 53 2c 2b bf 02 1a a0 3d 71 67 25 3e d7 26 a4 3e
       -0.6686451 0.078174606 0.16152741 0.32060882
000240 aa b9 b4 bd a4 b3 a6 bd 03 3a 65 bf 51 23 af bc
       -0.08824475 -0.081397325 -0.89541644 -0.021379145
000250 56 32 6a be 39 df 93 bf ea 48 05 bf 26 3a 0a be
       -0.22870764 -1.1552497 -0.52064383 -0.13498744
000260 88 6d 37 3e 01 34 1e be cc 23 13 3e 06 2f 5b be
       0.17912877 -0.15449525 0.14369124 -0.21404657
000270 06 d7 44 bf 47 3d c4 bd 3c 15 b4 3e f8 cc e5 3e
       -0.768906 -0.09582 0.3517245 0.4488294
000280 3d 3a 55 3d ec 39 99 3c ff cf 95 bf 08 83 f5 bd
       0.052057493 0.018704377 -1.17041 -0.11987883
000290 11 f1 33 be 32 78 65 bf f4 71 2e be 8f ef 9f be
       -0.17572428 -0.8963653 -0.17035657 -0.31237456
0002a0 5e 75 dc 3d d4 f5 90 be 37 e6 62 3e 54 50 c9 3d
       0.107645735 -0.28312552 0.22158132 0.098297745
0002b0 58 00 ec be 63 69 a5 bd 8e 07 10 3f 29 73 ba 3e
       -0.46094012 -0.080767415 0.5626153 0.36415985
0002c0 e4 81 40 3e 55 1e 83 be b7 d6 8c bf 14 fd 89 be
       0.1879955 -0.2560908 -1.1003026 -0.26950896
0002d0 b4 70 9e be b2 95 ef bf db 56 bc be ba 75 9a bc
       -0.3094536 -1.8717558 -0.36785015 -0.018854965
0002e0 31 56 52 3d 9d 6f 99 be 07 b4 a8 3e 0e ee 37 bb
       0.05135173 -0.29967967 0.3294985 -0.0028065476
0002f0 31 7c a7 be 40 b7 f6 bd 85 07 17 3f 54 63 10 3f
       -0.32711938 -0.12046671 0.5899585 0.5640156
000300 66 55 98 bd f5 3c 7b 3d 2f 34 8b bf 7c 24 57 be
       -0.074381635 0.06133743 -1.08753 -0.21010011
000310 10 9f ab be ea ad 41 bf 01 5e ff bd 04 27 8f be
       -0.33519793 -0.75655997 -0.12469102 -0.27959454
000320 2e 0b 0b 3e d1 d3 a5 be 2d e1 54 3e 81 16 f6 3d
       0.13578483 -0.32388166 0.20789023 0.12016011
000330 d1 a0 81 be 71 f5 19 3e 97 97 f5 3e 5e 9a 37 3f
       -0.25318006 0.15035035 0.47967216 0.7171992
000340 4b a4 d0 be b6 7f 55 3d 08 bd 94 bf 9d c3 b8 be
       -0.40750346 0.052123748 -1.1620188 -0.3608674
000350 d4 79 b4 be b6 42 cd bf 23 2d a8 be 1d eb 43 bd
       -0.35249197 -1.6035984 -0.32846937 -0.047831643
000360 2f fc 15 bd 4c 89 85 be 31 ba ee 3e 8a da da bd
       -0.036617454 -0.26081312 0.46626428 -0.10686214
000370 bd f0 33 be e2 fb 34 3e 41 ec ed 3e 36 99 0a 3f
       -0.17572303 0.1767421 0.4646931 0.5414003
000380 24 63 92 be 6b 03 40 be a8 ca 73 bf 8f aa b8 be
       -0.28591263 -0.18751304 -0.95231104 -0.36067626
000390 e7 1b cd bc f3 51 64 bf 7c 5d a0 3c a5 96 e3 3c
       -0.025037719 -0.89187545 0.019575827 0.027781794
0003a0 e9 de 9e be f9 3b 65 be d7 47 e4 3e 70 1b 29 be
       -0.31029442 -0.22386159 0.4458606 -0.16514373
0003b0 26 5a da be 29 5f 4d 3e 30 c6 a4 3e b8 5d 53 3e
       -0.42646903 0.20055832 0.32182455 0.2064122
0003c0 81 7f ef bd 88 85 9a 3d 7d 4b 7d bf 27 de a1 be
       -0.11694241 0.07545 -0.9894331 -0.316148
0003d0 06 88 97 be c6 0c b7 bf da 17 3a be 4e 30 07 be
       -0.29595965 -1.4300773 -0.18173161 -0.1320202
0003e0 db 3c 84 be e8 ed 0c be c6 a2 1f 3e fc d4 c8 bd
       -0.2582768 -0.13762629 0.15589437 -0.098062485
0003f0 c0 5b ad bd 39 9b dc 3c bf 0a 95 3e 7d 00 32 3d
       -0.084647655 0.026929485 0.2910976 0.043457497

sequential/dense_1/MatMul f4 [1, 32]
000000 86 c3 4d be d5 e0 f7 bd 26 07 79 3e ee 6b a1 be
       -0.20094118 -0.1210343 0.24319133 -0.31527656
000010 73 91 50 be 97 07 3d bd e8 8e 43 3d fe 21 f0 bd
       -0.20367984 -0.046149816 0.047743708 -0.117252335
000020 05 dd 34 3e b4 36 ba 3c 65 92 a1 bd 3f b0 9a be
       0.17662437 0.022731163 -0.07889251 -0.3021259
000030 23 fd 83 3e 47 80 5f 3e ba ee 34 3e 0c ae 1a be
       0.25779065 0.21826278 0.17669192 -0.15105456
000040 20 b3 29 be 2f 31 f4 3c 86 30 80 be 4e e3 7c 3e
       -0.16572237 0.029808609 -0.2503702 0.24696085
000050 6f fd 20 be a2 80 d9 bd 10 a8 e6 bd a7 4e d3 3d
       -0.15721677 -0.10620238 -0.11262524 0.10317736
000060 0d b6 13 3e 24 e8 cd 3d 5f 95 3b be 3f 0b 23 3e
       0.14424916 0.10054043 -0.183187 0.15922259
000070 8b f4 9d bd a6 ea 00 3d 90 c7 bc bd cb 95 02 3e
       -0.077126585 0.03147378 -0.09217751 0.12752454
