Riproduzione/models/FD003/LSTMlarge/QUAD-QUAD/lstm_large_batch_1_QUAD.tflite (tflite, 694000 bytes, 53 tensors)

sequential_2/dense_6/BiasAdd/ReadVariableOp f4 [64]
-0.06167543 -0.010487135 -0.024792876 0.17338651 0.042989455 -0.060416862 0.17440796 0.13396722
0.11090106 0.15118663 0.17300695 -0.07582218 0.022360347 0.14096057 0.034389492 0.17674936
0.11951451 0.15799454 0.13350216 0.16141683 0.111903675 0.16229504 0.16018362 0.018095763
0.14795558 -0.26492214 0.040778134 0.010990548 0.11574689 0.1692122 -0.06521045 0.13450521
0.19071738 0.1892897 0.11869753 0.12054363 0.0326315 0.18567047 -0.029357944 0.086848624
0.11188375 0.06439026 0.189475 0.15333177 -0.026966255 -0.09394607 0.008890161 -0.02504053
0.025162712 -0.021734769 0.18668146 0.17307876 0.1636179 -0.10305606 0.14849088 -0.0059750965
-0.11707318 0.11449148 -0.04407386 0.04489488 0.06937755 0.06944998 0.105485916 0.17305946
00000000: 609f 7cbd 3bd2 2bbc 6e1a cbbc 3c8c 313e
00000010: b615 303d ac77 77bd 0098 323e b42e 093e
00000020: 1820 e33d abd0 1a3e bc28 313e a948 9bbd
00000030: 0c2d b73c f857 103e ffdb 0c3d c9fd 343e
00000040: 06c4 f43d 52c9 213e cab4 083e 744a 253e
00000050: c12d e53d ac30 263e 2d07 243e 913d 943c
00000060: ab81 173e e0a3 87be f906 273d b311 343c
00000070: b50c ed3d f745 2d3e 0e8d 85bd bcbb 093e
00000080: 6b4b 433e 29d5 413e b117 f33d 94df f63d
00000090: 9ca8 053d 6620 3e3e 1280 f0bc b1dd b13d
000000a0: 4f23 e53d 0adf 833d bc05 423e 0103 1d3e
000000b0: 56e8 dcbc cc66 c0bd 0aa8 113c cc21 cdbc
000000c0: 0822 ce3c 1d0d b2bc 6d29 3f3e 8f3b 313e
000000d0: 738b 273e 0e0f d3bd fe0d 183e beca c3bb
000000e0: 10c4 efbd 827a ea3d cb86 34bd b2e3 373d
000000f0: d115 8e3d cb3b 8e3d 0009 d83d 8036 313e

sequential_2/dense_7/BiasAdd/ReadVariableOp f4 [32]
-0.087179035 0.14377764 -0.06697584 -0.061650828 0.18828325 -0.07747732 0.19694807 -0.019958988
0.19921152 0.18880284 -0.03187684 -0.07641489 0.19735429 0.26478872 0.08005682 0.19688785
-0.064425245 0.1997382 -0.07977517 -0.037274837 -0.060848605 0.15829489 -0.06496637 0.09959552
0.20448308 0.19994108 0.19330336 -0.09025823 0.19610867 -0.06522605 -0.06367028 0.17706649
00000000: ec8a b2bd 723a 133e a12a 89bd 9485 7cbd
00000010: 53cd 403e 6eac 9ebd c1ac 493e 0881 a3bc
00000020: 1bfe 4b3e 8855 413e 4a91 02bd 697f 9cbd
00000030: 3e17 4a3e 6392 873e d4f4 a33d f89c 493e
00000040: 62f1 83bd 2c88 4c3e 2a61 a3bd 80ad 18bd
00000050: 633c 79bd 0e18 223e 170d 85bd bcf8 cb3d
00000060: 0364 513e 5bbd 4c3e 51f1 453e 4fd9 b8bd
00000070: b6d0 483e 3c95 85bd 9065 82bd eb50 353e

arith.constant f4 [128, 128]
0.2348856 0.15044406 -0.11032873 -0.18303332 -0.047667928 -0.21850218 -0.19046262 0.115787946
0.012707555 0.0363889 -0.16260016 0.17604293 -0.042707592 0.30940065 -0.07964626 0.0025626973
-0.03697536 0.31354365 0.11717677 -0.20226572 -0.096816406 -0.048279677 -0.2458903 -0.1538895
0.01935944 0.24223465 -0.22461857 0.036822412 -0.27907434 0.27144182 -0.06590548 0.35879445
0.18277039 -0.029883562 -0.1434604 0.17874646 0.05751371 0.13370018 0.07639403 -0.0040286225
0.025040051 -0.11369883 0.031162348 -0.20993783 -0.23955432 0.19785371 -0.046020083 -0.17631136
0.02625047 0.12373103 -0.093087465 0.12685624 -0.099399745 0.02008321 -0.024466857 -0.21378453
-0.19871578 0.12199348 0.080421135 -0.113334335 -0.23780568 -0.066734955 0.0531923 -0.11274072
-0.11059453 -0.17376213 -0.19001415 -0.13162754 -0.1069614 0.0045967335 0.1894868 -0.1055132
-0.064818226 0.22760954 -0.21524371 0.09340363 0.14601588 0.088904604 0.11997047 -0.15045966
-0.115035065 0.08706635 -0.20502658 0.20971085 -0.09074182 0.20700993 -0.036932725 -0.15282856
0.21427014 0.105518274 0.048968922 0.22088967 -0.038940288 0.10832577 -0.09826215 -0.108586095
0.16713311 -0.16046593 -0.053260054 -0.14351171 -0.043957934 0.09359391 -0.22009693 0.10628084
0.06429648 0.07131568 -0.05574435 0.00527412 -0.07852015 -0.06890944 0.06890666 0.21128431
0.09046233 0.11718835 -0.1816766 0.19141027 -0.1873612 0.07958054 0.13357562 -0.15071264
-0.19598693 0.12491578 -0.035047855 0.13515659 -0.20847231 0.12558854 0.11663856 -0.11799127
-0.0025400624 0.07592285 -0.014849796 -0.1374083 -0.21262762 -0.104495645 0.042953767 -0.02946002
-0.19923602 0.09085069 0.014747257 0.05713891 0.03935774 0.19914083 -0.03728834 0.053306263
0.06310119 0.14469588 0.29341742 -0.014517262 -0.13378517 -0.0021301198 -0.048912175 -0.13082187
-0.03052547 -0.08384704 0.19067101 0.0877237 -0.17495249 0.17700714 -0.06972772 0.06705385
-0.151063 0.12323039 -0.1683446 0.08259026 -0.08474717 0.1788862 -0.03798545 0.22267225
0.058230143 0.1326312 0.21471515 0.07831135 -0.077336185 0.21874957 0.14874643 0.22077116
-0.0018392885 -0.0041192286 -0.13997525 0.12668838 0.076493315 -0.14252456 -0.14735156 -0.097500265
-0.12555964 0.043871053 0.022868536 -0.18413533 -0.055903494 -0.114997946 -0.03693508 -0.15865658
-0.024591954 0.09672697 -0.03490479 -0.14738242 -0.15981258 0.012075694 0.043179657 -0.07505547
-0.2621751 0.10796523 -0.030119138 0.09987546 0.16378236 0.021614548 -0.12044523 -0.073971085
0.026781492 -0.18924546 -0.065143414 0.008912315 -0.14999278 0.03205821 -0.44504762 -0.051296107
0.18882117 -0.004449119 -0.17930149 0.1543097 0.0215379 -0.046937563 0.0033457465 0.10773402
0.11177431 -0.20716694 0.041289113 0.04383727 -0.015959956 0.13928442 -0.12609686 0.0353783
0.0961953 -0.07032094 -0.22525816 0.04459446 -0.03948392 0.33702123 -0.108249664 -0.17390615
0.02930438 -0.019954357 -0.048542187 -0.06282616 -0.1004194 0.026792014 0.065698646 0.18664515
-0.06624404 0.07413936 -0.021218223 -0.23907658 -0.07370672 -0.04067893 -0.055796042 -0.054094736
00000000: da85 703e 020e 1a3e 07f4 e1bd 166d 3bbe
00000010: 723f 43bd 09bf 5fbe a208 43be 3b22 ed3d
00000020: 5933 503c 870c 153d a880 26be 9944 343e
00000030: 28ee 2ebd c369 9e3e 941d a3bd edf2 273b
00000040: 7a73 17bd cb88 a03e 60fa ef3d bf1e 4fbe
00000050: ae47 c6bd e9c0 45bd abca 7bbe 3695 1dbe
00000060: b097 9e3c 5c0c 783e 6902 66be 19d3 163d
00000070: d5e2 8ebe 6cfa 8a3e 74f9 86bd e8b3 b73e
00000080: 2928 3b3e 5fce f4bc 48e7 12be 5009 373e
00000090: 7f93 6b3d b3e8 083e 7974 9c3d 8902 84bb
000000a0: cb20 cd3c efda e8bd 2e48 ff3c f1f9 56be
000000b0: ba4d 75be 2a9a 4a3e 8e7f 3cbd f78a 34be
000000c0: 3a0b d73c b266 fd3d a4a4 bebd 9ae6 013e
000000d0: 1892 cbbd 8b85 a43c b86e c8bc 55ea 5abe
000000e0: 267c 4bbe b8d7 f93d d6b3 a43d d51b e8bd
000000f0: 5583 73be 56ac 88bd 2be0 593d 9be4 e6bd
00000100: 637f e2bd b3ee 31be 1293 42be 5fc9 06be
00000110: 940e dbbd 32a0 963b d408 423e 4e17 d8bd
00000120: 6bbf 84bd 7a12 693e d968 5cbe 674a bf3d
00000130: 3085 153e 9e13 b63d 14b3 f53d 1912 1abe
00000140: 8197 ebbd d84f b23d 7df2 51be 71be 563e
00000150: d9d6 b9bd 69fa 533e c546 17bd 177f 1cbe
00000160: a269 5b3e f719 d83d a393 483d e730 623e
00000170: da7f 1fbd e7d9 dd3d ab3d c9bd 6362 debd
00000180: f124 2b3e 2e51 24be 3727 5abd bcf4 12be
00000190: 3c0d 34bd 2aae bf3d 1761 61be c5a9 d93d
000001a0: dfad 833d f50d 923d 3054 64bd 86d2 ac3b
000001b0: 2ccf a0bd 6420 8dbd ef1e 8d3d ea5a 583e
000001c0: 5044 b93d 7200 f03d 6e09 3abe 0e01 443e
000001d0: 9ddb 3fbe 1ffb a23d 0cc8 083e 6a54 1abe
000001e0: ccb0 48be d8d3 ff3d 578e 0fbd 7d66 0a3e
000001f0: c479 55be 489a 003e 33e0 ee3d 68a5 f1bd
00000200: 2d77 26bb 707d 9b3d 8f4c 73bc c3b4 0cbe
00000210: 0ebb 59be d001 d6bd 4af0 2f3d 2456 f1bc
00000220: 8704 4cbe ed0f ba3d 7b9e 713c 7d0a 6a3d
00000230: 9535 213d 93eb 4b3e a9bb 18bd ab57 5a3d
00000240: 323b 813d 282b 143e cf3a 963e cfd9 6dbc
00000250: fbfe 08be 7b99 0bbb 2258 48bd 2bf6 05be
00000260: 8d10 fabc ffb7 abbd 433f 433e 7ca8 b33d
00000270: bf26 33be 5c41 353e 68cd 8ebd 8753 893d
00000280: 42b0 1abe 3760 fc3d 8762 2cbe 1525 a93d
00000290: ed8f adbd f22d 373e a296 1bbd 3204 643e
000002a0: bb82 6e3d 79d0 073e 4ade 5b3e b361 a03d
000002b0: 6f62 9ebd e3ff 5f3e fc50 183e d611 623e
000002c0: 4814 f1ba 98fa 86bb ac55 0fbe 99ba 013e
000002d0: 87a8 9c3d f5f1 11be 54e3 16be 38ae c7bd
000002e0: b592 00be 22b2 333d cc56 bb3c f98d 3cbe
000002f0: 10fb 64bd 0b84 ebbd 3d49 17bd df76 22be
00000300: 1175 c9bc ca18 c63d 53f8 0ebd 6beb 16be
00000310: e9a5 23be 22d9 453c 27dd 303d afb6 99bd
00000320: d13b 86be e01c dd3d 69bc f6bc 818b cc3d
00000330: 90b6 273e fe10 b13c fdab f6bd 277e 97bd
00000340: dc64 db3c 90c9 41be e969 85bd f504 123c
00000350: b597 19be 784f 033d 48dd e3be de1b 52bd
00000360: 565a 413e eac9 91bb cf9a 37be 5d03 1e3e
00000370: 4070 b03c 9a41 40bd 5044 5b3b a7a3 dc3d
00000380: eee9 e43d 9223 54be c61e 293d b68e 333d
00000390: 74be 82bc 93a0 0e3e 891f 01be d6e8 103d
000003a0: 0b02 c53d 6d04 90bd 13aa 66be aea8 363d
000003b0: e4b9 21bd 0c8e ac3e 00b2 ddbd 7414 32be
000003c0: bd0f f03c 5277 a3bc 2cd4 46bd 00ab 80bd
000003d0: b0a8 cdbd ed7a db3c 038d 863d e81f 3f3e
000003e0: f5aa 87bd 60d6 973d d7d1 adbc 7ed0 74be
000003f0: 8cf3 96bd f39e 26bd 648a 64bd 7192 5dbd

arith.constant1 f4 [128, 128]
0.2574784 0.28419462 -0.10525086 -0.2320239 -0.033132724 -0.19062242 -0.076173015 0.06049946
-0.013821728 0.024918444 -0.23678447 0.26601356 -0.14922047 0.3113384 -0.018625874 0.1558035
0.10710079 0.37874267 0.04380134 -0.23868288 -0.26504558 -0.029924832 -0.33246657 -0.14152773
-0.09510484 0.40506414 -0.28581578 0.14383233 -0.38894114 0.3067133 -0.24184233 0.3140463
0.12443976 0.11319923 -0.008263366 0.24041438 0.11881664 0.051023703 0.018966228 0.07159364
-0.037599366 -0.23875706 0.025628103 -0.1531068 -0.018059902 0.08526572 -0.041036103 -0.093799196
0.10663394 0.07344081 -0.12022494 0.17793271 0.022447549 0.010145333 -0.011626837 -0.36577493
-0.24124415 0.12669627 0.015759043 -0.25221723 -0.30675152 -0.12968089 -0.01150988 -0.19649903
-0.1714553 -0.15459971 -0.14735602 -0.11537227 -0.051847234 -0.048335455 0.23956087 -0.24918494
-0.057793785 0.10334433 -0.09615216 0.12474452 0.22286083 0.08671301 0.12618853 -0.05363318
-0.14517863 -0.08305286 -0.2688369 0.21888559 -0.09353397 0.28983465 0.1542954 -0.1299211
0.23676434 0.031736523 0.1085455 0.18179217 -0.23655291 0.16492404 -0.13301782 -0.17049298
0.25390452 -0.11659119 -0.0825922 -0.06194101 -0.18217462 0.057897992 -0.2514601 0.20553336
0.12708458 0.09622367 0.05912728 0.060879484 -0.05742186 -0.12734602 0.0039394186 0.28415304
0.2219736 0.09256562 -0.25242707 0.21743725 -0.15663119 0.09819379 0.11712643 -0.23969112
-0.31447816 -0.14606951 -0.07804053 -0.10448873 -0.19748776 -0.019735204 0.08993497 -0.17282242
-0.089303434 -0.20290369 -0.13318172 0.037357118 -0.08181767 -0.0017940901 -0.08329002 -0.065672606
-0.22721179 -0.07301214 0.10750053 -0.0036285047 0.07885887 0.39293995 -0.08214252 0.22992285
-0.10395155 -0.12220197 -0.050971854 0.031587176 0.053368527 0.018053653 0.017608149 0.12292434
0.08307967 -0.109960005 0.218876 -0.017888375 0.049852666 0.11827983 -0.044905018 0.0107019
-0.101842046 0.022197342 -0.011444301 -0.0548369 0.06233984 0.3100812 0.17072733 0.27826038
0.08030984 0.16168925 0.17843004 0.16047017 0.15170644 0.09060298 -0.068964355 0.14669454
-0.15985242 0.069534615 0.19101942 -0.027300477 0.24918465 0.09177985 -0.11089457 0.12933223
0.07915455 -0.052257318 -0.15169407 0.0031189795 0.068192534 0.041885275 0.17495517 0.10237678
-0.01634607 0.21722347 -0.09653979 0.008954749 0.018454248 0.17159942 -0.119986884 0.087798744
-0.24067326 -0.11947645 0.13856001 -0.14291966 -0.1577298 -0.1351318 0.064633526 0.31942686
0.17289539 0.016814422 0.12925667 0.07458987 0.19386877 -0.20321968 -0.20458399 0.05009348
0.13507414 -0.048233375 -0.25398403 -0.030230274 0.11514296 -0.14940137 -0.13649744 0.12710053
0.039599407 -0.1790763 -0.010198553 0.18048237 0.1223126 0.059101492 0.0033822972 -0.10422313
0.052727647 -0.26099524 0.02302163 -0.004493824 0.014858786 0.11752314 -0.16897348 -0.15599275
-0.1811721 0.107273616 -0.059329033 -0.19120328 0.14673318 0.15475136 -0.079101376 0.031696197
0.06417849 0.09361931 0.01011684 -0.11518889 -0.062867634 -0.02727939 -0.22991896 0.21064578
00000000: 35d4 833e f581 913e c38d d7bd ac97 6dbe
00000010: 2eb6 07bd 8632 43be 9900 9cbd 48ce 773d
00000020: 8774 62bc c421 cc3c a177 72be ee32 883e
00000030: 40cd 18be bf67 9f3e 4a95 98bc f48a 1f3e
00000040: a957 db3d 8fea c13e 0969 333d 4969 74be
00000050: 0eb4 87be ec24 f5bc 0f39 aabe a5ec 10be
00000060: 54c6 c2bd 9164 cf3e 7256 92be c848 133e
00000070: 4b23 c7be 8709 9d3e 84a5 77be adca a03e
00000080: 46da fe3d ffd4 e73d 1263 07bc 302f 763e
00000090: 2356 f33d 3bfe 503d 105f 9b3c b09f 923d
000000a0: cb01 1abd bb7c 74be 07f2 d13c 07c8 1cbe
000000b0: 5cf2 93bc cb9f ae3d 7915 28bd cb19 c0bd
000000c0: e562 da3d 2368 963d 7e38 f6bd fe33 363e
000000d0: ece3 b73c 9c38 263c 7d7e 3ebc da46 bbbe
000000e0: b508 77be abbc 013e 1c19 813c 9e22 81be
000000f0: 890e 9dbe 11cb 04be f093 3cbc 0b37 49be
00000100: fa91 2fbe 634f 1ebe 7fe4 16be 4c48 ecbd
00000110: c45d 54bd 66fb 45bd 724f 753e 562a 7fbe
00000120: 2db9 6cbd 31a6 d33d 6ceb c4bd 0e7a ff3d
00000130: a135 643e 9796 b13d 9137 013e 77ae 5bbd
00000140: b5a9 14be 9e17 aabd fda4 89be 8b23 603e
00000150: bd8e bfbd 3565 943e 9dff 1d3e 090a 05be
00000160: 5a72 723e 28fe 013d 1a4d de3d ba27 3a3e
00000170: ed3a 72be d9e1 283e d335 08be b695 2ebe
00000180: c6ff 813e 5dc7 eebd 1926 a9bd dbb5 7dbd
00000190: fc8b 3abe 7226 6d3d 61bf 80be 5677 523e
000001a0: 7622 023e ea10 c53d 722f 723d c45c 793d
000001b0: 2f33 6bbd ff66 02be 3d16 813b 827c 913e
000001c0: 0c4d 633e 0b93 bd3d 1f3e 81be dfa7 5e3e
000001d0: ed63 20be d319 c93d fbdf ef3d 9771 75be
000001e0: 4803 a1be 3f93 15be b7d3 9fbd 30fe d5bd
000001f0: 3b3a 4abe b9ab a1bc d32f b83d 5cf8 30be
00000200: b8e4 b6bd fcc5 4fbe ca60 08be c703 193d
00000210: 0690 a7bd ad27 ebba f593 aabd 5c7f 86bd
00000220: 35aa 68be 6487 95bd 3d29 dc3d 35cc 6dbb
00000230: c280 a13d 6d2f c93e 563a a8bd e570 6b3e
00000240: 8de4 d4bd 0745 fabd ddc7 50bd 8e61 013d
00000250: f598 5a3d 41e5 933c f73e 903c c2bf fb3d
00000260: ad25 aa3d b632 e1bd 0821 603e a48a 92bc
00000270: 4f32 4c3d b23c f23d 53ee 37bd 0657 2f3c
00000280: 9092 d0bd 33d7 b53c e180 3bbc a89c 60bd
00000290: 0f58 7f3d f7c2 9e3e 25d3 2e3e 2578 8e3e
000002a0: 7c79 a43d de91 253e 5db6 363e 4b52 243e
000002b0: ef58 1b3e 0e8e b93d 2f3d 8dbd 1837 163e
000002c0: 5ab0 23be 2a68 8e3d 989a 433e 40a5 dfbc
000002d0: 432a 7f3e 13f7 bb3d b11c e3bd ab6f 043e
000002e0: c81b a23d c50b 56bd b155 1bbe cb67 4c3b
000002f0: 87a8 8b3d e58f 2b3d 7327 333e ebaa d13d
00000300: 32e8 85bc d46f 5e3e a7b6 c5bd f1b6 123c
00000310: 5d2d 973c c2b7 2f3e afbb f5bd d4cf b33d
00000320: 0d73 76be 12b0 f4bd ade2 0d3e 8859 12be
00000330: ec83 21be fe5f 0abe 955e 843d eb8b a33e
00000340: 7d0b 313e 66be 893c dc5b 043e 93c2 983d
00000350: 8985 463e d218 50be 777e 51be d22e 4d3d
00000360: e050 0a3e 5c90 45bd 320a 82be 7ba5 f7bc
00000370: 12d0 eb3d acfc 18be fcc5 0bbe a426 023e
00000380: fd32 223d c75f 37be d517 27bc 5fd0 383e
00000390: 077f fa3d 6814 723d 88a9 5d3b f072 d5bd
000003a0: f2f8 573d 2ba1 85be db97 bc3c ee40 93bb
000003b0: 4472 733c f9af f03d 6207 2dbe 90bc 1fbe
000003c0: 2e85 39be 45b2 db3d 0003 73bd cbca 43be
000003d0: 3941 163e 2477 1e3e e7ff a1bd dfd3 013d
000003e0: 0370 833d 7bbb bf3d 1ac1 253c 27e8 ebbd
000003f0: bfc0 80bd 0779 dfbc e06f 6bbe 87b3 573e

arith.constant2 f4 [128, 128]
-0.11616106 -0.13644247 -0.07576901 -0.054086555 -0.1339311 0.035034 -0.035503957 -0.017028252
-0.16466495 -0.0067326645 -0.0119894985 0.0348757 0.087180205 0.033594027 -0.18804137 0.15418902
-0.08239158 -0.004089989 0.25972158 -0.09666049 0.004767507 0.12280443 -0.12583858 0.08953922
-0.17114191 -0.039307922 0.013928063 -0.013376684 -0.08070515 0.19510365 -0.23545678 0.07440167
0.09936993 -0.06606219 -0.07685486 0.03730313 -0.056660764 0.16467863 -0.024453172 -0.028852217
-0.07052686 0.018365216 0.0827841 0.049020063 -0.06503181 0.28151098 0.03565835 0.29333034
-0.11868353 -0.061271694 -0.042117786 0.007832065 -0.25165418 0.013102241 0.0011774936 -0.20537886
-0.19289565 -0.021155093 -0.14859194 0.042937156 -0.14244473 -0.10402167 -0.08323551 -0.17300549
0.15475014 -0.01741562 0.0665151 -0.13046682 -0.13083945 -0.016579362 0.008102019 -0.25447202
0.11508407 -0.024057452 0.06858184 0.07488244 0.22167625 -0.1099801 -0.13416067 -0.09982156
0.18133934 -0.03760283 -0.019587977 -0.08626894 -0.13266739 0.04228348 -0.21981302 -0.100314334
0.19095144 -0.036703493 0.08284738 -0.062938154 -0.17847577 -0.1965284 0.06905884 -0.09969387
0.27928996 0.028103756 0.03760679 0.041685954 -0.019138994 -0.0044436897 -0.27246708 0.13481624
0.15833344 -0.165847 -0.27030623 0.066353664 -0.103948005 0.23619415 -0.086170346 -0.047834523
-0.09885712 -0.2981522 -0.1179224 0.15195945 -0.020937424 -0.046995677 -0.02878028 0.31292063
-0.1384151 0.053096823 -0.0044828705 -0.16478892 0.17208491 0.064214356 -0.0111714 0.11801984
0.07637852 -0.024473062 -0.098259345 0.054279447 0.09775158 -0.07358828 -0.03914766 0.051895477
0.044325218 -0.048336603 0.10131018 0.22042602 0.0053983782 -0.21503435 -0.10149915 -0.18758844
0.09428946 0.12525523 0.026834778 -0.09616837 0.0733481 -0.044367608 -0.18726945 0.04789357
0.0008481124 0.15300411 0.13902216 0.01146377 -0.013497583 -0.036172222 -0.08270517 0.09942632
-0.022511829 0.03498735 0.13618107 0.002622682 0.045213483 -0.18700916 0.08624921 -0.122846
-0.09295065 0.020865373 -0.12893511 -0.017178707 -0.05978165 0.035811633 0.005150695 0.058784313
-0.014261334 0.018766338 -0.07023551 0.09022113 0.018778298 0.083199315 0.188403 -0.109278984
-0.004902923 0.0133446865 0.12533799 -0.14420561 -0.11640499 0.018754106 -0.027110428 0.01449982
-0.19089112 0.041182287 -0.020822404 -0.021728517 -0.025883459 -0.19529828 -0.046916183 -0.12040004
-0.055305265 -0.012907122 -0.05781838 0.052613493 -0.0069199707 -0.009375939 0.1218609 0.121552944
0.079211816 0.09307418 -0.06705192 0.12005604 -0.04127224 0.17988656 -0.023846133 -0.17296067
0.025021669 0.07835929 0.2754342 0.02436146 0.08704513 0.019557262 -0.007850912 -0.024140606
0.11247633 0.07073908 -0.16816351 -0.04680578 -0.06264647 -0.18173325 -0.06675949 0.12214131
0.14008959 -0.009958678 -0.035038903 -0.0138588445 -0.04069469 -0.3480448 0.08400854 -0.07346826
-0.016527493 -0.01871842 -0.04365564 0.05965448 -0.09531475 0.0280786 0.12343755 -0.15739064
-0.13104497 -0.17341815 -0.15251222 0.13515125 0.05947326 0.12921023 -0.02400349 0.0011318969
00000000: dae5 edbd 93b7 0bbe c82c 9bbd dd89 5dbd
00000010: 3c25 09be d07f 0f3d 996c 11bd d57e 8bbc
00000020: ee9d 28be af9d dcbb 9a6f 44bc d2d9 0e3d
00000030: 898b b23d e499 093d eb8d 40be bae3 1d3e
00000040: ebbc a8bd 5005 86bb 3afa 843e eff5 c5bd
00000050: bf38 9c3b e480 fb3d d4db 00be 5760 b73d
00000060: d33f 2fbe 5801 21bd 8832 643c e129 5bbc
00000070: be48 a5bd 40c9 473e 951b 71be e75f 983d
00000080: 7682 cb3d 9d4b 87bd 1566 9dbd 2bcb 183d
00000090: 1e15 68bd 84a1 283e 0552 c8bc 7c5b ecbc
000000a0: 6370 90bd a672 963c b68a a93d 43c9 483d
000000b0: 662f 85bd 3522 903e 7d0e 123d 652f 963e
000000c0: 5a10 f3bd 07f8 7abd b383 2cbd 1052 003c
000000d0: d1d8 80be c8aa 563c 2156 9a3a d64e 52be
000000e0: 7086 45be 724d adbc 7c28 18be dfde 2f3d
000000f0: 08dd 11be 5009 d5bd 6177 aabd 5a28 31be
00000100: d276 1e3e 34ab 8ebc 1239 883d 1899 05be
00000110: c7fa 05be 71d1 87bc 55be 043c 284a 82be
00000120: 32b1 eb3d 2214 c5bc a374 8c3d f75b 993d
00000130: 19ff 623e 3f3d e1bd 6a61 09be 3f6f ccbd
00000140: 05b1 393e 6d05 1abd f776 a0bc c5ad b0bd
00000150: f6d9 07be 7131 2d3d aa16 61be 9a71 cdbd
00000160: c688 433e 6756 16bd e3ab a93d b8e5 80bd
00000170: 5ac2 36be be3e 49be b96e 8d3d 4d2c ccbd
00000180: 18ff 8e3e d939 e63c 9409 1a3d e4be 2a3d
00000190: 61c9 9cbc 5f9c 91bb ce80 8bbe 450d 0a3e
000001a0: 2922 223e ccd3 29be 9465 8abe 6ee4 873d
000001b0: b1e2 d4bd e1dc 713e 147a b0bd 22ee 43bd
000001c0: 9a75 cabd 68a7 98be 4d81 f1bd 429b 1b3e
000001d0: f684 abbc 8a7e 40bd 9fc4 ebbc 2237 a03e
000001e0: b0bc 0dbe 0e7c 593d 0be5 92bb 6dbe 28be
000001f0: 0737 303e d182 833d 3f08 37bc 63b4 f13d
00000200: 576c 9c3d bb7b c8bc 323c c9bd 2054 5e3d
00000210: fb31 c83d 74b5 96bd 4c59 20bd 5a90 543d
00000220: 5c8e 353d 9afc 45bd b67b cf3d 5cb7 613e
00000230: e1e4 b03b f731 5cbe c9de cfbd 2f17 40be
00000240: d51a c13d e842 003e 9cd4 db3c ecf3 c4bd
00000250: 8737 963d cfba 35bd 90c3 3fbe 0c2c 443d
00000260: dc53 5e3a 1cad 1c3e d35b 0e3e 89d2 3b3c
00000270: f724 5dbc 5329 14bd 5461 a9bd 07a0 cb3d
00000280: ba6a b8bc e54e 0f3d 0d73 0b3e 4de1 2b3b
00000290: c631 393d 547f 3fbe 6da3 b03d af96 fbbd
000002a0: e95c bebd dced aa3c 9107 04be 5cba 8cbc
000002b0: 9add 74bd 38af 123d 29c7 a83b d2c7 703d
000002c0: 5fa8 69bc ddbb 993c a3d7 8fbd dbc5 b83d
000002d0: f2d4 993c 6764 aa3d b7ec 403e a9cd dfbd
000002e0: b3a8 a0bb aca3 5a3c 9a58 003e a3aa 13be
000002f0: bd65 eebd 36a2 993c b016 debc a790 6d3c
00000300: f678 43be c2ae 283d bf93 aabc 0100 b2bc
00000310: 8c09 d4bc 46fc 47be 2f2b 40bd 4c94 f6bd
00000320: c687 62bd 6578 53bc f7d2 6cbd 3f81 573d
00000330: ecc0 e2bb 8a9d 19bc 3592 f93d c0f0 f83d
00000340: ce39 a23d ad9d be3d 8452 89bd f1df f53d
00000350: 150d 29bd 2f34 383e f758 c3bc 9a1c 31be
00000360: 3efa cc3c d67a a03d b605 8d3e af91 c73c
00000370: b844 b23d 8d36 a03c 1da1 00bc 85c2 c5bc
00000380: fd59 e63d a7df 903d 0e33 2cbe 6bb7 3fbd
00000390: cb4c 80bd 4818 3abe 33b9 88bd 3925 fa3d
000003a0: a573 0f3e b929 23bc f484 0fbd 3510 63bc
000003b0: 7aaf 26bd ee32 b2be ab0c ac3d 8776 96bd
000003c0: aa64 87bc 5f57 99bc 42d0 32bd 4258 743d
000003d0: 6134 c3bd 1805 e63c d4cc fc3d 032b 21be
000003e0: a730 06be 8794 31be 2a2c 1cbe 1765 0a3e
000003f0: 3c9a 733d b04f 043e f8a2 c4bc 285c 943a

arith.constant3 f4 [128, 128]
0.12611844 0.17640102 -0.116274625 -0.08005691 0.0744409 -0.14935093 -0.1398628 0.013776416
0.10702702 0.14393708 -0.27058285 0.11327473 0.016448293 0.0705962 0.0637918 0.020567073
0.11321814 0.20863259 0.02724672 -0.17771278 -0.1785362 0.007406842 -0.015861444 -0.15448488
0.07737243 0.11843694 -0.19000745 0.09148022 -0.17482162 -0.053485304 -0.015057179 0.110545024
0.13532786 0.09035662 -0.1632372 0.15486585 -0.11236948 0.06192054 0.06476888 0.05775722
0.15223244 -0.10050921 0.10732045 -0.13001633 -0.09951133 0.21290256 -0.051647797 -0.13571827
0.037677914 0.010053112 -0.053828467 -0.038718447 -0.14738788 -0.12192695 -0.026556926 -0.04693175
-0.17418532 -0.04138205 0.07597192 -0.1753265 -0.054603107 0.11165442 -0.040752385 -0.048115864
-0.060876027 -0.12652154 -0.06824454 -0.042645875 -0.14526501 0.054173388 0.19486132 -0.11760156
0.118607976 0.11635335 -0.14185123 0.08770445 0.025778864 0.10270668 -0.045419347 -0.24191743
-0.1372452 -0.16725056 -0.020649793 0.006079943 0.039625634 -0.008449649 0.090101756 -0.07482124
-0.017491682 -0.0085235825 -0.00938056 0.30092263 -0.13413167 0.1157459 -0.1175903 -0.08824964
0.0077925804 -0.061034027 0.014267251 0.0641883 0.03044776 0.12004975 -0.09383989 0.060316466
0.055941466 0.027941262 -0.15676533 0.029333664 0.08434602 0.077705674 0.08630303 0.07752353
0.14989781 -0.062973246 -0.05459062 0.23971123 -0.15525922 -0.026359959 0.041970074 -0.0838125
-0.11407913 0.2529627 0.032709274 -0.0906949 -0.062198207 -0.07744062 0.13972804 -0.05985727
-0.03981426 0.1731125 -0.022917198 -0.1434272 -0.060798507 0.14382325 0.028709607 0.082094975
-0.12768903 -0.024670102 -0.061169177 -0.030842008 0.009679302 0.09828241 0.01033239 0.040030718
0.031768195 0.030309666 0.29526973 -0.03982907 -0.058947824 0.0801072 -0.07763574 -0.07149121
-0.0255085 0.17017156 0.05900152 0.058861095 -0.05732404 0.063878894 -0.11166496 0.19259703
-0.10880142 0.15338549 -0.18509804 0.08625418 -0.07539876 0.07877919 -0.030893963 0.14238812
-0.033915374 0.16098568 0.069841385 0.0026392085 0.0032468077 0.021797506 0.17622206 0.044955097
-0.10112616 0.03330273 -0.06528835 0.06050941 -0.004076449 -0.020740455 -0.1692823 -0.066115916
-0.051745176 0.19698666 0.0039548543 -0.055547398 -0.06433101 -0.016847415 -0.039318293 -0.12995903
0.016861603 0.057685297 0.1422838 -0.1000178 -0.1707848 -0.13582447 0.046741974 0.060124468
-0.14309724 0.05039499 -0.029285546 0.07746376 0.16222423 -0.054599803 0.046019487 -0.026775956
-0.019787937 -0.10769385 -0.046145715 -0.013207519 0.010226505 -0.0033829443 0.07163121 -0.069438025
0.11895428 0.052976023 0.07646257 0.006133728 0.011105831 0.11556458 -0.010236585 0.09051516
0.079855256 -0.25690368 -0.042302422 -0.023368074 0.00439085 0.1785584 -0.068551145 0.02784443
0.019223813 0.04526424 -0.08281293 0.0043981895 -0.048909932 0.18594733 -0.024897836 -0.05281672
0.08183692 0.084165126 -0.071211375 -0.06682721 -0.02799515 -0.031580042 -0.041907 0.011740762
-0.043076966 0.09899066 -0.12362699 -0.09619268 -0.115925506 0.11589783 0.0065808212 -0.029592223
00000000: 3125 013e 78a2 343e 6421 eebd e1f4 a3bd
00000010: 7874 983d 73ef 18be 3238 0fbe 7ab6 613c
00000020: fb30 db3d 3e64 133e d689 8abe 95fc e73d
00000030: 92be 863c be94 903d 46a5 823d 477c a83c
00000040: eade e73d c8a3 553e 8334 df3c 57fa 35be
00000050: 32d2 36be 18b5 f23b dcef 81bc 4931 1ebe
00000060: 7075 9e3d 118f f23d 5091 42be fb59 bb3d
00000070: 7004 33be 6813 5bbd 63b2 76bc 6e65 e23d
00000080: 6393 0a3e e40c b93d a727 27be 2795 1e3e
00000090: f821 e6bd 64a0 7d3d 8ca5 843d d692 6c3d
000000a0: d2e2 1b3e c6d7 cdbd d3ca db3d 0023 05be
000000b0: 99cc cbbd 2103 5a3e a48c 53bd bbf9 0abe
000000c0: 2854 1a3d cfb5 243c 3d7b 5cbd 3c97 1ebd
000000d0: d9ec 16be d6b4 f9bd e98d d9bc 823b 40bd
000000e0: a35d 32be 3980 29bd 2a97 9b3d ca88 33be
000000f0: 82a7 5fbd 13ab e43d f9eb 26bd 2415 45bd
00000100: 2459 79bd dd8e 01be cbc3 8bbd 71ad 2ebd
00000110: 5ac0 14be eae4 5d3d ba89 473e 16d9 f0bd
00000120: bde8 f23d aa4a ee3d 7341 11be 649e b33d
00000130: 322e d33c e157 d23d a309 3abd 34b9 77be
00000140: 018a 0cbe bb43 2bbe c129 a9bc 423a c73b
00000150: 7d4e 223d 6670 0abc 4587 b83d e13b 99bd
00000160: b74a 8fbc 7fa6 0bbc ecb0 19bc 8812 9a3e
00000170: d059 09be 300c ed3d 2fd3 f0bd 3abc b4bd
00000180: e758 ff3b d1fe 79bd 30c1 693c 2875 833d
00000190: 956d f93c a5dc f53d 212f c0bd 660e 773d
000001a0: e122 653d 13e5 e43c 1787 20be 274d f03c
000001b0: 9bbd ac3d 2724 9f3d a5bf b03d a8c4 9e3d
000001c0: d07e 193e 1ef8 80bd 6a9a 5fbd dc76 753e
000001d0: 46fc 1ebe d7f0 d7bc d0e8 2b3d e3a5 abbd
000001e0: 52a2 e9bd 5484 813e 29fa 053d 3fbe b9bd
000001f0: 8cc3 7ebd 3099 9ebd de14 0f3e e62c 75bd
00000200: 4714 23bd 6744 313e d9bc bbbc 94de 12be
00000210: db07 79bd 6746 133e 6930 eb3c 6921 a83d
00000220: eac0 02be f418 cabc 888c 7abd 61a8 fcbc
00000230: ef95 1e3c 4a48 c93d 2f49 293c 40f7 233d
00000240: 5e1f 023d fa4b f83c 982d 973e cf23 23bd
00000250: 4673 71bd 3e0f a43d 7dff 9ebd fc69 92bd
00000260: 34f7 d0bc 7441 2e3e 94ab 713d 5518 713d
00000270: 9dcc 6abd f0d2 823d 99b0 e4bd 2838 453e
00000280: 47d3 debd 1611 1d3e 578a 3dbe 08a6 b03d
00000290: aa6a 9abd fc56 a13d 5615 fdbc 31ce 113e
000002a0: d9ea 0abd 6ed9 243e 0009 8f3d 92f6 2c3b
000002b0: 65c8 543b af90 b23c 8e73 343e d622 383d
000002c0: 3b1b cfbd 7268 083d e6b5 85bd b7d8 773d
000002d0: bc93 85bb e3e7 a9bc 5758 2dbe c867 87bd
000002e0: c0f2 53bd dfb6 493e b997 813b ab85 63bd
000002f0: fabf 83bd 9703 8abc 380c 21bd fb13 05be
00000300: 5821 8a3c 6b47 6c3d d8b2 113e 22d6 ccbd
00000310: 36e2 2ebe 9215 0bbe 8374 3f3d 1345 763d
00000320: 1588 12be fa6a 4e3d 3ee8 efbc 52a5 9e3d
00000330: 1c1e 263e 0ba4 5fbd ee7e 3c3d 4059 dbbc
00000340: 501a a2bc 988e dcbd 4a03 3dbd 5a64 58bc
00000350: 128d 273c 63b4 5dbb 62b3 923d 8635 8ebd
00000360: 4d9e f33d 63fd 583d 6898 9c3d 71fd c83b
00000370: 3bf5 353c 1fad ec3d 59b7 27bc 0360 b93d
00000380: 278b a33d e188 83be 4e45 2dbd 676e bfbc
00000390: 1fe1 8f3b 03d8 363e 8b64 8cbd 011a e43c
000003a0: 427b 9d3c ff66 393d d399 a9bd b01e 903b
000003b0: c855 48bd fa68 3e3e 8cf6 cbbc 5856 58bd
000003c0: 1d9a a73d c45e ac3d 45d7 91bd b4dc 88bd
000003d0: 1656 e5bc 135a 01bd ada6 2bbd 535c 403c
000003e0: 7971 30bd 9dbb ca3d 2630 fdbd ab00 c5bd
000003f0: 5a6a edbd d75b ed3d eea3 d73b 646b f2bc

arith.constant4 f4 [128]
-0.2141001 -0.18087876 -0.17593376 -0.31237942 -0.079038605 -0.49558863 -0.50961596 -0.32405928
-0.24835053 -0.11546173 -0.097395174 -0.017610181 -0.31604153 -0.21165216 -0.28772312 -0.2177244
-0.18377548 -0.020826073 -0.09148354 0.012130378 -0.13042307 -0.34301198 -0.24414498 -0.16556521
-0.21568036 -0.04016797 -0.10269007 -0.12785637 -0.1275901 -0.2493961 -0.16401966 0.14462444
-0.39777717 -0.08207625 -0.13418067 -0.050219294 -0.16708332 -0.30436447 -0.13660364 -0.3082203
-0.19876607 -0.3097821 -0.32217243 -0.106144644 -0.29484802 -0.5014436 0.0060971887 -0.12793687
-0.22888884 -0.24896663 -0.08820654 -0.23049097 -0.22330655 -0.18559171 -0.51716423 -0.13842458
-0.12763822 -0.19483033 -0.19650783 -0.058732882 -0.103576586 -0.09283567 -0.3268525 -0.09407148
-0.20102023 -0.13531394 -0.44082963 -0.20556112 -0.22010456 -0.12897456 -0.15261284 0.023701107
-0.3130306 -0.22475246 -0.15353976 -0.08434105 -0.12594521 -0.22371456 -0.25410253 -0.26751664
-0.24203716 -0.14450385 -0.20395774 -0.078713946 -0.18937422 -0.087682456 -0.2701855 -0.015428803
-0.2565732 -0.35885325 -0.22836486 -0.30133793 -0.19003648 -0.23925565 -0.29792404 -0.16457751
-0.119098276 -0.27535248 -0.21869181 -0.2907258 -0.24796471 -0.11131824 -0.30786487 -0.2651802
-0.22883026 -0.15329333 -0.12747939 -0.26302183 -0.2639382 -0.24561402 -0.2052871 -0.17078258
-0.1333599 -0.30471262 -0.2139764 -0.09064477 -0.1496921 -0.11034074 -0.20186712 0.0039196066
-0.21928224 -0.2478912 -0.16496067 -0.22698942 -0.25590745 -0.29073983 -0.19822371 -0.22797734
00000000: 0e3d 5bbe 4838 39be fb27 34be 32f0 9fbe
00000010: fede a1bd cbbd fdbe 3176 02bf 19eb a5be
00000020: 9a4f 7ebe 3377 ecbd 1f77 c7bd 3a43 90bc
00000030: 32d0 a1be 58bb 58be 7250 93be 25f3 5ebe
00000040: a42f 3cbe 719b aabc b95b bbbd 7ebe 463c
00000050: a08d 05be 449f afbe 2401 7abe ed89 29be
00000060: 50db 5cbe 2b87 24bd 2c4f d2bd c8ec 02be
00000070: fba6 02be b161 7fbe c5f4 27be 6e18 143e
00000080: 73a9 cbbe 9817 a8bd a866 09be bfb2 4dbd
00000090: e417 2bbe a9d5 9bbe d3e1 0bbe 0dcf 9dbe
000000a0: 5589 4bbe c29b 9ebe c9f3 a4be 5d62 d9bd
000000b0: 52f6 96be 9c5e 00bf edca c73b e201 03be
000000c0: d661 6abe 1cf1 7ebe a1a5 b4bd d305 6cbe
000000d0: 79aa 64be c10b 3ebe e064 04bf 2cbf 0dbe
000000e0: 98b3 02be 9a81 47be 5939 49be e491 70bd
000000f0: f61f d4bd a120 bebd 3659 a7be 8ca8 c0bd
00000100: 3fd8 4dbe bd8f 0abe 6cb4 e1be 9d7e 52be
00000110: 1763 61be e811 04be 8a46 1cbe d328 c23c
00000120: 8c45 a0be 8225 66be 8739 1dbe 00bb acbd
00000130: c8f7 00be 6e15 65be ba19 82be f1f7 88be
00000140: 97d8 77be d1f8 13be 4cda 50be c734 a1bd
00000150: 51eb 41be dc92 b3bd c155 8abe 17c9 7cbc
00000160: 905d 83be 9dbb b7be 7ad8 69be f748 9abe
00000170: ec98 42be 6fff 74be 8089 98be 0287 28be
00000180: cce9 f3bd 00fb 8cbe bff0 5fbe 03da 94be
00000190: 76ea 7dbe d1fa e3bd 77a0 9dbe b3c5 87be
000001a0: 7b52 6abe edf8 1cbe f589 02be ccaa 86be
000001b0: e822 87be 3e82 7bbe c836 52be a1e1 2ebe
000001c0: 7f8f 08be 4b03 9cbe a11c 5bbe f7a3 b9bd
000001d0: e348 19be 53fa e1bd 41b6 4ebe 0b70 803b
000001e0: 868b 60be 31d7 7dbe 73eb 28be ea6f 68be
000001f0: 4d06 83be dadb 94be 28fb 4abe e472 69be

arith.constant5 f4 [128]
0.82345814 1.0049707 0.6052102 0.96199495 1.0585363 0.58853406 0.7517968 0.99758685
0.88535446 0.9509531 0.847943 0.8648404 0.8624332 1.4229268 0.7542845 1.2804567
1.1683372 1.0982021 1.0671878 0.9167586 1.0222362 0.7305522 0.9240749 1.1014502
0.96861494 0.9074938 0.8702118 1.1986686 0.99409056 0.98066944 1.0542079 1.0228477
0.6341484 1.1743615 0.93301237 1.1826066 0.8821303 1.1662982 0.6364604 1.435054
0.9259953 0.7171659 0.7868008 1.0525138 0.8971089 0.7851102 0.9162452 0.6453706
0.7148348 0.80269706 1.1607198 0.9317581 0.89478475 0.7030847 0.582744 0.95311475
0.91146815 0.79459876 1.0306633 1.2200168 0.91578203 0.91357523 0.6335095 1.1282606
0.66053164 0.93262297 0.5274728 0.8196032 0.7933227 1.3262408 0.98348117 0.94650626
0.68061477 1.0191699 0.7005014 1.1622926 1.0990962 0.70976686 0.7546611 0.8700948
0.71411794 0.99902666 0.8495334 0.92401934 0.95293504 0.8564279 1.0090213 0.8146188
1.0637542 0.928204 1.2091198 0.808235 0.68098617 1.2359974 0.86819994 0.9055403
1.0187049 0.6157493 0.737864 0.95600766 0.9228198 0.95903605 1.1033046 1.0268548
0.9017832 1.0848522 0.82955027 0.718851 0.7569791 0.7253409 1.0913662 0.7738775
1.0490011 0.7495684 0.98836315 0.9005053 1.1038417 0.8888094 1.0181924 0.7650153
0.93176544 0.6848066 0.8845649 0.6819874 0.76991963 1.0782512 0.95501125 1.1652819
00000000: 27ce 523f e1a2 803f 0eef 1a3f 4d45 763f
00000010: 1e7e 873f 2baa 163f c175 403f da61 7f3f
00000020: 97a6 623f aa71 733f cb12 593f 2e66 5d3f
00000030: 6cc8 5c3f 7722 b63f ca18 413f 01e6 a33f
00000040: 138c 953f e391 8c3f 9c99 883f b1b0 6a3f
00000050: a3d8 823f 7805 3b3f 2c90 6c3f 52fc 8c3f
00000060: 26f7 773f 8451 683f 33c6 5e3f f96d 993f
00000070: b87c 7e3f 270d 7b3f 49f0 863f acec 823f
00000080: 8d57 223f 7a51 963f e6d9 6e3f a75f 973f
00000090: 4bd3 613f 4249 953f 12ef 223f d9af b73f
000000a0: 070e 6d3f 2f98 373f c76b 493f c6b8 863f
000000b0: eea8 653f fbfc 483f 0c8f 6a3f 0237 253f
000000c0: 6aff 363f 8e7d 4d3f 7792 943f b387 6e3f
000000d0: 9d10 653f 5cfd 333f b62e 153f 54ff 733f
000000e0: fa55 693f d36a 4b3f c6ec 833f 8329 9c3f
000000f0: b170 6a3f 11e0 693f ae2d 223f d86a 903f
00000100: 9a18 293f 61c0 6e3f 7508 073f 84d1 513f
00000110: 3217 4b3f 42c2 a93f 6cc5 7b3f 3c4e 723f
00000120: c53c 2e3f 2974 823f 0f54 333f 01c6 943f
00000130: 2faf 8c3f 48b3 353f 7831 413f 88be 5e3f
00000140: 6fd0 363f 36c0 7f3f 057b 593f 888c 6c3f
00000150: 8df3 733f dc3e 5b3f 9c27 813f dc8a 503f
00000160: 1929 883f c79e 6d3f 70c4 9a3f 7de8 4e3f
00000170: 1c55 2e3f 2a35 9e3f 5a42 5e3f 7dd1 673f
00000180: ec64 823f bfa1 1d3f a8e4 3c3f ebbc 743f
00000190: eb3d 6c3f 6383 753f 1639 8d3f fa6f 833f
000001a0: 44db 663f 70dc 8a3f 685d 543f 9e06 383f
000001b0: 62c9 413f f1af 393f e3b1 8b3f d61c 463f
000001c0: ab45 863f b7e3 3f3f 5e05 7d3f 8487 663f
000001d0: af4a 8d3f 0389 633f 2154 823f 0bd8 433f
000001e0: 2e88 6e3f 7c4f 2f3f d872 623f ba96 2e3f
000001f0: 7419 453f 2304 8a3f 9e7b 743f f527 953f

arith.constant6 f4 [128]
-0.051714238 -0.08149779 -0.017231248 0.031582337 -0.038654074 0.06615418 0.06519443 0.13380013
-0.03295226 -0.036665585 0.084892936 0.08802242 -0.07681252 0.03827201 -0.05908289 0.088942796
-0.12149487 -0.14877513 -0.072187446 -0.058883026 0.08229299 -0.053310595 -0.05492129 0.03815205
-0.08094809 -0.14140332 0.020285852 -0.12280128 0.13274743 0.041491613 -0.021737652 0.07823267
-0.053950135 -0.06006178 0.13564439 -0.08293273 0.06036737 0.053536966 0.06505539 -0.14359488
-0.08754939 0.026200073 -0.08341592 0.08489018 0.058854118 -0.011857393 0.06677591 0.029195279
-0.07411171 0.1028594 0.07152215 0.077934936 0.030555742 0.023248877 0.0005149644 -0.076328486
-0.0401187 0.120465405 -0.059922867 0.09871221 -0.09565529 -0.031999562 0.07040307 0.12525947
-0.1000814 0.055815894 0.0058346475 -0.06538235 -0.06803784 0.091778725 -0.07755353 -0.08513071
-0.068660304 -0.101422034 -0.03218892 -0.12410304 0.024301842 -0.077497765 -0.0066798492 0.044749904
0.05769583 0.1799869 -0.11933792 0.013000124 0.10622779 0.08506586 0.003716728 -0.13620955
0.06663302 0.10188816 0.020641195 -0.03399566 0.053492475 -0.02782058 0.048513398 0.052383494
0.034717154 -0.005646863 -0.07187363 -0.108335555 -0.06430866 -0.12524351 -0.055633783 0.009942182
0.08234584 -0.094668016 -0.027144074 -0.08573323 -0.07191218 0.021802217 -0.04454023 -0.044292983
-0.016209653 0.030281968 -0.08587304 -0.10044435 0.07789003 0.05828277 -0.11635088 0.017820027
-0.062261723 -0.13134453 -0.09617691 0.11756577 -0.07581842 0.11310131 -0.08802089 0.08822448
00000000: 4fd2 53bd 50e8 a6bd 8c28 8dbc 7b5c 013d
00000010: bc53 1ebd d87b 873d a884 853d e702 093e
00000020: f3f8 06bd a72e 16bd 59dc ad3d 1945 b43d
00000030: e24f 9dbd 1cc3 1c3d e700 72bd a427 b63d
00000040: 4dd2 f8bd 8258 18be 03d7 93bd 542f 71bd
00000050: 3a89 a83d 365c 5abd 26f5 60bd 5345 1c3d
00000060: 1dc8 a5bd 08cc 10be 842e a63c 3d7f fbbd
00000070: f1ee 073e 1cf3 293d 2913 b2bc 7338 a03d
00000080: d1fa 5cbd 5703 76bd 5de6 0a3e a3d8 a9bd
00000090: c643 773d 9449 5b3d c33b 853d 890a 13be
000000a0: 184d b3bd 89a1 d63c f7d5 aabd e7da ad3d
000000b0: 0411 713d 8345 42bc cfc1 883d f02a ef3c
000000c0: e1c7 97bd f3a7 d23d 347a 923d 5a9c 9f3d
000000d0: 0950 fa3c 6e74 be3c adfe 063a 1c52 9cbd
000000e0: 8253 24bd 91b6 f63d ae71 75bd a129 ca3d
000000f0: ece6 c3bd f911 03bd 7c2f 903d 0544 003e
00000100: 7af7 ccbd 359f 643d 9230 bf3b 2ee7 85bd
00000110: 6c57 8bbd 7cf6 bb3d 63d4 9ebd 0259 aebd
00000120: c69d 8cbd 5bb6 cfbd 87d8 03bd bc29 febd
00000130: a814 c73c 26b7 9ebd a3e2 dabb ad4b 373d
00000140: 7652 6c3d 7c4e 383e 7067 f4bd 79fe 543c
00000150: f58d d93d 0237 ae3d 5994 733b 847a 0bbe
00000160: e576 883d bdaa d03d b917 a93c 083f 0bbd
00000170: ed1a 5b3d fce7 e3bc fcb5 463d 1390 563d
00000180: 9333 0e3d 5209 b9bb 7b32 93bd 08df ddbd
00000190: 42b4 83bd d63f 00be 40e0 63bd 89e4 223c
000001a0: f0a4 a83d 4ee1 c1bd 405d debc e794 afbd
000001b0: b146 93bd 909a b23c d16f 36bd 8f6c 35bd
000001c0: 1bca 84bc e411 f83c 34de afbd c4b5 cdbd
000001d0: cf84 9f3d eab9 6e3d 5f49 eebd 4efb 913c
000001e0: 2606 7fbd 2e7f 06be 66f8 c4bd 53c6 f03d
000001f0: b046 9bbd a9a1 e73d 4c44 b4bd 09af b43d

arith.constant7 f4 [128]
-0.2330491 -0.1344974 -0.17710784 -0.28892428 -0.081492335 -0.5079295 -0.4380116 -0.18867159
-0.17765237 -0.07092794 -0.14292607 0.13673985 -0.26233864 -0.068764545 -0.28301442 0.032529056
-0.18222253 -0.0874063 -0.028437091 -0.015760561 -0.1430956 -0.32948327 -0.17519993 -0.016672868
-0.24032834 -0.06869297 -0.111456774 -0.092013896 -0.061861288 -0.25779048 -0.30184594 0.056884
-0.45151046 0.020095972 -0.14263739 -0.060103327 -0.13887255 -0.07951327 -0.13725252 0.14797059
-0.20213771 -0.36268628 -0.35463786 -0.080630824 -0.3315953 -0.4846152 -0.065351844 -0.11397619
-0.23043792 -0.2388135 -0.04316572 -0.21124141 -0.27597082 -0.19015753 -0.39767775 -0.15759973
-0.07823693 -0.13575824 -0.15692542 -0.015850917 0.02959617 -0.16261403 -0.35324886 -0.11215471
-0.14853983 -0.11864974 -0.426017 -0.22020549 -0.23471706 -0.08335614 -0.15912117 0.09010178
-0.34150937 -0.1693834 -0.15303323 -0.10314932 -0.21441434 -0.2980003 -0.233978 -0.3148406
-0.22824863 -0.1488339 -0.10055052 -0.09276577 -0.19515403 0.11499706 -0.2767605 0.14509755
-0.19896182 -0.24937667 0.04484497 -0.28736585 -0.22092822 -0.054550543 -0.29142103 -0.10552462
-0.21866538 -0.28493398 -0.22216874 -0.16952156 -0.2480224 -0.1320631 -0.21838745 -0.17069168
-0.20900862 -0.14983727 -0.16792548 -0.23450068 -0.2585807 -0.2341747 -0.116203256 -0.18932694
-0.17428015 -0.32505903 -0.17194447 -0.107931465 -0.10189317 -0.13824697 -0.12482047 -0.0070264987
-0.18010442 -0.20232317 -0.11622431 -0.28322574 -0.2781421 -0.1402368 -0.11836934 -0.11407306
00000000: 6ca4 6ebe b0b9 09be c25b 35be e2ed 93be
00000010: 74e5 a6bd ab07 02bf 0e43 e0be 2033 41be
00000020: 81ea 35be ab42 91bd 365b 12be 8805 0c3e
00000030: 4051 86be 6dd4 8cbd 44e7 90be 303d 053d
00000040: 8b98 3abe 1302 b3bd e7f4 e8bc 4b1c 81bc
00000050: a787 12be 08b2 a8be 9c67 33be 8a95 88bc
00000060: a218 76be e6ae 8cbd 7343 e4bd c871 bcbd
00000070: 4362 7dbd 1dfd 83be 8d8b 9abe 32ff 683d
00000080: 612c e7be 4fa0 a43c 890f 12be e82e 76bd
00000090: 9b34 0ebe dad7 a2bd ed8b 0cbe 9a85 173e
000000a0: 30fd 4ebe 04b2 b9be 1893 b5be c621 a5bd
000000b0: dcc6 a9be 7c1f f8be 30d7 85bd 596c e9bd
000000c0: ebf7 6bbe 878b 74be 8ace 30bd ab4f 58be
000000d0: 0c4c 8dbe a8b8 42be 6b9c cbbe d361 21be
000000e0: af3a a0bd 3504 0bbe 0fb1 20be c8d9 81bc
000000f0: ab73 f23c 4b84 26be 09dd b4be 5eb1 e5bd
00000100: d31a 18be a3fe f2bd e61e dabe 8c7d 61be
00000110: ab59 70be a0b6 aabd a9f0 22be 4887 b83d
00000120: 51da aebe d872 2dbe beb4 1cbe f33f d3bd
00000130: 6f8f 5bbe 7f93 98be ee97 6fbe ca32 a1be
00000140: 02ba 69be ea67 18be 6eed cdbd fbfb bdbd
00000150: 75d6 47be 9483 eb3d 8db3 8dbe 7494 143e
00000160: a6bc 4bbe 995c 7fbe 5caf 373d 9e21 93be
00000170: 023b 62be 6470 5fbd 2335 95be 4b1d d8bd
00000180: d1e9 5fbe dee2 91be 3480 63be 0f97 2dbe
00000190: 96f9 7dbe 8d3b 07be f6a0 5fbe cdc9 2ebe
000001a0: 5b06 56be f16e 19be a8f4 2bbe f220 70be
000001b0: b164 84be 7ecb 6fbe f9fb edbd ecde 41be
000001c0: 7f76 32be 236e a6be 3612 30be 2c0b ddbd
000001d0: 5ead d0bd 9d90 0dbe e0a1 ffbd 8b3e e6bb
000001e0: 4b6d 38be ce2d 4fbe 0307 eebd f702 91be
000001f0: a468 8ebe 3c9a 0fbe a06b f2bd 239f e9bd

arith.constant8 f4 [128, 14]
-0.004563334 -0.009422454 0.008346971 0.043632872 -0.0033247098 0.030244678 -0.0017285582 0.046075642
0.0034495846 0.028049314 -0.00082210376 -0.004698124 -0.0035459232 -0.0021356007 0.10222702 0.017964812
-0.004773644 0.12642851 -0.088147305 0.30371588 -0.017609159 0.12706284 -0.09687313 0.24711381
-0.04864496 -0.0053483327 0.014098142 -0.00959914 -0.0018871501 0.0051959525 0.0066269874 -0.005497882
0.00813097 -0.0079062935 0.0008721412 -0.0061928746 0.009368347 -0.0080623 0.002531596 0.005417278
-0.00085337256 4.9342812e-05 0.0026156674 0.006828919 0.03592687 0.01724116 -0.03677528 0.03938582
0.033004105 0.006949395 -0.021199891 0.040164426 -0.026290422 -0.00027961275 0.017446801 -0.015454121
-0.0030230246 -0.0011810486 -5.9939985e-06 0.09574365 -0.21154971 0.0512669 -0.012453882 -0.037806895
-0.1857467 0.029117022 -0.12949918 0.055432152 -0.105574965 0.21568164 0.0025650293 1.642291e-05
0.007716558 0.0065711536 -0.0028364796 0.0043141246 0.004322507 0.004217714 -0.0006779372 0.00457798
-0.0005832581 0.0040641977 0.00048124287 -0.0006473094 -0.00062959857 0.014680806 0.023360934 0.018414434
-0.009088421 0.00998444 0.026723208 0.009125649 -0.0017898396 0.009043355 -0.008518938 0.0056716707
0.0084513165 -0.009622548 -0.007669172 0.017984647 -0.11157789 0.04663805 -0.1513764 0.07119434
-0.17164494 0.036591582 -0.18025321 0.06956827 0.0018426885 -0.03642551 0.07120754 0.025809167
0.01888177 -0.020334078 0.012206066 0.13080738 -0.082273334 0.13759369 0.02655681 0.12343739
-0.070252374 0.14333917 -0.06465771 0.015846517 0.022223216 0.03325796 -0.07581757 -0.0891818
-0.06268704 0.20450687 0.04107113 0.05465565 -0.09081742 0.20694667 0.055842828 0.092633076
-0.012286648 -0.07415024 0.020854589 0.0766616 0.022787174 -0.049445435 0.03678542 -0.06777511
0.04741447 0.1648449 0.0943193 -0.049548764 0.028031142 0.1497949 0.075304255 0.0009491555
0.00023449087 0.0067054457 0.08458791 0.030295404 0.052832507 -0.02845255 -0.009140432 -0.16632243
0.04941172 -0.055205237 -0.0038271088 -0.15938683 0.07454827 0.11719006 0.046672154 0.06996131
-0.0018321021 0.0070756893 0.0031059093 0.029275931 -0.031257696 0.042700127 0.003817191 0.020805465
-0.026473956 0.04986584 -0.014610859 0.0061477553 0.008110022 0.0068080146 -0.12054795 0.14125195
-0.12037093 0.096196644 -0.2100244 0.19383165 -0.056631036 0.10826819 -0.17457305 0.18591414
-0.23163502 0.05170048 0.04763562 0.14050345 -0.0028073147 -0.003351725 0.00058699644 0.0022483587
-0.0032778003 0.0063700853 -0.0006827094 0.0008020615 -0.0037203159 0.004739569 -0.0017253412 -0.0028991622
0.007871696 0.0067257243 0.16767126 0.14602157 0.011732147 0.24718398 -0.31308806 0.424753
-0.083834976 0.276326 -0.2511975 0.3895543 -0.23375416 0.16046882 0.03386398 0.18990208
0.029391577 0.058449317 0.017535336 0.048930235 -0.072679654 0.12188623 -0.009280357 0.031564213
-0.06788324 0.11452929 0.040104635 0.015982173 0.014246676 0.052607346 0.03313002 0.036791086
0.0014804184 0.07267172 0.016758887 0.076491065 0.0416458 0.05466537 0.015152275 0.12953661
-0.039018758 -0.004992739 -0.044731844 -0.047672283 0.1020565 -0.014249136 0.28044817 -0.015859427
00000000: 0588 95bb a360 1abc bcc1 083c 62b8 323d
00000010: 60e3 59bb b0c3 f73c ca90 e2ba d0b9 3c3d
00000020: 6d12 623b adc7 e53c 7382 57ba b8f2 99bb
00000030: b862 68bb 6ff5 0bbb 665c d13d f12a 933c
00000040: 3a6c 9cbb 7a76 013e 9386 b4bd a680 9b3e
00000050: 1541 90bc c31c 023e 6b65 c6bd 670b 7d3e
00000060: f03f 47bd 1141 afbb e5fb 663c b645 1dbc
00000070: 405a f7ba cf42 aa3b 3327 d93b 9427 b4bb
00000080: c337 053c 6689 01bc 68a0 643a 99ed cabb
00000090: b27d 193c bd17 04bc 22e9 253b 6c83 b13b
000000a0: ddb4 5fba 71f5 4e38 9e6b 2b3b 20c5 df3b
000000b0: 0e28 133d 553d 8d3c ada1 16bd 0753 213d
000000c0: 502f 073d c0b7 e33b 65ab adbc 7483 243d
000000d0: 035f d7bc fd98 92b9 98ec 8e3c 4833 7dbc
000000e0: f01d 46bb 6acd 9aba 0e20 c9b6 3f15 c43d
000000f0: 7da0 58be 3efd 513d 5e0b 4cbc 67db 1abd
00000100: 6234 3ebe d286 ee3c 6f9b 04be d30c 633d
00000110: b037 d8bd a6db 5c3e 0d1a 283b eec3 8937
00000120: 2edb fc3b d552 d73b 3be4 39bb 805d 8d3b
00000130: d1a3 8d3b c034 8a3b 98b7 31ba e102 963b
00000140: cae5 18ba f62c 853b 534f fc39 33b0 29ba
00000150: a50b 25ba c387 703c 6e5f bf3c ded9 963c
00000160: 9ae7 14bc c795 233c a1ea da3c bf83 153c
00000170: 0d99 eaba 942a 143c 0493 0bbc 6cd9 b93b
00000180: 6477 0a3c e4a7 1dbc ad4d fbbb 8a54 933c
00000190: f382 e4bd 8a07 3f3d 6a02 1bbe 57ce 913d
000001a0: b1c3 2fbe 0ee1 153d 4c94 38be cf79 8e3d
000001b0: 5e86 f13a ea32 15bd 42d5 913d bf6d d33c
000001c0: f1ad 9a3c a793 a6bc f4fb 473c 5ff2 053e
000001d0: ec7e a8bd 5ce5 0c3e ab8d d93c becc fc3d
000001e0: 7ae0 8fbd 81c7 123e 436b 84bd 8ed0 813c
000001f0: 760d b63c 8039 083d 3e46 9bbd f3a4 b6bd
00000200: 1062 80bd 406a 513e 343a 283d 9ade 5f3d
00000210: 7cfe b9bd d4e9 533e 73bb 643d 69b6 bd3d
00000220: f04d 49bc 15dc 97bd 3ed7 aa3c c200 9d3d
00000230: 2bac ba3c 4c87 4abd 4fac 163d adcd 8abd
00000240: ad35 423d 1acd 283e 7a2a c13d a5f3 4abd
00000250: 91a1 e53c d663 193e 1e39 9a3d bfd0 783a
00000260: aae1 7539 5bb9 db3b 6d3c ad3d 112e f83c
00000270: e666 583d 5215 e9bc c0c1 15bc 6d50 2abe
00000280: f263 4a3d e31e 62bd 3bd0 7abb 4d36 23be
00000290: c3ac 983d 5801 f03d 4d2b 3f3d e047 8f3d
000002a0: 2523 f0ba 2fdb e73b 838c 4b3b 14d4 ef3c
000002b0: 1208 00bd 54e6 2e3d d729 7a3b 3970 aa3c
000002c0: e9df d8bc 1f40 4c3d 6262 6fbc 1c73 c93b
000002d0: e6df 043c c415 df3b d8e1 f6bd 5aa4 103e
000002e0: 0985 f6bd bf02 c53d a310 57be ce7b 463e
000002f0: f2f5 67bd b6bb dd3d 47c3 32be 4760 3e3e
00000300: bb31 6dbe e2c3 533d 911d 433d 23e0 0f3e
00000310: edfa 37bb 9da8 5bbb aae0 193a 3359 133b
00000320: 5dd0 56bb 26bc d03b daf7 32ba 7041 523a
00000330: 8bd0 73bb 634e 9b3b d824 e2ba dfff 3dbb
00000340: 49f8 003c 7763 dc3b 04b2 2b3e ae86 153e
00000350: 3138 403c cc1d 7d3e 144d a0be 3a79 d93e
00000360: acb1 abbd 9a7a 8d3e f59c 80be a973 c73e
00000370: 405d 6fbe f051 243e f5b4 0a3d b175 423e
00000380: 9bc6 f03c 8d68 6f3d 44a6 8f3c 126b 483d
00000390: 12d9 94bd 7d9f f93d a30c 18bc 7a49 013d
000003a0: 5e06 8bbd 558e ea3d c244 243d 0ced 823c
000003b0: e46a 693c cd7a 573d 58b3 073d 40b2 163d
000003c0: 990a c23a e9d4 943d ef49 893c 59a7 9c3d
000003d0: c994 2a3d cce8 5f3d 3f41 783c 3fa5 043e
000003e0: 22d2 1fbd 219a a3bb bd38 37bd 0344 43bd
000003f0: 0003 d13d 3575 69bc e796 8f3e a1eb 81bc
