Riproduzione/models/FD003/LSTMsmall/MSE/lstm_small_batch_1_MSE.tflite (tflite, 231400 bytes, 29 tensors)

sequential_1/dense_3/BiasAdd/ReadVariableOp f4 [30]
000000 05 1e 63 3d 9b 9b 61 bc e5 a5 61 3d e1 ba 6e 3d
       0.05544855 -0.013770009 0.05508985 0.05828369
000010 45 72 1b 3d d6 11 53 bc 99 3b 15 3c d1 c4 3a bc
       0.037950773 -0.01288267 0.0091084475 -0.011399464
000020 6c 83 35 3e 21 fd f5 bb 04 eb 69 3d 64 d4 52 3e
       0.17725915 -0.007506982 0.057108894 0.20588833
000030 73 b7 3d 3d 65 f4 4c bc 55 6a 36 bc bb f1 65 3d
       0.04631753 -0.01250944 -0.01113375 0.056138735
000040 34 48 94 3c ae 4f 67 bc a1 8c 3b 3d d8 04 c6 3d
       0.018100835 -0.014118118 0.04578841 0.096688926
000050 d4 e1 66 3d cd 5a 33 bc 7f 9b 79 3d a9 54 75 3e
       0.05636771 -0.010946942 0.06093931 0.23958077
000060 37 44 a6 3c 64 38 71 3e a5 4d 31 3d 5a 67 d4 3c
       0.0202962 0.23556668 0.04328694 0.025928188
000070 c7 4b f1 3d 64 e2 93 bc
       0.117820315 -0.018052287

sequential_1/dense_4/BiasAdd/ReadVariableOp f4 [15]
000000 dd 7a 91 3d c0 a9 08 bd f3 93 be bc 35 e8 92 3e
       0.071035124 -0.03336501 -0.023263907 0.28692785
000010 56 02 63 3d 3d bd 33 bd 62 f5 6c 3d 86 54 85 3d
       0.05542215 -0.043881644 0.057851203 0.06510262
000020 e6 2a 26 bc ed 4d 5a 3d 06 7e 3e bd db 58 43 bc
       -0.010142064 0.053296972 -0.046506904 -0.01192304
000030 be a2 76 3d d7 0c 96 bd a4 d0 85 bd
       0.060213797 -0.07326668 -0.06533936

arith.constant f4 [60, 60]
000000 c7 7c 62 bd 8d 18 69 3e 90 4f fb 3b 5f d8 76 bd
       -0.05529478 0.22763272 0.0076693967 -0.06026494
000010 10 c6 09 be 2e 19 82 bd 1c 3e 21 bc eb 6f d5 bb
       -0.13454461 -0.06352459 -0.009841468 -0.006513586
000020 7b b8 4b bc 3e a7 28 bd 0a 90 d5 3c 06 cd c6 3d
       -0.01243412 -0.04117512 0.02606966 0.09707074
000030 57 d0 09 3d 39 64 75 3d 3d 97 d4 3d c9 94 7a bc
       0.033645954 0.059910033 0.10380409 -0.015294262
000040 af 76 be bd ab 86 8a bc 8a 65 3b 3d 41 d1 fd bd
       -0.09299981 -0.016909918 0.045751132 -0.12393428
000050 49 a4 d2 3c 26 c9 45 3c ed 3e ae bd 72 92 68 bd
       0.025713103 0.012071883 -0.08508096 -0.056780286
000060 85 53 b1 3c ec 1d 92 bd d8 d6 1b be 8b f5 0e 3c
       0.02164627 -0.071346134 -0.15218675 0.008725534
000070 81 7d f0 bd 31 cf c0 3d 0d aa 4c 3d 92 08 33 3d
       -0.11742688 0.094145186 0.04996686 0.043709345
000080 e2 07 0b 3d 86 a3 e7 3d ea ae 0b 3d 1a 19 8b bd
       0.033943065 0.113104865 0.034102358 -0.06791897
000090 c1 54 f6 bc 98 be 03 be 37 99 07 3e bf c5 9f bd
       -0.03006971 -0.12865674 0.1324204 -0.07801389
0000a0 5a 14 99 bb 27 db 8a 3d 17 03 54 bc be bf f4 bd
       -0.0046716155 0.06780081 -0.01294019 -0.119506344
0000b0 2a 92 08 be d6 8d 7e bd 12 5d ab bc 2a 9e b9 bd
       -0.13337007 -0.062146984 -0.020918403 -0.090633705
0000c0 8c 3b 8c 3d ae ab 59 3d fb 67 87 bd ba 75 28 3e
       0.06847295 0.053142242 -0.066116296 0.16451159
0000d0 51 dc 3a bc d3 59 02 bb 91 11 03 be cc af c3 3b
       -0.011405067 -0.0019889965 -0.1279967 0.0059718844
0000e0 39 b1 f0 3d 3d 1e 2e 3d 24 6c 7f 3d 63 63 c7 3d
       0.117525525 0.042509306 0.06235899 0.097357534
0000f0 ec 86 17 bd 1d d7 20 3e 82 15 13 be 87 9c 0b 3e
       -0.036993906 0.15707059 -0.14363673 0.13633929
000100 c6 83 ec bd 1f 21 c7 3c 8f 6f 32 be 13 7c 61 be
       -0.11548571 0.024307786 -0.17425369 -0.22019987
000110 e7 01 aa 3b 16 f6 08 be a7 5b 2d 3d f7 1d 5b be
       0.005188215 -0.13375124 0.042323735 -0.2139815
000120 f5 5a 8f bd 3f 3d d0 3d cf d8 f8 3d 3e a1 89 3d
       -0.069997706 0.10167932 0.12150728 0.06720208
000130 4c 37 e0 3d 05 ff ae 3d 4f a5 df 3b 02 c6 51 bd
       0.10948047 0.08544735 0.0068251262 -0.051214226
000140 16 34 4b be b7 dd f0 3d a0 a2 84 bb 37 96 1e 3d
       -0.19844088 0.11761039 -0.0040477067 0.038717475
000150 db 87 37 be f6 24 d0 bc cf 2f ed bd 62 e9 0d 3d
       -0.17922918 -0.02540825 -0.115813844 0.0346464
000160 62 c2 0d bd 46 d8 2d 3e c9 f1 06 3a b6 d3 1d be
       -0.034609206 0.16977033 0.0005147723 -0.15412793
000170 9c dd 60 bd 7d d6 a3 3d ff 2e ad bd 35 47 63 3e
       -0.054898843 0.07999895 -0.084562294 0.22195132
000180 c7 4b 41 bc 27 6e 83 3d 09 56 dd 39 d4 8d 0b bc
       -0.011797852 0.06417494 0.00042216506 -0.008517701
000190 7c 3b e4 3d a7 ff ee 3c aa 52 8d be 01 70 50 3c
       0.11144158 0.029174639 -0.2760213 0.012722016
0001a0 ef 96 06 be 87 3a 03 3d ba e6 39 3d 5f 8f 89 bd
       -0.13143514 0.032038238 0.045386054 -0.06716799
0001b0 86 15 ac 3d fd 64 2c bd 2b bc 93 bd e8 d5 45 3c
       0.08402543 -0.042088497 -0.072136246 0.012074925
0001c0 9c 18 7d bd a0 49 8a bd 21 f5 05 bc 33 6c 17 3d
       -0.061791047 -0.06752324 -0.008176119 0.03696842
0001d0 7d b0 52 3d ee 99 2d 3e d6 4f a9 bd af 04 32 3e
       0.051437844 0.16953251 -0.082671806 0.17384599
0001e0 15 58 03 be d7 c7 05 bd a8 b5 b2 3d 8d d0 54 bd
       -0.1282657 -0.032661285 0.087260544 -0.051956702
0001f0 00 02 0b 3e e2 1b 77 3d 47 37 02 37 ca ba ca 3d
       0.13574982 0.060329325 7.761474e-06 0.098989084
000200 d1 e7 e0 bc d9 3f 9e bd 71 9b 0f bd 45 11 cb bd
       -0.027454289 -0.07727022 -0.03506035 -0.09915403
000210 06 0e 75 bd bc 17 b4 3d c4 69 ad bd cd 93 b8 bd
       -0.059827827 0.087935895 -0.08467439 -0.09012566
000220 c0 aa c2 bd e5 a9 f2 bc bc 37 f7 3d 46 8d 5e 3e
       -0.09505224 -0.029622028 0.12071177 0.21733579
000230 02 72 f8 3d 19 84 46 3d 94 1b 97 3d eb cf b8 bc
       0.1213112 0.048465822 0.07378307 -0.02256008
000240 3a 9f 21 bc fa c0 b5 3c 43 c5 0e 3e 4f 9f 0e be
       -0.009864623 0.022186745 0.13942437 -0.13927959
000250 b1 7a ab bc 7b 1d ed bd 0e ba 05 3e e8 ef 69 bd
       -0.020932527 -0.115778886 0.13059255 -0.057113558
000260 29 c2 03 3e cb 27 9d bd 2d 8d 75 3e 92 62 04 be
       0.12867035 -0.076736055 0.23979636 -0.12928227
000270 cd 05 af bd 81 bd 3f bd d5 76 ae 3c e0 c4 c2 3d
       -0.08546028 -0.046811584 0.021296898 0.09510207
000280 e3 e4 05 3d 5a 6a 17 3e 5d 40 a3 bd 54 e1 82 bd
       0.032688987 0.14786664 -0.07971261 -0.06390634
000290 e2 59 22 3e 9d 6b 90 bd d6 41 78 3b 76 b3 f2 bc
       0.158546 -0.070517756 0.0037881038 -0.02962659
0002a0 93 db 03 3d 85 06 8c b9 cc 08 25 bd d4 80 69 bd
       0.032191824 -0.00026707738 -0.040291592 -0.057007626
0002b0 d2 9d 04 be 28 a0 30 3e e2 d9 01 3e df 89 67 bc
       -0.12950829 0.17248595 0.12680772 -0.014131992
0002c0 92 2e 70 3d a9 31 0d bc ee b3 b9 3c 72 0f 78 bd
       0.058638163 -0.008617797 0.022668805 -0.060561605
0002d0 cb 6c 47 3d ff 94 21 3d 32 53 d1 3b ce b2 ec 3d
       0.048687737 0.039448734 0.0063880915 0.11557542
0002e0 b9 e7 b0 bd 7d 9b b6 3d 14 b4 cd bb 9e a6 77 bd
       -0.086379476 0.08916376 -0.0062775705 -0.060461633
0002f0 22 32 48 bc e9 62 33 be 48 07 40 bd 19 78 b5 bd
       -0.012218984 -0.175182 -0.046881944 -0.088607974
000300 5d c7 c4 3c 0c b8 89 ba 22 5c a8 bc 7b 54 7c 3c
       0.024020845 -0.0010507121 -0.020551745 0.015401001
000310 19 8d 50 bc d1 78 a2 bd b1 5b 08 bd be 6f 05 bd
       -0.012728953 -0.079332 -0.03329057 -0.03257727
000320 10 ae 38 3d 9b 86 fd 39 66 02 a0 bd f8 9b 80 bd
       0.045087874 0.0004835621 -0.078129575 -0.06279749
000330 b7 dd 73 3d 6b de 85 bd e5 84 8e 3d b2 1c 16 be
       0.059537616 -0.065365635 0.06958941 -0.14659384
000340 f2 fb 09 3e cb c7 a8 3d c9 fc 10 3d 1a bb ab bc
       0.13475016 0.082412325 0.035397325 -0.02096324
000350 b2 31 30 3c 16 2d d0 3c 29 9d ee 3d 78 4f f2 3d
       0.010754036 0.025412124 0.1165107 0.11831564
000360 19 72 8c 3d eb bb 9a 3d 40 b1 02 3d 05 b6 98 3d
       0.068577 0.07555374 0.03190732 0.074565925
000370 6b 93 11 3c 1c 29 60 3e c8 01 98 bd bd 88 d8 3d
       0.008885245 0.21890682 -0.07422215 0.10572956
000380 b0 0e a3 3c b4 93 35 3d 37 33 d5 bd bc 25 79 bd
       0.019904464 0.044330314 -0.10410159 -0.060827002
000390 0a f7 6c bd d0 42 e2 3c 43 4c 4e bd 44 9b b2 3d
       -0.057852782 0.02761975 -0.050365698 0.08721021
0003a0 fa 6a 27 3d 3f eb 14 bd f1 b8 91 bd 72 cb 26 3d
       0.040873505 -0.03635716 -0.07115353 0.040721364
0003b0 8f 80 4f 3e e3 ee fd 3c bb 81 89 bd 8f 93 b1 bc
       0.20263885 0.0309977 -0.06714197 -0.021676807
0003c0 ab 0e 71 bc 88 2d fd 3d 21 f5 a5 3c db 4e 99 3c
       -0.01471297 0.123622 0.020258488 0.018714359
0003d0 c3 c8 11 bd 02 65 36 3d 9b 40 9e bb 93 39 d2 3a
       -0.035591852 0.044529922 -0.004829479 0.0016038887
0003e0 63 d6 ae bd f1 69 dd 3c 21 2c 1f bd 35 cb 3e bc
       -0.08536985 0.027028056 -0.038860444 -0.011645128
0003f0 83 d9 0f bb 94 72 8d 3b 61 16 b4 bc 5f c5 e3 bd
       -0.0021949715 0.0043166373 -0.021983327 -0.1112163

arith.constant1 f4 [60, 60]
000000 1c d7 d4 bd f1 4e 1d be 67 76 91 3b 86 1c 4e bd
       -0.10392591 -0.15362145 0.0044391635 -0.05032017
000010 8a 01 1a 3d 87 93 a3 3c bb 62 09 be e2 f3 0e be
       0.037599124 0.019967807 -0.13416569 -0.13960221
000020 a3 89 2d bc 19 b9 aa bd 35 ca c8 bd a0 1b 2f 3e
       -0.010591897 -0.08336086 -0.09804193 0.17100382
000030 18 dd 0d bd ad a3 00 be 4d 77 8a bb 64 7e 48 3d
       -0.03463468 -0.12562437 -0.0042256475 0.04894866
000040 59 7a d4 bd 57 fe 83 bd 39 ff 7e 3d c6 c6 36 3d
       -0.103748985 -0.06444996 0.062255118 0.04462316
000050 62 a9 9e bd 1a 74 ec bc ec a9 16 be b0 bd 25 bd
       -0.07747151 -0.028863955 -0.14713258 -0.040464103
000060 85 c0 08 bd 04 88 85 bd 7d fd 62 bd 9f ce e7 3d
       -0.033386726 -0.065200835 -0.055417527 0.11318707
000070 ec 02 54 bc 2d 22 ca bb 5c 74 88 3c 96 7c ef 3d
       -0.01294015 -0.006168625 0.016657047 0.11693685
000080 7a ae 39 bd 2d d4 01 3d 0b d9 77 3d 09 af 64 bd
       -0.04533241 0.031696487 0.060509723 -0.05583099
000090 5d be 35 bd 61 47 3d bd b3 84 9c 3d 5a 09 bf bc
       -0.044370998 -0.04621065 0.07642498 -0.023319889
0000a0 1a 42 b3 3d f1 7e 3b 3e 5a 2a bf 3d a4 d0 c2 bd
       0.08752842 0.18310143 0.0933425 -0.09512451
0000b0 6e d7 6f 3c bd 1a 78 bc 9d a1 2e bd 6c 41 a0 bd
       0.014638765 -0.015143094 -0.042634595 -0.07824978
0000c0 c6 40 7e 3d ef 93 2b bd 30 f0 f1 3d bb dc 94 bd
       0.06207349 -0.041889127 0.1181339 -0.072686635
0000d0 9b dd a8 bd d3 49 08 be 02 bd f2 bd 42 0c c0 bd
       -0.08245393 -0.13309412 -0.11852457 -0.09377338
0000e0 27 d3 9a 3c 2d 27 90 bc 8c 46 aa 3d 27 cc 5d bd
       0.018899513 -0.017596805 0.08314237 -0.054149773
0000f0 bc 98 7d 3b 88 98 0f 3e a3 26 59 be 73 2d 18 3d
       0.0038695773 0.1402303 -0.21206145 0.03715272
000100 fc 00 fe bd 10 31 7e 3d b1 87 69 3d f7 bb 76 be
       -0.124025315 0.06205851 0.05701417 -0.2409514
000110 96 d2 42 bc 1d 33 98 bd 6c ad 28 bd 90 82 7c bd
       -0.011891028 -0.07431624 -0.041181013 -0.06164795
000120 32 a5 4c 3c 7b e9 7f 3c 6b 7e 8c 3c 1b 64 e2 bb
       0.0124905575 0.015619631 0.017150125 -0.006908906
000130 05 3b f2 3d 51 1c d7 3d 90 89 01 3d 3f 78 eb 3c
       0.11827663 0.10503448 0.03162533 0.028743861
000140 a1 c4 6c bd c0 f3 e5 bc 00 1a df bd 75 4c fb 3d
       -0.057804707 -0.02807033 -0.10893631 0.122704424
000150 4d 08 64 3c 38 7f c5 bd 87 07 9d bd 2a e2 76 bd
       0.013917995 -0.09643406 -0.07667451 -0.06027428
000160 8a 1d 23 be 99 66 03 3e 52 58 29 bd 19 89 95 3b
       -0.15929237 0.12832107 -0.041343994 0.0045634625
000170 98 0b 2b bd ae 83 90 39 cb a0 68 bd 91 96 61 bc
       -0.041759104 0.0002756393 -0.05679397 -0.013768808
000180 6f 70 1e be 2b 38 7b 3c 62 7a 99 bd e0 6a ac 3d
       -0.15472578 0.015333216 -0.07494046 0.08418822
000190 51 58 97 3d 35 02 d1 3d 0a 74 70 3d dc 9d 67 3d
       0.07389892 0.10205499 0.058704413 0.05654703
0001a0 ec 16 89 3d 8b ff 2f 3d b9 cf dd bc 0d b9 5f 3d
       0.06693825 0.042968314 -0.027076589 0.054619838
0001b0 40 23 ae 3d 38 f6 93 bd a7 c0 f5 bc 5b 04 95 bd
       0.08502817 -0.07224697 -0.02999909 -0.07276221
0001c0 ba f6 0d bc a2 11 42 3d 72 ac c7 bd 97 5f 26 bd
       -0.008664781 0.047380097 -0.09749688 -0.040618505
0001d0 be 7c 7b b9 1d a5 0e 3c 32 88 d6 bd fa ee 8c bc
       -0.00023983695 0.008706358 -0.10475196 -0.017203797
0001e0 55 77 0e 3c 14 01 58 bc fa 88 db bd 3c 92 ad 3d
       0.008695443 -0.013183851 -0.107194856 0.084751576
0001f0 8c 3e f2 3c 8f 40 f7 3d 1b fe 42 bc 22 e2 93 bd
       0.02957084 0.120728604 -0.011901404 -0.07220866
000200 8c bc 38 be c5 66 91 bd 18 de fa bd 02 ca 24 bd
       -0.18040675 -0.0709968 -0.12249392 -0.040231712
000210 21 8d 80 3d 00 a0 4e 3d d4 ca 36 3d ac a7 bf 3c
       0.06276918 0.050445557 0.044627026 0.023395382
000220 04 7e ce bc 8c 4b 3f bd c8 4b 6a 3d b2 08 59 bc
       -0.025206573 -0.046702906 0.057201177 -0.013246702
000230 79 af 08 bc b3 75 f7 3d b5 e0 1b 3d f7 61 97 3c
       -0.008342617 0.12082996 0.038056094 0.01847933
000240 a4 f1 5b 3d cc 6b 71 3a 0a 8f 90 bc 26 59 b2 bd
       0.053697243 0.00092094834 -0.017646331 -0.0870841
000250 b2 2f 21 bd ca 46 05 3e 4e 95 37 bd 04 7d ce bd
       -0.039352126 0.13015285 -0.044820122 -0.100824386
000260 5f 63 aa bc 4f f8 09 3e 0b df a6 3b 03 f3 b5 bd
       -0.020799337 0.13473628 0.0050925068 -0.088842414
000270 1e a4 86 bd c7 fb 69 bc 0c 35 c2 bd fc 0f 95 3d
       -0.065742716 -0.01428122 -0.09482774 0.072784394
000280 7d 51 98 3d 53 a0 3a 3d e8 a5 03 3d 44 ba 00 3d
       0.07437418 0.045563053 0.032140642 0.031427637
000290 21 be 33 bc ad a2 90 3d ea 61 e1 bd 0d 4f 0e 3e
       -0.010970623 0.07062278 -0.11005004 0.13897343
0002a0 26 97 6a bb 78 5f a8 bc 7c 75 88 3c b5 82 49 3d
       -0.0035795658 -0.020553336 0.016657583 0.049196918
0002b0 0f af 22 bd 58 6b da 3d 15 f0 07 3e 0f 22 27 bd
       -0.03971773 0.106650054 0.13275178 -0.040803965
0002c0 1f 03 b3 bd 9b aa e5 3d 93 8a 37 3c 01 6b a2 3d
       -0.0874083 0.11214181 0.011202472 0.079305656
0002d0 7a 0c 7b 3b 6b 6c c7 3b 8c 69 a7 bd f8 11 62 3d
       0.0038306997 0.0060859225 -0.08174428 0.055192918
0002e0 16 91 1e 3d ce dd 53 3d fc 01 9a bb 8b aa ff bc
       0.038712583 0.0517252 -0.0046999436 -0.03120925
0002f0 9b 20 6a 3c 8f 3c f9 bc 1c da ce ba 46 93 fb bc
       0.01429 -0.030424384 -0.0015781554 -0.030709874
000300 4a 36 0e bc 02 a7 8a ba 30 14 70 b9 4e 48 83 3d
       -0.008679936 -0.0010578337 -0.00022895704 0.064102754
000310 86 e3 c1 3d c9 ce 03 bd 48 77 95 3d 11 35 e1 bc
       0.09467225 -0.032179628 0.07298142 -0.027491124
000320 40 c4 a3 bd 18 90 2e 3e 9e dc e2 bd 7a d1 a1 bc
       -0.07996416 0.17047155 -0.11077236 -0.019753207
000330 1e ae 08 bd fb da d4 3d b1 86 bb bd 8b c5 53 bd
       -0.033369176 0.1039333 -0.0915655 -0.051702064
000340 4d 3f 77 bd fe 0e b9 3d b8 90 07 3e c4 2a fd bb
       -0.060363103 0.09036063 0.132388 -0.0077260453
000350 8c 83 ba 3c 56 1b 77 bd 61 05 a8 bd f2 1e 0c 3c
       0.022767805 -0.060328804 -0.08204151 0.0085523
000360 f1 d8 9b 3d 84 05 9a 3d 1b 3a 11 3d 81 ac 0d 3e
       0.07609738 0.07520583 0.035455804 0.13835336
000370 05 7e b5 bc 38 ee 1f 3e 52 b9 c3 3d 7d bb 2b 3d
       -0.022154817 0.15618217 0.095568314 0.04192685
000380 52 d3 d1 3d 0a f9 2b 3d 1c bd 44 be 94 00 23 bb
       0.10245384 0.04198555 -0.19212765 -0.002487217
000390 ec da 76 3d e8 f7 ad bd c1 81 a8 bd cd d4 13 3c
       0.060267374 -0.0849455 -0.082278736 0.009022904
0003a0 f4 0f db bb 26 78 bd 3d f1 9c 8f 3c 1f 75 ec bd
       -0.0066852514 0.09251432 0.01753089 -0.115457766
0003b0 97 6b 80 3d 37 cc 0a bd 2d 57 85 bc 2a cf 8f bd
       0.06270521 -0.03388616 -0.01627692 -0.07021935
0003c0 52 e3 45 3d 58 75 87 3d dc 27 5b 3c 3f 4d 85 bd
       0.048312493 0.066141784 0.013376202 -0.06508874
0003d0 f6 d0 10 bd 2c 21 b3 bd 22 35 9d 3d ea fa 84 3c
       -0.03535553 -0.087465614 0.0767615 0.016232926
0003e0 61 a7 9e bd 47 da 46 bd 0d 47 13 3c f5 7c 7b 3c
       -0.07746769 -0.04854801 0.008989108 0.015349616
0003f0 c6 85 82 bd 59 98 d3 3d 32 fd 73 bd 2e 0b 9e bd
       -0.063731715 0.103317924 -0.059567638 -0.07716976

arith.constant2 f4 [60, 60]
000000 b3 1a e9 3c 88 28 a6 bc 1f 47 6a 3c 68 99 4d bd
       0.028455114 -0.020282999 0.014299183 -0.050195128
000010 fe 35 18 3c b0 78 8f bd 2f a3 9b bd d4 ff be 3d
       0.0092902165 -0.07005441 -0.07599484 0.09326139
000020 6c 92 bb bd 93 cc bf bc c9 1d 53 3c 46 13 29 3d
       -0.09158787 -0.023412978 0.012885519 0.041278146
000030 ca 8c 85 3c 45 11 a4 bd f6 0c 83 bd 89 45 8a bd
       0.016302485 -0.080111064 -0.063989565 -0.06751544
000040 2c 29 ae 3c a8 99 a5 bd a0 7c 8c 3d b1 41 11 bd
       0.021259867 -0.08085948 0.06859708 -0.03546304
000050 a7 39 a9 3d 6d 77 86 bd f9 ec bc bc 71 b2 09 bd
       0.082629494 -0.065657474 -0.023062216 -0.03361744
000060 41 c1 06 3d 35 53 4c bc 12 a3 21 bd aa 5d a9 bd
       0.032899145 -0.01247101 -0.039462157 -0.08269818
000070 25 f8 a6 3d 31 38 14 3d e3 21 49 3d 31 09 f2 3c
       0.081527986 0.0361864 0.049104583 0.029545398
000080 38 ab 8b 3d 04 7d a5 bd 4f a9 b1 3d 17 09 8e bd
       0.06819767 -0.080804855 0.08674871 -0.069353275
000090 a9 67 c3 bd b4 e4 47 3d 44 96 46 bd 5a af 64 bd
       -0.09541256 0.048802093 -0.04848315 -0.05583129
0000a0 22 47 de bc 18 b3 59 bd 01 8a a3 3d 74 14 97 bd
       -0.027133528 -0.053149313 0.079853065 -0.07376948
0000b0 5f 7c 44 3d bc 03 b2 3b f4 58 87 bd 73 9e 58 bd
       0.047970172 0.005432574 -0.06608763 -0.052885484
0000c0 f7 22 5c bd 95 f3 db bb 62 2b a3 bc b0 9d 0f 3e
       -0.053744283 -0.006712387 -0.019918147 0.14024997
0000d0 c9 fc c0 3c 7b 08 9e bd a7 d4 d9 3d ef bd 86 3c
       0.023558037 -0.07716461 0.10636263 0.01644799
0000e0 b1 0b b7 3d e8 ad 05 3e 2d 8d 9f bd 83 0d 33 bc
       0.08937777 0.13054621 -0.07790599 -0.010928514
0000f0 26 01 8e bd a9 bf c7 3d 70 9b 6f bd 83 e8 b2 3b
       -0.06933813 0.09753353 -0.058497846 0.0054598465
000100 b1 e2 08 bb 9a 1f c9 3d 43 51 0c 3d a2 99 ff bd
       -0.0020887072 0.09820481 0.034257185 -0.12480475
000110 d3 43 bc 3d 80 e3 80 bd f1 60 82 3d 37 73 fa 3b
       0.09192624 -0.06293392 0.06366146 0.007643129
000120 aa 60 30 bc e8 7e 3a 3e f6 f6 fc bc 19 3c 1a be
       -0.010765234 0.18212473 -0.030879479 -0.15061988
000130 02 41 1c bc e7 28 c4 3c 87 52 c3 bd 49 86 58 3d
       -0.009536983 0.023945285 -0.09537225 0.05286244
000140 ab 16 58 bd ca 88 12 3e 74 46 99 3c 1c 85 2c bd
       -0.052755993 0.14309993 0.018710352 -0.04211913
000150 1a 00 14 3d bf 10 73 bd 17 57 7a bd d5 20 ce bd
       0.03613291 -0.059342142 -0.06111821 -0.10064856
000160 58 46 44 bd 53 55 42 bd 8c 83 ec bc 5d 54 96 bb
       -0.047918648 -0.047444653 -0.02887132 -0.0045876936
000170 1e 2e 08 3e 9d 41 59 3e d6 68 22 bd f6 58 e6 3d
       0.13298842 0.21216436 -0.03965076 0.11247437
000180 ab 90 bd bd b4 11 8e bd 36 d9 20 bd e2 a3 4e 3e
       -0.09256109 -0.0693697 -0.03926965 0.20179704
000190 4e f1 8f bd 11 cb aa bc 4a 9d 0b bd 90 0a 60 3d
       -0.07028447 -0.020848783 -0.03408555 0.054697573
0001a0 50 bd 99 3d 4d fa 03 bd 1f 7b 43 3d 0b d3 97 bd
       0.075068116 -0.032221127 0.04772484 -0.074133
0001b0 e6 4d 4b bd 95 d4 93 bd 99 92 92 3d ba 32 d6 bd
       -0.049634837 -0.07218281 0.071568675 -0.10458894
0001c0 82 ba 11 bd 43 20 e8 bb 52 6a c2 bc 37 c3 c3 bb
       -0.03557826 -0.007083924 -0.023732338 -0.005974199
0001d0 63 59 bd bd 93 e7 62 bd 7d d9 d7 bd 76 24 43 3d
       -0.09245565 -0.055396628 -0.105395295 0.047642194
0001e0 14 6b e9 bc 78 3e bc 3d 09 8f 4a bd 3f 12 0c be
       -0.028493442 0.091916025 -0.049452815 -0.13678835
0001f0 30 cb c7 bd 32 d3 74 bd 7b 87 1f 3e 8d 6a 5a 3c
       -0.09755552 -0.059771724 0.15579025 0.013331068
000200 d5 7c da 3c 8b 03 26 3e df df af 3d 2c e5 ca bd
       0.026670853 0.16212289 0.08587622 -0.09906992
000210 00 59 06 3e 85 bc 5e bc 35 a4 8c bd ba 91 1b bd
       0.13119888 -0.013594751 -0.068672575 -0.037980773
000220 c3 4a 39 be 61 9f 01 be d8 4a 84 bd 1a 68 1b 3d
       -0.18094926 -0.12658454 -0.06459588 0.037941076
000230 04 03 54 3e 51 d5 6f 3d 3e ce 17 be ac 5a 33 bd
       0.20704275 0.058553044 -0.14824769 -0.043787643
000240 3f d0 c6 3d a2 7e 3c 3c 3a e2 91 bd ac 4e 46 3d
       0.097076885 0.011504801 -0.071232274 0.04841487
000250 89 73 93 3d 67 cb 37 bd f3 1d 49 be 7b 32 90 3d
       0.07199771 -0.044871714 -0.19640331 0.070408784
000260 6e fc 85 bc 1a f8 42 bd 5f f7 40 bd 4b bf 7e 3d
       -0.01635572 -0.04759989 -0.04711091 0.06219415
000270 d5 d9 a2 3d e3 74 22 bd 7a 23 a9 3b 14 49 a6 bd
       0.079517044 -0.039662253 0.0051617 -0.08119407
000280 b4 0a 5d bd 9d 5d f0 bd ba b9 1f be c4 54 35 bd
       -0.053965285 -0.11736605 -0.15598193 -0.044270292
000290 1f b8 de 3b 63 76 96 39 06 d5 cb 3b 29 d7 17 3e
       0.0067968513 0.00028698434 0.0062204627 0.14828171
0002a0 59 7e 88 3d 96 75 f9 3c f9 52 77 bc 5f 94 9f 3c
       0.06664724 0.030451577 -0.015095466 0.019479929
0002b0 12 63 0a bc 69 17 42 bd a0 26 8b bc d2 f7 eb bc
       -0.008446472 -0.047385607 -0.016986191 -0.028804693
0002c0 47 28 b7 bd 07 91 57 ba fc 5a c6 3d e1 2b 1b be
       -0.08943229 -0.000822321 0.09685323 -0.15153457
0002d0 26 2c 9e 3d 7f 2e 39 bd ba 3b 9a 3d 84 f4 96 3c
       0.077232644 -0.045210358 0.07530923 0.018427141
0002e0 a2 a7 96 bd e9 b1 1f 3d 34 c3 a4 bd 28 8f 23 38
       -0.07356192 0.038988028 -0.080450445 3.8995553e-05
0002f0 8d 7f 4d bc 79 ff e8 3c 01 26 12 bc 21 18 7e bd
       -0.0125426175 0.028442131 -0.008920194 -0.06203473
000300 7a 0c 24 3d 8c 9a 41 bd 06 81 9c bc d1 d1 5a 3c
       0.04005096 -0.047266528 -0.019104492 0.013355688
000310 8d 9a f7 3b fc 09 b2 bd c9 1b a3 3d bd 13 38 bd
       0.0075562657 -0.086933106 0.07964284 -0.0449407
000320 d3 7d b0 3d e4 52 cf bd 97 b6 b8 bc ae f0 6d 3d
       0.08617749 -0.10123232 -0.022548003 0.05809086
000330 43 3e 0a be ba d8 f2 bc d0 f5 2f bc ce 23 81 bd
       -0.13500313 -0.029644359 -0.010739759 -0.06305657
000340 a4 eb 44 3d 4d 6a 02 be 80 af 9d 3d fa 3e a7 3b
       0.048076287 -0.12735863 0.076994896 0.005103943
000350 61 f1 33 b9 57 8c 25 bd c7 c8 00 3e 6a ac ff bd
       -0.00017160691 -0.04041704 0.1257659 -0.12484057
000360 b2 7f 06 3c 9e be dc 3d 2f 55 ca bb 4a 24 b3 3d
       0.008209156 0.10778545 -0.0061747055 0.08747156
000370 bc 4d 68 3c 77 b5 9b 3d 5d 04 1d 3c 9a 19 03 bd
       0.01417869 0.07602971 0.00958356 -0.032006837
000380 53 55 00 3d 0f 88 82 3c 7a 46 92 3c e4 51 06 3d
       0.03133137 0.015934018 0.017855871 0.03279294
000390 e6 7c c8 3c 24 fc 25 bd 9a de 95 bd 35 3d 17 bd
       0.024473619 -0.040523663 -0.073178485 -0.036923606
0003a0 2c 80 fc 3c b0 40 44 bc 2f 5a 24 3c 09 f8 2a 3d
       0.030822836 -0.011978313 0.010031267 0.04174045
0003b0 b4 19 fe 3c d1 65 ac bd 7d b5 89 3c fc 6d 19 3e
       0.031018116 -0.084178574 0.016810173 0.14983362
0003c0 01 89 e3 bc 2a 09 de bd 02 b5 14 3d d2 07 8e bd
       -0.02777529 -0.10841592 0.036305435 -0.06935085
0003d0 4d fb 90 bc b1 e0 c1 bd 80 84 d3 bc 32 99 01 3e
       -0.017697955 -0.094666846 -0.025820017 0.12656096
0003e0 c8 83 c5 3c d6 22 d1 3d 62 c1 dc 3d 35 47 0e bc
       0.02411069 0.102117226 0.10779072 -0.008683969
0003f0 a6 65 a7 3d 6e 1a ac bd 76 ba 65 3c ec 17 0b 3d
       0.08173685 -0.084034786 0.0140215065 0.03395836

arith.constant3 f4 [60, 60]
000000 f3 29 a8 bc 46 c4 b1 bc 34 40 a6 bc 38 19 13 3d
       -0.020527815 -0.021700036 -0.020294286 0.035912722
000010 a1 ac 92 3d b9 f5 ed bc fd d3 4f be fc 86 4d be
       0.071618326 -0.029047834 -0.20295711 -0.20071024
000020 b1 84 49 3d 21 b9 99 bd c0 36 5b 3c 82 9b 49 bd
       0.04919881 -0.07506014 0.013379753 -0.04922057
000030 b4 4e 52 3d f8 f4 3d 3c 6a fb 28 3e 4f bf 22 3e
       0.05134459 0.01159405 0.16502157 0.15893291
000040 18 7b a8 bc 0c 4c ce 3d 71 9b 0c 3d 56 34 b0 3d
       -0.020566508 0.100730985 0.034327928 0.08603732
000050 86 96 23 3d 26 66 1a bd 00 09 c9 bd a6 a8 49 3d
       0.039938472 -0.037695073 -0.0981617 0.0492331
000060 8f f8 99 bd c9 a4 11 3d 63 e4 57 bd 1a c5 20 3b
       -0.07518112 0.035557542 -0.05270804 0.0024531544
000070 80 e7 f5 3d a4 36 d0 3c 39 b5 3c 3e c9 f2 83 bd
       0.12007046 0.02541668 0.18428506 -0.06442792
000080 b1 e9 55 3d 7a 56 d3 3d 9e db a3 3b c2 60 7b 3b
       0.05222482 0.103192285 0.0050005456 0.0038357233
000090 66 41 ac bd 92 26 8f 3d 4e 59 2a bd c2 9b 09 3e
       -0.08410911 0.069897786 -0.041589074 0.13438323
0000a0 8f e9 99 3c 67 c1 d1 3d 3a 79 04 3e 2a fd fb bd
       0.018788127 0.10241967 0.1293687 -0.123041466
0000b0 f0 2c 8f 3d 58 cc 05 bc 4e 59 fb bd 6d b2 53 bc
       0.06990993 -0.008166395 -0.12272893 -0.012920958
0000c0 f7 70 1d bd ea 27 e2 bd 13 d4 85 bd 72 a9 b1 3d
       -0.03843781 -0.11042769 -0.065345906 0.08674897
0000d0 08 8a 01 bd 4c a3 b5 bc 7a ac e6 bc 6a 21 d5 bd
       -0.031625777 -0.022172593 -0.028158415 -0.10406764
0000e0 76 b3 b1 3d ba e1 8b 3c c8 a5 50 3d 96 9f a3 3d
       0.086768076 0.017075408 0.05093935 0.07989423
0000f0 a0 9f d0 bd 0a 1e 3f 3e c4 80 1b be 70 d7 ac bd
       -0.10186696 0.18663803 -0.15185839 -0.08439529
000100 85 99 36 bb 73 9d 4e 3d bc b8 79 bd cf cf 92 be
       -0.00278625 0.050443124 -0.060967192 -0.2867417
000110 1f 4e bf bc f6 15 15 be 97 42 fb bc 69 9a ad bd
       -0.02335268 -0.14559159 -0.030671401 -0.08476717
000120 1e 1a a0 bd 3c d2 87 3e 7b 62 21 3e 2a e8 0a 3e
       -0.078174815 0.26527584 0.15760224 0.13565126
000130 fd 13 e4 3d f5 15 9b 3d 9d 1d 5c bd 75 10 a0 3d
       0.11136625 0.07572547 -0.05373918 0.07815639
000140 22 cc b6 bd f8 32 e5 3d 65 f2 95 3d 53 bc 91 bc
       -0.08925654 0.11191362 0.07321624 -0.017789995
000150 f5 e4 49 bd 00 b4 fc bc 9a 83 06 bd e6 e6 bb bd
       -0.049290616 -0.03084755 -0.03284035 -0.091749
000160 55 48 ed bd 17 e3 9b 3e 53 1b b2 3d 24 d2 06 be
       -0.11586062 0.30446693 0.08696618 -0.131661
000170 55 35 c2 3d 84 12 ec 3d c9 5f 43 bd 7f 60 cc 3c
       0.094828285 0.11526969 -0.04769877 0.024948357
000180 ce 58 16 be 22 c9 af 3d eb a2 1a bd 24 ce 07 3e
       -0.14682314 0.08583285 -0.037753027 0.1326223
000190 38 57 df 3c 2d 6b c3 3d 37 73 7e be 3f 35 2e 3c
       0.027263269 0.095419265 -0.24848638 0.010632812
0001a0 15 7a 16 be d0 3c 8f 3c ee 04 44 3e fb 26 e9 bd
       -0.14695008 0.017485052 0.19142506 -0.11384388
0001b0 7a b1 2a 3e fd 16 a3 bd 02 5e 73 3c 24 4b 28 bd
       0.16669264 -0.07963369 0.014853956 -0.041087285
0001c0 61 bd 23 bd 3a c9 54 3d 53 38 0c be fa de a8 3d
       -0.039975528 0.051949717 -0.13693361 0.082456544
0001d0 74 fc c6 ba fc 2e 02 3e 27 e7 29 bc 7e 34 f0 3d
       -0.0015181438 0.12713236 -0.010370052 0.11728762
0001e0 61 14 53 3d 6d 10 8f bd 0c 9b 24 3b 45 88 56 bd
       0.051533107 -0.06985555 0.002511683 -0.05237605
0001f0 db db 12 3d dc 63 b5 3c b0 f3 18 be fc 07 8c bd
       0.0358542 0.022142343 -0.1493671 -0.068374604
000200 65 05 e6 3c 8b 0c 27 bd bb 13 cb 3d d4 4d 16 bd
       0.028078744 -0.040783446 0.09915873 -0.036695316
000210 27 81 20 be 3b 41 02 bd a5 c8 a8 3d 26 ab c4 3d
       -0.15674268 -0.03180049 0.08241395 0.096029565
000220 df 3a f0 3a 10 30 9e bc 60 33 43 3d 87 47 1f be
       0.0018328092 -0.019310027 0.047656417 -0.1555463
000230 bc 2b 82 bc 80 62 17 3e b4 0d 07 3e 22 a3 32 bd
       -0.015889995 0.14783669 0.13188821 -0.043612607
000240 6c 6f 04 3d 1d f0 a0 3d f0 78 9e 3c bb 0c 9b bd
       0.032332823 0.07858298 0.019344777 -0.075707875
000250 a2 4e a7 bd 61 24 a8 bd 8e 62 36 bb 36 bb 80 bd
       -0.08169295 -0.08210064 -0.002782974 -0.06285708
000260 09 0a ce 3d 6f bf 8a 3d 53 da e6 3c 1f 9c 38 be
       0.10060508 0.06774794 0.028180277 -0.18028305
000270 ce 3c a1 3c fd f6 30 3e cd df 21 be 82 4e cb 3d
       0.019682314 0.17281719 -0.1580803 0.099270836
000280 7c 6c a2 bc cd e7 67 3d e0 57 0e 3d d1 8e 68 bd
       -0.01982712 0.056617547 0.034751773 -0.056776825
000290 4d 23 fb 3d c5 b7 03 3e bc 75 84 bd ab 0f 59 3d
       0.122625925 0.12863071 -0.064677685 0.052993458
0002a0 04 2e 1d 3e 82 57 04 bd 44 73 9d bc 91 75 f6 bc
       0.15349585 -0.032310016 -0.019220002 -0.030085357
0002b0 97 f9 be bc d5 b2 60 3d d6 76 03 3c 1b c7 7e 3c
       -0.023312373 0.054858048 0.008023938 0.0155504
0002c0 e3 14 0c 3d 42 45 93 3c 56 53 23 bc 43 3b 0d bc
       0.034199607 0.01797736 -0.009968599 -0.008620086
0002d0 1a 72 0c 3e 3f a8 93 bd 82 83 a0 bc 40 6b f3 3d
       0.13715401 -0.07209825 -0.019593958 0.11885691
0002e0 ac ba 1f bd 58 eb be 3d 08 8d fd bb 0d d4 9c bd
       -0.038996384 0.09322232 -0.0077377595 -0.07657633
0002f0 22 72 6e bd 54 89 c8 bd a5 ae 02 be c5 ed 77 bd
       -0.058214314 -0.09791818 -0.12761934 -0.06052949
000300 e2 b9 6c bc 8a c6 2c 3c c3 92 eb 3d 05 72 f2 bc
       -0.014448615 0.010545382 0.11502602 -0.029595384
000310 06 ec a2 3d cc 8a 5b bd 7a eb cf bc 29 01 72 3d
       0.07955174 -0.053599164 -0.025380839 0.059083138
000320 17 2c f5 bd ab e9 21 bd c0 2f 6a bd c8 d7 a8 bd
       -0.119713 -0.039529484 -0.057174444 -0.08244282
000330 3a fe 03 3d c6 0c 5c bd 6b 84 62 be 40 ba 45 be
       0.03222487 -0.05372312 -0.22120826 -0.1930933
000340 9e 09 58 bd 2d 2f 93 3d 29 35 24 3e 2f 6f 01 be
       -0.052743547 0.071867324 0.16035904 -0.1264007
000350 b7 4a 44 3d 82 cc 4c 3e bb a1 3e 3c d3 a5 94 bd
       0.047922816 0.19999889 0.011635239 -0.07258191
000360 49 47 23 be 85 1f d2 3d 28 6a 22 bd 0d 7b ee 3c
       -0.15945162 0.10259918 -0.03965202 0.02911141
000370 9b 96 3b bc 24 78 4a 3e ee 93 86 3d 60 62 59 bc
       -0.011449481 0.19772393 0.06571184 -0.013268083
000380 bf d3 9f 3d 3c 3d 86 bc 9d cb 96 bd c9 5c e2 3d
       0.07804059 -0.01638662 -0.07363055 0.110528536
000390 01 13 68 3e 6f d3 6a bc a3 47 28 be f2 d4 a3 3b
       0.226635 -0.014332636 -0.16433577 0.0049997503
0003a0 57 55 11 be 64 11 be 3c d5 86 b8 3d c3 17 0e 3e
       -0.14192711 0.023201652 0.09010092 0.13876252
0003b0 4c d8 3f 3d af b6 86 bd c9 f4 c5 bd 1b 2f 10 3e
       0.046837136 -0.06577813 -0.0966583 0.1408047
0003c0 4d 23 3a bd 29 01 1c 3e 30 c6 97 bc b4 5b 08 be
       -0.04544382 0.15234818 -0.01852712 -0.13316232
0003d0 ef b7 39 3d a2 7a f0 3c a6 fd 1c 3d 56 29 7a bd
       0.04534143 0.02935535 0.038327836 -0.061074577
0003e0 fa bf 16 3d f9 b1 bd 3b 1c f7 a3 3d 3c 5d aa 3d
       0.036804177 0.0057890383 0.08006117 0.08318564
0003f0 55 3c 0a 3c de 30 d7 bb cf bb 0f 3d 57 46 56 3d
       0.008437236 -0.0065671047 0.035091218 0.052313175

arith.constant4 f4 [60]
000000 5e 26 04 3d 8b d3 db 3d 29 07 14 3d 77 e0 01 3d
       0.032263152 0.10733708 0.03613964 0.031708207
000010 4b ad 4b 3d d7 b7 95 3d 9e a5 5c 3d 3a 3a 32 3e
       0.049725812 0.07310455 0.053868882 0.17405024
000020 b4 71 19 3d ce e0 c1 3d 09 1c 98 3d 5b 3e 08 bd
       0.03746195 0.09466706 0.07427222 -0.03326259
000030 8b 7e 94 3d 19 5e 7a 3c 0e 09 d5 3d 61 33 9d bb
       0.07250699 0.015281224 0.10402118 -0.0047973846
000040 49 ae 71 3d 1f 08 c7 3d 53 b9 2d 3d f5 10 22 3d
       0.059004102 0.09718346 0.042413067 0.039566953
000050 57 7b 27 3d fb 4b 6e 3d c2 35 5d b9 71 33 59 3d
       0.04088911 0.05817793 -0.00021096229 0.053027574
000060 6e 2c 1c 3d 02 8f 87 3d c4 0b 69 3d 62 12 7a 3d
       0.03812831 0.066190735 0.056895986 0.061052687
000070 8f c6 95 3d 7a f3 11 3e 52 93 fd 3d b6 e4 4a 3d
       0.07313263 0.14253035 0.12381615 0.049534522
000080 f8 06 37 3d 1f cd 08 3e 95 d8 36 3d 72 4f c9 3d
       0.04468438 0.13359497 0.044640142 0.09829606
000090 3b bd eb 3c 1f d6 14 3c 02 35 8a bb 86 3e 0d 3d
       0.028776756 0.009084254 -0.004217745 0.034483455
0000a0 ea bb 41 3d 72 c6 a4 3c 13 a0 5c 3d ac a7 61 3d
       0.04729835 0.020114157 0.053863596 0.055091545
0000b0 10 73 0f 3d 09 8b a6 3c 78 da a4 3d 20 64 97 3d
       0.03502184 0.020329969 0.08049482 0.07392144
0000c0 2b 94 7f 3d 80 22 ac 3c d7 84 74 3d ee 7e 00 3d
       0.062397163 0.021012545 0.059697 0.03137105
0000d0 cd 32 01 3d 36 68 e5 3c 30 9e a4 3d 25 ba a8 3d
       0.031542588 0.028003793 0.08037984 0.08238629
0000e0 df e2 7c 3d 06 0a 9e 3d 9c 6d a1 3d 94 40 70 3d
       0.0617398 0.077167556 0.078822345 0.058655336

arith.constant5 f4 [60]
000000 c6 c9 7e 3f 59 87 85 3f c0 fd 89 3f c6 cc 82 3f
       0.9952663 1.043193 1.0780563 1.0218742
000010 5b 2f 86 3f 94 56 81 3f bd 32 85 3f 48 00 75 3f
       1.0483202 1.0104547 1.0406109 0.95703554
000020 85 4b 84 3f 8c 38 78 3f e1 e1 85 3f 03 a0 87 3f
       1.0335547 0.96961284 1.0459558 1.0595707
000030 1d 31 83 3f 3e 2e 88 3f 0b 06 8a 3f 60 20 86 3f
       1.0249363 1.0639112 1.0783094 1.047863
000040 72 d4 83 3f 86 cb 88 3f 04 e6 82 3f d8 d4 8a 3f
       1.0299208 1.068711 1.0226445 1.0846205
000050 5a 63 8c 3f 83 91 76 3f ca 68 84 3f d5 05 8c 3f
       1.096782 0.96315783 1.0344479 1.093928
000060 2b da 85 3f 0a 79 83 3f da 72 89 3f 0c f8 81 3f
       1.0457205 1.0271313 1.0738175 1.0153823
000070 fd 9a 7a 3f 54 08 93 3f 52 f4 84 3f ae a5 83 3f
       0.97892743 1.1486917 1.0387061 1.0284936
000080 75 74 7f 3f 67 1e 78 3f 42 61 82 3f 9c 41 89 3f
       0.99787074 0.9692139 1.0185931 1.0723147
000090 fa 28 82 3f 9d 01 80 3f 32 80 86 3f 6e 84 80 3f
       1.0168755 1.0000492 1.0507872 1.0040414
0000a0 ad 0f 83 3f 7f ff 81 3f 4c 95 85 3f 5d d9 84 3f
       1.0239159 1.0156096 1.0436187 1.0378834
0000b0 b6 96 81 3f 55 23 81 3f d6 f2 88 3f 2f e8 86 3f
       1.0124118 1.0088907 1.0699108 1.0539607
0000c0 cd 04 82 3f 66 79 84 3f 62 55 85 3f 36 94 7a 3f
       1.0157715 1.0349548 1.0416682 0.978824
0000d0 3e f4 83 3f 22 a5 84 3f 1e df 83 3f ad 14 81 3f
       1.0308912 1.0362895 1.0302465 1.0084435
0000e0 0f 00 81 3f 09 79 86 3f 3a 08 7b 3f f2 32 84 3f
       1.0078143 1.0505687 0.9805943 1.0328047

arith.constant6 f4 [60]
000000 a9 f1 b1 3c 80 36 c5 bc 3e 1c 13 3d 55 85 67 bc
       0.021721678 -0.02407384 0.035915606 -0.01413091
000010 f1 79 21 3c 70 8e a5 3c fe 74 ef bc fd 31 22 bc
       0.009855733 0.020209521 -0.02923059 -0.009899613
000020 2f 0c 4d bc 08 99 ed bc 7b 4f 58 bc 9b d9 fb 3c
       -0.012515112 -0.029003635 -0.013202543 0.03074341
000030 d2 73 47 bd 4c de 2b bc ca 0e 20 3d 80 a3 fd 3b
       -0.04869444 -0.010490011 0.039076604 0.007740438
000040 96 27 2c 3c 7d d3 02 bc ad 89 ea 3b 8f 53 41 bd
       0.010507485 -0.007984993 0.0071575255 -0.04719883
000050 5c d1 29 3d a6 9b 1d 3d a9 a2 d0 ba 8f d5 09 bc
       0.041459426 0.038478516 -0.0015917617 -0.008412733
000060 61 1f c0 3c 89 05 73 3d 69 96 05 3d 34 78 f2 ba
       0.023452463 0.05933145 0.032614145 -0.0018498958
000070 1b 79 e2 bc 10 ee 44 3d 28 d4 c9 3b 90 73 2d bc
       -0.027645638 0.048078597 0.006159324 -0.010586634
000080 3f 86 53 3c c5 c3 d1 ba 57 56 19 bc a5 57 d0 3c
       0.012910425 -0.0016003778 -0.009358964 0.025432417
000090 51 65 90 bc 56 ad 0a 3d 3c 6c b0 3b bd 76 31 3a
       -0.017626436 0.033856712 0.0053839963 0.00067697075
0000a0 b6 11 b2 3c 50 86 06 bd 1a f8 74 bc f4 f0 36 3b
       0.02173696 -0.032842934 -0.01495173 0.0027914615
0000b0 de c7 86 3c ca bb 01 3d be e7 f9 3c 40 c7 e3 3c
       0.016452726 0.03167323 0.030506011 0.02780497
0000c0 ee c3 9d 3d 29 44 16 3b 04 5f 0d bd 91 f2 db bc
       0.07703386 0.002292881 -0.034514442 -0.026849063
0000d0 a3 f6 e4 bc 8c 13 4a 3d 98 42 0e 3d 05 27 e9 bc
       -0.027949637 0.049335048 0.034731477 -0.028460989
0000e0 f2 2a 43 39 10 6e 32 3d 3a fd ed bc a7 68 db 3b
       0.00018612648 0.043561995 -0.029051412 0.006695825

arith.constant7 f4 [60]
000000 da 41 34 3d 8e 42 e8 3d 90 6a 75 3d 30 85 6c 3d
       0.044008113 0.11340819 0.05991608 0.057744205
000010 85 98 5d 3d eb a2 c9 3d 73 c7 6a 3d 76 87 3d 3e
       0.054100532 0.09845527 0.057319116 0.18508705
000020 48 30 4c 3d be c3 cd 3d f5 fd 80 3d 19 d2 21 3d
       0.049850732 0.100471005 0.062984385 0.039507005
000030 a8 d4 a9 3d fa 6d 9b 3d fc 30 3d 3d 5f 13 d6 3c
       0.08292514 0.07589336 0.046189293 0.026132284
000040 c8 87 a1 3d 71 4f 98 3d e6 9e 80 3d 98 09 98 3d
       0.07887226 0.07437027 0.062803075 0.07423705
000050 d6 ca 69 3d 57 6a 6c 3d 11 04 1e 3d 7e 31 80 3d
       0.057078205 0.0577186 0.038578097 0.0625944
000060 61 40 9d 3d bf 74 6f 3d 55 3f 66 3d 8f 03 79 3d
       0.07678295 0.058460947 0.056212742 0.06079441
000070 1b 60 81 3d d2 25 cf 3d 25 90 17 3e ee 50 5c 3d
       0.06317159 0.101146355 0.1480108 0.053788118
000080 17 dd 74 3d 31 35 27 3e ab 51 25 3d d8 8e 17 3d
       0.05978116 0.16328885 0.040361088 0.03700146
000090 65 39 45 3d f1 42 ec 3b 06 c6 4d 3d 5a c9 2e 3d
       0.04815044 0.0072101285 0.050237678 0.042672493
0000a0 2c ef 3e 3d 90 d9 a9 3c 34 d3 b6 3c 05 f5 96 3d
       0.04661481 0.020733625 0.022317506 0.073709525
0000b0 c0 57 64 3d aa 34 19 3d e4 02 4b 3d 29 2f b0 3d
       0.055747747 0.03740374 0.049563304 0.08602745
0000c0 04 31 61 3d b3 46 ad 3c fd f2 b0 3d a7 9b 39 3d
       0.054978386 0.021151876 0.08640096 0.045314457
0000d0 f3 22 4e 3d 37 77 35 3d 1f 13 4f 3d 1f 34 ae 3d
       0.0503263 0.044303145 0.050555345 0.08506035
0000e0 7f 68 6a 3d d7 9b 4b 3d 1b 82 96 3d d1 6f 9e 3d
       0.05722856 0.049709167 0.073490344 0.07736171

arith.constant8 f4 [60, 14]
000000 c2 ac d2 bd d2 d6 76 bc 01 67 06 be 85 1d cf 3d
       -0.10286857 -0.015065866 -0.1312523 0.10113052
000010 74 db 25 bd 86 fc c9 bc 64 25 04 be d6 44 9d bc
       -0.04049249 -0.024656545 -0.12904888 -0.019197863
000020 cf 61 a2 bd d5 e0 25 be 19 53 f4 bd a0 97 eb bc
       -0.07928812 -0.16199048 -0.11929912 -0.028758824
000030 89 3e 90 3d 8e 3b e7 3d 2e 0a 18 be 6f 71 70 be
       0.07043178 0.11290656 -0.14847633 -0.23480771
000040 8b c9 89 be 7d 1d 0e 3c 8d 1f 9d 3c d8 0a d0 bd
       -0.26911578 0.008674023 0.019180084 -0.10158318
000050 32 b0 2c be 73 66 c1 bc 82 07 65 bd 2b a2 db bd
       -0.16864088 -0.023608422 -0.055915363 -0.107242905
000060 3f 70 5b be bc 5e 1c be 44 1c 74 3e ac 35 a2 3e
       -0.21429537 -0.15270513 0.23838907 0.31681573
000070 4d 23 79 bd 2f 43 30 3d e7 96 79 bc b4 ea 15 3d
       -0.06082468 0.04303282 -0.015233732 0.036600783
000080 46 8c 1b 3d dc 66 94 bd c3 7d 0f be 00 d9 13 3c
       0.037975572 -0.07246181 -0.14012818 0.009023905
000090 a0 64 37 bd d0 87 2e 3d cf 2c bc 3c ba 86 e0 bb
       -0.044773698 0.04260999 0.022970585 -0.006851998
0000a0 9d fc 83 3d 64 ea 9b bb 12 89 da bd fc db 14 be
       0.064446665 -0.004758166 -0.10670675 -0.14537042
0000b0 94 7b 70 bd 94 54 9b 3c 1c 96 f0 3c 27 f6 67 bd
       -0.058711603 0.018961228 0.029368453 -0.056631234
0000c0 64 67 1d be 47 50 6a bd 7e 3d e0 bd ec 6d 4b bd
       -0.15371472 -0.057205465 -0.10949229 -0.049665377
0000d0 c0 6e 69 bd 74 fc 8a bd 16 2e 13 bd c2 e5 fd 3d
       -0.056990385 -0.06786433 -0.035932623 0.123973384
0000e0 70 66 c8 bd 78 25 41 3d 07 f9 76 bd 21 33 0c bb
       -0.097851634 0.047154874 -0.060296085 -0.002139278
0000f0 1b 72 94 bb b7 2d 0a bc 24 76 3f 3d 42 e5 2a 3d
       -0.004530204 -0.008433751 0.046743527 0.041722544
000100 5b 7b b5 3d 94 80 31 bd ee 19 47 3d 7e 38 92 bc
       0.08861419 -0.043335512 0.048608713 -0.017849203
000110 e4 89 ad bc 94 96 e4 ba 3d b3 16 be 56 de c7 bc
       -0.021183915 -0.0017439895 -0.14716811 -0.02439801
000120 9b 2d 95 bd 80 e1 fb 3c 08 9c 51 3d 4a 00 52 bd
       -0.07284089 0.030747175 0.051174194 -0.051269807
000130 eb 00 b8 bd 6b 11 08 bd c6 17 89 bd a2 1c e7 39
       -0.0898455 -0.033219736 -0.066939875 0.00044081087
000140 0e 84 66 be 37 07 5f bd 21 19 53 3e f7 52 37 3e
       -0.22511312 -0.05445024 0.20615055 0.17902742
000150 bc 0e d4 3c e6 b5 12 3d 7f 81 a1 bd 8e a1 fc bd
       0.025885932 0.035818003 -0.078860275 -0.123355016
000160 88 dd c8 3a 38 8f 4d be 69 62 3c b9 1f 36 08 be
       0.001532481 -0.20074165 -0.00017965738 -0.13301896
000170 0e 23 d3 b7 60 92 32 be 28 ce d1 3d 44 bc 93 b9
       -2.5169484e-05 -0.1743865 0.10244399 -0.00028178294
000180 7f 8b 07 bd 43 a2 60 3c 73 ae ee bd 3c 97 a4 bd
       -0.03309202 0.013710561 -0.11654367 -0.08036658
000190 42 7d 1b bd 8b c5 4b be 14 c8 79 3d 15 ab 13 be
       -0.037961252 -0.19899575 0.060981825 -0.14420731
0001a0 69 d3 5d bd af 4b 49 be f0 00 f6 3d 2b a5 0e be
       -0.054156695 -0.19657777 0.120118976 -0.13930194
0001b0 7e fb d9 3d af 61 b9 bc c4 76 53 bd 81 9f e2 3c
       0.106436715 -0.022629587 -0.051626936 0.027663948
0001c0 e8 96 46 bd a7 29 66 bd 13 da 47 be 0b a5 54 3c
       -0.04848376 -0.056192067 -0.19516782 0.012978802
0001d0 10 2d 03 be d0 bc 3e bd db 6f 8e bd a5 f1 2f 3d
       -0.12810159 -0.046566784 -0.069549285 0.04295506
0001e0 a2 97 dc bd 26 54 08 bd 33 25 02 be 21 88 d1 bd
       -0.10771109 -0.033283375 -0.12709503 -0.10231043
0001f0 c2 21 24 3e e7 d9 a1 3d b5 17 d0 bc 31 37 50 bd
       0.16028503 0.0790289 -0.02540193 -0.050833885
000200 0a 9f d8 bc fc be 08 be 19 44 9f 3d c7 dd 0a be
       -0.026443023 -0.13354105 0.077766605 -0.13561164
000210 5f 29 9e bd a3 bf 8a bd 91 ac 6f 3d 20 47 ab bc
       -0.07722735 -0.06774833 0.05851418 -0.020907938
000220 cf 3a 01 3e 82 f3 cf bc 7a ad 7f bd fb fc ad bd
       0.1262009 -0.025384668 -0.0624213 -0.08495518
000230 cc 0f 21 bd da 5f 12 bc 90 6e 01 be 16 ed 93 bd
       -0.039321706 -0.008933986 -0.12639832 -0.07222955
000240 84 9a a3 b9 83 43 ab ba 39 65 d2 3c c6 59 9b 3d
       -0.00031204906 -0.0013066385 0.025683032 0.07585482
000250 60 91 27 3e 85 bd 8e 3c 9f 3a ca 3c 6c a9 a9 bd
       0.1636405 0.017424354 0.024686156 -0.08284268
000260 ec 6d e0 3d 77 74 41 3d f4 7f db bd a3 2d 89 bd
       0.10958466 0.04723021 -0.107177645 -0.06698158
000270 be 53 6e bd 9f 4d 3c bc 20 79 45 bd ec 7f 19 3d
       -0.05818533 -0.011493116 -0.048211217 0.03747551
000280 2f bf 2b be 7b 49 8b bc 0c 29 dd bd ec 24 99 3c
       -0.1677215 -0.017002812 -0.10798845 0.018694364
000290 fd 1d 90 bd 58 0d d4 bd d3 f7 d2 3d 93 b4 7f bc
       -0.0703697 -0.103541076 0.10301175 -0.015607017
0002a0 f0 6d 26 bd e7 3c 88 bd 9e de 50 3c 03 7c 0f bd
       -0.04063219 -0.06652241 0.012748389 -0.035030376
0002b0 1f fd bf 3d 35 9f 11 be 27 7b 72 bd 98 6c d0 bc
       0.09374451 -0.14220889 -0.05919948 -0.025442407
0002c0 75 df 87 3d 8f 78 d2 bd 11 ed fa 3c a7 43 c9 bc
       0.06634418 -0.10276901 0.03063062 -0.024568392
0002d0 f7 ac 16 bd 76 b1 2d bc 29 d3 da bd e2 22 c5 3b
       -0.036786046 -0.010601392 -0.10684807 0.0060161212
0002e0 c0 86 ce bd e9 2d 64 3c 9b 4d 85 bd e4 39 db bd
       -0.10084295 0.013926961 -0.06508943 -0.10704401
0002f0 18 da 4f bd ab 46 8f bd 93 93 b7 bd ae ce a6 3c
       -0.0507451 -0.06995901 -0.089636944 0.020362224
000300 d0 9d 65 be f3 0c b2 bd d3 73 1d 3d 2c a1 6d 3d
       -0.22423482 -0.08693876 0.038440537 0.058015034
000310 a8 88 6b bd 9f 89 12 bd 08 c0 e0 bb 7e 84 43 3c
       -0.057503372 -0.035775777 -0.0068588294 0.011933444
000320 09 a4 d0 3d bc a9 ac bd bd a4 76 bd ff 0a 52 3b
       0.10187537 -0.08430812 -0.0602157 0.0032050011
000330 86 b4 1c 3d 23 91 31 bd b1 41 c3 bc fb 3b 8a bd
       0.038258098 -0.043351304 -0.023835035 -0.067497216
000340 37 c0 bb 3d fb e5 d9 3d d2 12 99 bd c7 40 b0 bd
       0.091675214 0.106395684 -0.07474293 -0.08606105
000350 bf cf 83 bd d8 14 ea bc 6e 6d 8d bd 6b eb 63 bc
       -0.06436109 -0.028574392 -0.06905638 -0.0139111085
000360 fb 1b ef bd e9 bc 75 bc d4 4f bb bd 14 84 e8 bd
       -0.11675259 -0.014998653 -0.091460854 -0.11353317
000370 87 37 fd bd 87 bf 18 bd 9c 4e 11 3d fe 78 92 3d
       -0.123641066 -0.03729203 0.03547536 0.07151984
000380 b5 d8 36 bb cd 95 3b bd 44 00 05 be ad b4 35 be
       -0.0027900164 -0.045797158 -0.12988383 -0.17744704
000390 99 ee 6f 3c 88 66 92 bd e1 f1 fb bd dc 94 ce bd
       0.014644288 -0.071484625 -0.12301994 -0.100869864
0003a0 59 18 05 3d 3e 1b c0 bb 53 a9 a7 3d f2 ad ba bc
       0.032493923 -0.0058626225 0.08186593 -0.022788022
0003b0 e2 b6 1d bd 1c 8b d4 bc 65 fd 1b be ee 46 68 3d
       -0.03850449 -0.025945239 -0.15233381 0.05670827
0003c0 53 30 b5 bd 40 d3 5f bd fb ee ee 3d ce 4f 3b 3d
       -0.08847108 -0.054644823 0.11666676 0.045730405
0003d0 15 e0 d4 bd 2e 12 ca 3c 59 a0 28 3d 84 4f 2e ba
       -0.10394303 0.024666872 0.041168544 -0.0006649422
0003e0 f2 38 18 bb d0 67 cb bd 7e 01 61 3d ba ff e7 bc
       -0.0023227301 -0.0993191 0.054933064 -0.028320182
0003f0 51 cc e1 bd b8 83 43 bd c3 0d 30 be 93 08 26 3c
       -0.110252984 -0.04773304 -0.1719275 0.01013388
