Riproduzione/Experimental/large_lstm_fixed_batch_1.tflite (tflite, 693948 bytes, 53 tensors)

sequential/dense_1/BiasAdd/ReadVariableOp f4 [32]
000000 de 0e 75 bd c6 cf 38 bd d7 5b 90 bd 97 93 60 bd
       -0.05982863 -0.045120023 -0.07048767 -0.054828253
000010 dc 49 e1 3d a7 d7 80 3d 0e 99 c7 3d f8 0f a9 38
       0.11000416 0.062911324 0.0974599 8.0615224e-05
000020 88 87 e1 3d 44 55 d3 3d 56 98 ff 3d 2e 14 76 bd
       0.11012179 0.103189975 0.12480228 -0.06007784
000030 29 c9 d4 3d f0 8e 69 3d 11 cf ad 3c b6 53 ca 3d
       0.10389931 0.05702108 0.021216901 0.09879248
000040 17 ca 78 bd c1 85 76 bd 41 ce be 3d de 00 d0 bd
       -0.060739603 -0.06018615 0.093166836 -0.101564154
000050 9a 7d d9 3d 5e ec cc 3d 67 56 d8 3d 5e 00 e3 3d
       0.1061966 0.10006021 0.10563355 0.110840544
000060 e3 0e 75 bd 7d db e3 3d 70 59 89 bd 43 a6 1e bc
       -0.05982865 0.111258484 -0.06706512 -0.009683195
000070 8e ca e1 3d df 10 e4 3d 56 e4 5c bc 29 83 11 3c
       0.11024962 0.111360304 -0.013482174 0.008881369

sequential/dense/BiasAdd/ReadVariableOp f4 [64]
000000 00 46 8c 3d 12 f5 69 bd e7 1a 96 bd 31 38 a6 bd
       0.06849289 -0.057118483 -0.0732935 -0.081161864
000010 5a d7 43 3d a6 e0 bd 3c 42 08 6a bd 5f 48 7d bd
       0.047812797 0.02317841 -0.05713678 -0.061836597
000020 9b a8 91 bd ee 91 49 3d ba 7d c5 bd 2a c6 8b bd
       -0.07112237 0.049211435 -0.09643121 -0.06824906
000030 ee 41 b9 3d c7 9b aa 3d 57 06 28 bd 9c 87 7e bd
       0.09045778 0.083304934 -0.04102167 -0.062141046
000040 f6 97 72 bd 3b 58 f9 3c 07 32 7e bb 24 7e 74 3d
       -0.059226952 0.03043758 -0.0038787143 0.05969061
000050 33 7a 93 bd f8 ee c5 3d f6 b3 8d 3d 8f 45 71 3d
       -0.07201042 0.0966472 0.069190904 0.058904227
000060 87 f7 e3 3c d9 a3 bc bd 8c f5 5e bd 60 78 13 3d
       0.027827991 -0.09210939 -0.05443339 0.03600347
000070 eb cd 86 3d 6a 1d 86 3d 96 61 59 3d 36 51 9b bd
       0.065822445 0.06548579 0.05307158 -0.07583849
000080 d7 66 7b 3d 34 82 b4 3d 0b a5 9d 3d 2d 72 9d 3d
       0.061377373 0.08813897 0.07697495 0.07687793
000090 66 6f b0 3d ab 5e 9e 3d 04 bc c2 3d 30 41 a4 3d
       0.086149976 0.077329 0.095085174 0.08020246
0000a0 f1 62 94 3d 26 11 c1 3d ff 95 8d bd 6a 40 c0 bd
       0.07245434 0.09427099 -0.06913375 -0.09387286
0000b0 6c bb 83 bd aa cb 9d bd da b9 ab 3d 8d e7 75 bd
       -0.06432232 -0.077048615 0.08385058 -0.060035277
0000c0 98 bc 80 3a ff 4e 23 3d 5a 4d a1 3d 77 ab 30 bb
       0.000982183 0.03987026 0.07876082 -0.002695767
0000d0 e9 00 50 bd d6 b9 16 bd 4e 72 8c bd e2 44 1c bd
       -0.050782118 -0.03679832 -0.068577394 -0.03815163
0000e0 02 26 91 3d f9 28 5e 3d b1 7d 9e 3d 40 ed 10 bd
       0.070873275 0.054238293 0.077388175 -0.03538251
0000f0 7a 29 63 3d 55 4a 9f 3d d5 d9 82 bd 76 27 43 3c
       0.055459477 0.077778496 -0.063892044 0.011911264

arith.constant f4 [64, 64]
000000 c7 24 b2 3c 3d 61 2e be b5 df 09 3e 71 62 16 be
       0.021746052 -0.17029281 0.13464244 -0.1468599
000010 52 5e ed bb 0c fc 41 be 99 1a 00 be 8d e4 29 3b
       -0.00724391 -0.18943805 -0.12510146 0.002592358
000020 4d 0b 14 ba 10 81 65 3b b5 85 fd 3d ea af 28 3d
       -0.0005647436 0.0035019554 0.12379018 0.04118339
000030 eb bf 77 3d 39 e7 a0 3c 06 a4 43 3d cb 7e e7 3c
       0.06048576 0.019641506 0.047763847 0.028258702
000040 f5 23 e3 3c b7 77 d1 bb 39 2d 38 bd 74 0f 03 bd
       0.027727107 -0.006392445 -0.044965003 -0.03199716
000050 72 25 5c bd fb 2e d5 3b 61 d9 a5 bd 2e ac d3 3d
       -0.053746648 0.0065058446 -0.08098102 0.10335575
000060 89 e5 12 3e 88 ff 8a 3d 0c 8f 8e ba 75 31 d2 3d
       0.14345373 0.0678702 -0.0010876372 0.102633394
000070 c8 61 3d bd d0 88 98 bd 99 c1 b2 3b ba 3a 40 3c
       -0.04623583 -0.0744797 0.0054552075 0.0117327515
000080 33 36 e7 bd a4 3d d8 bc da 0c 08 bd f1 9f 4b 3d
       -0.112896346 -0.02639658 -0.03321538 0.04971308
000090 3a 48 4b bd 51 b1 07 be 6f 7a f1 3d 18 d3 18 3d
       -0.049629427 -0.13251235 0.117909305 0.03731069
0000a0 d8 f8 45 bc 06 bf 26 be e8 77 87 39 61 35 ad 3d
       -0.012083255 -0.16283807 0.00025838544 0.08457447
0000b0 b4 1f be bd 2a 80 f8 bd a1 94 f8 3d 8a 7e 34 be
       -0.09283391 -0.1213382 0.12137724 -0.17626396
0000c0 cf 3b d1 bd 57 29 41 3d 55 a6 b9 3d a8 f1 7a 3c
       -0.10216486 0.047158565 0.090649284 0.015316404
0000d0 28 9a be 3d 3c 51 bf bd d3 08 95 3d 07 0c 24 3d
       0.09306747 -0.09341666 0.07277074 0.040050533
0000e0 1c 98 fb 3d 55 b0 d5 bc 92 80 2b bd 70 61 fa b9
       0.12284872 -0.026085058 -0.04187066 -0.00047756312
0000f0 3b d3 cc 3d 8b cc e3 3b 51 a2 6a 3d 1a 81 c6 bd
       0.100012265 0.0069518737 0.057283703 -0.09692593
000100 78 61 a3 bd dd dd 20 3d e8 cb 8e 3d a7 80 22 3d
       -0.07977575 0.039274085 0.06972486 0.039673474
000110 58 ce a9 bc 46 85 ce bd f4 78 cc bc 79 4e 5d bb
       -0.020728275 -0.10084014 -0.024960019 -0.0033768697
000120 77 4a 62 bc 12 b4 ed bc b6 cc c6 bd 00 86 93 3c
       -0.013811699 -0.029016528 -0.09707014 0.018008232
000130 14 b4 06 3e 08 3e 9b bb 19 6c 72 3d 5c 4d af bd
       0.13154632 -0.0047376193 0.05918512 -0.08559677
000140 64 42 e8 bd c5 fd 16 be ac f2 c6 3c f9 d9 27 be
       -0.11340788 -0.14745243 0.024285637 -0.16391744
000150 64 75 f6 bd ce 72 04 be 6f de d8 bb fe f6 c4 3d
       -0.12034109 -0.1293442 -0.006618313 0.096174225
000160 bf 25 07 bc 5a 46 ec 3d ea 9b e0 3d 84 78 3c 3d
       -0.008248745 0.11536856 0.10967238 0.04601337
000170 e6 2e d2 bd b4 10 a0 3d 66 73 96 3d b5 ef 13 be
       -0.102628514 0.07815686 0.07346229 -0.1444691
000180 fe 1a a6 3c ca 26 11 be c4 cb 38 bd 2e 58 80 3c
       0.020276543 -0.14174953 -0.0451162 0.015667047
000190 31 c1 dc 3d c6 36 1e be bd 05 ce bd a9 7c 04 be
       0.10779036 -0.15450582 -0.10059688 -0.12938179
0001a0 8a e5 8b 3d fb 6f 8c 3c 57 4a a8 bc 0c e0 11 3d
       0.068308905 0.01714324 -0.02054326 0.03561406
0001b0 cc bb 23 be e1 b8 ed 3c f9 6f 06 3e 8c d3 49 bd
       -0.15989608 0.029018821 0.13128652 -0.049274012
0001c0 d7 a0 29 3d 62 07 ec 3b f5 6a 0b bd a0 ab 88 bd
       0.041413154 0.0072030285 -0.03403755 -0.0667336
0001d0 8c 15 24 3e 7e 64 fa bc 61 26 c6 3c 9e 0b bb bd
       0.16023844 -0.030565497 0.024188222 -0.09133075
0001e0 b7 2e da bb 27 78 bb 3c 9a f3 49 be d5 98 17 3d
       -0.006658401 0.022884442 -0.19721833 0.037010986
0001f0 3b ae 09 3e 5c 60 e0 3c c9 38 1f be c4 7e 05 be
       0.1344537 0.027389698 -0.15549006 -0.13036638
000200 d2 7b e3 bc 2a 6e 45 bd b0 30 02 bd fa 81 09 3d
       -0.027769003 -0.048200764 -0.031784713 0.03357122
000210 e8 1e 0d 3e cc ce 3e bc 6e 64 76 3d a1 73 d9 bd
       0.13781321 -0.011645984 0.06015437 -0.106177576
000220 fb c9 d6 3c 11 1e b9 3d 6b 1c a2 bd 99 b4 92 bd
       0.026219359 0.09038938 -0.079155765 -0.071633525
000230 91 ac 0a 3d d6 a7 34 3e ff 44 1b be bb 68 8f 3d
       0.03385598 0.1764215 -0.15163039 0.070023976
000240 bb 9f 7b 3d 68 52 1f 3c 92 1e fa 3c 8d 8a 08 3e
       0.061431628 0.009724237 0.030532155 0.13334103
000250 0b dd 52 3d 59 85 44 3d 3c f8 a6 3d 78 fa 95 bd
       0.051480334 0.047978733 0.08152816 -0.07323164
000260 65 80 da bd 3a 44 39 bd a8 2e 2d be f3 0f e6 bc
       -0.106690206 -0.04523108 -0.16912329 -0.028083777
000270 94 06 a0 3d 25 26 bd 3d 09 3d bd bc 03 97 0b bd
       0.07813755 0.09235791 -0.023100393 -0.034079563
000280 5a fb 72 3d 09 0b cf 3c 3b 2f 57 bd b9 2c 56 bd
       0.05932174 0.025273817 -0.052535277 -0.052288745
000290 3c 74 02 3e 92 42 1f ba de 43 d2 3d 75 84 7a bd
       0.12739652 -0.00060752884 0.10266851 -0.061161477
0002a0 3a 0d e8 bd 6f 17 3e bd 37 99 e6 bd 5c a5 1b bd
       -0.11330648 -0.046409067 -0.11259692 -0.037999496
0002b0 d6 97 9c bd c5 51 29 3e c7 13 94 3d 82 85 73 3d
       -0.07646148 0.16535099 0.07230335 0.059453495
0002c0 e4 12 83 bd b8 68 de bc 37 6c dc 3d 07 20 3f bd
       -0.064000875 -0.027149543 0.10762828 -0.046661403
0002d0 67 19 f1 bc e6 0c 98 3d 08 0c fa bd 6a 92 7b 3e
       -0.029431058 0.07424335 -0.12209326 0.24567571
0002e0 08 a8 2b be 83 95 db 3d 90 cb b0 3d 71 c9 08 bd
       -0.16763318 0.107218765 0.086325765 -0.033395234
0002f0 19 d6 82 bc 56 37 13 bd f0 e2 2e bd d8 9f fc 3d
       -0.01597123 -0.035941444 -0.042696893 0.12335175
000300 81 37 05 3d 3e 01 7b 3d 8d 71 90 3d 9a 0d 7f 3d
       0.032523636 0.06128048 0.07052908 0.06226883
000310 b3 b3 84 bd df ae 80 bd d1 89 64 bd 4f 23 87 3d
       -0.064795874 -0.06283354 -0.055795494 0.065985315
000320 fd 26 e1 bd 0a 3e cd 3d b5 94 86 3d f8 cc 0a 3e
       -0.109937645 0.10021599 0.06571332 0.13554752
000330 8b 03 c3 3d d4 c2 93 bb 85 8c 05 3e c5 19 04 3c
       0.0952216 -0.0045093093 0.13041885 0.008062785
000340 60 ff 41 3d 7e a1 6a 3b 26 a8 79 bc 71 6e ad bc
       0.047362685 0.0035801823 -0.015237844 -0.021170827
000350 58 92 3a bd 40 7a da 3c 5a 3e 0e be 95 92 45 3e
       -0.04554972 0.026669621 -0.13890973 0.19294198
000360 73 96 87 3d d8 d0 ae 3d 14 d4 8b 3d 40 95 46 3c
       0.06620493 0.085359275 0.0682756 0.012120545
000370 7a 5a 29 be 42 f7 87 bd ec 93 53 bd b0 50 73 3d
       -0.1653842 -0.066389576 -0.05165474 0.05940312
000380 c9 53 9f bc 02 0a c7 bd 6a 2d 03 be ad c3 8f 3d
       -0.019449132 -0.09718706 -0.12810293 0.07019744
000390 b2 ef eb 3d f1 b2 2a bd 78 b2 fb bc c6 99 c4 bb
       0.11520328 -0.041674558 -0.030724749 -0.0059997765
0003a0 77 f2 d7 3d 0a 6c 0b 3d 50 22 b3 3d 7e 08 66 3d
       0.105442934 0.03403858 0.08746779 0.056160443
0003b0 b6 e1 9c bd bc 71 fe 3b bf d1 b0 3d ab f8 1d bd
       -0.076602384 0.007765023 0.08633756 -0.038567226
0003c0 ed 96 90 bd c4 7c 13 be 33 04 a6 3d 83 26 bb 3d
       -0.07060037 -0.14403063 0.0810627 0.09138205
0003d0 5c 79 56 bd 3c b9 d3 bd 10 73 10 bd e5 7e 8b 3c
       -0.05236183 -0.10338065 -0.035265982 0.017028281
0003e0 a7 cd 9f 3d 7e 92 97 bc a8 a9 e7 bd f7 ee 7a bd
       0.07802897 -0.01850247 -0.11311656 -0.06126305
0003f0 21 c4 be bd 2c e4 fc 3d c7 f1 20 bd 74 c6 37 bb
       -0.09314752 0.12348208 -0.039293077 -0.0028041871

arith.constant1 f4 [64, 64]
000000 3a 6c 69 bd 55 e3 8c bd b0 10 da 3d 5d f0 1d bd
       -0.05698798 -0.06879298 0.10647714 -0.038559306
000010 62 24 c9 bc d4 cc 43 be ad 10 fa bd 42 d7 e8 bc
       -0.024553481 -0.19121104 -0.12210212 -0.028422955
000020 45 ad e1 bc 07 d5 92 bc 52 92 81 3b 0b 41 88 3d
       -0.027548442 -0.017923845 0.0039542103 0.06653031
000030 ad 86 36 3d 64 74 b4 3d 2c 7e 07 be 90 a1 8f 3b
       0.04456203 0.08811262 -0.13231725 0.0043832734
000040 1a 2b a3 bc 98 04 0f be 62 c2 f9 3d ca 0e c7 bd
       -0.019918013 -0.13966596 0.12195279 -0.09719618
000050 18 8a 94 bd 54 0e 36 be 67 a7 1b be 7c e1 51 3a
       -0.07252902 -0.17778903 -0.15200578 0.0008006317
000060 ee e2 ba 3d c0 de ae 3d 6c 71 cf 3d 44 66 ae 3d
       0.09125315 0.0853858 0.101290554 0.08515599
000070 a7 16 65 bd f2 74 17 3d 5f 3b d9 3d 5d ca cc 3d
       -0.055929806 0.036976762 0.10607027 0.09999535
000080 0e 9a 59 bc 01 85 c1 bd f2 73 52 bd 0e 0d 0f 3e
       -0.013281358 -0.094491966 -0.051380105 0.13969824
000090 7b b1 06 3e b6 4f 88 bc ed 27 83 bd f3 78 39 3e
       0.13153641 -0.016639572 -0.064040996 0.18112545
0000a0 04 c6 c0 3d c6 d5 63 bd 42 5a 07 bd dc f9 dd 3c
       0.094127685 -0.055623792 -0.03304506 0.027096681
0000b0 5c ec 40 bd a1 e8 da bc 81 fb 6b 3c 23 4e 37 bd
       -0.04710041 -0.026722254 0.014403225 -0.04475225
0000c0 6b 05 f0 bd 9b 20 58 bd c1 51 40 bc 58 4f 13 3e
       -0.117197834 -0.05276547 -0.011738242 0.14385736
0000d0 74 29 05 be 92 f1 a6 bd 84 fb 04 3e 99 6d a5 bb
       -0.13004094 -0.08151545 0.1298657 -0.0050484654
0000e0 86 a0 13 3e 9d 25 06 bd 57 87 ef bd 33 6c 87 bd
       0.14416704 -0.032750715 -0.11695736 -0.06612434
0000f0 46 75 aa 3d e8 73 7a 3d b9 2f fa bd 88 a2 45 be
       0.083231494 0.061145693 -0.122161336 -0.19300282
000100 97 1e c2 bd eb af 2a bd 33 fc 08 3e 7a 86 fe bd
       -0.09478491 -0.041671675 0.13377456 -0.12427993
000110 d0 8d 9e b9 40 51 85 bd 29 da 56 bd 42 1c 18 3c
       -0.00030241767 -0.06509638 -0.052454147 0.009284081
000120 d4 57 64 be e6 9f 1e 3d 2a 25 a7 bb 16 67 97 3c
       -0.22299129 0.03872671 -0.005100866 0.018481772
000130 3d 6b f3 bc eb 3d e0 bc ea 4c 87 3d b5 e7 af bd
       -0.029714221 -0.027373275 0.06606467 -0.085891165
000140 bf 41 df bd 6a ec d2 bd 86 c4 8d 3d ea d7 38 bd
       -0.10901212 -0.10298999 0.069222495 -0.045127787
000150 df 0e 92 3c 2a 88 35 bd dd 92 21 be f8 12 a9 3d
       0.017829357 -0.04431931 -0.1577868 0.08255571
000160 ca 73 b3 3b 2b 9b 11 3e c3 9c 56 bc ad 53 10 be
       0.0054764496 0.14219348 -0.013098898 -0.1409442
000170 e3 d2 49 bd 80 9e 50 3d 0f 7b 81 3b 50 28 2f 3d
       -0.049273383 0.050932407 0.0039514373 0.042763054
000180 66 45 8d 3a 05 de 49 3d d0 60 c0 bd 9a 99 c6 3c
       0.0010778129 0.049284 -0.093934655 0.024243165
000190 bb 36 45 3d 4d 28 73 3a 7a 2e 9c 3d 9f ef 78 bd
       0.0481479 0.00092757196 0.07626052 -0.060775395
0001a0 f6 25 39 bc 80 e5 85 bd 12 3e ec bd fc 3c 04 3e
       -0.0113005545 -0.06537914 -0.115352765 0.12913889
0001b0 12 80 ec bc ac a5 94 3d 47 8c 72 bb c7 c1 e2 bd
       -0.028869662 0.07258162 -0.0037009881 -0.11072116
0001c0 b2 39 01 bd dc 3b 9f bd e1 eb c4 3c fd 38 a1 3d
       -0.031549163 -0.07775089 0.024038257 0.07872198
0001d0 0e 00 c7 3d c4 9c b2 bd bd 0b 13 bc ae 38 89 bd
       0.09716807 -0.08721307 -0.008974967 -0.06700264
0001e0 3e 3f 10 3e f6 78 79 bd 0b ed 0b bd 32 94 1c bd
       0.14086625 -0.060906373 -0.03416161 -0.038227268
0001f0 78 59 25 bc 0a c9 35 3e fa ad 20 be 7a cc 81 bd
       -0.010092132 0.17752472 -0.15691367 -0.06337829
000200 c8 a1 a6 3d 55 6b c0 bd 08 e1 2f be 2f 84 c8 3d
       0.08136326 -0.09395472 -0.17175686 0.09790837
000210 86 52 08 3d 60 55 21 be 91 f9 e2 3d a3 fc 22 3d
       0.033281825 -0.15755224 0.11082757 0.039791714
000220 1f f8 2e 3d b0 cb 12 3d d1 a8 ba bd 11 6b 54 bd
       0.042717095 0.035838783 -0.091142304 -0.05185992
000230 ad fc df bd 9f 73 1a 3e 30 31 12 be ac ef 2c 3b
       -0.10936866 0.15083168 -0.14276576 0.0026387973
000240 f1 3e 27 3d f4 16 d1 3d d3 58 c5 3d 2d db e3 3d
       0.04083151 0.10209456 0.096360825 0.11125789
000250 eb f9 61 3c 21 55 0a 3e 01 a1 c4 3b f2 ef ba bc
       0.013792495 0.13509037 0.0060006385 -0.022819493
000260 7b 67 89 3b 40 2d 41 bd 92 71 0c be 1e 0b 89 bd
       0.004193244 -0.047162294 -0.13715199 -0.066915736
000270 e9 a8 fe 3c e8 41 07 bd 7d b4 96 3c c3 56 02 be
       0.031086402 -0.033021837 0.01839661 -0.1272841
000280 74 11 2e 3e b7 b9 ad 3d b7 80 1d 3d 76 6d ad bd
       0.16998845 0.08482688 0.03845283 -0.08468144
000290 ec d9 53 be 49 b4 56 3d 60 61 b3 3d d4 a1 fe bd
       -0.206886 0.052418027 0.08758807 -0.1243321
0002a0 45 06 2a be 63 19 13 3e 49 be eb bd 68 34 c8 bb
       -0.16603954 0.14365153 -0.115109034 -0.006109763
0002b0 ac 74 4e 3b 66 04 a9 3d 7a d3 ad 3d d2 91 2b 3d
       0.0031502647 0.08252792 0.084876016 0.041887112
0002c0 67 e7 a3 bd f7 ed bb 3d 02 21 e1 3c 56 0b 02 be
       -0.08003121 0.091762476 0.02748156 -0.12699637
0002d0 a9 db 18 bd e4 ae 11 3e 97 e9 6f be 64 1e d9 3d
       -0.03731886 0.14226872 -0.23428951 0.106015
0002e0 84 70 58 bd f9 d7 ca 3d b4 5a c9 ba 19 3f 1e bd
       -0.05284168 0.09904475 -0.0015362115 -0.038634393
0002f0 d3 c3 d0 bd 9c a3 a8 bd 58 d0 d3 3d 89 fd e9 3c
       -0.101936005 -0.08234331 0.10342473 0.028563278
000300 02 90 88 3d 02 1f 62 3c 65 44 d4 3c ef e1 39 bd
       0.06668092 0.013801338 0.02591152 -0.045381483
000310 b6 bd ce ba ba 82 f3 bc 5a f2 ae 3c 51 53 46 3e
       -0.0015773091 -0.029725421 0.021355797 0.1936772
000320 7e 2a 7b bd 38 3c 0c 3d 77 ca 77 bc 6c 5b 8c bb
       -0.06131982 0.034237117 -0.015123955 -0.0042833593
000330 23 5e 8e bd 82 42 50 bd f2 13 db 3d 78 6c 90 3d
       -0.06951549 -0.050844677 0.10697164 0.07051939
000340 fa 82 b2 bc 7d e1 c2 bd 66 e3 24 3d 43 09 b3 bd
       -0.02179097 -0.09515665 0.040255927 -0.08742001
000350 f8 66 e8 bd ce 20 35 bd 8f e7 88 bc 51 09 67 3d
       -0.11347765 -0.044220738 -0.016711978 0.05640537
000360 fb dd a8 3d 44 c3 bf 3d 64 01 e0 3d c8 b9 13 bd
       0.082454644 0.09363416 0.10937765 -0.036065847
000370 32 7e 2a 3d 3a 83 8f bd 03 81 3b bd e8 68 40 bd
       0.041624255 -0.07007451 -0.045777332 -0.046975046
000380 a5 56 e4 bd 9b b4 b2 bd 01 7b 2e bd f1 b5 03 3c
       -0.11149339 -0.08725854 -0.042597774 0.008038984
000390 94 8f 91 3d aa ee 07 be fd 35 62 bd 84 77 86 3d
       0.071074635 -0.13274637 -0.05522727 0.065657645
0003a0 0a f2 ad bb 1b 64 ad bd b1 43 0a bd a3 e9 21 3e
       -0.0053083943 -0.08466359 -0.03375596 0.15811782
0003b0 21 f7 ad bc 7e 57 2e bd e5 d8 2c bb b2 9a 0a bd
       -0.021236004 -0.042563908 -0.0026374396 -0.033838935
0003c0 5c 69 c8 bd e3 55 3f bd d2 28 12 3d 6f 3d c8 3d
       -0.09785721 -0.046712767 0.03568346 0.097773425
0003d0 ef fc 82 3d ca d7 cc bd 7b 21 e5 3d 20 bf 6d bd
       0.063958995 -0.10002096 0.111880265 -0.0580436
0003e0 73 2d d6 3c 9a 33 91 bd c3 7e a0 bd 90 b1 f8 bd
       0.026144719 -0.0708992 -0.07836678 -0.12143242
0003f0 09 56 df 3d f9 3d 94 3d 71 c4 97 bd 3f 3f 10 be
       0.10905082 0.07238383 -0.07410515 -0.14086626

arith.constant2 f4 [64, 64]
000000 b3 df bf bb 36 64 90 bb ea 93 46 bd 0d 08 a1 3d
       -0.0058555244 -0.0044064773 -0.048480906 0.07862864
000010 27 26 6a 3d 8b 61 b6 bd 4e 27 51 bd bc 2b a5 3b
       0.05716529 -0.089053236 -0.051062874 0.005040614
000020 42 45 9b 3d 06 13 7a 3d 4f 43 94 bd c2 43 ed bd
       0.07581569 0.0610533 -0.072394006 -0.115851894
000030 73 97 1e bd 9f 85 41 3d 11 e4 6e bb 77 48 bf 3c
       -0.038718652 0.04724657 -0.0036451856 0.023349984
000040 d5 87 06 3e e1 01 fc 3d 07 fd 84 3b 60 28 9b 3d
       0.13137753 0.12305046 0.0040584835 0.0757606
000050 c0 5c bf 3d 5d f6 30 3e 8e c8 88 3d 57 92 f4 3c
       0.093438625 0.1728148 0.06678878 0.029854937
000060 5e f9 98 bd b1 33 6d bd 51 32 30 bd 88 12 9b bd
       -0.07469438 -0.057910625 -0.043016735 -0.07571894
000070 21 9f 91 bb 14 f9 33 3d 6d 9a ef bd 5e f7 ca bd
       -0.0044440185 0.04393871 -0.11699376 -0.09910463
000080 10 d9 1d 3e cb e1 ed 3c 10 69 b3 3d 6a 70 5e 3d
       0.15414834 0.02903833 0.087602735 0.054306425
000090 de 96 37 bd 1c 85 7b 3c b5 4d 21 3e 61 99 ee bb
       -0.044821613 0.01535156 0.15752299 -0.007281468
0000a0 0d 0a b7 3c 43 3c 03 3d 97 c7 03 bd d0 57 00 be
       0.02234366 0.032039892 -0.032172766 -0.12533498
0000b0 17 fb 36 3d 89 99 c7 3b e6 9f 0a be b6 ab d1 3d
       0.04467305 0.006091301 -0.13537559 0.102378294
0000c0 ef ee bd 3d f0 93 87 3d 21 74 0e 3c 07 2b 52 bd
       0.092740886 0.06620014 0.0086946795 -0.051310565
0000d0 e7 fe b1 bc b1 6f cd 3d d4 0f 90 bd eb 6c 97 3d
       -0.021727992 0.10031069 -0.07034269 0.07393821
0000e0 2b 0c a2 bd 52 d8 6e 3d 16 df 2f 3b 35 4e 24 3c
       -0.07912477 0.058311768 0.002683585 0.010028412
0000f0 15 16 a2 bd d9 06 35 be f0 c3 29 3d 22 eb 5b 3d
       -0.07914368 -0.17678393 0.041446626 0.053691037
000100 b6 c9 87 3c 4d f3 88 bd 15 8b 52 3d b0 eb ac bd
       0.016575675 -0.06687031 0.05140217 -0.08443391
000110 10 56 b1 bd fd f1 3d 3d 71 35 ed bd 5d 36 1c 3d
       -0.08658993 0.046373356 -0.11582459 0.038137782
000120 39 1e 80 bd 96 77 be bd 71 a5 c1 3d f2 48 bd 3d
       -0.062557645 -0.09300153 0.094553836 0.09242429
000130 40 ed fd 3d ec 62 10 be b8 bf 0e 3e 93 36 de 3b
       0.123987675 -0.14100236 0.13940322 0.006781408
000140 41 c4 ff bd a4 ca 0a be 97 ed fa 3c 22 e9 c4 bd
       -0.12488604 -0.13553864 0.03063087 -0.09614779
000150 a6 07 b9 3d 8f b9 32 bb fc c2 ca 3b 85 88 89 3d
       0.09034662 -0.0027271246 0.0061877947 0.06715492
000160 90 0a 87 3d 64 90 d5 3c da 15 fc 3d ac d5 b7 3d
       0.065938115 0.026069827 0.12308855 0.089763016
000170 04 72 90 bc 92 61 e1 bd 0a b0 98 3d 43 23 d9 3d
       -0.017632492 -0.11004938 0.07455452 0.10602429
000180 3c d5 00 be 0f 29 40 bd a8 70 e6 3c 68 5b 27 bc
       -0.12581342 -0.046914157 0.02812989 -0.010214664
000190 6b d3 0b 3d 10 d7 a1 bc 46 9c 47 bb 02 44 27 3e
       0.03413717 -0.01975587 -0.0030458136 0.16334537
0001a0 ec b4 38 3c 8c c7 00 bd 1b c7 ab 3c 01 46 6c bd
       0.011273604 -0.031440303 0.020968964 -0.05768395
0001b0 13 7b db 3d 86 5e 73 be bb 5c 0f 3d 81 eb 8b 3b
       0.10716834 -0.23766527 0.035000544 0.0042700176
0001c0 f3 61 f5 bd 72 c9 b0 bb 1b 1d 6d be 4f 21 2d 3d
       -0.11981573 -0.005395108 -0.23155634 0.042268094
0001d0 03 b6 07 3d 13 b1 d8 bd 4e b8 4a 3d c0 66 b3 bd
       0.033132564 -0.10580649 0.049492173 -0.087598324
0001e0 8a 65 6c 3c 3a 59 3f bd 00 99 c0 bd 23 1b cc 3d
       0.014428506 -0.046715952 -0.094041824 0.099661134
0001f0 51 67 68 3d 19 00 21 3c 85 23 aa b9 fc 23 b2 bb
       0.056739155 0.009826683 -0.0003245139 -0.0054364186
000200 50 c6 77 3c 66 c0 e9 3c 53 49 8d 3c c2 0f 6f bd
       0.015122965 0.028534126 0.017246878 -0.058364637
000210 c5 33 ba bc bc aa d4 3c 67 cd 8b bd 1a 99 4d 3d
       -0.022729764 0.025960319 -0.06826287 0.050194837
000220 3a c5 32 be dd 0d 9c 3c 02 78 29 3b 0c aa 8d 3d
       -0.17458048 0.01904958 0.0025858884 0.069171995
000230 5d c7 92 3d 84 94 97 bd cd 52 00 bc 8d 7c f6 bb
       0.07166932 -0.07401374 -0.007832241 -0.007522172
000240 b3 a8 4f be 2e e8 95 bd b6 a4 d2 3c 2a f7 f0 bc
       -0.20279197 -0.073196754 0.025713306 -0.029414732
000250 5c a8 84 bd 8e cf 3e bd 72 fa a0 bd 60 3b 2a 3b
       -0.064774245 -0.04658466 -0.07860269 0.0025975332
000260 0e e3 dd 3d 88 da 35 3e a4 e5 c6 3c 46 f6 f6 bc
       0.10834323 0.17759144 0.024279423 -0.03014673
000270 35 e7 04 be df 35 f6 3b 93 03 f8 3d 06 a7 ea 3c
       -0.12978823 0.007513746 0.12110057 0.028644096
000280 3a 73 90 3d 84 22 b9 bd 18 d8 46 3d 4c b6 50 3d
       0.07053228 -0.090397865 0.048545927 0.0509551
000290 da 09 e7 bc 97 8c 37 bc 7b 02 13 be 64 4c e7 3d
       -0.02820294 -0.011202953 -0.14356415 0.11293867
0002a0 f0 23 db 3c 02 fe 88 bd 65 eb 29 3e 30 04 94 bc
       0.026750535 -0.06689073 0.16593702 -0.018068403
0002b0 9c 1b bf bd e7 fe 80 bd a6 86 bf 3b 59 29 77 bd
       -0.09331438 -0.06298619 0.0058449088 -0.060342167
0002c0 9e 31 47 3c 9d 34 56 bd 28 98 b7 3d bb f9 10 3e
       0.012157826 -0.05229627 0.089645684 0.14157765
0002d0 7c 23 4e 3e 77 35 b1 bd e9 9b 23 3e 0e b8 8a bb
       0.20130724 -0.08652776 0.15977444 -0.004233367
0002e0 39 6d 5f 3d fa 55 d0 bd c1 bb 06 be b5 ff 69 3d
       0.054547522 -0.10172649 -0.1315756 0.057128627
0002f0 9d 14 8c 3e 08 b8 0c 3e fc 2a 03 bd b8 89 27 bd
       0.27359477 0.13742077 -0.032023415 -0.040902823
000300 eb 58 ac 3d 07 da 0f bc d2 fc 36 bd 05 0d d2 bd
       0.08415397 -0.008780009 -0.044674702 -0.102563895
000310 b4 27 d2 3d 11 9e ec 3d ad fb 3d bc 10 0d 56 3d
       0.10261479 0.11553586 -0.011595649 0.05225855
000320 40 ab a2 bd 4e b9 be bc cd dc 95 3d c0 7f 0b 3d
       -0.079428196 -0.02328172 0.07317505 0.03405738
000330 87 e1 01 be b2 4d c7 bd 48 49 62 3d fa 40 02 3d
       -0.12683688 -0.09731616 0.055245668 0.031800248
000340 b4 38 39 3d b1 b1 fe 3d 20 00 08 be cb 33 2a 3e
       0.045220092 0.12436236 -0.13281298 0.1662132
000350 59 bd ed bd fb 17 41 bd d7 32 a4 bd 2b a0 f0 bc
       -0.11608381 -0.04714201 -0.080175094 -0.029373249
000360 75 d8 08 3c 31 11 3b bd ac 2b 19 3d b1 f9 11 3e
       0.008352389 -0.045670692 0.037395164 0.14255406
000370 a4 73 00 3e 51 70 2e be cf c1 09 be 9e 81 b2 3c
       0.12544113 -0.17035033 -0.13452838 0.021790322
000380 7b a2 6b bd 85 36 a3 3d d9 0b 5a bd d0 28 9a 3d
       -0.057528 0.07969383 -0.053233955 0.075273156
000390 12 42 ce 3d dd e7 bc bd f1 7c 07 3e f5 db 15 3e
       0.10071196 -0.09223912 0.13231255 0.14634688
0003a0 5f 26 fe 3c 77 07 91 3d f5 41 96 3d 29 60 e2 bd
       0.031024156 0.07081502 0.07336799 -0.11053497
0003b0 0d b8 c8 3d fd 29 e6 bd 1c 7b b8 3d e6 82 ee 3c
       0.0980073 -0.112384774 0.09007856 0.029115152
0003c0 c0 e5 37 3c d1 1b cf 3c 58 b6 b6 bd ed ed 02 3d
       0.01122421 0.025281819 -0.08921498 0.031965185
0003d0 92 3b db bd 50 05 9d 3d 70 21 0a bc 02 5f 61 3d
       -0.107047215 0.07667029 -0.008430824 0.055022247
0003e0 9c 90 cb bc c7 49 fa 3c 08 30 00 be 4f 8c d5 3c
       -0.024849229 0.030552758 -0.12518322 0.02606788
0003f0 bd 88 c7 bd 2a 66 31 bc 38 40 ea bd c4 93 26 bd
       -0.09742878 -0.0108275805 -0.1143803 -0.040668264

arith.constant3 f4 [64, 64]
000000 2f 48 12 3d 7d 54 be bd b1 f6 7d 3c a1 76 59 bd
       0.03571337 -0.092934586 0.01550071 -0.05309165
000010 87 c7 02 3e a9 31 32 bc 6c ef 00 be 13 f4 84 3d
       0.12771426 -0.010876098 -0.12591332 0.06491866
000020 49 d8 b4 3d df 8e 61 bc df 0d 4b 3d c3 37 23 3e
       0.088303156 -0.013766973 0.049573775 0.1593924
000030 a0 57 3a 3d af 71 3d bd 59 da 80 3d da f1 95 3b
       0.045493722 -0.046250995 0.062916465 0.00457595
000040 0b d0 cc bd 2f 99 28 be d2 6d 30 3c d4 48 00 be
       -0.100006185 -0.16464685 0.010768371 -0.12527782
000050 d9 c8 3e bd 70 26 27 be 65 4c 48 bd b2 f5 4f 3d
       -0.046578262 -0.16323256 -0.04890098 0.050771423
000060 a4 0b 7b 3c 55 77 27 bc 66 06 a6 bc c3 f2 74 3d
       0.0153226 -0.010221322 -0.020266723 0.059801828
000070 7f cf 09 be 9a 6e e5 bd 57 2d a8 3d 19 c5 61 bd
       -0.1345806 -0.11202736 0.08211773 -0.055119608
000080 17 8a 80 bd 8a df 9a bc 77 67 0e bd ff bd ae bb
       -0.062763385 -0.01890542 -0.03476664 -0.005332708
000090 bc a9 14 3c 3a ba d5 3d 08 2c 76 bd c9 54 eb 3d
       0.009073671 0.104359105 -0.060100585 0.11490781
0000a0 c2 cc 71 3d 30 f5 17 be 27 22 20 bd 90 7c e1 3c
       0.059033163 -0.14839625 -0.03909507 0.027525216
0000b0 98 50 bd bd 27 d8 9b bd 55 53 f2 3d 14 a7 b1 bc
       -0.09243888 -0.07609587 0.118323006 -0.021686114
0000c0 d4 6c 6d be da bd f2 3d df 38 59 3d 73 ad b9 3d
       -0.23186046 0.118526176 0.053032752 0.09066286
0000d0 6e 43 58 3d 47 73 10 3c 8c 48 12 3e e8 5e 8d 3d
       0.05279868 0.008816547 0.14285487 0.069028676
0000e0 b6 3d d6 3d 84 6b 47 bd 45 95 a0 bd ee 13 56 ba
       0.10460989 -0.04868652 -0.07840971 -0.0008166422
0000f0 1d 6a 2d 3b 0d 02 24 ba 6e 12 d9 3d e7 0a 38 bd
       0.0026460954 -0.0006256409 0.10599218 -0.044932272
000100 53 d1 4d be b7 9b 74 3d 71 38 ba 3d 73 9f cd bd
       -0.20099382 0.059718814 0.090927966 -0.10040178
000110 47 0e 8b bd c2 10 e1 3c 41 8f 71 bd 81 b7 0f 3e
       -0.067898326 0.027473811 -0.05897451 0.14034845
000120 97 94 40 be 87 03 65 bc a6 66 b6 bd e3 51 0e 3d
       -0.18806683 -0.013977892 -0.089062974 0.034746062
000130 01 8b 3a 3e c7 f6 7c 3d de 37 c2 3b 5d 7d 14 be
       0.18217088 0.061758783 0.00592707 -0.14500947
000140 f2 12 0a be 17 8d 02 be b0 48 e4 3d d8 13 7a 3c
       -0.1348379 -0.12749134 0.111466765 0.01526352
000150 82 d6 39 3d 83 0f 2f be 1b 0b 9a bd 16 44 e4 3b
       0.045370586 -0.17095761 -0.075216495 0.0069661243
000160 64 b2 f0 3d 9e b2 41 3d 38 01 ed 3d f1 15 93 3d
       0.11752775 0.047289483 0.11572498 0.07181919
000170 ca bb 0e be d2 0b d8 ba 00 50 f7 bc 9a 07 74 3d
       -0.13938823 -0.0016483015 -0.030189514 0.059577562
000180 70 99 11 be e7 bd 43 bd 14 b2 b0 bd 10 a6 e8 b9
       -0.14218688 -0.047788527 -0.08627716 -0.00044374214
000190 19 57 16 3e 51 44 e3 bd 8d 99 05 be b4 54 26 be
       0.14681663 -0.11097015 -0.13046856 -0.16243249
0001a0 37 a2 89 3d ba 89 59 3d 12 78 25 3d ce f0 ae 3d
       0.06720393 0.053109862 0.04039771 0.085420236
0001b0 b7 79 df bd fa 88 35 3d 9b 33 d2 ba 7b 99 a9 bc
       -0.10911887 0.044320084 -0.0016037108 -0.020703068
0001c0 1f d0 86 3c 44 c4 cf bd e2 51 ab 3e f5 a3 dc 3d
       0.016456662 -0.101448566 0.3346091 0.1077346
0001d0 86 48 85 3c f7 38 40 bd eb e1 34 3e 47 df 0a be
       0.016269933 -0.046929326 0.17664306 -0.13561736
0001e0 11 4a 37 3d 12 c8 8d bb 04 88 81 3d 31 87 43 bd
       0.04474837 -0.0043268288 0.06324771 -0.04773635
0001f0 9f 51 0a 3e 50 61 34 3d 7c 1f 82 be ec dd 48 bd
       0.13507698 0.044038117 -0.25414646 -0.049039766
000200 53 bd 6d 3d bc 3d 95 bd 72 fe 92 3b 28 ec cc 3d
       0.05804188 -0.072871655 0.0044858987 0.10005981
000210 fa 83 e3 3b 2e 81 82 bd 41 b5 a0 3d 22 2b b6 bd
       0.006943223 -0.06372295 0.078470714 -0.08894946
000220 34 4a c7 bc 71 42 25 3d 6b ab fb bd fa 54 2e bd
       -0.024327375 0.040346567 -0.12288555 -0.04256151
000230 36 ad f1 bd 96 a1 4a 3d c6 63 c3 bd b7 6f 96 bd
       -0.118006155 0.049470507 -0.09540515 -0.07345527
000240 5e 75 56 3d e2 3b 2f 3e b4 93 2f 3d 3f 81 5d 3c
       0.052358024 0.17112687 0.04286547 0.013519584
000250 06 5d 1e 3e 2e 38 3a bd 41 4d bd 3d 8b 2b 63 bd
       0.15465173 -0.045463733 0.09243251 -0.055461448
000260 a9 4b a1 bd 77 91 14 be 75 aa a9 bd fe a0 a4 bd
       -0.07875759 -0.14508615 -0.08284465 -0.08038519
000270 c2 7d 4f 3e 25 4e a3 3d 63 f3 0f be d5 67 60 3b
       0.20262817 0.07973889 -0.14057688 0.0034241576
000280 8b 57 8c 3d 25 6f fa 3d 88 39 39 bd 31 eb ae bd
       0.06852635 0.122282304 -0.04522088 -0.08540953
000290 85 af 80 bd 31 a8 06 3d b4 0b 2a 3c 76 4e b7 bd
       -0.06283478 0.032875244 0.010378767 -0.08950512
0002a0 50 81 1b be d2 7c f8 3c fe 29 c9 3c 81 a8 9c bd
       -0.15186048 0.030332956 0.024556156 -0.07649327
0002b0 15 53 21 be b5 5f a4 3d 49 7c 9d bd c3 e8 19 3d
       -0.1575435 0.08026067 -0.07689721 0.037575494
0002c0 ae 8e 81 bd 18 94 06 bd a7 a1 1e 3d 05 5b 37 3c
       -0.06326042 -0.032856077 0.038728382 0.011191134
0002d0 cb e6 06 bd fc d9 1d bd 95 07 51 bd 2e 7e 34 3e
       -0.032934945 -0.038537964 -0.05103262 0.17626259
0002e0 ab ed 2e be 7c aa 72 3d 9b 4d 90 3d a4 19 de 3d
       -0.1708285 0.059244618 0.07046052 0.10844734
0002f0 a3 b6 df bc 1d 61 16 bd f0 cb ad 3d 14 a1 b9 3d
       -0.027308768 -0.03671371 0.084861636 0.09063926
000300 15 70 a6 bd 00 2e 67 bd 9a 66 62 3d 8d 64 6d be
       -0.08126847 -0.056440353 0.05527363 -0.23182888
000310 c0 8b 1b be ad 25 7a 3c 0b 01 e2 bd 9b 60 15 bd
       -0.15190029 0.015267772 -0.11035355 -0.036469083
000320 76 40 60 bd b3 96 02 be 33 de 55 bc cd 3e 10 3d
       -0.054748975 -0.127528 -0.013053465 0.03521614
000330 9a 7c 0a 3e 87 be c2 bd d5 51 60 3d 4d b1 53 3d
       0.13524094 -0.095089965 0.05476554 0.05168276
000340 dc 90 4c bc a9 6b 8b bc 46 ee 27 3d e3 42 aa bd
       -0.012485709 -0.01701911 0.04099872 -0.08313539
000350 88 e5 6f bc 27 0d 2b bc 81 d0 75 bd d4 cb 47 3d
       -0.014642127 -0.0104401475 -0.060013298 0.04877837
000360 f0 df 8a 3d d0 09 43 3e 10 97 21 3e f5 f8 a6 3c
       0.06780994 0.19046712 0.15780282 0.020382384
000370 4b b0 01 3d 5e ab 06 3d 64 53 60 3d a1 89 5e 3d
       0.031662267 0.032878272 0.054767027 0.054330472
000380 4b 71 85 bc ac 1a e1 bc f1 23 e5 bd 67 05 80 3c
       -0.016289374 -0.027478538 -0.11188496 0.015627576
000390 63 17 d9 3d 05 39 be bd 61 11 0f be ee 0d 2b bb
       0.10600164 -0.09288219 -0.13971473 -0.0026100832
0003a0 f1 24 4d 3d 07 e2 12 bd 5b 60 a9 bd b2 e4 b0 3d
       0.05008406 -0.035860088 -0.082703315 0.0863737
0003b0 08 e1 fc bc dc f7 e5 3b 10 7e cd 3d 22 88 93 bd
       -0.030869022 0.0070180725 0.1003381 -0.072037
0003c0 3a 3e b7 bc 75 e2 3b bd 75 41 39 bc 7f b0 b0 3c
       -0.02236854 -0.045870263 -0.01130711 0.021568535
0003d0 75 e4 8d 3d c4 97 0d be bb 18 48 3d e0 4d bb 3c
       0.0692834 -0.13827425 0.04885171 0.022864282
0003e0 85 48 87 3c a0 ab 83 3c 14 3b f6 bd bb d3 2f bd
       0.016514072 0.016073048 -0.12022987 -0.04292653
0003f0 d6 7f 9d 3c bc 12 30 3d e8 d8 d0 bc 95 d5 3e bd
       0.019225996 0.042986616 -0.025494054 -0.046590406

arith.constant4 f4 [64]
000000 ad 83 8a bd 08 c5 00 be d5 20 54 3d b0 b9 3d ba
       -0.067633964 -0.12575161 0.051789124 -0.00072374474
000010 46 09 4e 3d 2c 75 3c bc e5 78 a9 bd 20 4c 05 3d
       0.050301813 -0.011502545 -0.08275012 0.0325433
000020 96 ed 3c bd 82 fc 91 bc fc db 38 bd 5e 68 42 3d
       -0.046125017 -0.0178206 -0.04513167 0.047462814
000030 e5 98 f2 3c 4a 71 89 bd d4 0e 80 bd d1 e5 9c bd
       0.029613921 -0.06711061 -0.06252828 -0.076610215
000040 84 1a cd 3c b2 4d 46 3d 71 8b 08 3d f5 10 68 3d
       0.025037058 0.04841394 0.033336107 0.056656796
000050 e3 ba 2a 3d 74 2d 01 3d 94 93 78 bd 12 f2 13 be
       0.041682135 0.031537488 -0.060687616 -0.14447811
000060 42 72 f3 3c d5 09 ec 3c 82 70 e1 bb 23 42 47 bd
       0.029717568 0.028813282 -0.006879867 -0.048647057
000070 83 95 9e 3d ef 3f 95 bd c1 c4 3a 3d 88 9b a8 bd
       0.07743361 -0.07287585 0.045597795 -0.0823279
000080 a4 6a aa bc fe 38 f0 bc 05 17 e2 bd c7 31 88 bd
       -0.020802803 -0.029324051 -0.11039547 -0.06650119
000090 fa 62 ea 3c e0 9f 70 3a 1f 0b 03 3d 1b b7 8f bd
       0.028611649 0.00091790967 0.031993028 -0.070173465
0000a0 14 a9 95 3d 1c 77 57 3d eb 3c a6 bc f9 10 9c bc
       0.0730764 0.052603826 -0.02029272 -0.019051062
0000b0 b8 c7 da 3b 03 e7 24 bd ae 1d a9 bd 19 90 5d 3c
       0.0066766404 -0.040259372 -0.08257614 0.013523125
0000c0 d7 85 da bd 7c 2f 66 3c c4 80 04 bd 87 6a 6e bd
       -0.10670059 0.014049407 -0.032349363 -0.05820706
0000d0 7d ba 22 3d 24 4f 58 3d 4d 49 9d 3c 74 56 88 bc
       0.03972863 0.05280985 0.019199992 -0.016642787
0000e0 2b bd 6e 3d 00 bd 4f bd 47 4e 11 be 23 5c db bd
       0.058285873 -0.050717354 -0.14190017 -0.10710933
0000f0 85 c9 2a 3d 09 57 28 3d 19 74 b4 bd 66 b5 92 bd
       0.04169609 0.04109863 -0.08811206 -0.07163505

arith.constant5 f4 [64]
000000 52 1e 6e 3f d6 cb 64 3f 34 9b 88 3f 41 ae 73 3f
       0.93015015 0.8937353 1.0672364 0.95187765
000010 17 0b 87 3f f4 32 6e 3f 70 ec 73 3f 1a 60 84 3f
       1.0550259 0.930465 0.9528265 1.0341828
000020 a9 7c 83 3f 9a 42 84 3f 88 3d 73 3f dd fd 89 3f
       1.0272418 1.0332825 0.95015764 1.0780598
000030 fd e0 87 3f 2a 5f 67 3f 87 4b 6f 3f 3d 9c 72 3f
       1.0615536 0.90379584 0.9347462 0.9476965
000040 34 9e 88 3f 31 60 8b 3f 1f ae 80 3f 1e 61 89 3f
       1.067328 1.088873 1.0053138 1.0732763
000050 f8 44 86 3f a5 2b 89 3f 0e 3a 72 3f a5 a9 63 3f
       1.0489798 1.0716444 0.94619834 0.8893073
000060 50 67 8b 3f b0 7f 8b 3f 5a 2e 7b 3f cf c2 6d 3f
       1.0890903 1.0898342 0.981176 0.9287538
000070 8d 42 8a 3f 09 c5 6a 3f e4 d4 86 3f fc 19 6b 3f
       1.080156 0.917069 1.0533719 0.91836524
000080 27 15 70 3f df ca 7e 3f 53 ff 61 3f 47 b0 6c 3f
       0.93782276 0.99528307 0.8828022 0.9245648
000090 7b 3f 87 3f fa ee 87 3f 0f 37 88 3f 1f ba 6c 3f
       1.0566248 1.0619805 1.0641803 0.924715
0000a0 b9 af 84 3f 81 39 8a 3f 6e f5 73 3f 6d b1 86 3f
       1.0366126 1.0798799 0.9529637 1.0522896
0000b0 87 10 74 3f 7a bb 6c 3f 1f 44 6e 3f 22 72 87 3f
       0.9533772 0.92473567 0.93072695 1.0581706
0000c0 c7 c4 67 3f bd 52 87 3f 76 c3 75 3f 54 4d 74 3f
       0.90534633 1.0572125 0.96001375 0.95430493
0000d0 dd b0 88 3f f0 48 89 3f d3 ff 83 3f f3 6c 70 3f
       1.0678974 1.0725384 1.0312446 0.93916243
0000e0 c4 d2 85 3f db b5 6c 3f 28 b8 68 3f 25 b3 6a 3f
       1.0454946 0.9246499 0.90906 0.916796
0000f0 38 8a 8a 3f 26 08 89 3f 6c be 73 3f 2e 0b 6e 3f
       1.0823431 1.0705612 0.95212436 0.9298581

arith.constant6 f4 [64]
000000 26 8d 51 3d 93 93 00 bd 3f c4 3d bd 1b 32 16 bc
       0.05116 -0.031390738 -0.046329733 -0.0091672195
000010 fa 47 ec bc 8c ec d0 3c 72 b0 0e bd d8 32 00 bd
       -0.028842915 0.02550342 -0.03483624 -0.03129849
000020 4b 37 37 ba db f5 01 3d 08 32 46 3d c6 a7 51 bd
       -0.0006989135 0.031728607 0.048387557 -0.05118539
000030 01 5d ea bc 36 a1 ab bc eb 41 3e 3d b2 7c 8c 3d
       -0.0286088 -0.020950895 0.046449583 0.06859721
000040 63 6f 43 3d 0b 30 3d 3d d8 d5 97 bd 99 7e 0c 3d
       0.04771365 0.046188395 -0.07413834 0.03430042
000050 f4 6a 53 3d 14 68 57 3d 2d 16 68 bd d6 c3 0f bd
       0.05161567 0.05258949 -0.056661773 -0.035098873
000060 ca af 2c bd ac 21 28 bd 9f 85 b5 bc 95 fe 10 3d
       -0.042159833 -0.041047737 -0.022158442 0.03539904
000070 40 5f fd 3c 74 13 f9 bc 3e c9 26 bc 04 20 0e 3c
       0.030929208 -0.030404784 -0.010179816 0.008674625
000080 e1 44 1a 3d df cb ce 3c 40 5b 70 bb d4 c4 85 3c
       0.037663344 0.025243698 -0.0036675483 0.016329207
000090 77 4c f1 bc fc 63 17 3d 73 4c 3d 3d 22 a5 1f 3d
       -0.029455407 0.036960587 0.046215486 0.038975842
0000a0 9c 90 0f 3e 7a c0 9a 3c 6a a4 8c bc f2 0b 17 3c
       0.14020008 0.018890608 -0.017168242 0.009219157
0000b0 52 e9 70 3d dd 35 37 bd 05 31 2b 3d 02 94 5d 3d
       0.05881626 -0.044729102 0.041794796 0.05409623
0000c0 ae 07 96 bc b9 66 2b 3d 23 ae 6c bd 46 cd b1 3c
       -0.018314209 0.04184601 -0.057783257 0.021704327
0000d0 07 f8 55 bd f7 28 49 3d 72 40 cf bc e5 ec b1 bd
       -0.05223849 0.049111333 -0.025299285 -0.08687762
0000e0 92 82 48 bc cc 36 a5 3c f3 9e eb bc 5a 4d a0 bc
       -0.012238162 0.02016773 -0.028762316 -0.019568134
0000f0 75 d4 37 bd 85 8d 25 bd 91 98 d2 3c 2f 17 12 bd
       -0.04488035 -0.040418167 0.025707515 -0.03566664

arith.constant7 f4 [64]
000000 4b 39 92 bd 0b 38 e9 bd f7 07 60 3d 6e f3 b9 bc
       -0.07139834 -0.113876425 0.054695096 -0.022699084
000010 3d c7 b0 bc 8a 64 93 bc 89 00 b1 bd fd 40 e4 3c
       -0.02157938 -0.017992277 -0.0864268 0.02786302
000020 a0 06 7e bd 0e 3c f1 ba c6 91 2f bd cd 98 89 3d
       -0.062018037 -0.0018404739 -0.04286363 0.067185976
000030 7b aa 8c 3d 90 08 9b bd 07 ea 84 bd b6 b9 a6 bd
       0.06868454 -0.075699925 -0.0648995 -0.0814089
000040 a9 3e 8b 3c 20 13 90 3d de 1a f7 3a 9c 6f 97 3d
       0.016997652 0.07034898 0.0018852612 0.07394335
000050 6d 20 6f 3d 64 59 77 3d 72 e7 a6 bd 17 3e 18 be
       0.058380533 0.060387984 -0.081496134 -0.14867435
000060 fc 51 4f 3d f2 f9 0f 3d 8f 0a 0b bd 9a 6d 6a bd
       0.050615296 0.035150476 -0.033945616 -0.05723343
000070 f9 7a c1 3d fa 73 96 bd bd b0 c0 3d 61 a5 a1 bd
       0.09447283 -0.073463395 0.0940871 -0.07892872
000080 0d fd 3d bd ee 3a 44 bd d9 1c ec bd 8f e7 88 bd
       -0.046383906 -0.047907762 -0.1152894 -0.06684791
000090 65 62 6e 3d a2 02 6a 3c a5 e0 54 bc 8c 8d 9c bd
       0.058199305 0.014282854 -0.012993013 -0.076441854
0000a0 e2 84 68 3d 90 71 79 3d a4 5d 14 bd cc 4d 37 3b
       0.056767352 0.060899317 -0.036222115 0.0027969955
0000b0 46 19 f5 bb 59 39 21 bd f8 a2 a6 bd fa b9 56 3d
       -0.0074798195 -0.03936133 -0.081365526 0.052423455
0000c0 05 1a d6 bd 56 de 2f 3d a2 cd 71 bd af 4b 91 bd
       -0.104541816 0.042936645 -0.059033997 -0.070945136
0000d0 22 6c 59 3d 9a 1e 91 3d 90 a4 ec 3c 18 c9 ee bc
       0.05308164 0.07085915 0.028887063 -0.029148623
0000e0 80 10 72 3d af 36 6a bd 0f 85 ee bd 0a 09 c0 bd
       0.059097767 -0.057181057 -0.11646473 -0.09376724
0000f0 17 b9 61 3d c4 50 44 3d 5d 6c ad bd 58 d3 9e bd
       0.055108156 0.047928587 -0.08467934 -0.07755154

arith.constant8 f4 [64, 128]
000000 34 a0 3a bc 02 95 9a 3d fa ab 91 bc 8d d3 9a 3b
       -0.011390734 0.07547952 -0.0177822 0.004724926
000010 09 36 27 bc ed 30 8f bc 66 c8 16 bd 83 ea b6 bd
       -0.010205754 -0.017479384 -0.03681221 -0.08931448
000020 ea 43 0a 3d d3 f9 da 3d 32 1e b3 3d 65 c5 75 3d
       0.033756174 0.106921814 0.08745994 0.060002703
000030 82 6e 56 3c 65 e8 28 bb fa 89 e7 bd 9a 6d 99 bc
       0.013087871 -0.0025773284 -0.11305614 -0.01872902
000040 87 05 c9 3d 2e f7 cd 3c c9 51 98 bd 8a 59 0e 3d
       0.098155074 0.025142279 -0.07437474 0.03475336
000050 e9 06 04 3c bc 41 1e bd 3b 22 f5 3c f2 94 35 ba
       0.008058288 -0.038636908 0.029923549 -0.00069267966
000060 a3 23 12 bc 0e d0 e4 bc 81 a9 91 bc 55 7b 0d bb
       -0.008919629 -0.02793124 -0.017781021 -0.0021588404
000070 70 ec 1b bd 16 a5 81 3d a4 8d e0 3c 93 6a 12 bd
       -0.03806728 0.06330316 0.02741129 -0.03574617
000080 2e 0e 21 3d f3 fb f0 bc cb d2 bc bd d8 4e 85 bd
       0.039320163 -0.029417014 -0.09219893 -0.06509179
000090 1f 75 09 3d 35 dc 2c 3c 50 9c 04 3d 28 65 44 bc
       0.03355896 0.010550548 0.032375634 -0.011987008
0000a0 68 bc 7a bc 95 e8 7f 3d 06 49 76 bd 55 53 b4 bd
       -0.015303709 0.062477667 -0.060128234 -0.08804957
0000b0 cc d6 9f bb 3f 63 73 3d ab 30 31 3c 3b 24 38 3c
       -0.0048779007 0.05942082 0.010814826 0.011239107
0000c0 eb 7c 97 3c 2c 56 ab 3a 10 14 4f 3c 5d 2e a3 bb
       0.018492183 0.0013071946 0.012639061 -0.004979892
0000d0 73 48 31 3d c7 83 a3 bc 72 9d c3 bc 74 13 92 bc
       0.043281984 -0.019960297 -0.023878787 -0.017831542
0000e0 d0 67 45 b9 b3 c2 e1 3c 59 d8 ac 3d 73 90 c4 3c
       -0.00018826057 0.02755866 0.084397025 0.02399466
0000f0 0b e2 3c 3c c9 29 74 bc c5 21 c8 ba c6 2a 5e 3d
       0.011528502 -0.0149025405 -0.0015268853 0.05424001
000100 57 e1 1b 3d 40 02 c3 3a c3 a4 09 bd 3f ab ca 3c
       0.038056698 0.001487799 -0.033604395 0.02473986
000110 b1 99 de bc b8 18 2e bc 8f 65 06 3d 3e 63 c8 bd
       -0.027172895 -0.010626011 0.032811698 -0.09784554
000120 56 18 56 bd f2 22 11 3d 5b c3 bb bb 49 08 9d 3c
       -0.052269302 0.035433717 -0.0057300753 0.01916899
000130 14 03 03 bd cd c0 7b bc fb a4 21 3d 7f d9 6c 3d
       -0.031985357 -0.0153657915 0.03946398 0.057824608
000140 37 e1 ee bb 6c b4 0d bc 09 e2 47 bd 2c 15 ab 3b
       -0.0072900313 -0.008648973 -0.04879955 0.0052210297
000150 da 79 66 bc cf f9 33 bd a4 b5 cf bc fd 55 ae bb
       -0.014067138 -0.043939408 -0.025355168 -0.005320309
000160 5e bc f6 bc f2 31 f1 3c a2 e7 9e bc b5 f6 c4 bd
       -0.030119117 0.029442761 -0.01939756 -0.09617368
000170 8c 7e 75 3b 7b 2e 80 bd 2a 79 8a 3d 4a 02 b4 bc
       0.003745946 -0.062588654 0.067613915 -0.021973748
000180 46 6f f6 bc 58 6b 8e 3d bc fa 94 bd de b1 02 bc
       -0.030082356 0.06954068 -0.07274386 -0.007976977
000190 35 be d6 3b 3a f2 ab bc 96 4e 8c bd 19 cb 16 ba
       0.006553436 -0.020989526 -0.068509266 -0.000575231
0001a0 71 a6 f4 3c b1 17 61 3c 38 0d ef ba 25 65 60 ba
       0.029864522 0.013738559 -0.0018238192 -0.00085599936
0001b0 4b 7b b6 bc 66 22 fb bb f8 37 80 3d 80 9c 49 3c
       -0.022275588 -0.0076640127 0.06260675 0.012305379
0001c0 77 a8 b6 3b 28 fd 39 3c ec 65 d6 3d fc cb f6 bc
       0.005574282 0.011351861 0.10468659 -0.030126564
0001d0 ce c7 2a 3c 86 9a 9b bd b1 06 62 3c 04 4c e2 3b
       0.010423614 -0.075978324 0.013795541 0.0069060344
0001e0 09 f5 ab bb 40 c8 69 3d fd 09 99 3c f2 23 a7 3c
       -0.0052477163 0.05707574 0.01868152 0.020402882
0001f0 b9 6d 29 3d a5 53 c5 bd 28 06 e1 b8 20 d2 89 bd
       0.041364405 -0.096350946 -0.00010729983 -0.06729531
000200 48 2a 35 bc 2c 9c fe 3b 29 8b a4 bc 5a db f9 ba
       -0.011057444 0.007770082 -0.020085888 -0.0019062564
000210 bf 38 93 bb 1c 19 3d bb 1d 8d f5 b9 c7 86 7f bb
       -0.0044928486 -0.0028854078 -0.0004683518 -0.0038990246
000220 0c b1 46 bb ae 6f e5 3b b8 8c 9c 3c 36 8f 63 3a
       -0.003031793 0.0070018386 0.019110069 0.0008680703
000230 01 b1 0f 3c 56 54 5b bc e9 9c 5c bc 14 08 34 bd
       0.008770228 -0.0133868065 -0.013465145 -0.043953016
000240 63 03 43 3c d8 7c f3 3b 05 72 2f bb 1c 5a 9a bc
       0.011902663 0.007430654 -0.0026770842 -0.018841796
000250 bb b3 82 3c 44 5c a8 ba b5 ae 09 bb aa 61 ac 3b
       0.015954843 -0.001284488 -0.0021008675 0.005260666
000260 30 47 24 ba 09 45 d6 ba f7 17 4e bc 1e d7 f8 b9
       -0.0006266711 -0.0016347478 -0.012578956 -0.0004746252
000270 72 fb 8b 3b 36 3c 67 ba 04 0f 7a bb bf 5b 7a bc
       0.004271918 -0.0008820923 -0.0038155923 -0.015280663
000280 af f9 1d ba 42 34 94 3b 04 c9 3c 39 ed 41 03 bc
       -0.00060262805 0.004522831 0.00018003961 -0.008011323
000290 2d aa e3 3b ea ff 7f 3b 30 d0 2d 3d ea 48 8d bc
       0.006947777 0.0039062449 0.04243487 -0.017246682
0002a0 e0 97 a3 3c e3 a6 74 3c e7 bf a0 bc 01 4b 11 3c
       0.01996988 0.014932367 -0.019622756 0.00886798
0002b0 a0 75 d5 3b c0 ba 00 3c 45 17 04 bc 65 16 45 bc
       0.006514266 0.007857025 -0.0080621885 -0.012029265
0002c0 1e f7 fd bb 72 d2 12 bd a6 0e ce bb 7e 44 bd bb
       -0.007750406 -0.035845228 -0.0062883673 -0.005775987
0002d0 6f 8d 1e 3d ee 50 d3 bc 43 e9 72 3c 00 6d f0 bc
       0.0387091 -0.025795426 0.014826122 -0.02934885
0002e0 98 c4 7f 3c 7b b7 7c bb 12 f4 3b bb 18 b1 18 3d
       0.015610836 -0.0038561511 -0.0028679413 0.037278265
0002f0 67 ad 25 3c d8 ad 00 3b 83 4a 27 3c d4 cc 69 3b
       0.010112143 0.001963487 0.010210636 0.0035675066
000300 28 e1 da 3a ee 77 b7 bb f9 e1 97 bc 2a d7 54 3c
       0.0016699182 -0.0055990135 -0.01854037 0.012990752
000310 e6 cf 8e 3b 80 b3 28 bc 63 28 70 3c df 11 8d 3b
       0.0043582795 -0.010296702 0.014658066 0.004305109
000320 34 f5 3d bc d4 36 aa 3c a6 34 bb ba d8 86 10 bb
       -0.0115941055 0.020778097 -0.0014282658 -0.002205303
000330 de 2e e5 bb 29 3c b8 bb 28 b6 55 39 c3 42 aa bb
       -0.0069941124 -0.005622406 0.00020381121 -0.005195947
000340 b2 85 28 3b cd a8 f5 3b fd 16 3b bb f4 4f ca bb
       0.0025714454 0.0074969293 -0.0028547638 -0.006174082
000350 6e 56 bc 3c 1e 0b b0 bb 37 09 d9 bb 30 44 d0 3b
       0.022990432 -0.005372419 -0.006623413 0.006355785
000360 c8 f0 9a bc 71 49 8d 3c 1f ac 36 bc 34 e9 e4 ba
       -0.018913642 0.017246934 -0.011149435 -0.001746452
000370 a2 a2 8f bb d9 71 64 bc 28 68 94 3b c5 4c 21 bd
       -0.004383401 -0.013943159 0.004529018 -0.039379854
000380 65 bd 31 bb 94 05 8d 3b fa 47 3e bc a7 a5 26 3c
       -0.0027120945 0.0043036435 -0.01161384 0.0101713305
000390 bc 1d 7f bc df c5 b8 bc 1e f9 42 bc db 56 1e bc
       -0.015571054 -0.02255529 -0.0119002145 -0.009664263
0003a0 be 28 03 3d 9a db 01 3b 2c b1 07 3c 1b ca d5 ba
       0.032021277 0.001981473 0.008281987 -0.0016310842
0003b0 b8 8d da 3b 38 a4 80 3b 2f 31 65 3c f8 a1 87 3b
       0.006669726 0.0039258264 0.013988777 0.004139181
0003c0 a5 cb 4f ba 21 75 54 bb 73 1d 8d bb 33 3a ad 3a
       -0.0007926769 -0.0032418447 -0.004306489 0.0013216197
0003d0 83 47 a3 3c b2 df 8e bc 16 c1 61 bb dc 56 2e bb
       0.01993156 -0.01744065 -0.0034447364 -0.0026602065
0003e0 44 70 d6 37 d7 40 27 3b 6f c2 84 3a 63 aa a6 bb
       2.5563066e-05 0.0025520825 0.0010128747 -0.0050862296
0003f0 6a 64 bc bb f3 e8 62 bc a6 c8 01 bc bc d5 9b bb
       -0.005749275 -0.013849485 -0.0079213735 -0.0047557037
