Riproduzione/Experimental/large_lstm_fixed_batch_1.tflite (tflite, 693948 bytes, 53 tensors)

sequential/dense_1/BiasAdd/ReadVariableOp f4 [32]
-0.10063871 0.32255873 -0.054202422 -0.115945354 0.22558509 1.1221187 1.126986 0.59196866
0.2050758 -0.055588305 1.1224111 0.93911034 0.4986574 -0.1018349 -0.096812375 0.69813025
0.8340093 -0.10709689 -0.08848543 -0.15906486 -0.10795266 -0.025243068 -0.11556165 0.52392256
-0.07871268 0.2991048 0.9488168 -0.0877405 -0.062544055 -0.30577907 1.1249374 -0.07829557
00000000: ab1b cebd 6b26 a53e 5c03 5ebd c274 edbd
00000010: c7ff 663e 96a1 8f3f 1441 903f 428b 173f
00000020: 64ff 513e 90b0 63bd 2bab 8f3f 8969 703f
00000030: 0650 ff3e d18e d0bd 9145 c6bd aab8 323f
00000040: a281 553f 9d55 dbbd d937 b5bd e6e1 22be
00000050: 4916 ddbd 8dca cebc 96ab ecbd ca1f 063f
00000060: 1d34 a1bd 4424 993e a8e5 723f 4bb1 b3bd
00000070: 1917 80bd 138f 9cbe f3fd 8f3f 6e59 a0bd

sequential/dense/BiasAdd/ReadVariableOp f4 [64]
0.3229776 -0.076145455 -0.068166986 0.17700323 0.112354636 -0.11392783 0.17550544 0.11666764
0.41428682 0.1434971 0.38594162 0.076842315 0.2914205 -0.05366603 0.5285767 0.33099923
0.7494066 -0.27770588 -0.07410802 -0.04356061 0.6180247 0.21418446 -0.05995552 0.1527206
0.38063416 -0.08573007 -0.08343668 -0.14235783 -0.124352664 -0.054043185 0.61579347 0.3833437
-0.059905242 -0.054844532 -0.009999446 0.28914297 0.6639202 -0.04124656 -0.07135962 0.026968064
-0.027867319 -0.0730927 -0.06857027 -0.10041157 -0.06527188 -0.06561759 -0.05263019 0.7841352
-0.15935092 0.3618576 0.48376724 0.2251876 0.68654126 0.08859541 -0.0758768 0.044235915
0.6003177 0.2574204 -0.0031854857 -0.06807109 -0.106355175 0.2609938 -0.01870792 0.5849778
00000000: 525d a53e 26f2 9bbd 229b 8bbd 5640 353e
00000010: 301a e63d fe52 e9bd b3b7 333e 72ef ee3d
00000020: 671d d43e e7f0 123e 249a c53e 815f 9d3d
00000030: 1135 953e e9d0 5bbd cd50 073f bb78 a93e
00000040: 1cd9 3f3f 772f 8ebe f2c5 97bd 9c6c 32bd
00000050: de36 1e3f 2c53 5b3e eb93 75bd ca62 1c3e
00000060: 7be2 c23e 3f93 afbd dae0 aabd 40c6 11be
00000070: 9cac febd 635c 5dbd a4a4 1d3f a045 c43e
00000080: 335f 75bd a9a4 60bd b7d4 23bc 8c0a 943e
00000090: adf6 293f 27f2 28bd fe24 92bd 21ec dc3c
000000a0: 014a e4bc a0b1 95bd 926e 8cbd 95a4 cdbd
000000b0: 43ad 85bd 8462 86bd c192 57bd 16bd 483f
000000c0: e32c 23be 6645 b93e 57b0 f73e 9497 663e
000000d0: 2bc1 2f3f 8371 b53d 4c65 9bbd b830 353d
000000e0: 6cae 193f 9bcc 833e 95c3 50bb db68 8bbd
000000f0: bed0 d9bd fba0 853e 5a41 99bc 1bc1 153f

arith.constant f4 [64, 64]
-0.19544551 0.96052444 -0.10865476 0.5430886 -0.4978372 -0.2678665 0.12695266 -0.3446149
-1.0273209 0.0987174 -0.44797313 -0.26313758 -0.581928 -0.12851718 -0.30980957 0.06313178
-0.15177217 0.11252602 0.9420488 -0.036687683 0.5782333 -0.41949624 0.30064297 0.05731606
0.314253 -0.2728588 -0.21265824 -0.047162767 0.10770863 -0.5316786 -0.63016886 -0.44408184
0.5206087 -0.8390293 -0.7362947 -0.5016892 -0.7388842 0.3916257 1.163558 0.9477162
-0.09727647 0.34067422 0.3988684 -0.5361767 -0.015543744 0.72248083 -0.42609245 0.8465233
-0.46019664 -1.0158737 0.28187603 -0.21846363 0.07500309 0.2940118 0.28872257 -0.53138435
0.12026944 0.73943096 0.027834684 -0.08093994 -0.2485677 0.3914419 0.31259847 0.060668107
0.1544022 0.21214941 -0.048046503 0.12288027 -0.30630672 -0.18134047 -0.15557736 -0.07319843
0.013195885 -0.020519825 0.46549338 0.05157857 0.05034232 -0.24762328 -0.06974771 0.56131446
-0.07810357 -0.21024062 -0.907323 -0.24394487 -0.29322165 -0.21387611 -0.60012865 -0.10620638
0.102647275 -0.23133467 0.47521895 0.1779983 -0.29814208 -0.080379486 0.101618536 -0.14000095
-0.3223899 0.05272627 0.29443923 -0.03035713 -0.10527675 -0.59823537 -0.14457744 -0.053767074
-0.13294257 -0.09290818 -0.41494218 0.06935184 -0.020699337 0.27165344 0.58609354 0.21468526
0.2787682 -0.4826245 0.16750355 0.76386553 -0.23493214 -0.04005946 -0.013688087 0.32458746
0.18462057 -0.04638614 -0.32298428 -0.016800826 -0.2716224 0.14817724 -0.05371808 -0.402727
-0.007079013 0.42965323 1.2186068 0.42132628 0.11603552 -0.26686656 0.19637616 -0.4951347
-0.6527013 0.32701957 -0.13078202 0.038823243 -0.31862497 0.41180244 -0.2622638 0.1044874
-0.609694 -0.0108283395 -0.10707396 0.07344195 0.71831715 0.5555125 0.30463907 -0.09790111
-0.16178125 0.43713287 -0.7421719 -0.44954553 0.14730233 0.06602739 -0.7455964 1.0469197
0.18928114 -0.3593795 -0.56357896 -0.3480709 -0.18835236 0.29159424 0.49107075 0.24920411
0.051148903 0.26044413 -0.4356134 -0.4392197 0.19259337 0.4117179 0.39445353 0.8313226
-1.4343444 -0.03673101 -0.20788896 -0.023851244 0.8145138 -0.17874815 0.4846007 -0.2414008
0.09415447 0.5032436 -0.010110412 -0.2839757 0.52825135 -0.08427895 0.36465597 -0.23099701
-0.023297476 0.06376284 0.30493274 0.036463946 -0.1575986 -0.8126982 -0.33567947 -0.22598094
0.21262541 0.2566496 0.49225938 0.0958924 0.0778922 -0.38827926 -0.025204422 0.8839314
0.07004094 0.18104814 -0.12877066 -0.40039387 0.16600597 -0.5681873 0.08168177 -0.037561372
0.13477571 -0.28685656 -0.040127512 0.5222629 -0.44390777 -0.1704305 -0.32642788 -0.12534972
0.14751422 -0.090615734 0.08235611 -0.14996605 -0.024222996 0.19179907 -0.1345104 0.7165142
0.3168919 -0.119264156 0.07326754 -0.34159622 -0.19132687 0.08768949 -0.098522596 0.17309713
-0.20170309 -0.052442476 -0.14929245 -0.0067374785 -0.2616014 -0.21329391 -0.18948965 -0.13933744
-0.32146576 0.16066842 -0.0008352105 -0.06565165 -0.53298116 0.4231565 0.68069315 0.18863559
00000000: de22 48be eee4 753f 6386 debd db07 0b3f
00000010: 84e4 febe cc25 89be e1ff 013e 5d71 b0be
00000020: 407f 83bf 592c ca3d bc5c e5be f8b9 86be
00000030: 3cf9 14bf 029a 03be 5c9f 9ebe 3c4b 813d
00000040: 2a6a 1bbe 0b74 e63d 1c2a 713f d345 16bd
00000050: 1907 143f 36c8 d6be e0ed 993e 3fc4 6a3d
00000060: c5e5 a03e 26b4 8bbe 15c3 59be bf2d 41bd
00000070: 5896 dc3d 171c 08bf bf52 21bf b25e e3be
00000080: 9d46 053f a0ca 56bf cf7d 3cbf b46e 00bf
00000090: 8427 3dbf 2a83 c83e 78ef 943f 879d 723f
000000a0: e338 c7bd da6c ae3e 7b38 cc3e e042 09bf
000000b0: 30ab 7ebc 81f4 383f ca28 dabe c0b5 583f
000000c0: e59e ebbe 2608 82bf 0e52 903e eeb4 5fbe
000000d0: 389b 993d b788 963e 72d3 933e ce08 08bf
000000e0: d34f f63d 594b 3d3f 9005 e43c d7c3 a5bd
000000f0: 8888 7ebe 136b c83e e80c a03e 1f7f 783d
00000100: 9c1b 1e3e b23d 593e 69cc 44bd a7a8 fb3d
00000110: 3cd4 9cbe 51b1 39be ac4f 1fbe 0fe9 95bd
00000120: 8e33 583c 3119 a8bc 2655 ee3e 0d44 533d
00000130: c033 4e3d f590 7dbe e3d7 8ebd 4eb2 0f3f
00000140: c4f4 9fbd 5149 57be 5246 68bf afcc 79be
00000150: 2621 96be 5702 5bbe 08a2 19bf bb82 d9bd
00000160: bc38 d23d ffe2 6cbe e64f f33e 3045 363e
00000170: 14a6 98be 009e a4bd 611d d03d 695c 0fbe
00000180: 4a10 a5be 80f7 573d bdc0 963e 84af f8bc
00000190: 569b d7bd f425 19bf 1c0c 14be dd3a 5cbd
000001a0: 1922 08be a546 bebd 4d73 d4be 5608 8e3d
000001b0: a891 a9bc 2916 8b3e 3a0a 163f 74d6 5b3e
000001c0: b5ba 8e3e 8f1a f7be 0d86 2b3e b18c 433f
000001d0: 0d92 70be 6315 24bd 0044 60bc 5430 a63e
000001e0: 2d0d 3d3e 65ff 3dbd 325e a5be e3a1 89bc
000001f0: 1712 8bbe c6bb 173e 7d07 5cbd 3c32 cebe
00000200: 11f7 e7bb 82fb db3e 4ffb 9b3f 14b8 d73e
00000210: 08a4 ed3d bca2 88be d516 493e 4c82 fdbe
00000220: 6f17 27bf 1c6f a73e b9eb 05be 1f05 1f3d
00000230: d022 a3be c5d7 d23e 7147 86be 7dfd d53d
00000240: e814 1cbf 5969 31bc 9849 dbbd bc68 963d
00000250: a2e3 373f 1136 0e3f a7f9 9b3e 6180 c8bd
00000260: fca9 25be e1cf df3e fafe 3dbf d52a e6be
00000270: 6cd6 163e 5e39 873d 68df 3ebf 7701 863f
00000280: ead2 413e 9700 b8be b646 10bf 5936 b2be
00000290: 71df 40be d74b 953e a06d fb3e 5d2f 7f3e
000002a0: 8381 513d ef58 853e b808 dfbe 68e1 e0be
000002b0: 3237 453e b0cc d23e d0f5 c93e 8fd1 543f
000002c0: 9998 b7bf 4173 16bd d8e0 54be af63 c3bc
000002d0: fa83 503f c109 37be 951d f83e c531 77be
000002e0: 0fd4 c03d 93d4 003f 24a6 25bc 4365 91be
000002f0: 7b3b 073f 719a acbd 30b4 ba3e 7b8a 6cbe
00000300: 59da bebc 1896 823d 2520 9c3e 385b 153d
00000310: 8761 21be fd0c 50bf 2ede abbe 8c67 67be
00000320: 7aba 593e 9467 833e 6c09 fc3e 3c63 c43d
00000330: f285 9f3d 8acc c6be 8179 cebc 5449 623f
00000340: a071 8f3d af64 393e 75dc 03be 6d00 cdbe
00000350: 78fd 293e b974 11bf c648 a73d f4d9 19bd
00000360: a502 0a3e ddde 92be bf5c 24bd 05b3 053f
00000370: e147 e3be 5585 2ebe 8e21 a7be ad5b 00be
00000380: f80d 173e be94 b9bd 52aa a83d b390 19be
00000390: 4e6f c6bc fa66 443e 18bd 09be 7a6d 373f
000003a0: a83f a23e c440 f4bd 4b0d 963d b3e5 aebe
000003b0: 31eb 43be 8c96 b33d 37c6 c9bd 6040 313e
000003c0: 418b 4ebe eccd 56bd 1fe0 18be 11c6 dcbb
000003d0: 9ef0 85be b869 5abe 9309 42be 79ae 0ebe
000003e0: 2997 a4be 4386 243e 07f2 5aba 5f74 86bd
000003f0: 7471 08bf f8a7 d83e e841 2e3f b029 413e

arith.constant1 f4 [64, 64]
-0.55887586 0.48434845 -0.73454237 0.052319467 -0.07063839 -0.55285174 -0.03745136 0.14539428
-0.65457475 -0.07174938 0.11393028 0.35447448 -0.6935029 -0.18351181 0.05819391 0.22518961
-0.57170933 -0.12297217 0.11987764 -0.06853052 -0.09552695 -0.1955828 -0.40370917 0.014892442
0.4982546 -0.43646398 -0.4051561 0.119104765 -0.38867798 -0.6065802 -0.52646697 -0.8369464
0.14287587 -0.46512735 -0.6546325 -0.23442708 -0.38604954 -0.32359484 0.9286003 0.52271384
-0.08570048 0.65336907 -0.10826938 0.06847233 -0.47178733 0.37969697 0.0060154116 0.02671459
0.14688085 -0.6371906 -0.2764425 0.34809205 0.04850204 0.21438432 0.33167624 0.23427802
-0.068045944 0.36594328 -0.5541282 -0.725309 -0.25305274 0.21975143 0.41130972 -0.79044455
0.32671046 0.35972357 -0.216748 0.18894355 -0.24793945 -0.6296745 -0.17878106 0.0695982
-0.3191355 -0.08452354 0.7111146 0.5856553 -0.13977338 -0.19302493 0.10831225 0.6367085
-0.2162427 -0.38323632 -0.53874284 -0.6168335 -0.06322691 -0.057120092 -0.20960173 0.039473955
0.36246538 -0.2268005 0.36185277 0.22460286 -0.64830834 -0.39638442 -0.0006199584 -0.43569046
-0.59213084 0.453158 0.0973184 0.2361016 -0.5943471 -0.4134175 -0.08733392 0.01440639
-0.0064403457 -0.25133964 -0.41476122 0.0950027 -0.1492693 0.454284 0.49788803 0.34576926
0.3694272 -0.73224014 0.08023556 0.4428563 -0.12467178 0.45239732 0.21656682 0.37432346
0.5126221 -0.0389856 -0.2541444 0.22714533 -0.37377524 0.55947423 0.028335383 -0.33072606
-0.78097135 -0.51914394 -0.20949636 0.016912919 0.8009838 -0.25602016 0.011146186 -0.0023725333
0.19306608 -0.31981358 0.5879995 0.11497207 -0.31724194 0.68232536 0.15182035 0.6815141
-0.7409851 0.00955805 -0.494107 -0.51846176 -0.17804882 0.6544296 -0.034762457 0.02449158
0.096668124 0.9053166 -0.57450956 -0.24252085 -0.5996528 -0.06967863 -1.1271813 0.5342225
0.13836797 0.057117622 -0.8988078 -0.32707012 -0.41378492 -0.6840201 0.60299563 0.35637316
-0.41932157 0.027100965 -0.57263345 0.17559296 -0.26203248 -0.010828316 -0.38857692 -0.1850921
-0.08367339 0.7735335 0.26198304 0.6872898 0.6819137 -0.085547365 0.6192796 0.20372552
0.15257402 0.39862117 -0.32164928 -0.70994467 0.41476086 0.25375542 -0.6460597 -0.51205605
-0.21424186 -0.619825 -0.11118761 -0.26114857 0.7205321 0.3822501 -0.27307716 0.049589284
0.4110313 0.04949197 -0.5214567 0.12990296 0.16249812 -0.13067244 0.11684255 0.47455075
-0.09579644 -0.28930855 -1.3187505 -0.031078847 -0.82776237 0.09268296 -0.8114073 -0.21597792
-0.44515702 -0.31944314 -0.4765164 -0.018157423 -0.38652575 0.13754666 0.22632554 0.0704188
-0.3446544 0.42524743 -0.28724456 -0.17613795 0.1292734 -0.17331207 0.5975878 -0.36614802
-0.33497602 -0.18264137 0.11034119 0.19032569 -0.25408944 -0.3656878 0.6259794 -0.42386127
0.31193998 0.6944914 0.025430012 0.9939692 -0.27803075 0.1014557 -0.06776993 0.037608135
-0.083839126 -0.004376111 -0.053758025 -0.19254518 -0.30291718 -0.44812033 -0.5132842 -0.09560849
00000000: 7d12 0fbf 85fc f73e f80a 3cbf f04c 563d
00000010: dcaa 90bd b187 0dbf 9966 19bd 3de2 143e
00000020: 3692 27bf 57f1 92bd 4754 e93d ae7d b53e
00000030: 6889 31bf 85ea 3bbe bd5c 6e3d 1b98 663e
00000040: 8b5b 12bf d5d8 fbbd 6882 f53d bb59 8cbd
00000050: a2a3 c3bd dc46 48be f8b2 cebe 6eff 733c
00000060: 3a1b ff3e 3578 dfbe 9f70 cfbe 33ed f33d
00000070: cd00 c7be d748 1bbf 8ac6 06bf 1f42 56bf
00000080: 0d4e 123e 2c25 eebe ff95 27bf a70d 70be
00000090: 49a8 c5be 39ae a5be c0b8 6d3f 93d0 053f
000000a0: bc83 afbd 3243 273f 56bc ddbd 393b 8c3d
000000b0: 1c8e f1be a467 c23e ee1c c53b 8ed8 da3c
000000c0: ef67 163e ec1e 23bf df89 8dbe 1f39 b23e
000000d0: 13aa 463d 9087 5b3e 78d1 a93e 94e6 6f3e
000000e0: ac5b 8bbd eb5c bb3e 59db 0dbf daad 39bf
000000f0: 2190 81be 8506 613e 3097 d23e 935a 4abf
00000100: 9846 a73e b02d b83e 30f3 5dbe 6b7a 413e
00000110: d7e3 7dbe 5932 21bf 6212 37be 8089 8e3d
00000120: ba65 a3be ae1a adbd 9b0b 363f 81ed 153f
00000130: c120 0fbe 54a8 45be d0d2 dd3d 54ff 223f
00000140: ba6e 5dbe 8d37 c4be 0deb 09bf cde8 1dbf
00000150: 1c7d 81bd c2f6 69bd d6a1 56be 71af 213d
00000160: 1095 b93e 643e 68be c444 b93e 4bfe 653e
00000170: 89f7 25bf e6f2 cabe b484 22ba d212 dfbe
00000180: e395 17bf 5304 e83e df4e c73d 9ec4 713e
00000190: 2227 18bf 75ab d3be 20dc b2bd c708 6c3c
000001a0: 8909 d3bb 97af 80be 955b d4be c790 c23d
000001b0: 0dda 18be ea97 e83e 2eeb fe3e ab08 b13e
000001c0: 9025 bd3e 1774 3bbf 8b52 a43d 10be e23e
000001d0: eb53 ffbd 9fa0 e73e b1c3 5d3e 53a7 bf3e
000001e0: 343b 033f 5daf 1fbd 371f 82be c998 683e
000001f0: 785f bfbe b439 0f3f 9b1f e83c ed54 a9be
00000200: bded 47bf 9ee6 04bf 3786 56be f68c 8a3c
00000210: 460d 4d3f 1315 83be 7e9e 363c 817c 1bbb
00000220: 1db3 453e 9bbe a3be 2387 163f 7a76 eb3d
00000230: 896d a2be e0ac 2e3f cb76 1b3e b577 2e3f
00000240: 33b1 3dbf 5e99 1c3c 98fb fcbe e9b9 04bf
00000250: 6e52 36be b388 273f 1463 0ebd 91a2 c83c
00000260: f0f9 c53d d4c2 673f 0f13 13bf 6357 78be
00000270: d982 19bf abb3 8ebd 7a47 90bf cec2 083f
00000280: 55b0 0d3e 2bf4 693d 4518 66bf bc75 a7be
00000290: 9edb d3be f11b 2fbf ec5d 1a3f 8b76 b63e
000002a0: 51b1 d6be d802 de3c 1b98 12bf a4ce 333e
000002b0: 1f29 86be 4069 31bc 8ef3 c6be c988 3dbe
000002c0: f45c abbd 4b06 463f a422 863e 39f2 2f3f
000002d0: e591 2e3f 7533 afbd 1c89 1e3f 6c9d 503e
000002e0: 5d3c 1c3e 1318 cc3e 37af a4be efbe 35bf
000002f0: 895b d43e 3bec 813e 2b64 25bf 1b16 03bf
00000300: 3862 5bbe daac 1ebf 54b6 e3bd 44b5 85be
00000310: cb74 383f 49b6 c33e c5d0 8bbe 221e 4b3d
00000320: b272 d23e 18b8 4a3d 307e 05bf 4805 053e
00000330: e865 263e ffce 05be 264b ef3d 51f8 f23e
00000340: ed30 c4bd 4020 94be d1cc a8bf 1199 febc
00000350: 3ce8 53bf 90d0 bd3d 64b8 4fbf 5129 5dbe
00000360: 9feb e3be 0d8e a3be f5f9 f3be e0be 94bc
00000370: b4e6 c5be 08d9 0c3e e2c1 673e bb37 903d
00000380: 8b76 b0be 08ba d93e b811 93be 825d 34be
00000390: 3f60 043e b878 31be 84fb 183f c177 bbbe
000003a0: fa81 abbe 5706 3bbe 90fa e13d bde4 423e
000003b0: 0318 82be 6e3b bbbe 3040 203f 5804 d9be
000003c0: 99b6 9f3e 30ca 313f 9a52 d03c c474 7e3f
000003d0: 0c5a 8ebe 02c8 cf3d f6ca 8abd fd0a 1a3d
000003e0: d9b3 abbd 7b65 8fbb 6031 5cbd 902a 45be
000003f0: f617 9bbe 0770 e5be 9866 03bf 62ce c3bd

arith.constant2 f4 [64, 64]
-0.57217866 -0.10105398 -0.32256588 -0.6860633 -0.2449172 -0.592742 -0.51254386 0.2181282
0.60428774 -0.40028885 0.5380822 0.6726417 0.40478 -0.47325164 0.03827844 0.511276
0.19939421 -0.6065906 -0.5423529 -0.5564904 -0.4656103 -0.18809484 -0.30385882 -0.016302565
-0.25185245 -0.26308867 0.6600029 0.8466974 -0.3424256 0.34254584 0.011736521 0.088661835
-0.34180447 0.35330722 0.102324955 0.043116365 -0.44599208 -0.46787468 -0.20945723 -0.3701541
0.09465581 -0.5878294 -0.6906006 0.3665388 -0.21583508 0.018843163 0.21519609 -0.4154048
-0.080986656 -0.30617702 0.27518293 0.61488587 -0.36364704 -0.2556017 -0.123741806 0.31112668
0.10991772 -0.23665719 -0.39600873 -0.12210978 -0.10227208 0.5149869 -0.3452855 -0.36918733
-0.07818062 0.5125556 0.18692225 -0.0003987416 -0.54729813 -0.19617362 0.0071974266 -0.40487936
0.30008975 0.33735734 -0.6320399 -0.45068443 0.208372 -0.26721978 -0.35754326 -0.24472521
0.45290744 0.13258107 -0.2412348 -0.015544143 -0.45187968 -0.37835243 -0.10042555 0.014809246
-0.32273254 -0.41656014 -0.03063895 0.4028169 0.37963644 0.07689506 -0.031376544 0.14841522
-0.19219324 -0.2806286 0.06792797 -0.2198653 0.12609375 0.22120027 0.041187696 0.1630856
0.2035864 0.012373266 -0.12919591 -0.24737419 0.22830747 -0.1367694 0.5675093 0.29038143
-0.30493376 0.03371087 -0.120751604 -0.13600121 -0.21234028 -0.3155679 0.14314541 -0.12170344
-0.3362748 -0.28933853 0.22041568 -0.21771508 -0.34361804 0.20130077 -0.037033103 0.11425636
0.28438267 -0.018600868 -0.5008059 -0.1372843 0.18197693 -0.5698465 -0.21885437 0.3310278
-0.49779308 -0.3098457 1.0642104 0.2331466 0.14967062 0.23283654 0.31674448 0.6396438
-0.33711502 -0.055664722 0.46502817 -0.52253723 0.5229149 0.18612178 0.38302407 -0.33122343
0.18245533 0.3112058 0.2696509 -0.017198388 -0.3232345 -0.17517118 -0.21961543 0.010710695
-0.17123973 0.25397366 0.30613548 -0.06287316 -0.5728135 -0.0972504 -0.35221526 0.10845774
-0.054524615 -0.31272715 0.4341914 0.10686119 0.41768157 0.36345306 -0.5064485 -0.114729054
0.0624699 -0.14672734 -0.026217699 0.1468773 0.35362145 0.33252096 0.037335888 0.2874102
0.47829336 0.43976498 0.1292638 0.3820848 0.30362624 0.14664674 0.22289048 0.027863234
-0.23270287 0.11541943 -0.58963925 0.27462506 0.2778734 0.13991846 0.015300224 0.018890547
0.18091652 0.23973396 -0.3220356 -0.3507967 0.19710177 -0.14904939 -0.058725912 0.06270079
0.3330301 0.4721559 0.17199981 1.0311074 -0.04323338 -0.10138556 -0.35192752 0.15759595
0.24077539 -0.2573478 0.03264909 0.28352967 0.3949658 -0.012582956 -0.2545514 -0.22924884
0.4322428 0.037797473 0.030574689 -0.18692258 0.25034058 0.0614917 -0.030890904 -0.12195092
-0.1967648 0.30552512 0.24184029 0.24517055 -0.06859758 -0.118106656 -0.36830863 -0.21555549
0.38216072 -0.080021165 0.01923827 -0.183001 -0.29450792 -0.25866184 0.22745235 0.1061164
-0.04407767 0.0013417816 0.0772814 -0.11409004 -0.28022623 -0.17277679 0.28612602 0.4131433
00000000: 4d7a 12bf 64f5 cebd 5b27 a5be d8a1 2fbf
00000010: 93cb 7abe f1bd 17bf 1336 03bf 005d 5f3e
00000020: 9ab2 1a3f a9f2 ccbe c1bf 093f 3f32 2c3f
00000030: 533f cf3e 0a4e f2be dac9 1c3d fce2 023f
00000040: ff2d 4c3e 8649 1bbf a4d7 0abf 2876 0ebf
00000050: 7964 eebe ef9b 40be 6293 9bbe f58c 85bc
00000060: cef2 80be 8fb3 86be f3f5 283f 29c1 583f
00000070: 6952 afbe 2b62 af3e 894a 403c 5694 b53d
00000080: ff00 afbe afe4 b43e bf8f d13d c99a 303d
00000090: 1359 e4be 458d efbe f57b 56be d784 bdbe
000000a0: e8da c13d fd7b 16bf 33cb 30bf f9aa bb3e
000000b0: df03 5dbe fa5c 9a3c 5d5c 5c3e f0af d4be
000000c0: 55dc a5bd 3cc3 9cbe c7e4 8c3e 2969 1d3f
000000d0: f22f babe 3ade 82be 586c fdbd ff4b 9f3e
000000e0: 8b1c e13d 4356 72be a8c1 cabe b114 fabd
000000f0: 0674 d1bd 2ed6 033f 43c9 b0be 1f06 bdbe
00000100: 291d a0bd d836 033f 8c68 3f3e 310e d1b9
00000110: bb1b 0cbf bde1 48be 64d8 eb3b 594c cfbe
00000120: 5da5 993e 1aba ac3e 5ecd 21bf 1cc0 e6be
00000130: 785f 553e 08d1 88be e90f b7be 3f99 7abe
00000140: 7ce3 e73e 55c3 073e 4106 77be dcac 7ebc
00000150: c65c e7be 69b7 c1be e9ab cdbd 7ba2 723c
00000160: 333d a5be 5f47 d5be 89fe fabc 043e ce3e
00000170: b55f c23e 287b 9d3d b184 00bd 29fa 173e
00000180: 4ece 44be 8dae 8fbe d21d 8b3d 5f24 61be
00000190: b81e 013e 5382 623e 6eb4 283d e9ff 263e
000001a0: f478 503e 3db9 4a3c ef4b 04be a94f 7dbe
000001b0: 6fc9 693e 470d 0cbe 4a48 113f e0ac 943e
000001c0: 4720 9cbe 6914 0a3d 9e4c f7bd e743 0bbe
000001d0: bb6f 59be 1e92 a1be b694 123e a73f f9bd
000001e0: 362c acbe 2e24 94be a6b4 613e b4f0 5ebe
000001f0: b4ee afbe ca21 4e3e 06b0 17bd 3dff e93d
00000200: 9b9a 913e d960 98bc d134 00bf 4194 0cbe
00000210: 2958 3a3e 76e1 11bf 5c1b 60be 7a7c a93e
00000220: bcde febe 18a4 9ebe 0c38 883f fbbd 6e3e
00000230: 4143 193e b46c 6e3e 552c a23e b2bf 233f
00000240: 579a acbe b100 64bd 2c18 ee3e 00c5 05bf
00000250: c0dd 053f b596 3e3e bb1b c43e 1e96 a9be
00000260: 92d5 3a3e 5e56 9f3e af0f 8a3e a2e3 8cbc
00000270: fe7e a5be 1360 33be dee2 60be e97b 2f3c
00000280: 7859 2fbe d608 823e cabd 9c3e a5c3 80bd
00000290: e8a3 12bf 382b c7bd 8f55 b4be 171f de3d
000002a0: 3455 5fbd c61d a0be 564e de3e 0ada da3d
000002b0: 5cda d53e 8516 ba3e 9ca6 01bf 11f7 eabd
000002c0: 70e0 7f3d b13f 16be 80c6 d6bc 0167 163e
000002d0: df0d b53e 3040 aa3e 84ed 183d 6e27 933e
000002e0: dee2 f43e e028 e13e bb5d 043e 9ea0 c33e
000002f0: e674 9b3e 902a 163e 673d 643e 7041 e43c
00000300: a949 6ebe 0661 ec3d 99f2 16bf a89b 8c3e
00000310: 6c45 8e3e c946 0f3e caad 7a3c 59c0 9a3c
00000320: 2e42 393e d27c 753e dae1 a4be a09b b3be
00000330: 0cd5 493e 67a0 18be 958a 70bd 4669 803d
00000340: ec82 aa3e 6bbe f13e b820 303e 54fb 833f
00000350: 7c15 31bd 3ca3 cfbd d82f b4be d560 213e
00000360: d38d 763e 17c3 83be 0dbb 053d cd2a 913e
00000370: f538 ca3e be28 4ebc 9054 82be 35c0 6abe
00000380: ee4e dd3e 86d1 1a3d c577 fa3c a268 3fbe
00000390: a42c 803e b9de 7b3d ec0e fdbc 67c1 f9bd
000003a0: b67c 49be ca6d 9c3e fba4 773e fd0d 7b3e
000003b0: e37c 8cbd e7e1 f1bd f392 bcbe 94ba 5cbe
000003c0: 92aa c33e 23e2 a3bd 9499 9d3c 9d64 3bbe
000003d0: bec9 96be 536f 84be 45e9 683e 8e53 d93d
000003e0: c98a 34bd b8de af3a b645 9e3d 0aa8 e9bd
000003f0: d079 8fbe 66ec 30be 1c7f 923e 8587 d33e

arith.constant3 f4 [64, 64]
-0.019293675 0.6569974 -0.31678236 0.27248636 -0.14846207 -0.27119136 -0.05903281 -0.21004736
0.1281588 -0.14667647 -0.039258596 -0.046976436 -0.04358486 -0.27076632 -0.33581123 0.17102352
0.13071296 0.0921645 0.22353819 0.3514889 -0.29064527 -0.06688731 -0.064764865 -0.12619568
-0.034568183 -0.22981317 -0.1865358 0.2560504 0.038946867 -0.18769048 -0.088065095 -0.24725167
-0.05130218 -0.1609927 -0.2988884 -0.20409603 -0.22742698 0.32306913 0.36100203 0.16483311
0.2494627 0.05776227 -0.10620363 0.071139306 -0.03483172 0.29041305 0.12458549 -0.055251032
-0.045252178 -0.44071022 -0.3182338 -0.32043618 -0.16990435 -0.1712582 0.2844988 0.018265706
-0.024764782 0.12601668 0.10764859 -0.07828285 -0.27626047 0.38129357 0.12521312 0.14879805
-0.09927199 -0.25650075 -0.04832659 0.14170982 -0.017603911 -0.7449 -0.10938202 0.22605121
-0.23911263 -0.39026028 0.765801 0.0071584033 -0.08439704 0.13146704 0.20323099 1.0966395
-0.5282174 -0.4202325 -0.44406345 -0.5326995 0.25080258 -0.018459382 -0.45549294 -0.08511942
0.08518868 -0.031645715 -0.3852106 -0.31238306 -0.6987816 0.0022714844 -0.20314972 -0.058474757
-0.27662107 0.3225356 -0.33645582 -0.13896115 -0.5866423 -0.42615765 0.21190211 0.24696924
-0.19894966 -0.24212003 -0.051719446 -0.12361034 -0.13016917 0.23797418 0.24643385 0.14467874
0.13728783 -0.17357591 0.35404828 0.33871603 0.10311727 0.30998594 0.37660882 0.37011966
0.37396055 0.018465243 -0.23950292 -0.09042646 0.13104849 0.062397078 -0.011816383 -0.23577334
-0.2453278 -0.39723745 0.36223045 -0.512716 0.07275808 -0.0072855614 -0.007927328 0.177126
-0.06715363 -0.28660268 0.20404597 0.71069974 -0.4642854 0.25552195 0.31651852 0.11264085
-0.42512095 -0.18953225 -0.6423231 -0.32790422 -0.16266488 0.7620824 0.077637345 -0.27611312
0.38969454 0.1963949 0.06438768 -0.11596077 -0.51897573 -0.19447885 -0.41594684 0.1218048
-0.1303683 0.6203835 -0.28533462 0.5221016 -0.24295765 -0.8809722 0.25372908 -0.0043028737
-0.22063391 -0.3266247 -0.23191853 -0.049542263 -0.5135571 0.4081093 0.14749558 -0.17899877
-0.17260972 0.630761 0.10988832 0.44298625 0.3768602 0.45559853 0.030723836 0.31792778
0.34852442 0.49788222 -0.6105891 -0.11310527 0.117534846 0.0145586375 -0.38691747 -0.51113683
0.17300425 0.10805558 -0.023740808 0.11313922 0.25950703 -0.2289172 -0.31721014 -0.13016404
-0.16832559 0.19529267 -0.17681828 0.25562468 -0.09305218 -0.1437881 0.038768966 0.40434563
0.10238225 -0.20044772 -0.029751176 -0.58277017 -0.082934454 0.08228137 0.006891981 -0.3344478
-0.22124347 -0.1999766 0.2628046 0.2126097 -0.13881111 -0.22002017 0.1823676 -0.097765505
0.31109172 0.0558714 0.2007062 0.010667812 -0.0596023 0.14823663 -0.087287806 0.08105405
0.04879185 0.08024187 -0.12619236 -0.18047655 -0.30558896 0.05868557 0.12260715 0.3591449
-0.30114156 -0.13243048 0.084867865 -0.13448715 -0.18763648 0.13102153 -0.12671293 -0.12862943
0.17663577 -0.17915381 -0.0190173 0.09587688 -0.34161454 0.10902132 0.20502536 0.5321614
00000000: c50d 9ebc fb30 283f 4c31 a2be 5583 8b3e
00000010: 7106 18be 98d9 8abe 63cc 71bd a816 57be
00000020: 0f3c 033e 5b32 16be 9fcd 20bd 5d6a 40bd
00000030: 0a86 32bd e2a1 8abe 73ef abbe ca20 2f3e
00000040: 9ed9 053e bec0 bc3d 32e7 643e 5af6 b33e
00000050: 75cf 94be 37fc 88bd 71a3 84bd 7139 01be
00000060: 5e97 0dbd 2554 6bbe 3e03 3fbe 0a19 833e
00000070: c086 1f3d ef31 40be 795b b4bd 8b2f 7dbe
00000080: 3c22 52bd 45db 24be e607 99be 8dfe 50be
00000090: 9ee2 68be 5169 a53e 42d5 b83e 03ca 283e
000000a0: 2673 7f3e 2198 6c3d 4a81 d9bd 7cb1 913d
000000b0: b5ab 0ebd 05b1 943e ad26 ff3d e84e 62bd
000000c0: 595a 39bd c5a4 e1be 8aef a2be 3610 a4be
000000d0: 68fb 2dbe 4f5e 2fbe d4a9 913e f6a1 953c
000000e0: 83df cabc 840a 013e dd76 dc3d c252 a0bd
000000f0: 0372 8dbe e938 c33e de37 003e 845e 183e
00000100: 1d4f cbbd 1154 83be 1af2 45bd 611c 113e
00000110: 1436 90bc c4b1 3ebf ae03 e0bd f879 673e
00000120: f1d9 74be 32d0 c7be 890b 443f 0a91 ea3b
00000130: 5bd8 acbd 4c9f 063e c91b 503e af5e 8c3f
00000140: 4139 07bf b728 d7be 495c e3be ff5e 08bf
00000150: 3269 803e 2138 97bc 5f36 e9be 1753 aebd
00000160: 6777 ae3d f09e 01bd 533a c5be acf0 9fbe
00000170: 5ae3 32bf 2fdd 143b 7b06 50be 3a83 6fbd
00000180: 47a1 8dbe 6323 a53e f043 acbe d54b 0ebe
00000190: 312e 16bf 5631 dabe defc 583e 81e5 7c3e
000001a0: 76b9 4bbe 50ee 77be c5d7 53bd 6b27 fdbd
000001b0: 114b 05be 81af 733e 2859 7c3e aa26 143e
000001c0: 2e95 0c3e e2bd 31be d145 b53e 306c ad3e
000001d0: 262f d33d 7ab6 9e3e dfd2 c03e 5380 bd3e
000001e0: c277 bf3e 6c44 973c 4140 75be 8231 b9bd
000001f0: 9331 063e 1494 7f3d 8199 41bc 916e 71be
00000200: 3637 7bbe b562 cbbe 4576 b93e 5b41 03bf
00000210: 3002 953d b8bb eebb a0e1 01bc 8560 353e
00000220: d887 89bd 96bd 92be 6df1 503e 6bf0 353f
00000230: d1b6 edbe c6d3 823e b70e a23e 3fb0 e63d
00000240: 74a9 d9be be14 42be 496f 24bf 10e3 a7be
00000250: 9f91 26be d517 433f 5400 9f3d b35e 8dbe
00000260: 0b86 c73e bf1b 493e b0dd 833d d77c edbd
00000270: 98db 04bf 7725 47be fcf6 d4be cc74 f93d
00000280: 457f 05be 74d1 1e3f 6117 92be 73a8 053f
00000290: e4c9 78be 6587 61bf c7e8 813e 1fff 8cbb
000002a0: dbed 61be 5a3b a7be 0d7c 6dbe d4ec 4abd
000002b0: 7a78 03bf b4f3 d03e 1509 173e 744b 37be
000002c0: 9ac0 30be 8e79 213f 210d e13d 18cf e23e
000002d0: d2f3 c03e 3644 e93e 8eb0 fb3c 6ec7 a23e
000002e0: cb71 b23e 6bea fe3e 914f 1cbf bca3 e7bd
000002f0: 1cb6 f03d 5a87 6e3c 0c1a c6be ddd9 02bf
00000300: 0728 313e 3e4c dd3d 157c c2bc 89b5 e73d
00000310: 1bde 843e 4569 6abe 5e69 a2be b949 05be
00000320: 8b5d 2cbe cdfa 473e da0f 35be 3de1 823e
00000330: 2492 bebd 303d 13be 35cc 1e3d 6406 cf3e
00000340: c9ad d13d 2b42 4dbe bdb8 f3bc 6d30 15bf
00000350: 8ad9 a9bd 2383 a83d 20d6 e13b be3c abbe
00000360: a68d 62be aac6 4cbe 538e 863e 5bb6 593e
00000370: 8024 0ebe f84c 61be 92be 3a3e 4839 c8bd
00000380: 6a47 9f3e 69d9 643d ed85 4d3e 0cc8 2e3c
00000390: 8b21 74bd 58cb 173e f3c3 b2bd aaff a53d
000003a0: f7d9 473d d955 a43d 9238 01be d8ce 38be
000003b0: 2876 9cbe 4860 703d 7519 fb3d d7e1 b73e
000003c0: 3a2f 9abe db9b 07be 34cf ad3d 00b7 09be
000003d0: c723 40be 822a 063e 09c1 01be 6fb7 03be
000003e0: 02e0 343e 1974 37be 2bca 9bbc 195b c43d
000003f0: 1ae8 aebe 9246 df3d 2bf2 513e bb3b 083f

arith.constant4 f4 [64]
-0.44014215 -0.16827251 -0.07412897 -0.10270286 0.100002445 0.2506049 -0.0048739943 -0.41562188
0.11104525 -0.3782287 -0.2116982 -0.3113927 -0.31763417 -0.07478911 -0.045445118 0.15437415
0.017148795 0.35563186 0.53488374 0.32302094 0.17852512 -0.16626595 0.14449286 -0.50989795
-0.0048926095 -0.116846204 -0.8321021 -0.044048928 0.027897563 -0.122299455 0.27708176 -0.09073999
0.28380808 0.332899 -0.19779706 0.06663962 0.04684007 0.2599062 -0.629188 0.08874596
-0.20159996 0.15014754 0.516694 0.093202725 -0.11009311 0.09920428 0.30303606 0.04079824
-0.09677585 0.37481886 -0.3341227 0.22549316 -0.013589535 -0.4456901 -0.23145792 0.06959321
-0.10728447 0.015439821 -0.058593914 -0.8655517 -0.1175973 0.25963232 0.088376515 0.6686551
00000000: 505a e1be a14f 2cbe eed0 97bd e155 d2bd
00000010: 15ce cc3d 494f 803e 07b6 9fbb 64cc d4be
00000020: b16b e33d 31a7 c1be 6ac7 58be dd6e 9fbe
00000030: f2a0 a2be 082b 99bd a924 3abd 4214 1e3e
00000040: a17b 8c3c 6115 b63e 24ee 083f 0063 a53e
00000050: 4acf 363e 9f41 2abe f0f5 133e ac88 02bf
00000060: 2f52 a0bb 104d efbd a504 55bf a66c 34bd
00000070: 6e89 e43c 2378 fabd a9dd 8d3e e3d5 b9bd
00000080: 4b4f 913e bd71 aa3e 508b 4abe 5a7a 883d
00000090: 60db 3f3d 6d12 853e 7712 21bf 71c0 b53d
000000a0: 3870 4ebe 47c0 193e 0f46 043f 12e1 be3d
000000b0: 7f78 e1bd 9d2b cb3d 8b27 9b3e 0e1c 273d
000000c0: 6b32 c6bd 42e8 bf3e 2112 abbe aee7 663e
000000d0: a4a6 5ebc 7e31 e4be 4e03 6dbe e386 8e3d
000000e0: f6b7 dbbd 4ef7 7c3c 2c00 70bd cc94 5dbf
000000f0: dad6 f0bd 87ee 843e bffe b43d fb2c 2b3f

arith.constant5 f4 [64]
0.7211728 0.91668904 1.4336855 1.3441911 0.826747 1.2719673 0.6913672 0.73220766
1.2651047 0.5595395 0.746462 0.6432495 0.76987255 0.80009305 0.55237263 0.88507736
0.93823165 0.6433634 1.6723547 1.2998224 1.5005976 0.43342322 1.6054149 0.5568236
0.928022 0.8055986 0.57122606 0.6537065 0.817441 0.766556 0.8216662 0.94084775
0.59332335 0.30806145 0.41809 0.6020298 0.8741175 0.6229251 0.69072616 1.6464977
0.9329048 0.7478321 0.93942016 0.9655172 0.76246524 0.64495194 0.3861124 1.2625287
1.2482365 1.2223645 0.6943081 0.9172518 0.8144322 0.48194253 0.62465763 1.0046229
0.8830333 0.7104348 0.8390441 0.51757276 0.8252808 2.1026292 0.90440065 0.5351906
00000000: c89e 383f 22ac 6a3f 0283 b73f 740e ac3f
00000010: b1a5 533f d3cf a23f 71fd 303f f671 3b3f
00000020: f3ee a13f fb3d 0f3f 2218 3f3f 00ac 243f
00000030: 5e16 453f e6d2 4c3f 4b68 0d3f 6e94 623f
00000040: f32f 703f 77b3 243f b80f d63f 9560 a63f
00000050: 9513 c03f a6e9 dd3e 3c7e cd3f fe8b 0e3f
00000060: da92 6d3f b63b 4e3f df3b 123f 4f59 273f
00000070: d043 513f 043d 443f b758 523f 66db 703f
00000080: 0ae4 173f 3bba 9d3e e40f d63e a01e 1a3f
00000090: 2ac6 5f3f 0578 1f3f 6ed3 303f 70c0 d23f
000000a0: d9d2 6e3f ed71 3f3f d77d 703f 232c 773f
000000b0: ec30 433f 921b 253f 86b0 c53e 8a9a a13f
000000c0: 37c6 9f3f 7176 9c3f 2dbe 313f 04d1 6a3f
000000d0: a17e 503f 2cc1 f63e 90e9 1f3f 7c97 803f
000000e0: 780e 623f 0edf 353f 98cb 563f a67f 043f
000000f0: 9a45 533f 7a91 0640 cd86 673f 4002 093f

arith.constant6 f4 [64]
-0.13099574 -0.36354747 -0.07326913 0.00037246672 0.0011326416 -0.17880276 -0.09354552 -0.103225455
0.25888032 0.16310944 -0.14431481 0.15342571 0.16207519 -0.061102346 0.018725587 0.36712977
0.03134973 -0.13342524 -0.6887516 -0.14219426 -0.10458378 0.31794238 -0.15425655 0.19942878
0.0066637145 -0.094519034 -0.037222825 0.040955916 -0.035145834 -0.15126508 -0.021724757 -0.018680409
-0.21720588 0.2008282 -0.069282055 0.08652739 -0.010570126 -0.12906334 -0.11484053 0.20756525
0.01738667 -0.10926727 -0.18681164 -0.06111999 -0.12193075 0.011534761 0.23356517 -0.08557568
0.21036305 0.2759294 0.12247735 0.17484005 -0.16274227 -0.251862 0.066339456 -0.10619955
-0.05411406 -0.13759543 -0.09814414 -0.07780799 -0.08672602 0.020010754 -0.048534684 -0.37071425
00000000: bf23 06be e522 babe 200e 96bd a347 c339
00000010: 2575 943a 1218 37be cb94 bfbd de67 d3bd
00000020: f68b 843e 2906 273e 43c7 13be a11b 1d3e
00000030: 0af7 253e 7446 7abd 6766 993c 6ff8 bb3e
00000040: 9368 003d a0a0 08be 0652 30bf 5f9b 11be
00000050: 0530 d6bd 58c9 a23e 6ef5 1dbe 0f37 4c3e
00000060: 4a5b da3b 3293 c1bd f676 18bd 64c1 273d
00000070: 14f5 0fbd 3ce5 1abe 1ef8 b1bc a807 99bc
00000080: 386b 5ebe e8a5 4d3e c0e3 8dbd 4635 b13d
00000090: 522e 2dbc 2e29 04be 8331 ebbd fc8b 543e
000000a0: 7d6e 8e3c 85c7 dfbd 8d4b 3fbe f458 7abd
000000b0: d4b6 f9bd 4bfc 3c3c b52b 6f3e 4d42 afbd
000000c0: 6969 573e 9e46 8d3e 68d5 fa3d 4509 333e
000000d0: e9a5 26be 0ef4 80be fbdc 873d 267f d9bd
000000e0: b4a6 5dbd d1e5 0cbe cbff c8bd cc59 9fbd
000000f0: 699d b1bd 98ed a33c 4ecc 46bd 42ce bdbe

arith.constant7 f4 [64]
-0.42489174 -0.16627602 0.15819126 -0.030769167 -0.13615778 0.32936457 0.019093508 -0.6771505
-0.0899486 -0.48065096 0.091529176 -0.32025942 -0.5035237 -0.020996807 -0.21843661 0.26823926
-0.03218534 0.42055908 0.46343902 0.63837874 0.02180223 -0.12146231 -0.08242035 -0.36650926
0.0024957005 -0.078237414 -0.6977924 -0.07921673 -0.19081675 -0.26376465 0.24083157 0.0029011318
0.308813 0.38096243 -0.18224809 0.03851264 0.094070904 0.2075451 -0.49971077 0.052646004
-0.42361426 0.30794466 0.43970624 0.022772308 -0.09391747 -0.16862392 0.18245254 -0.19169562
-0.3989695 0.0061793663 -0.39647487 0.36713967 0.07043387 -0.5943887 -0.26535264 0.11700516
-0.16763076 -0.08098372 0.012166604 -0.7834274 -0.12617458 0.119841434 0.14244753 0.49570042
00000000: 698b d9be 4344 2abe e4fc 213e 9f0f fcbc
00000010: f26c 0bbe 79a2 a83e fd69 9c3c bc59 2dbf
00000020: f936 b8bd e217 f6be a673 bb3d 0bf9 a3be
00000030: eee6 00bf 7f01 acbc d9ad 5fbe a856 893e
00000040: c6d4 03bd 8553 d73e e147 ed3e ca6c 233f
00000050: 979a b23c 3bc1 f8bd 00cc a8bd 1aa7 bbbe
00000060: e88e 233b f03a a0bd 86a2 32bf 623c a2bd
00000070: 7765 43be 290c 87be 8d9c 763e ea20 3e3b
00000080: bd1c 9e3e 820d c33e 3e9f 3abe 6ebf 1d3d
00000090: 3fa8 c03d b486 543e 17da ffbe 56a3 573d
000000a0: f8e3 d8be ecaa 9d3e 2d21 e13e fe8c ba3c
000000b0: cd57 c0bd c0ab 2cbe d7d4 3a3e db4b 44be
000000c0: bb45 ccbe 487c ca3b c1fe cabe bbf9 bb3e
000000d0: a23f 903d dc29 18bf 4ddc 87be 67a0 ef3d
000000e0: 66a7 2bbe cbda a5bd 7056 473c b38e 48bf
000000f0: e933 01be 6d6f f53d c4dd 113e 72cc fd3e

arith.constant8 f4 [64, 128]
-0.001462912 -0.0062882663 0.0013090832 0.0008832807 1.921432e-05 0.0054514506 0.00058492617 0.00038671162
0.0015676052 0.0022910894 0.00095761375 -0.00069165515 -0.0017028458 -0.00027710278 0.0012487215 -0.002959332
0.00012159973 0.0008949798 -3.145382e-05 0.005546742 0.008462744 -0.0014486088 -0.002928501 0.0013389962
-0.0012169232 0.0013127874 0.0006834103 0.001328188 -9.79758e-05 0.00012308292 0.010975201 -0.0026375565
0.00076881185 -0.0001448973 -0.00024164181 0.0008209548 0.0015493272 0.0003002472 -3.9299914e-05 -0.0008104888
0.00073708 0.0012348061 -0.0014395714 -0.0011891577 0.001268294 -0.0015086347 -0.00088388805 -0.0010467442
0.0017543151 9.72054e-05 -0.0027228037 -0.00050161855 0.00027795683 -0.0011445207 -0.0017786861 -0.0026144974
0.0024110477 -0.0009419288 0.0010774626 0.0032227125 -0.0018047504 0.0036197328 -0.00028897775 -0.00024540446
0.0011630862 0.00066872645 0.0028657913 -0.0008211788 -9.310937e-05 -0.004270515 0.0072563607 0.0016559359
0.0010620235 0.0013640791 0.00020330297 -0.0014951286 -0.00080173725 -0.001267367 0.0070653856 -0.00014105071
-2.0112897e-05 -0.00067509926 0.0010030734 0.0011998625 0.0018434057 -0.0004650215 0.0047577466 0.003975129
0.0010109878 -4.779356e-05 -1.7757052e-06 0.00014633198 -0.00012231329 -0.0021318786 -0.00651817 0.00024190951
-4.5277724e-05 0.0008607415 0.00018214849 -0.0049617407 2.6048587e-05 0.00079893006 0.004139047 0.0005091747
0.00093289855 0.0006238779 -0.0005214161 -0.00039048216 -0.0010705135 -0.0022705046 0.0018917961 0.0006779959
0.0013836357 -0.0013470302 -7.4065633e-06 0.0016439805 -0.00010298414 0.00024343834 0.0010928187 0.0012066528
0.00085728447 0.00019490682 -8.7835055e-05 0.000146184 0.0014126964 -0.0016437558 0.004245222 -0.0009963801
-0.006106315 0.028839886 0.008231454 -0.00076576613 0.0046703005 0.028466098 -0.0075762277 -0.0019095087
0.021302875 0.011147642 -0.004298827 -0.010917694 -0.006773371 -0.00046251187 0.0009394197 -0.012797685
0.006152728 0.0028326495 -0.002053514 -0.02489198 -0.06823154 -0.010368782 -0.008228131 0.016566813
0.038365886 0.0030758318 0.0016877472 0.0005900247 -0.01886805 0.0061267545 0.003947135 -0.009204734
0.007952325 -0.004802907 -0.008539405 0.0002747032 0.008383937 -0.0019717014 -0.007993863 -0.0023440805
-0.0055342396 0.011162797 -0.008150128 7.106143e-05 -0.009182435 -0.0105866995 -0.012364133 -0.022633074
0.037429493 0.003038108 -0.00016391523 -0.0008030229 -0.003132145 -0.009284657 -0.0022193952 -0.012991305
0.0020912532 -0.0037765056 -0.017464792 -5.64808e-05 9.82962e-05 -0.010341118 -0.0039722216 -0.015866091
0.010074293 0.002652193 0.0076663075 -0.0008872615 0.0039140205 -0.0072020725 -0.004731277 0.0646406
-0.007697971 0.0128652705 -0.0027933344 0.021008475 0.006998512 -0.009793253 0.012978102 -0.0019619958
0.006708859 -0.005994498 0.0030869849 0.0052255346 0.004980008 0.00089184375 0.0034302946 0.003064952
0.025465338 0.0024919198 0.0011576054 -0.007018488 -0.005448267 -0.01183283 0.05539965 -0.004118163
-0.0031099597 0.0031748514 -0.0008514943 -0.021521049 -0.015560988 0.002911573 0.016829273 -0.0057996446
0.006544086 -0.0013392096 -0.009377608 0.0026325379 -0.008287784 -0.0022257478 0.00396771 -0.012514014
-0.0029280786 -0.006663818 -0.0015784473 0.018000752 -0.0032941503 -0.0013748722 0.0042626956 -0.0029594977
-0.0072905254 0.0010869099 0.007208086 0.0012811781 0.004174681 0.00049858965 -0.06820876 -0.011915126
00000000: 2ebf bfba cd0d cebb 8b95 ab3a f78b 673a
00000010: 702e a137 15a2 b23b bb55 193a 8ebf ca39
00000020: 1a78 cd3a 1a26 163b 5f08 7b3a 3150 35ba
00000030: 0632 dfba 1b48 91b9 24ac a33a 5af1 41bb
00000040: 5c03 ff38 149d 6a3a 48ed 03b8 72c1 b53b
00000050: 52a7 0a3c 3fdf bdba 18ec 3fbb 4281 af3a
00000060: 2b81 9fba d611 ac3a e426 333a 9816 ae3a
00000070: 5b78 cdb8 d20f 0139 54d1 333c dbda 2cbb
00000080: 178a 493a 93ef 17b9 3b61 7db9 5835 573a
00000090: cb12 cb3a 7f6a 9d39 f6d5 24b8 fc76 54ba
000000a0: 9a38 413a 38d9 a13a 00b0 bcba 83dd 9bba
000000b0: e33c a63a 61bd c5ba b9b4 67ba e832 89ba
000000c0: 0cf1 e53a c0da cb38 1171 32bb 0d7f 03ba
000000d0: bcba 9139 be03 96ba cd22 e9ba fd57 2bbb
000000e0: ab02 1e3b c6eb 76ba a539 8d3a 2534 533b
000000f0: 608d ecba 0a39 6d3b f081 97b9 a1a9 80b9
00000100: b272 983a 794d 2f3a 00d0 3b3b 6044 57ba
00000110: b643 c3b8 adef 8bbb c4c6 ed3b fd0b d93a
00000120: 9833 8b3a e6ca b23a ba2d 5539 31f8 c3ba
00000130: ad2b 52ba c81d a6ba c084 e73b 03e7 13b9
00000140: 1eb8 a8b7 25f9 30ba 8f79 833a b444 9d3a
00000150: 6e9e f13a 21ce f3b9 dfe6 9b3b cd41 823b
00000160: 1f83 843a f275 48b8 c454 eeb5 b170 1939
00000170: 3941 00b9 fdb6 0bbb 5f96 d5bb 17a9 7d39
00000180: 96e8 3db8 62a3 613a 1dff 3e39 1996 a2bb
00000190: ea82 da37 4a6f 513a d8a0 873b 237a 053a
000001a0: c38d 743a bd8b 233a a4af 08ba a1b9 ccb9
000001b0: 7950 8cba bfcc 14bb 25f6 f73a 89bb 313a
000001c0: 1c5b b53a d58e b0ba e585 f8b6 d57a d73a
000001d0: 30f9 d7b8 7b43 7f39 e93c 8f3a 8d28 9e3a
000001e0: 63bb 603a e75f 4c39 1634 b8b8 f848 1939
000001f0: 3a2a b93a 4b73 d7ba 811b 8b3b f898 82ba
00000200: 7c17 c8bb a041 ec3c 38dd 063c b2bd 48ba
00000210: 5209 993b bc31 e93c 0142 f8bb 7b48 faba
00000220: 5e83 ae3c 99a4 363c 2ddd 8cbb 21e0 32bc
00000230: 27f3 ddbb 4b7d f2b9 6443 763a 62ad 51bc
00000240: d39c c93b f9a3 393b 3f94 06bb 44ea cbbc
00000250: fabc 8bbd d3e1 29bc 48cf 06bc 20b7 873c
00000260: 8c25 1d3d e593 493b 6637 dd3a e3ab 1a3a
00000270: 2b91 9abc f1c2 c83b f856 813b 74cf 16bc
00000280: 784a 023c b461 9dbb dce8 0bbc 0a06 9039
00000290: c85c 093c a937 01bb b1f8 02bc 259f 19bb
000002a0: 9158 b5bb 2ae4 363c 1d88 05bc d106 9538
000002b0: ed71 16bc d673 2dbc ef92 4abc ff68 b9bc
000002c0: ab4f 193d ff1a 473b a9e0 2bb9 f481 52ba
000002d0: ac44 4dbb ad1e 18bc 4673 11bb 7cd9 54bc
000002e0: 680d 093b 407f 77bb 5312 8fbc cce5 6cb8
000002f0: 5f24 ce38 cb6d 29bc 6929 82bb 9bf9 81bc
00000300: a60e 253c 6ad0 2d3b a635 fb3b 1d97 68ba
00000310: 2f41 803b 5dff ebbb d408 9bbb 4a62 843d
00000320: 433f fcbb dbc8 523c 6010 37bb f719 ac3c
00000330: c653 e53b e173 20bc 1ba2 543c d494 00bb
00000340: fdd5 db3b 7e6d c4bb 034f 4a3b f63a ab3b
00000350: 562f a33b 9fca 693a cbce 603b 5ddd 483b
00000360: af9c d03c 7a4f 233b cbba 973a 58fb e5bb
00000370: 6087 b2bb 7cde 41bc beea 623d a8f1 86bb
00000380: 77d0 4bbb 2b11 503b d136 5fba e94c b0bc
00000390: 84f3 7ebc 17d0 3e3b 8bdd 893c f20a bebb
000003a0: c66f d63b 6b88 afba 8aa4 19bc a886 2c3b
000003b0: 7cc9 07bc dadd 11bb 9003 823b 9407 4dbc
000003c0: 02e5 3fbb 285c dabb e7e3 ceba 5076 933c
000003d0: ace2 57bb 0e35 b4ba 15ae 8b3b 22f4 41bb
000003e0: 5ce5 eebb a576 8e3a cf31 ec3b 34ed a73a
000003f0: c3cb 883b c9b3 023a 09b1 8bbd a937 43bc

arith.constant9 f4 [64, 128]
-0.000988815 -0.0008915585 0.0005449334 0.00049225613 0.00047179632 0.003237465 -0.004481797 0.0026025425
0.0067713545 -0.0034103596 -0.003980034 0.0014745118 -0.00096664607 0.0003797484 0.0013622531 -0.0018482098
0.00013073027 0.00089000905 -0.00022391572 0.0027147082 -0.004678992 -0.0015087985 -0.0017439326 0.0024051117
0.0057558925 0.00012042241 0.0014827742 0.0015761006 -0.0052410085 0.00068760157 -0.006700032 -0.0011278344
0.0003842269 -0.0009456817 0.0013569049 0.00045150903 0.0014365056 0.0018342052 0.00084836775 -0.0016416055
0.0028139492 0.00259686 -0.0008440074 -0.001192532 -0.0004628228 -0.0005183256 -0.0015084594 -4.9314247e-05
0.0060611656 0.0005816093 -0.0026706646 -0.0007435201 0.0021998445 -0.0020436693 -0.0012528622 9.3366274e-05
0.00029402625 0.00031233602 -0.0029267708 0.0036787563 -0.0030768826 0.003908688 -0.0014481348 -0.0019918375
0.0029900419 -0.00011867173 0.0014753321 -0.0012600614 0.00059904065 -0.0029123141 0.008968841 0.002886338
-0.0013472727 0.0014105706 0.0011430911 0.003328223 -0.0013493281 -0.0048522963 0.0033522188 0.00069262326
0.0017900926 -0.0021386207 -0.0086317435 0.0005984484 0.00078918866 -0.0024290804 -0.0020222198 0.002916652
0.006283279 0.0006442172 -0.0030930343 -0.00065123895 0.00047602065 -0.0013463981 0.0050215153 -0.0037429102
-0.0006809001 0.0026927607 -0.00055783865 0.0090036765 0.0005618706 -0.00018414327 0.0006998816 -0.0011204227
0.0020328069 0.0013942706 -0.0054272283 0.00015018534 0.00038627064 -0.001273515 0.0025077106 -0.003782095
-0.0006085333 -0.0013353932 -0.0006455198 0.006072315 -0.0012913416 0.001092264 0.0017527394 0.0011333063
0.0022116615 0.0006648965 0.00047478513 0.00027679058 0.0015204782 -0.004709282 -0.00076917675 0.00037282615
-0.004419569 0.049849857 0.005793858 0.0057937847 0.0023609865 0.046094324 -0.003814783 -0.003105274
0.013749747 0.024837904 0.0059083467 -0.010309126 -0.008265399 -0.002928841 0.0042949016 -0.013486804
-0.004389409 0.0020075487 -0.0028736263 0.00918594 -0.04244035 -0.003383712 0.004047241 0.009248151
0.024901778 0.0046173274 -0.003553916 -0.0019843532 -0.006208878 0.0053323805 0.06853981 -0.01129856
0.002454889 -0.004159799 -0.006791818 0.00980854 0.007799203 -0.0014729421 -0.007981316 -0.0011772747
-0.014174473 0.00383145 -0.011461157 -0.0015845583 -0.008868891 -0.0061672507 0.0019862768 -0.03606014
0.05996625 0.0024617221 0.0027863723 0.0058179186 -0.00085814 -0.0073542157 -0.008991862 -0.01589863
0.002306398 -0.0036568863 -0.027122142 -0.0016872055 0.005117452 -0.024601681 -0.0014309165 -0.014892346
-0.0036026933 -0.006282712 0.003513341 0.000744265 0.0037171305 0.013138084 -0.012769651 0.08480915
-0.0089046 0.0010889343 -0.00426046 0.021453474 0.013300572 -0.0049281963 0.012533731 -0.007682888
0.006676992 -0.007163937 0.042445105 0.0030063188 0.001255809 0.007586536 -0.0018226268 -0.007368465
0.028059825 0.0059427326 0.004783287 0.008349978 0.0027349114 -0.0064333994 0.080093436 -0.001309681
-0.0055236714 -0.023007246 0.0052326005 -0.0033236109 -0.02197296 -0.0036447304 0.021067122 -0.00088656356
0.0002891488 -0.0039510108 0.0021572097 0.0037549098 -0.008332626 0.0083776135 0.0025626165 -0.0014806772
-0.0038607393 -0.0063041695 -0.002995507 0.013927797 0.00069910754 -0.002516934 0.005028348 -0.007258448
-0.011332962 0.0011561819 0.0011644869 0.0010622486 0.0043475255 -0.0030499394 -0.07159074 -0.014232243
00000000: 209b 81ba 7ab7 69ba ddd9 0e3a c00a 013a
00000010: 6e5b f739 a62b 543b 0adc 92bb 6b8f 2a3b
00000020: 3de2 dd3b 5780 5fbb f26a 82bb 6844 c13a
00000030: 8566 7dba f818 c739 a18d b23a a13f f2ba
00000040: a414 0939 7f4f 693a ebca 6ab9 3fe9 313b
00000050: 3b52 99bb e0c2 c5ba ab94 e4ba 149f 1d3b
00000060: ed9b bc3b 4a8b fc38 a559 c23a 2995 ce3a
00000070: c4bc abbb 2940 343a f18b dbbb d8d3 93ba
00000080: 1072 c939 a0e7 77ba 2cda b13a 84b8 ec39
00000090: 2149 bc3a b769 f03a ff64 5e3a 242b d7ba
000000a0: 3c6a 383b 1530 2a3b 6140 5dba bc4e 9cba
000000b0: 06a7 f2b9 3ee0 07ba 80b7 c5ba c5d6 4eb8
000000c0: be9c c63b 2477 183a 5106 2fbb cae8 42ba
000000d0: 442b 103b 15ef 05bb 1437 a4ba a3cd c338
000000e0: 8927 9a39 08c1 a339 11cf 3fbb 4a17 713b
000000f0: 86a5 49bb 7414 803b 57cf bdba 7d89 02bb
00000100: 94f4 433b 66df f8b8 ee5f c13a a528 a5ba
00000110: f008 1d3a 86dc 3ebb 0cf2 123c b728 3d3b
00000120: f896 b0ba e5e2 b83a c6d3 953a 511e 5a3b
00000130: f0db b0ba 0300 9fbb e6b0 5b3b 2991 353a
00000140: 8aa1 ea3a 1a28 0cbb 286c 0dbc 31e1 1c3a
00000150: 8ee1 4e3a 3531 1fbb 3887 04bb 4d25 3f3b
00000160: f7e3 cd3b afe0 283a 81b4 4abb e8b7 2aba
00000170: 6992 f939 a079 b0ba 868b a43b 9d4b 75bb
00000180: 6f7e 32ba 0779 303b eb3b 12ba 2884 133c
00000190: 7f4a 133a 9516 41b9 4278 373a 26db 92ba
000001a0: d738 053b f5bf b63a e4d6 b1bb 127b 1d39
000001b0: 5e84 ca39 13ec a6ba 6758 243b 06dd 77bb
000001c0: fa85 1fba 5c08 afba 1a38 29ba 45fa c63b
000001d0: 3c42 a9ba 4c2a 8f3a 2dbc e53a 738b 943a
000001e0: 86f1 103b 734c 2e3a 95ec f839 341e 9139
000001f0: c84a c73a 5250 9abb 94a2 49ba e177 c339
00000200: 08d2 90bb 5d2f 4c3d 67da bd3b cad9 bd3b
00000210: c8ba 1a3b 67cd 3c3d 7001 7abb da81 4bbb
00000220: 9e46 613c dc78 cb3c ce9a c13b 9ce7 28bc
00000230: 996b 07bc ccf1 3fbb 3fbc 8c3b c2f7 5cbc
00000240: 08d5 8fbb 1491 033b 7353 3cbb a080 163c
00000250: efd5 2dbd 44c1 5dbb b89e 843b 8f85 173c
00000260: d0fe cb3c f34c 973b d1e8 68bb ec0b 02bb
00000270: d873 cbbb 40bb ae3b 9a5e 8c3d 981d 39bc
00000280: 34e2 203b ec4e 88bb e68d debb 00b4 203c
00000290: 7590 ff3b bc0f c1ba 11c4 02bc c94e 9aba
000002a0: 0c3c 68bc 1019 7b3b 94c7 3bbc f4b0 cfba
000002b0: d34e 11bc a616 cabb 322c 023b ccb3 13bd
000002c0: 2c9f 753d d854 213b 929b 363b 3da4 be3b
000002d0: cdf4 60ba a2fb f0bb 9a52 13bc d83d 82bc
000002e0: f026 173b 5fa8 6fbb 412f debc 3925 ddba
000002f0: 4cb0 a73b 7789 c9bc 978d bbba 07ff 73bc
00000300: 2a1b 6cbb 35df cdbb 1540 663b c71a 433a
00000310: 1a9b 733b 1e41 573c cc37 51bc 6bb0 ad3d
00000320: 99e4 11bc 92ba 8e3a 549b 8bbb 32bf af3c
00000330: a4ea 593c b57c a1bb 475a 4d3c bcc0 fbbb
00000340: abca da3b 76bf eabb ebda 2d3d a905 453b
00000350: f599 a43a 7a98 f83b 35e5 eeba 2a73 f1bb
00000360: b8dd e53c 41bb c23b 1fbd 9c3b 59ce 083c
00000370: 333c 333b 44cf d2bb 0708 a43d 9aa9 abba
00000380: eaff b4bb b179 bcbc 3c76 ab3b f0d0 59bb
00000390: a300 b4bc 6edc 6ebb f594 ac3c 4668 68ba
000003a0: e598 9739 7b77 81bb f95f 0d3b ef14 763b
000003b0: 9185 08bc 4242 093c 92f1 273b 4813 c2ba
000003c0: 7504 7dbb 3593 cebb 4550 44bb 6a31 643c
000003d0: 5044 373a 25f3 24bb d7c4 a43b 46d8 edbb
000003e0: e3ad 39bc 078b 973a b2a1 983a 263b 8b3a
000003f0: b075 8e3b 7ee1 47bb 2a9e 92bd 5b2e 69bc
