Riproduzione/Experimental/sine_model.tflite (tflite, 3168 bytes, 5 tensors)

sequential/dense_1/BiasAdd/ReadVariableOp f4 [16]
00000000: 79ad 0e3f cbdd 8dbd e7e0 9f3d 374c b5bd
00000010: 96f9 b63e 0000 0000 f74a 0e3d d6c4 78be
00000020: 64ae 71be 488c 52bd a783 5ebd 0d3e 8cbe
00000030: 0000 0000 9337 68be 741d 283f 202a 963d
0.5573345 -0.06927069 0.078065686 -0.088524275 0.35737294 0.0 0.03473946 -0.24293837
-0.23601681 -0.051403314 -0.054324772 -0.2739109 0.0 -0.2267745 0.6566994 0.073322535

sequential/dense/BiasAdd/ReadVariableOp f4 [16]
00000000: 0000 0000 0000 0000 0000 0000 3d5a b23f
00000010: 0000 0000 9f2d 0a3f 57b0 a03d 0000 0000
00000020: 5ff3 aebb 0000 0000 defc 34bd 0000 0000
00000030: 41d0 81bd 0000 0000 6ffc 77bf 0000 0000
0.0 0.0 0.0 1.3933789 0.0 0.5397586 0.07846134 0.0
-0.0053390707 0.0 -0.044186465 0.0 -0.063385494 0.0 -0.9686956 0.0

sequential/dense/MatMul f4 [16, 1]
00000000: 91d1 88be 4061 80bc ea6c 1abe 4fbe 98bd
00000010: 70bc 89be b31e 6dbc c401 103f 80fd e5be
00000020: eed8 093f c1c0 8bbe 5b8c ee3e 0cb7 0bbf
00000030: 962e fc3e 2a54 6fbe 2af0 013f 46a4 e5be
-0.26722386 -0.015671372 -0.1508061 -0.074581735 -0.2690158 -0.014472651 0.56252694 -0.44919968
0.53846633 -0.27295497 0.46591458 -0.5457618 0.49254292 -0.2337195 0.50757086 -0.44851893

sequential/dense_1/MatMul f4 [16, 16]
00000000: bd79 a23e 9298 c5be 405d 63bd 8c4d 343f
00000010: b03d d53c 21ee 503f 1a5a 25be 92a3 84be
00000020: ae7b 3cbf 39e0 c83e 28fe 8d3c e265 21be
00000030: 53e3 ecbe a826 4abd a0e3 7a3e 8023 1f3b
00000040: f7f2 c83e a24d 38be a270 75be c33d ed3c
00000050: 8065 de3b 23df 433d 8279 59bd 30d9 88be
00000060: 9c82 40be 0020 8ab8 da21 20be 0133 aebe
00000070: a07a 99be 1ec8 96be db42 903e 6f96 55be
00000080: 7c26 b0bd ba6d 533e e808 aebe 9e71 913c
00000090: f6bf 303e 7e07 67be 23ec aabe a614 b0be
000000a0: 31f5 8a3e 3083 c43c 3db2 efbd 3ab9 6a3e
000000b0: 0c8f e23e 9d94 56be 3c01 533e 8d6e 833e
000000c0: 32ff aebe 9433 09be d693 0b3e 3b08 463d
000000d0: ca6d 613e 3e40 0ebe ce31 0abe fe7b 4f3e
000000e0: 16b6 6d3e 710c b43e 6739 383e b06e 96be
000000f0: 0b16 313e a00d bdbc aba4 a0bb 8aad 6c3e
00000100: ad92 a23e 7820 04bd 11cd b7be 6c47 9d3e
00000110: 04b6 f23d 8bbc 6cbc 3705 8b3c a8b7 1fbe
00000120: 8627 a8be f3e8 87be 4655 44bf 7503 b4be
00000130: 7411 bcbe f09e afbe f8e0 cf3d 6048 afbe
00000140: 20b6 c1bc f99d a93e f3b0 c4be 6526 b1be
00000150: 7747 c03e 5ffb bf3e 253b ccbe 87d5 d63e
00000160: ac97 85bd f594 c73e 16eb 383e 261c bebe
00000170: 4223 2dbe f2f8 1d3e 888c 22bd 6fcd c9be
00000180: 7626 363e 68c1 d7be d9de bf3e fe80 eb3e
00000190: 2c63 edbd c7b8 363e 6fdd 883e 04d0 8ebd
000001a0: 5d7d d83e 44b0 12be 7c97 ccba e14c 9abe
000001b0: 3027 2bbe 2010 a13c 96d2 513e 44ed b53d
000001c0: a0df 943c 1c7e adbd 190d ca3e a136 3fbf
000001d0: 8eb0 20be 1e0e 38bf bed8 153e e92f bcbe
000001e0: e282 003e 5528 afbe 511d a83e df92 a63e
000001f0: 533a 583e 6530 c13e 0682 043f f5b2 c23e
00000200: 64e9 a0be d75a b83e 77b9 ca3e 9496 89bd
00000210: db65 79be 945c e5be ab8e 4abe b6aa 2dbe
00000220: a861 cb3e 6d8f bebe 20b2 4c3e a2e9 3d3e
00000230: 4033 d63d 3697 5a3e 33a1 cf3e 7c00 a8be
00000240: 2db1 a53e 2409 ca3d daaa 2a3e 4434 a53d
00000250: aefb d3be 5deb 19be 2810 10bb 628a 363e
00000260: 5684 723e 2c91 c43d 3b14 a5bd d2d9 3e3e
00000270: b343 05be 2146 ba3e eaf6 fa3d 8846 3bbd
00000280: aa3b 82be 964b b0be a0ba b8bc 8ca0 31be
00000290: 5863 80bd 42f3 d0bc 1eac aabe 7bab a43e
000002a0: 412e d83e 70cd d03c 12a9 763e f60b 5e3e
000002b0: 2695 ec3d b00a 773d 76aa 543e 2c26 a33d
000002c0: 90b1 51bd 2aef 423e f4d6 d03d 0875 50bf
000002d0: b995 bf3e 6866 bdbd 58fb 7d3e d279 cebe
000002e0: b1f6 ab3e 1664 5dbe 8919 143d 5f5b 803e
000002f0: 9bf1 bebe e034 9a3c b79f cf3e 001c 2bbc
00000300: 5a2e 00be cca9 b03d 6b40 d63e cd5c 4dbe
00000310: e092 7a3c 422c 56be 6cca abbe 981d d5bd
00000320: c927 64be 4ef6 263e 88a5 8ebd acdf f63d
00000330: 3768 9d3e 03f8 c83e 78d3 93bd 3667 b4be
00000340: ac49 c6be 3a21 713e 2816 893d a4e4 54bf
00000350: b00f 603d 5f94 66be a8a1 4a3b 5ce6 2dbe
00000360: 6182 0a3e 459a bcbe cf1b 523e f281 2f3e
00000370: 4af9 b73d de86 1e3e b242 063f d007 11bd
00000380: 7274 1dbe 2b35 c5be 00f9 9fba 0235 343f
00000390: 0261 35be 0856 8c3f 8e9a 1c3e 306e abbe
000003a0: d282 43bc d398 cfbe 13fe 3ebe bcc8 d7bd
000003b0: 78ce 8ebe eb87 c63e 5b06 48bf 26c1 30be
000003c0: 0f0d 823e dac1 5b3e 3872 81be c2f0 a93e
000003d0: 80b2 37bc d40a 123f 70d4 d4bb ae5b 9fbe
000003e0: 7bc4 b03e 2d9d d63e 97b3 c33e 6d5f 91be
000003f0: cc79 d43e 9490 e7bd d332 62be f57e b03e
0.31733504 -0.38592964 -0.055508852 0.7043083 0.026030391 0.81613356 -0.16147652 -0.25906044
-0.7362622 0.39233568 0.017333105 -0.15761521 -0.46267185 -0.04935327 0.24500895 0.0024282634
0.39247867 -0.17998365 -0.23968747 0.028960114 0.006787002 0.04782022 -0.053094395 -0.267282
-0.18799824 -6.586313e-05 -0.15637913 -0.34023288 -0.29976368 -0.29449552 0.28176007 -0.20858167
-0.0860109 0.20647326 -0.3399117 0.017754372 0.17260727 -0.22561452 -0.33383283 -0.34390754
0.2714019 0.023988336 -0.11703918 0.22922221 0.4424976 -0.20955129 0.2060594 0.2567028
-0.34179074 -0.13398582 0.13630614 0.048347693 0.22014537 -0.13891694 -0.13495561 0.20262143
0.23213992 0.35165742 0.17990647 -0.29381323 0.17293565 -0.023077786 -0.0049024425 0.23113075
0.3175253 -0.032257527 -0.3589864 0.30718553 0.11851123 -0.014449249 0.01697026 -0.15597403
-0.32842654 -0.26544914 -0.76692617 -0.35158888 -0.36732066 -0.34300947 0.10150331 -0.34234905
-0.023646414 0.33128336 -0.38416252 -0.34599605 0.37554523 0.37496468 -0.39888874 0.41959783
-0.0652307 0.38980833 0.18058428 -0.3713085 -0.16907981 0.15426996 -0.039684802 -0.39414546
0.17788109 -0.42139745 0.37474707 0.4599685 -0.11591181 0.17843924 0.2673144 -0.069732696
0.42283145 -0.14325052 -0.0015609111 -0.3013678 -0.16714168 0.01966101 0.20490488 0.088831455
0.018173039 -0.08471319 0.39463118 -0.7469273 -0.1569235 -0.7189654 0.14633462 -0.36755303
0.12549928 -0.34210458 0.32834867 0.3253393 0.21115999 0.37732235 0.517609 0.38027158
-0.31428063 0.36006805 0.39594623 -0.067181736 -0.24355261 -0.44797194 -0.19780986 -0.16959652
0.39722943 -0.372188 0.19989824 0.18546155 0.10458994 0.21346745 0.40552673 -0.3281287
0.32361737 0.09865025 0.16666737 0.080666095 -0.41402954 -0.1503119 -0.0021982286 0.17826226
0.23683295 0.09598002 -0.08060499 0.1863778 -0.13014106 0.3638163 0.12254126 -0.04572156
-0.25436145 -0.34432667 -0.022549927 -0.173464 -0.06268948 -0.02550662 -0.3333444 0.3216208
0.4222279 0.025488585 0.24087933 0.2168425 0.11551885 0.060312927 0.2076815 0.07966265
-0.051194727 0.19036546 0.10197249 -0.81428576 0.37418917 -0.09248048 0.24802911 -0.40327317
0.33586648 -0.21620211 0.036157165 0.2506971 -0.37293705 0.01882404 0.4055154 -0.010443687
-0.12517682 0.08626136 0.41846022 -0.20054932 0.015293807 -0.2091532 -0.33552873 -0.10406035
-0.22280802 0.16304895 -0.06965166 0.12054381 0.30743572 0.39251718 -0.07218069 -0.35234994
-0.38728082 0.23547831 0.06693679 -0.8316138 0.05470246 -0.22517537 0.0030919109 -0.16982406
0.13526298 -0.36836448 0.2051842 0.17139414 0.08983095 0.15481135 0.5244552 -0.03540784
-0.15376452 -0.38517126 -0.0012204945 0.70393384 -0.17712787 1.0963755 0.15293333 -0.33482504
-0.011933045 -0.40546283 -0.18651609 -0.10536334 -0.27891898 0.38775572 -0.781347 -0.1726118
0.25400588 0.21460667 -0.25282454 0.33191496 -0.011211991 0.5704777 -0.006495051 -0.31124634
0.34524903 0.4191679 0.38222954 -0.28393117 0.41499174 -0.11306873 -0.220897 0.3447186

sequential/dense_2/MatMul f4 [1, 16]
00000000: 6961 67bf c34b 213e f3b0 3fbe ff11 e4be
00000010: a0b5 82bf c1b7 c4be 1eff debd 5561 873e
00000020: 7e5d 863e 3cb5 c4bc cddb 8abe 390f 863f
00000030: 5e6c 013f 1e41 363f 9176 be3f a1d3 c5be
-0.9038301 0.15751557 -0.18719845 -0.4454498 -1.0211678 -0.38421443 -0.108885035 0.26441446
0.26243204 -0.0240122 -0.2712082 1.0473396 0.5055598 0.7119311 1.4879934 -0.38638023
