Riproduzione/Experimental/small_lstm_fixed_batch_1.tflite (tflite, 231400 bytes, 29 tensors)

sequential_1/dense_3/BiasAdd/ReadVariableOp f4 [30]
0.066574566 0.082085095 0.08108213 -0.018355923 -0.06005548 0.06483323 0.065345556 0.076491565
-0.13609505 0.12169757 0.11279105 -0.060055424 -0.060055476 -0.17136006 0.09462008 0.110346176
-0.09699225 -0.060055472 0.07769463 -0.05155655 -0.060055483 -0.052688226 -0.00833809 -0.025180925
-0.060055476 -0.015952565 -0.1329847 -0.011273495 -0.003045998 -0.060055457
00000000: 3f58 883d 3b1c a83d 630e a63d 295f 96bc
00000010: bcfc 75bd 49c7 843d e4d3 853d 9ca7 9c3d
00000020: 805c 0bbe 933c f93d fefe e63d adfc 75bd
00000030: bbfc 75bd 0379 2fbe 2cc8 c13d 2dfd e13d
00000040: dfa3 c6bd bafc 75bd 5d1e 9f3d f62c 53bd
00000050: bdfc 75bd 9ccf 57bd 7c9c 08bc 3a48 cebc
00000060: bbfc 75bd f4ae 82bc 242d 08be 77b4 38bc
00000070: 5e9f 47bb b6fc 75bd

sequential_1/dense_4/BiasAdd/ReadVariableOp f4 [15]
-0.021182638 0.122240916 -0.06112519 -0.08410397 -0.09386127 0.12550966 0.12973571 0.08428075
0.10488477 0.11286069 0.10384398 -0.048099857 -0.03757189 0.13066259 0.10593139
00000000: 3687 adbc 7259 fa3d 685e 7abd b43e acbd
00000010: 563a c0bd 9b85 003e 70d9 043e 639b ac3d
00000020: d4cd d63d 8123 e73d 27ac d43d 5b04 45bd
00000030: fbe4 19bd 6acc 053e 8ef2 d83d

arith.constant f4 [60, 60]
-0.030137945 -0.22516736 0.1755243 -0.29044956 0.23868132 -0.06579347 -0.36204028 -0.31721225
-0.53149605 0.24917834 -0.32339543 0.2014396 -0.09636347 -0.28986728 -0.16201928 -0.06863394
-0.20920564 0.21390434 0.0008131252 0.30270594 0.21633404 0.15166947 0.32742903 -0.21563657
-0.32053244 -0.3131491 -0.1761592 0.36116692 0.2929812 -0.02606334 -0.3256267 0.25301
0.2201842 -0.14727649 -0.20929523 0.01529525 0.32335913 -0.28891388 -0.3636648 0.012520844
-0.14453085 -0.16717343 -0.4371466 -0.18528347 0.22852021 0.25700969 -0.07456531 -0.10581095
0.094294205 0.22488 -0.13562864 -0.11802405 -0.038964253 -0.19535771 0.10535354 -0.15195425
-0.33870503 -0.05892714 -0.094508074 -0.2877039 0.01219456 0.19460014 -0.0048435493 0.05638186
-0.0026096485 -0.058069997 -0.01999482 -0.09927752 0.028283158 0.00020215314 0.016730338 -0.103104696
0.01121758 0.11451525 0.068661004 -0.043379832 -0.03226421 -0.12980959 0.042522296 0.0055069206
-0.11928035 0.03328471 -0.075158425 0.021087933 -0.03063406 0.02003324 0.008219175 -0.13108653
0.037567582 0.037986215 0.025804866 -0.037854943 -0.18570708 -0.028462518 -0.0389806 -0.036308024
-0.1397548 0.07733657 0.10910671 -0.2139476 -0.057536166 -0.14744715 -0.020484967 0.09817127
0.06013589 -0.028195646 0.10684306 0.14328581 0.09560473 0.04454092 -0.035836924 0.014240757
0.10254626 0.020740835 0.033188976 -0.031224469 0.15211666 -0.007041688 0.08379082 0.03153082
-0.03429668 -0.095299006 0.013109693 -0.02311245 0.07757401 -0.08063819 -0.12964465 -0.09870503
-0.15681386 0.14485309 -0.030134961 -0.07491949 -0.15921748 0.0049263104 0.11594859 -0.0863364
-0.08278231 0.09958284 0.1067926 0.14276694 0.005483277 0.08326725 0.17196007 -0.064840205
0.013919228 0.13542773 -0.13332042 -0.1526159 0.24991052 -0.041940168 -0.20096245 0.1152196
-0.13114956 -0.18517901 -0.13354075 -0.12641853 0.08390722 0.030673465 -0.06657334 -0.030349446
-0.15539767 -0.019925483 -0.27159387 -0.02791735 0.042948954 0.07076198 -0.17848696 0.1112429
-0.053875197 0.03258182 -0.15660268 -0.16182643 -0.14039055 -0.079377905 -0.14919165 0.09804616
-0.097170256 -0.10121398 0.13278556 -0.07826037 0.080839284 0.029447349 -0.0084737055 0.08546128
0.044798143 -0.13290352 -0.093644366 0.024945768 0.15602547 0.045065735 0.086103134 0.040006865
0.01244025 0.1010121 0.13007534 -0.040469874 0.049672432 -0.14302838 0.03122931 -0.0006956347
-0.14175212 0.028887996 0.05972938 -0.13539691 0.07265579 0.1321825 0.049040366 -0.08608738
0.03659271 -0.07897058 -0.02849972 0.028192976 -0.19164313 0.011933212 -0.06865569 0.06299292
-0.21880531 -0.04558071 0.07311629 -0.05230403 -0.03750937 -0.08099008 0.11160845 0.03145897
-0.044940628 -0.042179365 0.14369924 0.19098419 0.06910259 -0.031613767 -0.05226442 -0.07081039
0.008010652 0.044414435 -0.1603993 0.07916031 -0.01189365 -0.09372902 0.107493095 -0.091953166
0.04116418 -0.27216655 -0.007158553 -0.16530997 0.1536811 -0.16386326 -0.03816234 -0.25726372
-0.14580809 0.11560726 -0.19001916 -0.0025164592 -0.16986848 -0.289982 -2.2051838e-05 -0.1353551
00000000: dae3 f6bc 4692 66be a4bc 333e ceb5 94be
00000010: e068 743e babe 86bd 585d b9be a569 a2be
00000020: 2010 08bf 9b28 7f3e 1694 a5be 2f46 4e3e
00000030: 365a c5bd 7c69 94be 62e8 25be f38f 8cbd
00000040: 013a 56be bd09 5b3e e927 553a 46fc 9a3e
00000050: ac86 5d3e 3e4f 1b3e c7a4 a73e d5cf 5cbe
00000060: d41c a4be 1455 a0be 1463 34be dfea b83e
00000070: a201 963e c982 d5bc 8bb8 a6be 878a 813e
00000080: f877 613e a6cf 16be 7d51 56be ee98 7a3c
00000090: 548f a53e 85ec 93be 4632 babe 3a24 4d3c
000000a0: e5ff 13be 832f 2bbe aed1 dfbe f3ba 3dbe
000000b0: 3401 6a3e c696 833e b2b5 98bd 69b3 d8bd
000000c0: 521d c13d f146 663e 3ce2 0abe 98b6 f1bd
000000d0: fb98 1fbd da0b 48be 99c3 d73d e599 1bbe
000000e0: bf6a adbe 965d 71bd 738d c1bd ed4d 93be
000000f0: b1cb 473c 4245 473e a3b6 9ebb aaf0 663d
00000100: a306 2bbb ceda 6dbd 2dcc a3bc 0352 cbbd
00000110: 15b2 e73c 12f9 5339 100e 893c 8e28 d3bd
00000120: f1c9 373c f986 ea3d 249e 8c3d 0daf 31bd
00000130: 7a27 04bd ceec 04be dc2b 2e3d 6673 b43b
00000140: 4249 f4bd 8c55 083d a9ec 99bd 9ac0 ac3c
00000150: 48f4 fabc c01c a43c b8a9 063c 8c3b 06be
00000160: 77e0 193d 6f97 1b3d ba64 d33c c90d 1bbd
00000170: ff29 3ebe 3a2a e9bc 1faa 1fbd b9b7 14bd
00000180: e21b 0fbe a362 9e3d 5773 df3d 1415 5bbe
00000190: 0bab 6bbd 63fc 16be 17d0 a7bc 050e c93d
000001a0: 0d51 763d 8efa e6bc 89d0 da3d 84b9 123e
000001b0: 6acc c33d 8a70 363d bdc9 12bd 1052 693c
000001c0: c603 d23d afe8 a93c 2af1 073d 75ca ffbc
000001d0: 78c4 1b3e f6bd e6bb 859a ab3d 7626 013d
000001e0: ad7a 0cbd 202c c3bd 0aca 563c 5256 bdbc
000001f0: 1fdf 9e3d a325 a5bd 91c1 04be dd25 cabd
00000200: d093 20be 5e54 143e 98dd f6bc 646f 99bd
00000210: e809 23be e36c a13b 7476 ed3d 23d1 b0bd
00000220: c689 a9bd 17f2 cb3d 14b6 da3d 7f31 123e
00000230: 10ad b33b 0588 aa3d 4d16 303e f1ca 84bd
00000240: 790d 643c 91ad 0a3e 2685 08be 5847 1cbe
00000250: 8be8 7f3e 74c9 2bbd 1ac9 4dbe 41f8 eb3d
00000260: 124c 06be 919f 3dbe e8be 08be dc73 01be
00000270: 8cd7 ab3d eb46 fb3c 9a57 88bd 679f f8bc
00000280: 9120 1fbe c43a a3bc 5a0e 8bbe edb2 e4bc
00000290: 3eeb 2f3d a8eb 903d 49c5 36be 51d3 e33d
000002a0: 3dac 5cbd 8474 053d 745c 20be d4b5 25be
000002b0: 8ac2 0fbe e290 a2bd b2c5 18be 6dcc c83d
000002c0: 3301 c7bd 4649 cfbd f0f8 073e f946 a0bd
000002d0: 118f a53d 913b f13c 4cd5 0abc 5306 af3d
000002e0: 427e 373d dc17 08be 9ec8 bfbd 115b cc3c
000002f0: 24c5 1f3e d996 383d d756 b03d 3dde 233d
00000300: 31d2 4b3c 6fdf ce3d 7832 053e bdc3 25bd
00000310: 5275 4b3d 0876 12be 9cd4 ff3c 415b 36ba
00000320: 7827 11be 85a6 ec3c cba6 743d 7da5 0abe
00000330: 8fcc 943d d95a 073e 8dde 483d 954e b0bd
00000340: 3de2 153d 54bb a1bd 3f78 e9bc f5f4 e63c
00000350: 193e 44be 8583 433c 5b9b 8cbd 6f02 813d
00000360: 800e 60be d7b2 3abd febd 953d c03c 56bd
00000370: 6da3 19bd 21de a5bd f992 e43d 1fdb 003d
00000380: aa13 38bd 45c4 2cbd e525 133e 5c91 433e
00000390: a985 8d3d 707d 01bd 3713 56bd 0a05 91bd
000003a0: 1c3f 033c e9eb 353d b73f 24be cd1e a23d
000003b0: 95dd 42bc 00f5 bfbd 5725 dc3d f151 bcbd
000003c0: c59b 283d 6a59 8bbe 4c92 eabb 0447 29be
000003d0: 945e 1d3e c5cb 27be 1d50 1cbd 12b8 83be
000003e0: b74e 15be 80c3 ec3d 6294 42be 2eeb 24bb
000003f0: 01f2 2dbe 8578 94be f6fb b8b7 879a 0abe

arith.constant1 f4 [60, 60]
0.20471466 -0.07554382 0.016544456 -0.005239279 0.19346711 -0.006788832 -0.045053568 -0.05875518
0.23603967 -0.16646852 0.07093333 -0.07825432 -0.092354454 -0.1314203 0.16379881 -0.016734218
-0.07711785 0.14363395 0.16174826 0.05203232 -0.19184329 -0.14790313 0.18823077 -0.17143038
0.10810579 -0.1017775 -0.1129165 -0.07199066 0.08534265 -0.17696074 -0.15539436 0.09490069
-0.24867056 -0.020504244 -0.26391 -0.07696791 0.18499453 -0.05325587 -0.06271939 -0.0084882695
0.028409593 0.15011653 0.023860771 0.018971574 0.11949304 0.026335362 -0.20844139 -0.13104513
-0.17313193 -0.15326285 0.06328503 -0.120379694 -0.108102456 -0.07451419 -0.17112279 -0.006838962
0.04355558 0.073142275 0.1316957 -0.08888348 -0.15909041 0.17886275 -0.06792812 0.19295757
-0.12519935 0.06568135 0.33109128 0.23062976 0.17962071 -0.06819244 0.2388852 0.1459275
0.11834904 0.054593947 0.006773662 0.1690695 0.14269671 -0.26109192 -0.20166957 -0.17320555
-0.0076694307 -0.004314811 -0.25274023 0.07561855 -0.15872405 0.19778404 0.051767062 0.0394461
-0.110549994 0.29146278 0.19168875 -0.1578768 0.09517893 0.17815943 0.029762324 0.028573908
0.19290599 0.24746817 0.0869618 0.050141834 0.13170052 -0.019210482 0.38182414 0.1568218
-0.07425636 -0.16057076 0.017681481 0.04149079 0.23592286 0.16178985 0.25183383 0.17075735
0.111942574 0.012740924 0.2491898 -0.06467603 0.2766824 0.24047613 -0.21957237 0.103447214
0.059650354 0.016866302 -0.17624734 0.0023831176 0.128052 -0.061493315 -0.17320077 -0.19326113
-0.008524884 -0.09024814 0.06322465 -0.1189202 -0.082974225 -0.036738582 0.0061132866 0.09041235
-0.10374336 0.009308116 0.05239331 -0.094657205 -0.08919704 0.013466154 0.060442463 -0.050693184
0.15650964 -0.17732954 -0.0928379 -0.12295894 0.027908562 0.07994937 0.019901333 0.0671764
0.011375993 -0.043149553 -0.044503704 -0.057690673 0.007948301 -0.030756455 -0.028213006 0.16535838
0.0024488252 0.13030209 0.014980578 -0.04557728 0.1263552 0.047619537 -0.019564187 0.06316647
-0.035174 -0.12541093 0.04311767 0.025669709 0.012728402 0.08371225 0.054332286 -0.06761693
0.05935468 0.07926384 0.035875525 -0.10508765 -0.2657077 0.26839912 -0.1194572 0.0741713
-0.08526243 0.052934438 0.21563427 0.2112419 0.040550027 0.10827143 0.3598754 0.21896385
0.22163704 0.1304809 0.08805776 0.16794977 0.045304928 -0.23489486 -0.13043553 -0.08125508
-0.043100435 0.21910207 -0.26972526 0.22040068 -0.13080591 0.0665975 0.21780075 0.08142482
-0.22538942 0.078422286 0.2439384 -0.08305378 0.13960885 0.16443783 0.1633904 0.11381217
0.22024745 0.1548479 0.13303843 0.093554914 0.18450983 -0.09377077 0.3289439 0.31544203
-0.13227211 -0.10385995 0.2115707 0.05963837 0.115150034 0.23064518 0.16126542 0.14093487
0.23730263 0.21216054 0.3224363 0.006096843 0.20319368 -0.016556015 -0.123890854 0.14194526
0.11211651 -0.21676548 0.14136791 -0.07907711 0.2351346 -0.056755982 -0.22661082 -0.116126
0.000122979 -0.07904395 -0.14594713 -0.10453986 -0.14020774 -0.1555576 -0.061311617 -0.11729244
00000000: b8a0 513e b8b6 9abd 3d88 873c 42ae abbb
00000010: 3e1c 463e da74 debb 178a 38bd 46a9 70bd
00000020: 62b4 713e b976 2abe 7e45 913d cd43 a0bd
00000030: 5524 bdbd 0b93 06be e0ba 273e 3316 89bc
00000040: f7ef 9dbd c714 133e 56a1 253e d81f 553d
00000050: 9172 44be eb73 17be 91bf 403e 728b 2fbe
00000060: 9266 dd3d b970 d0bd c440 e7bd d76f 93bd
00000070: 21c8 ae3d 3235 35be b31f 1fbe 4b5b c23d
00000080: 7fa3 7ebe 84f8 a7bc 361f 87be 5aa1 9dbd
00000090: 356f 3d3e d422 5abd 0673 80bd 6212 0bbc
000000a0: 3cbb e83c 26b8 193e aa77 c33c 466a 9b3c
000000b0: c4b8 f43d 42bd d73c a971 55be b230 06be
000000c0: 7f49 31be f0f0 1cbe 959b 813d a189 f6bd
000000d0: d264 ddbd e59a 98bd d03a 2fbe 5f19 e0bb
000000e0: 5667 323d 9ecb 953d 3ddb 063e 8b08 b6bd
000000f0: 99e8 22be cc27 373e e61d 8bbd ab96 453e
00000100: 4234 00be f283 863d cc84 a93e 352a 6c3e
00000110: 7eee 373e 7aa8 8bbd 529e 743e 056e 153e
00000120: fb60 f23d e79d 5f3d 98f5 dd3b 8e20 2d3e
00000130: 161f 123e d7ad 85be 7882 4ebe cc5c 31be
00000140: d94f fbbb 4263 8dbb 2b67 81be e6dd 9a3d
00000150: 8f88 22be e687 4a3e b309 543d 3c92 213d
00000160: 0968 e2bd 9c3a 953e 0e4a 443e 75aa 21be
00000170: 2ced c23d 6d6f 363e 1ed0 f33c d413 ea3c
00000180: 2689 453e 4c68 7d3e 0719 b23d 8661 4d3d
00000190: 80dc 063e 4d5f 9dbc 747e c33e e595 203e
000001a0: b813 98bd a96c 24be c1d8 903c 3ff2 293d
000001b0: c395 713e 3dac 253e 5df0 803e 04db 2e3e
000001c0: 2642 e53d 4fbf 503c 9c2b 7f3e de74 84bd
000001d0: 51a9 8d3e 603f 763e 94d7 60be 22dc d33d
000001e0: ee53 743d 332b 8a3c 2f7a 34be 142e 1c3b
000001f0: 1020 033e 6ae0 7bbd 8b5b 31be 3fe6 45be
00000200: f4ab 0bbc 04d4 b8bd ed7b 813d 6f8c f3bd
00000210: 64ee a9bd 327b 16bd f751 c83b 1c2a b93d
00000220: 6677 d4bd 1181 183c 5e9a 563d a3db c1bd
00000230: f0ac b6bd 25a1 5c3c 8492 773d a8a3 4fbd
00000240: 1044 203e e095 35be cc21 bebd e6d1 fbbd
00000250: 7fa0 e43c 7fbc a33d 1f08 a33c c893 893d
00000260: 5f62 3a3c 96bd 30bd 8449 36bd 0e4d 6cbd
00000270: 9739 023c f6f4 fbbc f61e e7bc b553 293e
00000280: 787c 203b e96d 053e 1971 753c 3eaf 3abd
00000290: 4263 013e b40c 433d 1345 a0bc 6c5d 813d
000002a0: 9d12 10bd b96b 00be 279c 303d 4849 d23c
000002b0: ca8a 503c 5471 ab3d 888b 5e3d bf7a 8abd
000002c0: e51d 733d 1555 a23d 37f2 123d 3238 d7bd
000002d0: d70a 88be 9c6b 893e faa5 f4bd 1fe7 973d
000002e0: 129e aebd c8d1 583d 3bcf 5c3e cc4f 583e
000002f0: c917 263d 69bd dd3d 9741 b83e 0f38 603e
00000300: d2f4 623e c99c 053e a057 b43d 06fb 2b3e
00000310: a991 393d 4788 70be e490 05be 1069 a6bd
00000320: 158a 30bd 4b5c 603e 6e19 8abe b7b0 613e
00000330: fcf1 05be 4564 883d 2907 5f3e 0ec2 a63d
00000340: 7ccc 66be dd9b a03d fdca 793e 1a18 aabd
00000350: 9ff5 0e3e 6462 283e d04f 273e 5b16 e93d
00000360: 8c88 613e 7390 1e3e 3a3b 083e b899 bf3d
00000370: 25f0 3c3e e40a c0bd 566b a83e 9e81 a13e
00000380: 5772 07be 87b4 d4bd fda5 583e 5d47 743d
00000390: c8d3 eb3d 402e 6c3e c322 253e 3b51 103e
000003a0: 76ff 723e 9d40 593e 5f16 a53e 07c8 c73b
000003b0: 0112 503e 7ba0 87bc 7dba fdbd 195a 113e
000003c0: 579d e53d c5f7 5dbe c0c2 103e 2ef3 a1bd
000003d0: 20c7 703e f678 68bd ab0c 68be 78d3 edbd
000003e0: edf3 0039 cbe1 a1bd 2a73 15be fe18 d6bd
000003f0: 9e92 0fbe 7e4a 1fbe e421 7bbd 0537 f0bd

arith.constant2 f4 [60, 60]
-0.21764709 0.16027284 -0.019577427 0.13501282 -0.1392179 -0.044430014 0.1466622 0.178989
-0.2131557 0.2405066 0.09519599 0.10241558 0.108884424 0.22246449 -0.12796073 0.23064879
0.024470389 -0.04690125 -0.249241 -0.1045942 0.28651723 0.07977252 -0.11859535 0.06696601
-0.19330557 0.09079876 0.17367364 0.1154095 -0.1700587 0.14946717 0.08387006 -0.094497815
0.29689783 0.102330565 0.0896098 0.1949545 -0.17906672 0.1053452 0.1738253 0.081516564
0.12785874 -0.13559616 -0.047193177 -0.0994016 -0.03867046 -0.20053051 0.23018324 0.22894871
0.11441756 0.15505704 -0.091511495 0.18286946 0.20109263 0.03542978 0.37443337 -0.07129008
0.047669087 0.00912848 -0.1943133 0.007147791 -0.08536151 0.20114812 -0.019518068 0.12794603
-0.1932041 -0.044313494 0.09918361 0.11880003 0.42293304 -0.048290737 0.25613916 0.018749032
0.19229832 0.07169457 -0.018036278 -0.04230065 0.05594057 -0.15068577 -0.008480523 -0.13161092
0.13552289 0.07463934 -0.020942831 0.11626316 -0.10041646 0.029939715 0.027230075 0.066675596
0.057342365 0.04988745 0.14902098 -0.06210868 0.004101555 0.062532224 0.033304617 0.0022124613
0.33833852 0.03561377 0.07329215 -0.016831417 0.10334446 0.1309019 0.116012536 0.030567052
-0.0072089448 -0.0835966 0.065951236 0.080507725 0.0631139 0.21110927 0.071089596 0.013056868
0.11929046 -0.052226443 0.06949655 -0.0027937375 0.25111657 -0.031374436 0.05587527 0.042230517
0.10554263 0.041941002 0.06267309 -0.12971263 0.080896944 -0.03720012 -0.0064130723 0.031045122
-0.2681623 0.13614547 -0.17483935 -0.07677986 -0.17366359 -0.044374984 -0.05692444 0.009875601
-0.00720781 0.06460166 0.04185712 0.1804852 0.12197185 0.15047891 0.24933621 -0.0322188
-0.08105266 0.006191469 -0.08296275 0.09690404 0.15345654 -0.115291096 -0.20361434 0.06732227
-0.21886867 -0.08750769 -0.048006937 0.102114856 -0.14315091 -0.04088782 -0.0027250121 -0.17948079
-0.14754649 0.0073171463 -0.15498947 -0.107301176 0.038646653 0.17733622 0.01549998 0.072135486
-0.15854232 0.1231226 -0.18965109 -0.009342553 -0.07009027 -0.15213944 -0.078092664 0.025550367
-0.12189649 -0.19644213 0.090820655 -0.12917559 -0.081969395 0.2170936 -0.027457941 0.20285709
0.00067115267 0.059007812 0.085021675 0.20136335 0.25120702 0.15054382 0.13256432 -0.024121607
0.07828041 0.11173725 0.007576578 0.16021122 0.17262352 -0.07635344 -0.07719692 -0.19799332
0.03474799 0.029570298 -0.1885231 0.06202952 -0.04073519 0.13863756 0.11824905 0.030614255
-0.107341856 0.011138163 0.18847217 -0.11950501 0.012899219 0.06476273 0.2165334 0.06473225
0.02063756 0.14127427 0.24707237 0.10736082 0.18238738 0.03870759 0.29966632 0.16940041
-0.12948652 -0.1880924 0.058737956 0.13733082 0.06330779 0.019804092 -0.039612725 0.15708257
0.108010314 0.12490688 0.07529945 0.042673334 0.16171056 -0.057975657 -0.1067133 0.05873402
-0.14842933 0.13970275 -0.07152612 0.14130901 -0.09166109 0.091569275 0.111513086 -0.030686684
0.15040644 0.06575229 0.13594826 0.0075014685 0.119551465 0.16279618 0.016135583 0.0076956935
00000000: e1de 5ebe 901e 243e d760 a0bc cd40 0a3e
00000010: 238f 0ebe 3ffc 35bd 9e2e 163e e448 373e
00000020: 7d45 5abe 5d47 763e 1df6 c23d 42bf d13d
00000030: ccfe de3d bbcd 633e 2308 03be 322f 6c3e
00000040: 2076 c83c 861b 40bd 0839 7fbe 7c35 d6bd
00000050: 63b2 923e c65f a33d 1ee2 f2bd 7a25 893d
00000060: e5f1 45be b3f4 b93d 81d7 313e d15b ec3d
00000070: de23 2ebe ec0d 193e 11c4 ab3d 1288 c1bd
00000080: fe02 983e b092 d13d 5885 b73d 27a2 473e
00000090: 445d 37be 39bf d73d 42ff 313e 28f2 a63d
000000a0: 67ed 023e b8d9 0abe a24d 41bd 1193 cbbd
000000b0: eb64 1ebd df57 4dbe 28b5 6b3e 8871 6a3e
000000c0: c153 ea3d 46c7 1e3e 616a bbbd 2242 3b3e
000000d0: 3aeb 4d3e d11e 113d bbb5 bf3e 8900 92bd
000000e0: a940 433d 9f8f 153c 11fa 46be 0438 ea3b
000000f0: 04d2 aebd c6f9 4d3e 5be4 9fbc 4904 033e
00000100: 4cd7 45be 1182 35bd c720 cb3d 6e4d f33d
00000110: ae8a d83e 82cc 45bd ac24 833e 9297 993c
00000120: dae9 443e 9ad4 923d d1c0 93bc 7243 2dbd
00000130: f021 653d 5f4d 1abe e4f1 0abc 03c5 06be
00000140: 83c6 0a3e 83dc 983d 4d90 abbc 611b ee3d
00000150: 25a7 cdbd 2244 f53c 9b11 df3c 378d 883d
00000160: d4df 6a3d c856 4c3d f598 183e ac65 7ebd
00000170: 5666 863b e510 803d 6c6a 083d f1fe 103b
00000180: b53a ad3e bfdf 113d 321a 963d 0ae2 89bc
00000190: 43a6 d33d 260b 063e fb97 ed3d c167 fa3c
000001a0: 0339 ecbb b234 abbd 7111 873d 3ce1 a43d
000001b0: dc41 813d 072d 583e 6c97 913d 79ec 553c
000001c0: 8f4e f43d 65eb 55bd 3554 8e3d 2317 37bb
000001d0: 5a92 803e 7b82 00bd 78dd 643d e8f9 2c3d
000001e0: bc26 d83d 54ca 2b3d c05a 803d 63d3 04be
000001f0: 4cad a53d 275f 18bd c024 d2bb 5752 fe3c
00000200: 924c 89be b869 0b3e 1609 33be c23e 9dbd
00000210: ded4 31be 8bc2 35bd 9a29 69bd 46cd 213c
00000220: 7e2f ecbb e04d 843d 5f72 2b3d 1dd1 383e
00000230: 61cc f93d 2517 1a3e fe51 7f3e dcf7 03bd
00000240: f0fe a5bd cee1 ca3b 60e8 a9bd a075 c63d
00000250: b623 1d3e bd1d ecbd 4780 50be 42e0 893d
00000260: 1c1f 60be 3b37 b3bd eca2 44bd 9821 d13d
00000270: 2796 12be fd79 27bd 1e96 32bb d0c9 37be
00000280: 6d16 17be acc4 ef3b 8fb5 1ebe b8c0 dbbd
00000290: f44b 1e3d a097 353e a1f3 7d3c c5bb 933d
000002a0: eb58 22be b427 fc3d e533 42be 8211 19bc
000002b0: 7d8b 8fbd 71ca 1bbe 0cef 9fbd 014f d13c
000002c0: dea4 f9bd 2028 49be 2e00 ba3d 9b46 04be
000002d0: 92df a7bd c94d 5e3e 7aef e0bc c5b9 4f3e
000002e0: 4bf0 2f3a 2db2 713d d81f ae3d 3232 4e3e
000002f0: 359e 803e 2928 1a3e f1be 073e ad9a c5bc
00000300: 7b51 a03d 80d6 e43d f144 f83b 690e 243e
00000310: 38c4 303e 315f 9cbd 6b19 9ebd c3be 4abe
00000320: e953 0e3d 693d f23c 330c 41be aa12 7e3d
00000330: f1d9 26bd 01f7 0d3e 8f2c f23d bfca fa3c
00000340: 0cd6 dbbd d77c 363c d9fe 403e 0bbf f4bd
00000350: 3f57 533c 52a2 843d eeba 5d3e 5892 843d
00000360: 1a10 a93c 34aa 103e 8a00 7d3e fddf db3d
00000370: c2c3 3a3e da8b 1e3d dd6d 993e 4d77 2d3e
00000380: 1d98 04be 4b9b 40be 3697 703d 73a0 0c3e
00000390: 84a7 813d 313c a23c f440 22bd 41da 203e
000003a0: 8334 dd3d 2ecf ff3d 9936 9a3d 3cca 2e3d
000003b0: 7497 253e e277 6dbd 818c dabd 1593 703d
000003c0: dcfd 17be 3d0e 0f3e 497c 92bd 4fb3 103e
000003d0: cfb8 bbbd ac88 bb3d f960 e43d a462 fbbc
000003e0: 2504 1a3e 23a9 863d 0536 0b3e e1ce f53b
000003f0: 66d7 f43d 0bb4 263e c52e 843c 282c fc3b

arith.constant3 f4 [60, 60]
-0.23554467 0.1349293 -0.028040424 0.070698574 -0.12789173 0.17433473 0.07714551 0.02871151
-0.3483721 0.084596075 -0.029348385 0.18371695 0.0073160776 0.14509073 -0.27175957 0.02437891
0.09363513 -0.072160825 -0.2194733 -0.09961085 0.34943974 0.06737194 -0.10011266 -0.058975816
-0.09319437 0.15301356 0.19078599 -0.09899952 -0.04690704 0.057256326 0.0069340537 -0.110850245
0.24751578 0.21687308 0.11938852 0.21889223 -0.19562086 0.21699974 0.118616894 0.09396543
0.044493865 -0.116455376 -0.034523536 0.071477935 -0.015845003 -0.04131997 0.10791791 0.047515314
0.13017623 0.2394268 -0.026476474 0.18902901 0.09378549 0.0680669 0.08048988 -0.04580599
0.15716672 0.11253245 -0.26880065 0.03934743 -0.23013902 0.18502907 -0.011858465 0.16210197
-0.1354034 0.022052404 0.22191775 0.16692682 0.23951697 -0.074858546 0.2493466 0.0852562
0.20626214 0.23467337 -0.022528466 0.11475923 0.19692354 -0.14273927 -0.16159335 -0.21021053
0.06928302 0.031180844 -0.087321855 0.20167075 0.05840556 0.21473436 0.06600475 0.096069984
-0.013218623 0.059268147 0.278107 -0.28969133 -0.1082494 0.06577899 0.09457179 0.05480159
0.07075838 0.20335846 0.08736591 0.21004559 0.010406859 0.0693464 0.24344018 0.21596347
-0.14559568 -0.13962542 0.123143025 0.25313094 0.09753111 0.112884484 0.17631423 0.06873941
0.17278339 0.12407301 0.02574248 -0.10120772 0.16653842 0.12959789 -0.15067123 0.09677347
0.08042676 -0.060100585 0.049135514 -0.23063834 0.097512156 -0.1461529 -0.056165528 -0.11380194
-0.14288777 0.23246454 -0.07383902 -0.033819515 0.017448016 -0.09318423 0.09778297 -0.15547961
-0.019724723 0.08774193 0.14385663 0.1719022 0.0688174 0.0049995263 0.08993512 -0.10961349
0.123229 -0.023744805 0.053288665 0.18029612 0.0061449404 -0.22105959 -0.05109316 0.023823204
-0.2189172 -0.08148935 -0.04932221 -0.08210731 -0.049782574 -0.06694918 -0.016787188 -0.15972348
-0.1683999 0.020964343 -0.123531885 -0.050430898 0.08029459 0.09934549 -0.08229879 0.08647626
-0.0763027 0.045532055 -0.12898038 -0.11801642 -0.07502953 -0.15038706 -0.03818471 0.021209048
-0.06546244 -0.17483449 0.034127884 -0.07111946 -0.1515211 0.24096723 -0.10378621 0.26452085
-0.12001076 0.035774358 0.3642923 0.21095945 0.22664066 0.07190636 0.21615428 0.19126812
0.19740571 0.2971788 -0.08619946 0.14856537 0.13336237 -0.21383436 -0.272117 -0.3160314
0.11453334 0.124201134 -0.29103473 0.1784844 -0.11697391 0.12635456 0.20427099 0.029747939
-0.046334747 0.33029878 0.30389673 -0.2202928 0.09719793 0.030848576 0.31423354 0.10888805
0.12883067 0.11222804 0.25092807 0.07636816 0.223089 0.02890045 0.4126992 0.3326204
-0.18423484 -0.36580625 0.17616305 0.15637296 0.15580109 -0.00376321 -0.11750076 0.25866038
0.23439465 0.21480054 0.30265096 -0.053053703 0.39910066 -0.009187475 -0.22360158 0.112372935
-0.105117485 0.08653875 -0.124244295 0.13836178 -0.12378122 0.0632973 0.13390784 0.048119716
0.30250454 -0.11448831 0.25138494 0.16070716 0.05949852 0.013625878 -0.027081277 0.062118944
00000000: 9f32 71be e82a 0a3e 08b5 e5bc 6aca 903d
00000010: 0df6 02be ce84 323e 77fe 9d3d 6734 eb3c
00000020: d45d b2be b540 ad3d 066c f0bc 4c20 3c3e
00000030: b5bb ef3b aa92 143e 1224 8bbe 48b6 c73c
00000040: c6c3 bf3d 0ec9 93bd 9cbd 60be c600 ccbd
00000050: c4e9 b23e 4dfa 893d de07 cdbd a090 71bd
00000060: b1dc bebd 96af 1c3e 675d 433e 43c0 cabd
00000070: 9921 40bd 9c85 6a3d 0f37 e33b 7405 e3bd
00000080: c774 7d3e fa13 5e3e f881 f43d 4925 603e
00000090: d650 48be 2e35 5e3e 6aed f23d f370 c03d
000000a0: 333f 363d 2880 eebd 8d68 0dbd 0663 923d
000000b0: 61cd 81bc 213f 29bd 1104 dd3d 6b9f 423d
000000c0: eb4c 053e 4d2c 753e 31e5 d8bc d290 413e
000000d0: 9b12 c03d a966 8b3d e1d7 a43d 109f 3bbd
000000e0: 50f0 203e 6a77 e63d 3da0 89be c52a 213d
000000f0: 90a9 6bbe 4378 3d3e 024a 42bc 0ffe 253e
00000100: 30a7 0abe 3ea7 b43c 683e 633e ddee 2a3e
00000110: f043 753e 704f 99bd b754 7f3e cd9a ae3d
00000120: 6236 533e 374e 703e 9e8d b8bc e306 eb3d
00000130: 53a6 493e 3e2a 12be ba78 25be 6e41 57be
00000140: 42e4 8d3d f86e ff3c cdd5 b2bd c782 4e3e
00000150: ab3a 6f3d 53e3 5b3e 802d 873d 57c0 c43d
00000160: ec92 58bc 28c3 723d 0a64 8e3e 6c52 94be
00000170: ddb1 ddbd 23b7 863d dbae c13d a277 603d
00000180: c5e9 903d 333d 503e e6ec b23d 3116 573e
00000190: 8881 2a3c 7c05 8e3d 6248 793e 8725 5d3e
000001a0: 0917 15be f7f9 0ebe 6932 fc3d 619a 813e
000001b0: 64be c73d fb2f e73d b88b 343e 3fc7 8c3d
000001c0: 21ee 303e fe19 fe3d e5e1 d23c fe45 cfbd
000001d0: 0c89 2a3e 4fb5 043e 8f49 1abe 2b31 c63d
000001e0: c9b6 a43d 082c 76bd 5242 493d 752c 6cbe
000001f0: 74b4 c73d 1ba9 15be d30d 66bd fe10 e9bd
00000200: 2c51 12be 2f0b 6e3e ea38 97bd 5586 0abd
00000210: 24ef 8e3c 60d7 bebd 7042 c83d 0c36 1fbe
00000220: be95 a1bc 0ab2 b33d 274f 133e 2107 303e
00000230: 23f0 8c3d 11d3 a33b e72f b83d 0a7d e0bd
00000240: 7c5f fc3d 7784 c2bc 3745 5a3d 8c9f 383e
00000250: 7f5b c93b 725d 62be 1047 51bd e128 c33c
00000260: d52b 60be e3e3 a6bd 1606 4abd e127 a8bd
00000270: d0e8 4bbd a71c 89bd 4985 89bc 8d8e 23be
00000280: 0671 2cbe 6abd ab3c 49fe fcbd a190 4ebd
00000290: 7d71 a43d a675 cb3d 458c a8bd 771a b13d
000002a0: 9744 9cbd d27f 3a3d 6f13 04be 98b2 f1bd
000002b0: 15a9 99bd 11ff 19be 9267 1cbd 99be ad3c
000002c0: 2c11 86bd d007 33be aec9 0b3d 14a7 91bd
000002d0: 5928 1bbe 1dc0 763e dd8d d4bd 476f 873e
000002e0: 34c8 f5bd 2288 123d 8584 ba3e c105 583e
000002f0: 7d14 683e a443 933d 8c57 5d3e cadb 433e
00000300: b924 4a3e d227 983e 5889 b0bd 8521 183e
00000310: 2590 083e 65f7 5abe eb52 8bbe dece a1be
00000320: 7590 ea3d 2a5d fe3d 8102 95be 9dc4 363e
00000330: 0490 efbd 1763 013e 6a2c 513e f3b1 f33c
00000340: 81c9 3dbd ec1c a93e 5a98 9b3e 7094 61be
00000350: b50f c73d 27b6 fc3c 38e3 a03e b300 df3d
00000360: 30ec 033e d1d7 e53d a579 803e e966 9c3d
00000370: 7171 643e a3c0 ec3c 4f4d d33e 394d aa3e
00000380: 0fa8 3cbe f54a bbbe 1664 343e 3c20 203e
00000390: 528a 1f3e 30a0 76bb 3da4 f0bd 226f 843e
000003a0: 2705 703e acf4 5b3e 11f5 9a3e d74e 59bd
000003b0: ec56 cc3e 1087 16bc d0f7 64be c823 e63d
000003c0: d647 d7bd 3a3b b13d cb73 febd b6ae 0d3e
000003d0: 0281 fdbd 04a2 813d 231f 093e 2e19 453d
000003e0: e0e1 9a3e d978 eabd 87b5 803e 6b90 243e
000003f0: b8b4 733d 133f 5f3c 8ed9 ddbc 6f70 7e3d

arith.constant4 f4 [60]
-0.060686074 0.008470179 -0.11399188 0.0014756303 -0.11657774 -0.18640874 -0.012108295 -0.065282606
0.3493873 -0.16798036 0.053789217 -0.004216253 -0.00555744 0.019677171 -0.06864946 0.015575232
-0.059915066 0.009706802 -0.008415205 -0.04318786 0.08573177 -0.17546886 0.020957157 -0.018093584
0.012722338 -0.13777387 -0.073189475 -0.1416499 -0.13965487 0.009353295 0.0114397565 -0.013374623
-0.08643135 -0.044460826 -0.029483607 -0.21532331 0.2773687 0.014692092 0.0050367047 -0.16030729
-0.26465574 0.053995512 0.022288702 -0.090222046 -0.0691743 -0.0015809601 0.035050295 -0.0217668
-0.017996084 -0.037510507 -0.18056367 -0.023271719 -0.029021472 -0.01690529 -0.07633272 -0.19107254
-0.028669884 -0.10856457 -0.016334042 -0.05607948
00000000: f691 78bd 81c6 0a3c 9374 e9bd f069 c13a
00000010: 4fc0 eebd efe1 3ebe df61 46bc e3b2 85bd
00000020: e4e2 b23e 0b03 2cbe 1552 5c3d 7e28 8abb
00000030: 301b b6bb 0532 a13c 1798 8cbd 422f 7f3c
00000040: 8069 75bd 4709 1f3c eedf 09bc c1e5 30bd
00000050: 2394 af3d 1cae 33be 58ae ab3c ff38 94bc
00000060: 5a71 503c 9814 0dbe 5de4 95bd ac0c 11be
00000070: b001 0fbe 903e 193c d16d 3b3c 3c21 5bbc
00000080: eb02 b1bd 8e1c 36bd 9b87 f1bc b77d 5cbe
00000090: 4503 8e3e 1ab7 703c f10a a53b 9827 24be
000000a0: f580 87be 662a 5d3d cc96 b63c 56c6 b8bd
000000b0: 41ab 8dbd 3838 cfba e690 0f3d 4a50 b2bc
000000c0: 866c 93bc 9ea4 19bd afe5 38be 55a4 bebc
000000d0: 70be edbc f67c 8abc 5454 9cbd 85a8 43be
000000e0: 1bdd eabc 1a57 debd f8ce 85bc 99b3 65bd

arith.constant5 f4 [60]
-0.044518273 0.26932523 -0.08152127 0.37313268 -0.17544444 0.046893053 0.2707327 0.12901731
0.21654159 -0.08737333 0.28012338 0.06987532 0.38640773 0.33674702 0.0034172495 0.25400275
0.13254826 -0.38487515 -0.12221271 -0.29289553 -0.008572599 -0.028497195 -0.30434844 0.23670934
0.086346194 0.28735667 0.2908825 -0.034794893 -0.20036225 0.22851992 0.3133875 -0.31708166
0.010270014 0.12877055 0.30362955 0.03867084 -0.0550844 0.3758655 0.2893844 0.06674714
0.13729079 0.09901993 0.21811195 0.26465297 -0.2286669 -0.35331723 0.38816124 0.14550343
-0.04383921 -0.04779775 0.029165719 0.059062216 0.14963105 0.09410206 -0.035776824 0.082801916
0.24793689 0.065509 0.014967715 0.28383094
00000000: cb58 36bd ffe4 893e a0f4 a6bd 3f0b bf3e
00000010: b5a7 33be ee12 403d 7a9d 8a3e 1d1d 043e
00000020: 14bd 5d3e caf0 b2bd 556c 8f3e cb1a 8f3d
00000030: 3cd7 c53e 1b6a ac3e eff3 5f3b a60c 823e
00000040: bbba 073e 5b0e c5be a84a fabd 67f6 95be
00000050: 1674 0cbc f372 e9bc 8fd3 9bbe ef63 723e
00000060: 46d6 b03d 6a20 933e 8dee 943e 1785 0ebd
00000070: c32b 4dbe 2001 6a3e 5474 a03e 8758 a2be
00000080: 9043 283c 6ddc 033e 5575 9b3e 5165 1e3d
00000090: 2ea0 61bd 7171 c03e 312a 943e b9b2 883d
000000a0: f595 0c3e f6ca ca3d bd58 5f3e 9880 873e
000000b0: a827 6abe ffe5 b4be 12bd c63e dafe 143e
000000c0: be90 33bd 93c7 43bd f2ec ee3c 39eb 713d
000000d0: e238 193e 95b8 c03d b88a 12bd 0d94 a93d
000000e0: 2be3 7d3e 9529 863d 263b 753c 4a52 913e

arith.constant6 f4 [60]
1.1339012 1.1257286 0.917311 1.1714394 1.101152 0.85609126 1.1496633 1.0001575
0.90058005 0.8434504 0.933288 1.18477 1.1814525 1.1676795 0.8984947 1.1659842
1.0901703 1.1942577 1.0974083 1.1038454 0.8661891 0.8094209 1.1520685 0.97804385
0.9917815 1.1475879 1.1452252 0.84209114 0.86178595 1.1569055 1.1423206 1.1541991
0.92046106 1.236861 1.1413237 0.83480734 1.0305853 1.192026 0.98608017 0.8243465
1.0655801 1.0809286 0.9292084 1.106136 1.1166883 1.194711 1.1970611 0.93105394
0.99561375 0.86867034 0.8395109 1.1407729 1.1308148 0.9497539 1.1848662 0.8555988
1.1201718 0.89620936 1.1965628 1.1240605
00000000: ad23 913f e017 903f e5d4 6a3f baf1 953f
00000010: 8cf2 8c3f cc28 5b3f 2b28 933f 2905 803f
00000020: 6a8c 663f 5eec 573f f6eb 6e3f 8ba6 973f
00000030: d639 973f 8676 953f c003 663f f83e 953f
00000040: b38a 8b3f 70dd 983f e077 8c3f ce4a 8d3f
00000050: 92be 5d3f 3536 4f3f fb76 933f 1561 7a3f
00000060: 64e5 7d3f 29e4 923f bd96 923f 4993 573f
00000070: 019e 5c3f 7b15 943f 9037 923f ccbc 933f
00000080: 56a3 6b3f 7651 9e3f e516 923f efb5 553f
00000090: 38ea 833f 4f94 983f c06f 7c3f 5f08 533f
000000a0: ee64 883f de5b 8a3f 9ae0 6d3f dd95 8d3f
000000b0: a4ef 8e3f 4aec 983f 4c39 993f 8d59 6e3f
000000c0: 8be0 7e3f 2e61 5e3f 30ea 563f d904 923f
000000d0: 8abe 903f 1223 733f b2a9 973f 8608 5b3f
000000e0: ca61 8f3f fa6d 653f f828 993f 37e1 8f3f

arith.constant7 f4 [60]
0.05202034 0.20708066 -0.12917557 0.24170753 0.10798336 -0.18791097 0.23389764 0.07707073
0.33962142 -0.16474599 -0.056062516 0.09701804 0.27885497 0.26448637 -0.06947917 0.15494551
0.09248732 0.2680435 0.06059235 0.1434809 0.074581064 -0.17680606 0.15482855 -0.02457923
-0.056681376 0.13852546 0.20215027 -0.14136763 -0.13688727 0.14774857 0.26768818 0.19302179
-0.01837256 0.10100039 0.18015125 -0.22001906 0.17792484 0.25625074 -0.013200421 -0.17505497
0.0701681 -0.08915902 -0.05959818 0.12810268 0.18037176 0.21431518 0.21289042 -0.023734907
0.08739753 -0.052486554 -0.17604873 0.08972654 0.11038157 -0.004044359 0.051643204 -0.1829166
0.13873817 -0.11267404 0.08276582 0.2288646
00000000: 4813 553d f40c 543e 9a46 04be 2e82 773e
00000010: 6126 dd3d bc6b 40be dd82 6f3e 42d7 9d3d
00000020: dce2 ad3e 2cb3 28be cfa1 65bd 65b1 c63d
00000030: 14c6 8e3e c26a 873e 184b 8ebd 09aa 1e3e
00000040: fe69 bd3d ff3c 893e af2f 783d a8ec 123e
00000050: f5bd 983d a60c 35be 608b 1e3e 625a c9bc
00000060: bb2a 68bd 9ed9 0d3e 7b00 4f3e adc2 10be
00000070: 2d2c 0cbe 674b 173e 6d0e 893e 81a7 453e
00000080: 0d82 96bc 4bd9 ce3d 9279 383e ad4c 61be
00000090: ee31 363e 4c33 833e 9446 58bc 9c41 33be
000000a0: 4bb4 8f3d 0199 b6bd 391d 74bd 592d 033e
000000b0: 60b3 383e 7075 5b3e f2ff 593e b56f c2bc
000000c0: 7afd b23d 24fc 56bd 1e46 34be 8cc2 b73d
000000d0: bc0f e23d 8b86 84bb d387 533d 7d4e 3bbe
000000e0: 6111 0e3e a6c1 e6bd 2081 a93d 7b5b 6a3e

arith.constant8 f4 [60, 14]
0.13906172 0.10793437 0.19140436 0.27291706 0.059611153 0.20791087 0.26915568 0.30370006
0.1958941 0.1390562 -0.1381568 0.19789402 0.10595021 0.030382747 -0.24088103 -0.3531441
-0.4633819 -0.17755547 -0.17252961 -0.6212136 -0.42462462 -0.4399464 -0.25194374 -0.31674844
-0.2097273 -0.30505618 0.029313779 0.20146362 -0.007875178 -0.02175044 -0.025192562 0.0073138056
-0.09903128 -0.01155853 -0.031330753 -0.012945331 -0.07419613 -0.0037175461 -0.054811057 3.5337052e-06
0.0029716806 0.012547478 -0.2135612 -0.29876715 -0.32298052 -0.16362792 -0.24243924 -0.5911556
-0.4031239 -0.3753591 -0.29611036 -0.2822972 -0.20004846 -0.12574185 0.101590425 0.044693932
-0.025102193 -0.11518863 -0.07235103 -0.0071208808 -0.0965011 -0.15531465 -0.052616816 -0.03771924
-0.16962177 -0.118266955 -0.09924365 -0.066365115 -0.048259046 -0.01066674 0.0053525 0.0054084635
0.0087856185 0.00013305097 0.013278974 0.009957559 0.007607478 0.002109479 0.013615022 0.010007406
0.016040161 0.004977331 0.007684905 0.006596623 -0.33704448 -0.32741502 -0.29619217 -0.23432821
-0.35861453 -0.44330353 -0.36275676 -0.3357446 -0.13626996 -0.3361655 -0.047669485 -0.18258174
0.07870836 0.07168718 -0.017381974 -0.084971495 -0.009686618 -0.14058368 -0.026260825 -0.06933591
-0.03536327 -0.20366223 -0.11516453 -0.08101528 0.046486914 -0.052698117 -0.06295046 -0.08178195
0.019983863 0.037141807 0.0126957605 0.14210099 0.12118628 0.07283261 -0.025614394 0.1406234
0.11556575 0.065251514 0.019581653 0.019690152 0.17204462 0.17573479 0.011108909 0.014069463
0.011578656 0.010989815 0.013604614 0.007341688 0.010935067 0.011336179 0.013910988 0.0090178475
0.012515052 0.012795827 0.014794365 0.017733762 -0.20253915 -0.20425689 -0.32037705 -0.17983596
-0.2299083 -0.46229637 -0.40885022 -0.21701244 -0.13853598 -0.29741928 -0.0031868094 -0.18635386
0.11141973 0.15416834 0.051154554 -0.011053285 0.19445674 0.37907448 0.16812815 0.28575858
0.26839772 0.4378269 0.16607292 0.2219822 0.010481039 0.09634311 0.09301836 -0.02370208
-0.18225396 -0.22211684 -0.20545305 -0.21912345 -0.15147865 -0.42203507 -0.36491287 -0.3064604
-0.30710414 -0.12608938 -0.13997018 -0.0978347 -0.08585817 -0.028532008 -0.25637916 -0.1890855
-0.40422598 -0.13978244 -0.31005517 -0.48162618 -0.4515222 -0.15777065 -0.100881785 -0.34510717
-0.10084887 -0.1438602 -0.0040496853 0.15677904 0.023577167 0.03689217 0.020526908 0.022292621
0.05091926 0.02369217 0.0065645208 0.027549082 0.049724847 0.024707768 0.044509493 0.029346986
0.040086437 0.050145473 -0.08069502 -0.07355883 -0.20448804 0.16486864 -0.15321904 -0.08056174
-0.23505762 0.19779116 -0.109534934 0.00848261 -0.225058 0.009262196 0.23994589 0.15922846
-0.09222233 -0.10477122 -0.069348566 0.07351916 -0.11401231 -0.047277395 -0.04095566 0.05709114
-0.050370373 -0.034113158 -0.11091164 -0.034922108 0.03746257 0.051008523 -0.28435177 -0.25411412
-0.41235587 -0.2943251 -0.22303498 -0.5945291 -0.49156392 -0.42494887 -0.1400991 -0.37028146
-0.16538838 -0.22397275 0.057501074 0.091406256 -0.0043285964 0.054029137 0.057816785 0.27889562
00000000: 3266 0e3e b20c dd3d 81ff 433e c9bb 8b3e
00000010: d32a 743d 96e6 543e c6ce 893e 937e 9b3e
00000020: 7798 483e c064 0e3e fa78 0dbe bba4 4a3e
00000030: 6cfc d83d 3de5 f83c 84a9 76be 4ecf b4be
00000040: 6440 edbe 1ad1 35be 9aab 30be db07 1fbf
00000050: 6668 d9be a840 e1be c5fe 80be da2c a2be
00000060: c1c2 56be 5330 9cbe 7323 f03c 7b4c 4e3e
00000070: e406 01bc fb2d b2bc a260 cebc a6a8 ef3b
00000080: e9d0 cabd fd5f 3dbc ad54 00bd a718 54bc
00000090: 24f4 97bd 13a2 73bb 8f81 60bd 9824 6d36
000000a0: 87c0 423b f093 4d3c caaf 5abe 02f8 98be
000000b0: b45d a5be 148e 27be fe41 78be f955 17bf
000000c0: 4166 cebe 112f c0be c79b 97be 4289 90be
000000d0: 81d9 4cbe 79c2 00be a40e d03d fc10 373d
000000e0: 1da3 cdbc 04e8 ebbd c72c 94bd 4756 e9bb
000000f0: 5ea2 c5bd ce0a 1fbe bb84 57bd 7d7f 1abd
00000100: 54b1 2dbe f235 f2bd 4140 cbbd 6fea 87bd
00000110: 47ab 45bd 8dc3 2ebc 0664 af3b 7b39 b13b
00000120: 8ef1 0f3c 9983 0b39 0e90 593c 0825 233c
00000130: 2748 f93b 2f3f 0a3b 8b11 5f3c 1af6 233c
00000140: a866 833c e118 a33b a8d1 fb3b 7c28 d83b
00000150: 1891 acbe f1a2 a7be 80a6 97be bcf3 6fbe
00000160: 539c b7be aef8 e2be 41bb b9be b7e6 abbe
00000170: 5a8a 0bbe e21d acbe 1441 43bd b5f6 3abe
00000180: d931 a13d bad0 923d a464 8ebc 8905 aebd
00000190: 9fb4 1ebc 2bf5 0fbe f120 d7bc fcff 8dbd
000001a0: 14d9 10bd d58c 50be 62db ebbd 57eb a5bd
000001b0: 1069 3e3d fbd9 57bd 2cec 80bd 4c7d a7bd
000001c0: 33b5 a33c 0222 183d e101 503c ec82 113e
000001d0: 8330 f83d 4329 953d 47d5 d1bc 95ff 0f3e
000001e0: bcad ec3d 96a2 853d b469 a03c 3e4d a13c
000001f0: 772c 303e d2f3 333e 2402 363c 9b83 663c
00000200: 67b4 3d3c a00e 343c e3e5 5e3c 8b92 f03b
00000210: ff28 333c 62bb 393c eaea 633c 98bf 133c
00000220: ef0b 4d3c 97a5 513c 1064 723c 6546 913c
00000230: 6c66 4fbe b828 51be 7608 a4be eb26 38be
00000240: 156d 6bbe 1cb2 ecbe d154 d1be 8238 5ebe
00000250: 60dc 0dbe 5747 98be cad9 50bb 8cd3 3ebe
00000260: 0730 e43d 4ede 1d3e 7087 513d d618 35bc
00000270: ab1f 473e 0d16 c23e c929 2c3e f34e 923e
00000280: 6d6b 893e d92a e03e 050f 2a3e 4d4f 633e
00000290: aab8 2b3c 894f c53d 6980 be3d dd2a c2bc
000002a0: c8a0 3abe 9972 63be 4962 52be e661 60be
000002b0: 381d 1bbe fb14 d8be dcd5 babe 61e8 9cbe
000002c0: c13c 9dbe 931d 01be 5854 0fbe 8f5d c8bd
000002d0: 69d6 afbd f5bb e9bc 2144 83be a19f 41be
000002e0: b5f6 cebe 2123 0fbe 8dbf 9ebe b597 f6be
000002f0: eb2d e7be a18e 21be 1c9b cebd e3b1 b0be
00000300: da89 cebd 1750 13be 39b3 84bb af8a 203e
00000310: e724 c13c 3e1c 173d 0c28 a83c 049f b63c
00000320: b790 503d 1516 c23c 311b d73b 9dae e13c
00000330: 48ac 4b3d f267 ca3c 964f 363d 1769 f03c
00000340: ad31 243d 5765 4d3d 6e43 a5bd 03a6 96bd
00000350: 5065 51be 53d3 283e 74e5 1cbe 8efd a4bd
00000360: f2b2 70be c489 4a3e da53 e0bd a5fa 0a3c
00000370: 9b75 66be 77c0 173c 60b4 753e c90c 233e
00000380: 10df bcbd 4b92 d6bd 9f06 8ebd 3791 963d
00000390: 497f e9bd f1a5 41bd 1fc1 27bd 66d8 693d
000003a0: 2a51 4ebd 3dba 0bbd a425 e3bd 7c0a 0fbd
000003b0: 5a72 193d 50ee 503d 8e96 91be 3f1b 82be
000003c0: 4f20 d3be c8b1 96be 4863 64be 0f33 18bf
000003d0: 44ae fbbe e692 d9be 2376 0fbe 8895 bdbe
000003e0: 925b 29be 1d59 65be 3f86 6b3d 3433 bb3d
000003f0: e6d6 8dbb a84d 5d3d 4bd1 6c3d 68cb 8e3e

arith.constant9 f4 [60, 14]
-0.009923994 0.03378021 0.006761214 -0.060055234 0.027700027 -0.10168041 0.06301547 -0.05078798
-0.06574953 -0.10356386 -0.044314206 0.012486553 -0.075237356 -0.05480524 0.05404442 0.087209485
0.033126872 -0.0869477 0.15122293 0.06793114 0.0078065936 -0.0872373 0.06546569 0.09149273
0.29244578 0.15098003 0.14473285 0.09322073 -0.059100177 0.0023063957 -0.00813261 0.071120024
0.06471307 0.038582284 -0.006522628 0.11617625 0.023063328 -0.007737509 -0.06259414 -0.04327642
0.058853444 -0.041669857 0.08385327 0.068439044 0.0825507 -0.010254075 0.11971924 0.039838925
0.05603154 -0.023919819 0.12264877 0.062070556 0.1703047 0.07295508 0.08460194 0.11002732
-0.040839255 -0.0359755 -0.052652452 0.06259002 -0.054675356 -0.0042882627 -0.054903883 0.0672997
-0.037141304 -0.023364948 -0.08144549 -0.043224834 0.038592283 0.030221965 -0.0075791837 -0.011041663
-0.03846066 0.03036306 -0.012332143 0.006924596 -0.073039494 0.024621373 -0.04350596 0.009597274
-0.023378586 -0.009216027 0.02832901 0.033819493 0.13135335 0.09617574 0.09725879 -0.016568415
0.18054874 0.050888374 0.07311888 -0.021227239 0.18065448 0.06511651 0.1392788 0.064162284
0.048275117 0.13847111 0.08271483 0.087679856 0.10436255 -0.043169376 0.08655039 -0.0003498305
0.0845888 -0.060175154 0.0877614 0.014395111 0.12379409 0.10040035 0.029516008 0.032448787
0.14056054 0.17703867 -0.031270932 -0.7367765 -0.24274847 -0.2274765 -0.18389773 -0.9524155
-0.3855537 0.018106373 0.20956801 0.12158418 -0.097133204 0.104995236 -0.03466885 -0.044627763
-0.037398495 -0.025795849 -0.038966775 -0.017808886 -0.045105044 -0.026476262 -0.025031006 -0.01856171
-0.033412788 -0.045783896 -0.021906305 -0.029828418 0.1382113 0.16892491 0.14656103 0.028367398
0.21207741 0.070403636 0.09177127 -0.022837522 0.05553512 0.096340746 0.121331505 0.16929351
0.066127494 0.15461327 -0.004433539 -0.026394488 -0.038057838 0.13363868 0.122055694 0.10900693
-0.053358503 0.14502235 0.014588858 0.08142876 0.03297208 -0.02147667 0.10685086 0.09646105
0.069349624 0.09996175 0.07202613 -0.0080089085 0.16679691 0.04477933 0.04517938 -0.01623497
0.1341763 0.06934425 0.19517715 0.09094269 0.08914531 0.08795028 0.07668635 0.07789303
0.07764115 0.0064336094 0.123068444 0.07010165 0.07612601 -0.016907457 0.20487452 0.09118656
0.22354636 0.09174106 0.16482936 0.15265301 0.016567059 0.0056785564 0.041113745 -0.096717
0.014356531 -0.044165764 0.09408136 -0.09717242 -0.0023479818 -0.03654502 0.03837498 0.029281475
-0.08602225 -0.06805717 0.05191222 0.08642711 0.06279873 -0.027418496 0.07682503 0.08049609
-0.025612261 -0.056591913 0.10922468 0.10470308 0.15119816 0.0821457 0.04223449 0.10182037
0.025451886 0.02168344 0.021912973 -0.04461945 -0.036098402 0.032558993 0.011655751 -0.06216022
0.029624589 0.05721609 0.10940405 0.022434497 0.006043641 0.0068826424 -0.091458544 -0.08135228
-0.1017886 0.01723814 -0.17419362 -0.044587594 -0.04463647 0.0230517 -0.16938666 -0.07095107
-0.22142553 -0.083074644 -0.071307346 -0.09109666 -0.064239666 -0.011035659 -0.03905151 0.16780514
00000000: 3f98 22bc 1e5d 0a3d 2d8d dd3b 7afc 75bd
00000010: 2beb e23c d23d d0bd 410e 813d 0f07 50bd
00000020: b1a7 86bd 4a19 d4bd d082 35bd 6694 4c3c
00000030: 0b16 9abd 767b 60bd af5d 5d3d e39a b23d
00000040: 0bb0 073d a311 b2bd 2fda 1a3e 7b1f 8b3d
00000050: 74ce ff3b 78a9 b2bd e012 863d 8a60 bb3d
00000060: 74bb 953e 829a 1a3e d934 143e 83ea be3d
00000070: 0713 72bd e626 173b a33e 05bc 60a7 913d
00000080: 4988 843d 7508 1e3d c5bb d5bb d0ed ed3d
00000090: 4eef bc3c ee8a fdbb 5b31 80bd 9e42 31bd
000000a0: 4f10 713d 03ae 2abd 43bb ab3d c529 8c3d
000000b0: 5710 a93d b500 28bc 5c2f f53d 242e 233d
000000c0: 5481 653d 7ff3 c3bc 472f fb3d b23d 7e3d
000000d0: 5b64 2e3e 7969 953d c843 ad3d 0156 e13d
000000e0: 1047 27bd 0c5b 13bd 19aa 57bd 322f 803d
000000f0: 44f3 5fbd 8e84 8cbb e5e2 60bd 6dd4 893d
00000100: 7b21 18bd d967 bfbc e5cc a6bd 860c 31bd
00000110: f112 1e3d 0e94 f73c cd5a f8bb 17e8 34bc
00000120: ed88 1dbd f4bb f83c c20c 4abc b9e7 e23b
00000130: bb95 95bd c3b2 c93c 4e33 32bd e23d 1d3c
00000140: 7384 bfbc d2fe 16bc 3d12 e83c 4f86 0a3d
00000150: 7e81 063e c9f7 c43d 9e2f c73d 7cba 87bc
00000160: c5e1 383e 5470 503d 5abf 953d bfe4 adbc
00000170: 7dfd 383e ce5b 853d 1a9f 0e3e 8467 833d
00000180: 21bc 453d 5fcb 0d3e 6566 a93d 7f91 b33d
00000190: 08bc d53d 5fd2 30bd 5541 b13d 7469 b7b9
000001a0: e53c ad3d 397a 76bd 40bc b33d 79d9 6b3c
000001b0: c187 fd3d b39e cd3d 8ecb f13c 05e9 043d
000001c0: 1aef 0f3e a049 353e f315 00bd 629d 3cbf
000001d0: 0e93 78be 9aef 68be b04f 3cbe 81d1 73bf
000001e0: 4b67 c5be d153 943c ff98 563e 2001 f93d
000001f0: c6ed c6bd be07 d73d ed00 0ebd 9acb 36bd
00000200: 2a2f 19bd d151 d3bc a09b 1fbd f1e3 91bc
00000210: 11c0 38bd bfe4 d8bc d30d cdbc ba0e 98bc
00000220: d9db 08bd e587 3bbd da74 b3bc ba5a f4bc
00000230: 4387 0d3e a7fa 2c3e 1814 163e bf62 e83c
00000240: d22a 593e c82f 903d 93f2 bb3d c115 bbbc
00000250: cb78 633d 4c4e c53d a77c f83d 475b 2d3e
00000260: da6d 873d f152 1e3e 3947 91bb 4139 d8bc
00000270: 89e2 1bbd 94d8 083e 56f8 f93d 063f df3d
00000280: 728e 5abd bd80 143e 1b06 6f3c 1fc4 a63d
00000290: bb0d 073d d7ef afbc a0d4 da3d 5f8d c53d
000002a0: 2d07 8e3d bfb8 cc3d 7082 933d cc37 03bc
000002b0: cfcc 2a3e 886a 373d 030e 393d 33ff 84bc
000002c0: 8365 093e 5c04 8e3d 85dc 473e 2940 ba3d
000002d0: d191 b63d 471f b43d bc0d 9d3d 6286 9f3d
000002e0: 5302 9f3d 07d1 d23b 4f0b fc3d 7491 8f3d
000002f0: f4e7 9b3d 8281 8abc a0ca 513e 05c0 ba3d
00000300: 56e9 643e bde2 bb3d 07c9 283e 1251 1c3e
00000310: a4b7 873c 2f13 ba3b e366 283d 9013 c6bd
00000320: a837 6b3c 29e7 34bd baad c03d 5502 c7bd
00000330: 99e0 19bb 3bb0 15bd 152f 1d3d b4df ef3c
00000340: 6f2c b0bd 8f61 8bbd e8a1 543d b200 b13d
00000350: 9f9c 803d c19c e0bc 7156 9d3d 22db a43d
00000360: ced0 d1bc eccc 67bd 30b1 df3d 926e d63d
00000370: b1d3 1a3e 013c a83d 13fe 2c3d 3387 d03d
00000380: 7980 d03c 78a1 b13c d682 b33c e2c2 36bd
00000390: ebdb 13bd 945c 053d c3f7 3e3c b79b 7ebd
000003a0: 44af f23c 6b5b 6a3d 3b0f e03d 8dc8 b73c
000003b0: bc09 c63b ca87 e13b 9e4e bbbd 069c a6bd
000003c0: 8b76 d0bd 0037 8d3c d05f 32be 7ba1 36bd
000003d0: bbd4 36bd ebd6 bc3c b273 2dbe cb4e 91bd
000003e0: 60bd 62be 0a23 aabd 9609 92bd e390 babd
000003f0: 1690 83bd e9ce 34bc 7af4 1fbd 1cd5 2b3e
