Riproduzione/models/FD001/LSTMsmall/MSE/lstm_small_batch_1_MSE.tflite (tflite, 231400 bytes, 29 tensors)

sequential_1/dense_3/BiasAdd/ReadVariableOp f4 [30]
0	0x3d3b610c	0.045746848
1	0x3d2ebad1	0.04265863
2	0x3d33494b	0.04377107
3	0xbcf556b9	-0.02994858
4	0xbc71be4e	-0.014754845
5	0x3d2cedaa	0.04221884
6	0x3d31fede	0.04345595
7	0x3d26753e	0.040639155
8	0xbc20bad2	-0.009810166
9	0x3d054a82	0.03254176
10	0x3d3c4077	0.045959916
11	0x3d4a8261	0.049440745
12	0x3ca752dc	0.020425253
13	0xbb4981a4	-0.0030747438
14	0x3c79255b	0.01520666
15	0x3d295291	0.041338507
16	0x3d38ef7c	0.045150265
17	0xbce92ad5	-0.028462807
18	0xbd2486ea	-0.040167727
19	0xbb3903a7	-0.0028230937
20	0x3adb637d	0.0016738024
21	0x3e111a56	0.14170203
22	0x3d3748d0	0.044747174
23	0xbc016c48	-0.007899351
24	0x3d48e62d	0.049047638
25	0x3cc5f150	0.024162918
26	0xbc2715d5	-0.010198076
27	0x3d0809f8	0.033212632
28	0xbc59313c	-0.013256367
29	0xbbf87d4f	-0.0075832973

sequential_1/dense_4/BiasAdd/ReadVariableOp f4 [15]
0	0x3d280591	0.041020934
1	0x3d7c3a94	0.061579302
2	0xbc2e321d	-0.010632065
3	0x3d319c1a	0.04336176
4	0x3c832b5e	0.01601189
5	0xbd1f867a	-0.038946606
6	0x3d2a6410	0.041599333
7	0x3d2ae7e8	0.04172507
8	0xbc927134	-0.017876245
9	0xbcbf9227	-0.02338512
10	0x3d2f7830	0.04283923
11	0xbbd980dc	-0.0066376757
12	0x3dd3f360	0.103491545
13	0x3c8270ab	0.015922865
14	0xbd70c823	-0.058784615

arith.constant f4 [60, 60]
0	0x3d27509e	0.040848367
1	0xbd67b3b6	-0.05656787
2	0x3d165dcb	0.03671054
3	0xbe1a794a	-0.1508533
4	0x3debf23d	0.11520813
5	0xbd2eeea3	-0.04270805
6	0xbdabeec6	-0.08395152
7	0x3d405290	0.046953738
8	0x3dc3973b	0.09550329
9	0x3e09c770	0.13454986
10	0x3b5cf649	0.0033716133
11	0xbc8f7999	-0.017514037
12	0x3d672921	0.056435708
13	0x3d57bd5c	0.05267082
14	0xbc732c7a	-0.014842147
15	0x3dc469ee	0.09590517
16	0x3d851d31	0.064997084
17	0x3dab2d70	0.08358276
18	0x3e092022	0.13391164
19	0xbdcae723	-0.09907367
20	0xbc7c9ddf	-0.015418499
21	0x3e223a19	0.15842475
22	0xbdb01ec5	-0.08599619
23	0x3d6b6093	0.057465147
24	0xbd1c7a2f	-0.03820246
25	0x3d23e730	0.0400154
26	0xbd4598e5	-0.048241515
27	0xbe0c9a4a	-0.13730732
28	0xbda0b229	-0.07846481
29	0xbe0ea918	-0.13931692
30	0xbd1aeeb4	-0.0378253
31	0xbe0509b6	-0.12991986
32	0x3d8444c8	0.064584315
33	0xbd1b48a1	-0.03791106
34	0x3da398d4	0.07988134
35	0x3ce1f92e	0.027584638
36	0xbddd20e9	-0.10797293
37	0xbe1023db	-0.14076178
38	0x3df377c7	0.1188808
39	0xbe18bd00	-0.14915848
40	0xbc9dac86	-0.019247305
41	0x3df07136	0.11740343
42	0xbd94b653	-0.07261338
43	0xbbe673ca	-0.007032846
44	0x3d19c80c	0.037544295
45	0x3e062fb4	0.13104135
46	0xbe1e043f	-0.15431307
47	0x3d21e0f5	0.039521176
48	0x3e1e44e3	0.15455966
49	0x3e307888	0.17233479
50	0xbe0a3a86	-0.13498887
51	0x3db9dfd0	0.09075892
52	0x3e3596e5	0.17733343
53	0xbd9e75d5	-0.077373184
54	0x3c85002f	0.01623544
55	0x3d3ad8cb	0.045616906
56	0xbaec1caf	-0.001801392
57	0x3e12d256	0.1433805
58	0xbc1fbe76	-0.009749999
59	0x3ddc82a5	0.10767106
60	0x3d342757	0.04398283
61	0xbdb45c85	-0.08806709
62	0xbd9c4692	-0.07630648
63	0x3d11889e	0.03553068
64	0x3e66c744	0.22536951
65	0x3db0b45f	0.08628153
66	0xbd8e84a4	-0.06958893
67	0xbe2f01e6	-0.17090568
68	0x3dfc34eb	0.12314781
69	0x3e2c03ab	0.16798274
70	0x3d1e37b1	0.03862733
71	0x3d144029	0.036194
72	0x3dd1e02e	0.10247837
73	0x3d6c4bef	0.057689603
74	0xbc8ec07a	-0.017425764
75	0x3d113459	0.035450313
76	0x3d39c2a6	0.045351647
77	0x3d46a7c7	0.04849985
78	0x3d396ef8	0.045271844
79	0xbd84a4a6	-0.06476717
80	0xbd85e683	-0.06538107
81	0x3d582d49	0.052777562
82	0x3cc352c2	0.023843173
83	0xbda8313a	-0.08212514
84	0xbdc8d41c	-0.09806082
85	0xbe1dd2f8	-0.1541251
86	0xbdaaf75d	-0.08347962
87	0xbdb88dfb	-0.090114556
88	0xbd068abb	-0.032847147
89	0xbe001a0e	-0.12509939
90	0x3e4ee6fd	0.20205303
91	0xbdb10a2a	-0.08644517
92	0x3da7e816	0.08198564
93	0x3d9cbca5	0.076531686
94	0x39c6f988	0.00037951418
95	0xbdafe3f4	-0.085884005
96	0x3c6810ff	0.014164208
97	0x3d26550e	0.04060846
98	0x3d528b98	0.05140266
99	0xbd61f8f6	-0.05516907
100	0x3d305779	0.04305217
101	0xbadd7113	-0.0016894661
102	0xbd0c0dd3	-0.03419287
103	0xbdd282be	-0.10278843
104	0x3db95f7d	0.09051416
105	0xbbdd1f7f	-0.0067481394
106	0xbdd8fb44	-0.105948
107	0x3d877260	0.06613612
108	0xbc95fa04	-0.018307693
109	0xbd225367	-0.03963032
110	0x3c9fd6a8	0.019511536
111	0x3e0f2eb5	0.13982661
112	0x3c508e94	0.012729306
113	0x3c8618ab	0.016369184
114	0xbcc8bcf0	-0.024504155
115	0xbdb3590b	-0.08757218
116	0x3c89c959	0.016819643
117	0x3ded3e4e	0.11584149
118	0x3cd0b552	0.025477085
119	0xbcbc597d	-0.02299189
120	0xbc895bcf	-0.01676741
121	0xbc3a4936	-0.011369994
122	0x3d9f09b9	0.07765526
123	0xbd2e6a22	-0.042581685
124	0x3ccac0b1	0.024750086
125	0x3c17b80d	0.00926019
126	0x3c7934e2	0.015210362
127	0xbe5ae758	-0.21377313
128	0x3c118c53	0.008883554
129	0xbc5d5ad3	-0.013510424
130	0x3c1a9679	0.00943529
131	0x3d3de46f	0.04636043
132	0xbd46a423	-0.048496377
133	0x3c3dc1df	0.011581867
134	0xbe36e557	-0.17860924
135	0xbdb21611	-0.08695615
136	0x3cafb1eb	0.021447143
137	0x3e0deca8	0.13859808
138	0xbdf659be	-0.12028836
139	0x3d2ab3f1	0.04167551
140	0xbd1ec582	-0.038762577
141	0x3ceb1142	0.028694753
142	0xbc229391	-0.009922878
143	0x3b8ad5f0	0.004236929
144	0xbcbdda66	-0.02317543
145	0x3de67dd9	0.11254472
146	0x3dbd01df	0.092288725
147	0x3d6db34c	0.05803232
148	0xbd0711f7	-0.032976117
149	0x3d88310a	0.066499785
150	0x3d5edf6f	0.0544123
151	0xbd337ec3	-0.04382206
152	0xbdcc6852	-0.09980835
153	0x3d0e6088	0.034760028
154	0xbd1df10d	-0.038559962
155	0x3dcb6b71	0.09932602
156	0xbde37514	-0.11106315
157	0xbd5569c1	-0.052102808
158	0xbd008bbd	-0.031383265
159	0xbc0b71ce	-0.00851102
160	0xbdad98f1	-0.08476437
161	0x3dee77f1	0.11643971
162	0xbd5fc748	-0.05463341
163	0x3e1929c0	0.14957333
164	0xbd3194d3	-0.04335482
165	0xbd47390f	-0.0486384
166	0x3cccddc2	0.025008086
167	0x39b7a88a	0.0003503005
168	0x3cfc20fb	0.030777445
169	0x3c98ad51	0.018637331
170	0x3d1c9e61	0.03823698
171	0xbd391634	-0.04518719
172	0x3de1bf84	0.11022857
173	0xbd5d1398	-0.053973764
174	0x3d1b0121	0.037842873
175	0xbd5050c2	-0.050858267
176	0x3d36e182	0.044648655
177	0x3d3c397e	0.045953266
178	0x3bcde6bf	0.0062836106
179	0xbda8495b	-0.082171164
180	0xbc65bfbd	-0.014022765
181	0xbd86b7d9	-0.06578035
182	0xbd2d6917	-0.04233655
183	0xbe0c4dd0	-0.13701558
184	0xbd0e096b	-0.03467695
185	0xbd03305e	-0.03202855
186	0xbe21dd36	-0.15807042
187	0x3d23dea0	0.040007234
188	0x3d820a1e	0.06349586
189	0xbddfe2a3	-0.109318994
190	0xbe15b3d9	-0.14619388
191	0x3e00be7e	0.12572667
192	0x3d98afe0	0.074554205
193	0x3e1e0b26	0.1543394
194	0xbd9d1782	-0.076704994
195	0x3d8e27e7	0.069412045
196	0xbe4b7a22	-0.19870809
197	0x3d93c895	0.07215992
198	0x3cd7ab49	0.026326792
199	0x3dd4fa6e	0.10399328
200	0x3d49aed3	0.04923899
201	0x3e06b977	0.13156687
202	0xbc9ee6d9	-0.019397186
203	0xbd31c415	-0.04339989
204	0xbd14ef99	-0.03636131
205	0xbbcb3c24	-0.0062022377
206	0xbe3ed32c	-0.18635243
207	0x3d87c1c3	0.06628754
208	0xbbf43d9b	-0.007453633
209	0xbe5663bd	-0.20936485
210	0x3e1b3522	0.15156987
211	0xbdc5ecf3	-0.09664335
212	0x3d517047	0.051132467
213	0xbd20f860	-0.03929937
214	0x3d986657	0.07441395
215	0xbd8e17a2	-0.06938101
216	0xbd8b59e1	-0.068042524
217	0x3d8becf0	0.068323016
218	0x3e308af3	0.17240505
219	0xbd483091	-0.04887444
220	0x3c5ad0a0	0.013355404
221	0x3e6406ac	0.2226817
222	0xbd67057e	-0.056401722
223	0xba40da28	-0.00073567266
224	0x3e0fce07	0.14043437
225	0x3d375cd2	0.044766255
226	0xbe34f3b4	-0.1767109
227	0x3db1cd3f	0.08681726
228	0x3d8acb69	0.06777079
229	0x3e4e4c06	0.20146188
230	0xbd016036	-0.031585895
231	0x3d65a9e0	0.05607021
232	0x3ca7b1c2	0.020470504
233	0xbe0fae81	-0.14031412
234	0xbde25183	-0.110507034
235	0xbd3c8680	-0.046026707
236	0xbd4298fc	-0.04750918
237	0x3e021297	0.12702404
238	0x3d5c44c7	0.05377653
239	0x3de42b62	0.11141087
240	0xbdf9b21c	-0.12192175
241	0xbe53ac41	-0.20671178
242	0xbda089ab	-0.07838758
243	0xbdd4db9d	-0.103934504
244	0xbc7842f6	-0.0151526835
245	0x3cde5eab	0.02714475
246	0xbdb4cce8	-0.08828145
247	0x3d2dd788	0.042441875
248	0x3e280d82	0.16411403
249	0x3dd5e855	0.104447044
250	0xbc4f1d9d	-0.012641338
251	0xbde5bd13	-0.11217704
252	0x3d057b21	0.032588128
253	0x3e1b1eab	0.15148418
254	0xbdfe3d17	-0.12413996
255	0x3cc651aa	0.024208862

arith.constant1 f4 [60, 60]
0	0xbc5181c1	-0.012787283
1	0x3da621fa	0.08111949
2	0xbd835b2b	-0.06413873
3	0x3cf99f70	0.030471534
4	0x3dc2f6e4	0.09519747
5	0x3d3ca6d4	0.046057537
6	0xbd23a4f8	-0.03995225
7	0x3b3a160e	0.0028394493
8	0x3da60ffd	0.08108518
9	0xbd8c2557	-0.068430595
10	0xbcfce0cf	-0.030868916
11	0xbc341cae	-0.010993166
12	0x3dd752de	0.105138525
13	0xbd558fa8	-0.052138954
14	0x3d19669e	0.03745138
15	0xbd02377e	-0.031791203
16	0xbe0839c2	-0.13303283
17	0xbdc778ff	-0.09739875
18	0x3d3a5ea4	0.045500413
19	0xbd250baa	-0.040294327
20	0xbd3a42b7	-0.04547378
21	0x3d5d62a8	0.054049164
22	0x3d96ab49	0.07356889
23	0xbda78436	-0.08179514
24	0x3c6af8b2	0.01434152
25	0xbd874d0a	-0.06606491
26	0xbdfab8fe	-0.12242316
27	0xbd5ded8b	-0.054181617
28	0xbe042504	-0.12904745
29	0x3d49f0b9	0.049301837
30	0x3d09c05c	0.033630714
31	0xbda699d2	-0.08134808
32	0xbdee8205	-0.11645893
33	0x3c9f7ce9	0.019468741
34	0x3d8e3406	0.069435164
35	0x3e17f2c3	0.148387
36	0x3c073342	0.008251967
37	0xbcf70580	-0.03015399
38	0xbe1d98de	-0.15390345
39	0xbd65756a	-0.056020178
40	0x3d366e67	0.04453888
41	0xbdd9c54c	-0.106333345
42	0xbd031841	-0.032005552
43	0x3d8d2341	0.0689149
44	0xbc3e3115	-0.011608382
45	0x3d3a215e	0.045441978
46	0xbd408b9d	-0.047008146
47	0x3d65609f	0.05600035
48	0xbd7a0764	-0.061042204
49	0x3c8d73aa	0.017267067
50	0x3cd86980	0.026417494
51	0x3c75f38e	0.015011681
52	0xbda06154	-0.07831064
53	0x3d03c399	0.03216896
54	0xbc88cbe7	-0.01669879
55	0xbcdb16f1	-0.026744338
56	0x3e1e99f3	0.15488414
57	0x3d7499db	0.05971704
58	0xbd245a36	-0.040125094
59	0x3db4f51b	0.08835813
60	0xbc2ea197	-0.010658643
61	0x3cbb0321	0.02282864
62	0xbd3b3696	-0.045706354
63	0xbb948663	-0.0045326217
64	0x3d712213	0.058870386
65	0x3d2d39d8	0.042291492
66	0x3cd6b437	0.02620898
67	0x3ca76563	0.020434087
68	0x3da739e2	0.08165337
69	0xbcccac50	-0.024984509
70	0xbc95a1c5	-0.018265614
71	0x3d29afc0	0.041427374
72	0x3e0e429e	0.138926
73	0x3e15d3e5	0.14631613
74	0xbd7241c7	-0.05914476
75	0x3c4ca919	0.012491488
76	0xbdb6bd09	-0.08922774
77	0x3d4f3417	0.050586786
78	0x3d7211f5	0.059099156
79	0x3dd597c6	0.10429339
80	0x3ccd2c80	0.025045633
81	0xbd60ed76	-0.05491396
82	0xbdb42e2c	-0.08797869
83	0x3d0e8ec1	0.03480411
84	0x3c93d1c1	0.018044354
85	0xbe04d691	-0.12972476
86	0x3c4f41e0	0.012649983
87	0xbe54c762	-0.20779184
88	0xbd96f947	-0.07371765
89	0xbcbfaf5d	-0.02339905
90	0x3da5a79d	0.0808861
91	0xbc9570af	-0.018242208
92	0x3e0c2e02	0.13689426
93	0xbdf043dd	-0.11731694
94	0x3bf19a88	0.007373158
95	0xbc09f720	-0.008420736
96	0x3d0742ec	0.033022806
97	0xbd814667	-0.06312256
98	0x3e15da39	0.14634027
99	0xbc98fc7b	-0.01867508
100	0xbd9e93e1	-0.077430494
101	0x3cadc42b	0.021211704
102	0x3d6f1c0c	0.058376357
103	0xbcc80160	-0.024414718
104	0xbc17760c	-0.009244453
105	0xbce7d674	-0.028300501
106	0x3cdbcb74	0.026830412
107	0xbdc171c7	-0.094455294
108	0xbdd21a90	-0.10258973
109	0x3ce5718a	0.028008241
110	0xbdc43496	-0.095803425
111	0x3d762e91	0.060103003
112	0xbd814f14	-0.06313911
113	0xbcc8f796	-0.02453212
114	0xbd0e760b	-0.034780543
115	0xbd4d7ded	-0.05016892
116	0xbb932d90	-0.0044915155
117	0x3d99bea0	0.07507062
118	0x3d41b2bf	0.047289606
119	0xbbcf4aaf	-0.0063260417
120	0x3db64560	0.08899951
121	0xbdb9d80a	-0.09074409
122	0xbcfb2c0d	-0.030660653
123	0xbd934827	-0.07191496
124	0x3db02204	0.08600238
125	0x3d3160aa	0.043305077
126	0x3a96113e	0.001144923
127	0xbaccec89	-0.0015634458
128	0xbca3bd62	-0.019987766
129	0x3bd1fdca	0.006408428
130	0xbd2afad8	-0.04174313
131	0x3db3bd3b	0.08776327
132	0x3de8f34b	0.113745295
133	0x3bbd0357	0.0057682204
134	0x3d94b08c	0.07260236
135	0xbdcb4c35	-0.09926645
136	0xbd392d78	-0.045209378
137	0x3d943c1e	0.07238029
138	0x3c4e6bdf	0.012598961
139	0x3db1f308	0.08688933
140	0x3d5bb77f	0.053641792
141	0x3dcd4fd0	0.10024989
142	0xbdfc9114	-0.12332359
143	0xbc5f41d8	-0.013626538
144	0x3dd71dda	0.105037406
145	0xbc5253dc	-0.012837376
146	0x3dada6d8	0.084790885
147	0x3d6bfc41	0.057613615
148	0xbd4efaba	-0.05053208
149	0xbdda9b26	-0.106741235
150	0x3d2ab332	0.0416748
151	0x3d03df8a	0.032195605
152	0x3c99323c	0.018700711
153	0x3dce3a37	0.10069697
154	0x3b94c760	0.004540369
155	0xbd65de75	-0.056120355
156	0xbe16ee0f	-0.1473925
157	0x3ab640d5	0.001390482
158	0x3d1f8bfe	0.038951866
159	0x3d7ad242	0.061235674
160	0x3dab4150	0.08362067
161	0xbda582b1	-0.08081568
162	0x3db77fa4	0.089598924
163	0xbdf85f83	-0.121275924
164	0xbca0adf3	-0.019614195
165	0xbcef3851	-0.029201658
166	0xbbff521b	-0.00779177
167	0x3d04a382	0.032382496
168	0x3da6638d	0.081244566
169	0xbd37de8c	-0.04488997
170	0xbd7ef040	-0.06224084
171	0xbc208bd5	-0.009798964
172	0x3d9c8b23	0.07643726
173	0xbc8a8fa0	-0.016914189
174	0xbcd9af53	-0.026572859
175	0x3d22166f	0.039572176
176	0x3b0ec303	0.0021783717
177	0xbcc1405b	-0.023590257
178	0x3cddd3c2	0.027078513
179	0xbdaac7d8	-0.083388984
180	0xbbf0a61a	-0.0073440196
181	0x3db3fab6	0.08788054
182	0xbde127fe	-0.10993956
183	0xbd1c6540	-0.038182497
184	0xbbb06079	-0.005382594
185	0x3c03822a	0.008026639
186	0x3e06de14	0.13170654
187	0xbd7a92f6	-0.06117531
188	0x3d2876cb	0.041128915
189	0xbc84cf21	-0.016212048
190	0xbd9afb66	-0.07567482
191	0x3d320923	0.043465745
192	0xbd69bbb6	-0.05706378
193	0x3d4da74a	0.050208367
194	0xbdff7fa0	-0.124755144
195	0xbe0c72cb	-0.13715665
196	0xbdb54d7b	-0.08852669
197	0x3d9a73c7	0.07541614
198	0x3d6d3c2e	0.05791872
199	0xbb839628	-0.0040157028
200	0xbac56d97	-0.0015062568
201	0xbce731ce	-0.02822199
202	0xba98045f	-0.0011597982
203	0x3d79c62a	0.06098
204	0x3d58e621	0.052953843
205	0xbdc62e4b	-0.096767984
206	0x3c3b7469	0.011441329
207	0xbd646b64	-0.05576648
208	0x3de5e1ae	0.112246856
209	0x3d32cbeb	0.043651503
210	0xbdbffa02	-0.09373857
211	0xbd44b8e7	-0.0480279
212	0xbe56f4bb	-0.20991795
213	0x3d076554	0.03305562
214	0xbc813327	-0.015771462
215	0x3de78f3b	0.11306616
216	0xbdeb40e3	-0.114869855
217	0xbd970341	-0.073736675
218	0x3d793f4e	0.060851388
219	0x3d8a7a24	0.06761578
220	0x3cf7a34d	0.030229235
221	0x3c98e949	0.018665927
222	0xbb9bc106	-0.004753235
223	0xbe38d6c5	-0.18050678
224	0xbc3ed6d8	-0.011647902
225	0xbc824cf9	-0.015905844
226	0xbc9a16f4	-0.018809773
227	0xbe2630f5	-0.16229613
228	0xbcbef214	-0.023308791
229	0x3d823362	0.06357457
230	0xbd0e2aee	-0.03470891
231	0x3da75f47	0.081724696
232	0xbdd6733b	-0.10471197
233	0xbdb52589	-0.0884505
234	0x3c093ce3	0.008376333
235	0xbd53e0a7	-0.051727917
236	0x3d6bb635	0.057546813
237	0xbdbe60b5	-0.09295789
238	0xbdcf3a30	-0.1011852
239	0xbdd88425	-0.105720796
240	0x3d95ac33	0.07308235
241	0xbdad218e	-0.08453666
242	0x3c9d1aa1	0.019177737
243	0xbd3179e1	-0.043329123
244	0x3d05f4cb	0.032704156
245	0x3d1ba8d7	0.038002815
246	0x3d2fa2e9	0.042879973
247	0xbe451ac0	-0.19248486
248	0x3db428e6	0.08796863
249	0x3d5bac6f	0.053631242
250	0xbd34ae7b	-0.04411171
251	0x3cce9c1f	0.025220929
252	0x3dd20e69	0.10256655
253	0x3c89c2fb	0.016816607
254	0xbdd6635c	-0.1046817
255	0xbdfe7b89	-0.12425906

arith.constant2 f4 [60, 60]
0	0x3c040652	0.0080581475
1	0xbd1a4989	-0.037667785
2	0x3e05178c	0.12997264
3	0xbdede145	-0.116152324
4	0xbbfa1fc6	-0.007633182
5	0xbde2562c	-0.11051592
6	0x3d4a46f6	0.04938408
7	0x3d4a8b26	0.04944911
8	0x3d513e83	0.051085006
9	0xbd1bdc10	-0.038051665
10	0xbb3eebe9	-0.0029132313
11	0x3d984e27	0.074367814
12	0x3cb5c86b	0.022190293
13	0xbd0db770	-0.034598768
14	0x3cbb0a41	0.022832038
15	0x3cb30a56	0.021855514
16	0x3dc954c3	0.0983062
17	0xbd983e90	-0.07433808
18	0xbd304887	-0.043037917
19	0x3d4da5fd	0.050207127
20	0xbd7ac590	-0.061223567
21	0xbd0afc12	-0.0339318
22	0x3d8502eb	0.06494697
23	0xbd8e6112	-0.069521084
24	0x3d36d870	0.044640005
25	0x3caac1dc	0.020844392
26	0xbdbbc410	-0.09168255
27	0x3dc5f47e	0.09665774
28	0x3d95faae	0.07323204
29	0xbd542bd3	-0.051799607
30	0xbe289589	-0.16463293
31	0x3c5d298c	0.013498675
32	0xbd142c43	-0.036175024
33	0x3daeef4a	0.085417345
34	0xbdf57a3d	-0.11986206
35	0x3c6579fa	0.014006132
36	0xbc2413d5	-0.010014494
37	0xbd555b06	-0.05208876
38	0x3cd43996	0.025906365
39	0xbd1752b0	-0.03694409
40	0xbc9a63a4	-0.01884634
41	0xbde655ea	-0.112468556
42	0x3d954d32	0.072901145
43	0x3b896829	0.004193325
44	0x3bc239ee	0.005927316
45	0x3d472d8a	0.048627414
46	0x3dcdbb77	0.10045522
47	0xbe00def8	-0.12585056
48	0xbdf0ae85	-0.11752037
49	0x3e35043a	0.17677394
50	0x3b24c02d	0.002513896
51	0xbb17dfdd	-0.0023174204
52	0xbc11b6cb	-0.008893679
53	0x3d8c5725	0.06852559
54	0xbd831122	-0.06399752
55	0x3dcde1a7	0.100528054
56	0x3e0b4b8e	0.1360304
57	0x3d525062	0.05134619
58	0x3d40b40d	0.04704671
59	0x3d8d6542	0.06904079
60	0xbd35a2cf	-0.04434472
61	0xbd85fcac	-0.06542334
62	0x3ca5022e	0.02014264
63	0x3dc973a2	0.09836508
64	0x3d371c45	0.044704694
65	0x3d18485c	0.037178382
66	0xbe122c66	-0.14274749
67	0xbd7fac1d	-0.06242
68	0xbc9b2804	-0.01893998
69	0x3cfec31f	0.0310989
70	0x3e25f1e7	0.1620556
71	0x3cee232a	0.029069502
72	0x3d07a415	0.033115465
73	0x3e6c808d	0.23095913
74	0x3d4a4073	0.04937787
75	0xbda4d59b	-0.080485545
76	0x3dee7bcc	0.11644706
77	0x3c80b84b	0.015712878
78	0xbd4c1177	-0.049821343
79	0xbcd77e89	-0.026305454
80	0x3d88da3a	0.066822484
81	0x3da2764d	0.0793272
82	0xbd98b1a0	-0.07455754
83	0x3d826c5d	0.06368325
84	0xbc398d23	-0.0113251535
85	0x3d7f06f7	0.0622625
86	0x3db2f4d2	0.08738102
87	0xbd674b8e	-0.05646854
88	0xbd0df8e8	-0.034661204
89	0x3d9a367a	0.07529922
90	0x3ddc960b	0.10770806
91	0xbdf79572	-0.12089051
92	0xbc6aa7a1	-0.014322192
93	0x3d21c911	0.039498392
94	0x3d75af98	0.059981912
95	0xbce709bb	-0.028202882
96	0xbce33c91	-0.027738841
97	0xbe0b63b7	-0.13612257
98	0x3c8b0a9b	0.01697283
99	0x3e172741	0.14761068
100	0xbd58b23f	-0.052904364
101	0xbdb1d0a1	-0.08682371
102	0xbd7ac773	-0.061225366
103	0x3c324f12	0.01088311
104	0xbccfcf00	-0.02536726
105	0xbde885f7	-0.11353677
106	0x3b2d9fa8	0.0026492868
107	0x3dc34f73	0.09536638
108	0x3d0d2d7c	0.034467205
109	0xbc8825f2	-0.016619656
110	0xbcfb2a7f	-0.030659912
111	0x3d958a36	0.07301752
112	0x3c647b3c	0.013945397
113	0x3d3e7a99	0.046503637
114	0xbdae7b0f	-0.08519565
115	0x3d865de0	0.06560874
116	0xbe5fa14e	-0.21838877
117	0xbce6ea0a	-0.02818777
118	0x3dd87511	0.10569204
119	0xbb4afde4	-0.0030974085
120	0x3d4180fb	0.047242146
121	0xbdfefb7d	-0.12450311
122	0x3cd47544	0.025934823
123	0xbdb73378	-0.08945364
124	0x3d1df2ce	0.038561635
125	0xbd565489	-0.052326713
126	0x3da992c5	0.08279947
127	0x3d347b02	0.044062622
128	0x3d60e427	0.054905083
129	0xbdfe320b	-0.12411889
130	0x3db6b95a	0.08922072
131	0x3df11914	0.117723614
132	0xbc32ecdb	-0.010920729
133	0xbd2069b6	-0.039163314
134	0xbbd1d248	-0.0064032413
135	0xbd50e385	-0.05099823
136	0x3b82b7d8	0.003989201
137	0x3df69d27	0.12041693
138	0x3d49c0c3	0.049256098
139	0x3dbdcc4d	0.09267483
140	0x3dbc3dc1	0.09191466
141	0xbd7428a6	-0.059609078
142	0x3d2b88d0	0.04187852
143	0x3c0380cf	0.008026316
144	0xbcea811a	-0.028626014
145	0xbce9e528	-0.028551653
146	0x3e1b0c33	0.15141372
147	0xbcb6f122	-0.022331778
148	0x3d0011e9	0.03126708
149	0x3dff7d84	0.12475112
150	0xbd07cad5	-0.03315242
151	0x3d681d56	0.056668602
152	0x3d8afae8	0.06786138
153	0x3d5a0b73	0.053233575
154	0x3c8156d3	0.015788471
155	0xbd91dc57	-0.071221046
156	0xbdf1b0fd	-0.11801336
157	0xbbf4813a	-0.007461694
158	0x3d215da1	0.039395932
159	0x3d70a683	0.058752548
160	0x3d340e7d	0.04395913
161	0xbce900ee	-0.028442826
162	0xbd4d6fdd	-0.05015551
163	0xbd326cf9	-0.043560956
164	0xbdcca46c	-0.099922985
165	0xbd4110cf	-0.04713517
166	0xbd361e87	-0.044462707
167	0xbe12408f	-0.1428244
168	0x3cbc90fd	0.023018355
169	0xbd70517b	-0.058671456
170	0xbdb20a9d	-0.086934306
171	0x3df00a7a	0.11720748
172	0xbce8e9e2	-0.028431837
173	0xbd24068f	-0.040045317
174	0xbc847b7d	-0.016172165
175	0x3c36bad4	0.011152942
176	0x3dd1445f	0.10218119
177	0x3dda24b3	0.10651531
178	0xbd9f28bb	-0.077714406
179	0xbdc0774c	-0.09397754
180	0xbccf48e1	-0.025303306
181	0xbc2a4604	-0.01039267
182	0xbe1ebdf0	-0.15502143
183	0xbca8bd63	-0.02059812
184	0xbd0f2d8f	-0.034955557
185	0xbdf0ecc3	-0.11763909
186	0xbdb2d195	-0.08731381
187	0xbd8f919d	-0.070101954
188	0x3d360dc2	0.044446714
189	0xbd95e216	-0.07318513
190	0x3b5a59b8	0.0033317637
191	0x3cb2491c	0.021763377
192	0xbc1ab5c9	-0.009442755
193	0xbb817b74	-0.0039514843
194	0x3b71e1bc	0.003690823
195	0x3c9edf90	0.019393712
196	0xbc480a81	-0.012209536
197	0xbdbe1657	-0.09281605
198	0x3e0c5cc5	0.13707264
199	0xbda4f44e	-0.0805441
200	0x3d478417	0.048709955
201	0x3c3ccdac	0.011523645
202	0xbd8fd68d	-0.07023344
203	0x3b8a8dde	0.0042283377
204	0x3d9d0922	0.076677576
205	0x3d60683b	0.054786902
206	0xbd518929	-0.051156197
207	0xbd1c7a9e	-0.038202874
208	0xbd8cb21c	-0.06869909
209	0xbdbe4352	-0.09290184
210	0x3c8bebc6	0.017080199
211	0xbd31c078	-0.043396443
212	0x3d86469a	0.06556435
213	0xbcbe7ea5	-0.023253748
214	0x3c121de0	0.008918256
215	0xbde71755	-0.11283747
216	0x3dc0d616	0.09415834
217	0x3cb2a4f8	0.021807179
218	0xbdb65078	-0.08902067
219	0xbe033874	-0.12814504
220	0xbd576524	-0.05258669
221	0xbc098fec	-0.00839613
222	0xbd87dd65	-0.066340245
223	0x3d324a09	0.043527637
224	0xbbc49e3f	-0.0060003097
225	0x3ba593a3	0.005053
226	0x3d786633	0.06064434
227	0x3e0b8a6c	0.13627023
228	0x3db55931	0.088549025
229	0xbcbdedf9	-0.023184763
230	0x3da4871c	0.080335826
231	0x3e076cb1	0.13225056
232	0xbd29c555	-0.041447956
233	0xbce72c89	-0.028219478
234	0xbd4f7a4b	-0.050653737
235	0xbd23c32c	-0.039981052
236	0xbc9469c8	-0.018116847
237	0x3df06bfc	0.117393464
238	0x3e1273fc	0.14302057
239	0xbbf8b21a	-0.0075895907
240	0x3d0db0db	0.03459249
241	0xbc7701c5	-0.0150761055
242	0xbdad2673	-0.08454599
243	0x3d356845	0.044288892
244	0x3d86ec62	0.06588055
245	0x3d8e4754	0.069471985
246	0x3da75c6c	0.08171925
247	0x3c76d782	0.0150660295
248	0x3df1e99e	0.11812137
249	0xbd98a82f	-0.074539535
250	0x3dc7c546	0.09754424
251	0x3d62a53a	0.055333354
252	0xbdc04051	-0.093872674
253	0x3d8ec7ab	0.069716774
254	0x3da75c5c	0.08171913
255	0xbd930e98	-0.07180518

arith.constant3 f4 [60, 60]
0	0x3e49bc5d	0.19700761
1	0xbd864822	-0.06556727
2	0xbd7fd7c8	-0.062461644
3	0xbd28fcc2	-0.041256674
4	0x3e2976cc	0.16549224
5	0xbdccce31	-0.100002654
6	0x3da420c9	0.08014066
7	0xbcc35125	-0.023842404
8	0xbd4326cb	-0.047644418
9	0xbdff261f	-0.12458443
10	0xbe40d02a	-0.18829408
11	0xbc8ce7f4	-0.017200448
12	0x3d475b53	0.048671078
13	0x3e07b8d9	0.13254108
14	0xbe42c641	-0.1902094
15	0x3d6c3f3c	0.057677492
16	0xbd35d543	-0.044392835
17	0x3e10ddab	0.1414706
18	0x3da40917	0.08009546
19	0xbdb1a1c1	-0.0867343
20	0x3d7f0073	0.062256288
21	0x3dd02b14	0.101644665
22	0x3ccc9777	0.024974568
23	0xbd195d36	-0.03744241
24	0xbdadf0ba	-0.084931806
25	0xbd87d6ae	-0.06632744
26	0xbe41031b	-0.18848841
27	0xbd1f45ae	-0.03888481
28	0xba3276a4	-0.000680784
29	0x3d2e0a33	0.042490195
30	0x3d9987c4	0.07496598
31	0xbe460bd1	-0.19340445
32	0x3cf8aaee	0.030354943
33	0x3d8e39d1	0.06944621
34	0x3de92161	0.1138332
35	0xbb80933a	-0.003923801
36	0xbdc33ce9	-0.09533102
37	0xbd30d126	-0.04316821
38	0xbd82228d	-0.06354246
39	0xbc7c762f	-0.015409037
40	0xbba3e7d6	-0.005002002
41	0xbcf6fd6a	-0.030150134
42	0xbdd0b46f	-0.10190665
43	0xbd448dc1	-0.04798675
44	0xbcb4373d	-0.021998996
45	0x3d8f5ff0	0.070007205
46	0xbdff364f	-0.124615304
47	0xbdd2badf	-0.10289549
48	0x3e000239	0.12500848
49	0x3e061221	0.13092853
50	0xbda61dea	-0.081111744
51	0xbdd3baad	-0.1033834
52	0x3dcb82f4	0.09937087
53	0xbbfee167	-0.007778335
54	0xbe02713f	-0.12738512
55	0xbd7c0343	-0.061526548
56	0x3dbe04cc	0.09278259
57	0x3c04e1ba	0.008110458
58	0x3d02bf44	0.031920686
59	0xbe1c5404	-0.15266424
60	0x3d53df4a	0.051726617
61	0xbd49eb2f	-0.049296554
62	0x3cb650e3	0.022255367
63	0xbcdaacc1	-0.026693704
64	0x3e230e11	0.15923335
65	0xbd9f9633	-0.0779232
66	0xbdcb7a94	-0.09935489
67	0xbe2eba2c	-0.17063206
68	0x3dc42d8f	0.09579002
69	0x3d20e6fe	0.03928279
70	0x3cb8ed66	0.022574138
71	0xbb2b6070	-0.002615001
72	0x3da5bc36	0.08092539
73	0x3e0f9eec	0.14025468
74	0x3d795cb8	0.06087944
75	0xbd8a76f9	-0.067609735
76	0xbd0be55f	-0.034154292
77	0x3cfa2568	0.030535415
78	0x3dd6411c	0.104616374
79	0x3e108c2b	0.1411597
80	0x3de1919b	0.110141
81	0x3e05460b	0.13015
82	0x3ccc848d	0.024965549
83	0xbd15a8f9	-0.036538098
84	0x3a2b7df1	0.0006541899
85	0xbd917c91	-0.07103837
86	0xbd6f7623	-0.058462273
87	0xbd838354	-0.06421533
88	0xbc2e668c	-0.010644566
89	0xbd6eef88	-0.058333904
90	0x3cd01620	0.025401175
91	0xbdd1be26	-0.10241346
92	0xbcad7792	-0.02117518
93	0x3da3b0c5	0.079927005
94	0x3c777b37	0.01510506
95	0xbcb7b8f9	-0.022427069
96	0xbd3856b9	-0.04500458
97	0x3bc7c715	0.0060967305
98	0x3e3d5fe3	0.18493609
99	0xbe809826	-0.2511608
100	0x3b81b618	0.003958475
101	0x3d9d98f1	0.07695187
102	0xbe06bba6	-0.1315752
103	0xbd981723	-0.07426288
104	0x3d6bb193	0.057542395
105	0x3e15dc1f	0.14634751
106	0xbd3f95d5	-0.04677375
107	0x3d446c05	0.047954578
108	0xbc88fe5f	-0.016722856
109	0xbd1a2a3a	-0.037637927
110	0x3d053094	0.03251703
111	0xbc53436c	-0.012894493
112	0x3cd7cb58	0.026342079
113	0xbc018e16	-0.007907411
114	0x3c979a20	0.01850611
115	0xbd80f9df	-0.06297659
116	0xbc88fe61	-0.01672286
117	0x3e4e94fd	0.20174022
118	0x3e1d56d5	0.15365155
119	0xbdfb3050	-0.12265074
120	0x3a4d771d	0.00078378787
121	0x3c3d6d05	0.011561637
122	0x3dba0d22	0.09084536
123	0xbdb3d91e	-0.08781646
124	0x3da47937	0.080309324
125	0xbd6985d9	-0.057012413
126	0xbe0f3cf7	-0.139881
127	0xbcc095d1	-0.023508938
128	0x3d9b21e4	0.075748235
129	0xbda9a32a	-0.08283074
130	0x3d0f28c0	0.03495097
131	0x3d41b660	0.047293067
132	0x3da70c4f	0.081566446
133	0x3de6b693	0.11265292
134	0x3e154ef2	0.14580896
135	0xbced010a	-0.02893116
136	0xbdb498f6	-0.088182375
137	0x3d9dab9e	0.07698749
138	0x3ddf50dc	0.109040946
139	0xbb6cafd8	-0.0036115553
140	0x3db1230a	0.08649261
141	0x3d9302ea	0.0717829
142	0xbce0d115	-0.027443448
143	0x3e199e79	0.15001859
144	0xbd895019	-0.067047305
145	0xbde1abf3	-0.11019125
146	0xbd421f4d	-0.047393132
147	0x3d7c75ad	0.061635662
148	0x3d1d753e	0.03844189
149	0x3cb17090	0.02166012
150	0xbd849e88	-0.0647555
151	0x3ce5d814	0.028057136
152	0xbd9642de	-0.07336973
153	0x3daa8210	0.08325589
154	0x3cee352d	0.02907809
155	0xbd5c47ba	-0.05377934
156	0x3c888086	0.016662847
157	0x3d02d1ad	0.031938244
158	0xbd8d7db2	-0.0690874
159	0x3bdf6213	0.0068171113
160	0x3b4ed105	0.003155769
161	0xbd08b774	-0.03337808
162	0xbdaa4858	-0.0831458
163	0xbd2d9d4d	-0.04238634
164	0x3cab6304	0.020921238
165	0xbcbd0db0	-0.023077816
166	0xbe0f0941	-0.13968374
167	0x3d6eba7d	0.058283318
168	0x3d94657d	0.0724592
169	0x3caa1ef2	0.020766709
170	0xbd46f119	-0.048569772
171	0x3bcdf234	0.0062849764
172	0x3de9884b	0.11402949
173	0xbded005b	-0.115723334
174	0xbd16121d	-0.036638368
175	0x3cb0eec8	0.021598235
176	0xbdbe3594	-0.09287563
177	0x3cacea9f	0.02110797
178	0x3d51290f	0.051064547
179	0xbe83cc20	-0.25741673
180	0x3c3a4c87	0.011370785
181	0xbcaad44d	-0.020853186
182	0x3b224b0e	0.0024763974
183	0xbe483071	-0.19549729
184	0x3e04354b	0.12910955
185	0xbd83e621	-0.06440378
186	0xbe436d45	-0.19084652
187	0xbb52664b	-0.0032104428
188	0x3c0cfbce	0.008604957
189	0xbe0e760a	-0.13912216
190	0xbe414199	-0.1887268
191	0x3da055cc	0.078288645
192	0xbc043436	-0.008069089
193	0x3c80d799	0.015727805
194	0x3be1dc1c	0.006892694
195	0x3ccf6d5b	0.0253207
196	0xbd26dbed	-0.04073708
197	0x3dad1f59	0.08453245
198	0x3e0fadf9	0.14031209
199	0x3cb7c5bd	0.022433156
200	0x3e0dbd04	0.13841635
201	0x3db4a3ce	0.08820306
202	0xbd604bc3	-0.054759752
203	0xbd53b969	-0.051690493
204	0xbdc94ac1	-0.09828711
205	0xbe5934a5	-0.21211489
206	0xbdd7045a	-0.10498877
207	0xbd51bf7d	-0.051208008
208	0xbe167af5	-0.14695342
209	0xbc9a204b	-0.018814227
210	0x3d545c08	0.05184558
211	0xbd4b5fab	-0.049651783
212	0xbd4fcf60	-0.050734878
213	0x3a82adcb	0.0009970007
214	0x3c8d4f6a	0.017249782
215	0xbe3a6c5a	-0.18205395
216	0xbe02d006	-0.12774667
217	0xbdf32aea	-0.118734196
218	0x3d9e59ad	0.07731948
219	0xbd06cdfb	-0.032911282
220	0xbc84d799	-0.016216086
221	0x3df8137e	0.12113093
222	0xbd8286da	-0.06373377
223	0x3d89620b	0.06708153
224	0x3ce7b044	0.028282292
225	0x3da11590	0.07865441
226	0x3bb62928	0.0055591054
227	0x3e27d66d	0.1639039
228	0x3da3ff3f	0.08007669
229	0x3cf83e9e	0.030303296
230	0xbe0ce603	-0.13759618
231	0xbdd3a36b	-0.10333904
232	0x3d03ed8f	0.032208975
233	0x3d42ea8d	0.047586966
234	0xbc6ef346	-0.014584368
235	0x3dd32bd2	0.103110924
236	0xbdd630a8	-0.10458499
237	0x3daabb1d	0.0833647
238	0x3df9b4c0	0.121926785
239	0xbe0bb288	-0.13642323
240	0x3e32c208	0.1745683
241	0xbe4ee7ac	-0.20205563
242	0x3cd69446	0.02619375
243	0xbdeccd67	-0.11562615
244	0x3e13ceca	0.14434353
245	0x3dd360f5	0.103212275
246	0xbd793c81	-0.060848717
247	0x3b20ee77	0.0024556199
248	0x3e1ac0a3	0.15112548
249	0xbdb2fa48	-0.087391436
250	0x3d4d3556	0.050099693
251	0x3dfd46f5	0.123670496
252	0x3dd2c56d	0.10291562
253	0x3dd6c5e1	0.10486961
254	0xbe384b6d	-0.17997523
255	0xbdb16b6a	-0.08663066

arith.constant4 f4 [60]
0	0x3da66149	0.081240244
1	0x3d8e992e	0.069628105
2	0xbce84df8	-0.02835749
3	0x3de3bff5	0.11120597
4	0x3d95bbd1	0.07311214
5	0x3cf99249	0.030465262
6	0x3dca9bdf	0.09893011
7	0x3b16bf24	0.0023002112
8	0x3d4ce5cd	0.050023843
9	0xbd80dd13	-0.062921666
10	0x3cbadf3e	0.022811528
11	0x3d10f061	0.035385493
12	0x3cfbc079	0.030731427
13	0x3d7a45c2	0.061101682
14	0xbca1ee36	-0.019766908
15	0x3c7766dd	0.015100208
16	0x3d82a080	0.06378269
17	0x3cfb99bb	0.030712953
18	0x3cb9104a	0.022590775
19	0x3da4e06e	0.08050619
20	0x3d516c06	0.05112841
21	0x3d9e275c	0.07722351
22	0x3cc9be7b	0.024626961
23	0xbc01fe50	-0.007934168
24	0x3d107684	0.035269275
25	0x3c97a1c6	0.018509757
26	0x3d06605b	0.032806735
27	0x3d9217f4	0.07133475
28	0x3cd58454	0.026064076
29	0x3b3e9f4b	0.0029086645
30	0x3d424afb	0.04743479
31	0x3db48a38	0.08815426
32	0x3d3e82f8	0.04651162
33	0x3c3665df	0.011132686
34	0x3c6b2de0	0.014354199
35	0x3ceebc07	0.029142393
36	0x3d290c32	0.041271396
37	0xbb1a0407	-0.0023500936
38	0xbce5dbef	-0.028058974
39	0x3ce80066	0.028320502
40	0x3db30542	0.08741237
41	0x3b6d39ec	0.0036197854
42	0x3dbbc6f1	0.091688044
43	0x3d9c4f04	0.076322585
44	0xbc58032b	-0.013184349
45	0x3cdd8d51	0.027044924
46	0x3d20b4a6	0.03923478
47	0x3d21b101	0.039475445
48	0x3ceae7c4	0.028674968
49	0xbb05cd92	-0.002041672
50	0x3b7d126d	0.003861572
51	0x3d8753d4	0.06607786
52	0x3c1a1ac2	0.009405794
53	0x3cdf98a0	0.027294457
54	0x3d202413	0.039096903
55	0x3cdefb79	0.02721952
56	0x3d69cb23	0.057078492
57	0x3d2d913b	0.04237483
58	0x3c1c2928	0.009531297
59	0x3beed209	0.0072882217

arith.constant5 f4 [60]
0	0x3f82cd03	1.0218815
1	0x3f8394f6	1.0279834
2	0x3f80b618	1.0055571
3	0x3f80ccab	1.006246
4	0x3f82b266	1.0210693
5	0x3f8468b1	1.0344449
6	0x3f8dbcad	1.1073204
7	0x3f7f5899	0.99744564
8	0x3f7a6f9c	0.9782655
9	0x3f77fa1b	0.96866006
10	0x3f804283	1.0020298
11	0x3f831216	1.0239894
12	0x3f7bbad7	0.9833197
13	0x3f84139f	1.0318488
14	0x3f80f890	1.0075855
15	0x3f821eed	1.0165688
16	0x3f803754	1.0016885
17	0x3f81f1ac	1.0151877
18	0x3f81a8c1	1.0129625
19	0x3f8667a7	1.0500382
20	0x3f7f7c07	0.99798626
21	0x3f7d15cc	0.98861384
22	0x3f80fffd	1.0078121
23	0x3f7fdbac	0.9994457
24	0x3f7c7514	0.9861615
25	0x3f7fe0df	0.999525
26	0x3f80f006	1.0073249
27	0x3f8251b2	1.0181181
28	0x3f80929a	1.0044739
29	0x3f7fd6eb	0.99937314
30	0x3f822821	1.0168496
31	0x3f80dc17	1.0067166
32	0x3f82a7cd	1.0207459
33	0x3f866e77	1.0502461
34	0x3f8025a2	1.0011485
35	0x3f85fc43	1.0467609
36	0x3f83c955	1.0295817
37	0x3f82e6e6	1.0226715
38	0x3f7eee74	0.995826
39	0x3f7583d0	0.95904255
40	0x3f896f43	1.0737079
41	0x3f853f07	1.040986
42	0x3f7c3d10	0.98530674
43	0x3f7e978b	0.99449986
44	0x3f7c1716	0.98472726
45	0x3f86a5b0	1.0519314
46	0x3f799809	0.9749761
47	0x3f845f0a	1.0341504
48	0x3f836c5d	1.0267445
49	0x3f84260b	1.032411
50	0x3f824944	1.0178609
51	0x3f7c141a	0.9846817
52	0x3f82de1a	1.022403
53	0x3f7f38fb	0.9969632
54	0x3f796aee	0.97428787
55	0x3f829b6b	1.020368
56	0x3f7fce84	0.9992449
57	0x3f809538	1.0045538
58	0x3f8322ea	1.024503
59	0x3f83b6b6	1.0290134

arith.constant6 f4 [60]
0	0x3c1f91f5	0.009739389
1	0xbcb6fdf8	-0.022337899
2	0xbc85c8a7	-0.01633103
3	0xbcb2cdd2	-0.021826658
4	0x3b659354	0.0035030441
5	0xbc618d55	-0.013766606
6	0xbd861196	-0.06546323
7	0x38f72cbf	0.000117862124
8	0xbcd29cb4	-0.025709487
9	0x3acd377b	0.0015656793
10	0xbc05a525	-0.008157049
11	0xbc917fde	-0.017761167
12	0xbcb7cc3b	-0.022436252
13	0xbc110431	-0.008851097
14	0x3d3f6ef6	0.04673668
15	0x3ca168be	0.019703265
16	0xbbe2c66a	-0.0069206255
17	0xbd54a7bb	-0.051917773
18	0xbc21911b	-0.009861256
19	0x3cf05fdf	0.02934259
20	0x3b56710b	0.0032721187
21	0xbbaf71b5	-0.005354131
22	0x3d2237c8	0.03960398
23	0x3b9230b9	0.0044613746
24	0xbcf608f1	-0.03003356
25	0x3c84fb11	0.016232999
26	0xbcc94ca3	-0.024572676
27	0xbc07e4d9	-0.008294308
28	0xbce1d35a	-0.0275666
29	0xbd610d80	-0.054944515
30	0x3d023009	0.03178409
31	0x3c56f3c4	0.013119642
32	0x3ce0d8d3	0.02744714
33	0xbcc951c8	-0.02457513
34	0xbd1da7c7	-0.038490083
35	0x3c0b44fa	0.008500332
36	0x3d693960	0.056939483
37	0x3cdf7d18	0.027281329
38	0xbcdc29c7	-0.02687539
39	0x3c27f4d4	0.010251243
40	0xbcd0999b	-0.02546387
41	0xbc9d66f6	-0.019214135
42	0x3c78e880	0.015192151
43	0xbc809b16	-0.01569895
44	0x3d91dc81	0.07122136
45	0xbae98eab	-0.0017819008
46	0xbba4552c	-0.005015036
47	0xbcf9f2b0	-0.03051123
48	0xbb3eae22	-0.002909549
49	0xbc15ed3d	-0.0091508
50	0x3b77e0a6	0.003782311
51	0xbd002aec	-0.031290933
52	0xbcfe858b	-0.031069538
53	0xbcf29db8	-0.029616222
54	0xbd38711e	-0.045029752
55	0xbca8b489	-0.020593898
56	0xbd67230e	-0.056429915
57	0xbc243250	-0.010021761
58	0x3cdf925e	0.027291473
59	0x3c9fd201	0.019509317

arith.constant7 f4 [60]
0	0x3da28c92	0.07936968
1	0x3d70a8cf	0.05875474
2	0x3cde4e31	0.027136894
3	0x3ded55c0	0.11588621
4	0x3da39083	0.07986548
5	0x3d0c9f06	0.034331344
6	0x3d6c3074	0.057663396
7	0x3c911951	0.017712267
8	0x3d3adfee	0.045623712
9	0xbd2d26c8	-0.042273313
10	0x3d3cd0df	0.046097632
11	0x3d24e4c6	0.040257238
12	0x3d07e95d	0.033181537
13	0x3d87b956	0.06627147
14	0x3c55fe3d	0.013061103
15	0x3d83fb12	0.06444372
16	0x3d852431	0.065010436
17	0x3d27b8ba	0.040947653
18	0x3d0704c2	0.03296352
19	0x3d8926af	0.066968314
20	0x3d73889a	0.059456445
21	0x3d95581d	0.07292197
22	0x3cf310cd	0.029671097
23	0x3c0d895a	0.008638704
24	0x3d32e6eb	0.04367725
25	0x3cd332a3	0.025780981
26	0x3d213fe4	0.03936757
27	0x3d98e0e1	0.07464767
28	0x3cfaac83	0.030599838
29	0x3c32eba2	0.010920437
30	0x3d2dae9c	0.04240285
31	0x3da49477	0.0803613
32	0x3d833bf5	0.0640792
33	0x3d0e5619	0.034750078
34	0xba88f8ba	-0.0010450103
35	0x3d364816	0.04450234
36	0x3d8a5495	0.06754414
37	0x3bb9fbd5	0.0056757727
38	0xbc78e2f6	-0.01519083
39	0x3d0d4e0a	0.034498252
40	0x3d7efbfd	0.062252034
41	0x38ca9390	9.659596e-05
42	0x3da58f3f	0.08083963
43	0x3da9cb11	0.08290685
44	0xbcaf4178	-0.021393523
45	0x3cc6e2aa	0.024278004
46	0x3d38e2b1	0.045138065
47	0x3d2e0da7	0.04249349
48	0x3d083b69	0.033259783
49	0x3cdbcd6d	0.026831353
50	0x3ccf5cca	0.0253128
51	0x3d9c6fba	0.07638498
52	0x3c9270a8	0.017875984
53	0x3ce713f6	0.02820776
54	0x3d7a595b	0.061120372
55	0x3d1339a9	0.03594366
56	0x3c481762	0.012212606
57	0x3d60d84a	0.05489377
58	0x3c730133	0.014831829
59	0x3d640fbd	0.05567907

arith.constant8 f4 [60, 14]
0	0xbd9d810e	-0.07690631
1	0xbcc259c5	-0.023724446
2	0x3cd4d66b	0.025981149
3	0xbd33785e	-0.043815963
4	0x3d4cf347	0.050036695
5	0xbe358333	-0.1772583
6	0x3c173fe8	0.009231545
7	0x3dbbde37	0.091732435
8	0x3c8625d2	0.016375456
9	0xbe2fae37	-0.17156301
10	0xbdbd0eb1	-0.09231318
11	0xbe00c29c	-0.12574238
12	0xbcc07183	-0.023491627
13	0x3e127ecb	0.1430618
14	0xbe473cfc	-0.19456857
15	0xbe2c3839	-0.16818322
16	0xbd3fd5c8	-0.046834737
17	0x3ddf46ce	0.10902177
18	0xbdc86056	-0.097839996
19	0x3b2d024a	0.002639907
20	0xbdad2b77	-0.08455556
21	0x3dbf6b55	0.09346644
22	0xbe70a88d	-0.23501797
23	0xbd7b2900	-0.061318398
24	0xbe18dbf9	-0.14927663
25	0xbe195188	-0.14972508
26	0x3dad27ea	0.08454879
27	0x3e34aacd	0.1764328
28	0xbde14b50	-0.11000693
29	0xbc2b5ab6	-0.010458639
30	0x3d0469c4	0.03232743
31	0x3dee67da	0.11640902
32	0x3d40cd6d	0.04707091
33	0x3d0d7d41	0.03454328
34	0x3d3fe8b5	0.046852786
35	0x3d8449cc	0.06459388
36	0xbe0741c4	-0.13208681
37	0x3dac6afc	0.08418843
38	0x3dc15950	0.09440863
39	0x3d958a40	0.0730176
40	0xbbed9fa0	-0.007251695
41	0xbd9ab7dc	-0.075546
42	0x3da23372	0.07919969
43	0x3d3cc9bb	0.046090823
44	0xbdc207ee	-0.09474169
45	0xbd339a9e	-0.043848626
46	0xbcc12b3e	-0.02358019
47	0xbd123c64	-0.035702124
48	0xbd1027ee	-0.03519433
49	0x3d910637	0.070812635
50	0xbdfac638	-0.122448385
51	0xbb87e3ec	-0.0041470435
52	0xbab8e119	-0.001410517
53	0xbdbeab08	-0.09309965
54	0xbd9e56f9	-0.077314325
55	0x3d5a9c6f	0.053371843
56	0xbc156b61	-0.009119839
57	0xbe5b92a4	-0.21442658
58	0xbb035f00	-0.0020045638
59	0xbcb13355	-0.021630922
60	0xbdf6090b	-0.120134436
61	0xbd30a83c	-0.04312919
62	0x3d3600d9	0.044434402
63	0x3e1cb56a	0.15303579
64	0xbe282d95	-0.16423638
65	0xbd8f1c54	-0.06987825
66	0xbccc42ef	-0.02493426
67	0xbdbd5ba0	-0.09245992
68	0x3e047030	0.12933421
69	0x3d35548e	0.04427009
70	0xbe830db6	-0.25596398
71	0xbde9b2ea	-0.11411078
72	0xbdad4f2f	-0.08462369
73	0x3a0fb5ac	0.00054820883
74	0xbe0ef117	-0.13959156
75	0xbd891be3	-0.06694772
76	0xbce4d07c	-0.027931444
77	0xbd873c75	-0.06603328
78	0xbbe8b632	-0.0071017975
79	0xbd041d3d	-0.032254446
80	0x3da06c00	0.07833099
81	0xbdf9e5d8	-0.12202042
82	0x3ced4945	0.028965602
83	0xbcb9b7fa	-0.022670735
84	0x3e1aec0b	0.15129106
85	0x3ceae2b1	0.028672548
86	0xbd49e19c	-0.049287423
87	0xbd93dca4	-0.07219818
88	0x3bd015c2	0.00635025
89	0x3d6b149e	0.05739271
90	0xbc563b8f	-0.013075723
91	0x3d0834a3	0.033253323
92	0xbd7b5795	-0.06136282
93	0x3d838998	0.06422728
94	0x3db11570	0.08646667
95	0xbd6bce08	-0.057569534
96	0xbe25c090	-0.16186738
97	0xbdda4ac3	-0.10658791
98	0xbe27aa7c	-0.16373628
99	0xbb8b37a4	-0.0042485762
100	0xbdb72a9d	-0.08943675
101	0xbbbdf38c	-0.0057968553
102	0xbda80eb5	-0.0820593
103	0xbe10270c	-0.14077395
104	0xbdccad71	-0.09994019
105	0xbc5ca846	-0.013467854
106	0xbd9a1cc8	-0.07525021
107	0xbd0b8edb	-0.034071784
108	0xbe18b420	-0.14912462
109	0x3cbb29d7	0.0228471
110	0xbd346cf5	-0.044049222
111	0x3d1681ca	0.03674487
112	0xbddda394	-0.10822216
113	0xbe311fc4	-0.17297274
114	0xbd9e5fe8	-0.077331364
115	0x3df247ca	0.11830099
116	0xbe434068	-0.19067538
117	0xbc306e27	-0.01076845
118	0xbe0fe91c	-0.14053768
119	0x3e668039	0.2250985
120	0xbdaebc59	-0.08532018
121	0xbd5b8de3	-0.05360211
122	0xbdafe9e5	-0.08589534
123	0xbaf39584	-0.0018583988
124	0x3e1fb60c	0.15596789
125	0xbdc5072f	-0.09620511
126	0xbd30bc13	-0.04314811
127	0x3dcf4e66	0.10122375
128	0xbd705f26	-0.05868449
129	0xbc30ec5f	-0.010798543
130	0x3b62ebc9	0.0034625402
131	0x3d61fe2e	0.055174045
132	0x3d1428cd	0.036171723
133	0xbdf96957	-0.12178295
134	0xbd5e61c6	-0.054292463
135	0x3dba1f37	0.09087985
136	0x3d90db22	0.07073046
137	0x3db28af3	0.08717909
138	0x3cdc943c	0.026926152
139	0x3c6660b1	0.014061139
140	0xbe1cca7f	-0.15311621
141	0xbd54c2e2	-0.051943667
142	0xbd96c954	-0.07362619
143	0xbd7375c1	-0.05943847
144	0x3da7536a	0.08170207
145	0xbe0173ee	-0.1264188
146	0xbdde37a4	-0.10850456
147	0xbcdcaf5e	-0.02693909
148	0x3deac2c1	0.114629276
149	0xbe33d660	-0.17562246
150	0x3cc75180	0.024330854
151	0xbc8627cd	-0.0163764
152	0x3dd4c271	0.10388649
153	0x3bb7477d	0.005593239
154	0x3ca228cb	0.019794842
155	0x3d4a4ec8	0.049391538
156	0xbe11096b	-0.14163749
157	0xbd761294	-0.06007631
158	0xbe24243a	-0.16029444
159	0xbc3b250f	-0.01142241
160	0xbd28de60	-0.0412277
161	0x3ddb7729	0.10716087
162	0xbe23218d	-0.15930767
163	0x3d9681c1	0.07348967
164	0xbe2ada0a	-0.16684738
165	0xbe21e236	-0.15808949
166	0xbd670b9f	-0.056407567
167	0xbc940245	-0.018067488
168	0xbe20fafa	-0.1572074
169	0xbb698a69	-0.0035635477
170	0xbda116fc	-0.07865712
171	0x3d4f57eb	0.050620954
172	0xbe1f44a0	-0.15553522
173	0xbd830e49	-0.06399209
174	0x3bccb2ca	0.0062468993
175	0x3c1eacd9	0.009684765
176	0x3d0ed1a1	0.034867886
177	0x3d9358d0	0.07194674
178	0xbd22b02b	-0.039718788
179	0xbe05eb38	-0.1307801
180	0x3dc7a906	0.097490355
181	0x3d152534	0.036412433
182	0xbc07646c	-0.008263689
183	0xbcec9402	-0.02887917
184	0xbd864976	-0.0655698
185	0xbd66333b	-0.0562012
186	0xbe67244a	-0.22572437
187	0xbe5e4409	-0.21705641
188	0x3d9a52b6	0.07535307
189	0x3d1dc021	0.038513307
190	0xbe093b7a	-0.13401595
191	0xbd22f4d1	-0.039784256
192	0x3cda18e0	0.02662319
193	0xbe0d551b	-0.13801996
194	0x3d6254fc	0.05525683
195	0x3da13db1	0.07873095
196	0xbe35b992	-0.1774657
197	0xbd8d702e	-0.06906162
198	0xbdc65dcb	-0.09685858
199	0x3dc45af1	0.09587658
200	0x3d215437	0.039386954
201	0xbdc1ab14	-0.09456459
202	0xbe1738e9	-0.14767803
203	0x3e4c2008	0.19934094
204	0xbe15977c	-0.14608568
205	0x3d304ccf	0.043042
206	0x3d1d5f0d	0.038420726
207	0xbdb261fc	-0.08710095
208	0xbcb8abe9	-0.02254291
209	0x3d7a39e6	0.061090373
210	0x3d7ce530	0.061742008
211	0x3de5afe0	0.11215186
212	0x3d146b59	0.036235187
213	0x3db463be	0.08808087
214	0xbdc77788	-0.09739596
215	0xbd68630e	-0.05673509
216	0xbd8132fc	-0.063085526
217	0x3d016789	0.03159288
218	0xbcd017ea	-0.025402028
219	0x3d7f794a	0.06237153
220	0xbd28ff73	-0.04125924
221	0x3d80c74a	0.06288011
222	0x3c956019	0.0182343
223	0xbe124b02	-0.14286426
224	0xbe28e509	-0.1649362
225	0xbdd13a86	-0.102162406
226	0xbdf389f3	-0.11891546
227	0x3e479e2e	0.19493935
228	0xbe5e7cfb	-0.21727364
229	0xbdb5d5cb	-0.088786684
230	0xbe1b48f6	-0.15164551
231	0x3e313195	0.1730407
232	0xbd140c91	-0.036144797
233	0xbc48da8a	-0.012259135
234	0xbe4c174e	-0.19930765
235	0x3d2428f5	0.040078122
236	0xbcbd1cb2	-0.023084972
237	0x3df1783f	0.11790513
238	0x3d7653a9	0.06013838
239	0xbe388b76	-0.1802195
240	0xbbf0d81b	-0.0073499805
241	0x3e441c73	0.19151478
242	0x3acdf45e	0.0015713086
243	0xbde4eb60	-0.11177707
244	0x3d120a95	0.035654623
245	0x3dc05581	0.093913086
246	0xbe609fa2	-0.21935895
247	0xbdbbb080	-0.09164524
248	0xbe5bbecd	-0.21459503
249	0xbc27cd72	-0.010241853
250	0x3e322c53	0.17399721
251	0x3d640804	0.055671707
252	0xbe1568eb	-0.14590804
253	0xbdd700c8	-0.10498196
254	0x3d7db39f	0.06193888
255	0x3e210a25	0.15726526

arith.constant9 f4 [60, 14]
0	0xbd59ceef	-0.053175863
1	0xbd02964f	-0.031881627
2	0xbe3fe525	-0.18739755
3	0x3d6bb7b8	0.057548255
4	0xbde0549f	-0.1095364
5	0xbdef8e64	-0.11697081
6	0xbdb98ab6	-0.0905966
7	0x3e5384f3	0.20656185
8	0xbe07b2ae	-0.13251755
9	0xbde515a1	-0.11185766
10	0xbdd207f2	-0.10255422
11	0xbe4e72ac	-0.20160931
12	0xbd27479d	-0.04083978
13	0xbb8b50d8	-0.0042515807
14	0xbb7473f9	-0.003730057
15	0x3d465958	0.04842505
16	0xbe389ba5	-0.18028124
17	0x3daa5172	0.08316316
18	0xbe074b5a	-0.13212338
19	0xbe12c70a	-0.1433374
20	0x3d3e8446	0.046512865
21	0x3dd1483e	0.10218857
22	0xbe0d70bd	-0.13812537
23	0x3d8a3084	0.06747535
24	0x3cde51e7	0.027138663
25	0xbdf41924	-0.11918858
26	0x3e0ff684	0.14058882
27	0x3de1475b	0.10999938
28	0xbe22a0ec	-0.158817
29	0x3c601d90	0.013678923
30	0xbd02064d	-0.03174429
31	0x3e138575	0.14406379
32	0xbd751f4e	-0.059844308
33	0xbddccc05	-0.10781101
34	0x3d96798d	0.07347403
35	0x3d18cfca	0.037307538
36	0xbd56aba1	-0.05240977
37	0x3d0ca183	0.034333717
38	0xbd902e3d	-0.07040069
39	0x3d135bc2	0.03597618
40	0xbc2f1bb8	-0.010687761
41	0xbe0a0942	-0.13480094
42	0xbc9a3323	-0.018823212
43	0xbe2d11d2	-0.16901329
44	0xbe652413	-0.22377042
45	0x3e33b77e	0.17550465
46	0x3cfe00c6	0.031006228
47	0xbd83cb45	-0.06435255
48	0xbcb74917	-0.02237372
49	0xbd0fd86d	-0.03511851
50	0x3dacd7ee	0.08439623
51	0x3d4334de	0.04765784
52	0xbdb06503	-0.086130165
53	0xbe335f16	-0.17516741
54	0xbcd6ad2f	-0.026205627
55	0x3d2fb7b4	0.042899802
56	0xbdd66f24	-0.10470417
57	0xbe080020	-0.13281298
58	0xbd7b487c	-0.061348423
59	0x3dd9a3b2	0.106269255
60	0xbd3bd022	-0.045852788
61	0xbe0facd6	-0.14030775
62	0xbcdfb3f5	-0.02730749
63	0xbd171188	-0.036881953
64	0x3d8e7bdb	0.06957217
65	0x3da1cd3b	0.07900473
66	0xbe0256b6	-0.1272839
67	0xbdddb888	-0.10826212
68	0x3e37cb37	0.17948614
69	0xbca79195	-0.020455161
70	0xbe7f3df0	-0.24925971
71	0x3cdb1016	0.026741069
72	0xbd86e316	-0.06586282
73	0x3de61777	0.11234944
74	0xbde006e0	-0.10938811
75	0x3d06eb41	0.0329392
76	0xbde39c9c	-0.11113855
77	0x3ced3780	0.028957129
78	0x3d260df0	0.040540636
79	0x3d6452c6	0.055743
80	0x3c872753	0.016498243
81	0xbd37c09e	-0.04486143
82	0xbc7486a5	-0.01492468
83	0xbcedb2a2	-0.029015843
84	0x3d1d2b8a	0.0383716
85	0x3df77197	0.120822124
86	0x3dac4d7c	0.084132165
87	0x3e10b2d0	0.14130712
88	0x3c0fa1cd	0.008766604
89	0xbe1b9205	-0.15192421
90	0xbe03d61e	-0.12874648
91	0xbd283f1c	-0.04107581
92	0xbe60293e	-0.21890733
93	0xbdcefdcd	-0.101070024
94	0x3d803c5d	0.062615134
95	0xbe1cd144	-0.15314204
96	0xbd9792c8	-0.07401043
97	0xbe382207	-0.1798173
98	0xbe3ad4b6	-0.18245205
99	0xbd807be2	-0.06273629
100	0x3d7f6342	0.06235052
101	0xbdc0e2a7	-0.094182305
102	0xbdf6d557	-0.1205241
103	0xbc89c451	-0.016817244
104	0xbd845b92	-0.06462778
105	0x3dae5a81	0.08513356
106	0x3e03150a	0.12800995
107	0x3da66dd2	0.08126415
108	0xbc4afa01	-0.012388707
109	0x3dd8fb1b	0.105947696
110	0xbd52d753	-0.05147488
111	0xbdab866a	-0.08375247
112	0x3dbb92e9	0.0915888
113	0xba1211f1	-0.00055721315
114	0x3cb62438	0.022234067
115	0xbc66c090	-0.014083996
116	0xbdf1fac6	-0.11815409
117	0xbd909dca	-0.07061346
118	0xbddc243c	-0.10749099
119	0x3db18be4	0.0866926
120	0xbd8687c4	-0.06568864
121	0xbdd75565	-0.105143346
122	0xbdbc172b	-0.091841064
123	0xbd8284a4	-0.063729554
124	0x3ded8b56	0.11598842
125	0xbcb99b19	-0.022656964
126	0x3dd493a1	0.103797205
127	0x3d483566	0.04887905
128	0xbda7acb4	-0.081872374
129	0xbd948263	-0.07251432
130	0x3e0ac519	0.1355175
131	0xbd360a2d	-0.044443298
132	0x3d959857	0.07304447
133	0x3dbbce94	0.09170261
134	0xbdbbd469	-0.091713734
135	0x3dab4a85	0.08363823
136	0xbdf10d8d	-0.11770163
137	0x3c60d218	0.013721965
138	0xbc6cab69	-0.014445164
139	0x3df1cea7	0.11806994
140	0xbe57f77b	-0.210905
141	0xbe03b9b7	-0.12863813
142	0xbe27adf6	-0.16374955
143	0xbd88a3b1	-0.06671847
144	0x3d9f1f0f	0.07769596
145	0xbdadc54e	-0.084848985
146	0xbe38b7bf	-0.18038844
147	0x3dbb4f31	0.09145964
148	0xbdef13e4	-0.11673716
149	0xbda2b3a9	-0.07944424
150	0xbd8a5b7b	-0.0675573
151	0x3d88f7c5	0.06687883
152	0x3e6d7b38	0.23191535
153	0x3df9b4ad	0.12192664
154	0xbe2ad94a	-0.16684452
155	0xbde6e803	-0.112747215
156	0xbd2ebce3	-0.042660605
157	0xbdba0e82	-0.090847984
158	0x3d85371d	0.06504653
159	0x3d0e325f	0.034716006
160	0xbd923f09	-0.07140929
161	0x3de8fd22	0.11376406
162	0xbdc2b397	-0.0950691
163	0xbcd56c10	-0.026052505
164	0x3d845ef2	0.06463422
165	0xbd871bb9	-0.065970846
166	0xbd8dac5b	-0.0691764
167	0x3d2dab47	0.04239967
168	0x3d0b311f	0.033982392
169	0xbddb02b4	-0.10693875
170	0xbd3fb0db	-0.046799522
171	0xbd27f904	-0.041008964
172	0xbce49210	-0.02790168
173	0x3c938b9a	0.018010903
174	0xbcc4ebc6	-0.024038207
175	0x3cb27979	0.021786438
176	0xbc6fcf81	-0.014636875
177	0x39534677	0.00020148778
178	0x3bccd7ca	0.00625131
179	0xbe1541fd	-0.14575954
180	0x3d089eaf	0.033354457
181	0x3e20d468	0.15706027
182	0xbd98d33a	-0.07462163
183	0xbe208d9f	-0.15679024
184	0x3d34755a	0.044057228
185	0x3e2ebca0	0.17064142
186	0x3daedd16	0.085382625
187	0x3d363f60	0.044494033
188	0x3c9d2391	0.019181998
189	0xbcc481a9	-0.023987608
190	0x3d8f6681	0.07001973
191	0xbcd6f2d0	-0.026238829
192	0xbd49844b	-0.04919843
193	0xbe2a5673	-0.1663454
194	0x3b278255	0.0025559862
195	0x3d6f18af	0.05837315
196	0xbcce2bee	-0.025167432
197	0xbd17dd03	-0.037076008
198	0x3d863f05	0.06554989
199	0x3ce3d4b1	0.02781138
200	0xbddafe89	-0.1069308
201	0x3d197760	0.03746736
202	0xbe250aef	-0.16117452
203	0x3da485ee	0.080333576
204	0x3da2b97c	0.079455346
205	0x3d08a389	0.033359084
206	0xbdaa86f7	-0.08326524
207	0x3d7a9547	0.06117752
208	0xbb888aa9	-0.00416692
209	0xbd7a7a93	-0.061152052
210	0xbd257fc1	-0.04040504
211	0xbc5a2f14	-0.013316888
212	0xbd4a4c27	-0.04938903
213	0xbda1ca87	-0.07899957
214	0x3d77af90	0.060470164
215	0xbb58a41f	-0.0033056808
216	0x3d4244ae	0.04742878
217	0x3ba47b73	0.005019599
218	0xbe11fbe5	-0.14256246
219	0xbdbf3f69	-0.093382664
220	0x3dc4b2ae	0.09604393
221	0xbd9ca2c0	-0.076482296
222	0x3db27131	0.08712996
223	0x3dee7d8c	0.1164504
224	0xbe2291d9	-0.15875949
225	0xbb873514	-0.0041262005
226	0xbe2f111a	-0.17096367
227	0x3e293778	0.16525066
228	0xbc880fad	-0.016609037
229	0xbdf16964	-0.1178768
230	0x3db7292d	0.089434005
231	0x3cb60d27	0.022223068
232	0xbd3a9187	-0.045548942
233	0x3ba8aa52	0.005147257
234	0xbe1751f1	-0.14777352
235	0x3d20bb64	0.03924121
236	0x3cb62ab5	0.022237161
237	0xbdc4f271	-0.096165545
238	0x3d10b19f	0.035325643
239	0xbc50b08b	-0.012737404
240	0xbdf9c315	-0.12195412
241	0x3e0d7533	0.13814239
242	0x3973c2bb	0.00023246829
243	0xbdbf08ff	-0.09327888
244	0x3d428500	0.04749012
245	0x3db7cef4	0.0897502
246	0xbca3a4ef	-0.019976107
247	0xbd8009d4	-0.062518746
248	0xbd5025f6	-0.050817452
249	0xbcab3a3b	-0.02090179
250	0xbd0bd080	-0.034134388
251	0x3e077593	0.13228445
252	0x3cbfaa7a	0.02339672
253	0xbd81e672	-0.06342782
254	0xbd2f9716	-0.042868696
255	0x3e1cc729	0.15310349
