Riproduzione/models/FD001/CNNlarge/CNN_large_batch_1.tflite (tflite, 310896 bytes, 11 tensors)

sequential_1/conv1d_3/BiasAdd/ReadVariableOp f4 [128]
-0.031413306 -0.157127 -0.06671875 -0.054255404 -0.057899892 -0.022431869 -0.075293474 -0.04611759
-0.027770022 -0.029602332 -0.0337539 -0.023938185 -0.021923246 0.0142994765 -0.06506202 -0.07972997
-0.027023118 -0.09201042 -0.06098093 -0.07930505 -0.028644536 -0.1059879 -0.1629608 -0.016887935
-0.20484507 -0.025108825 -0.09623672 -0.14864828 -0.022014424 -0.038656183 -0.17745891 -0.032473106
-0.026278911 -0.08546827 -0.04043335 -0.100384936 -0.10818021 -0.09152168 -0.023214307 -0.028160332
-0.049497016 -0.03643621 -0.105657704 -0.11338442 -0.1078584 -0.09128759 -0.024728602 -0.032040793
-0.009856798 -0.026845941 -0.511138 -0.024749612 -0.14610767 -0.024595367 -0.09043897 -0.079306856
-0.09214609 -0.09749246 -0.021406656 -0.027609251 -0.121334404 -0.008137582 -0.07442645 0.48784283
-0.12728497 -0.038758658 -0.09706839 -0.0922347 -0.026709825 -0.09604967 -0.032702647 -0.13436837
-0.052833293 -0.088946186 -0.14442077 -1.0028987 -0.039050017 -0.04423661 -0.049960136 -0.056307096
-0.15516245 -0.032186482 -0.0870832 -0.06732528 -0.045038883 -0.005812141 -0.11831665 -0.020026596
-0.041343357 -0.08811384 -0.1044426 -0.100217886 -0.1012428 -0.10210439 -0.084537625 -0.10310502
-0.020785563 -0.022911258 -0.03008995 -0.039854273 -0.11479313 -0.060097825 -0.051456306 -0.095725164
-0.08743803 -0.0266274 -0.09807316 -0.09942373 -0.09791688 -0.036941763 -0.038861047 -0.028252074
-0.061893128 -0.024192324 -0.04118048 -0.026169315 -0.11264139 -0.024235943 -0.110476546 -0.053623326
0.48049527 -0.08241424 -0.011699433 -0.10044475 -0.070933916 -0.026343469 -0.11054955 -0.027570827
00000000: 3dab 00bd e6e5 20be d7a3 88bd ea3a 5ebd
00000010: 7028 6dbd 0ac3 b7bc 7733 9abd cce5 3cbd
00000020: f57d e3bc 9780 f2bc 8841 0abd 031a c4bc
00000030: 6198 b3bc 5a48 6a3c 3d3f 85bd 7749 a3bd
00000040: 965f ddbc f66f bcbd 24c7 79bd b06a a2bd
00000050: f2a7 eabc 2f10 d9bd 32df 26be 9158 8abc
00000060: e8c2 51be 06b1 cdbc c217 c5bd 4137 18be
00000070: 9857 b4bc f255 1ebd cab7 35be 8502 05bd
00000080: df46 d7bc fd09 afbd 719d 25bd 9e96 cdbd
00000090: 968d ddbd b86f bbbd ee2b bebc 7fb0 e6bc
000000a0: 62bd 4abd 233e 15bd 1163 d8bd 1736 e8bd
000000b0: dde4 dcbd fdf4 babd a393 cabc 353d 03bd
000000c0: 687e 21bc 05ec dbbc f1d9 02bf b3bf cabc
000000d0: 409d 15be 397c c9bc 1138 b9bd a26b a2bd
000000e0: 17b7 bcbd 20aa c7bd 035d afbc cc2c e2bc
000000f0: 2c7e f8bd 7e53 05bc e56c 98bd 89c6 f93e
00000100: fe56 02be 66c1 1ebd cbcb c6bd 8ce5 bcbd
00000110: 90ce dabc b0b5 c4bd 36f3 05bd dd97 09be
00000120: b967 58bd 6b29 b6bd 0ae3 13be fc5e 80bf
00000130: e9f2 1fbd 7331 35bd 00a3 4cbd 45a2 66bd
00000140: e8e2 1ebe f9d5 03bd ad58 b2bd d6e1 89bd
00000150: b17a 38bd c673 bebb 0050 f2bd d10e a4bc
00000160: a757 29bd 0775 b4bd 00e6 d5bd 093f cdbd
00000170: 6358 cfbd 1b1c d1bd 1022 adbd ba28 d3bd
00000180: 7c46 aabc 64b0 bbbc 337f f6bc 3c3e 23bd
00000190: a918 ebbd 2329 76bd d9c3 52bd 8e0b c4bd
000001a0: b612 b3bd b521 dabc 95da c8bd ab9e cbbd
000001b0: a588 c8bd 3f50 17bd c32c 1fbd e570 e7bc
000001c0: a683 7dbd fb2e c6bc ddac 28bd 0861 d6bc
000001d0: 87b0 e6bd 758a c6bc 8741 e2bd 22a4 5bbd
000001e0: 7a03 f63e ccc8 a8bd fbae 3fbc fab5 cdbd
000001f0: cd45 91bd 42ce d7bc cd67 e2bd 37dc e1bc

sequential_1/conv1d_4/BiasAdd/ReadVariableOp f4 [64]
-0.029260589 0.46688613 -0.022730418 -0.15137227 -0.3362317 -0.06005455 -0.13098554 -0.060146593
-0.1817712 -0.020396141 -0.5279647 -0.48315093 -0.39527825 -0.06005458 -0.06005439 -0.027627386
0.40639725 -0.03603744 -0.2328907 -0.022201227 -0.33045113 0.31490627 -0.060071006 -0.060054395
-0.022706008 0.40515357 -0.060054548 -0.28432795 -0.023561724 -0.06005454 -0.34572423 0.27684245
-0.20309064 -0.3666034 -0.060052283 -0.07968841 -0.035771914 -0.04874637 -0.023485607 0.26695573
-0.70582354 -0.060054448 -0.19064488 -0.032056075 -0.06005438 -0.20325002 -0.26075664 -0.17631277
0.31004405 -0.25776073 -0.022473022 -0.23983496 -0.060054567 -0.046667747 -0.19675435 0.07619766
-0.01410794 -0.23250623 -0.060054574 -0.02477944 0.28989556 -0.06005455 -0.060054556 -0.053460665
00000000: e7b3 efbc b30b ef3e 2435 babc 5501 1bbe
00000010: 9026 acbe c3fb 75bd 1321 06be 465c 76bd
00000020: 3b22 3abe cf15 a7bc b228 07bf 8f5f f7be
00000030: e961 cabe cbfb 75bd 98fb 75bd d452 e2bc
00000040: 4d13 d03e ff9b 13bd e67a 6ebe 59df b5bc
00000050: e430 a9be 653b a13e 040d 76bd 99fb 75bd
00000060: f301 babc 4a70 cf3e c2fb 75bd 6f93 91be
00000070: 8404 c1bc c0fb 75bd c402 b1be 4bbe 8d3e
00000080: fef6 4fbe 71b3 bbbe 62f9 75bd ad33 a3bd
00000090: 9285 12bd 46aa 47bd e364 c0bc 6cae 883e
000000a0: dab0 34bf a7fb 75bd 6938 43be 3b4d 03bd
000000b0: 95fb 75bd c620 50be e581 85be 568b 34be
000000c0: 18be 9e3e 37f9 83be 5819 b8bc 4c97 75be
000000d0: c7fb 75bd ae26 3fbd f979 49be 850d 9c3d
000000e0: fd24 67bc 1d16 6ebe c9fb 75bd 41fe cabc
000000f0: 316d 943e c3fb 75bd c4fb 75bd 92f9 5abd

sequential_1/conv1d_5/BiasAdd/ReadVariableOp f4 [32]
-0.009637741 0.85739726 -0.30659658 -0.036737144 0.7383914 0.52973825 1.0726541 0.7283361
-0.081957355 -0.5216216 -0.058307797 -0.42661798 0.24553208 0.30032626 0.092545725 0.27397054
-0.9001179 -0.10611762 0.48165375 -0.0124145895 0.31040353 -0.029147562 0.020817772 0.52420396
-0.06180793 0.96455806 -0.3103863 -0.33913282 -0.18549672 0.10083065 0.092848055 -0.011927172
00000000: 9ee7 1dbc 637e 5b3f 3afa 9cbe b079 16bd
00000010: 3807 3d3f ed9c 073f bb4c 893f 3c74 3a3f
00000020: 42d9 a7bd fe88 05bf 28d4 6ebd ac6d dabe
00000030: c36c 7b3e 5dc4 993e 9d88 bd3d de45 8c3e
00000040: 206e 66bf 3254 d9bd 529b f63e 9066 4bbc
00000050: 36ed 9e3e dec6 eebc 088a aa3c 3b32 063f
00000060: 502a 7dbd 47ed 763f f4ea 9ebe d1a2 adbe
00000070: daf2 3dbe 4d80 ce3d 1f27 be3d 2f6a 43bc

sequential_1/conv1d_6/BiasAdd/ReadVariableOp f4 [16]
0.21198475 -0.18825668 -0.15166013 0.7260184 -0.42185897 -0.12921435 -0.16644922 -0.08130134
-0.077662446 -0.058758028 -0.049937785 -0.060054258 -0.12920259 -0.19275607 0.23083888 -0.10111478
00000000: 8812 593e 5cc6 40be cb4c 1bbe 58dc 393f
00000010: e6fd d7be c450 04be aa71 2abe 5181 a6bd
00000020: 7d0d 9fbd 42ac 70bd 908b 4cbd 74fb 75bd
00000030: af4d 04be d961 45be 0761 6c3e 4415 cfbd

sequential_1/conv1d_3/Conv1D f4 [128, 1, 8, 14]
-0.021741038 0.024863824 -0.03457074 0.019862762 0.043311097 0.00611746 0.06649254 -0.020089729
0.053654302 0.073677674 -0.04681825 0.07667571 0.024879282 -0.08086904 -0.06149325 -0.061103385
0.001666205 -0.07844597 0.04250041 -0.05552307 0.060028695 -0.06613568 0.051455382 -0.0037000978
-0.0646291 0.0012420946 -0.056910947 0.03554184 -0.022827193 -0.08002034 -0.073060274 -0.09772951
0.07125524 -0.02680895 0.063155405 -0.083045535 -0.0025998093 -0.037544124 0.06683081 0.06706008
0.04955457 -0.02889082 -0.028371265 0.032303873 0.06209727 0.006503053 0.019658929 -0.0016945965
0.052921537 -0.06470111 0.06197106 0.04641317 -0.06006664 0.0041848826 -0.022742908 0.059842046
0.005078633 0.088178016 -0.012864255 0.01304215 -0.025467806 0.02777623 -0.00010011766 -0.03602132
-0.025178017 0.09056328 0.00796426 0.08323949 0.018934323 -0.09315319 0.07183962 -0.044290863
0.0040924726 -0.090940006 0.055233385 0.050340638 0.08162027 -0.003157794 -0.013514447 0.04264441
0.015963342 0.07136491 -0.037345953 0.08104247 0.08999972 -0.04594584 0.047213912 -0.022123724
0.017483912 0.020314949 0.015138899 -0.10371836 -0.01339165 -0.043301407 0.07088278 0.02136634
-0.089019015 -0.088093445 0.032475177 -0.025329238 0.063636094 0.023843871 0.07828462 0.08813883
0.060347613 -0.051011477 0.08824725 0.08449418 0.023983536 -0.026770882 0.014913141 -0.055278055
0.02520049 -0.02992049 0.0059916377 -0.07028259 0.17751919 0.19269885 0.06545128 0.026373254
0.19574043 0.14248064 -0.01648427 0.09724664 -0.07267484 0.012214046 -0.038647424 0.05851595
0.042232472 -0.055690505 0.08003049 0.16985655 0.02994625 -0.0025171633 0.18720394 0.12571661
-0.061446544 -0.018887933 -0.046074055 -0.05573714 0.057845857 0.07374166 -0.053064745 -0.07790039
0.19690785 0.11441379 0.048083056 0.019809144 0.14529803 0.10016545 0.03873605 -0.04888549
0.044867743 -0.07542095 -0.038504094 -0.021251947 -0.051317412 0.019591529 0.14611764 0.22830382
0.09227098 -0.073667645 0.07807557 0.122129746 0.032798912 -0.005714107 0.025789825 -0.0062950305
0.06165076 0.015544941 -0.007851442 0.010419806 0.1371946 0.1926706 -0.04103861 0.048996042
0.09056322 0.16054176 0.06355347 0.041580714 -0.026614284 0.019548247 0.015001967 0.011510106
-0.060049742 -0.027380418 0.17128578 0.09802857 -0.012964403 -0.025652755 0.07656599 0.20837426
0.047212314 0.08294684 0.0018758506 -0.0842091 -0.0353253 0.0597716 -0.043387126 -0.015196173
0.14804736 0.17801425 0.06048221 -0.048000086 0.20343815 0.09885346 0.03525224 0.019790832
0.013956618 -0.017835619 0.044212647 -0.004966217 0.014706106 0.053064793 0.14373085 0.100139365
0.05964429 0.038002033 0.07619482 0.12121879 0.020856198 0.05779602 -0.03550003 0.0071634864
0.06955195 -0.033894088 0.022833072 0.034291472 0.06814656 0.036888495 0.027379483 -0.0036232858
0.04561343 0.07128901 0.0020062793 0.08505062 -0.02276291 -0.087172225 -0.052182615 0.048596557
0.072102144 0.053886566 0.106020525 0.06254326 0.04468633 0.070807345 0.08102845 0.06785926
-0.06205132 0.089169905 -0.08553086 -0.044755477 0.08488962 0.12730436 0.08790352 -0.036871955
00000000: 431a b2bc 38af cb3c 0c9a 0dbd 3bb7 a23c
00000010: fa66 313d f974 c83b 3e2d 883d 3793 a4bc
00000020: 9dc4 5b3d 52e4 963d 7ec4 3fbd 2808 9d3d
00000030: a3cf cb3c ab9e a5bd 59e0 7bbd 8b47 7abd
00000040: 9064 da3a 48a8 a0bd e914 2e3d 296c 63bd
00000050: a6e0 753d 2572 87bd e1c2 523d 577d 72bb
00000060: 435c 84bd c7cd a23a 741b 69bd 5294 113d
00000070: 1800 bbbc b4e1 a3bd a0a0 95bd 6926 c8bd
00000080: 44ee 913d 719e dbbc 9f57 813d c713 aabd
00000090: 9061 2abb dec7 19bd 97de 883d cc56 893d
000000a0: bcf9 4a3d 71ac ecbc db6a e8bc 1151 043d
000000b0: b559 7e3d 9017 d53b c30b a13c 391d deba
000000c0: 41c4 583d 0482 84bd 5ed5 7d3d bc1b 3e3d
000000d0: 7008 76bd 5721 893b 564f babc ef1c 753d
000000e0: a96a a63b ad96 b43d 99c4 52bc beae 553c
000000f0: dca1 d0bc fa8a e33c 42f6 d1b8 178b 13bd
00000100: 2142 cebc 3e79 b93d 877c 023c 7779 aa3d
00000110: 271c 9b3c 1ac7 bebd a720 933d 566a 35bd
00000120: 261a 863b c13e babd 673c 623d fc31 4e3d
00000130: 8728 a73d fef2 4ebb b36b 5dbc e8ab 2e3d
00000140: 8ec5 823c c427 923d 12f8 18bd 98f9 a53d
00000150: c651 b83d b531 3cbd 6063 413d d03c b5bc
00000160: 6c3a 8f3c 896b a63c 2509 783c 4b6a d4bd
00000170: a768 5bbc d15c 31bd fe2a 913d 7608 af3c
00000180: 9a4f b6bd 566a b4bd b104 053d 437f cfbc
00000190: a453 823d 3954 c33c b053 a03d 2282 b43d
000001a0: 0f2f 773d 69f1 50bd f9ba b43d 490b ad3d
000001b0: 1f79 c43c 9c4e dbbc 3f56 743c 3e6b 62bd
000001c0: 4271 ce3c d11b f5bc 8055 c43b 52f0 8fbd
000001d0: 97c7 353e d952 453e 520b 863d b90c d83c
000001e0: 2e70 483e 72e6 113e 050a 87bc 3f29 c73d
000001f0: 8cd6 94bd 6c1d 483c c34c 1ebd 6cae 6f3d
00000200: f5fb 2c3d ba1b 64bd 07e7 a33d e0ee 2d3e
00000210: d751 f53c fef6 24bb 64b2 3f3e dbbb 003e
00000220: 5faf 7bbd deba 9abc 26b8 3cbd a14c 64bd
00000230: c7ef 6c3d de05 973d 6b5a 59bd 3d8a 9fbd
00000240: 36a2 493e c751 ea3d bdf2 443d c946 a23c
00000250: 02c9 143e 8b23 cd3d b1a9 1e3d 273c 48bd
00000260: 3dc7 373d 4d76 9abd 78b6 1dbd 9018 aebc
00000270: 3532 52bd 6a7e a03c dd9f 153e 7ac8 693e
00000280: 91f8 bc3d 10df 96bd 16e6 9f3d 291f fa3d
00000290: 2758 063d 673d bbbb 2f45 d33c 8b46 cebb
000002a0: 8285 7c3d 35b0 7e3c 56a3 00bc d6b7 2a3c
000002b0: be7c 0c3e 714b 453e 1a18 28bd 13b0 483d
000002c0: 3679 b93d 0f65 243e 5228 823d 8a50 2a3d
000002d0: 3306 dabc a523 a03c cfca 753c e294 3c3c
000002e0: b8f6 75bd e64c e0bc 8a65 2f3e 34c3 c83d
000002f0: a668 54bc ba25 d2bc a1ce 9c3d 1060 553e
00000300: b361 413d 08e0 a93d 1adf f53a d275 acbd
00000310: 43b1 10bd 11d3 743d b3b6 31bd 5ff9 78bc
00000320: ba99 173e 5e49 363e 32bc 773d bd9b 44bd
00000330: 1752 503e af73 ca3d a764 103d 6220 a23c
00000340: 4caa 643c 011c 92bc 5218 353d a6bb a2bb
00000350: e1f1 703c 785a 593d 2e2e 133e de15 cd3d
00000360: 924d 743d 05a8 1b3d 080c 9c3d 8f41 f83d
00000370: 9eda aa3c 85bb 6c3d 7b68 11bd aebb ea3b
00000380: 4171 8e3d 87d4 0abd 6c0c bb3c 3775 0c3d
00000390: 6c90 8b3d 6418 173d f04a e03c a674 6dbb
000003a0: 26d5 3a3d f9ff 913d c87b 033b 052f ae3d
000003b0: 4879 babc 5a87 b2bd 70bd 55bd 2f0d 473d
000003c0: 4aaa 933d 29b8 5c3d 4a21 d93d ae16 803d
000003d0: 0309 373d 7103 913d 3ef2 a53d ccf9 8a3d
000003e0: 8629 7ebd b69e b63d ce2a afbd 8551 37bd
000003f0: 9cda ad3d 135c 023e c306 b43d 0c07 17bd

sequential_1/conv1d_4/Conv1D f4 [64, 1, 6, 128]
0.027071664 -0.06836424 -0.03146851 -0.04264355 -0.079710186 -0.01606737 -0.040053897 -0.00055488973
-0.079098515 -0.053587556 0.010434184 -0.08120527 -0.072739415 0.03534552 -0.008004942 -0.07637899
0.003901416 -0.09331312 -0.10083371 -0.062223572 0.025978701 0.021021474 -0.0555185 -0.021923589
0.016889121 -0.0035091452 -0.019605044 -0.0683114 -0.08702561 -0.0011519613 -0.017586976 -0.043203503
0.0237739 -0.0073302304 -0.011225791 0.038553976 -0.01203011 0.0130941225 0.03551224 0.033011377
-0.0071931537 -0.051323496 0.08631453 -0.07005251 0.084102765 -0.025136134 0.011503745 -0.06033643
-0.050404258 -0.061324835 -0.05849965 -0.09405506 0.009226394 -0.057441875 -0.06811001 0.02684366
0.040823586 0.012490169 -0.03870073 -0.090882204 -0.0660985 0.030406168 -0.053060114 -0.00020767316
0.046117004 0.0413984 -0.053074468 0.04110991 -0.0015740724 -0.07006707 0.010256983 -0.08633741
0.012155645 0.02052943 -0.070798986 0.04034047 -0.049722366 -0.021356264 -0.036903612 -0.053127795
-0.043403924 -0.060200103 -0.08623205 -0.025586024 0.024354555 -0.015216991 0.021301627 0.03188457
0.0007601966 0.014322226 -0.049636386 -0.054067828 -0.10668238 -0.062929735 -0.10573517 0.056812342
0.031777717 -0.032610044 -0.036604043 -0.024437794 -0.09831074 0.0486557 9.3004586e-05 -0.038003378
0.046008263 -0.02373191 -0.04045087 0.028822303 0.06497538 -0.022914741 -0.058224156 -0.09041241
-0.084254615 -0.067402884 -0.06282487 0.02642908 -0.015272768 -0.0252988 0.043361228 -0.0693147
-0.007816394 -0.09310781 -0.010775771 -0.060457442 -0.008439177 -0.08682574 -0.033746667 0.02030932
-0.061610106 -0.018945232 -0.026723066 -0.009199997 0.0091075245 -0.059927445 -0.057546478 0.020909583
0.043885827 -0.037181467 0.00237092 0.016392931 0.023243759 0.024863565 0.016076382 0.025628585
-0.088515334 -0.06300902 -0.023416584 -0.072654694 0.010021811 -0.09643085 0.01025042 0.028143259
-0.01364226 -0.034846537 0.038992174 -0.10156644 0.013876265 -0.0022888868 -0.080504656 0.031915057
-0.042953014 -0.010190859 -0.061655033 -0.017909868 -0.0795482 -0.09056469 -0.050048523 -0.055225555
-0.02441693 -0.061815675 0.1167348 -0.035218053 0.021169037 -0.0060881963 0.004469777 -0.04265386
-0.04692865 0.013954598 -0.08290429 -0.014766697 -0.05588441 0.013681182 -0.09322851 0.11165959
-0.010870827 0.034246102 -0.012933699 -0.049404863 -0.022617236 0.001987978 0.030108957 -0.044565458
-0.034324147 0.010417075 -0.027609332 -0.023061942 -0.00676313 -0.09599516 -0.07848964 -0.030668788
-0.057478163 -0.047094736 -0.021099338 0.020031141 -0.05070128 0.023398014 0.0032555591 -0.012522949
-0.09470315 -0.017439859 -0.0348947 -0.02739444 -0.05064005 0.030573746 0.020260563 -0.093425274
-0.017993167 -0.0029059327 0.061491646 -0.06336602 -0.12279621 -0.12048708 -0.11294013 -0.053711604
0.0016417534 -0.0574271 -0.0432196 -0.08849398 -0.016029809 0.08432716 -0.08111861 -0.06621764
0.008196244 -0.091591716 -0.031511128 0.045455202 -0.0060790987 -0.06974582 -0.08177162 -0.07622563
0.025994323 0.027362155 0.030336892 -0.0005139218 0.011658581 -0.0016157676 0.057645775 -0.026370022
-0.042755734 0.014900709 -0.043855987 -0.100267924 -0.06805597 -0.008356918 -0.10872288 -0.056742497
00000000: 65c5 dd3c 8d02 8cbd 20e5 00bd 01ab 2ebd
00000010: 183f a3bd b89f 83bc 8e0f 24bd 0576 11ba
00000020: 67fe a1bd a07e 5bbd 24f4 2a3c f34e a6bd
00000030: 67f8 94bd 77c6 103d 2927 03bc 976c 9cbd
00000040: e6ae 7f3b f31a bfbd e781 cebd 25de 7ebd
00000050: 49d1 d43c 3a35 ac3c 5e67 63bd 1999 b3bc
00000060: 0e5b 8a3c b0f9 65bb c29a a0bc d9e6 8bbd
00000070: 7c3a b2bd 68fd 96ba 9012 90bc 28f6 30bd
00000080: 7bc1 c23c 6e32 f0bb 61ec 37bc c6ea 1d3d
00000090: f019 45bc bb88 563c 4875 113d f036 073d
000000a0: 8cb4 ebbb 9638 52bd acc5 b03d b177 8fbd
000000b0: 123e ac3d 4bea cdbc 347a 3c3c 5523 77bd
000000c0: b274 4ebd c02f 7bbd 549d 6fbd f09f c0bd
000000d0: 4d2a 173c 2c48 6bbd 437d 8bbd 3ce7 db3c
000000e0: a236 273d 91a3 4c3c a884 1ebd 7320 babd
000000f0: a65e 87bd 5b16 f93c 9055 59bd d7c2 59b9
00000100: 2fe5 3c3d 5e91 293d 9d64 59bd dd62 283d
00000110: 1b51 ceba 537f 8fbd e80c 283c abd1 b0bd
00000120: 7828 473c 562d a83c 0fff 90bd 0c3c 253d
00000130: aea9 4bbd 55f3 aebc 3e28 17bd 889c 59bd
00000140: 50c8 31bd 6294 76bd 6e9a b0bd c899 d1bc
00000150: 3483 c73c b050 79bc c080 ae3c 6599 023d
00000160: ee47 473a c5a7 6a3c 864f 4bbd 3a76 5dbd
00000170: 4b7c dabd 4ee1 80bd ae8b d8bd 0fb4 683d
00000180: 5a29 023d 1c92 05bd 1fee 15bd c531 c8bc
00000190: 2457 c9bd 334b 473d 750b c338 6ea9 1bbd
000001a0: 2973 3c3d 6c69 c2bc d0af 25bd c01c ec3c
000001b0: d011 853d b2b7 bbbc 747c 6ebd 242a b9bd
000001c0: af8d acbd 860a 8abd 53aa 80bd cc81 d83c
000001d0: a23a 7abc 6e3f cfbc 8b9b 313d def4 8dbd
000001e0: 5510 00bc 4faf bebd dc8c 30bc 39a2 77bd
000001f0: 7944 0abc b2d1 b1bd f239 0abd bb5f a63c
00000200: e15a 7cbd 0833 9bbc 55ea dabc 96bb 16bc
00000210: ba37 153c 7b76 75bd dbb5 6bbd 934a ab3c
00000220: a0c1 333d 984b 18bd 7061 1b3b 784a 863c
00000230: b269 be3c adae cb3c 9eb2 833c 0af3 d13c
00000240: 8747 b5bd e00a 81bd 23d4 bfbc fccb 94bd
00000250: 8632 243c 8a7d c5bd 61f1 273c b18c e63c
00000260: c983 5fbc 3ebb 0ebd 42b6 1f3d 1102 d0bd
00000270: 4659 633c 2601 16bb a0df a4bd 5db9 023d
00000280: 80ef 2fbd 90f7 26bc fd89 7cbd b7b7 92bc
00000290: 2bea a2bd fb79 b9bd aeff 4cbd 3134 62bd
000002a0: 0306 c8bc 6f32 7dbd a812 ef3d ce40 10bd
000002b0: b06a ad3c 7e7f c7bb 3577 923b d0b5 2ebd
000002c0: 4238 40bd d4a1 643c b9c9 a9bd 04f0 71bc
000002d0: 0de7 64bd 0927 603c 97ee bebd c8ad e43d
000002e0: 8e1b 32bc a445 0c3d dee7 53bc c15c 4abd
000002f0: c847 b9bc bc48 023b 0fa7 f63c 458a 36bd
00000300: 7a97 0cbd 61ac 2a3c f72c e2bc 66ec bcbc
00000310: 3f9d ddbb 1c99 c4bd 2dbf a0bd 1c3d fbbc
00000320: 396e 6bbd 69e6 40bd 85d8 acbc 5918 a43c
00000330: 25ac 4fbd 31ad bf3c 385b 553b 0e2d 4dbc
00000340: baf3 c1bd 09de 8ebc bfed 0ebd 4e6a e0bc
00000350: f16b 4fbd cb75 fa3c 7bf9 a53c c055 bfbd
00000360: 6866 93bc 7671 3ebb aade 7b3d 0bc6 81bd
00000370: 947c fbbd eec1 f6bd 284d e7bd b300 5cbd
00000380: 1a30 d73a ae38 6bbd 0907 31bd 553c b5bd
00000390: f250 83bc b8b3 ac3d 8421 a6bd 1d9d 87bd
000003a0: 8a49 063c 7094 bbbd d011 01bd 3c2f 3a3d
000003b0: 2d33 c7bb e5d6 8ebd e177 a7bd 2f1c 9cbd
000003c0: 0cf2 d43c 9926 e03c 1385 f83c b5b8 06ba
000003d0: a203 3f3c 2ac8 d3ba fa1d 6c3d f205 d8bc
000003e0: a320 2fbd 1a22 743c 56a2 33bd 4559 cdbd
000003f0: ee60 8bbd 74eb 08bc 1aaa debd d26a 68bd

sequential_1/conv1d_5/Conv1D f4 [32, 1, 4, 64]
-0.0042056595 0.027545951 0.07767619 -0.17976086 -0.008688324 -0.041047238 -0.08204774 0.062255792
-0.03564198 0.019976096 0.0163164 -0.008263834 0.06479842 0.11749552 0.014184931 -0.013129887
0.05984668 0.027179066 -0.057161264 -0.14442378 -0.057805937 0.108369835 0.109803945 0.03712916
0.03264157 0.08238166 0.06585846 0.09197717 0.06182712 -0.047698323 -0.059014205 -0.08016642
-0.15450537 -0.27562192 -0.04703592 -0.044494722 0.06095277 0.07247877 -0.10081745 0.2307107
-0.106510065 0.17351893 -0.029908966 -0.09942892 0.10081968 0.05404564 0.026079498 0.022463022
0.5363909 -0.050397143 -0.13272832 -0.1722622 -0.034768432 0.038922355 -0.11605084 0.12263944
-0.12979405 -0.036603436 0.15851894 -0.08615086 0.054332606 -0.048407085 0.07528899 -0.051733002
-0.10686274 -0.13300522 -0.061638363 -0.008301799 0.034219343 -0.010449448 0.07498191 -0.04409717
-0.20993146 0.007855446 0.07311228 0.00065976515 -0.06782686 -0.011591467 -0.02407727 -0.028968388
-0.007980197 -0.14206697 0.016300999 -0.12661028 0.07451463 -0.0200336 -0.010312379 0.03961741
0.05183011 0.07358235 0.0233962 0.0061735795 0.030149998 0.020199195 -0.08756972 -0.3672471
-0.04270633 -0.20782124 0.17749126 0.013053459 -0.14915195 -0.08829326 -0.07369077 -0.106640674
0.06736809 0.036863737 0.070297964 -0.087013744 -0.06003929 0.09274999 -0.014197116 -0.10675073
0.05475067 0.09177188 -0.026523229 -0.14868215 -0.03652701 0.081377134 0.01765635 0.06714797
-0.112532906 0.03230977 -0.04607476 0.08897404 -0.18921414 0.0057805474 0.08835316 -0.0063001206
0.008911412 -0.21139766 0.012607712 -0.12783082 -0.14748861 0.002650938 0.03311925 0.024398975
-0.015219152 -0.15584727 -0.14891587 -0.11586022 0.04741609 -0.03768472 -0.063592054 -0.12303375
-0.13343716 -0.15914713 0.087809056 -0.016729489 -0.08991743 -0.19085337 -0.0047728773 0.13166142
-0.1565937 -0.045359116 -0.030803323 -0.123685636 -0.08571373 -0.031692576 -0.00953325 -0.27447665
-0.1205722 -0.12973133 0.10168505 0.031108927 0.035651214 0.043244623 -0.09383058 0.17995505
-0.026054358 -0.009090397 -0.0948737 -0.0071584894 0.09280126 0.029566577 0.34301504 -0.04912847
0.32371536 0.04665771 0.029738387 -0.11814549 -0.045783877 -0.1265821 0.0435306 -0.13567525
-0.09760275 0.10567758 0.0548992 0.05302622 -0.1686848 0.12414358 -0.0454501 0.034708407
-0.02278176 -0.34175026 0.07084868 -0.14333262 -0.13039704 0.05820572 0.054397523 0.123460256
-0.10047807 -0.023518262 0.0036053641 0.00399889 -0.09717195 -0.06391913 0.072340876 -0.02992389
-0.2622065 0.04514123 -0.13221735 -0.09368485 0.02836228 0.04864797 0.04662223 0.0173138
-0.11599642 -0.078706585 -0.011257096 0.02354897 0.005713992 0.16538979 0.010980219 -0.28489485
0.07661863 -0.11284208 -0.049144406 -0.0055086873 0.06968315 0.08680888 -0.07261224 0.12709977
-0.11984748 0.18103588 0.07167478 -0.046314117 0.0859399 0.09215319 0.34996203 -0.009452593
0.31132206 0.051875304 -0.01852053 -0.23284951 -0.032276846 0.07433037 0.043446727 0.002816749
0.024254464 -0.032081418 0.08002358 -0.009617921 -0.39125913 -0.062182598 -0.0025166306 -0.1440183
00000000: a1cf 89bb 0ca8 e13c b214 9f3d 3b13 38be
00000010: 7959 0ebc 2621 28bd a508 a8bd eeff 7e3d
00000020: 53fd 11bd e9a4 a33c f9a9 853c 0865 07bc
00000030: 09b5 843d 7ea1 f03d ea67 683c bd1e 57bc
00000040: cb21 753d a2a6 de3c ee21 6abd d4e3 13be
00000050: ebc5 6cbd 01f1 dd3d e4e0 e03d bf14 183d
00000060: 2bb3 053d b7b7 a83d cde0 863d 875e bc3d
00000070: 6f3e 7d3d 515f 43bd e1b8 71bd 4b2e a4bd
00000080: a836 1ebe 511e 8dbe bda8 40bd 1940 36bd
00000090: 9da9 793d c06f 943d 6179 cebd 6d3f 6c3e
000000a0: f321 dabd f2ae 313e a603 f5bc 64a1 cbbd
000000b0: 8c7a ce3d f65e 5d3d aca4 d53c 5f04 b83c
000000c0: ea50 093f 3c6d 4ebd efe9 07be 8165 30be
000000d0: 5869 0ebd 0c6d 1f3d 10ac edbd 632a fb3d
000000e0: bbe8 04be 7ced 15bd ca52 223e dd6f b0bd
000000f0: de8b 5e3d 8246 46bd 1d31 9a3d fce5 53bd
00000100: dada dabd 8532 08be 8278 7cbd 4504 08bc
00000110: 9529 0c3d 2934 2bbc 1e90 993d 3c9f 34bd
00000120: 46f8 56be 21b4 003c e4bb 953d 17f4 2c3a
00000130: cfe8 8abd 23ea 3dbc b23d c5bc 1d4f edbc
00000140: 5fbf 02bc 017a 11be ac89 853c 20a6 01be
00000150: 209b 983d 811d a4bc 41f5 28bc de45 223d
00000160: cf4b 543d 58b2 963d 63a9 bf3c bd4b ca3b
00000170: 21fd f63c c878 a53c c157 b3bd d007 bcbe
00000180: d5ec 2ebd 17cf 54be 45c0 353e 2dde 553c
00000190: 4abb 18be 19d3 b4bd 30eb 96bd 6d66 dabd
000001a0: 48f8 893d 6efe 163d 61f8 8f3d 4334 b2bd
000001b0: c2eb 75bd b5f3 bd3d 059b 68bc 20a0 dabd
000001c0: 3d42 603d e5f2 bb3d 3e47 d9bc 2240 18be
000001d0: 599d 15bd 0ea9 a63d 0da4 903c e084 893d
000001e0: a777 e6bd 4057 043d e3b8 3cbd 0538 b63d
000001f0: 5ac1 41be bf6a bd3b 80f2 b43d 3e71 cebb
00000200: 2c01 123c a178 58be 9490 4e3c 15e6 02be
00000210: 4107 17be 5cbb 2d3b 0da8 073d 5ce0 c73c
00000220: c059 79bc 6d96 1fbe 677d 18be 1f48 edbd
00000230: 6037 423d 4b5b 1abd 8d3c 82bd 1ef9 fbbd
00000240: c0a3 08be 77f7 22be 3cd5 b33d 480c 89bc
00000250: a126 b8bd 116f 43be cc65 9cbb 40d2 063e
00000260: 195a 20be 7bca 39bd 4057 fcbc e54e fdbd
00000270: ae8a afbd 13d0 01bd 5931 1cbc 3488 8cbe
00000280: 8fee f6bd 4ad8 04be 4040 d03d 26d8 fe3c
00000290: 0207 123d 4621 313d 3f2a c0bd 2346 383e
000002a0: f36f d5bc e3ef 14bc 244d c2bd c391 eabb
000002b0: 960e be3d 9b35 f23c ab9f af3e ef3a 49bd
000002c0: 05be a53e 281c 3f3d eb9d f33c 43f6 f1bd
000002d0: e087 3bbd bd9e 01be 244d 323d 74ee 0abe
000002e0: f3e3 c7bd 7d6d d83d fcdd 603d 0632 593d
000002f0: b5bb 2cbe fd3e fe3d e229 3abd 672a 0e3d
00000300: d0a0 babc e4f9 aebe 1d19 913d c9c5 12be
00000310: cd86 05be 1f69 6e3d f0cf 5e3d bbd8 fc3d
00000320: 72c7 cdbd 5fa9 c0bc f947 6c3b 1f09 833b
00000330: 1602 c7bd 08e8 82bd 7427 943d f222 f5bc
00000340: ee3f 86be 03e6 383d fc63 07be d8dd bfbd
00000350: 0358 e83c 1843 473d f4f6 3e3d acd5 8d3c
00000360: 888f edbd eb30 a1bd af6f 38bc c5e9 c03c
00000370: 703c bb3b f15b 293e 60e6 333c bddd 91be
00000380: 3aea 9c3d c019 e7bd a54b 49bd 3882 b4bb
00000390: 0ab6 8e3d dbc8 b13d bab5 94bd 7126 023e
000003a0: 9872 f5bd 7861 393e 3aca 923d dfb3 3dbd
000003b0: 4201 b03d d0ba bc3d 392e b33e 0cdf 1abc
000003c0: 9b65 9f3e 337b 543d 5eb8 97bc 1a70 6ebe
000003d0: ba34 04bd 853a 983d 32f5 313d 3599 383b
000003e0: 4cb1 c63c ce67 03bd 67e3 a33d 7c94 1dbc
000003f0: 1e53 c8be 2eb3 7ebd 0eee 24bb 8979 13be

sequential_1/conv1d_6/Conv1D f4 [16, 1, 2, 32]
0.17908484 -0.41959995 -0.08132555 -0.48310983 -0.19617006 0.040799174 0.3884476 -1.1880604
0.026149806 -0.43238348 0.069410585 -0.14085408 0.14773206 0.1931566 0.08527822 0.097567424
-0.109264694 0.009872509 -0.123234 -0.2605183 -0.24069817 0.13808873 -0.17177609 0.13617493
-0.15669629 -1.2511977 -0.08037544 0.23694016 2.3019266 0.02135327 -0.27428764 0.07414575
-0.0891604 -0.0018574974 -0.061203055 -1.4859536 0.7157528 -0.22929236 -0.4001701 -0.4806333
-0.114319 -0.3431276 -0.1286594 0.16433579 -0.091757186 0.09105925 -0.16970907 0.031780094
-0.09481088 2.2853942 -0.26424095 0.05668592 -0.18525168 -0.038708236 0.16752778 -0.12787372
-0.06893372 0.8879968 -0.10111367 -0.045939192 0.76341516 -0.22942376 -0.25301197 0.177275
-0.16419037 -0.21468097 0.27795357 0.07345045 -0.58782154 -0.29412135 -0.18016668 -0.6514544
-0.1980988 -0.20994186 -0.20656468 -0.23900302 -0.11772532 -0.3432265 -0.48515108 -0.46437958
-0.54290867 0.043807577 -0.33392143 0.14267032 -0.30454752 -0.07374955 -0.0076568625 -0.4754126
0.11689757 -0.06358849 0.082313724 0.08113113 0.09341856 -0.08923378 -0.21937807 0.19117193
-0.21682996 0.04722691 0.022286605 -0.31028363 -0.19631416 -0.2957465 -0.34835118 -0.35198748
0.1895505 -0.545299 -0.0028327121 -0.26531133 -0.32642952 -0.14068685 -0.3274155 -0.115929626
-0.06783468 -0.13955905 -0.6123181 -0.21816601 -0.36687368 -0.22836342 -0.121375404 -0.4744863
0.1883426 -0.120328866 -0.21180159 0.011276216 -0.1314052 -0.22543651 -0.47905016 -0.19065583
-0.12106428 -0.027720116 -0.27425256 -0.038509935 -0.20956092 -0.1830407 0.022047156 -0.3855306
0.058923624 -0.18670242 -0.2043087 -0.2034459 -0.30515027 -0.4586292 -0.18905637 0.023659587
-0.24104871 0.067257196 -0.42121458 -0.0940101 -0.28897783 -0.27140898 -0.34028643 -0.41448247
0.16794282 0.056524053 0.092211485 -0.1701288 0.18890882 -0.37152544 -0.2826448 0.114431925
-0.039253693 -0.21521018 0.0028096568 -0.12780641 -0.43618312 -0.33133313 -0.023357678 -0.4366008
-0.028022218 -0.14898543 -0.00322928 -0.57136995 -0.31548077 -0.25717074 -0.19516952 0.020892441
-0.46390107 -0.29873836 -0.4193441 -0.19365276 -0.32158306 -0.17286412 -0.062251527 -0.23801455
-0.3057872 0.23775774 -0.10650465 0.082560495 -0.158608 -0.067837864 -0.15625122 -0.2973294
0.028262276 -0.9063964 0.06929107 -0.5958541 0.043494664 0.20447725 -0.7558544 0.8664463
-0.1625669 0.008482237 -0.48213676 -0.2313606 0.00977296 0.11733636 0.014185635 0.45842725
-0.2211492 1.3653781 0.28715622 -0.06787023 0.22958039 -0.108079605 0.06861138 0.30619255
-0.27196452 -1.1822183 -0.5912875 -0.021069007 1.9651761 -0.16492486 0.22752976 -0.21496294
-0.29005274 -0.93563277 0.09504483 -0.7474065 0.46431327 0.22651537 -1.054761 0.75678784
-0.032664243 0.047370367 -0.7813126 -0.41922283 0.43431288 0.16749811 -0.3731195 0.035922866
0.16467716 0.56409323 0.34442818 -0.050888553 -0.107234 -0.022000823 -0.15036686 0.28833652
-0.18928075 0.5053412 0.08002109 -0.04189965 0.22653851 0.22181419 0.3760589 0.0006496053
00000000: 0462 373e ced5 d6be 038e a6bd 2c5a f7be
00000010: cee0 48be 091d 273d 9be2 c63e 5d12 98bf
00000020: 1e38 d63c 5e61 ddbe 2327 8e3d 0d3c 10be
00000030: 1347 173e d8ca 453e 59a6 ae3d 6ed1 c73d
00000040: 2bc6 dfbd 4ec0 213c 1b62 fcbd a862 85be
00000050: 9579 76be 2267 0d3e 12e6 2fbe 7171 0b3e
00000060: fe74 20be 3f27 a0bf e19b a4bd 71a0 723e
00000070: c452 1340 0eed ae3c 6e6f 8cbe bad9 973d
00000080: ba99 b6bd 4577 f3ba 0eb0 7abd ba33 bebf
00000090: 933b 373f 9ecb 6abe 18e3 ccbe 9115 f6be
000000a0: 1420 eabd 6cae afbe 4abf 03be a447 283e
000000b0: 31eb bbbd 467d ba3d 37c8 2dbe d82b 023d
000000c0: 352c c2bd e643 1240 974a 87be 7f2f 683d
000000d0: 9eb2 3dbe 878c 1ebd 678c 2b3e 54f1 02be
000000e0: 1f2d 8dbd c253 633f af14 cfbd bc2a 3cbd
000000f0: 2d6f 433f 10ee 6abe c98a 81be 9487 353e
00000100: 8521 28be 54d5 5bbe ee4f 8e3e 316d 963d
00000110: 797b 16bf 1397 96be 9d7d 38be b7c5 26bf
00000120: 69da 4abe 00fb 56be b185 53be 35bd 74be
00000130: f919 f1bd 62bb afbe b965 f8be 29c3 edbe
00000140: 10fc 0abf 936f 333d c0f7 aabe 2b18 123e
00000150: a7ed 9bbe 010a 97bd 6be6 fabb 4869 f3be
00000160: fe67 ef3d af3a 82bd 1994 a83d 1428 a63d
00000170: 3b52 bf3d 33c0 b6bd a5a4 60be 93c2 433e
00000180: ac08 5ebe 0171 413d 6692 b63c 7fdd 9ebe
00000190: 9406 49be 166c 97be 165b b2be b437 b4be
000001a0: 8719 423e b798 0bbf 06a5 39bb e3d6 87be
000001b0: c521 a7be 3710 10be 01a3 a7be 836c edbd
000001c0: e9ec 8abd 91e8 0ebe e1c0 1cbf e966 5fbe
000001d0: ded6 bbbe 1ad8 69be ab93 f8bd deef f2be
000001e0: e2dc 403e fb6e f6bd 84e2 58be e1bf 383c
000001f0: 168f 06be d4d8 66be 1046 f5be 483b 43be
00000200: 8df0 f7bd 4c15 e3bc d56a 8cbe 98bc 1dbd
00000210: 2397 56be 056f 3bbe 3d9c b43c 4464 c5be
00000220: e659 713d eb2e 3fbe 4d36 51be 1f54 50be
00000230: a83c 9cbe 72d1 eabe fe97 41be c0d1 c13c
00000240: 79d5 76be 24be 893d 70a9 d7be 5e88 c0bd
00000250: e7f4 93be 1ef6 8abe 063a aebe 0c37 d4be
00000260: 34f9 2b3e c485 673d 60d9 bc3d 3f36 2ebe
00000270: 5071 413e 9538 bebe d2b6 90be 495b ea3d
00000280: 7bc8 20bd 0f60 5cbe 3822 383b afdf 02be
00000290: 6553 dfbe 7fa4 a9be 9a58 bfbc 248a dfbe
000002a0: da8e e5bc a38f 18be 54a2 53bb 4d45 12bf
000002b0: b286 a1be e2ab 83be 85da 47be a026 ab3c
000002c0: 7184 edbe 3cf4 98be 45b4 d6be e94c 46be
000002d0: 89a6 a4be 4b03 31be 75fb 7ebd 16ba 73be
000002e0: 2490 9cbe c476 733e 1c1f dabd 7a15 a93d
000002f0: 236a 22be 94ee 8abd 5200 20be 8f3b 98be
00000300: 4a86 e73c 9809 68bf 7ae8 8d3d e589 18bf
00000310: 7627 323d 7c62 513e ad7f 41bf 6dcf 5d3f
00000320: f077 26be 15f9 0a3c a1da f6be cbe9 6cbe
00000330: c41e 203c 0c4e f03d de6a 683c fab6 ea3e
00000340: f074 62be b6c4 ae3f 2406 933e 8cff 8abd
00000350: 1f17 6b3e d758 ddbd 2084 8c3d 45c5 9c3e
00000360: ef3e 8bbe ee52 97bf 9e5e 17bf e998 acbc
00000370: e48a fb3f 10e2 28be 90fd 683e 3f1f 5cbe
00000380: cb81 94be a185 6fbf dda6 c23d 0856 3fbf
00000390: 78ba ed3e a5f3 673e 6902 87bf d9bc 413f
000003a0: f1ca 05bd 6e07 423d 1a04 48bf 60a4 d6be
000003b0: 425e de3e a084 2b3e 8509 bfbe db23 133d
000003c0: 21a1 283e 6a68 103f e458 b03e 8470 50bd
000003d0: 809d dbbd 123b b4bc c5f9 19be d8a0 933e
000003e0: d0d2 41be 0a5e 013f 19e2 a33d f89e 2bbd
000003f0: b6f9 673e 4223 633e cb8a c03e 464a 2a3a

sequential_1/dense_2/BiasAdd/ReadVariableOp f4 [32]
-0.11029062 -0.060055356 -0.060054597 0.26946342 -0.060419567 -0.06005457 -0.060054395 -0.040665146
0.5100878 -0.060054474 -0.060206745 0.3407514 0.11021496 -0.060054317 0.36170822 -0.18696891
0.7174949 0.4893311 -0.060053583 -0.06399281 0.12318797 0.566926 0.2486601 0.05467408
-0.06005457 0.37414655 0.7793965 -0.074068256 -0.08394074 -0.04395523 -0.0685349 -0.08473479
00000000: 0ce0 e1bd 9bfc 75bd cffb 75bd 1cf7 893e
00000010: 827a 77bd c8fb 75bd 99fb 75bd 7f90 26bd
00000020: 1d95 023f aefb 75bd 599b 76bd f876 ae3e
00000030: 62b8 e13d 84fb 75bd d231 b93e c774 3fbe
00000040: bfad 373f 9b89 fa3e bffa 75bd aa0e 83bd
00000050: f949 fc3d 1022 113f c1a0 7e3e eef1 5f3d
00000060: c8fb 75bd 2390 bf3e 8786 473f 19b1 97bd
00000070: 1fe9 abbd 660a 34bd 075c 8cbd 6f89 adbd

sequential_1/dense_2/MatMul f4 [32, 112]
-0.0071659824 -0.19675104 -0.008932004 -0.20500818 0.12505203 -0.29302827 -0.080801584 -0.0592324
-0.15862145 -0.09725991 -0.12827349 0.082874574 -0.10855852 -0.09639744 -0.2764826 -0.07135647
-0.0036203696 0.042013638 -0.21181089 -0.122266084 -0.22096477 -0.013355578 0.14415596 0.08388981
0.07744769 0.029564578 -0.18370995 -0.063784614 -0.07590464 0.055001035 -0.20597431 -0.053811386
-0.22851206 0.12962556 -0.052650653 -0.0081869485 -0.13737053 -0.1463297 0.06448088 -0.13139275
0.110682845 -0.009897397 -0.08509725 -0.19986968 0.19390804 0.13030937 0.08652994 0.026231084
-0.19527577 -0.14770009 -0.0027517471 0.103086144 -0.06005828 -0.17960313 -0.18606654 0.084187575
0.026897028 -0.026106302 0.0643487 -0.17502509 -0.0093393475 -0.1695908 -0.2750471 -0.00013641793
-0.023668023 -0.22576961 0.016766125 -0.014681224 -0.11241179 0.012845949 -0.2504646 -0.022865847
-0.046983205 -0.3006101 0.080610216 0.09625921 -0.08421015 -0.08134423 -0.047466345 0.018728374
-0.0025032298 -0.11807244 0.0041057467 0.04033449 0.11772094 -0.25071853 -0.19893715 0.16496211
-0.14568444 -0.059255328 -0.15989137 -0.106404975 0.17362916 0.00096715783 -0.2899251 0.018565914
-0.24427119 -0.015897056 -0.14790326 0.114912465 0.07670135 -0.23120932 -0.3185948 -0.0023728013
-0.06983088 -0.24840502 0.05224037 0.0731276 -0.18094192 -0.14489082 -0.083552465 -0.25723252
-0.0049183047 -0.20993014 -0.218257 -0.16231523 -0.009215027 -0.1101222 0.013644579 -0.06456742
-0.06784008 -0.15726474 0.14504799 -0.015063266 0.116521455 -0.080482 -0.22842179 -0.15208314
0.08049322 -0.06947446 -0.08586754 0.08120697 0.09577273 -0.020899367 -0.24333829 0.03444584
0.11667712 -0.10203356 -0.14786948 -0.09501455 -6.907976e-05 -0.09616225 -0.110109225 -0.068151385
-0.00670326 0.080353774 0.060089193 -0.023817062 0.089188024 -0.082885385 -0.07197367 0.11946501
-0.031685743 -0.009467917 -0.076584876 -0.089336455 0.07985279 -0.031714503 0.09663605 -0.24839057
-0.17825723 0.13131723 -0.13444172 -0.15087683 -0.120189965 0.035390425 -0.23939216 -0.0063141487
-0.10171184 -0.06932282 0.13963568 0.0607093 -0.25148275 0.044626825 0.08050254 -0.1294293
-0.24770968 0.008605807 -0.17426507 0.07963169 0.04186104 -0.17489612 -0.008153204 -0.04884126
-0.18533719 -0.00048044702 0.09882597 -0.20310324 0.1196783 0.0008381212 -0.027936058 0.13356173
-0.17408888 0.07871539 -0.21234083 -0.20412193 -0.12688564 0.13603854 0.09045831 -0.25277576
0.031745747 0.05999703 0.02618611 0.019330498 -0.224636 -0.106975205 0.008659713 -0.15163742
0.048218504 -0.11046118 -0.16730534 0.009651098 -0.14783202 -0.21530463 -0.18964644 0.07548091
-0.0992208 0.12230599 0.054246824 0.120244406 -0.23149496 0.027093267 -0.0050296257 -0.15055184
-0.17981982 0.11041881 -0.03071912 -0.22780275 0.12559766 -0.22092862 0.046640437 -0.0029223463
0.04819564 -0.21306333 -0.20724906 -0.22920364 -0.21160103 0.038538534 0.045544386 -0.09460628
0.117620565 0.016242487 -0.12353983 -0.21089646 0.1018663 -0.101424284 -0.2008301 -0.014063844
0.010070051 -0.16127275 -0.06405716 0.07166458 -0.17241691 -0.047341634 0.01896128 -0.11178659
00000000: 9ed0 eabb 1b79 49be 8a57 12bc aaed 51be
00000010: a40d 003e cd07 96be 4d7b a5bd ac9d 72bd
00000020: a96d 22be 3430 c7bd 205a 03be 25ba a93d
00000030: ee53 debd 056c c5bd 218f 8dbe 5723 92bd
00000040: b943 6dbb 7e16 2c3d f4e4 58be a466 fabd
00000050: 9744 62be 5bd1 5abc 9f9d 133e 6cce ab3d
00000060: e59c 9e3d 6a31 f23c 761e 3cbe 82a1 82bd
00000070: e473 9bbd c448 613d eeea 52be 5469 5cbd
00000080: 11ff 69be 90bc 043e 36a8 57bd 8d22 06bc
00000090: dcaa 0cbe 74d7 15be 8d0e 843d d28b 06be
000000a0: b0ad e23d b128 22bc 7847 aebd a3aa 4cbe
000000b0: d48f 463e d26f 053e 9c36 b13d 92e2 d63c
000000c0: 5ff6 47be b13e 17be a856 34bb d41e d33d
000000d0: acff 75bd e2e9 37be 3a88 3ebe 896a ac3d
000000e0: 2857 dc3c e2dc d5bc 40c9 833d c739 33be
000000f0: 1004 19bc 36a9 2dbe f9d2 8cbe 690b 0fb9
00000100: 71e3 c1bc 2630 67be 1d59 893c 8489 70bc
00000110: 2738 e6bd d177 523c e53c 80be 2851 bbbc
00000120: 7671 40bd 91e9 99be f816 a53d 8c23 c53d
00000130: 5f76 acbd ce97 a6bd 126c 42bd 3f6c 993c
00000140: 3a0d 24bb f7cf f1bd 8089 863b c735 253d
00000150: ad17 f13d 2e5e 80be 2eb6 4bbe d4eb 283e
00000160: 4d2e 15be b7b5 72bd 90ba 23be daea d9bd
00000170: d8cb 313e dd88 7d3a 1071 94be 8b17 983c
00000180: 3a22 7abe 8b3a 82bc f473 17be 3a57 eb3d
00000190: 9915 9d3d 23c2 6cbe dc1e a3be 0081 1bbb
000001a0: 7e03 8fbd e35d 7ebe 00fa 553d ecc3 953d
000001b0: d748 39be 425e 14be 8e1d abbd fbb3 83be
000001c0: bb29 a1bb edf7 56be c37e 5fbe f735 26be
000001d0: a0fa 16bc bf87 e1bd 838d 5f3c ec3b 84bd
000001e0: bdef 8abd 020a 21be 7687 143e ebcb 76bc
000001f0: cda2 ee3d bfd3 a4bd 67e7 69be afbb 1bbe
00000200: a1d9 a43d a048 8ebd 52db afbd d74f a63d
00000210: 7e24 c43d 2635 abbc ac2d 79be 1517 0d3d
00000220: 6af4 ee3d f9f6 d0bd 196b 17be fd96 c2bd
00000230: eade 90b8 b7f0 c4bd f280 e1bd f492 8bbd
00000240: 05a7 dbbb 8590 a43d 1620 763d 001c c3bc
00000250: 36a8 b63d d0bf a9bd ee66 93bd 12aa f43d
00000260: e9c8 01bd 521f 1bbc 88d8 9cbd 08f6 b6bd
00000270: dc89 a33d 11e7 01bd 1fe9 c53d 195a 7ebe
00000280: 1089 36be 0678 063e 17ab 09be 757f 1abe
00000290: 2826 f6bd 8df5 103d 3823 75be ebe6 cebb
000002a0: 4c4e d0bd 1ff9 8dbd a8fc 0e3e 51aa 783d
000002b0: 59c2 80be 9eca 363d 84de a43d 1d89 04be
000002c0: 9ba7 7dbe 5fff 0c3c 8b72 32be f115 a33d
000002d0: 7b76 2b3d f817 33be 0495 05bc c60d 48bd
000002e0: 08c9 3dbe 82e4 fbb9 4565 ca3d 4cfa 4fbe
000002f0: e619 f53d 5db5 5b3a 29da e4bc 68c4 083e
00000300: 5b44 32be 8935 a13d e06f 59be 5705 51be
00000310: 4fee 01be b04d 0b3e 3542 b93d d36b 81be
00000320: d407 023d 72bf 753d 4184 d63c fe5a 9e3c
00000330: fb06 66be d115 dbbd 78e1 0d3c d746 1bbe
00000340: c480 453d 7939 e2bd 1752 2bbe a41f 1e3c
00000350: 4761 17be d178 5cbe ad32 42be bc95 9a3d
00000360: 4634 cbbd 907b fa3d eb31 5e3d b342 f63d
00000370: 040d 6dbe b3f2 dd3c 8fcf a4bb 432a 1abe
00000380: b022 38be 4223 e23d aaa6 fbbc 2045 69be
00000390: ac9c 003e 1d3b 62be 0b0a 3f3d d684 3fbb
000003a0: cb68 453d 462d 5abe 1939 54be 5cb4 6abe
000003b0: f1ad 58be 95da 1d3d c08c 3a3d f0c0 c1bd
000003c0: 0de3 f03d f70e 853c 7302 fdbd 3ef5 57be
000003d0: 479f d03d 89b7 cfbd 68a6 4dbe 0a6c 66bc
000003e0: dbfc 243c af24 25be 6630 83bd e1c4 923d
000003f0: 0f8e 30be 4de9 41bd b054 9b3c 5ef0 e4bd

sequential_1/dense_3/MatMul f4 [1, 32]
-0.22088422 -0.0044906116 -0.30626306 0.13003522 -0.063652925 -0.2299406 0.018737955 -0.027843738
0.3608289 -0.06505864 -0.06464951 0.26906708 0.23629399 -0.36538637 0.0892906 -0.045818217
0.17777391 0.23021689 -0.22313343 0.014263611 -1.3832886 0.26986593 0.059783157 0.0043086396
-0.18797684 0.20031856 0.2966569 -0.056957833 -0.10595213 -0.27207467 0.16140768 -0.0068202056
00000000: 792f 62be fb25 93bb 83ce 9cbe f427 053e
00000010: 775c 82bd 8c75 6bbe 5780 993c 8d18 e4bc
00000020: 91be b83e 773d 85bd f666 84bd 29c3 893e
00000030: 0df7 713e ec13 bbbe fddd b63d e2ab 3bbd
00000040: 5d0a 363e fabd 6b3e 177d 64be ecb1 693c
00000050: 9a0f b1bf de2b 8a3e 2fdf 743d 7d2f 8d3b
00000060: 007d 40be 4f20 4d3e 6ae3 973e 9e4c 69bd
00000070: 6efd d8bd 5f4d 8bbe 0e48 253e 087c dfbb
