Riproduzione/models/FD001/CNNlarge/CNN_large_batch_1.tflite (tflite, 310896 bytes, 11 tensors)

sequential_1/conv1d_3/BiasAdd/ReadVariableOp f4 [128]
000000 aa 6a 05 bc 0f 0b 76 bc 3e 1f a7 bd b8 e2 da bd
       -0.0081431065 -0.015017285 -0.08160256 -0.106877744
000010 cd fe 5d bd c2 a9 96 bd f3 59 b8 bd 38 a6 04 be
       -0.054198075 -0.073565975 -0.090015315 -0.12954032
000020 b9 80 a7 bc 2b 41 2d 3b 1e ee bb bd 66 93 c4 bd
       -0.020447122 0.0026436548 -0.091762766 -0.095984265
000030 63 fa 34 3d 06 92 7c bd 2a 74 a4 bd ae d4 a8 bd
       0.0441841 -0.061662696 -0.08029969 -0.082436904
000040 4d d4 68 bd e1 98 c5 bb 9b 32 b6 bc 9e 82 8f bd
       -0.05684309 -0.0060301875 -0.022240927 -0.07007335
000050 29 11 a4 bd 48 80 31 3b f7 61 b5 bd 4a 2e 89 bd
       -0.080110855 0.0027084518 -0.08856576 -0.06698282
000060 36 7e 3b bd 6d 8c cd bd 9c 2b 89 bd 79 18 95 bd
       -0.04577466 -0.1003655 -0.06697771 -0.072800584
000070 ce 7b bb bd ce ce a9 bb 88 00 1b bd db b6 ae bd
       -0.09154473 -0.0051821237 -0.037842304 -0.08530971
000080 ba b7 bc bd b6 88 8b bc b0 0c 54 bb cc 1b 6b bd
       -0.092147306 -0.017032962 -0.0032356195 -0.057399556
000090 a3 f3 b1 bd e5 48 9d bd fd 40 58 3c 62 ca 94 3c
       -0.08689048 -0.07679919 0.013199088 0.01816291
0000a0 a7 ca c1 3d e0 de a5 bd 5f 62 83 3b 47 3f 26 be
       0.09462481 -0.08099151 0.0040095295 -0.16235076
0000b0 e2 a1 0a 3d fd 58 e3 bd 15 c1 7e 3d b5 fe 8a be
       0.03384579 -0.111009575 0.062195856 -0.2714745
0000c0 cf 34 cf 3a a4 08 04 bd 1e 2f 03 3d c3 80 39 3d
       0.0015808585 -0.032234803 0.032027356 0.045288812
0000d0 35 e9 6e 3a 1e b1 84 bd 79 29 a5 bd 3c ad bd bd
       0.000911373 -0.06479095 -0.08064551 -0.092615575
0000e0 bd 69 de ba 94 07 b1 bd 8e 02 22 be 51 7f 3f bd
       -0.0016968768 -0.086440235 -0.15821287 -0.046752278
0000f0 d4 0a a7 bd 85 73 bd bd 0c 34 9f bd 34 04 9f bd
       -0.08156362 -0.09250549 -0.07773599 -0.077644736
000100 9e b4 27 3d fb e9 de 3c e5 79 14 be de c3 a7 bd
       0.040943734 0.02721118 -0.14499624 -0.081916556
000110 b8 92 3d bb 1d f6 b4 bd 8b 50 17 be 9e f5 be bc
       -0.0028926563 -0.08836005 -0.14776818 -0.023310479
000120 69 de 8c 3d 8e 27 dc bd c0 51 59 3d de c6 2b 3c
       0.06878359 -0.10749732 0.05305648 0.010484425
000130 9a c0 96 3d 47 b6 20 3e df 1c ff bc 23 9c 8a 3d
       0.073609546 0.15694533 -0.031141696 0.06768062
000140 45 1f bb 3d 86 43 af bd f3 51 ac bc 1f a8 e7 bd
       0.091368236 -0.08557801 -0.02103517 -0.113113634
000150 89 95 30 3c 92 c8 d7 bb d6 86 2c 3d b8 71 8c ba
       0.010777839 -0.006585189 0.042120777 -0.0010715043
000160 c5 de 2e bd 58 54 b3 bd 8e 27 5b bd 36 a5 c0 bd
       -0.04269292 -0.08756322 -0.05350452 -0.094065115
000170 03 35 08 3a 77 8a e4 3e a1 79 20 bc b4 e6 bd bd
       0.00051958876 0.4463689 -0.009794624 -0.09272519
000180 54 a6 10 be 31 0b 29 bc 7e 78 fd bd f9 99 3b bd
       -0.14125949 -0.01031761 -0.12376498 -0.045801137
000190 3f d6 5c be 9d f8 3d bd f9 52 0f 39 b6 4c 8c 3c
       -0.21566103 -0.046379674 0.00013668452 0.017126422
0001a0 a0 85 e6 bd a5 66 c1 bd 41 41 95 bd c4 0d 89 bd
       -0.11255956 -0.09443406 -0.07287837 -0.06692079
0001b0 a8 34 e9 be 66 89 c2 bd 86 55 d6 bc aa 59 dd 3a
       -0.45547986 -0.09498863 -0.026163828 0.0016887684
0001c0 34 7d c3 bd b5 85 cf bd ec 50 49 bd 17 c5 68 3c
       -0.09545365 -0.101329245 -0.04914944 0.014207146
0001d0 69 58 fd b9 fe 45 aa bd b3 dd 96 be b3 c1 98 bd
       -0.0004832179 -0.08314131 -0.29466018 -0.0745882
0001e0 54 af b6 bd 57 08 b4 bd f6 e9 4e 3e bc 39 b0 bd
       -0.0892016 -0.08790653 0.20206437 -0.08604762
0001f0 2e 8c bb bb 37 25 b9 bd 63 11 74 3d 7f 53 b5 bd
       -0.005723498 -0.09040301 0.059586894 -0.08853816

sequential_1/conv1d_4/BiasAdd/ReadVariableOp f4 [64]
000000 bf fb 75 bd d4 6e 3f bd 2b a0 71 bd 38 8e 67 3e
       -0.060054537 -0.046736553 -0.05899064 0.22612846
000010 3e 7e 73 3d e8 7f b6 be ba fb 75 bd 4f fb 75 bd
       0.059446566 -0.3564446 -0.06005452 -0.06005412
000020 ba fb 75 bd c5 8a 83 3e 49 23 77 bd 76 f4 43 3e
       -0.06005452 0.2569181 -0.060336385 0.19136223
000030 b4 e5 b1 be 75 e8 6d be f5 5a 26 3e 51 ac 77 bd
       -0.34745562 -0.23233207 0.16245635 -0.060467068
000040 c7 fb 75 bd bb 33 9d bc 69 17 4d bd be f7 75 bd
       -0.060054567 -0.019189706 -0.050071154 -0.06005072
000050 7d a2 8a bd bb fb 75 bd 69 fb 75 bd a1 58 2b 3e
       -0.067692734 -0.060054522 -0.060054217 0.16733028
000060 b7 68 89 bc f0 8e 3a bd cb fb 75 bd e5 5d 39 bd
       -0.016773565 -0.045546472 -0.06005458 -0.04525556
000070 a4 d2 75 3e 7e 90 76 3e 57 dc 88 bd cb a2 c9 3d
       0.24006134 0.24078557 -0.066826515 0.098455034
000080 c5 a3 46 3c 5c 22 ef bd 8d fb 75 bd b5 41 01 bc
       0.012124007 -0.116764754 -0.06005435 -0.007889201
000090 8a 31 d0 3b bb e9 a9 3d cc 3f 10 bc c7 fb 75 bd
       0.0063535618 0.08296534 -0.008804273 -0.060054567
0000a0 cc fb 75 bd 9a 21 90 be a2 fa 75 bd 5e 85 3a 3e
       -0.060054585 -0.28150636 -0.060053475 0.18214938
0000b0 c4 00 71 3e f9 11 74 3e a8 00 3c bd b4 fe 0a be
       0.23535448 0.23834981 -0.045899063 -0.13573724
0000c0 81 f0 70 3e d5 86 4e bd 00 fb 75 bd b4 6d 00 3e
       0.23529245 -0.050421555 -0.060053825 0.12541848
0000d0 c6 fb 75 bd 67 66 1b 3e 73 8a 1c bd 19 de a5 bd
       -0.060054563 0.15175782 -0.038217973 -0.080990024
0000e0 0b fb 75 bd da f9 75 bd d0 fb 75 bd cd fb 75 bd
       -0.060053866 -0.06005273 -0.0600546 -0.06005459
0000f0 1f fb 75 bd c9 fb 75 bd c8 fb 75 bd de eb 75 bd
       -0.06005394 -0.060054574 -0.06005457 -0.060039394

sequential_1/conv1d_5/BiasAdd/ReadVariableOp f4 [32]
000000 28 f2 39 bf bf 16 05 3e 31 de a1 bd b4 ed ce be
       -0.72635126 0.12996958 -0.07903708 -0.40415728
000010 ea e6 d4 3e cd 96 6d bc b7 ea 1e bf 9c dd f7 bd
       0.41582423 -0.014501286 -0.62076896 -0.121028155
000020 47 6d 26 3e 1e ec f3 be 50 1f 78 bd 88 b2 f6 3e
       0.16252623 -0.4764108 -0.060576737 0.48183084
000030 77 42 1f bf 07 c1 1a be 7e 7b 76 bf fd 07 bc 3e
       -0.6221079 -0.15112697 -0.96282184 0.36724845
000040 0e fd 02 3f 2f 1c 0f 3f 75 6a 3a be 4a df 96 be
       0.5116738 0.5590238 -0.18204673 -0.2946723
000050 a0 9e f3 bc a9 ce 12 bf 24 05 41 3e e9 44 0c be
       -0.029738724 -0.5734659 0.18849617 -0.13698162
000060 a9 10 2a 3f ec c6 ee bd 95 8b ce 3e 5d ea ab 3d
       0.6643167 -0.11659035 0.40340868 0.083943106
000070 3a dc 53 be 21 54 e6 bd 72 f9 70 be 15 34 70 3e
       -0.20689479 -0.11246515 -0.23532656 0.23457368

sequential_1/conv1d_6/BiasAdd/ReadVariableOp f4 [16]
000000 63 50 f0 3e 61 d9 16 3f 33 a3 29 3f 9e 8f 43 be
       0.4693633 0.58925444 0.6626465 -0.19097754
000010 1b b9 03 3f 54 4b 74 bd d6 80 27 be a5 1d a4 be
       0.51454324 -0.05964215 -0.16357741 -0.32053867
000020 ed 22 58 3e 50 26 1e 3f 04 eb 83 bd c7 77 d1 3e
       0.21107073 0.6177721 -0.0644131 0.40911695
000030 49 55 2a 3f ab 2a 02 be 60 29 61 3e 24 9e 76 bd
       0.66536385 -0.12711589 0.2198844 -0.06020941

sequential_1/conv1d_3/Conv1D f4 [128, 1, 8, 14]
000000 13 37 38 bd 8a fe e2 3d 4f 1e 42 3c 21 70 d4 3c
       -0.044974398 0.11083706 0.011848046 0.025932373
000010 06 cf 70 3c f3 c8 94 3c 32 ca 31 3d 1b f2 09 bc
       0.014697796 0.018162226 0.04340572 -0.008419539
000020 80 b1 28 3b bc 35 18 bc fa c6 29 bc 5f 0d 1c bd
       0.0025740564 -0.009290155 -0.010362381 -0.03809869
000030 4b 27 3d bd d8 ae f3 bd cb 2b 01 3e 7b 6f ca 3d
       -0.04618005 -0.11898583 0.12614362 0.098845445
000040 3d 9a d3 bc ee 51 d4 bd 35 a3 af 3b 10 17 dc 3c
       -0.025830382 -0.10367189 0.005360032 0.026866466
000050 5c 0c 1f 3d 5f 9f 29 3d 71 83 96 3d 18 2b 20 bc
       0.038830146 0.041411754 0.07349289 -0.009775899
000060 cb 29 4f 3d 5c 2a 08 bd c7 9c c0 3b 39 35 4c bd
       0.050576966 -0.033243522 0.0058780643 -0.049855445
000070 eb b2 d3 bc d3 b5 90 bd 72 9d 90 bd e6 66 3d bb
       -0.02584215 -0.0706593 -0.0706128 -0.0028900444
000080 49 04 d9 3c 34 a6 7f 3c 7d b9 60 3d 3c 74 c0 bd
       0.026491301 0.015603591 0.054864395 -0.0939717
000090 26 b7 a3 3d 8f d3 b0 3b 94 96 7c bd 8f b5 10 3e
       0.07993917 0.0053963135 -0.06166704 0.14131759
0000a0 8a 1e 97 bd 4e 91 aa 3b 5b 12 41 bd 28 06 3b bd
       -0.07378872 0.00520531 -0.047136646 -0.045660168
0000b0 ad ae bf 3c e6 f3 be bd 80 5f 2a 3d c8 ac 6d 3d
       0.023398722 -0.09323864 0.041594982 0.058026105
0000c0 ae 10 4b 3d 7b 75 d7 3c a4 23 9c 3d 28 0c 52 3c
       0.049576454 0.026301136 0.076239854 0.012820281
0000d0 16 19 e2 3d a2 6e 75 bc a7 03 8c bd bd d2 90 bd
       0.11039941 -0.01497999 -0.06836634 -0.07071445
0000e0 97 7c 01 bd 73 5d 91 3d d8 a9 bf 3d d9 4b 66 bd
       -0.03161296 0.07097902 0.09358567 -0.056224678
0000f0 6f db b5 ba ae c6 50 bd 03 14 56 bc a2 61 f1 3c
       -0.00138746 -0.050970726 -0.013066295 0.0294655
000100 83 de e4 3c ec ee 83 b9 09 bb de 3b bc e7 dc bd
       0.027938133 -0.00025164278 0.0067971987 -0.10786387
000110 86 5c 12 be 09 4f 58 bd bb 41 05 3e 51 0a d4 bc
       -0.14293107 -0.05280975 0.13013355 -0.025883825
000120 91 c9 34 bd 34 7b 32 bd 08 f8 ca 3d d2 08 77 3b
       -0.04413754 -0.043574527 0.099105895 0.0037694466
000130 9b 49 3f 3d 7a ea db 3b b6 0e d2 3c b5 d2 7b 3d
       0.046701055 0.0067113014 0.02564178 0.061480243
000140 7a 54 df 3b 9d 51 87 bd 6c ed d5 bd 40 cd 2d bd
       0.0068154903 -0.066073634 -0.10445675 -0.04243207
000150 2e e8 bc 3b e7 2a 68 bc 48 5b 8b 3d 90 3a 5c bc
       0.0057649827 -0.014170385 0.0680452 -0.013441697
000160 5b c7 cc 3c f2 ec 2e bd 3b eb 89 3c e7 c1 8b bc
       0.024997404 -0.042706437 0.0168358 -0.017060233
000170 27 b6 8f 3c 39 a2 23 3b 65 02 8d bd 96 4c 23 bd
       0.017542912 0.0024968518 -0.06885222 -0.03986796
000180 60 ab c8 3d a0 ea 1d be 45 bc d3 3b 79 ef e5 3d
       0.09798312 -0.15421534 0.0064616525 0.112273164
000190 61 41 09 3e 62 9d 67 bc ca 87 9e 3b 27 48 44 bd
       0.13403846 -0.014136644 0.0048379647 -0.047920372
0001a0 5c 1e 8c 3c 54 9f 4c bd f2 8e b2 bb 8e bc 5b bd
       0.01710432 -0.049956635 -0.0054491693 -0.053646617
0001b0 62 0c 14 be 06 c2 47 bc 4e fc f7 3c 36 fc fe bd
       -0.14457849 -0.012192255 0.030271675 -0.12450449
0001c0 35 0e 3b 3f aa e6 80 be a4 34 b3 3e 64 de 8b 39
       0.73068553 -0.25175983 0.350011 0.0002667784
0001d0 43 88 81 3e e4 a7 84 3c e9 bc 91 bd 74 be 66 be
       0.25299272 0.016193338 -0.0711611 -0.2253359
0001e0 83 ed 4c 3e 47 c5 57 bd ba e1 0b 3f aa cc 09 3e
       0.20012479 -0.052678373 0.54641306 0.1345698
0001f0 d0 a5 40 3e 24 bb b3 3e 62 dd e5 3d 29 19 9b bd
       0.18813252 0.35103714 0.11223866 -0.07573158
000200 f3 1b 8c 3e 5e 8a 45 3d 8c fa bc 3c eb f1 41 3d
       0.27365074 0.04822766 0.023068689 0.04734985
000210 5c e5 7f 3e 00 2a 48 be de d6 69 3e d0 0e 95 bd
       0.24989837 -0.19547272 0.22835872 -0.07278216
000220 e4 8a 60 be e0 7a 96 3d a7 5b b4 3e e5 d8 25 be
       -0.21927983 0.07347655 0.35226175 -0.1619602
000230 d5 09 ce be 25 77 44 be b6 20 40 bd cd 64 d2 be
       -0.40241876 -0.19186075 -0.046906196 -0.4109253
000240 02 f0 24 3d 2a 50 d1 bd f5 34 50 be 22 64 d3 3c
       0.04026795 -0.10220368 -0.20332702 0.025804583
000250 ed 93 15 3e 56 f1 ef 3c 2c 4d 4b be d1 cd 18 3e
       0.1460721 0.029289883 -0.19853657 0.14922263
000260 9e 06 49 be 14 51 d7 bd 14 dd 7f 3e 1a 13 4d 3c
       -0.1963143 -0.10513511 0.24986678 0.012516761
000270 a9 42 db 3d 6c 9b ba be 8b a2 4b 3e 61 06 8e bd
       0.10706074 -0.36446702 0.19886224 -0.069348104
000280 33 f4 e5 bd f2 36 b8 3e 7b bb b2 3d 0a 31 b0 3d
       -0.11228218 0.3597942 0.08727165 0.086031035
000290 e4 fd 4f 3c ca 72 3a 3e b2 a2 e8 bd 18 a3 58 bd
       0.01269481 0.18207851 -0.11359157 -0.052889913
0002a0 b7 3d ad 3e 14 52 9e 3c 7c c2 0a 3e 95 c6 d6 bc
       0.33836147 0.019326247 0.13550752 -0.026217738
0002b0 8a 79 ea 3c 9e c1 18 bd 3e 9e dd 3d 9f 0e 14 3c
       0.028622407 -0.037294023 0.10821198 0.009036689
0002c0 67 da bd bd bc e2 a7 3c f3 db a8 bd e4 7e cb 3d
       -0.092701726 0.020493858 -0.08245077 0.09936312
0002d0 a0 19 40 be a2 20 99 3e 2d 87 04 3d 9c 9b 0b 3e
       -0.18759775 0.2990771 0.032355476 0.13633579
0002e0 33 0b d1 3d 94 e9 ba bc 5b 7a 93 3d 1d e9 03 bd
       0.10207214 -0.022816457 0.07201072 -0.032204736
0002f0 aa d1 72 bd 14 4d 6b 3e 69 54 19 be 33 7f 07 bd
       -0.059281982 0.22978622 -0.14973606 -0.03308029
000300 31 63 c3 be e1 fd 5f bf c0 8a 80 be cb 2a fe 3c
       -0.38161615 -0.87496763 -0.25105858 0.031026265
000310 6b 9a eb 3e ca 29 7c 3c 6d 67 47 3c 66 79 85 be
       0.4601625 0.015390823 0.012170655 -0.26069182
000320 ee e8 9a bc 7e 46 99 3d c5 20 f7 bd 35 a8 15 3e
       -0.018909898 0.074841484 -0.12066797 0.14614947
000330 36 10 9b 3d f8 6a 9e bb ab de 0a bf 3a 81 e6 3e
       0.07571451 -0.004834529 -0.54246014 0.45020467
000340 d0 8a c9 3e 20 37 92 3d b1 dd b3 bd 62 9d 2b be
       0.39363718 0.071394205 -0.08782519 -0.16759256
000350 06 50 2c be 9e 62 29 3e 0d 50 a4 bd d6 51 6a bd
       -0.16827402 0.16541526 -0.08023081 -0.05720695
000360 2c 2a 0a bd b6 37 17 be 7e 6c 7c 3d 4e 44 90 bd
       -0.033731624 -0.14767346 0.061626904 -0.07044278
000370 d1 ab 9f be ce bc 6e be a4 1e 40 bd 46 aa 98 3d
       -0.31185773 -0.23314211 -0.04690422 0.07454352
000380 15 7f a2 3c 21 08 52 3b 7d 4a 89 bd 66 bd 67 3d
       0.019835988 0.0032048302 -0.06703661 0.05657711
000390 37 46 b7 3c c0 ef 9c 3c 4a 9a d6 3b 42 d3 a7 3d
       0.022372348 0.01915729 0.0065491544 0.08194591
0003a0 cf af a8 3d 79 55 0a 3e df ec 97 bd 61 63 5c bd
       0.08236658 0.13509168 -0.074182265 -0.053805713
0003b0 4b 30 99 3c c7 92 8c bc 75 0e ca bd 02 8c 10 3d
       0.018699786 -0.017159833 -0.09866039 0.03528977
0003c0 98 0b 08 bc e9 41 7d 3d d6 8b e7 3c c2 d3 07 3e
       -0.008303545 0.061830435 0.028264921 0.13264373
0003d0 34 7e aa bd b8 16 da bc 8f 07 23 3e 20 eb 0c 3e
       -0.083248526 -0.026622161 0.15920852 0.13761568
0003e0 26 ca 8c bc 63 77 be bd 71 66 b5 3c 9f 03 8c 3d
       -0.017186236 -0.09300115 0.022143574 0.06836628
0003f0 04 11 a8 3c 00 a4 c4 bb 19 98 b8 3c 5c 37 cf bc
       0.020515926 -0.0060009956 0.022533463 -0.025294952

sequential_1/conv1d_4/Conv1D f4 [64, 1, 6, 128]
000000 2e 7c 0d 3c be 5e 80 bd f4 01 6c bd b4 94 3d 3b
       0.008635564 -0.06268071 -0.05761905 0.0028927745
000010 b8 65 42 3b 90 93 b0 bd f6 96 eb bd 12 dd 35 3d
       0.002966268 -0.08621895 -0.11503403 0.044400282
000020 2f 33 21 bd 42 f4 02 bd 86 02 f8 bb b7 75 8b bb
       -0.039355453 -0.031971224 -0.00756866 -0.004255976
000030 f8 c0 f7 bd 81 51 80 bd 08 0b fd bd b3 e9 13 bd
       -0.12097353 -0.06265546 -0.1235562 -0.036111545
000040 01 ae 92 bd 7b 06 51 bd c8 21 00 be 5d ab 1a 3c
       -0.07162095 -0.05103157 -0.12512887 0.00944027
000050 7d 56 fd bd 13 0c 98 3d fc 91 93 bd 92 46 81 bd
       -0.12370012 0.07424178 -0.07205579 -0.06312288
000060 2d d7 06 bd 3b d6 8d bd 6b d6 08 bd 37 61 05 3c
       -0.03292005 -0.06925627 -0.03340761 0.008140854
000070 6b d1 d6 bd c2 39 03 bd 7d 9e 8f bd 51 f7 48 bd
       -0.10489162 -0.032037504 -0.07012651 -0.049063984
000080 f5 c6 98 bc 82 73 a1 3a 94 e7 af bd ea 36 d5 bd
       -0.018649558 0.0012317749 -0.08589092 -0.10410865
000090 47 31 02 be 8f a2 01 3e f7 8c 9d 3d 52 9f da bd
       -0.1271411 0.12659667 0.076929025 -0.10674919
0000a0 14 ef 09 bd 0b 78 ff bd 12 e2 d8 3c 3c c1 d5 bd
       -0.03367527 -0.12474068 0.026474986 -0.10437247
0000b0 a6 97 c5 bd 1b 94 9a 3c f5 aa 1b 3d f7 88 b1 3d
       -0.09648065 0.01886945 0.038004834 0.08668702
0000c0 03 de 91 ba bd 29 c1 bd 71 1b e0 bb 88 f4 8a 3a
       -0.0011128787 -0.09431789 -0.006839209 0.001060144
0000d0 76 ee ab bc 29 4b a1 bd 70 e6 b1 bc c8 e0 e7 bd
       -0.02098773 -0.07875664 -0.021716326 -0.113221705
0000e0 d8 58 35 bd 96 52 56 bd 74 8a e7 3b 02 fc 97 bc
       -0.04427418 -0.052324854 0.0070660654 -0.018552784
0000f0 42 b4 80 3d 7b 91 73 bd ee ce d7 bd d7 f5 a9 3c
       0.062843814 -0.059464913 -0.105375156 0.020747108
000100 31 e1 cc bd 20 3e e9 bd 02 0d f0 bc e7 c6 05 be
       -0.10003889 -0.113888025 -0.029303078 -0.13064156
000110 dd 9b f2 3d e9 c2 49 bd e2 94 b2 bd 58 f1 ec bd
       0.11846135 -0.049258146 -0.087198034 -0.1156947
000120 4f d4 29 ba 57 19 ee bd 9d 29 be bd 1e b6 02 3e
       -0.0006478475 -0.11625927 -0.09285281 0.12764785
000130 10 9d 90 bd 3e a4 a0 bd af 93 81 bd 12 e0 b0 bd
       -0.07061207 -0.07843827 -0.063269965 -0.08636488
000140 c0 bf ba bd 34 c5 ff bd 02 d1 51 bd 4a 1a d6 bd
       -0.09118605 -0.124887854 -0.051224716 -0.10454233
000150 fe 99 22 bc 85 e3 4d 3c ec 24 02 be d3 ea ce 3d
       -0.00992441 0.012566452 -0.12709397 0.10103383
000160 fc 60 8e bd af 92 4c bd 7e 08 01 be 22 d0 ff 3d
       -0.06952092 -0.049944576 -0.12600896 0.1249087
000170 36 96 e4 3b 00 25 02 bc 8e 53 b7 bd 1c c6 b4 bd
       0.0069759144 -0.007943392 -0.08951484 -0.08826849
000180 7f 4d 31 bc f5 58 84 bd ea 82 fe 3c 10 be 85 bc
       -0.010821699 -0.0646228 0.031068284 -0.01632598
000190 14 82 0e 3c 81 f2 3b bc 4a 13 fe bc f2 eb a5 bd
       0.008698005 -0.011471392 -0.031015057 -0.081016436
0001a0 c4 d5 ef bd 24 66 a8 3b aa 07 00 bd c5 85 9e bd
       -0.117106944 0.0051391292 -0.03125731 -0.07740358
0001b0 dc af 6c 3d f0 ff c2 bd 76 3d 46 3d 29 eb 12 bb
       0.0577849 -0.095214725 0.048398457 -0.0022417998
0001c0 a4 2d 92 3d 65 49 82 bd 22 04 b8 bd 8c 09 6c bd
       0.071376115 -0.06361655 -0.08985163 -0.057626292
0001d0 5b 8c c5 bc 97 8a d2 bd d6 cb 6e bd 39 f0 05 be
       -0.024114778 -0.1028034 -0.05829986 -0.13079919
0001e0 62 ab 36 bc 35 23 19 bc 38 61 71 3d d8 e9 ea 3b
       -0.011149259 -0.009346773 0.058930606 0.0071689896
0001f0 73 90 4a bd c0 7b e1 bd b7 9a f3 bd 43 fc 37 3a
       -0.049454164 -0.110099316 -0.11894744 0.0007018486
000200 eb 38 21 bc cf bf fd bb cd f0 e8 bd 70 0a 4a 3d
       -0.00984023 -0.0077438126 -0.11374054 0.04932636
000210 6c 7f fd 3d d6 a1 1a bd fa fb 28 3c 39 42 f1 bb
       0.123778194 -0.037751995 0.010313982 -0.0073626307
000220 25 9e 0f 3b f3 40 13 3c 4c 51 3c bc 58 38 2a bd
       0.002191433 0.008987653 -0.011493992 -0.04155764
000230 8b 78 87 bd cf 5d ef bd f9 9a e9 bd 66 c1 60 bd
       -0.066147886 -0.116878144 -0.11406512 -0.05487194
000240 54 2f 4e 3d 38 03 f2 bd a4 71 5d bd 9f bc cb bd
       0.050338104 -0.1181702 -0.054063454 -0.09948086
000250 df 40 3d bd 0c 0a 04 be 97 01 c0 bd 8d 26 23 bd
       -0.046204444 -0.12894458 -0.09375303 -0.039831687
000260 43 b8 f7 3b a4 27 93 3d 80 59 c0 3b 48 2f a3 3b
       0.0075598075 0.07185295 0.005870044 0.0049800016
000270 8e b8 b9 bc 63 a1 c0 bd b6 c9 03 be c7 a6 03 bc
       -0.02267101 -0.09405782 -0.12869915 -0.008035368
000280 16 7e 13 3c 41 92 7d bd d4 a1 de bd 08 f3 21 bd
       0.009002229 -0.061907057 -0.1087071 -0.039538413
000290 f3 d0 a7 bd 1f d1 b9 3d 56 e9 f3 3c 46 86 a1 3d
       -0.08194151 0.0907309 0.02977435 0.07886939
0002a0 86 67 b4 bd 1b d7 03 be ef 02 8c bd c0 f2 9a bd
       -0.08808808 -0.12875025 -0.06836497 -0.07565832
0002b0 6f 1b d1 3b 75 98 06 3e 76 58 41 bb ce dd a6 3d
       0.006381444 0.13144095 -0.002950219 0.08147775
0002c0 42 dd e8 bd 82 21 f5 bd ac 17 02 be 86 b1 c3 bc
       -0.113703266 -0.11969282 -0.12704343 -0.02388836
0002d0 09 b1 b4 bd 37 dc 2d bd d5 0b c2 3b 57 f5 98 bd
       -0.08822829 -0.04244634 0.0059218206 -0.0746867
0002e0 76 ea e1 bd 16 fb a0 bd 4b 67 d9 bc 10 15 9d bd
       -0.11031048 -0.07860391 -0.026538512 -0.07670033
0002f0 42 9c ea 3d 65 f9 fb bd 6f 2d fb bc fe 8e 09 ba
       0.11455585 -0.123034276 -0.030661313 -0.0005247443
000300 c9 32 2a 3c 7b b5 cb ba f3 e2 01 bd 5a 44 47 bd
       0.010388085 -0.0015541756 -0.031710576 -0.04864917
000310 37 04 c8 3d b0 d0 e3 bc 1e 7d b3 bd 91 ac 06 bc
       0.09766429 -0.02780947 -0.087640986 -0.008219854
000320 e7 c2 ef 3d b5 d2 c6 b9 84 91 10 bc 3e b7 bd 3d
       0.117070965 -0.00037922492 -0.008823756 0.09263466
000330 6f d4 4b bb c0 b3 fe 3c 51 3b d8 3b 61 c8 5d bd
       -0.0031101962 0.03109157 0.006598868 -0.054146174
000340 e8 b2 f1 bd f8 b4 97 3b 16 98 c2 bc b0 0a dd bc
       -0.11801702 0.0046297275 -0.02375416 -0.026982635
000350 9a 93 4c 3a f6 a5 01 3a 81 09 ac bd 36 32 5b 3d
       0.0007803977 0.00049456896 -0.0840025 0.05351468
000360 10 dc 81 bc ca 62 77 bd 5c 70 b8 bd 9c c2 b8 3d
       -0.015852004 -0.060396947 -0.09005806 0.09021494
000370 a2 78 25 3c 4d 44 d3 3d cb d2 9c bc 31 0d 8b bd
       0.010099562 0.10315762 -0.019143483 -0.067896254
000380 5b ae 9b bc 86 f2 d5 bd cd 70 50 bc ab bb 74 bd
       -0.019004038 -0.10446648 -0.012722206 -0.059749287
000390 96 99 9e bd 26 87 9d bd 58 2f aa bd 79 d8 91 bd
       -0.07744138 -0.07691793 -0.08309811 -0.07121367
0003a0 20 be c4 3d 36 66 ae bd fe 02 bd 3c 17 85 80 bd
       0.09606576 -0.08515589 0.023072716 -0.06275385
0003b0 4a d6 44 bc 23 8c 33 bd 41 48 ee bd b7 65 36 bc
       -0.012013981 -0.043834817 -0.11634875 -0.011132649
0003c0 17 18 e0 3d b9 7b 24 3c fe 9c 2f 3d 0b 4f d8 3d
       0.10942095 0.010039263 0.04287433 0.10561951
0003d0 53 42 6f 3d a9 7b fd bd 12 4a b2 bd c7 c7 d0 bc
       0.05841286 -0.12377102 -0.08705534 -0.025485886
0003e0 28 05 71 bd 01 74 95 3d a5 5f 1c bd 9b 7e 6d bd
       -0.058842808 0.072975166 -0.03817715 -0.05798207
0003f0 1d b3 97 bd 76 0c 93 bd c9 d1 b8 bd 57 ab d7 bd
       -0.0740721 -0.07180111 -0.09024388 -0.10530727

sequential_1/conv1d_5/Conv1D f4 [32, 1, 4, 64]
000000 1f 51 2e be e2 ce 2b be 63 78 41 bd b2 be a9 bf
       -0.17023133 -0.16778138 -0.04723395 -1.326132
000010 1b a5 6f 3f fb 44 c7 bd 5e a9 64 bc bb 3d 50 bd
       0.93611306 -0.09729954 -0.013956396 -0.05084012
000020 4c 13 17 be 16 2a ff be c5 58 81 3d a7 db 32 3f
       -0.14753455 -0.49836797 0.063157596 0.6986641
000030 00 f4 ba 3a 99 d7 87 bd ac fd db be cd 8c d6 bd
       0.0014263391 -0.06632919 -0.42966974 -0.10476074
000040 86 96 f5 bc f8 20 9f bd d1 d7 0d 3d 82 4d 7e 3d
       -0.029979002 -0.0776996 0.034629647 0.062085636
000050 bc fd 2e 3d ad 62 2e be 5c cd 09 bd 73 a2 90 3f
       0.04272245 -0.1702983 -0.03364311 1.1299576
000060 ef 23 47 bd 45 e3 1d 3b ef c7 9f bd 82 83 20 be
       -0.048618253 0.0024091762 -0.07801806 -0.15675166
000070 29 51 ca bf 84 06 c6 bd 8e a8 30 bd 60 4f 4a 3f
       -1.5806018 -0.096692115 -0.043129496 0.79027367
000080 2e 30 ea 3e 71 46 1f be 21 ff 82 3d 63 6a 79 3d
       0.45739883 -0.15554215 0.06396318 0.060892474
000090 06 87 05 3d bc a2 cb bf a3 de 29 3d 77 4b a5 bd
       0.03259947 -1.5909038 0.04147209 -0.080710344
0000a0 46 a8 0d bd fe 8e 8c be f8 53 e1 3a 23 56 c1 3e
       -0.034584306 -0.27452844 0.0017191162 0.3776103
0000b0 04 e9 7c bf 89 05 a2 bf 65 69 25 be 8b fd d1 bd
       -0.98793054 -1.2657939 -0.16153486 -0.102534376
0000c0 32 13 20 bb 9e f2 f5 bd cb 4a 36 3c 1b 16 8b bf
       -0.0024425504 -0.12009166 0.0111262305 -1.0866121
0000d0 4e dc 64 3c 5f 13 3d bf af dd bc 3c 16 23 9e bd
       0.01396854 -0.7385768 0.023054926 -0.07721536
0000e0 11 2c d1 bd 4e a2 e1 bd 5e 38 79 3d 31 9e 3c 3d
       -0.10213483 -0.11017285 0.06084477 0.0460493
0000f0 30 d4 d1 3d 11 e0 4a bd 51 07 e7 bc 9d 8c 18 3e
       0.1024555 -0.049530093 -0.02820173 0.1489739
000100 40 25 63 bd c1 0f f1 3e 9f 43 76 3c 2b 5a 54 be
       -0.055455446 0.47082332 0.015030771 -0.20737521
000110 68 26 81 bf 39 b5 45 bd 40 1b 31 bc bd b7 29 3e
       -1.0089846 -0.04826853 -0.01080972 0.16573997
000120 9d 6a 52 bd 89 63 cf 3e 93 a0 6d bc 46 5b c8 be
       -0.051371206 0.40505627 -0.014503616 -0.39132136
000130 00 88 46 ba 9e 43 9f bd 5f 8c 7e bf a6 8d 21 be
       -0.0007573366 -0.07776569 -0.9943294 -0.15776691
000140 5f 92 de bd 56 df 06 3e bc b6 ee 3c 0d 3d 2e be
       -0.10867762 0.13171133 0.029139869 -0.17015477
000150 db 99 97 bd d3 7f b5 bd 3b 12 3b be 3f e6 9d 3f
       -0.074023925 -0.08862271 -0.18268673 1.233589
000160 1f 22 20 be fe 89 02 3e c4 3d 16 be aa 7c 73 3d
       -0.15638016 0.12747952 -0.14671999 0.05944506
000170 dd 3e 3e 3c 74 f9 c9 bf 37 d1 01 3d 89 9b 42 3e
       0.011611667 -1.5779252 0.031693663 0.19004644
000180 9d 38 f6 3e 40 3e 7c bc 06 0c 10 be d8 fd 08 be
       0.48090068 -0.015395701 -0.14067087 -0.13378084
000190 2d 74 79 bf 03 e8 25 3f c1 d9 82 bc 0f c7 73 3b
       -0.97442895 0.64807147 -0.015972974 0.0037197506
0001a0 8e b3 1f be a5 37 ed be f2 a7 3a be a6 1f 4c be
       -0.15595838 -0.46331516 -0.18228129 -0.19933948
0001b0 5f f1 b3 3d 47 8a 96 3e 60 4c cc bd aa 05 85 bc
       0.08786272 0.29402372 -0.09975505 -0.016238052
0001c0 cb 4b 75 be 99 97 98 ba f5 7f 92 bd 4d 64 7e bf
       -0.23954694 -0.0011641859 -0.07153312 -0.99371797
0001d0 93 0c f3 bd 15 78 e8 bf 0e b3 09 3d 42 45 6a bd
       -0.11867633 -1.8161646 0.033618025 -0.057194956
0001e0 10 14 c3 bd b3 d5 0d 3d 1e 6f 86 bc 0c eb d0 3c
       -0.09525311 0.034627628 -0.016410407 0.025502704
0001f0 ba 17 60 bc f5 11 bc bc 59 67 22 be ea ea 20 be
       -0.013677532 -0.022957781 -0.15859737 -0.15714613
000200 50 75 c5 bd a1 d3 e8 be b9 e1 c5 3b 9f 0d 8d be
       -0.09641516 -0.4547396 0.006038871 -0.27549455
000210 d2 4c aa 3c 01 e2 fe 3b f0 f1 86 3d 80 d4 22 be
       0.020788584 0.0077784066 0.06589115 -0.15901375
000220 2b e4 94 bd 1f 65 42 bf db dc fe bd d6 0b c9 be
       -0.07270082 -0.7593555 -0.124444686 -0.39266843
000230 b0 2a b2 bd 88 77 b5 bb 2a 39 15 c0 32 ef 1f be
       -0.08699548 -0.005537931 -2.331614 -0.1561859
000240 df 54 0f be 82 0d 8c bb c7 2e 4f 3c 03 29 51 bc
       -0.1399722 -0.004274071 0.01264543 -0.012766126
000250 a5 72 2d be a4 a1 fd 3c dd 75 c2 bd 95 99 9a be
       -0.16938265 0.030960865 -0.09495137 -0.301953
000260 3e 97 4d 3c 9c 0b c5 bd 2b 3d 22 bd 6d 72 e4 bd
       0.012548266 -0.09621355 -0.039609116 -0.111546375
000270 72 fe 10 bf ee 18 2e 3f 17 63 d0 bd dd 58 9f 3e
       -0.5663825 0.6800679 -0.1017515 0.31122485
000280 10 56 39 be 53 04 4a bd a5 2c 92 bc d8 16 19 be
       -0.18099236 -0.04932053 -0.017843554 -0.1495012
000290 ab f8 38 3f 7b 21 78 3e fa 0c e5 bc c6 d3 98 bd
       0.7225444 0.24231522 -0.02796029 -0.074622676
0002a0 80 de 0a be 68 fa 92 be 7d 25 06 be db 88 80 3e
       -0.1356144 -0.2870667 -0.13100238 0.25104412
0002b0 4b 75 80 be cf cd 33 bf 3e 91 18 3d 7f 00 0a be
       -0.25089487 -0.70235914 0.03724789 -0.13476752
0002c0 eb 60 b3 be 78 75 3d be 0b 86 48 3c 32 b7 a7 be
       -0.3503488 -0.18501842 0.01223899 -0.32756954
0002d0 f1 10 24 3d 93 b8 8d bf 83 b1 24 be bc a1 c0 bd
       0.04005522 -1.1071953 -0.1608334 -0.094058484
0002e0 65 2d 18 3d 57 f2 23 bd 9e 47 31 3b 62 8a 25 bd
       0.037152667 -0.040026035 0.0027050744 -0.040415175
0002f0 26 f3 0d be b7 c8 04 be 6f d1 1f be e9 5e 77 bd
       -0.13862285 -0.12967192 -0.15607236 -0.060393248
000300 00 f4 fb 3c 95 5a d3 bf 4c f8 7a 3d 2c 50 71 be
       0.030755997 -1.6512018 0.06127195 -0.2356574
000310 e7 ef e8 bf 48 72 6d 3c d3 40 cd bc 01 ea 2b 3e
       -1.8198212 0.014492579 -0.025055325 0.16788484
000320 e5 86 48 bd 83 ee a7 bd 78 5f db bd 4a 5a 83 3f
       -0.04895677 -0.081997894 -0.107115686 1.0261929
000330 d0 ea 9d bd ba 4e 00 3a 6d f7 91 bf 7c d1 d3 bd
       -0.077108026 0.00048945437 -1.1403633 -0.1034269
000340 ac e8 f2 bd 5e 05 25 3d fa c3 0a be a8 e1 81 bc
       -0.11860785 0.04028832 -0.13551322 -0.015854672
000350 db b0 46 bd 89 a1 9c bc eb 33 71 3c dd 7f 5a bd
       -0.048508506 -0.019119995 0.014721851 -0.053344596
000360 62 3d 81 3c 03 00 e1 bd 8e 97 2c 3d b1 f1 8f bd
       0.01577634 -0.1098633 0.04213672 -0.07028521
000370 48 3a f1 be d4 cd 25 bf d2 65 f3 bd 20 b8 c0 be
       -0.47114778 -0.64767194 -0.11884655 -0.37640476
000380 e9 1c ee be 94 27 a2 bd 22 6e 03 be 1c bc 05 be
       -0.46506432 -0.07917705 -0.12834981 -0.1306004
000390 a0 40 52 3d c5 f5 16 be 5d d8 51 bc ce fe 8a 3c
       0.051331162 -0.14742191 -0.012807933 0.016967203
0003a0 1e 37 14 bc df 97 73 be e7 c7 22 3d 17 f0 80 bd
       -0.009046344 -0.23788403 0.039741423 -0.062957935
0003b0 74 cf 6d be 6f 49 1d bf cf 9b 21 be b5 e5 b1 bd
       -0.23223668 -0.61440176 -0.15782093 -0.08686391
0003c0 d9 0c ce be 31 90 7a 3d d2 96 55 3d a9 07 aa bf
       -0.40244177 0.061172668 0.052145787 -1.3283588
0003d0 5b 09 79 3d 6a 1d f7 bf 3c 4c 80 3d 4c 21 6d 3d
       0.060799938 -1.9305851 0.062645406 0.057893082
0003e0 df ab 2e be 7d 3a c3 bd 28 28 62 3d 2d 1b a8 bd
       -0.17057751 -0.0953264 0.055214077 -0.08208308
0003f0 28 2c 37 3d 89 a0 7c bc 98 3e b1 bd ab df 02 3c
       0.044719845 -0.015419134 -0.08654517 0.007987897

sequential_1/conv1d_6/Conv1D f4 [16, 1, 2, 32]
000000 a5 96 48 bf 94 57 88 3e 01 53 e3 be 72 cb 08 c0
       -0.78354865 0.26629317 -0.44399264 -2.1374173
000010 04 51 5f bf 31 88 02 be 02 50 ed bf bd f1 1f 3d
       -0.87232995 -0.12747265 -1.8540041 0.0390489
000020 6d 52 35 3f 8b 5b 23 c0 28 a4 14 be db 72 fc bc
       0.70828897 -2.5524623 -0.14515746 -0.030816486
000030 fe 3d 37 bf 80 e1 48 be 56 5b 42 3f 99 f6 37 be
       -0.7157897 -0.19617271 0.7592062 -0.17965163
000040 ed 03 86 3e 31 d5 f1 be 1c 27 c2 3d 26 ee 60 bf
       0.2617487 -0.47232965 0.09480116 -0.87863386
000050 14 be c2 3d c0 0a 0e bf 70 a8 bd be 6a cb b9 3b
       0.09508911 -0.55485153 -0.3704257 0.005670001
000060 4b 5e 9a 3c 35 ff 95 be 4f fa f2 3d db 5a dd 3d
       0.01884379 -0.2929627 0.11864149 0.10808345
000070 a1 df 99 bd 03 7a 1c 3e 91 e7 ab be 43 35 c6 be
       -0.07513357 0.15280919 -0.3357511 -0.3871251
000080 a9 22 1a c0 04 34 0d be 9c 03 28 3d ca 52 59 3f
       -2.4083655 -0.13789374 0.041019067 0.8489195
000090 d1 13 72 3e 00 86 d0 bd 9f 07 bc be 99 b9 95 3e
       0.23640372 -0.101818085 -0.36724564 0.29243162
0000a0 57 1a 23 3e b1 a5 1b bf 8f 19 d2 3d ec b3 66 3e
       0.15928017 -0.607997 0.10258781 0.22529572
0000b0 99 07 e5 3e de b6 55 3d 99 c6 a4 be 0e cd 56 3e
       0.4473236 0.05217635 -0.32182768 0.2097666
0000c0 7f 81 4a 3f b3 87 d8 bf 5c 55 a6 3d 03 cd d3 be
       0.79103845 -1.6916412 0.0812175 -0.4136735
0000d0 ab a9 4a bd 40 c6 3e be 67 ba c8 bd 33 22 62 3e
       -0.049478214 -0.18630314 -0.098011784 0.22083358
0000e0 ec 95 26 3e ed c2 cf be 5c 2b 22 be f0 d7 17 be
       0.16268128 -0.40578404 -0.15836853 -0.14828467
0000f0 99 15 cb 3d 10 01 95 3d 50 e7 88 3e 94 3c 3c 3e
       0.09916229 0.07275593 0.26738977 0.18382484
000100 dd 35 a3 be e6 f5 e2 bd aa a5 06 3d 28 bd 92 3f
       -0.31877032 -0.11082058 0.032872833 1.1463976
000110 01 66 21 bc 3f 58 28 be 1a 37 c1 be ba 99 9f bd
       -0.00985098 -0.16439913 -0.37737352 -0.07792993
000120 35 1c e0 be 5e cb 8f be c2 3e 87 be c1 e7 ca 3d
       -0.4377152 -0.28084844 -0.26415068 0.09907485
000130 6b 90 e6 bc fa 6e 1d 3e 4d 0f 89 bf 1d 18 0c be
       -0.028145036 0.15374365 -1.0707794 -0.13681073
000140 7f 89 a1 3e b3 42 d6 be 04 49 ed 3d 3d df 6e bf
       0.31550214 -0.41847762 0.11586192 -0.93309385
000150 eb 8a 04 bd 62 0a f2 bf 21 67 89 be aa dd 63 be
       -0.032359045 -1.8909419 -0.26836494 -0.22252527
000160 83 d5 0c 3f fa db e2 bc 09 b1 14 3e 0b cf a3 3d
       0.55013293 -0.027692784 0.14520659 0.07998475
000170 b2 c5 ba be f6 3f d8 bd a8 4a cd be 0b 58 75 be
       -0.36478955 -0.105590746 -0.4009602 -0.23959367
000180 e9 7e 81 bf a1 c4 a1 3e 34 bf 60 be 12 2d b7 bf
       -1.0116855 0.31595328 -0.21947938 -1.4310629
000190 63 b6 97 bd c0 29 0d bd bf 63 9d bf 44 cc e9 3d
       -0.074078344 -0.034463644 -1.2296065 0.11415914
0001a0 17 95 77 3f 37 e5 a2 bf 64 d0 f9 3d df 35 3c 3e
       0.9671187 -1.2726201 0.121979505 0.18379925
0001b0 21 9b e8 be f8 4b 15 3e f7 56 2b 3e 74 41 5b 3e
       -0.45430854 0.14579761 0.16732393 0.21411687
0001c0 6b 99 43 3f 98 b5 a8 3e 5b c9 36 39 aa 72 62 3e
       0.7640597 0.32951045 0.00017431883 0.22114053
0001d0 8c 86 bb bd a4 d8 7b be 73 87 86 be 21 0d b8 bb
       -0.09156522 -0.2459436 -0.26275215 -0.0056167995
0001e0 cb bd f1 bd 5a 9c 86 3c 74 9b 1c 3e f6 b4 8e 3e
       -0.11803778 0.016431976 0.15293676 0.27872437
0001f0 ac c6 ca be e4 fb 0b 3c 41 9c 59 be a5 39 53 be
       -0.396047 0.008543942 -0.21251012 -0.20627458
000200 00 10 2f bf f0 f3 bd 3e ce 42 a8 3d e7 96 c0 3f
       -0.6838379 0.37100172 0.08215867 1.5046052
000210 09 a6 90 be 36 f0 97 3d 27 3c 94 be 21 6a a1 3f
       -0.28251675 0.074188635 -0.28952143 1.2610513
000220 8d bf d4 3e 64 f2 9d 3d 51 2d 10 3d c2 a9 12 bc
       0.41552392 0.07712248 0.035199467 -0.008951606
000230 2a 1d a0 bf e7 c1 3e be be 73 2d 3f bb 3d 27 be
       -1.25089 -0.18628655 0.67754734 -0.16332142
000240 e2 f0 e0 bd dd 6e 22 bf db 9f 5c 3f 08 29 14 3f
       -0.10983445 -0.63450414 0.8618142 0.5787511
000250 f1 50 82 bc 99 f0 32 c0 09 45 bf bf 53 3e 6d be
       -0.015907736 -2.795935 -1.4942943 -0.23168306
000260 28 1c ed be 46 20 9c be 5b 57 64 be 9e ef ba be
       -0.46310544 -0.30493373 -0.22298948 -0.36510938
000270 f5 e2 26 bf 12 3e 32 bd db bf 24 bf f0 ef 5d 3d
       -0.6519006 -0.043516226 -0.6435525 0.0541839
000280 cb a4 e8 bd e1 71 73 3e e4 9d c8 bd d6 a8 f5 be
       -0.11359557 0.2377391 -0.0979574 -0.47980374
000290 29 4e 14 3f b6 d8 66 3f 23 9f 2b c0 b0 e2 ed bd
       0.5793176 0.90174425 -2.681588 -0.11615503
0002a0 93 82 fa 3d 90 80 88 bf 74 3e 0e be 40 d4 49 3e
       0.12231936 -1.0664234 -0.13891011 0.19709873
0002b0 0e c2 ce 3e d7 9e 9c 3d 0e 01 c2 3e 5e 25 61 3e
       0.40382427 0.07647484 0.3789143 0.2198691
0002c0 68 87 88 be 0b d6 13 c0 0a 29 9b be 26 cc 0a c0
       -0.26665807 -2.3099391 -0.30304748 -2.1687102
0002d0 10 ef c8 3c 08 8b 2f c0 2e 8b 8e bf 2d 0c ac bc
       0.024528056 -2.7428608 -1.1136224 -0.0210019
0002e0 c7 2c a4 3e db af 73 bd fc ad 33 bd 61 16 15 be
       0.32065412 -0.05949388 -0.043867096 -0.14559318
0002f0 1c 0d e7 3f 83 1a 0f be 49 ff d6 bf 11 00 7f 3e
       1.8050876 -0.13974957 -1.6796657 0.24902369
000300 f0 83 f9 bd 8d ba fc be 52 7e 86 3c cf 25 3d 3e
       -0.12183368 -0.49361077 0.016417656 0.18471454
000310 c5 c1 2c bf 78 17 c5 3c 3f fe 1d bf 03 4e f7 3e
       -0.6748317 0.024059042 -0.61716074 0.48301706
000320 ed 1d e3 3d 93 c1 09 be 67 15 88 be a5 9c d6 bf
       0.11089692 -0.13452749 -0.2657883 -1.6766554
000330 be d8 b6 bb 7d 40 14 be a3 f9 e0 3d 81 76 21 be
       -0.005580037 -0.14477725 0.109851144 -0.15767862
000340 79 3f 58 bf e7 31 1a bb 20 54 ec 3e 8f 5f 12 be
       -0.8447185 -0.002352828 0.46157932 -0.14294265
000350 e1 d6 75 3c ce 37 ba bd e1 74 2c bf 30 16 42 be
       0.015004844 -0.09092675 -0.67365843 -0.18953776
000360 19 87 00 be de ec a7 bd d5 a5 8d 3e 28 7e 8d 3d
       -0.12551536 -0.08199476 0.27665582 0.06908828
000370 f8 c3 88 bd 98 a0 92 3e 60 ce 42 3d 6e 80 7d be
       -0.06678003 0.28638148 0.047560096 -0.24756023
000380 4c 24 70 3e b7 77 a9 bf d3 2c b1 3d 3d 7e 59 3d
       0.23451346 -1.3239659 0.08651128 0.053098906
000390 36 e4 c4 bf 30 55 36 3f 24 65 3f bf af 83 60 3f
       -1.5382144 0.71223736 -0.74763703 0.87700933
0003a0 f1 67 91 be ce 59 69 be bd c4 c2 3d ef b3 c9 bf
       -0.28399613 -0.22788164 0.09510181 -1.5758036
0003b0 9e 21 64 3e 48 36 61 3d b9 e8 22 3f 2e af d4 be
       0.22278449 0.054983407 0.63636357 -0.41539901
0003c0 b9 44 46 3f 21 02 8e be cb ff 17 3e e8 07 d9 3d
       0.7744861 -0.27736 0.14843671 0.10597211
0003d0 dc db 58 be b8 0c 4f bf 07 de 6c 3e 24 a7 85 be
       -0.2117762 -0.8087878 0.23131572 -0.2610408
0003e0 6a 51 17 be 5b b4 5e 3d de 2d ac be 2a b8 ed 3e
       -0.14777151 0.05437122 -0.33628744 0.4642957
0003f0 d4 e0 48 be 38 7c 97 3d 83 34 d4 bc 2d 77 29 3d
       -0.19617015 0.0739674 -0.025903946 0.04137342

sequential_1/dense_2/BiasAdd/ReadVariableOp f4 [32]
000000 07 bb 3f 3e e4 ac 10 3f 52 5a 82 bd 56 b8 85 3e
       0.18723689 0.5651381 -0.063648835 0.261172
000010 18 0d 9c 3f 04 d9 c0 3e c7 8c 7e 3e e2 be c8 bb
       1.2191496 0.3766557 0.2485839 -0.0061262706
000020 6d 0f 91 3f b7 08 ad be b9 2a 0c 3f 79 ea f2 3f
       1.1332833 -0.3379571 0.5475269 1.8977805
000030 ab 29 8b 3d 16 9d f6 3e 22 84 72 bd 7d 54 da bd
       0.06795057 0.48166722 -0.059208043 -0.10660646
000040 a5 b8 0e 3f 47 97 09 3f c9 ab ae bd fc 1c 44 3f
       0.55750495 0.53746456 -0.08528859 0.76606727
000050 39 de 81 bd 14 94 7c bd df 82 42 3f af 65 ad bd
       -0.06341214 -0.061664656 0.75980943 -0.0846666
000060 40 50 14 3f 6f e6 ef 3e f1 28 15 3f d6 66 b3 be
       0.5793495 0.46855494 0.58265597 -0.35039395
000070 13 90 73 bd 30 92 03 be 86 88 d8 3e c4 c3 85 bd
       -0.05946357 -0.12848735 0.4229166 -0.0653148

sequential_1/dense_2/MatMul f4 [32, 112]
000000 38 c9 a4 be d7 b6 c9 bd a2 84 f9 3b 39 bd 19 be
       -0.32184768 -0.09849327 0.007614688 -0.15013589
000010 37 d3 31 3e c8 e9 03 bf 2c e5 31 be 63 02 e4 3d
       0.17365728 -0.51528597 -0.17372578 0.11133268
000020 11 d9 28 be dd ce 95 bd 53 03 fc bd 91 b8 6c 3f
       -0.16489054 -0.07314847 -0.123053215 0.92469126
000030 cd 9e a4 3d f1 c7 f3 bf 48 9e 4b 3f c7 99 a2 3d
       0.08038101 -1.9045392 0.79538393 0.07939487
000040 a3 ab 6e be 39 70 91 3e 64 81 f7 3e ae 5e e4 3e
       -0.23307662 0.28405932 0.48340905 0.44603485
000050 d0 46 22 bc 22 51 5b bc 5e d7 6e be 19 28 10 3e
       -0.009904578 -0.013386043 -0.23324344 0.14077796
000060 26 eb e2 bc 81 2b a0 bd b5 e8 b4 bd ea 37 12 3f
       -0.027700018 -0.07820798 -0.08833448 0.5711657
000070 85 0f c8 3d 07 0c 28 3e 69 67 d9 3d 22 5d 9a bd
       0.09768585 0.16410838 0.10615427 -0.07537295
000080 ee 26 a1 bc 96 f7 95 bc d0 56 f8 3e 7a 6b 49 3f
       -0.019671883 -0.018306535 0.48503733 0.7867962
000090 9b ce 24 3e 67 45 0c 3f 86 d1 79 be 74 50 4c be
       0.16094439 0.547934 -0.24396333 -0.19952565
0000a0 98 bc 50 be 5f 6b 92 3d 12 d0 2d be 11 c7 96 bd
       -0.20384443 0.07149386 -0.16973904 -0.07362188
0000b0 9a eb cb 3d ef f7 a5 be ce c5 3e bf f1 e2 94 bd
       0.09957047 -0.3241572 -0.74520576 -0.07269848
0000c0 10 13 80 3b e3 00 13 3e 47 81 70 bf ad 1c a6 be
       0.0039085224 0.14355807 -0.9394726 -0.32443753
0000d0 ff 42 e5 3d d0 ff 2f be c6 ce 79 be ee ef 26 be
       0.11194419 -0.17187428 -0.24395284 -0.16302463
0000e0 09 29 73 be 5b 18 cc 3d ef fe f3 3d 76 a5 f8 bd
       -0.23746122 0.09965583 0.11913859 -0.12140934
0000f0 0c d6 66 be 8d 2d 76 be bf 6f 31 bf dd d8 5d bd
       -0.2254259 -0.24040814 -0.69311136 -0.054161895
000100 cb 50 cf bc bc bc 18 3e fa e9 3f bf 3e 8c 07 3c
       -0.02530708 0.14915746 -0.74966395 0.008273182
000110 9e a3 99 3d 1a 22 27 be 66 3b b6 bc cf 65 d0 3d
       0.075019106 -0.16321602 -0.02224512 0.101756684
000120 51 84 10 bf 4d c8 4d 3e 35 fd 13 be 14 ab df be
       -0.564519 0.2009594 -0.1445206 -0.4368521
000130 bb 1e 7f be d6 61 1a bf 72 3a c1 bd c4 44 6d be
       -0.24914066 -0.60305536 -0.09434976 -0.23170763
000140 10 db 8d bd 52 b5 9f bd 5b f2 c3 bf 0f 65 32 be
       -0.069265485 -0.07798256 -1.5308336 -0.17421363
000150 fb 5e 0a be 49 53 76 bd 39 ad 94 be 91 31 9d bd
       -0.13512795 -0.06013802 -0.29038408 -0.0767547
000160 25 0a 6d be 06 56 b5 bd 26 a3 1e bd b4 a6 98 be
       -0.23148401 -0.08854298 -0.03872981 -0.29814684
000170 90 f1 79 be d9 8f 3d bf e5 81 85 3b 50 02 24 3c
       -0.24408555 -0.7404762 0.0040743225 0.010010317
000180 99 de e8 bd 42 70 b7 be ea 88 be bf 69 65 61 bf
       -0.11370582 -0.35827833 -1.4885533 -0.88045365
000190 90 3a eb 3c 19 bc de bc 0f d2 1e bd ea c9 ff bd
       0.028714448 -0.027189301 -0.038774546 -0.12489684
0001a0 78 d3 2b be 51 e1 4c bd 53 63 37 3c 5f d7 0e be
       -0.16779888 -0.050019566 0.011193114 -0.13949345
0001b0 36 e2 bb be 3c 63 29 c0 38 b1 36 3f bb 10 c3 3b
       -0.36696023 -2.6466818 0.71364164 0.005952922
0001c0 bc ca 05 3e d9 05 75 bd 1b dc 7b 3e 64 51 36 be
       0.13065618 -0.05982003 0.24595682 -0.17804486
0001d0 95 58 ff 3d 2c e6 82 bd 15 08 c0 bd aa 76 a3 3c
       0.124680676 -0.06391558 -0.093765415 0.019954044
0001e0 36 a5 36 3e e2 f3 3c 3c 7a 3b f0 3b 1f 04 dc 3d
       0.1783646 0.011532756 0.007331309 0.107429735
0001f0 26 08 8c 3d ca dd 01 bf 20 37 c7 3d de b6 89 3e
       0.06837492 -0.5072905 0.09727311 0.2689733
000200 70 26 64 3e eb 97 4b 3e 4f 9c 5e 3e 19 87 2e 3d
       0.22280288 0.19882171 0.21739314 0.042609308
000210 8e 44 38 3e bc 5e 29 be bc ed e6 3d b2 31 67 be
       0.17994902 -0.16540045 0.11275813 -0.22577551
000220 a6 c9 1d 3e 20 23 dc 3d 6f f4 f8 3d d6 e9 3c 3d
       0.15408954 0.10748887 0.12155997 0.04612144
000230 cf b1 15 3e eb ec 78 bf 70 9c 76 3e ce de 15 bd
       0.1461861 -0.9723651 0.24083114 -0.036589436
000240 15 0c d1 bd fd b5 99 3e 3c dd c0 3d 8f a4 c0 be
       -0.102073826 0.3002166 0.09417197 -0.37625548
000250 a2 09 2e be df 98 e5 be 5c 9d 5e be cb 99 a2 bd
       -0.16995862 -0.44843194 -0.21739715 -0.0793949
000260 21 5b 0e be 84 3c 3c be 87 22 d5 3d 4d dc 6b be
       -0.1390195 -0.1838246 0.10406976 -0.23033257
000270 0c 1e 29 3d ca ed 7a bf 3f db 7a 3e 69 a1 46 be
       0.04128842 -0.9801909 0.24497698 -0.1939751
000280 6a d2 90 bd d3 ce 31 3e d9 84 b6 3e 7d 5b fc 3d
       -0.07071383 0.17364053 0.3564823 0.123221375
000290 96 24 99 bd 84 9d 1f bc 06 d3 1a 3d f5 8c 93 3c
       -0.07477681 -0.0097421445 0.037798904 0.01801155
0002a0 8e 68 68 bd f9 dc 15 be b0 62 65 3e ba 22 c2 bd
       -0.056740336 -0.14635076 0.22400928 -0.0947928
0002b0 a7 bc cb 3d 36 00 32 bf 7a a3 3b 3e 49 dd 54 3e
       0.09948092 -0.6953157 0.1832408 0.20787539
0002c0 25 d3 88 3d 59 5b 3b 3e fb 7b c2 3d ac b9 2f bd
       0.066808976 0.18296565 0.09496304 -0.04290168
0002d0 72 3e b4 3d 58 72 cb bd 30 a3 3b 3e 05 b8 e8 3d
       0.08800973 -0.09933919 0.1832397 0.11363224
0002e0 26 fb a4 bd 30 6e 04 3c 5b d9 4e 3e 88 eb 87 3e
       -0.08055715 0.008082911 0.20200102 0.26546884
0002f0 84 fd 2c 3e b4 b2 91 bf 20 b9 55 3d 7f 8d 19 be
       0.16893584 -1.1382661 0.052178502 -0.14995383
000300 6f 48 35 3e f7 3f 27 3d 04 f1 22 3e 95 56 95 bd
       0.17703412 0.040832486 0.15912253 -0.07291905
000310 81 6f 52 bb fb 88 bb be 3a d5 fc bd 95 6c 61 bd
       -0.0032109919 -0.36627945 -0.12345357 -0.055035193
000320 90 f0 fa 3d ac 98 08 3e 2f 7f e2 bd 74 c6 44 3d
       0.12252915 0.1333949 -0.110594146 0.048040822
000330 20 b7 03 3e ba ad 91 bf 10 b8 ff bd 43 56 35 3e
       0.12862825 -1.1381142 -0.12486279 0.17708687
000340 f5 83 9f bd 85 10 2c be da 30 cc 3e 19 b8 fc 3d
       -0.07788841 -0.16803177 0.3988102 0.12339801
000350 d7 03 8e 3d 02 8b 2e be 66 02 dc 3d 7e 53 75 be
       0.06934326 -0.17045215 0.10742645 -0.23957631
000360 25 81 08 be 52 42 fa bd 9b c3 3f 3d dd d7 bb 3d
       -0.13330515 -0.12219681 0.046817403 0.09172032
000370 bd e0 eb 3d b5 d9 6f be 6f 6c 23 3e d7 76 4d 3e
       0.11517475 -0.23422892 0.15959333 0.20064865
000380 a6 47 14 3f ae 44 86 be 96 7f 85 be 09 5e 0b bd
       0.57921827 -0.26224273 -0.26073903 -0.034025226
000390 dd 52 f0 bd 56 be ad 3d 3a fc d7 bd b2 9a ab 3c
       -0.11734555 0.08483569 -0.10546155 0.020947788
0003a0 4e 9b 1b bf 99 ef 9e be c6 59 51 be c7 72 f7 bd
       -0.6078385 -0.31042174 -0.20444402 -0.12082439
0003b0 dc 05 f0 3e 08 ac 87 be f5 61 de 3e 53 b0 f9 bd
       0.4687947 -0.26498437 0.4343411 -0.12191834
0003c0 9a d7 9f be f5 e3 cb 3d d5 bd f0 bd 20 41 b5 bd
       -0.31219178 0.09955589 -0.117549576 -0.08850312
0003d0 6b c3 6d be c0 e0 25 be 92 cf 03 3c 7a 7b 9d 3d
       -0.23219077 -0.16199017 0.008045094 0.07689567
0003e0 3a f0 82 bf 56 f7 eb 3d c0 e2 e6 3d 5a d0 df be
       -1.0229561 0.11521785 0.11273718 -0.43713647
0003f0 51 2d 55 be be 73 d8 bd 77 35 8b bd 41 36 03 bd
       -0.20818068 -0.10568951 -0.06797307 -0.032034162

sequential_1/dense_3/MatMul f4 [1, 32]
000000 d9 08 0d bf f7 ac 7b 3e f3 bf 12 bf 86 34 0c bf
       -0.55091625 0.245777 -0.5732414 -0.54767644
000010 25 06 37 bf e3 45 08 3d ee 27 09 be 3b e9 e8 3b
       -0.7149375 0.033269774 -0.13394138 0.0071078814
000020 6c d9 c8 be b0 0a 8a be 56 b2 9e 3e 0f 08 8e be
       -0.3922838 -0.2696128 0.30995435 -0.27740523
000030 fb 2d 30 3e 2e e6 4d 3e 81 ab c2 bd 7a f1 c7 be
       0.1720504 0.20107338 -0.09505368 -0.3905142
000040 de 25 d1 3e 15 da 14 3e 16 ab c4 bd 83 80 e3 3e
       0.40849203 0.14536317 -0.096029446 0.44433984
000050 91 7d 8f be 4c 2e 88 be af 7d 1c 3f 20 3f 5e be
       -0.28025487 -0.26597822 0.6112928 -0.21703768
000060 76 8a 4c 3e ab c2 8c 3e 38 88 53 3e 72 58 8f be
       0.19974694 0.2749227 0.20657432 -0.27997166
000070 3c 9c 69 be ed 51 0a bf 36 1b 18 3d 4d 4c 88 be
       -0.22813505 -0.5403126 0.037135325 -0.26620713
